kikunaga/models/MATD3/MATD3_trained_agent.pt (torch, 834154 bytes, 128 tensors)

feature_net.linear_layer_0.weight f4 [496, 3]
00000000: 9406 b7be 0b0b 323e 97c1 68be e4f9 993f
00000010: 7471 163e 24c6 82bc d52b b4bf b854 43bf
00000020: aaa3 2b3e 5ebf ef3e 6642 17c0 d24c 5cbe
00000030: 1b80 97bd 4747 22be 6198 7d3f 8942 813f
00000040: 8bdb b53f 1234 6a3d 72ba 11bf 768c 8c3c
00000050: 9c02 80bf 5575 17bf 790d 113f b6fb 2dbf
00000060: eedf cf3f 48e8 f3be ae6a 5fbe d194 e43e
00000070: f066 86be 14b3 91be 7987 f73d fc71 af3d
00000080: 7aa3 843f e44e 433e a334 a53e c13c 71be
00000090: f34b 843f 39fc 8bbe fe67 4fbf 5e78 1b3f
000000a0: 1764 8bbe 604d 58bf 6503 823e f40a 1f3f
000000b0: 9c41 31be c5cb 113f 1c77 d1c0 3263 e6be
000000c0: 17a7 2dbe ce4e b83f 9bab 6fbe 0863 f13d
000000d0: 7e1c 893f 19c6 0ebf 9722 c13f c9dd e33e
000000e0: 6cef c73e 0a77 0041 08d1 a33e 9ecc 473e
000000f0: 339b d53e 59cc 193f 946e 3b3f 073f 573f
00000100: 8839 22be 631c 0abf 2290 0d3d b85a 2440
00000110: 8932 a8be e6fe c83c 3275 ecbd b955 ccbe
00000120: b99e 2d3f 40c2 073f 1ef7 0e3e 6b94 b43f
00000130: fdbc 0dbf a105 10be d506 8f3d 50fa 0ebe
00000140: 1fc4 62bf 3f1a e93f 7093 63be b9d7 153f
00000150: 87f6 893f 94ff b639 3961 273e 5724 5bbe
00000160: 07cc be3f cd62 56bd ab51 03bf 3ab0 75be
00000170: 3bae 11bf 6842 c73d 585f 57bf 85c6 5abf
00000180: 8d51 c63f c988 373d d71a 903e 9b9f 843e
00000190: bafc 30bf b241 c23e 5c53 313e 5cb1 d5bd
000001a0: 3fb6 b63e 5c31 e53d ec30 c6be f594 5240
000001b0: 6dd3 03be 0abf 46bf 0557 0f3f f964 37bd
000001c0: 0955 2cbf 989b 01bf 8dc8 623e e35c 7d3f
000001d0: 3cc0 bd3c 81e1 8b3d 0b58 243f 5389 ddbf
000001e0: 2b57 573e bf45 323f bc7b 7cbe ce56 5fc0
000001f0: f236 8abf 0622 87be 0a77 c63f 8a46 41bf
00000200: baa2 0d3e 82ea 323f 66cf b73e 76a6 c53e
00000210: 6d13 533f 5816 983e 45c9 34be d688 6c3e
00000220: 1b71 98bf ba61 f43f d909 7a3d 8243 7f3f
00000230: 48a4 973e 618f 41be 60d5 5f3f 665c 033e
00000240: 904e 9d3c 35a8 a9be 050e 4b3f 16cd 263f
00000250: c88c 48bd 25f5 e43e 7f8d e43e 8ab8 8f41
00000260: b98a 583f 7aff 02bf e358 db3e 8035 5fbf
00000270: f5f9 373f 616a 0540 bb7f f83e 1d94 923f
00000280: b751 3e3f 0848 8e3e 4d93 993d 5c92 01bf
00000290: ebd8 5bbf 521e 31bf 1d01 393f d886 bdbd
000002a0: 0477 553f d881 a63e 11cd f13e 93e4 543f
000002b0: 7d6d 483e 8df2 c83e e0d1 86bf 4ad1 993f
000002c0: fbdf 633d 4fbe b93d 78cc fabe 2385 88be
000002d0: cbd2 883d 1240 aebe 032a 5fbf aa91 07be
000002e0: 912c 5f3f ccfa 76be f9a5 6f3f bd30 103f
000002f0: 3b49 b93f 8198 2abe 9064 213f b710 88be
00000300: 387e a63e 9346 9fbe f814 903f 3190 38c0
00000310: 875a 8e3f 62a9 9dc0 492f c23e d794 7fbf
00000320: 927a 2e3e 3086 83bd 3b3a 21bf 7e86 d43e
00000330: 07fb 0b3e e5c2 15bf abf0 103d a31f fa3e
00000340: 14a6 36be fa33 c83e 9d6a 7a3f 5e2e e13e
00000350: 660f 583e 718e a3be b4ff 83bf a7ca 9f3e
00000360: 7c71 c4bd 3c9d 83be cf24 26be 5de4 52bd
00000370: eedc 9a3e c916 f4bd a5b1 783e 3f57 99be
00000380: b24b 48bf 4f1b 763e b67e fe3f d473 fc3d
00000390: 1416 f03e 5707 f7bd e553 843d 4194 93bd
000003a0: 85e4 2abf 7f6c 46be 3bf6 bb3f 54c8 313e
000003b0: c4db 203e 45b0 5dbe e997 f13e 3d2d 2bbf
000003c0: 5e7d 083e 0373 b6bd 21e0 dfbe 304a 223c
000003d0: b944 4dbf 4f6a 433f 924d c540 2312 823f
000003e0: daa0 403d 5570 143f 31de 4d3f 1d4e 113e
000003f0: 384e 803e bf93 edbd 7eb2 5cbe eb95 943e
-0.35747206 0.17387025 -0.22730099 1.2029386 0.14691716 -0.015963621 -1.4075876 -0.76301146
0.16761652 0.4682569 -2.3634276 -0.2151368 -0.07397481 -0.15847503 0.99060637 1.009843
1.4207624 0.057178564 -0.5692512 0.01715682 -1.0000796 -0.5916341 0.5666118 -0.67962205
1.6240213 -0.47638154 -0.21818039 0.44644788 -0.2625041 -0.28456938 0.12086386 0.08566663
1.0362389 0.19073063 0.3226672 -0.23558332 1.0335678 -0.27340868 -0.81018054 0.6073054
-0.272248 -0.84493065 0.25393215 0.6212609 -0.17310184 0.5695155 -6.5457897 -0.44997555
-0.16958271 1.4399049 -0.23405306 0.11786467 1.071182 -0.55771023 1.5088681 0.44505146
0.39049852 8.029062 0.31995416 0.19511649 0.4171997 0.60077435 0.73215604 0.8408055
-0.15842259 -0.53949565 0.034561284 2.568037 -0.32851055 0.024535608 -0.11545791 -0.3990915
0.67820317 0.53030777 0.13961455 1.4107794 -0.553665 -0.14064647 0.06983725 -0.13962674
-0.8858051 1.8211135 -0.22224212 0.5853229 1.0778359 0.00034904166 0.16345681 -0.21400581
1.4906014 -0.052340318 -0.5129649 -0.23993006 -0.5690648 0.09729463 -0.8412986 -0.85459167
1.5493637 0.044808183 0.28145477 0.2590302 -0.6913563 0.37940747 0.17316955 -0.10434219
0.35685918 0.11191055 -0.387092 3.2903416 -0.12873621 -0.7763525 0.55992156 -0.04477403
-0.67317253 -0.5062804 0.22146817 0.9896986 0.023162954 0.06830121 0.6419684 -1.7307533
0.21029346 0.69637674 -0.24656576 -3.4896731 -1.0798018 -0.26393145 1.5505078 -0.7549826
0.13831607 0.6988908 0.3590042 0.38603562 0.82451516 0.29704547 -0.17654903 0.23099074
-1.1909517 1.9092324 0.061044548 0.99712384 0.29617524 -0.18902351 0.8743496 0.12828216
0.0192025 -0.33136144 0.7931827 0.65156686 -0.048962384 0.4471828 0.44639203 17.965107
0.84586674 -0.51171076 0.42841253 -0.8719101 0.7186578 2.0846179 0.4853495 1.145145
0.74343437 0.2778933 0.074987985 -0.5061395 -0.85877866 -0.6918689 0.72267324 -0.09254235
0.8338473 0.32520938 0.47226766 0.83161277 0.19573016 0.39247552 -1.0532799 1.2016995
0.055633526 0.090695016 -0.48984122 -0.26664075 0.066808306 -0.34033257 -0.8717348 -0.1323916
0.8717738 -0.24119109 0.9361263 0.5632437 1.4475473 -0.16659738 0.6304407 -0.26575252
0.32518172 -0.3110853 1.1256399 -2.8838007 1.1121377 -4.9269266 0.379267 -0.99836487
0.17038944 -0.064220786 -0.6297948 0.4150886 0.13669978 -0.5850051 0.03538577 0.48852262
-0.17836791 0.39102155 0.9781893 0.43980688 0.21099624 -0.31944612 -1.0312409 0.312093
-0.09591958 -0.25705898 -0.16224979 -0.051487315 0.3024668 -0.119184084 0.24286516 -0.29949376
-0.782405 0.24033855 1.9882419 0.1232678 0.46891844 -0.12061947 0.06461314 -0.072060116
-0.66754943 -0.19377325 1.4684519 0.17361575 0.15708834 -0.21649273 0.4718621 -0.66865903
0.13329074 -0.089086555 -0.43725684 0.009905383 -0.8018299 0.7633409 6.165719 1.0161785
0.0470284 0.57983905 0.8041716 0.14189954 0.25059676 -0.11600446 -0.21552464 0.29020628

feature_net.linear_layer_0.bias f4 [496]
00000000: 3abc 5cbe 9a57 fb3e e562 423e f309 da3d
00000010: 2ea8 583c 4785 253f f603 9cbd af27 023e
00000020: 1fc0 e53e ff20 883e 21f4 363e c854 a63e
00000030: e76d 4b3e 7dbb b9be 3e1d ce3e b192 04bd
00000040: fb37 dd3e ed71 173f b142 603f bb0b 0e3f
00000050: 6dec 143f 03ba 273d 9e99 293f 6bb8 fcbd
00000060: c9f8 033f 87b7 f83d d647 eebd c75b 973e
00000070: e901 a13e 4eab ad3e 48a6 9cbd a183 01be
00000080: 0015 863e a7a8 32be a8f6 163e 2885 bfbd
00000090: 59cc 13be ba41 24be d14c 123f a529 28be
000000a0: 40ef 0d3e 3fe3 b13d 67da 9d3d ae68 dc3e
000000b0: 93f1 0c3f 0394 553d 8e79 1a3f a82c febd
000000c0: 7a52 0b3e 497e d13e 8568 1d3f aae2 debe
000000d0: 1efb d23e 7989 7a3f c043 46be b273 9c3c
000000e0: 1fdb 533f 74b9 1b3f dd29 703f e9c0 ccbd
000000f0: 87cb 48be abbc 073f 313c 583f 4ed5 1b3d
00000100: a4c1 c73e 5235 9f3e 11fe 11be c7fe 7abe
00000110: ce4d fabd 51b5 523e f226 383f 79c2 febd
00000120: f993 e9bc d1f8 7d3e 380e 21be 25e0 513f
00000130: 314b 8e3e ad07 a6bb 956c 243e 4dff 76be
00000140: 63e3 08be 708a a3bd 0094 a43d b4b1 193f
00000150: 3464 813d ff8e b63e cc8c dbbd 358e cf3e
00000160: a8f4 6bbd 49ab b03e bfa0 513f 4141 0f3f
00000170: fc67 613f b3c2 183f ab7c d73e 4b3d a4be
00000180: b2b9 25be fdb4 01be 9116 143d a71a 2d3e
00000190: 5be0 cebd 4920 e73c 0761 39be 60db 77be
000001a0: 2e34 7fbd 8437 a0bd b9af 19be 988a fe3e
000001b0: 1301 adbd 5db5 2abd a17b 923d e0a1 fc3d
000001c0: ff40 26be a15e 75be eb02 3c3d 8fb5 c2bd
000001d0: e487 77bd eee1 1abe d9d5 42bd 1475 3fbd
000001e0: 9284 c1be 25e1 8abc 2853 c3bd 452a 76be
000001f0: 2fbd 87be c3fd 09be 4ae8 49be 73e2 a43d
00000200: 68c5 093e 8f1b e73c 55b7 273f a6a1 fa3e
00000210: 3fe6 cebd 6f56 e7bd fe24 923d 9171 113f
00000220: 027d 7e3e 761d 703e 0f07 2f3f eb4b 70bd
00000230: 24df ea3e 9bd8 e7bc 6e0e 993e e702 d9bd
00000240: 82df 06be b001 113e e4f4 f83e 031e 863e
00000250: 8fa5 7bbc 8a56 1b3f 9a9b 7abd b0ea 9dbd
00000260: e22c ae3e c134 56bd 9825 cabd f309 083f
00000270: 8011 41be bd4d cd3e c4f9 11bd e573 e83b
00000280: 61b5 723e 4f06 dcbd 8994 24be b85e 10be
00000290: 81e1 82bd 36d7 523f 5f4f ef3e 4bce c33e
000002a0: 6f28 3cbe 7ade e2bd 73e9 4ebe 40c9 56bd
000002b0: d5fa b0be d17f bc3e 0663 97be eaf1 f2bc
000002c0: 42b1 0b3e c895 0e3e d364 213f 5d83 13be
000002d0: 23b4 453f 6f68 fd3e 3ef0 853e 6753 32be
000002e0: 1886 a1be 10b7 df3e 37aa c2bd 3add 0fbe
000002f0: 9967 babd 6edb 613e e0b4 b9bd 3c88 7dbb
00000300: 2019 7f3e e814 48be fad5 043f bd0f 803e
00000310: 4ccd 7dbe e876 7f3e 44a8 eb3d 75bf 6b3f
00000320: 5049 f1bc e270 94bd fd1f df3e bc69 fa3e
00000330: ea13 62bd 2901 ce3e 676c 063f f577 903b
00000340: 8cf8 e43e 3e1f 583e 2a80 c63e 66b9 8cbe
00000350: d517 433f 6b7a adbd d972 313e 2704 d63e
00000360: 7c80 8bbd 72e6 8cbd e9c5 fa3e bed2 e53e
00000370: e3eb 12be d2f7 7abe d346 82bd dc4b 063f
00000380: 94f6 0e3f 8d38 523e 03dd d9bd 6d35 9dbd
00000390: 9e8b 543e ef43 503d 20c7 09be 3b4d 5f3e
000003a0: f2ff 45bc 74a4 923d 8b04 82bd e3b6 913d
000003b0: aff2 adbd 46f6 82bd f960 00be 181d 183e
000003c0: 0579 e8bd 47a4 663c 3ea4 cdbc ec70 4d3e
000003d0: bb62 7fbd 4361 09bd 5b87 febc 226f 70bd
000003e0: cde7 eb3d ebac 613e bde7 323e 9d97 c0bd
000003f0: c434 b43d 26cd 29be c9a1 873e 804f b0bd
-0.21556178 0.49090272 0.18983038 0.10646429 0.013223691 0.6465649 -0.07617943 0.1271045
0.4487314 0.26587674 0.17866565 0.32486558 0.19866143 -0.36275855 0.40256685 -0.03236646
0.43206772 0.5915821 0.87601763 0.5548665 0.5817326 0.04094888 0.66250026 -0.123398624
0.5155149 0.1214438 -0.11634795 0.29562208 0.3144677 0.33919758 -0.07648903 -0.12647869
0.26187897 -0.17447148 0.1474253 -0.093515694 -0.14433421 -0.16040698 0.5714846 -0.16422136
0.13860798 0.08685922 0.077076726 0.43048614 0.55056113 0.052143108 0.6034173 -0.12410861
0.13605681 0.4091666 0.6148761 -0.43532306 0.41207212 0.97866017 -0.19361782 0.019098137
0.8275623 0.60829854 0.9381388 -0.09997732 -0.1960889 0.5302226 0.84466845 0.03804522
0.39014924 0.31095368 -0.14257075 -0.24511252 -0.12221871 0.20576979 0.71934426 -0.124394365
-0.028512942 0.24801947 -0.1572808 0.8198264 0.27791741 -0.005066833 0.16057046 -0.24120827
-0.13367991 -0.07985389 0.08036041 0.6003678 0.0631794 0.35655972 -0.10720214 0.40538183
-0.05760637 0.3450568 0.81885904 0.55958945 0.8804929 0.5967209 0.42087302 -0.32078013
-0.16184118 -0.12666698 0.036154334 0.16904698 -0.10101386 0.028213637 -0.18103419 -0.24204779
-0.06230562 -0.07823089 -0.15008439 0.49715114 -0.084474705 -0.041676868 0.071524866 0.12335563
-0.16235732 -0.2396188 0.04590122 -0.09507286 -0.06043233 -0.15125248 -0.047567222 -0.046742514
-0.37796456 -0.01695306 -0.09537345 -0.24039562 -0.26511523 -0.13475709 -0.19717517 0.08051004
0.13454211 0.028211383 0.6551412 0.48951453 -0.1010251 -0.11295783 0.07135962 0.56813914
0.24852374 0.23448738 0.68370146 -0.05866615 0.45873368 -0.028301528 0.2989382 -0.10596257
-0.13171199 0.141608 0.48624337 0.26194772 -0.015359296 0.60678923 -0.06118355 -0.07710779
0.34018618 -0.052296404 -0.09870452 0.5314018 -0.18854332 0.40098372 -0.035638586 0.007093894
0.23702003 -0.10743391 -0.16072287 -0.14098632 -0.06390668 0.82359636 0.46740243 0.38243327
-0.18374799 -0.1107759 -0.20206241 -0.05243802 -0.3456637 0.36816266 -0.29567736 -0.02965637
0.13641837 0.13924325 0.6304447 -0.1440558 0.7722799 0.4949374 0.26159853 -0.17414628
-0.31547618 0.43694353 -0.09505122 -0.14049235 -0.09101791 0.22056362 -0.09067702 -0.0038685938
0.24911928 -0.19539225 0.51889 0.25012007 -0.24785346 0.24947703 0.115067035 0.92089015
-0.029453903 -0.07248093 0.43579093 0.48908794 -0.055194773 0.4023526 0.5250916 0.0044088312
0.44720876 0.21105668 0.38769656 -0.27485198 0.7620824 -0.08470615 0.17328967 0.41800043
-0.06811616 -0.068798915 0.48979118 0.44887346 -0.14347796 -0.24508598 -0.06361165 0.524595
0.55845 0.20529385 -0.10637858 -0.07676206 0.20756385 0.050846037 -0.13454866 0.21806805
-0.012084948 0.07160273 -0.06348523 0.07114961 -0.08493554 -0.06394629 -0.12536992 0.14854848
-0.11351208 0.014077253 -0.02510273 0.20062608 -0.062350016 -0.03354002 -0.031070402 -0.058699735
0.11518822 0.22038619 0.17471214 -0.09403918 0.08799127 -0.16582164 0.2649062 -0.086089134

feature_net.layer_norm_0.weight f4 [496]
00000000: e113 7e3f 5950 8a3f 9611 7d3f daad 4b3f
00000010: f047 343f ad24 a33f 0000 803f a4cc 6f3f
00000020: faea 843f de56 643f b7e8 8a3f d439 8e3f
00000030: 2a5b 743f 13b8 6c3f a62b 8a3f 0000 803f
00000040: d2de 6f3f f943 653f e528 ab3f 2baf 833f
00000050: 9d61 923f 0296 6a3f 60c2 ac3f 029c 793f
00000060: b797 9e3f e0b5 7f3f 8bb9 8d3f 6468 993f
00000070: 5e78 7b3f 679a 8a3f 0000 803f 0000 803f
00000080: ea08 883f 36eb 673f e7f8 7a3f 7460 873f
00000090: 7904 673f f7ff 7f3f 0fbf ae3f 5884 4c3f
000000a0: f48b 743f 0000 803f 8c61 543f 6abe 9b3f
000000b0: 9768 8a3f 06a4 8d3f 07e2 803f 4494 6a3f
000000c0: a419 7e3f 1a7f 773f 6678 7a3f 0000 803f
000000d0: c497 9d3f 6449 b13f 0000 803f 670f 753f
000000e0: 7195 a83f 26de a23f 2398 bc3f 8fea 713f
000000f0: a763 7a3f e5f3 6d3f dd06 b03f 9a02 603f
00000100: 739d 6e3f f72b 593f a8fd 683f e184 723f
00000110: ed32 653f 9092 6f3f 3669 943f 8691 6e3f
00000120: a06f 6b3f 3099 6c3f 9d12 863f af29 a33f
00000130: 51fc 3d3f df87 713f cae4 753f 8b50 763f
00000140: 0fe0 643f 399a 4d3f 1932 893f 2881 9d3f
00000150: 83c6 433f d155 a23f 7ed3 843f 5986 7a3f
00000160: b6dd 2f3f 7db2 423f 2146 af3f be56 7e3f
00000170: 3a79 693f b28b 863f d392 573f 0000 803f
00000180: ecaa 823f 87bf 6b3f 3402 683f 4b9b 743f
00000190: 5252 753f 3a21 723f 907a 793f 0000 803f
000001a0: 9695 7d3f d9ff 673f 4f00 533f 998b 8e3f
000001b0: bd6d 553f 74ee 803f 1730 7e3f ae6b 803f
000001c0: 9ccd a13f 0000 803f 5493 673f bc2a 5d3f
000001d0: 66d7 7c3f 9e6c 7e3f 03c1 693f 0000 803f
000001e0: 0000 803f d3b2 8a3f 5534 753f 0000 803f
000001f0: 56a5 4f3f 47b2 573f 3c23 7c3f 3008 603f
00000200: 6172 793f ee6f 5f3f 1ce3 933f f4d3 8d3f
00000210: 0000 803f 0000 803f 0683 7a3f 8a86 9c3f
00000220: 0f2b 863f 2ebf 673f adf0 9f3f 858c 6e3f
00000230: d4c7 8f3f 5fe6 733f 9fdb 833f 3d93 5b3f
00000240: 7283 713f e52d 7b3f 8faa ad3f e251 8e3f
00000250: c45a 863f 6724 903f b865 703f 7b91 7e3f
00000260: 0cae 9b3f f0e4 7b3f 0000 803f 2dfb 9b3f
00000270: 0000 803f e739 833f 468e 613f ce78 a63f
00000280: 84a8 2d3f 0000 803f 399f 683f 9990 7a3f
00000290: 4356 8d3f 0c71 a73f 5d9d 8e3f 36f0 8e3f
000002a0: 0000 803f 74d7 7e3f d86f 7f3f 2199 993f
000002b0: 865f 4c3f b773 8e3f 0000 803f 4d70 613f
000002c0: 9209 5c3f 9819 653f 1e77 ab3f 9cd8 6e3f
000002d0: c992 a03f 2a3a b93f 779a 833f ccdd 823f
000002e0: 0000 803f c7ca 953f 1d34 773f 9557 693f
000002f0: 2af7 873f f6d9 573f 61e5 543f 2f37 493f
00000300: af48 8b3f 6127 603f bdbe 923f 0e68 7a3f
00000310: 0000 803f 46e1 853f 2f20 803f 0772 a43f
00000320: 4f34 863f f22c 913f 96c9 8c3f 646c a23f
00000330: db43 8e3f 37e2 a43f c607 b53f e12e 803f
00000340: 9370 7a3f 09b2 713f 4e9b 8a3f 0000 803f
00000350: 3882 c33f c80f 733f 741c 673f 95ba 9f3f
00000360: 4ee1 703f 00e1 6c3f f36f a23f 4e5b 973f
00000370: 0000 803f 7645 7f3f 0000 803f d0a0 9f3f
00000380: df4f b13f 94c4 5b3f f766 653f cced 5a3f
00000390: dc2a 863f 8225 673f 91a8 7e3f 9e68 603f
000003a0: 75ca 723f 0053 6c3f 6092 713f d516 6b3f
000003b0: ca77 6f3f c686 703f 0000 803f 0485 713f
000003c0: 0000 803f b037 633f 89e5 813f 6486 863f
000003d0: 0000 803f 986d 683f ce65 653f 306e 673f
000003e0: 4442 4c3f 8ce6 813f 8416 763f 7665 643f
000003f0: 5298 613f 0000 803f 2374 913f d379 7c3f
0.9924908 1.080577 0.9885496 0.7956215 0.7042227 1.2745568 1.0 0.9367163
1.0384209 0.8919505 1.0852269 1.1111398 0.95451605 0.92468375 1.079457 1.0
0.9369937 0.89556843 1.3371855 1.0287832 1.1436039 0.91635144 1.3496819 0.97503674
1.239005 0.99886894 1.1072248 1.1984982 0.9823054 1.082837 1.0 1.0
1.062772 0.9059328 0.98036045 1.057631 0.902412 0.99999946 1.3652056 0.7988944
0.9552605 1.0 0.82961345 1.2167485 1.0813168 1.1065681 1.0068978 0.91632485
0.99257874 0.96678317 0.97839963 1.0 1.231194 1.3850522 1.0 0.9572663
1.3170606 1.2724044 1.4733928 0.94498533 0.9780831 0.9295028 1.3752095 0.8750397
0.93209 0.8483271 0.9101205 0.9473401 0.8953083 0.9358301 1.1594608 0.931908
0.919672 0.92421246 1.047443 1.2747096 0.7421313 0.9434795 0.9605223 0.9621665
0.89404386 0.8031345 1.0718414 1.230504 0.7647478 1.2682439 1.0377042 0.9786125
0.6869768 0.760536 1.3693277 0.9935111 0.912006 1.0511382 0.8420841 1.0
1.0208411 0.9208912 0.9062836 0.9554946 0.95828736 0.9458195 0.9745264 1.0
0.99056375 0.9062477 0.82422346 1.1136352 0.8337057 1.007277 0.9929213 1.0032861
1.2640872 1.0 0.9045918 0.8639333 0.9876617 0.99384487 0.9131014 1.0
1.0 1.0835823 0.9578298 1.0 0.8111166 0.84256405 0.98491263 0.87512493
0.97440153 0.87280166 1.1553683 1.1080308 1.0 1.0 0.97856176 1.2228558
1.048189 0.9052609 1.2495323 0.93183166 1.1232858 0.95273393 1.0301398 0.8577154
0.94341195 0.98116904 1.3567675 1.1118739 1.049645 1.1261109 0.9390521 0.99440736
1.216249 0.98396206 1.0 1.2186028 1.0 1.0252045 0.8810772 1.3005617
0.6783526 1.0 0.90867954 0.9787689 1.104195 1.3081374 1.1141773 1.1167057
1.0 0.99547505 0.99780035 1.1999856 0.7983326 1.1129063 1.0 0.8806198
0.85952103 0.8949218 1.3395727 0.9329927 1.2544795 1.4470875 1.0281514 1.0223937
1.0 1.1702508 0.96563894 0.91149265 1.0622303 0.84316957 0.83162504 0.7859983
1.0881556 0.8756009 1.1464459 0.97815025 1.0 1.0459373 1.0009822 1.2847298
1.0484713 1.1341841 1.0999019 1.2689328 1.1114458 1.2881535 1.4142997 1.0014306
0.97828025 0.94412285 1.0828645 1.0 1.5274115 0.94945955 0.9027779 1.2478815
0.9409379 0.9253082 1.2690414 1.1824739 1.0 0.99715364 1.0 1.2470951
1.38525 0.8584683 0.89610237 0.855191 1.048183 0.9029161 0.9947596 0.87659633
0.94840175 0.9231415 0.94363976 0.91831714 0.9354216 0.9395565 1.0 0.9434359
1.0 0.8875685 1.0148174 1.0509763 1.0 0.90792227 0.89608467 0.9040251
0.79788613 1.0148482 0.96128106 0.8921732 0.8812305 1.0 1.1363567 0.9862339

feature_net.layer_norm_0.bias f4 [496]
00000000: 1a36 52bd 62cb 4f3d 2af7 a5bc 4d2c 62be
00000010: a021 b6be 1aac bf3e 0000 0000 a1bc 89bd
00000020: 9bba 953e 142d 26be b614 a03e ac6d df3c
00000030: 4f0d 813e 43dc 88bd edcf 153d 0000 0000
00000040: 5cf3 00be 1f14 cfbd 7295 c73e a885 4d3e
00000050: c4e2 293e 6ec5 4cbd 0cfd 953e 4225 dfbc
00000060: 9b2a 993e b84f b83c c172 3b3c 0f9c b83e
00000070: d896 8dbd 5026 913d 0000 0000 0000 0000
00000080: 3e52 c33d 889d eebd 2247 37bd 201c 15bb
00000090: 4bfd ebbd 785d 93b8 8d7f 9b3e 3f37 5dbe
000000a0: abb3 ecbd 0000 0000 c63b 4cbe dc77 843e
000000b0: f04e dc3d ed5a 8e3e bb9d 60bd 3d54 08be
000000c0: cbe2 7abc f297 70bd 403c 82bd 0000 0000
000000d0: bdb5 743e b5b1 e13e 0000 0000 66bf 84bd
000000e0: 8ec1 b23e 6ad2 b53e 7675 e93e b74f 63bd
000000f0: 7bf1 603b 17e6 0cbe 7625 e03e ab47 03be
00000100: 9596 eebd 690d 2bbe 1612 c2bd 0760 a9bd
00000110: db8b e4bd 877a 3a3e 25a5 f93d 69c2 8bbd
00000120: 2193 c5bd c836 c0bd aafb d53c d43e 9a3e
00000130: a181 85be a45a 6abd 6433 96bd 1403 53bc
00000140: e038 f1bd 84eb 6dbe f0a5 3e3e 2021 8b3e
00000150: c9b4 80be efe8 643e 9b07 b23c ec9a 92bd
00000160: f4dc a4be 658f 89be 5fd2 d23e 3e92 23bd
00000170: 73d3 aebd 6088 653d d8d6 2bbe 0000 0000
00000180: 1857 c03c 4235 d0bd 5250 07be 22da 67bd
00000190: fc3f a4bd 6bef b9bd 4475 dabc 0000 0000
000001a0: fab5 9e3c f58d bbbd f8ec 51be b297 f63d
000001b0: 26f5 42be 04c7 2b3d 10c8 e0bc 7a50 6ebc
000001c0: 224b 8b3e 0000 0000 aa75 bfbd 7f73 15be
000001d0: 794d 2bbd af56 d3bc 42e1 b8bd 887b 81a4
000001e0: 0000 0000 dafd 193d 6745 b4bd 0000 0000
000001f0: d08e 84be d8b8 4fbe 6eb3 41bd 1a01 b8bd
00000200: 9585 87bd 484f 12be f87c 093f e320 a13e
00000210: 0000 0000 0000 0000 36c9 053e 6cf1 a03e
00000220: 4323 113d 6eae c2bd e021 a13e 7f5f b5bd
00000230: 6390 b73e 8575 84bd e695 8a3c f52b 2fbe
00000240: 3ba2 66bd 0a3e 1cbc 0d68 aa3e 000c 053e
00000250: 7270 7fbd 29cf c53e 983e 6cbd 1e96 e6bc
00000260: 22e5 b53e 3de8 da3b 0000 0000 37e8 ca3e
00000270: 0000 0000 861d ca3e 6dc3 f7bd 8e64 f43b
00000280: 2a97 adbe 0000 0000 6d34 febd 4970 f33b
00000290: ca3a a0bb ab3a bc3e 52e2 e83d 8db0 353e
000002a0: 0000 0000 ce07 01bc b4b5 3f3c 3940 513b
000002b0: 4f36 50be 2abc 0e3e 0000 0000 3a38 22be
000002c0: 13ef 20be 1cd1 f2bd bd88 db3e db82 97bd
000002d0: 191f 913e 07e8 093f 432f 0e3e 9d4f 863b
000002e0: 0000 0000 eeb4 2b3e 22e6 73bd 076e e4bd
000002f0: c339 6ebc 59f8 19be a696 35be cc89 81be
00000300: 72f5 083e f4ca d8bd 2256 b63e a385 92bd
00000310: 0000 0000 346f 793e 20c9 e9bc bbda b13e
00000320: 7aa5 453d d4d7 d03b b9d1 9f3e 19f3 9a3e
00000330: f437 abba 4320 443e 0974 d13e 90a9 5d3a
00000340: c72c 6fbd 4a83 3c3e 14af b53e 0000 0000
00000350: bd7a 253f a1ad e0bd 0a8f 62bc 3afc e63e
00000360: bfa3 7cbd 8464 fbbd 5922 cd3e 4667 b43e
00000370: 0000 0000 f552 b6bc cbd0 891e 4935 8a3e
00000380: addb ee3e 86bb 983e 10d5 27be fdfe 1dbe
00000390: b098 493d 2e90 05be cc60 d2bb d6a9 93bd
000003a0: 3636 56bd dec7 e7bd 2d55 69bd 18ca d3bd
000003b0: 4ad3 9bbd cd08 79bd 0000 0000 3cfa 9dbd
000003c0: 0000 0000 6cd2 24be 4a6c 3abd d119 75bc
000003d0: 0000 0000 8318 dfbd 8252 cfbd bf15 f9bd
000003e0: 1079 62be 6c4e 1b3d f842 de3d 3de5 0bbe
000003f0: 1ad5 e9bd 0000 0000 463b 103e 90c5 37bd
-0.051321127 0.05073107 -0.020259459 -0.22087212 -0.3557253 0.3743599 0.0 -0.06725431
0.2924393 -0.16228133 0.312658 0.027273975 0.25205466 -0.066826366 0.036575247 0.0
-0.12592834 -0.1011126 0.38981205 0.20070517 0.1659041 -0.04999297 0.29294622 -0.027239446
0.29915318 0.02249895 0.011440934 0.36056563 -0.06913537 0.07087386 0.0 0.0
0.09537171 -0.116511405 -0.044745572 -0.002275236 -0.11522921 -7.026916e-05 0.3037075 -0.21603106
-0.115577064 0.0 -0.19944677 0.25872695 0.10757244 0.27803746 -0.054837923 -0.13313384
-0.015312861 -0.058738656 -0.06359148 0.0 0.23897453 0.44080892 0.0 -0.06481819
0.34913296 0.35512096 0.45597428 -0.055495944 0.003432362 -0.13759647 0.4377858 -0.12820308
-0.11649815 -0.16704334 -0.09476106 -0.08270269 -0.11159488 0.18210803 0.12189702 -0.0682419
-0.09647203 -0.09385449 0.02612098 0.3012606 -0.26075462 -0.057215348 -0.07334021 -0.012879152
-0.11778426 -0.23234373 0.18617988 0.2717371 -0.25137928 0.22354482 0.021732142 -0.07158455
-0.32199824 -0.26867214 0.41176125 -0.03993439 -0.085364245 0.05603826 -0.16781175 0.0
0.02347903 -0.10166408 -0.13214234 -0.056604512 -0.080200166 -0.090788685 -0.026667245 0.0
0.019373883 -0.091579355 -0.20500553 0.12040652 -0.19038829 0.041937843 -0.027439147 -0.014545554
0.2720576 0.0 -0.093486145 -0.1459484 -0.04182193 -0.02579817 -0.090273395 -5.61541e-17
0.0 0.037595607 -0.088023 0.0 -0.25890207 -0.20285356 -0.047290258 -0.08984585
-0.066172756 -0.14288056 0.5370631 0.31470403 0.0 0.0 0.13065037 0.3143419
0.03543402 -0.09505926 0.31471157 -0.08856105 0.35852346 -0.064677276 0.01691718 -0.17106612
-0.05630706 -0.009536276 0.3328251 0.12992859 -0.062363096 0.38634613 -0.05767688 -0.028147753
0.35526377 0.006680517 0.0 0.3963029 0.0 0.3947565 -0.120978214 0.007458276
-0.33904392 0.0 -0.12412343 0.007429157 -0.0048898207 0.3676351 0.11371292 0.1774313
0.0 -0.007875396 0.011701036 0.0031929149 -0.20333217 0.13938966 0.0 -0.15841761
-0.157162 -0.11856291 0.4287776 -0.073980056 0.28344038 0.5386967 0.13885216 0.004098846
0.0 0.16768238 -0.059545644 -0.111537986 -0.014540139 -0.15036143 -0.17733249 -0.25300443
0.1337488 -0.10585585 0.3561259 -0.071543954 0.0 0.24358827 -0.028538287 0.3473719
0.048253514 0.006373385 0.31214693 0.30263594 -0.001306294 0.19152932 0.4090884 0.0008455748
-0.058392312 0.18409458 0.35485137 0.0 0.6464041 -0.10970617 -0.0138280485 0.4511431
-0.061679598 -0.12275031 0.40065268 0.3523504 0.0 -0.022256354 1.4591794e-20 0.26993778
0.46651974 0.2983057 -0.1638987 -0.15429302 0.04921788 -0.13043281 -0.0064202305 -0.07210128
-0.052297793 -0.113174185 -0.056965996 -0.10341281 -0.076086596 -0.06079941 0.0 -0.07713744
0.0 -0.16095895 -0.04551343 -0.014959768 0.0 -0.10893347 -0.10123159 -0.12162351
-0.22116494 0.037916586 0.10852617 -0.13661666 -0.11417599 0.0 0.14085111 -0.044866145

feature_net.linear_layer_output.weight f4 [3, 496]
00000000: d899 033f 3335 2f40 ca0e 4dbd 13dd 0c3f
00000010: a601 e03f 4915 5b40 7225 483f e28b c9bf
00000020: d741 383f 69ce 66bd d1bb 8f3f 58f7 b23f
00000030: 0c0a 8bbd 1840 013f 3b0b c33c ee70 0141
00000040: b68d 983f 04ba fb3d f45b 323f d511 cb3f
00000050: 4fb1 733c 7063 1c3f 511a 1b40 c05c c63f
00000060: 8392 263f 12d7 c33f e464 c63e 71b9 293e
00000070: 66bb 2bbc e619 4bbf eb6c f0c0 0a2c 603f
00000080: 077a af3f 6097 af3d ea2c 2abf e8e5 403d
00000090: c4eb bd3e d49c db3e 462e 9ebd 7671 003f
000000a0: 2cb7 05be 77c8 12c0 e33a 4fbd 9bc6 b5be
000000b0: 62de f6bd b7fe 233f 82b3 3540 a948 133e
000000c0: 1a97 ad3e ff94 983f 832f 043f 780b 6140
000000d0: 670d 2e3d 0d3f 7e3f 6377 253f 4615 2b3f
000000e0: 5829 37bd eb96 b23b ffb9 5fbe 6302 a93e
000000f0: b58a 743d a317 13bf eb3d 113e ffab dabe
00000100: ac90 8abd e276 d1bc f757 3a3e e73b ac3d
00000110: 15a7 5b3f 18e0 a33e adae 453e 8574 a9bf
00000120: f49a f2bd 7842 c63f 2545 f6bc 512b 30bd
00000130: cabf 793f b165 983e 266c 3640 3c34 6dbf
00000140: b7b6 fb3d ce8b 46be e988 d03a 3ba3 243e
00000150: 12ab 1a3e eab5 3cc0 f087 63bd 3888 a1c1
00000160: 7f30 6c3c ba2d af3e e403 823e 3a48 ac3e
00000170: cc66 923e 3ea8 903d c22e 9abb af47 4a3e
00000180: 895a f9bd 1cf2 5d3f 8e97 b2be a8ec 853b
00000190: a42e 86bf a8d0 8a3e 5770 13be b084 69bd
000001a0: 62c3 88bf 6995 cabd d3f8 a03f cec7 32be
000001b0: e601 de3b 01d0 91bc e1ca 4f3e 9d1d 65be
000001c0: 76b0 3f3e cedd db3d c6b7 40bc ff7e 033d
000001d0: 2335 53be 79d5 df3d 1afe abbd 0f1f 6e3e
000001e0: 6b67 eb3e d557 293f 0538 bebd 8d99 c0bd
000001f0: bfdf 73bd 4ea3 bfbd 1d7a dc3e 1691 96bd
00000200: 0852 123e 46aa c3bf 0e47 4f3e 9870 d43e
00000210: 25c1 e0bd 411b 12be a917 f23e e461 6abc
00000220: 6b24 7d3e dc3c 313c 3d8c 223f 3380 9abf
00000230: 3477 0f3f 39a4 8bbd 6033 063e c88e dabe
00000240: 23f5 c73d 8469 af3e 16b7 fcbe f004 543e
00000250: a6b8 f53c 410d 5e3e 79e2 22be fc36 06c0
00000260: a4e5 163e 9d1b a9b9 026b 22be a9f9 8f3f
00000270: b529 11bd 4cb5 0e3e 8a3c fa3d 3351 86bd
00000280: 0022 b4bd 23c5 113f 1c97 21be 600c a9bd
00000290: f6c8 6f3e 321a c53e 7447 6d3f a0c9 9abc
000002a0: 508c 7a3c 0d2c c33b 2bdf 20be 16ed c1bc
000002b0: dbf0 02be 6e54 9d3d d8b0 993b a8ab 1a3e
000002c0: cc2e 49c0 a8f9 613c 2ff3 e63d 90f2 52bf
000002d0: 7d6a 6a3e df24 013e ec6f 783e 9b33 4cbd
000002e0: c9f0 38be 09c9 513e 9c19 293e 8605 833d
000002f0: e306 1c40 d586 27bf df19 b0bc ab51 9cbe
00000300: 4605 5f3e 4e3f e5bf 2ba5 a43f eba8 873f
00000310: c0be 3e3e 0445 be3e 2755 443e 929d a53e
00000320: 4762 383e 0327 2a3e 70c1 053f 3f29 493e
00000330: 81a4 6f3c 7dc0 efbd c496 5d3e 7420 47be
00000340: 830a 923e 873d 133f 840a cc3e d00b b73e
00000350: fa88 c63e 9396 d63d 1ab9 163f cdb6 cc3e
00000360: 3969 b13e c5ce d43e af18 e33e 65ac a43e
00000370: 4c9a 993d 14bd 9b3e 24c7 973e 43e9 aa3e
00000380: b2a8 d63e ca25 f93e e47b 013f 0d4e bf3e
00000390: 611b 9140 e2b0 b9bb 4b4f 003f 4f3e bc3e
000003a0: 0154 5e3e 86e5 8f3e b9fa 693e e28c a93e
000003b0: bc52 b23e 7b83 523e abef a93d b7e9 a23e
000003c0: 6945 6e3d 4ea3 363e 2bdd 8d3e d180 bf3e
000003d0: fa37 c9bd 740c 3a3e ea66 0dbe 84be 833e
000003e0: 6572 cd3c 01c6 3f3e 1146 3e3e 12c6 083e
000003f0: 777e b43e 7ec6 6d3d 2397 bc3e 5408 c5bd
0.5140662 2.737622 -0.050062932 0.5502483 1.7500503 3.4231741 0.78182137 -1.5745814
0.71975464 -0.05634919 1.1229192 1.3981733 -0.06789026 0.50488424 0.023809066 8.090071
1.1918247 0.12291339 0.6967156 1.5864817 0.014873817 0.6108923 2.4234812 1.5497055
0.6506731 1.5300009 0.38748848 0.16574647 -0.010481691 -0.7933639 -7.5132957 0.875672
1.3709115 0.08573794 -0.66474783 0.047094256 0.37093937 0.42893088 -0.0772367 0.5017313
-0.13058156 -2.2934854 -0.050593268 -0.35503086 -0.12054135 0.6406054 2.8390813 0.14383186
0.33904344 1.192047 0.51635 3.516325 0.04249325 0.9931496 0.64635295 0.66829336
-0.044717163 0.0054501197 -0.21848296 0.33009633 0.059702594 -0.5745794 0.14183776 -0.42709348
-0.06765875 -0.025569383 0.18197618 0.08409863 0.8580182 0.32006907 0.19304915 -1.3238684
-0.11845961 1.5489035 -0.030062268 -0.04301006 0.9755827 0.29765084 2.8503509 -0.9265783
0.122907095 -0.19389269 0.0015909943 0.16077892 0.1510432 -2.9486032 -0.055549562 -20.191513
0.014415859 0.34214574 0.25393593 0.33648854 0.28594053 0.0706334 -0.004705281 0.19753908
-0.12175471 0.86697555 -0.34881252 0.0040870495 -1.0482984 0.27112317 -0.14398323 -0.057011306
-1.0684626 -0.09891779 1.2575935 -0.17459032 0.0067751287 -0.01779938 0.20292236 -0.22374578
0.18719658 0.10735665 -0.011762565 0.032103535 -0.20625739 0.109293886 -0.083980754 0.23254035
0.4597734 0.66149646 -0.09288029 -0.094042875 -0.059539553 -0.0935732 0.43061915 -0.07351892
0.14289105 -1.5286338 0.20241949 0.41492152 -0.109743394 -0.14268209 0.47283676 -0.0143055655
0.24720924 0.010817733 0.63495237 -1.2070373 0.56041265 -0.06818432 0.13105536 -0.42687058
0.09763553 0.3426019 -0.49358433 0.20705009 0.029995274 0.21684743 -0.15906705 -2.097106
0.14736038 -0.00032254765 -0.15861133 1.1248065 -0.035440166 0.13936347 0.12218578 -0.06558456
-0.087955475 0.5694143 -0.157803 -0.082543135 0.23416504 0.38496548 0.92687154 -0.01889497
0.015292242 0.005956179 -0.15710132 -0.023672622 -0.12787192 0.07682119 0.004690271 0.15104544
-3.1434813 0.013792433 0.11276852 -0.8240137 0.22892185 0.12611721 0.24261445 -0.049853902
-0.18060602 0.20486845 0.16513675 0.06397538 2.4379203 -0.6544011 -0.021496711 -0.30531058
0.21779355 -1.7909944 1.2862905 1.0598425 0.18627453 0.3716203 0.19173108 0.3234678
0.1800624 0.16616444 0.5224829 0.1964464 0.014626623 -0.11706636 0.21639544 -0.19445974
0.28523645 0.5751576 0.39851773 0.357512 0.3877638 0.104779385 0.5887619 0.39983216
0.3465059 0.41564003 0.4435477 0.32162777 0.07500133 0.30417693 0.2964412 0.3338109
0.4192558 0.48661643 0.5057967 0.37364236 4.534592 -0.005666838 0.5012099 0.36766288
0.21711732 0.281048 0.2284955 0.33115298 0.34828746 0.20557968 0.08297666 0.31818935
0.058171663 0.17835733 0.277078 0.37402967 -0.0982513 0.18168813 -0.1380879 0.2573129
0.025078962 0.18727876 0.18581416 0.13356808 0.35252735 0.058050625 0.36834058 -0.09620729

feature_net.linear_layer_output.bias f4 [3]
00000000: 4c00 a63f fd44 963f b15c 7e3f
1.2968841 1.1739804 0.99360186

feature_net.linear_layer_0.weight f4 [496, 11]
00000000: 752a 0a40 bd78 b63d 565a 38c0 8b12 fb3f
00000010: bd17 e0bf 3c47 3dc0 3527 71bf 4c67 65be
00000020: de61 523f 4f2e f93f 6520 3040 ac74 d9be
00000030: 9ed0 793e fd19 5fbf 98e2 ba3f ab41 dc3e
00000040: ece1 49c0 39ff 80c0 372f 2ac0 8f17 3bc1
00000050: 38c8 d63f 6d64 2c40 5e4b c63e 9497 4a3f
00000060: edfe 10bf d9bf 07bf 7437 aebf 7a45 2bc1
00000070: b2fb 08bd 321b 36bf 8292 3c3f b76b 1d3f
00000080: caf4 a13f 3aeb 88bf fcc2 2dbf 69ca af3f
00000090: 064a fe3f 54f9 fb3f af31 9cbf 85eb 9e3e
000000a0: b060 e8bf eb61 07c3 5fbb 3f40 a8c0 4940
000000b0: 40e6 5a3f 4745 e441 723a 1a3e 53d7 8fc0
000000c0: a596 273e d747 bcc0 7a44 873e f73c 87c0
000000d0: 00a5 0c40 b8a3 ac3f 9282 f63f 90d5 333f
000000e0: 3727 15bf d762 003d bb9c 5c3f 5ed9 8b3f
000000f0: 89c5 93bf 70a1 ba3f 94a7 33bf ab56 af3f
00000100: 142f 5e3f 9bb5 db3f 34ce 11bf bc2b 5dbf
00000110: a6d2 2240 51bf ae3f 8c73 843f 9e71 57bf
00000120: e96c 22c1 901d 2e40 9ea8 0140 b09c f73f
00000130: da43 a43f 3c8c 4ec0 1847 a83e d50d e0bf
00000140: c18e f93f 892e 4940 d3a2 dc3e f88c 0f40
00000150: 04bc 81bf d109 953f fa59 d83f 2681 1cbd
00000160: 2485 6940 6b70 5cbd a653 58c0 b898 d63e
00000170: 1f66 1ac0 a147 7bbf 737d 37c0 5516 20bf
00000180: 0cf3 c23f bfe4 4c3e 2ec3 5e40 ba81 ce3f
00000190: 20cc 1a3f fded 24be 77c6 dbbf 0b30 f4bf
000001a0: a995 64c0 2790 67bf 594e f5bf 677c d23f
000001b0: 726c d03f bb3b bc3f 0f74 efbd 5b9c 71c2
000001c0: c2dc c5bf be4e 3540 2798 2fbf cfbd 9c3e
000001d0: 3941 80bd e27c 6b40 2c8b 8c3f 569b ec3f
000001e0: 4528 1d3f acab 2940 5433 763f 1a70 1dc0
000001f0: efc7 03bf d1a0 01c0 bf4c 393d e344 4ebf
00000200: 8193 1640 5111 843f 8c4e 4f3f 029e c83f
00000210: 9062 783d 2ca4 25c0 aa90 dbbf d66d 0e40
00000220: 2c5f 0ec0 7e42 4940 19a6 26c1 bb3b 653e
00000230: d758 cd3f 209c 9a3f aac8 813f bab9 ad3f
00000240: 4e06 903f 1a7c c8bf 63e5 30c0 ba91 64bf
00000250: 6b87 97c0 1e81 a8bf 95e9 fdbf fc08 dc3f
00000260: d2b5 3a3f 2ecc ea3f 0160 4b3f bd9b 93bf
00000270: 8c95 e4bf 80ea 3540 3a34 72bf 49e9 47bd
00000280: 5062 a2bf 2d0e a9bd e6f0 fd3f 34c0 ee3f
00000290: 64a8 cd3f 2f65 43c0 d9dd 853d 8ab6 f93f
000002a0: a639 c1bf 438b 5040 b0b4 6b3e 529a 2140
000002b0: 4fa2 8fbf 9cf3 d33f afcf 4f40 8ea1 883f
000002c0: 9a04 f83f f77b 9dbf 2146 e0bf 0db3 1c40
000002d0: b75e 9cbf b30f e33f 5c86 58bf ed4e 0140
000002e0: ef95 c63f c6a6 173f 0193 923f 035f b2be
000002f0: f889 47c0 ce6b e9bd 859a c63f 8d20 85bf
00000300: 85bf 13bf baee bf3f ce5f 5640 b9d2 653f
00000310: a23c bf3f 155a 9d3f 0d7b a43e 3d55 84bf
00000320: 601d 99be ef33 e3bf ce27 45c0 4a07 4140
00000330: 5ff9 cdbd cf70 1340 639e e83f d6b2 ae3f
00000340: dab1 2c3e c689 12c0 2d01 1a3a 819a 9c3f
00000350: 56b7 1fc0 154c c33f 1da9 c33f 6caf c241
00000360: b2e2 88bf 4cc8 0240 2c8a 0240 227a 4440
00000370: c7fb 50c0 3fdf eebf c7e9 71c0 282d 973f
00000380: 1575 33c0 f6e3 413e 945a 68c0 bb74 bb3f
00000390: 9c48 c73f de75 d43f 8cd1 853f 2c7d ed3e
000003a0: 2188 d93f 602d bcbe 81e5 aabf f9cf 843e
000003b0: 6bd0 0ac0 c761 8a3f d380 25c0 6364 ab3f
000003c0: 2d41 bf3f a0cb 0040 f349 cbbe 10f7 ff3f
000003d0: 265a 473f f6e3 40c0 0bab e0bf 322e 18c1
000003e0: e173 a2bf 1216 07c0 c486 583f 0940 4e3e
000003f0: 88cf 9e3f b951 9d3d aeca 1bc0 3215 5c3e
2.1588414 0.08909748 -2.8805137 1.9615034 -1.7507244 -2.9574728 -0.9420045 -0.22402686
0.82180583 1.9467257 2.7519772 -0.42471826 0.24395987 -0.8714903 1.4600401 0.4301885
-3.1544142 -4.031155 -2.6591318 -11.693252 1.6779852 2.6936295 0.38729376 0.7913754
-0.56638986 -0.5302711 -1.3610673 -10.704462 -0.03344316 -0.71135247 0.73661053 0.61492485
1.2652829 -1.0696785 -0.6787565 1.3733646 1.986634 1.9685464 -1.2202662 0.31039062
-1.8154507 -135.38249 2.9958112 3.1523838 0.85507584 28.533827 0.15061358 -4.4950347
0.1636606 -5.8837695 0.2641943 -4.226192 2.1975708 1.3487463 1.9258597 0.70247746
-0.5826296 0.03134426 0.8617665 1.092571 -1.1544658 1.4580517 -0.7017758 1.3698324
0.86790586 1.7164797 -0.56955266 -0.8639486 2.544107 1.3652135 1.0347762 -0.8415774
-10.151589 2.7205544 2.0259166 1.9344692 1.2833207 -3.2273092 0.3286674 -1.7504221
1.949669 3.1434653 0.43092975 2.242979 -1.0135503 1.1643621 1.6902459 -0.038209103
3.6487513 -0.053818148 -3.3801055 0.4191339 -2.412483 -0.9815617 -2.8670318 -0.62534076
1.5230422 0.20009135 3.4806628 1.613334 0.6046772 -0.1610641 -1.7169942 -1.9077162
-3.5716345 -0.90454334 -1.9164535 1.6444215 1.6283095 1.4705728 -0.11692058 -60.40269
-1.5457995 2.832931 -0.6859154 0.30613562 -0.0626244 3.6794972 1.0979972 1.8484905
0.6138957 2.651103 0.9617207 -2.4599671 -0.5147695 -2.0254405 0.045239206 -0.8057386
2.352753 1.0317785 0.8097923 1.567322 0.06064087 -2.5881453 -1.7153523 2.2254539
-2.2245588 3.1446834 -10.415551 0.22386067 1.6042737 1.2078896 1.0139363 1.3572304
1.1251924 -1.5662873 -2.7640007 -0.8928486 -4.7352805 -1.3164403 -1.9836909 1.7190242
0.72933686 1.8343561 0.79443365 -1.1531903 -1.7858138 2.8424377 -0.9461094 -0.048806462
-1.2686253 -0.08254657 1.9839141 1.8652406 1.6067014 -3.0530508 0.06536455 1.9508832
-1.5095718 3.2584999 0.23018146 2.525044 -1.1221408 1.6558719 3.247051 1.0674303
1.9376404 -1.2303456 -1.7521402 2.4484284 -1.2216405 1.7739166 -0.84580016 2.0204422
1.5514506 0.5923885 1.1451112 -0.34838113 -3.117796 -0.11397515 1.5515906 -1.0400559
-0.5771411 1.4994729 3.3495975 0.8977466 1.4940379 1.2293116 0.3212513 -1.0338513
-0.29905224 -1.7750224 -3.0805545 3.01607 -0.100573294 2.3037603 1.8173336 1.3648326
0.1686472 -2.289659 0.0005874809 1.2234651 -2.495565 1.5257593 1.5285984 24.335655
-1.0694182 2.0434752 2.0396833 3.0699544 -3.2653673 -1.8661879 -3.7798936 1.1810656
-2.8040211 0.18934616 -3.6305285 1.4644998 1.5569034 1.659847 1.0454574 0.4638456
1.6994668 -0.36753368 -1.3351289 0.2593992 -2.1689708 1.0811089 -2.5859878 1.339001
1.4941765 2.0124283 -0.39704856 1.9997272 0.7787193 -3.0139136 -1.7552198 -9.511278
-1.2691613 -2.110722 0.84580636 0.20141615 1.2407084 0.07681603 -2.4342456 0.2149246

feature_net.linear_layer_0.bias f4 [496]
00000000: 9d40 0d40 f3bc 3340 3deb 0c40 cafb 8640
00000010: 8309 2c40 3c3e bb3f 3efc d33f 2ddb 983f
00000020: 1fd8 ce3f 8d38 da3f fd61 b33f 6b71 573e
00000030: efbd 8d3f f066 2b40 1085 d63f 9037 0540
00000040: 9f63 923f 7ef7 723f 8d2b 9d3f dd51 ee3f
00000050: fda2 563f 20b1 0e40 f0b2 c53f c1f2 5b3f
00000060: 9004 e03f e066 c13f 2417 f53f 42cb 863f
00000070: 6a77 5c3f 2f32 913f 0351 223f 3384 2440
00000080: d19c 623f 7c56 eb3f acd2 df3f aa51 953f
00000090: 1cc6 f23f ea1c 9a3f 15ef 423f 7860 c03f
000000a0: 0ff7 933f 8adc ac3f ea41 cc3f 9f21 49bf
000000b0: d1b4 0640 cc6f d13f 0d16 e03f 21e6 71be
000000c0: bb14 e83e deb7 1b40 4ec2 513f b4b3 ab3f
000000d0: ce54 873f 24a3 1140 dec4 383f 9ba5 ba3f
000000e0: 5467 7f3f b376 bc3f 8c17 d43f 0df7 1d40
000000f0: d632 c13f 6851 ea3f 2e56 af3f b566 c03c
00000100: ba8a 0d40 c99b 853f 4505 613f 3a75 a23f
00000110: 9ed3 8c3f cf34 9a3f 4ed4 8b3e 705a 8c3f
00000120: b0ce 7a3e a140 ca3f 0480 0d3f e7d4 0240
00000130: 4930 5c3f 1122 c33f 41da 5640 e100 003f
00000140: ed09 333f 44d0 3f3c 4aeb c23f 66d5 c13f
00000150: f622 0c40 574d e83f 1150 1440 488a 973f
00000160: 165a 813f 24f0 b43f e7e6 723f ee9a 9c3f
00000170: de99 213f 6412 c1bb dd2d d03f f1f5 5840
00000180: 279a a63f fc8a a03f 177a 0c40 ff79 e13f
00000190: 17e4 6f3f ba4c 823f 95cd 833e 0430 ba3f
000001a0: 9d17 613f 22ff cb3f f220 e23f 5841 eb3f
000001b0: 9ec7 c13f 203c 953f a9aa 0b40 17cf b33c
000001c0: aa64 753f bdfd a63f 1f70 053f b032 873f
000001d0: 1411 863f 0e8d f13f e770 d03e 90b5 b73f
000001e0: 84fc 783f ce09 863d c584 a03f 1500 903f
000001f0: f915 123f 24b6 a13f d5c0 ff3e 92bc 4140
00000200: 035d bd3f 3348 df3f c6db 363f 523f 023f
00000210: d703 fa3f d632 bd3f 4304 9d3f 8ca7 af3f
00000220: ea4c c83f 8136 903f 487e 6e3f bfa2 0f40
00000230: 8a5c 9f3f 58b8 793f 17b7 dc3f da3d cb3f
00000240: 8738 9e3f 96b4 a13f eec8 0240 fbfe f23f
00000250: 1413 1cbd 0f16 9b3f 096c ef3e 2d58 c93f
00000260: 2245 8f3f c916 983f d83f 433f 8e3a 163f
00000270: cae1 a93f 21ea 9e3f 606e c33f 8a23 f33f
00000280: 40fd c23f 1f5e b13f a409 943f 1dbb b33f
00000290: c59d be3e 2fac 873f 322b b23f 0852 863f
000002a0: 91cd 553f a12a 973f 5feb d03f 094d 853f
000002b0: 4439 9b3f c9cf 9b3f 1e25 503f 79d0 983f
000002c0: 1c8f ef3f 1ff8 943f 4fe6 683f bfe3 803f
000002d0: b362 c73f b731 6f3f 81cb 5540 af08 eb3f
000002e0: a2e2 843f 4009 bc3f e864 9d3f 3549 ad3f
000002f0: 87a3 fc3f c9fa f43f 4123 8b3f 1db4 3f3f
00000300: d4b5 cf3f 997f ab3f b78a 883f d276 be3f
00000310: ab32 8b3f e54b 433f 99ef 743f 4be8 f43f
00000320: b41d c03f 0f0a 593f 82e7 c03f 2f8e b43f
00000330: 0019 c53f f1b9 c83f be2c c43f 085e 523f
00000340: d60d 8b3f 9b4a 9e3f 1acb a53f b8b2 9a3f
00000350: ff17 963f 9cc3 d23f 0da6 7c3f c95d 723f
00000360: adfe 773f 6461 e03f 5d3d a93f 3b96 413f
00000370: e4c2 853f 2ec9 d43f 53e6 f83f a210 993f
00000380: 4146 083f aef3 bc3f dd3c 9f3f 56b9 803f
00000390: 0b37 833f b832 af3f 5a8d 493f 19b2 c63f
000003a0: 9e3d b13f 6fe6 aa3e 07d0 0440 712d dd3f
000003b0: 5f75 cc3f 1df8 aa3f c304 783f 48a2 ba3f
000003c0: 560a ce3f 64fa 5b3f 9efd fd3f 5a1f 9e3f
000003d0: 23a0 ba3f 697c 1f3f f8f2 543f ae4b f23f
000003e0: 763e c13f 564b b43f 75e4 d03f eb4a 0440
000003f0: fcbc c13f 01a0 0e40 7160 923f c398 833f
2.2070687 2.8084075 2.2018578 4.218236 2.6880805 1.4628367 1.6561353 1.1941887
1.6159705 1.7048508 1.4014279 0.2103936 1.1073588 2.6781578 1.6759357 2.0815163
1.1436652 0.94908893 1.2278916 1.8618733 0.8384245 2.2295609 1.5445232 0.8591729
1.7501392 1.510952 1.9147687 1.0530779 0.8611971 1.134344 0.63404864 2.5705688
0.8852053 1.8385768 1.7486167 1.1665547 1.8966708 1.2040074 0.7614606 1.502944
1.1559771 1.3504803 1.5957615 -0.78566927 2.1047862 1.6362243 1.7506729 -0.23622943
0.45328316 2.4330974 0.8193711 1.3414216 1.0572755 2.2755823 0.72175395 1.4581789
0.9976704 1.4723724 1.6569686 2.4682038 1.5093639 1.8306093 1.3698175 0.023486475
2.2115922 1.0438167 0.87898666 1.2692025 1.100208 1.2047366 0.27310413 1.0965099
0.24492908 1.5800973 0.5527346 2.0442445 0.8601118 1.5244771 3.3570712 0.5000134
0.6993702 0.011707369 1.5228055 1.5143249 2.1896338 1.8148602 2.3173869 1.1839075
1.0105617 1.4135785 0.9488358 1.2234781 0.6312541 -0.005892085 1.6263996 3.390011
1.3015794 1.2542415 2.1949518 1.7615355 0.9370741 1.0179665 0.25742784 1.4545903
0.87926656 1.5937235 1.7666304 1.8379316 1.5139043 1.1658974 2.1822913 0.021949334
0.95856726 1.3046185 0.5212421 1.0562344 1.0473962 1.8871171 0.40711138 1.4352283
0.9726031 0.06544839 1.2540518 1.1250025 0.5706478 1.263371 0.49951807 3.0271344
1.479401 1.7443908 0.714291 0.5087787 1.9532422 1.4781139 1.2266926 1.3723006
1.5648472 1.1266633 0.9316144 2.2443082 1.2450116 0.9754691 1.7243375 1.5878251
1.2361001 1.2633235 2.0435138 1.8984064 -0.03810413 1.2116107 0.46762112 1.5730034
1.1192973 1.1881953 0.7626929 0.586831 1.327203 1.24152 1.5268059 1.8995221
1.5233536 1.3856848 1.1565442 1.4041477 0.37229744 1.0599421 1.3919432 1.0493784
0.83516794 1.1809884 1.632183 1.0414134 1.2126851 1.2172786 0.81306636 1.1938621
1.8715549 1.163822 0.90976423 1.0069503 1.5576996 0.93435234 3.340546 1.8362025
1.0381663 1.4690323 1.2296419 1.3537966 1.9737405 1.9139034 1.0870134 0.74884206
1.6227365 1.3398315 1.0667332 1.4880011 1.0874838 0.7628768 0.95678097 1.913339
1.5009065 0.84780973 1.507065 1.4105891 1.5398254 1.5681745 1.5326154 0.8217473
1.0863597 1.2366518 1.2952607 1.2085791 1.1726073 1.6465945 0.98690873 0.94674355
0.9687298 1.7529721 1.3221852 0.7561986 1.0450101 1.6623895 1.9445289 1.1958201
0.532322 1.4761865 1.2440449 1.005656 1.0251173 1.3687353 0.7873131 1.5523101
1.3846929 0.33378932 2.075197 1.7279493 1.5973319 1.3356968 0.96882266 1.4580774
1.6096904 0.8592894 1.9843023 1.2353318 1.458012 0.6229921 0.8318324 1.8929346
1.5097187 1.4085491 1.631972 2.0670726 1.5135798 2.2285159 1.1435682 1.0280994

feature_net.layer_norm_0.weight f4 [496]
00000000: 80c6 9b3e fd19 ae3f e859 ca3f 6dff 713f
00000010: c839 a63f 88d0 133f 1ede 143e d033 8d3f
00000020: 1242 b93f c6fc 1440 2755 a23f edfe 0b3f
00000030: 9eea a53f dc66 ea3f a257 b93e 407a f23f
00000040: 80a2 ae3f ef6b 8b3f 13d6 9a3f fce8 c63f
00000050: 47f0 503f 4ea5 b63e b805 163f c08b 213f
00000060: 2d34 d23f 1474 0940 f298 2b3f d8d0 c13e
00000070: 824d 9d3f e745 763f 3dd7 173f d8ee a53f
00000080: f920 883f cf73 493f 886d c63f 9891 693f
00000090: 7977 d83f eb75 d73f a7e9 103f 0747 1a3e
000000a0: 443e 503f 020b bf3f c0a0 9f3e c9e8 373f
000000b0: 196c 593f a13c f93f 0812 3f3f 631c 313f
000000c0: 7ad8 1c40 f56b 5e3f d208 a83f 2502 d23f
000000d0: b993 b13e 0a3e e63f 35f5 453f 4724 843f
000000e0: 9a68 eb3f 4ae1 0a3f 154a c13e 365d 313f
000000f0: f0df 483f 0637 2040 2351 ef3f a3df 503f
00000100: 3b40 df3f e438 0b3f a57f 6e3f 93e3 a03f
00000110: 674f d13e 8e28 283f 3742 663f de12 933f
00000120: f917 c03e ad4a b43f da2a 5a3f a4ef a43f
00000130: ea24 1c40 7d72 9f3f 80a5 c93f 0b9b cd3f
00000140: a623 993f 1a84 be3f 4936 d73f f341 e93f
00000150: e2cf ea3e 1f6d 093f 7992 c53f 7594 c53e
00000160: 7c58 153f 6c57 193f 29d9 913f af2d 0640
00000170: 7197 a03f f3be 2a3f 45ad 303e a61f 743f
00000180: 40b6 af3f 7e0d 873f 92c4 bb3f a860 723f
00000190: a331 993f c2a9 9a3f 8b27 933f 8228 b03f
000001a0: 85e2 d53f 57f7 d93f cfb7 c43e 5e99 d23f
000001b0: c68d 0e3f 70cf 4d3f cfba 8a3f 1510 3a3f
000001c0: 7dcb 883f 59e1 cd3f 837c 9d3f 1e61 8e3f
000001d0: c1d2 473f cc2f 903f 1bca 953f eb1a eb3f
000001e0: d8e3 353f cf78 833f 214d b23f 6427 0640
000001f0: 550d 0c40 efc0 a43f 0f49 983f 6473 b43f
00000200: e2d7 343f 4ff4 113f eb65 ab3f 56e1 e73f
00000210: edab 0640 43c8 a03f 9e7e d83e 4f77 9b3f
00000220: cd3f b13f 955c 573f 29cb a93f 10a1 e23f
00000230: dd11 ef3f ae28 813f 1d6a 263f 4243 f93e
00000240: 873b 5e3f 0935 063f 5a2c f13e f263 0b3f
00000250: b4b8 ac3e 7245 373f 641d 0d3f 39be ad3f
00000260: 7977 563f 4586 a03f c88c a63f ac56 c53f
00000270: 441b 993f 8bd8 133f 8b01 0a3f 202a 863e
00000280: e7af cf3e 07e4 7e3f 9ff8 1d3f 4f39 1f3f
00000290: 94e9 813f df6c 903f b59d e13e 0db8 983f
000002a0: dfee 043f 2a9c cf3f 23c9 da3e 6995 0440
000002b0: 61fd a53f d0b1 a73f 77ea fc3f 81e0 da3e
000002c0: c797 863f 9f31 a53f 3784 533f 01a3 513f
000002d0: 0508 d73e 43f3 a43f 13ba bf3f 7293 ea3f
000002e0: 57fb 0340 3918 833f e383 983f 984f cf3f
000002f0: 3fdb 093f ba0e 8c3f 7386 e83f 713b 863f
00000300: 1b08 0540 bf48 933f da51 d73f a631 333f
00000310: 4efa 0440 d222 9d3f 17cb 0c40 acd8 173f
00000320: d305 0a40 7184 7d3f 8efe 5f3f ccc2 d93f
00000330: 4039 ab3f 3496 903f 5080 e13f 9071 be3f
00000340: 9a9d 0c40 f9d5 a43f 18eb 1c3f 7950 bf3f
00000350: 4d4a 3c3f 99c1 e43f 5d87 9a3f 5bab 9e3f
00000360: 5157 d23f b91f 143f cb06 c53f 533e f23e
00000370: a55e af3f f329 103f e325 c53f 6e76 0b40
00000380: 3f21 d63f ee24 663f 2ce6 fe3f 2c41 d83f
00000390: 3a76 dc3f d101 783f 82d3 7f3f f0bf 9a3f
000003a0: f124 993f c525 f43f 47c4 063f af33 1a3f
000003b0: a345 103f 163e bb3f 635b 8c3f 891e 883f
000003c0: 9caa 1e3f 9973 913f 39f8 fd3e d2e9 543f
000003d0: 23be b93f 1bec 873f 43f3 693f a543 093f
000003e0: a106 163f 5295 f83f 8444 173f 060c 093f
000003f0: cdd1 173f f257 723f 1599 8b3f 5ce1 923f
0.3042488 1.3601681 1.5808687 0.94530374 1.2986383 0.5774007 0.14537856 1.1031437
1.4473288 2.327928 1.2682236 0.5468586 1.2962224 1.831264 0.3619967 1.8943558
1.3643341 1.0892314 1.209658 1.5539851 0.81616634 0.35672992 0.58602476 0.63103867
1.6422173 2.1477098 0.6703025 0.37854648 1.2289279 0.9620041 0.593128 1.2963514
1.0635062 0.78692335 1.5502176 0.91237783 1.691146 1.6832861 0.56606525 0.15066157
0.8134501 1.4925234 0.3117733 0.71839577 0.8493057 1.9471627 0.7463689 0.6918394
2.4507127 0.8688348 1.3127692 1.6406904 0.34683016 1.7987683 0.7732728 1.0323571
1.8391297 0.54250014 0.37751833 0.69282854 0.784667 2.5033584 1.8696636 0.8159124
1.7441477 0.54383683 0.9316352 1.256945 0.40880892 0.6568688 0.89944786 1.1490133
0.3751829 1.4085289 0.85221636 1.2885633 2.439753 1.2456814 1.5753632 1.606294
1.1964004 1.4884064 1.6813442 1.8223251 0.45861727 0.5368213 1.5435325 0.38589826
0.5833814 0.5989902 1.1394397 2.0965383 1.2546216 0.66697615 0.17253597 0.9536079
1.3727493 1.0550992 1.4669363 0.94678736 1.1968273 1.2083056 1.1496443 1.3762362
1.6709753 1.7028607 0.38421485 1.6453054 0.5568508 0.8039465 1.083826 0.7268079
1.06871 1.6084396 1.2303623 1.1123388 0.7805596 1.1264586 1.1702303 1.836759
0.71050787 1.0271243 1.3929788 2.0961542 2.1883137 1.2871379 1.1897296 1.4097714
0.7064191 0.5701341 1.3390478 1.8115642 2.1042435 1.2561115 0.422841 1.2145785
1.3847595 0.84125644 1.3265125 1.7705402 1.8677326 1.009054 0.65005666 0.48684126
0.8680958 0.52424675 0.4710415 0.5444938 0.33734667 0.7159034 0.5512297 1.3573676
0.8377605 1.2540976 1.3011713 1.5417075 1.1961446 0.57752293 0.53908604 0.26204014
0.4056389 0.9956669 0.6170749 0.6219682 1.0149407 1.1283225 0.44065633 1.1931168
0.5192699 1.6219532 0.4273158 2.0716193 1.296795 1.3101139 1.9759053 0.42749408
1.0515069 1.2905768 0.8262362 0.8188935 0.41998306 1.2886738 1.497866 1.8326247
2.0622156 1.0241767 1.1915249 1.6196165 0.5385017 1.0941994 1.8166031 1.048689
2.0786197 1.1506575 1.6821854 0.6999763 2.0777774 1.2276251 2.1998956 0.5931499
2.1566055 0.99030215 0.87497795 1.7012572 1.3376846 1.1295838 1.7617283 1.4878407
2.1971192 1.2877799 0.61296225 1.4946433 0.73550874 1.7871581 1.207256 1.2396044
1.6432897 0.57860905 1.5392698 0.47313175 1.3700758 0.5631401 1.5402187 2.1791034
1.6728896 0.899001 1.9913993 1.6894889 1.722358 0.9687777 0.9993211 1.2089825
1.1964399 1.9074026 0.52643245 0.6023511 0.5635626 1.4628322 1.0965389 1.0634319
0.6197908 1.1363403 0.4960344 0.8316928 1.451115 1.0618929 0.9138681 0.5361884
0.58603865 1.9420569 0.5908892 0.5353397 0.59304506 0.94665444 1.0906092 1.1475024
