kikunaga/models/MATD3/MATD3_trained_agent.pt (torch, 293978 bytes, 224 tensors)

weight f4 [32, 3]
00000000: 8f38 5b3a 1173 813e 45f3 1fbe 4ec6 91bc
00000010: 1e16 ea3d ff0c 86be bc93 8f3e 63b8 e73d
00000020: e15f 473e aa1e 56be 1ae7 423e f5bf 77be
00000030: 4719 243e 351e a5be 3bdd 49be 1bc7 ad3d
00000040: e4e1 fe3b 1d14 703d 1031 923e ccb6 693e
00000050: 9d3f a83e 8500 f7bd 30db 9abe e383 b93e
00000060: c607 633e 3f0c 90be 18e0 3e3e 0089 5e3d
00000070: 0dbe 24be ab04 503e 2630 8cbe b6ea 82be
00000080: 6e50 53be 2587 cfbd 99a7 e53c 79a5 16bf
00000090: 084d 063f 953f 8fbe 7ccb 5dbc 3624 5d3f
000000a0: 1d43 ba3e 1c36 95be f593 8cbd 25bf 84bd
000000b0: 8e4b 2cbf 6d61 883e 0dd9 88bd 67b4 85bd
000000c0: d66f 143f 582e 81bd 8d53 393e f919 333c
000000d0: ff59 3b3e 214c 933e 8a93 4d3e 3804 fabe
000000e0: 00be a4be 1c27 44bd 6245 80be a2be 303e
000000f0: 9477 dfbd 182e b3be 9f90 563d d680 a4be
00000100: 615e 333d 5525 0c3e 3085 cdbe 6a37 3abd
00000110: 3f06 3d3e da11 2a3f cc7b b13d e020 0f3e
00000120: 87ee df3e f65f fa3e f30f 9abd c887 80be
00000130: c83f fe3c 9bb8 21be f473 20bd 95fd 94be
00000140: d72d 9d3d b31c 99bc 444e 0dbf 3ea7 9dbd
00000150: 94fc 1fbe 22cf f43e dbda 9e3d a528 8f3e
00000160: 40a9 deba 47b4 f23e 1a86 823c e0d2 d4bd
00000170: 8a60 9abe e54c 5dbe babf d13d 00b8 14be
0.0008362615 0.252831 -0.15620144 -0.017794754 0.1143 -0.2618179 0.280424 0.11314466
0.19470169 -0.20910135 0.19033471 -0.2419432 0.16025268 -0.3224961 -0.19713299 0.08485242
0.007778393 0.05861293 0.28553057 0.22823638 0.32861033 -0.12060646 -0.30245352 0.36233434
0.22170934 -0.28134343 0.18640172 0.054329872 -0.16088124 0.2031428 -0.27380484 -0.25569695
-0.2063615 -0.10133199 0.028034018 -0.5884624 0.5246129 -0.27978197 -0.013537284 0.8638338
0.36379328 -0.29142845 -0.06864158 -0.064817704 -0.6730279 0.2663683 -0.06682024 -0.0652855
0.5798315 -0.063076675 0.18098278 0.010931485 0.1829605 0.2876902 0.20075813 -0.48831344
-0.32176208 -0.04788886 -0.25052935 0.1726022 -0.109114796 -0.34996104 0.052384015 -0.32129544
0.04379118 0.13686116 -0.40140676 -0.045463003 0.18459414 0.6643349 0.086661905 0.13977385
0.4373667 0.48901337 -0.07522573 -0.25103593 0.031036273 -0.15793078 -0.03917308 -0.29099718
0.07674759 -0.018690443 -0.5519755 -0.076979145 -0.15623695 0.4781428 0.07756587 0.27960697
-0.0016987696 0.47403166 0.015933085 -0.10391784 -0.30151778 -0.21611364 0.10241647 -0.14523315

bias f4 [32]
00000000: 8c28 11be 9e87 e23d a8bd 733e 5ecf 63bd
00000010: 82a6 fcbd 67e7 f7bd cdd0 c63c b6e0 1bbe
00000020: 7613 3e3d 8832 46bd 5fb1 e33c 7878 a93b
00000030: 402f 15bd ba08 2d3e 78ff 1e3b 05c3 cbbc
00000040: cd0d 103e ee77 bdbd 8e4b 0fbd 0180 8abc
00000050: cebb bbbd 7564 74bd 79a6 f7bd 1227 7e3e
00000060: 2cdf 6a3e 66ba 8fbd 19aa babd 998d 8a3c
00000070: a158 05be 5a31 fb3d b54e 6d3c 7c5b e9bd
-0.14175624 0.11061023 0.23802817 -0.055617683 -0.12336446 -0.12104683 0.024269486 -0.15222439
0.04640528 -0.048388034 0.027794538 0.0051718317 -0.036422014 0.1689786 0.0024261158 -0.024873266
0.14067765 -0.092513904 -0.034984164 -0.01690674 -0.0916668 -0.059666116 -0.12092299 0.24819592
0.22936696 -0.070179746 -0.09114475 0.016913222 -0.1302209 0.122652724 0.014484097 -0.113944024

weight f4 [32]
00000000: 9143 533f e0cb 843f a157 9c3f eda4 6e3f
00000010: 3080 683f 872c 673f 4757 793f 904d 603f
00000020: 0178 843f 2a33 793f 0000 803f 8481 753f
00000030: 43fd 8a3f 9aa7 9a3f 0000 803f a1ef 7b3f
00000040: 76e9 8d3f 0868 6e3f f32d 733f c7fe 753f
00000050: 274a 743f 08bf 663f edc9 633f f210 a73f
00000060: b600 953f 0dbb 703f 857e 6c3f 0000 803f
00000070: 0e31 673f b35f 8c3f 0000 803f 340d 653f
0.82524973 1.0374718 1.2214242 0.93220407 0.908206 0.9030232 0.973988 0.8761835
1.0349122 0.97343695 1.0 0.9590075 1.0858539 1.2082398 1.0 0.9841252
1.1086872 0.9312749 0.9499199 0.96091884 0.9542565 0.9013524 0.8897999 1.3052046
1.1640842 0.94035417 0.92380553 1.0 0.90309227 1.0966705 1.0 0.8947327

bias f4 [32]
00000000: 5692 11be 850c 403d 1898 633e 41e2 88bd
00000010: bbb8 d6bd 9168 f1bd 0b65 e83c e139 21be
00000020: d133 473d 869f 42bd 0000 0000 71b5 2fbd
00000030: e286 93bb 3f89 2e3e 0000 0000 18eb 2b3b
00000040: a753 173e 7514 d5bd 3c15 4ebd ba48 63bc
00000050: 6208 c1bd 2ef9 80bd 1307 f1bd 51ee 7b3e
00000060: 60da 483e f452 74bd 6ca4 b1bd 0000 0000
00000070: 6446 16be 8e95 ef3d 0000 0000 640e e3bd
-0.14215979 0.04688694 0.22225988 -0.066837795 -0.10484453 -0.117875226 0.028368494 -0.15744735
0.0486334 -0.047515415 0.0 -0.042897645 -0.0045021633 0.17044543 0.0 0.0026232656
0.14778005 -0.104042925 -0.05031322 -0.01387232 -0.09425427 -0.06297527 -0.117689274 0.24602629
0.19614553 -0.059649423 -0.08673939 0.0 -0.1467529 0.11698447 0.0 -0.11086729

weight f4 [32, 32]
00000000: 6126 0e3e 6088 a7bd e446 ffbe 421a 29be
00000010: a640 963e a139 08bb bcec 793e 11dc 3ebe
00000020: 9809 d23e 754f 77be 8849 8a3d 201d ec3d
00000030: b00b d6bd 4abb d23c e82a a33e 18c7 8d3e
00000040: 21c1 92bd a38c eabe 5168 da3e 69e5 1f3e
00000050: 17bc 9dbe 3d6d 9d3e e30f 8ebe 3f4f e8be
00000060: de30 653c 186b e0bd 976b aebe de46 8d3d
00000070: 400d e73d 7a80 c3bd 4d98 27be b137 f83a
00000080: 3157 653e c4f5 b93b 9aa3 f9be ae9b ec3e
00000090: 5fab c2bd 8160 ec3d 2972 d03d 2985 8abe
000000a0: 82ac 0bbe 77e5 b7be e7ed 3c3e 0db2 64bd
000000b0: 6f14 1a3e 85f4 3dbe cba5 493e 27dc 0dbd
000000c0: d9c0 403e 41b6 7ebe 79c7 2f3d 4848 2ebe
000000d0: 70b6 bbbd c0c3 a73d 8cec a33e a114 053e
000000e0: 8b78 24be 9ab4 8ebe 83f1 1f3e 1bf9 f6bc
000000f0: 8216 9dbd 82e2 c33e dca4 573d c427 0b3f
00000100: e41d 983e 411f 253d a957 cc3d f83b 71be
00000110: a783 623c 26e4 54bd 87a3 ddbe a85c 3c3d
00000120: d80c e3be 8672 33bd e602 0bbe 2485 df3e
00000130: 9e0d 79be adc4 a53e 7864 8fbd d5fa 01bf
00000140: 7994 bf3e fec8 78be 41e9 0a3e ba63 c83c
00000150: 0f72 1dbe 5371 bcbd 3b53 033e d108 12bf
00000160: 28a8 adbd 84fc 133d d150 96be ea78 9bbd
00000170: 99a7 c63e a801 8ebd 0caf 313c a529 a43e
00000180: 1230 88be 9438 883d f4c7 b5be 6a37 f73e
00000190: 25c5 35be 4bd7 db3c d731 9a3e 683f 7f3e
000001a0: 5747 2cbd 8a34 da3e 309e f33d 86a0 85be
000001b0: d434 76be 270d 003d e33b 293e b583 9cbe
000001c0: 2774 993d f2c0 3bbe 062e 5d3e ec96 5c3e
000001d0: 6b0d 433e 3876 a6bc 8088 013e 2461 d7be
000001e0: 68e3 23bf 99f3 b23e b42b a43e 4046 fb3e
000001f0: 2299 4c3d 8abb 15be 5ecc 6ebd 31f1 7b3d
00000200: a17f afbe 44a2 873e 2363 dc3e 1bc8 1d3e
00000210: b594 5a3e 9fd6 8cbe 69ea a2be 8868 683d
00000220: 7d97 6b3e 0ceb 97be 18c1 723e 805d 093f
00000230: 52c7 6d3b 831e e63e e768 ac3e 1518 b1bd
00000240: ba25 b9bd c144 9f3e e81a ccbd f19a 12bd
00000250: 3a00 cc3d 764b 7c3e 5208 b83c eebb d93e
00000260: cd68 82bd 01ff 57be 855c 473e 7533 e93d
00000270: cd83 ba3d b6d7 943b 93c4 1fbf 1857 903e
00000280: cfc7 873e abf0 223e 6389 efbe b966 9fbc
00000290: b5f0 203e c33d 8b3d ad1c f6bd 5ebc a0be
000002a0: ec47 87be 827a 063d 9a4d fd3d cb7b 30bd
000002b0: 3ba9 1bbf eb35 16bc 7da2 b2be 5153 26be
000002c0: 4d5d 59be 082e 17be 8ca2 9bbd a0ab 3d3e
000002d0: 88f5 0c3f c787 b6be 3a67 a2bd 918c fa3d
000002e0: b2cf 0f3d 52e6 efbe de27 303e b7d7 e8bd
000002f0: 5eee 7dbd 63a4 cbbe af50 0bbe 55e3 953d
00000300: 0ae3 ec3e 2a72 d03e 673e 953e 64f3 523c
00000310: ac39 98bd 332e 37bf 432f 893e 8ca1 54be
00000320: 34cd ed3d 19fe c83e 802b bf3c cdfe 8b3e
00000330: 485d ffbd 4269 95be ef9e 9bbd 1c56 c63d
00000340: deb0 843e b157 393e 0ae0 fc3c 2086 3fbe
00000350: 59c5 dc3d ebd2 503e e077 17be 65e5 d73d
00000360: 3829 2a3e eeb2 013f 1adb 373e 3cc0 50bc
00000370: a8e4 84bd 46ce 453e 625b 01bf 4059 783c
00000380: 4087 a53e dc95 693e 83df 4c3e d05e f13c
00000390: a758 bbbd 4b3d a03c fef1 0fbe e13d 033f
000003a0: 67ad 8dbe 0c50 dc3c 88b4 9f3c c658 5c3e
000003b0: dd05 083e ef1d 25be 6288 b53e 5abb 913e
000003c0: f72d 0c3e 85da 3fbe 8332 7cbe 345f 6ebd
000003d0: 9697 f73c 87cb c9be b6f9 08bf dea2 2bbd
000003e0: 9ade 0d3d db1f dcbe 497a d73b f6d2 903e
000003f0: 5557 43be 3e3e 18bd 62a1 21be 81f0 5cbe
0.13881828 -0.08180308 -0.49858773 -0.16513923 0.29346198 -0.0020786303 0.24406713 -0.18638636
0.41022944 -0.24151404 0.06752306 0.11528993 -0.10451448 0.025724072 0.31868672 0.2769096
-0.07165743 -0.45810422 0.42657712 0.15614857 -0.30807564 0.30747405 -0.27746496 -0.4537296
0.013988702 -0.109579265 -0.3406646 0.068982825 0.11281824 -0.09545989 -0.16366692 0.0018937496
0.22396542 0.0056750495 -0.4875763 0.46212524 -0.09505343 0.11541844 0.10178024 -0.27054718
-0.13640025 -0.35917255 0.18450128 -0.055833865 0.15046857 -0.18550308 0.19692151 -0.03463378
0.18823566 -0.24874212 0.04291484 -0.1701976 -0.091656566 0.08191633 0.32016408 0.1299615
-0.16061608 -0.27872163 0.15619473 -0.03014808 -0.07670309 0.3825875 0.052647457 0.5435755
0.29710305 0.04031301 0.09977657 -0.23558033 0.013825334 -0.05197539 -0.43288824 0.0459868
-0.44345737 -0.04381039 -0.13575324 0.43656266 -0.24321601 0.32376614 -0.07001585 -0.50773364
0.37417963 -0.24295422 0.13565542 0.024461616 -0.15375541 -0.092013024 0.12824719 -0.570447
-0.08479339 0.03612949 -0.29358533 -0.07591422 0.38799742 -0.0693391 0.010844957 0.32063022
-0.26599175 0.066514164 -0.35504115 0.48284465 -0.17750986 0.026836058 0.3011615 0.24926531
-0.042060222 0.4261821 0.11895406 -0.26099032 -0.2404359 0.031262543 0.16526751 -0.30569234
0.074928574 -0.18335322 0.21599588 0.21541947 0.19048087 -0.020320043 0.12649727 -0.420663
-0.6401887 0.34951475 0.32064593 0.49077034 0.049950726 -0.14622322 -0.05830037 0.061509315
-0.3427706 0.26490986 0.43044385 0.15408365 0.2134579 -0.27507493 -0.31819466 0.056740314
0.23007007 -0.29671514 0.23706472 0.53658295 0.0036282134 0.44945154 0.33673784 -0.086471714
-0.09040399 0.31107143 -0.099660695 -0.035792295 0.09960981 0.24638161 0.022464905 0.4252619
-0.063676454 -0.2109337 0.19468887 0.11386768 0.0910717 0.0045423163 -0.62409323 0.28191447
0.2651963 0.1591212 -0.46784505 -0.019458162 0.15716822 0.067988895 -0.12017188 -0.31393713
-0.2642206 0.032831676 0.12368317 -0.04308681 -0.608051 -0.0091681285 -0.34889594 -0.1624272
-0.21226998 -0.14763653 -0.07599363 0.18522501 0.5506215 -0.35650465 -0.07929845 0.12233842
0.035110183 -0.46855408 0.17202708 -0.11369269 -0.061994903 -0.39773855 -0.13604997 0.07318751
0.46266967 0.407121 0.29149172 0.012875412 -0.07432875 -0.7155487 0.2679387 -0.2076475
0.11611405 0.3925636 0.023336172 0.27342835 -0.12468964 -0.29181868 -0.075986736 0.09684393
0.2591619 0.18099858 0.030868549 -0.18703508 0.107798286 0.20392959 -0.14791822 0.105418004
0.16617286 0.5066365 0.17954674 -0.012741145 -0.06488925 0.19316968 -0.50530064 0.015157998
0.3232975 0.22811073 0.20007138 0.029464155 -0.091477685 0.019560477 -0.14057156 0.51266295
-0.27671358 0.026893638 0.019495264 0.2151824 0.13283487 -0.161247 0.35455614 0.2846325
0.13689409 -0.18735702 -0.24628644 -0.05819626 0.030223649 -0.39413092 -0.5350603 -0.04190337
0.034636118 -0.42993054 0.006575857 0.2828595 -0.19076283 -0.037168734 -0.15784219 -0.2157612

bias f4 [32]
00000000: db2f 5fbd ede8 a43d 71c2 53bd 0e5b debc
00000010: 75b0 dc3c d52b d8bd 9fcb 813d 510b 94bd
00000020: fab6 14bd 4f09 f8bc 6fc5 3a3b cb7f ae3b
00000030: 4f7b 0b3d 689b 643d f541 1bbd 15c3 493c
00000040: e3c7 263e 8bd7 2cbe 2418 5f3d 6474 9dbd
00000050: ee8e 3f3d db26 70bd eb48 8a3d 5c05 453e
00000060: ea4d 123d 9feb 96bd 3f11 5c3e 0a6b 61bd
00000070: 1f0d fabc 1966 e7bb 2365 efbb b991 7dbd
-0.054488998 0.080522396 -0.051699106 -0.027143028 0.02693961 -0.10555235 0.06337666 -0.07228721
-0.036307313 -0.030277876 0.0028499027 0.0053252927 0.034053143 0.05581227 -0.0379047 0.012314578
0.16287188 -0.16879098 0.05446638 -0.076882154 0.046767168 -0.058630805 0.06752189 0.19240326
0.035718836 -0.0736916 0.21490954 -0.05503372 -0.030523835 -0.0070617315 -0.0073057576 -0.06190655

weight f4 [32]
00000000: 7201 633f 7723 5c3f c720 833f 0d71 863f
00000010: 5b8d 8d3f 44fc 753f f5e8 823f 83d9 6b3f
00000020: 91ef 693f 6883 693f c1b8 723f 306f 6b3f
00000030: cea7 893f 0358 a73f 9415 7b3f 0000 803f
00000040: b699 a93f 7e1d 713f e523 6f3f 5e20 6f3f
00000050: 0e7f 973f 4c86 653f 0e19 673f ef14 a43f
00000060: f0d5 803f b697 713f af0e 883f f40f 863f
00000070: 680f 823f fd26 6b3f a02a 893f c351 703f
0.8867408 0.85991615 1.0244378 1.050325 1.1058763 0.9608805 1.0227343 0.9212877
0.91381174 0.91216135 0.9481316 0.91966534 1.0754335 1.3073734 0.980798 1.0
1.3250034 0.94185627 0.93414146 0.93408763 1.1835649 0.89658046 0.90272605 1.2818888
1.0065289 0.9437212 1.0629481 1.0473619 1.0160952 0.91856366 1.0716133 0.9387476

bias f4 [32]
00000000: 46a8 29bd ec9c 21be bf90 87bd e940 4bbc
00000010: cbca 7f3d 35c7 bebd a0d0 303d aa9d b7bd
00000020: 16df 87bd 2cbf bdbd e75d 4bbd 11f4 a7bd
00000030: d8e3 033e af57 113e 14e3 b0bc 0000 0000
00000040: d517 4f3e 2123 1abe 578d 8cbd 1511 9bbd
00000050: cd0c 4f3e 3f61 8ebd 8f27 c4bd 51a0 893e
00000060: df3e 313d 10e5 84bd 8cf3 de3d 676e 06bb
00000070: 4530 a73c b714 b8bd 5812 ad3d aabf 61bd
-0.041420244 -0.15782517 -0.06619405 -0.0124056125 0.062449258 -0.093153395 0.04316771 -0.08965619
-0.06634347 -0.09264979 -0.0496501 -0.08200849 0.12879884 0.14193605 -0.021592654 0.0
0.20223935 -0.15052463 -0.06862896 -0.075716175 0.20219727 -0.06952142 -0.09577858 0.26880124
0.04327285 -0.06489003 0.10886297 -0.0020512582 0.020408759 -0.08988326 0.084507644 -0.055114426

weight f4 [3, 32]
00000000: 1d94 02bc e333 8dbe 225e 3c3d 1667 8e3e
00000010: 8c4f 90be f6d8 20bd 1bd3 503e e47f 61be
00000020: e14a 243e 2094 5d3b cf10 1cbf c33d 2abd
00000030: 7d6c 0e3f c2c0 2a3f 262d 47be 0d0b 863e
00000040: b9c8 a83e ae8b 87be 7541 debd eb3a d0be
00000050: 79ca a83c 3829 983d ac29 01bc 8911 9c3e
00000060: ff53 f43e 0e9a 483e ffa7 dc3c d936 b5bc
00000070: d8a1 b83d 8685 023e 770d 0e3e 0af7 223e
00000080: a3ae bcbd 7905 963d f2eb c0be 37e8 c2be
00000090: 3c0c e43e 5aca a4be c6fe 013f 3915 83be
000000a0: 4022 a2be 095f 06be 8a97 b6bd 3ebc 61be
000000b0: d4ae 813e 9141 0b3f bd3b 1c3e 6922 b4be
000000c0: 584e 313f 7d04 a7be a86e 3fbe 9b74 9f3d
000000d0: d8d6 6e3e 6cc9 363d 4594 a83d d6b9 033f
000000e0: d07d 1dbe bfe9 a7be e38d 053f 51f9 eabd
000000f0: 6e5e 0abd 5baa 25be f106 f53d ec08 193e
00000100: 88bd 51be 902a 913d 17b5 6b3d c4ef 92bc
00000110: 0b39 1dbe 4cd3 bcbd b912 0a3f 3916 063f
00000120: bf54 15bf 182a 97be 44ef 2fbd e9f8 2e3c
00000130: df1f 8cbd 20b8 3abe 0dab 69be eecf 093d
00000140: 6771 23bd 5fa0 a83c 5f4e 26bb ec0f 16bd
00000150: 92ce 84be a4a5 da3b 626d 1ebe 6ba0 03bf
00000160: 4f83 4cbe 2943 24bd e946 e83e af53 89be
00000170: d5b5 d0be e89f 193e a2fd a4be 5707 a13e
-0.007969883 -0.2757865 0.04598821 0.27813023 -0.2818569 -0.03926941 0.2039303 -0.22021443
0.16044189 0.0033810213 -0.6096315 -0.041562807 0.5563429 0.66700375 -0.19450817 0.26180306
0.3296564 -0.26473755 -0.10852329 -0.4066995 0.020604359 0.07429737 -0.0078834705 0.30482128
0.47720334 0.19590017 0.026935576 -0.02212088 0.09015244 0.12746248 0.13872324 0.1591455
-0.09212997 0.073252626 -0.37680012 -0.3806779 0.44540584 -0.32185632 0.5077938 -0.2560213
-0.31666756 -0.1312219 -0.089156225 -0.22044465 0.25328696 0.5439692 0.15257163 -0.35182503
0.6926017 -0.32620612 -0.18694556 0.077859126 0.23324144 0.044625685 0.08231405 0.5145544
-0.15380025 -0.32795522 0.52169627 -0.114733346 -0.03378146 -0.16178267 0.119642146 0.1494481
-0.20482457 0.07088196 0.057545748 -0.017936595 -0.15353791 -0.09219989 0.5393482 0.5237766
-0.5833244 -0.29524302 -0.04295279 0.010679462 -0.068420164 -0.182343 -0.22819157 0.033645563
-0.03990307 0.020584283 -0.0025376303 -0.036636278 -0.2593885 0.006672578 -0.15471414 -0.51416653
-0.19971965 -0.04010311 0.453666 -0.26821658 -0.40763727 0.15002406 -0.32224756 0.31450912

bias f4 [3]
00000000: 723f 073e 02a5 8a3d bf24 18be
0.13207796 0.06769754 -0.14857768

weight f4 [32, 11]
00000000: d228 663e 456f a5be 1491 9fbe b133 5a3e
00000010: 434d bdbe d6b6 dc3b db28 71bd 6d40 2e3e
00000020: 548e 953e edbf c0be 7f8f 1fbe d934 d83e
00000030: 7854 143d 29b0 c6be a25c 083c daad 8cbe
00000040: c557 e9bd e0ce 613c 9ff7 77be df33 963d
00000050: d064 f03e 49b4 1d3e e87d 2ebe ee31 d6bc
00000060: 5c4a fcbe cef6 6e3e 77ae 1ebe cfbf 673d
00000070: 6d50 4ebe 9d57 71bd 09d8 eabe 1efd bc3e
00000080: 3f41 773d a303 3bbe 7543 403e a1c4 c73d
00000090: 4a96 79be bef7 c7be 870d 293e 470d 46bd
000000a0: 614c adbe 6b05 25be 7d1c 13bd 7c87 05be
000000b0: 0408 153d 847d 083e 3fca 403e ea36 14be
000000c0: c3f4 0d3f d4fb 06bf 93a2 0d3e fda9 d0bd
000000d0: 9733 883e 9022 c83e 1ed3 293c ffc8 c43e
000000e0: 2206 3cbe eb06 aa3e 4bc5 89be e3dc aabe
000000f0: bee6 623e 956d 333e e673 2ebe 0d9a bebd
00000100: 9db7 78be 966c 03be 0077 953e 0c83 63be
00000110: 984e a43e 6cef c3be faf2 a13e 69d8 1e3f
00000120: 113c b8bd 5364 bfbe cdcd 993d 17f2 0fbe
00000130: 8377 90be c8ba b7be 3744 3cbe 1f6a 71be
00000140: 9230 22bd 3b37 45be de26 243e 9c7e e23c
00000150: 2bbc 873c 1bf1 c5be b26d 8fbe f8cf 133f
00000160: 9d6e 223e a6ab a13d 956e 33be 1d3a 7b3e
00000170: 8dcd 393d 3d79 a33c ce85 6b3e 442d 7f3e
00000180: a152 d33e d336 8f3e 50c1 763e afe1 2d3e
00000190: 608f 9cbe 732b 92be 41a5 edbb 30c9 8d3d
000001a0: 2955 94be 80f2 6cbd df1b 893d 9be7 03bf
000001b0: 4c08 94bd e2b0 fabe 2140 513e 1dae e83e
000001c0: dca4 563d 3871 8abe 7fa4 92be 5d8c a53e
000001d0: 5566 aebe fc34 283e 8c49 e5bd 2e70 28be
000001e0: 6c1e 5abe f92c afbd 7b7b 7f3e 4f1d 073e
000001f0: d4a2 c5be 3a01 5fbe 314a febe 852b c73d
00000200: e430 193e 541a d8bc c9bb 3f3e 8ae6 7e3e
00000210: d487 b53d 6aa8 5bbd 80af b13d 2f8e b23e
00000220: fcd7 e93d 701a 0b3e 876e 88be 28a0 233e
00000230: f99c 1bbf c5db a0bd 5824 99be 76a8 ff3d
00000240: 7c85 c13e 5358 ecbd edd9 b7be 1ded 0d3f
00000250: 6f9c 81be dd4d c3be ce04 193e a1dc 3fbe
00000260: ebe6 1b3e 10b8 62be 7685 d03e 3426 083e
00000270: 6f41 95be a2a4 e5bd ea69 d03e b753 9bbe
00000280: 4301 fc3e 177f ee3d 5f34 953e 5f96 f93d
00000290: aa2d 903e f378 70be 057a b1bd 85ed f1bc
000002a0: 9ed3 eabb e80f e4be 732e 80be 5cd3 babe
000002b0: c0a0 d53d be50 363e 72aa c93d f9a7 6b3e
000002c0: 5e61 afbe 5ebb ffbe 071c 983e fc57 0e3e
000002d0: 8b25 79be 5a44 a3be ae14 3dbf b1ad fcbd
000002e0: f6fb 6a3e b8ac 3c3d 24f4 073d 1b5d 53be
000002f0: 404a 243f f6f2 a63e 9d71 e7be 91a9 873e
00000300: 297c 88bd 5df6 613e 7c8c 64bd 9cc8 35be
00000310: 99df 5a3e 38eb ad3e 64f1 893c 6b54 f03e
00000320: 234b 03be 784f 0abd ff82 9fbd a7f5 66bc
00000330: fee8 e33e ea8c 86bd 4fb1 3b3e 9edc b8bb
00000340: 0326 07be fd79 3c3e 0056 3f39 ff22 85bc
00000350: 7b79 07be be2d 07be f53d 1b3d de18 263c
00000360: 5006 f3b9 d573 dbbe e9d7 92be 55ff 453e
00000370: 30a2 3f3e d5c2 76be 374e 6c3e 3c98 883e
00000380: b687 2f3e 7715 603e 68e5 9ebd f37e 2dbf
00000390: e20b 7ebe a6c8 6a3e 95e2 713e c690 c4be
000003a0: 1244 343b 0971 5ebe b669 f93d 0170 80bd
000003b0: cfab 83be b04b 233f 55d4 33bf 9385 29bd
000003c0: e45b 90bd d674 bcbe 26e9 1f3f 65c0 3cbe
000003d0: 1206 1cbd 9bdb a93e 762d 653e efb7 263e
000003e0: 024a 53be 9da6 98be 067b 40be 80ce fdbe
000003f0: ad04 543e 2a62 bf3b 4920 8cbe 2419 113f
0.22476509 -0.32311454 -0.31165373 0.21308781 -0.3697301 0.006735663 -0.058876853 0.17016764
0.2921015 -0.37646428 -0.15582083 0.4222782 0.03621337 -0.38806275 0.008322867 -0.27476388
-0.11393694 0.013782233 -0.24215554 0.073341124 0.46951914 0.15400805 -0.17040217 -0.026146855
-0.49275482 0.23336336 -0.1549624 0.056579407 -0.20147868 -0.058921445 -0.45867947 0.36911863
0.060364958 -0.18263106 0.18775733 0.09754301 -0.24373737 -0.390562 0.16509067 -0.048352506
-0.33847335 -0.16115348 -0.03591584 -0.13039964 0.036384597 0.1332913 0.18827151 -0.14474073
0.554516 -0.5272801 0.13831548 -0.10188673 0.2660186 0.3908887 0.010365276 0.38434598
-0.18361714 0.33208403 -0.26908335 -0.33371648 0.22158334 0.17522271 -0.17036399 -0.093067266
-0.24288793 -0.12834391 0.29192352 -0.22217959 0.32091212 -0.38268602 0.3163069 0.62048966
-0.08995832 -0.3738123 0.075099565 -0.14057194 -0.2821618 -0.3588469 -0.18385397 -0.23575638
-0.0395971 -0.1925935 0.16030452 0.027648263 0.016569218 -0.3866051 -0.28013378 0.5773921
0.15862508 0.078940675 -0.17522652 0.24533887 0.045362044 0.019955272 0.23000261 0.24919611
0.41273978 0.27971515 0.2409718 0.16980623 -0.30578136 -0.28548774 -0.007252366 0.06923139
-0.28971222 -0.057848454 0.06694769 -0.51525277 -0.07228145 -0.48963076 0.2043462 0.45445338
0.052403316 -0.27039504 -0.28641126 0.3233365 -0.34062448 0.16426462 -0.111956686 -0.16449043
-0.21300668 -0.085535 0.24949448 0.13194774 -0.3860079 -0.21777812 -0.4966598 0.097250976
0.14960057 -0.026379742 0.18723978 0.24892631 0.08863798 -0.05362741 0.08676052 0.34874102
0.11418149 0.13584304 -0.26646826 0.15979064 -0.60786396 -0.07854418 -0.2991054 0.12483303
0.37797153 -0.11540284 -0.35908452 0.5543993 -0.25314662 -0.38145342 0.14943239 -0.18736507
0.15224807 -0.22140527 0.40726823 0.13295823 -0.29151484 -0.11213042 0.40705806 -0.30337307
0.49219713 0.11645334 0.29141518 0.12186884 0.2815984 -0.23483638 -0.086658515 -0.029532203
-0.00716634 -0.44543386 -0.25035438 -0.3648938 0.10431051 0.17804238 0.09846963 0.23013295
-0.34253973 -0.49947637 0.29708883 0.13900751 -0.24330728 -0.31888086 -0.7385968 -0.123378165
0.22947678 0.046063155 0.033191815 -0.20640986 0.64175797 0.3260724 -0.45203868 0.26496556
-0.06664307 0.22066636 -0.05579804 -0.17752308 0.21374358 0.3396852 0.016838737 0.46939406
-0.12821631 -0.033767194 -0.077886574 -0.014096654 0.44513696 -0.06569846 0.18329357 -0.005641534
-0.13198094 0.1840591 0.00018247217 -0.016252039 -0.13229935 -0.13201043 0.037900884 0.010137765
-0.00046353275 -0.4286181 -0.2868035 0.19335683 0.18714213 -0.2409776 0.23076712 0.26678646
0.17141613 0.21883188 -0.077585995 -0.67771834 -0.2480922 0.22928104 0.2362159 -0.38391703
0.0027506393 -0.21722807 0.12178366 -0.06271363 -0.25717017 0.63787365 -0.7024587 -0.041387152
-0.07048777 -0.3680789 0.6246513 -0.18432768 -0.038091727 0.33175358 0.22380623 0.16281103
-0.206337 -0.29814616 -0.1879693 -0.4957161 0.20704909 0.0058405595 -0.27368382 0.56678987

bias f4 [32]
00000000: 00e1 21bd 9e68 c7bd aec6 7cbb f129 23be
00000010: e68a 2b3e 0b08 2dbe fbf7 b33b 4c7d 1cbe
00000020: 3220 b23d ef08 4cbe 989c f9bd d7ad a83d
00000030: dacb 0bbe 4bc4 ccbc db43 773e d6aa 233e
00000040: 2345 973d 5ff6 dc3d 16ec 5a3d b96c edbd
00000050: c3cc 1abe b580 943e 7b65 0cbd ff75 20be
00000060: 9885 f0bc cb2b 753e 4e1c 2cbe d04e 2e3e
00000070: 780e 183d 3f39 373d 64fd 1e3e a472 04be
-0.039521217 -0.09736751 -0.003857057 -0.15933968 0.16752204 -0.168976 0.005492208 -0.15282172
0.08697547 -0.19925283 -0.12188071 0.08236282 -0.13651982 -0.024995944 0.24146979 0.15983137
0.07386234 0.10789179 0.053447805 -0.11593003 -0.15117173 0.29004446 -0.034276467 -0.15670012
-0.029360577 0.23942487 -0.16807672 0.17022252 0.037123173 0.04473233 0.15526348 -0.12934357

weight f4 [32]
00000000: 4ec1 7f3f 1164 613f ee24 713f 399b 5b3f
00000010: 1a98 9d3f 874b 6d3f c182 7a3f 4cbe 533f
00000020: ff80 723f b161 583f e627 653f 09ea 873f
00000030: 6bce 633f 623f 7c3f 9df7 a63f 1dcc 983f
00000040: f2c1 833f c0d2 903f 0159 933f 076d 5c3f
00000050: 63dc 873f 5bd3 a03f d734 813f 7e9d 5a3f
00000060: b376 5f3f 2739 963f 733c 653f 8341 983f
00000070: 9b97 883f 8e3d 883f b5b6 9f3f 4602 623f
0.99904335 0.88043314 0.94196975 0.85783726 1.2312043 0.9269337 0.97855765 0.82712245
0.9472808 0.84524065 0.89514005 1.0618297 0.88986844 0.98534214 1.3044316 1.193729
1.0293562 1.1314316 1.1511537 0.8610386 1.0614132 1.25645 1.009425 0.85396564
0.87290496 1.1736192 0.89545363 1.1894993 1.0671266 1.0643785 1.2477633 0.8828472

bias f4 [32]
00000000: ab7e 94bc 9887 cdbd 6b15 0bbc 3064 11be
00000010: 6169 3b3e 3989 1ebe a938 343d 8003 d1bd
00000020: 01cd 0f3e 360a 34be 6900 c2bd caa9 b43d
00000030: b230 13be 6f51 66bd c383 6c3e 81f7 3c3e
00000040: 35ec 983d 7fcd d93d cea4 5b3d 2c70 babd
00000050: 656a 12be 3bbd 953e 363e 193c a3e2 17be
00000060: 452e 31bd accf 6d3e fcb5 d5bd de03 253e
00000070: b741 323d be1a 813d 81a0 233e d846 f7bd
-0.018126806 -0.10035628 -0.008488993 -0.14198375 0.18301918 -0.15482034 0.043999348 -0.10205746
0.14043047 -0.1758202 -0.094727345 0.08821447 -0.14374045 -0.056230005 0.23097138 0.1845379
0.07466928 0.106348984 0.053623967 -0.09103426 -0.14298399 0.29245934 0.009353211 -0.14832549
-0.043257017 0.23223752 -0.104351014 0.16114756 0.0435197 0.06303929 0.15979196 -0.12074059

weight f4 [32, 32]
00000000: 4d9f 0f3e 2946 293c 3bff 33be 4d10 c33c
00000010: db0b d03e 814a 923e f06d 99be 44b9 97be
00000020: 9602 9f3d 4500 0dbf ad22 863d 14a0 4bbe
00000030: 43c5 9dbd f1f9 59be f258 62be bc43 a7be
00000040: 2e71 80be 4ab3 08be 1cc5 8abd 6f5e 8e3e
00000050: 84a5 583e a92a b1bd bdda 25bc 1b85 c8bb
00000060: 1136 26bf 2469 f6bd 0bac 8e3c 7c18 a2be
00000070: 88a0 a2be 2c9d a23d 58a8 60be 1c0e c9bd
00000080: 5d43 8ebe 151b bfbe f46e 433e b3cd 10bf
00000090: c18b e1bd 4af4 bd3d 15d5 e73e b4ab d6be
000000a0: ccf1 2e3d a888 943e 7deb 12bd 8991 8cbe
000000b0: 5ff8 05be 5f7b 26bd 5fc4 08bf ce39 82be
000000c0: ea7c 683d de34 dbbe 6f1d 10bd 713f e93e
000000d0: ad6b 9a3e 82bd b2bc db7a ff3d 09d5 413d
000000e0: 4302 433e a744 4abd f108 b2be 4ff2 c7bc
000000f0: 4da0 21be 9fa1 31bd a64e c6bd c41b 033f
00000100: fcd2 033f b055 3cbe 9bf1 ff3d 2ab9 753c
00000110: 28f3 8c3e 8f9e 8ebe 95eb 6a3e 0652 233e
00000120: 8d5c 753e d947 96be 1fee 84bc 7a6f b7be
00000130: e17e a83e 029b b13e 9128 a63d e3bb 25bf
00000140: c7d3 b1bc fa1d a63e 43b4 48be 45f9 80be
00000150: 8506 ee3d 6e70 6e3e 20f0 e03e f6e2 94bd
00000160: c2d2 073f 05af 2b3e b390 a6bc b2cb 48be
00000170: 8d09 8dbc 86ce 9f3e b47f 01be be77 a4bd
00000180: 6ed8 263e 2a2c 43be 7e31 fcbc 71a2 df3c
00000190: 0074 f13e 2909 d3be 86fb 93bd 630a 863e
000001a0: a4d3 573b d246 ecbd 8401 7fbe 5e21 3fbe
000001b0: 9d12 e1bd 96b2 acbe 329c 2e3e c721 233f
000001c0: de5e f03e ae31 783e 8621 6f3e b7a4 933e
000001d0: f8a6 a2be e1dd b03e 2c7a a8bd 0bf0 e53e
000001e0: dedb 013e 1ad3 d23c fefe 3f3e d4d9 75bd
000001f0: 7a27 613e 6c48 7bbd d5fb 4e3c 7371 773e
00000200: 101a fcbb d5d8 39be dfdf f2bd 3afe 1e3c
00000210: 0c0b 903d 4047 863e 182d 783e fa02 82be
00000220: 8a74 f0bd bf1c 8c3d 9f6d 293d cc82 13bd
00000230: 1c5e ad3d 5cbc 883d 3641 91be aa68 003f
00000240: a0aa b93e ef8d 1dbe 838b 5f3e fed1 a33c
00000250: fcd5 773e f91c 1bbe fa57 023f a5d4 1fbe
00000260: d537 533e 42c9 aa3e eeb9 2a3e 623f 37bf
00000270: 3ee7 83be 34c2 d83d 2aa0 143f ded4 29be
00000280: b1b8 e4bb 133d ea3e c9a4 0c3e 847f 4d3e
00000290: bf1a a73c 74e8 38be b077 233e 1419 493e
000002a0: 9b75 15bf 32f9 a6be bc61 853d 15c4 99be
000002b0: fdf1 02be 63aa 2e3e 5096 8bbe a6c6 a03e
000002c0: b4eb 8c3e a929 00bf 3c69 0ebd 22fa 693e
000002d0: 1ac0 963e 536c 15bf 5d9c a43d 9b9c a2bc
000002e0: a853 a33e 91ae 61be 085c 0ebf 2832 b4bc
000002f0: f9fb f83d 08f0 df3e 20fb a1bd ec96 db3d
00000300: e19c 373e e59a b2be e5f3 423e 99a6 d9bb
00000310: cbb5 d3bd c053 623e 9e48 5bbe 4814 3b3e
00000320: 1dd0 0dbf b60c aabd 28d6 8ebd 9071 50be
00000330: 9179 4cbe bd5b 763c eccf a83e 46c3 a6be
00000340: d5dd 203e 299c a5be 8ab3 cdbe 29ee 77be
00000350: 375e 363e 0bb8 973e 1589 673d 1b5c c83d
00000360: 526b 0dbe c808 71be c7b8 7abe 2b58 3abe
00000370: 476f 41be 3010 a3be 006f fabd 1808 c13c
00000380: 9962 fe3d 36f5 95bd bc7b 73be e236 10bd
00000390: 9c7a 473e 8a16 4f3e ee42 a1be 3587 cb3d
000003a0: be22 1a3d f88a af3e 6682 82be c82e 0b3f
000003b0: 050d 7f3d e5ab d6bd b8f2 c1bd fed2 a53d
000003c0: 5e8d a9bd 64df 6cbd f5b4 ca3d 4659 82be
000003d0: 584a d43e b27b 09bf 6fc4 873e 5d04 3c3e
000003e0: 4157 153e 100c ccbd 89bd 68be 04f2 81be
000003f0: 9c53 44bd beaf c9be 0982 34bf d723 67bd
0.14025612 0.010331669 -0.17577831 0.023811484 0.40634045 0.28572467 -0.29966688 -0.29633534
0.07764165 -0.55078536 0.06549583 -0.19885284 -0.0770364 -0.21286751 -0.22104242 -0.32668865
-0.2508635 -0.13349643 -0.06775877 0.27806422 0.21156889 -0.08650715 -0.010122952 -0.006119383
-0.6492625 -0.12031773 0.01741602 -0.31659305 -0.317631 0.079401344 -0.21939218 -0.09817144
-0.2778577 -0.3732535 0.19085294 -0.5656387 -0.11012984 0.0927511 0.45279756 -0.41927874
0.042711064 0.2901051 -0.03586911 -0.27454785 -0.13083027 -0.040645 -0.5342464 -0.25434726
0.056759752 -0.42813772 -0.03518432 0.45556214 0.30160275 -0.02181888 0.12474605 0.047322307
0.19043832 -0.04938188 -0.34772447 -0.024407534 -0.15783806 -0.043367025 -0.0968297 0.5121424
0.5149381 -0.18392062 0.124972545 0.01499776 0.27529263 -0.27855346 0.2294143 0.15949258
0.23961087 -0.2935169 -0.016226826 -0.35827237 0.329093 0.34688574 0.08113206 -0.6473982
-0.021707429 0.32444745 -0.19600014 -0.25190178 0.11622337 0.23285076 0.439332 -0.07269852
0.53055966 0.16765983 -0.02033267 -0.19608954 -0.017216468 0.31212252 -0.12646371 -0.080306515
0.16293499 -0.19059816 -0.030785318 0.027299138 0.47158813 -0.41217926 -0.07225709 0.261798
0.0032932544 -0.115369454 -0.24902922 -0.18665072 -0.10989878 -0.3373 0.17051771 0.63723415
0.46947378 0.24237701 0.23352632 0.28836605 -0.31768012 0.3454428 -0.082264274 0.449097
0.12681529 0.025735427 0.18749616 -0.06002219 0.21987715 -0.061348364 0.012633284 0.24164371
-0.0076935366 -0.18149121 -0.11859106 0.009704167 0.07033357 0.26226234 0.24235952 -0.25392896
-0.11740978 0.068414204 0.04136431 -0.03601341 0.084652156 0.06676552 -0.28370064 0.50159705
0.3626299 -0.15386175 0.21830563 0.019997593 0.24202722 -0.15147771 0.5091549 -0.15608461
0.20626767 0.33356673 0.16672489 -0.7158109 -0.2576236 0.10583916 0.5805689 -0.16585109
-0.0069800247 0.4574972 0.13734736 0.20068175 0.020398496 -0.18057424 0.15963626 0.19638473
-0.58382577 -0.32611996 0.06512782 -0.3003241 -0.12787624 0.17057185 -0.27263117 0.31401557
0.27523577 -0.5006357 -0.034768328 0.22849324 0.29443437 -0.58368415 0.080376364 -0.019850066
0.31899762 -0.22039248 -0.5560918 -0.021996573 0.12157435 0.43737817 -0.079092264 0.107221454
0.17930938 -0.348838 0.19038351 -0.0066421744 -0.10337409 0.2210226 -0.2141442 0.18269455
-0.5539568 -0.08303206 -0.06974441 -0.2035582 -0.19968249 0.015036521 0.32971132 -0.32570857
0.15709622 -0.32345703 -0.4017604 -0.24211945 0.17809378 0.296326 0.056527216 0.09783193
-0.1381047 -0.23538506 -0.2448455 -0.18197696 -0.18890105 -0.31848288 -0.12228203 0.02356343
0.1242115 -0.07322161 -0.2377767 -0.03520859 0.19480366 0.20223442 -0.31496376 0.09937898
0.03763079 0.34285712 -0.2549011 0.5436826 0.062268276 -0.10482005 -0.09470123 0.08096884
-0.08278917 -0.05783023 0.09897796 -0.25458735 0.4146297 -0.5370437 0.26517054 0.1836104
0.14584066 -0.09963238 -0.22728552 -0.25379956 -0.0479313 -0.39391893 -0.7051092 -0.056430664

bias f4 [32]
00000000: fdbf 96bd 1745 563d 5457 b23d 905e c23d
00000010: c02c 073e 6640 663d 36d0 e7bc f952 34be
00000020: 12bc 12be f737 0bbd ba32 f43d 5b53 4f3e
00000030: 701f 11be b403 003e 38ba f5bd 785e d23b
00000040: 340b f7bd 8fb2 6d3e 21fe c8bd 2e05 593e
00000050: dc96 9e3d 8e7b 8a3e 9d2a 323e 1e9a 26bd
00000060: 1238 55bd 8f0b c73d a568 79bd 2839 d1bd
00000070: 976e e7bb 8da2 16be 6cfa 203e 4a74 22be
-0.073608376 0.052311983 0.08708063 0.094906926 0.13200665 0.05621376 -0.028297525 -0.17609777
-0.14329556 -0.03398892 0.11923738 0.20246641 -0.14172149 0.12501413 -0.11998409 0.006419953
-0.12062684 0.23212646 -0.09814096 0.21193382 0.07743618 0.2704739 0.17399068 -0.04067432
-0.052055426 0.097190015 -0.060890812 -0.1021598 -0.007062744 -0.14710446 0.15720528 -0.15864673

weight f4 [32]
00000000: f41e 6d3f b406 933f ae3c 933f 5f44 9e3f
00000010: 8db3 883f b865 923f e7ea 6d3f dbcb 593f
00000020: 3b6d 6b3f 6f60 793f a3f5 ab3f 1007 9c3f
00000030: 4527 663f 978e ab3f d6d4 673f 1e71 863f
00000040: f2aa 643f 1c71 993f 35c4 773f 90b0 a63f
00000050: cec0 9a3f 1a87 b73f caa3 a33f a1af 833f
00000060: d4a9 683f 4977 943f f068 7c3f ee63 7d3f
00000070: 1e23 623f 4998 5c3f e0de a03f a900 803f
0.92625356 1.1486421 1.1502893 1.2364615 1.0679795 1.1437292 0.9293656 0.85076684
0.9196355 0.9741277 1.3434337 1.2189655 0.8990367 1.340289 0.90559137 1.0503271
0.8932334 1.1987643 0.96783763 1.3022633 1.2090089 1.4338105 1.278436 1.0287973
0.9088414 1.1598903 0.9859762 0.98980606 0.88334835 0.8616987 1.2568016 1.0000201

bias f4 [32]
00000000: 2a3b a7bd 0e6e 6c3d 12ce 2c3e fc8a 493e
00000010: 8d7e 733e e9dc 183e affe 3fbd 7aef 04be
00000020: d4fd 3ebe 596e 853d 3aba 3a3e f8aa 823e
00000030: 70bd e8bd f6ae 803e c8f3 2dbe f830 223d
00000040: 5d6c febd f86b 5c3e f15f 56bd 8fa8 983e
00000050: b811 513e 4329 ab3e a5a2 413e 3e81 2b3d
00000060: ec00 afbd 68bd 573e b84c a33d 0c1d 10bd
00000070: 1697 f1bd 9f19 16be cbb3 633e abb0 35bd
-0.081655815 0.057722144 0.16875485 0.19681925 0.23778744 0.1492802 -0.046873745 -0.12981978
-0.18651515 0.06515188 0.18235102 0.25521064 -0.11364257 0.25133485 -0.16987526 0.03959748
-0.124230124 0.21525562 -0.05233759 0.298161 0.20416915 0.33429918 0.189097 0.0418713
-0.08545098 0.21068347 0.07973617 -0.03518395 -0.117963955 -0.14658211 0.22236554 -0.044357937

weight f4 [5, 32]
00000000: 0dbb e33e bd50 06bf 1b5a 9e3d bc15 053e
00000010: d02b 2cbe b31c 75be ae03 7fbe e21f b8bc
00000020: 3f44 3abd 38ad afbe 85b8 0d3f 4a64 2e3c
00000030: 87b6 573e 6298 283f 0720 63be bebf 76bc
00000040: 82c1 693e f595 0f3f 353b dd3e cde4 003f
00000050: 989d a3be 89be e93e 6f45 1f3d 5149 a63e
00000060: 3992 c13e f0d8 ce3d ec1b 773e cdbb 3dbe
00000070: c31f 80be 14cc 133e 6452 4dbe ceb7 283e
00000080: ce98 813e 7f0b 99be 61f5 7ebd 8975 aebd
00000090: ca48 33be c96a eb3d c0f5 96bd db84 d1bd
000000a0: cf45 c03e 2c18 6ebe f3cd 29bf b98a 933d
000000b0: 41a4 a73d 5ff1 85bd 7879 ecbd e9b8 e23e
000000c0: 78de 363e 778d 05bf 3f08 463e df2f 1bbf
000000d0: 5d0c f7bd 056b 2cbd 9e9c a93e 938a 95be
000000e0: 956d dd3e 56c4 ff3d 4a31 0dbe cf7b 5cbe
000000f0: b55a 153e 6b95 9cbe 1e55 183e 9869 52be
00000100: 7df6 303e 8eed 9abe 30ab f73e 9b32 9d3e
00000110: 93df 8abc 740f 0b3f b543 de3e 2f2a 88be
00000120: ef0b 86be 46db 913e 0b6b 013f bb96 2b3f
00000130: 9874 55be 7ddf 713e 28b7 883e 94f9 f73e
00000140: fcf3 ff3d 0569 c23c e276 a63e 9159 63bd
00000150: bf04 123f 84ec 413f 2cb1 333e 5116 3dbe
00000160: b934 893d e43e 953e 10f3 813e 0ad7 b93d
00000170: 9d52 d0bd d981 013d 25b8 bb3e 9ac6 743d
00000180: bf2e cabe 87f4 553e 5be5 2c3f 6ced a9bd
00000190: 6865 cd3c ab03 84bd 426d cd3e 7081 6a3d
000001a0: d88d 243e c238 54bc ca51 3f3e fc76 0cbd
000001b0: f597 92be 8e1c 2d3e 209e 2dbd 8ab1 943e
000001c0: 80e8 08bf b1c3 d03d e996 903e b096 7f3e
000001d0: 26b1 fa3c ab69 87bd 31aa a6be a67b db3e
000001e0: 57b6 cc3e 1ee1 ea3c 5ba0 803e 69ea 953e
000001f0: 0d44 5d3e 1b03 ef3e aceb 52be bc79 6f3e
00000200: 6754 a53c 4baa 90bd 3503 1c3e b6ea 293f
00000210: bbeb 3c3f 82a7 303e 6aa7 43be 17c2 b73e
00000220: 9dd7 b6be ec09 903d d927 9e3e ea44 d33e
00000230: bf6c ad3e 8030 003e 141e 85be 8785 3abd
00000240: d8e8 cebe bb00 69be 4a3b 023e a802 b7bd
00000250: b0f0 813e 5d93 073e 531d 073f 2344 b43d
00000260: 3cc2 f53d b360 e73e 397a 403e 8bb4 4abe
00000270: 1717 4d3a f239 813e c441 243f a10f 3a3e
0.44478646 -0.52466947 0.0773203 0.12996572 -0.16813588 -0.23936729 -0.24903747 -0.02247614
-0.04547524 -0.34311843 0.5535968 0.010644028 0.21065722 0.6585752 -0.22180186 -0.015060363
0.22827724 0.5608819 0.43209234 0.5034912 -0.31956172 0.4565318 0.038884576 0.3247781
0.37806872 0.10099971 0.24131745 -0.18528672 -0.25024232 0.14433318 -0.20050961 0.16476366
0.25311893 -0.29891583 -0.06224573 -0.08518512 -0.17508236 0.11494977 -0.07371092 -0.10230418
0.3755326 -0.23251408 -0.6632988 0.072041936 0.08185626 -0.065401785 -0.11546606 0.442817
0.17858303 -0.52168983 0.19339083 -0.6061992 -0.12062905 -0.04209425 0.33127302 -0.29207286
0.43247667 0.1248862 -0.13788334 -0.21531604 0.14585383 -0.30582747 0.1487622 -0.20548093
0.17281528 -0.30259365 0.48372793 0.3070267 -0.016952312 0.54320455 0.4341103 -0.26594684
-0.2618098 0.28487605 0.5055396 0.6702687 -0.20845258 0.2362041 0.26702237 0.484326
0.12497708 0.023731718 0.32512575 -0.05550534 0.5703849 0.7575152 0.17548054 -0.18465544
0.06699509 0.29149544 0.25380754 0.090742186 -0.10172007 0.031617973 0.3666393 0.059759714
-0.3948879 0.20894061 0.6753747 -0.08297238 0.025072768 -0.06446012 0.4012242 0.057252347
0.16069734 -0.012952985 0.18683544 -0.03429316 -0.2863156 0.16905424 -0.042387128 0.29041702
-0.53479767 0.10193575 0.28240135 0.24959826 0.03060205 -0.066119514 -0.3255172 0.42867774
0.39982864 0.028671797 0.25122342 0.29280403 0.2160799 0.46682057 -0.20597714 0.23386282
0.020181848 -0.07063731 0.15235598 0.66373765 0.73797196 0.17251399 -0.19106832 0.35890266
-0.35711375 0.070331424 0.30889776 0.41263515 0.3387203 0.12518501 -0.2599951 -0.045537498
-0.4041202 -0.22754185 0.1271793 -0.089360535 0.25378942 0.13239808 0.5277912 0.088020585
0.11999938 0.45190963 0.18796624 -0.19795434 0.000782357 0.2523952 0.6416285 0.18170024

bias f4 [5]
00000000: 6ee7 93bd eeaf ed3b 3037 783e 6a76 ac3d
00000010: e0bf 963e
-0.07221876 0.0072536385 0.24239802 0.08421023 0.29443264

weight f4 [32, 22]
00000000: 0d70 82be 9a16 67be 411b 5f3e d8bf 4d3c
00000010: 148d e5bc 13f0 ecbd 8d9e aa3e d976 3bbe
00000020: d012 163e d5f1 ea3e 4f9f 163f d42a 603d
00000030: 0089 85be e937 b9be afca 373e 48bf f33b
00000040: 9abc 3c3d da38 6c3e 338e e5bb 6139 d7bd
00000050: c581 a0bd 6937 e2be c261 563e 72ed 493e
00000060: cedc b8be a45e 4cbd 9507 163e 02f0 5ebe
00000070: bc2d c3be f144 93bd acdf 163e 6f37 f53c
00000080: 9e88 a43d 5b02 003e 4496 0f3f 0103 0bbe
00000090: 4539 22bf be3b bfbe 9d60 a43e b620 44bd
000000a0: ab9c 17bd 33ea 533e 7ef3 92be 739c d0be
000000b0: 48fb ce3e f9b6 4b3e a323 903e fc81 b9be
000000c0: d565 b23e 7574 e23d 7355 b63d 1c59 bd3d
000000d0: ca3e 30be 7656 98bd 2a6d 9cbc 5a48 9dbe
000000e0: bfc2 363d fcaf 68be ea74 263e 90c5 553d
000000f0: f0b4 09be 976f 9ebe 4e9a 80be 9699 883e
00000100: 210c babe 0bb0 ca3d d172 e3bd 7470 c83e
00000110: 3dbf 8b3e 1006 8cbc 5694 d3be ad78 28be
00000120: edfc 1ebc d4e7 193e 4624 07bf 6fa4 08bd
00000130: f545 013e a816 fe3e 3819 9f3e 31b4 193e
00000140: a80f a63d d601 6bbe 43e9 513e b401 bb3e
00000150: 3b0d de3e ebd3 9b3e 2d34 5bbd d2d1 823e
00000160: 2a0d 2f3f 6f4e 83be fa97 0b3f a911 c13e
00000170: 2d3f 4f3d d208 7ebe 9ea4 4f3e 1c7e b53e
00000180: 8c3b 1b3f 8c9b 9abd 5608 f7be ec19 dd3d
00000190: 0de5 673e c2d8 133e 1023 d93d b696 f73d
000001a0: 263c 68bd 0c41 333e 1148 753e 2209 e63e
000001b0: 8d9e 133e f48f 7cbe a1ac cb3d f183 0d3d
000001c0: 721e a8be 2fcb dfbd bafe 13be 3f62 7d3e
000001d0: 2e03 d53d eecf ad3d 8008 983d 59ad 273e
000001e0: 371b a8be 986b 31be 3f41 8abe c20c 233d
000001f0: 1096 cabd 99c6 afbd bf09 c4be c9b9 293e
00000200: 519f 9f3e 14ab 933e 279a 3cbe 80fd 6ebe
00000210: b8da 76be ee43 1ebf 4994 a7be 071c 983e
00000220: d2f7 2c3d eefa a53e 64ff aebd cde5 55bf
00000230: 5028 be3e 6fc3 91be 3172 13be ad12 da3e
00000240: 57a6 203e e1be 77be 525c 6f3e 3ce0 b53e
00000250: 1458 123d 3749 c4be d9d5 593e 6b62 543d
00000260: 42c7 f6bd f27f 90bd e037 76bb 5bbd 96be
00000270: cdd9 4f3f fd63 95be 6be3 bf3d 9d58 1a3f
00000280: 1129 f63d 3a23 1abf 8729 35be 6c32 293e
00000290: 0a4a b5bd d100 f6bd 64b9 a7bd 8a71 433e
000002a0: 7143 c1bd 9e97 bfbd 5872 033e 0d4d 1a3e
000002b0: 8abc 0d3d 4544 d13d bf29 9d3e a95a 90be
000002c0: f9ed c03e 5a24 9cbe 1755 593c 11a4 bb3c
000002d0: b6d9 86bd a626 4ebe 88f8 27be a4ed 47bd
000002e0: 9a23 133d 0a67 77bb d8dc 1c3e 7057 3ebe
000002f0: 318b a6be 713c 333e 5a1e 9abe daac e43c
00000300: f834 10be d393 88be 8835 56bc 5df3 813e
00000310: 0c93 30be 7f17 93bc 49bf eabd 9989 2b3f
00000320: 094a 2abd 350c d4bc bc88 013f fb3d 4bbe
00000330: 337e 71be 6604 32be 2636 cdbd 0a60 383e
00000340: 4b69 bcbd 2d7c d6bc 6898 f6bb a478 5e3d
00000350: c446 833e 9203 82be c896 e3bd 4131 9fbe
00000360: 6e43 37be 43e5 bebe f18c 7cbd 6780 a1be
00000370: 7ed7 39bf 1ee9 38be 3fe0 a23e 13c2 a03d
00000380: c2a4 343d 6cf2 b43c 8758 423e 5fda 0ebe
00000390: 7a83 123f 2929 b8bd 6edf 303f 5895 25be
000003a0: 099f 06bc 10d9 a13d dea5 e23c 4059 57be
000003b0: 8319 4f3e ff5c 1bbe dcfa 583e e68e 24be
000003c0: d12a bdbe 8708 b8bb 210e a5be c206 6a3d
000003d0: 4140 fd3e 7182 af3e 4f2d 1abe 02ca d6bd
000003e0: 56c0 023e c272 18be 35a9 983d eec4 e43e
000003f0: b214 d2be 24bc 603c 85f2 5d3e e612 48be
-0.25476113 -0.22567216 0.2178774 0.012557946 -0.028021373 -0.11569228 0.3332409 -0.18307056
0.14655614 0.45887628 0.58836836 0.054728344 -0.26081085 -0.3617547 0.17948411 0.007438574
0.046078302 0.23068562 -0.007005477 -0.10508991 -0.078372516 -0.441829 0.20935729 0.19719484
-0.3610596 -0.049894944 0.1465133 -0.21771243 -0.3812083 -0.07190884 0.14733762 0.02993366
0.0803387 0.12500899 0.5608866 -0.13575365 -0.63368636 -0.37350267 0.3210496 -0.047882758
-0.037014645 0.20694809 -0.28701395 -0.4074436 0.40426087 0.19894017 0.2815219 -0.36231983
0.34843317 0.11057369 0.08903017 0.09245512 -0.17211452 -0.07438366 -0.019095022 -0.30719262
0.044619318 -0.22723383 0.16255537 0.052190363 -0.13447928 -0.3094451 -0.25117725 0.26679677
-0.3633738 0.09896859 -0.11105884 0.39148295 0.2729434 -0.017092735 -0.4132411 -0.16452284
-0.009703857 0.15029842 -0.52789724 -0.03335994 0.12624343 0.4962666 0.31073928 0.15010144
0.08108455 -0.22949919 0.20499139 0.36524737 0.4336947 0.30435118 -0.053516556 0.25550705
0.6837946 -0.25645778 0.5452877 0.37708786 0.05059736 -0.24808052 0.2027764 0.35447776
0.60637736 -0.075491995 -0.48248547 0.1079596 0.2264597 0.14438155 0.10602391 0.12089293
-0.056697987 0.17505282 0.23953272 0.44928843 0.14415951 -0.24664289 0.09945036 0.034549657
-0.32835728 -0.10927426 -0.14452639 0.24744509 0.10400997 0.08486925 0.07423496 0.1637472
-0.32833263 -0.173262 -0.27002904 0.03980709 -0.098919034 -0.08582801 -0.38288686 0.16574778
0.31176236 0.2884146 -0.1841818 -0.2333889 -0.24106872 -0.618224 -0.3273032 0.29708883
0.042228527 0.32418007 -0.08544806 -0.83553773 0.3714013 -0.28469416 -0.1439903 0.42592373
0.15688454 -0.24193908 0.23375061 0.3552264 0.03572853 -0.38337108 0.21272983 0.05185167
-0.12049724 -0.07055654 -0.0037569925 -0.29441342 0.8119171 -0.29177848 0.093695484 0.60291463
0.120195515 -0.6021 -0.17691623 0.1652314 -0.088520125 -0.120118745 -0.08189657 0.1908628
-0.094366916 -0.093550906 0.12836587 0.15068455 0.034603633 0.102180995 0.30695912 -0.28194168
0.3768156 -0.30496484 0.013264916 0.022905381 -0.06584494 -0.2013193 -0.16403401 -0.048810616
0.035922624 -0.0037750625 0.1531862 -0.18588042 -0.3252807 0.17503525 -0.3010128 0.027914453
-0.14082706 -0.2667528 -0.013074286 0.25380984 -0.17243594 -0.01795554 -0.11462266 0.6700683
-0.04157451 -0.025884727 0.50599265 -0.19847862 -0.23583297 -0.1738449 -0.100200936 0.18005386
-0.091997705 -0.026182259 -0.0075254925 0.05431427 0.25639927 -0.2539335 -0.111127436 -0.31092265
-0.17896816 -0.37284288 -0.06165785 -0.31543276 -0.7259444 -0.18057677 0.3181171 0.07849517
0.044102438 0.022088252 0.18979083 -0.1395049 0.5723187 -0.08992226 0.69090927 -0.16170251
-0.008216628 0.079027295 0.027666982 -0.2103014 0.20224576 -0.15172194 0.21189445 -0.16070136
-0.3694673 -0.005616251 -0.32237342 0.05713535 0.49463084 0.34279206 -0.15056346 -0.10487749
0.12768683 -0.14887527 0.07454149 0.44681495 -0.41031414 0.013716731 0.21674545 -0.19538459

bias f4 [32]
00000000: cb5b 9abd b254 8b3d 8f9e e53d fa86 493d
00000010: 9f0d b33d c87f 36bc e955 97bd a735 663d
00000020: e3a6 8dba abe9 83bc 5288 a9bd a31d 163e
00000030: e02c b53d 4ba8 c33d be2e f4bc 08b8 74bd
00000040: 9fa2 26bd 8a46 81bd af93 8d3d c830 a23d
00000050: 36e9 0e3e 665c b73d 79d1 c23d 5c3e 89bd
00000060: c72c 61bc 8574 853a e6e5 82bd 7426 093e
00000070: 38ac 69bd f46c 18bb 3602 2fbc b6a0 b7bb
-0.07537039 0.06803264 0.11211883 0.04920099 0.087428324 -0.011138864 -0.07389433 0.05620351
-0.0010807182 -0.016102633 -0.08277954 0.14659743 0.0884645 0.09553584 -0.029807445 -0.05974582
-0.04068243 -0.063122824 0.06912934 0.079194605 0.1395615 0.089531705 0.0951261 -0.06701347
-0.013743586 0.001018182 -0.06391506 0.13393575 -0.057049006 -0.00232583 -0.0106816795 -0.005603875

weight f4 [32]
00000000: 4840 943f cff7 783f 3a68 863f af14 7e3f
00000010: 065e 8c3f af55 6f3f 74de 943f 0e35 803f
00000020: 933b 6a3f eef0 723f c702 883f 2506 8c3f
00000030: 28ef 663f 1c14 753f 65cd 6b3f 3778 b03f
00000040: 8a6b 823f 7108 9b3f 89df 833f f739 843f
00000050: 7417 773f 506b 7e3f 785d 843f 25ae 923f
00000060: 8852 8b3f f74c 823f 84da 6e3f 1898 8b3f
00000070: e118 743f 5c1c 6e3f d11b 5a3f 7dbd 7b3f
1.1582117 0.97253126 1.0500557 0.9925031 1.0966194 0.9349012 1.1630387 1.0016191
0.91497153 0.9489888 1.0625848 1.0939375 0.90208673 0.9573381 0.9211028 1.3786687
1.0189068 1.2111951 1.0302593 1.033019 0.9652016 0.99382496 1.0341024 1.1459395
1.0884562 1.0179738 0.9330218 1.090579 0.9535046 0.9301202 0.85198694 0.9833601

bias f4 [32]
00000000: 6227 b23c ad55 b3bc 007e 82bd b8b7 34bd
00000010: 7ae8 66bd 4b53 1fbe 36e4 7f3d 333d 80bd
00000020: 71bc e6bd 54ad b8bd 2f4e 29bd 9dc1 c33a
00000030: 468c 60bd 7ac6 a9bc 9897 83bc d0fb cb3c
00000040: 2e46 b63c f21e 3d3d 11f2 0b3d 24dc c33d
00000050: 5c2c f33a c5a6 c0bd f76d 883a 8209 213d
00000060: f292 643e 9603 603d 2d09 2a3d 0cd1 073d
00000070: f793 b1bd 423e a6bc 5fc1 03be 5e8c 03bd
0.021747295 -0.02189144 -0.06371689 -0.04412052 -0.05637405 -0.15559117 0.0624735 -0.06261673
-0.11266411 -0.09017435 -0.041334327 0.0014935021 -0.054821275 -0.020724524 -0.016063496 0.024900347
0.022250261 0.04617209 0.0341664 0.09563473 0.0018552649 -0.09406809 0.0010408749 0.039315708
0.2232168 0.05469092 0.041512657 0.033158347 -0.086708 -0.020293359 -0.12866734 -0.032116286
