otk/AgileRL-MATD3/simple_adversary_v3/result/20240102-0837/MATD3_trained_agent_0045000.pt (torch, 941350 bytes, 336 tensors)

feature_net.linear_layer_0.weight f4 [32, 8]
00000000: 6d53 0f41 00d0 6fc0 e6fb 22c0 718d 96bf
00000010: ecd5 9140 3d1b a73f 50a7 34c1 2221 6840
00000020: 9871 12c0 0d70 f9c0 0b5b 56bf 2e21 0641
00000030: f652 a840 881d eac0 8c93 c6bd 3463 a03f
00000040: a577 2cbf c354 873e d4fa efc0 f99e 8a40
00000050: d6b1 2141 5cbb c7c0 c042 d73c 31ad f9bf
00000060: 5d4b 58c0 5eb1 c940 d0c5 1941 c3aa b0c0
00000070: e7e9 d0c0 fd98 b73f 13de fbbd ac40 edbf
00000080: 10e7 e1c0 abe1 03c1 e795 90bf 757e 4c3f
00000090: 3b18 5e3f 2350 493e 81e7 a040 87cb 1b41
000000a0: c1e6 a240 1880 56c0 eaa8 0940 b001 11c0
000000b0: f7cb 8fc0 8b27 b3c0 3b5d 29c0 44cd 20c0
000000c0: e3f0 27c0 f4d0 11bf 140f 1b40 2eb8 bfbf
000000d0: 0ba6 c7bf 03d1 8340 ca03 7bc0 8414 96bf
000000e0: f5b2 9640 0577 ca40 7633 103f c321 1a3f
000000f0: 972d dac0 299a ddc0 83cf 6cbf ba23 9c3f
00000100: 19fd 85c0 41cb 853f 720b fb3e d166 43c1
00000110: 5e5f 24bf f413 b2bf eba5 85bf 0552 88bd
00000120: 6a3d c4c0 74ab 91c0 0161 8040 d3c3 773f
00000130: fb8e 2ec0 b816 b4c0 e2e2 45c0 a3bf 7bc0
00000140: 31be 4bc0 8b54 d33f b48a ccbf 46ce 1540
00000150: 36f2 ae40 0a42 aebf 03ca 413f a065 a2c0
00000160: d88e ac3e 1ed5 3141 040d bfbf 252a 09c0
00000170: 4d62 eb3f 6824 ffbf df34 c33e 6acc 0e40
00000180: 7a5b a4be 5d62 e8bf c4e0 5040 b473 8cc0
00000190: 2c76 d73f 5aa3 49bf 7f4f 81c0 0fd0 f840
000001a0: 835b 97bf 565a d13f d489 3241 afda bd40
000001b0: 6846 96bf 70c9 8dbf 5d07 e7bf dccd 9fbf
000001c0: 28e9 a5c0 d621 efbf 2f59 0fc1 1f5a de3f
000001d0: d10d c9c0 2f7d a5bf c17d be3c bb70 26bf
000001e0: 4be9 aebd 213b 0540 f1dc ecbf eab0 0a41
000001f0: fc1e 42c0 2a3a 7cbf 9559 ba3f 8cc2 ccc0
00000200: 8f1b 21c1 214a aec0 0265 8940 76bc 7440
00000210: c7c0 803e a902 1740 9bbf 123e c691 68bf
00000220: 0bc3 dcc0 816b 4540 23e5 ef3e 089d 4f3d
00000230: bb8b c740 7b77 b7c0 a9cc b8be 0491 fd3f
00000240: 0c87 9f3e f1a4 5ac1 1a1e f63e 2fbe babe
00000250: a522 36c0 5bbb 0d40 9635 c2c0 129a 7540
00000260: fb07 5140 04df 15c1 8482 943f 7cc8 c8c0
00000270: 91b1 88bf 4b34 9cbd c02a 0240 5c95 6540
00000280: f517 9bc0 eb9a e4c0 bc85 0ac0 4dd4 eac0
00000290: ff76 c240 7c16 e240 c08e 89c0 dbc1 3d40
000002a0: 60a6 1741 ed79 a4c0 e4cd 2bc1 d3e5 8640
000002b0: 007c 813e b2f2 d33f 1255 153f 3130 a8bf
000002c0: 00d3 8440 14e8 a040 2dda 1840 3f56 d93f
000002d0: 8ef6 40c0 12d7 9dbf 90ee 1cc0 4498 0dc1
000002e0: 4e0f 99c0 a572 d03f d9b5 91c0 27e3 df40
000002f0: 0ff0 4c40 2f08 11bf 5937 82c0 f0f6 f23e
00000300: 23d5 2241 e790 c1bf 6bca 6340 8834 1dbf
00000310: ece5 89bf 6163 923f 9994 1e3f 6497 cd3f
00000320: 4189 18bf cb5e fe3d 2d23 05c1 64c1 58c0
00000330: 5ab4 b1be 5351 f7be cee4 0b41 8aa3 6940
00000340: 28ea 1740 57aa 24c0 31e9 a340 e562 7fc0
00000350: 6d4a b5c0 1380 2341 4147 713f 8637 c43f
00000360: 3fb1 cf40 6596 e440 bb5f 38c0 8c90 bac0
00000370: a2c4 49c0 b772 3c40 bcf2 3dbf 9cb9 2fc0
00000380: baf0 5940 344e 9abf 5adb 9b40 0c45 30c0
00000390: d3ac 07c1 e052 8f40 ba66 c5bf 5c69 e5bf
000003a0: bf4a 933f 00bb fb40 0852 5ebf 15eb 1cc0
000003b0: 36e9 1240 1499 9540 e91f c3bf 77f7 75c0
000003c0: fa66 abbc 4594 1141 595d 51bf a07e ef3f
000003d0: d4da 0440 0cf5 a93f eb92 67be cc85 17c1
000003e0: f855 f5c0 7c1b c3bf c7ea 42c0 5573 12c0
000003f0: 45ea ecbf 915c b33e d899 1141 3902 7f3f
8.957868 -3.7470703 -2.5466247 -1.1761914 4.5573635 1.3055187 -11.290848 3.6270223
-2.2881832 -7.794928 -0.8373267 8.3831005 5.260127 -7.316105 -0.09696111 1.2530274
-0.67370063 0.26431856 -7.4993687 4.331906 10.105917 -6.241621 0.026276946 -1.9505979
-3.3795998 6.3029013 9.610794 -5.520845 -6.5285525 1.4343563 -0.12298217 -1.8535361
-7.059456 -8.242595 -1.1295747 0.7988046 0.8675572 0.19659476 5.0282598 9.737189
5.090668 -3.3515682 2.1509347 -2.265728 -4.493648 -5.598577 -2.6463153 -2.5125284
-2.6240776 -0.5695946 2.4227953 -1.4978082 -1.5597547 4.119264 -3.9221063 -1.1725011
4.7093453 6.3270288 0.56328523 0.60207766 -6.818065 -6.9250684 -0.9250414 1.2198403
-4.1871457 1.0452653 0.4903217 -12.212602 -0.6420802 -1.3912339 -1.0441259 -0.06656269
-6.132497 -4.5521793 4.0118413 0.9678318 -2.7274768 -5.6277733 -3.0919728 -3.9335716
-3.1834834 1.6510175 -1.5979829 2.340715 5.467067 -1.3613904 0.7569887 -5.0749054
0.3370273 11.114531 -1.4925847 -2.1431973 1.8389374 -1.9932985 0.38126275 2.2312264
-0.3210104 -1.8155018 3.2637186 -4.389124 1.6832938 -0.7876488 -4.040954 7.775398
-1.1824802 1.6355693 11.158649 5.932945 -1.1740236 -1.1077099 -1.8049122 -1.2484698
-5.1847115 -1.8682201 -8.959273 1.7371253 -6.2829366 -1.2928828 0.023253324 -0.65015763
-0.08540591 2.081734 -1.8504926 8.668192 -3.0331411 -0.9852625 1.4558588 -6.3987484
-10.069228 -5.446549 4.29358 3.8240027 0.25147077 2.3595374 0.14330904 -0.9084743
-6.898809 3.0846865 0.46854505 0.050686866 6.235807 -5.733335 -0.36093643 1.980988
0.3115772 -13.665269 0.4806984 -0.36473224 -2.8458645 2.2145603 -6.0690413 3.8375287
3.266112 -9.366947 1.160233 -6.274473 -1.0679189 -0.076271616 2.0338593 3.5872412
-4.8466744 -7.143911 -2.1644125 -7.3384156 6.077026 7.0652447 -4.2986755 2.964957
9.478119 -5.1398835 -10.737766 4.2155547 0.25289917 1.655844 0.5833293 -1.3139707
4.150757 5.02833 2.3883164 1.6979445 -3.0150485 -1.2331259 -2.4520607 -8.849674
-4.7831182 1.6284987 -4.553448 6.9964786 3.202152 -0.5665311 -4.0692563 0.47454023
10.177035 -1.5122346 3.5592296 -0.6140828 -1.0773292 1.1436578 0.6194549 1.6061826
-0.5958443 0.12420424 -8.321088 -3.3868036 -0.3470791 -0.48304233 8.7433605 3.6506066
2.3736668 -2.5728967 5.1222157 -3.990411 -5.665335 10.218768 0.9424935 1.5329444
6.4903865 7.1433587 -2.880843 -5.830145 -3.1526265 2.9445016 -0.7419851 -2.7457037
3.4053178 -1.2055116 4.8705263 -2.7542143 -8.479693 4.4788666 -1.5421975 -1.7922778
1.1507186 7.866577 -0.8684392 -2.4518483 2.295484 4.6749363 -1.5244113 -3.843229
-0.020923126 9.098699 -0.8178306 1.8710518 2.0758562 1.3277907 -0.22614639 -9.470165
-7.666744 -1.5242763 -3.0455797 -2.2882893 -1.8508993 0.3503156 9.1000595 0.99612767

feature_net.linear_layer_0.bias f4 [32]
00000000: 2142 ae3f db0c 093f f333 f73f 0574 203f
00000010: 3833 1940 df0d 0a40 3305 ea40 23df 3dbe
00000020: 45a1 eebe 0009 3840 d7d6 7940 b1a9 5c40
00000030: 7bd4 ae3f c70c 7e3f ec6e 7c40 90c2 ae3f
00000040: 71ce 0d40 e622 aa3f e975 9740 6ffd aa40
00000050: 1e5d b73f 734f 1640 7308 b5bf 1dac f0be
00000060: db94 9d3f addf e13f 19ee 6a40 4d6d 1740
00000070: c4fd 9abf 1622 73bf 5b9f 0c40 5f54 18c0
1.3613931 0.5353524 1.9312729 0.6267703 2.3937511 2.1570966 7.3131347 -0.18542151
-0.46607414 2.8755493 3.9037378 3.4478571 1.3658594 0.99238247 3.9442701 1.3653126
2.2157252 1.32919 4.7331433 5.3434367 1.4325292 2.3485992 -1.4143203 -0.47006312
1.2311052 1.7646385 3.6707823 2.3660462 -1.2108693 -0.94973886 2.1972263 -2.3801496

feature_net.layer_norm_0.weight f4 [32]
00000000: e82d e340 7478 6840 35fc cd40 04c5 b740
00000010: 4095 8040 3365 8340 f6ae 6140 896a 0641
00000020: 25e5 5940 d2be 4240 f585 4140 fb74 5e40
00000030: ddfb 4440 6a04 b840 cf7d a640 d39e b740
00000040: 4beb 7240 f66f e540 b078 6b3e 70fb 9c40
00000050: 6279 0a41 538d a140 f02f 0e41 fcc2 8440
00000060: 2a92 8140 fb53 c940 d042 4f40 1eb5 5d40
00000070: 9109 a440 b744 8840 a2f6 da40 6083 0641
7.099354 3.6323519 6.437037 5.7427998 4.018219 4.1061034 3.5263038 8.40101
3.4046109 3.0428967 3.023801 3.47589 3.0778725 5.750539 5.2028575 5.7381377
3.7956111 7.169917 0.22995257 4.905693 8.654634 5.0485015 8.8867035 4.148802
4.0490923 6.2915015 3.238453 3.4641795 5.126168 4.258388 6.8426065 8.407074

feature_net.layer_norm_0.bias f4 [32]
00000000: 42ec 153f 1130 56c0 df97 92bf 1f75 0fc0
00000010: e3c5 dfbf 978d 683f fe69 d9bf 5997 6740
00000020: 7b89 1240 86e5 2ec0 eaf8 1ebf d4e3 4340
00000030: 6fec 5c3f 7fd7 1940 3f96 4240 15e1 083e
00000040: 7fce f2bf d568 97be 0e9a 5dbf 31db 613f
00000050: 2afc 823f 4f6e 6dc0 2ac2 8fbf e529 a73f
00000060: 4b8b 5940 6175 a13e 0660 9abe 4cf8 3cbf
00000070: d206 7a3e eeb2 08c0 92e9 99bf b79e f83f
0.58563626 -3.3466837 -1.1452597 -2.2415235 -1.7482265 0.9084105 -1.6985471 3.6186125
2.2896411 -2.732759 -0.6209856 3.0607805 0.8629827 2.4037778 3.0404203 0.13367112
-1.8969268 -0.29572168 -0.86563194 0.88225085 1.0233204 -3.7098577 -1.1231129 1.305966
3.3991268 0.31534865 -0.30151385 -0.7381637 0.24416664 -2.135921 -1.2024405 1.9423436

feature_net.linear_layer_1.weight f4 [32, 32]
00000000: abfa 3941 254e b83f 05ac 8d41 c425 573f
00000010: 2699 0ac0 0cbd 7941 a9ed 4dc0 18b6 8941
00000020: 2265 0441 04a1 6340 6019 0f41 6eaf 1e41
00000030: 85aa 1f41 09a2 ef40 6c17 1a41 6064 2741
00000040: 6910 2041 3bfc 6241 3c91 61bf 7cbb 4941
00000050: b41f 5b41 6c90 e440 083f fd40 70b4 e140
00000060: e61a 5541 ef1d 1c41 6166 8141 780f 2041
00000070: a15d 4e41 27c6 5541 8700 ee40 0d97 4241
00000080: aa11 9f40 50fa ea40 9bc0 9940 3989 943c
00000090: 3335 c940 1182 ca3f 81eb 2041 4d2d d0bf
000000a0: 9c50 1941 3b7d f43f 03ad f940 7414 4ebf
000000b0: 0008 b840 173c d340 960f 2340 4e58 1541
000000c0: 8bac 42c0 7640 c1c0 f64b 38be 9e9c 0040
000000d0: 359b 5740 4c5c 8e40 f6d4 7a40 291f ec40
000000e0: a9ea 9140 97e1 1641 3170 4b40 3f37 9340
000000f0: c465 27bf 1c88 fe40 8fc4 c73f 3ef1 393f
00000100: 8101 0141 53c7 cf40 6b08 0040 a889 3041
00000110: 2c00 1040 a4e3 d53f 853e 0d40 360d eb40
00000120: 9080 f63f 8d70 b340 a29b d83f 4f6c b740
00000130: 6eed 90bf bb56 b53f 6054 893e cbd9 84c0
00000140: 9b79 9640 883e 0241 7f69 e53f 972c 5bbf
00000150: d6fe 3440 ab58 5240 ef7d 0a40 8b85 9340
00000160: 527e 8540 c895 83c0 1c31 0cbf a928 c840
00000170: 5ce7 e740 aa78 b540 6f74 7140 08c9 1541
00000180: 3337 9940 c324 cd40 e14a 7640 1340 d9be
00000190: 0dc9 09c0 60d8 26c0 39e4 8fc0 380a 03c0
000001a0: f581 6b40 9225 bcc0 8d93 ad40 4f15 56c0
000001b0: d3c6 8940 26d1 903f 71b6 1a40 6272 b33e
000001c0: 50cd a140 b750 873f fbed c03f cd05 0d40
000001d0: 3597 8c40 51a2 d040 ae2e fa3f fc47 9f40
000001e0: dc43 2e40 a31e e640 b6ac 43c0 cce9 fdc0
000001f0: c9fe aabf 246d ba3f 4fa7 f63f a0e2 ff40
00000200: 0400 cd40 800b 4dc1 28fc 3b3f f565 b23e
00000210: 3153 9940 444a f640 9a59 d3bf 0081 ab40
00000220: 6cfe 4d40 5e12 933f 66e6 bb40 494f 6e3e
00000230: c18a 0340 b4ad 1c40 8de1 26c0 c66a a8c0
00000240: 8547 ba40 33ea b140 cdc2 ae3f 623b 8e40
00000250: 1ad5 7e3e 27ea 2bc1 09a7 bd40 6023 86bf
00000260: ed05 0141 3447 f4c0 4a73 4e3f 2116 a840
00000270: f416 f140 a4d6 0341 8de8 2f41 223e 2d41
00000280: d79f 5840 7d9f 14bf dbda f63f 51f4 7940
00000290: 1555 9e3f 9514 0141 93db 2441 e01d e93f
000002a0: cb8a 8c40 ce22 94c0 651f aa3f 0296 d33f
000002b0: c58c dc40 76dc 46c0 ff8b d340 1002 c140
000002c0: 65fc 27c1 1a04 8340 6129 a53f 59d2 2841
000002d0: 26af 7640 a5cd b1bd f235 c940 e5be 24c0
000002e0: 9ac4 8e3f a64e 0e40 b04c 8940 9230 90c1
000002f0: f71c fe3f 4f0e 10c0 cfbf 78bf d29d 5a40
00000300: 371a ef3f 8a7d 3f40 326b 0f41 941f f03f
00000310: e665 20c0 f57f 8840 5110 aabc 2fa8 ea40
00000320: a5d9 7840 a73b 82c0 4f96 f8c0 87f4 5d3d
00000330: c6d6 70c0 7b00 63c0 5224 5f40 4983 d5bf
00000340: fe5b 0cc0 b938 cf40 ec65 96bf 2de6 a7bf
00000350: b72f 24be aab6 fe40 533f 6340 13cc 3e40
00000360: 6eaa a140 26ff d9c0 67d3 fc40 00f2 e340
00000370: b8f3 8c40 ee19 8d40 e970 00c0 5914 0e40
00000380: 8249 0fc0 eceb 6a40 12be 9740 500d 6440
00000390: 2b27 78bf 81af e140 6b69 4a40 cda4 bf40
000003a0: 0191 be40 947a bb40 08b8 4e3f 0f2b f73f
000003b0: 6c68 2640 196d fe40 c46b 36be 90fd b53f
000003c0: 3d32 a540 d6fa 0640 6028 2e3f c7c5 b23f
000003d0: c3b4 c540 f038 42c0 45c9 92bf 172d 5b40
000003e0: cbfa dfbf 44ef 82c0 bcf4 f240 e587 2140
000003f0: b474 f640 4db1 6640 32a2 abbf c544 9fc0
11.623698 1.4398848 17.708994 0.84042 -2.1655974 15.608654 -3.2176306 17.213913
8.274691 3.5567026 8.943695 9.9178295 9.979131 7.4885297 9.630718 10.462006
10.004006 14.18658 -0.88112235 12.608273 13.69524 7.1426296 7.9139442 7.053276
13.319067 9.757308 16.17499 10.003777 12.897859 13.360877 7.4375644 12.161878
4.9709063 7.3430557 4.8047614 0.01813184 6.287744 1.5820943 10.057496 -1.6263825
9.58218 1.9100717 7.8023696 -0.8049996 5.7509766 6.601085 2.5478263 9.334059
-3.0417812 -6.039119 -0.17997727 2.0095592 3.368848 4.4487667 3.919248 7.3788037
4.559895 9.430076 3.1787226 4.600494 -0.6538966 7.954115 1.560686 0.7263373
8.062867 6.4930816 2.0005138 11.0336075 2.2500105 1.6710095 2.206941 7.3453627
1.9257984 5.607489 1.6922495 5.7319713 -1.1322458 1.4167093 0.26822186 -4.151586
4.7023444 8.140266 1.792282 -0.85614914 2.828054 3.2866619 2.1639364 4.6100516
4.17167 -4.112034 -0.54762435 6.2549634 7.246992 5.6709795 3.7727315 9.36158
4.787988 6.4107375 3.8483202 -0.42431697 -2.1528962 -2.6069565 -4.496609 -2.0474987
3.679807 -5.879586 5.4242616 -3.3450506 4.3055205 1.1313827 2.4173853 0.35048205
5.0563126 1.0571507 1.5072626 2.203479 4.393458 6.519814 1.9545496 4.977537
2.7228918 7.19124 -3.0574164 -7.9347897 -1.3359004 1.4564557 1.9269809 7.996414
6.406252 -12.815308 0.73431635 0.34843412 4.791405 7.6965656 -1.6511719 5.359497
3.2186537 1.148998 5.871875 0.23272432 2.0553439 2.448102 -2.6075165 -5.263034
5.8212304 5.559839 1.3653198 4.444749 0.2488598 -10.744666 5.92664 -1.0479546
8.063947 -7.633692 0.8064467 5.2527013 7.534052 8.2399025 10.994275 10.827669
3.3847558 -0.5805586 1.9285539 3.905537 1.2369715 8.067525 10.303607 1.8212242
4.3919425 -4.6292486 1.3290831 1.6530154 6.892184 -3.1072059 6.6108394 6.031502
-10.49912 4.0942507 1.2903253 10.551354 3.8544402 -0.08681802 6.287835 -2.5741513
1.1153748 2.2235503 4.2906113 -18.023716 1.9852589 -2.2508733 -0.97167677 3.4158826
1.8679875 2.9920373 8.963671 1.8759637 -2.5062194 4.2656198 -0.020759733 7.33303
3.888284 -4.069782 -7.768348 0.054188278 -3.7631087 -3.5469043 3.4865918 -1.668069
-2.1931148 6.475674 -1.1749854 -1.3117119 -0.16033827 7.959798 3.55074 2.9812057
5.0520544 -6.812396 7.900806 7.123291 4.404751 4.4094152 -2.0068915 2.219992
-2.2388616 3.6706495 4.741952 3.5633125 -0.96934766 7.052674 3.1626842 5.9888673
5.9552007 5.858713 0.8074956 1.9310015 2.6001234 7.9508176 -0.17814547 1.4218006
5.1623826 2.1090598 0.6803036 1.3966607 6.1783156 -3.0347252 -1.1467673 3.424627
-1.7498411 -4.091707 7.592375 2.5239193 7.701746 3.6045716 -1.3408873 -4.9771447

feature_net.linear_layer_1.bias f4 [32]
00000000: 2ee8 a241 6d91 3f40 736f 0240 3115 ad40
00000010: 3381 b840 2a9f f440 9153 6840 86da 6540
00000020: 760f cc3f 5565 363f 5cae 9641 5f40 dc40
00000030: a432 2c40 c905 0b41 4835 1741 3309 3e40
00000040: 78f3 af3f 14e3 223e 5645 79bf 7bba d740
00000050: 701b edbf 8d33 2b40 ace9 8c40 8a97 6640
00000060: 76c5 0fbf bf7f 4340 9052 0740 c2e1 8840
00000070: 2172 2741 2e8d 2f40 81e5 ef40 0d09 8440
20.363369 2.993251 2.0380523 5.408837 5.7657714 7.644429 3.6301005 3.5914626
1.5942218 0.7124837 18.835136 6.882858 2.6905909 8.688912 9.450508 2.9693115
1.3746176 0.15906936 -0.97371423 6.7415137 -1.8523998 2.6750214 4.4035244 3.6029992
-0.56160676 3.054672 2.1144142 4.2775583 10.4653635 2.742992 7.4967656 4.126105

feature_net.layer_norm_1.weight f4 [32]
00000000: fdb3 903e c542 b440 00a2 c740 aeee 0941
00000010: 4dd3 4441 518a 5741 6955 5d41 876b 5341
00000020: 82b8 0c41 9000 f940 90ea a43e a911 0e41
00000030: 11f4 1641 59b7 2e41 ea2b 2541 7872 7140
00000040: 357a e240 cf11 2141 b044 ee40 c651 da40
00000050: b01c 8440 f6f0 0941 dbbf 1d41 c83f db40
00000060: f50a f340 38b3 1941 1b35 6041 a288 6b40
00000070: f0af 583f 51b6 5e41 cfd9 2241 14c9 e740
0.2826232 5.6331506 6.2385254 8.620771 12.301587 13.471269 13.833352 13.213752
8.795046 7.7813187 0.32210207 8.879312 9.434587 10.919763 10.323221 3.7726116
7.077418 10.066848 7.4458847 6.822482 4.128502 8.621328 9.85934 6.851536
7.5950875 9.606255 14.012965 3.6802144 0.8464346 13.919511 10.178176 7.2432957

feature_net.layer_norm_1.bias f4 [32]
00000000: 8314 99bf f178 39c0 ffcb 5bbf b911 ae3f
00000010: 12e9 4f40 e64e bc40 bf48 0d3e 066c 8a3e
00000020: 324b 9c3e 0750 0ac0 e225 aebf e1d6 9040
00000030: 4d13 8abf 7a40 bb40 fb8a 9d40 8613 2cc0
00000040: 7465 ecbf 9d38 9abf 3abd edbf 950d 7140
00000050: 4c35 86c0 cb75 2b3f ec5b c83f b456 82bf
00000060: 7e8b cabf b65a ae3e 97f1 0bbf 531e bdbf
00000070: a0da 04c0 62ea b23f 1a9f a340 f2ef 1240
-1.1959385 -2.8980067 -0.8585815 1.3599159 3.2486005 5.884631 0.13797282 0.2703554
0.3052612 -2.1611345 -1.3605311 4.5262303 -1.078714 5.8516207 4.9232154 -2.6886916
-1.8468461 -1.2048527 -1.8573372 3.766454 -4.194006 0.6697661 1.5653052 -1.018271
-1.582382 0.34053582 -0.5466551 -1.4774879 -2.0758438 1.3977778 5.1131716 2.295895

feature_net.linear_layer_output.weight f4 [5, 32]
00000000: 6159 1dbf cfd4 9bc0 1e0f 63c0 eb1b 45c0
00000010: 7d4f ad3e edc6 8cbe a626 1841 962e 9340
00000020: 6e20 3840 f66c ec40 8f4e d3bf d241 5ac0
00000030: d30b a6c0 7461 0440 e187 27c0 db93 d5bf
00000040: 1aa8 9ec0 ca1b dc40 ff85 4341 578e 7540
00000050: 7d1d 2a41 0912 ca40 29c4 8c3f 9f73 f9c0
00000060: c394 2b41 1079 7340 cf0e d6bf 11d2 adc0
00000070: d1af ff40 7aa9 0240 69f5 2cc0 21c4 b13e
00000080: e6be 08bf c879 3d41 b257 0c41 54cb 153d
00000090: 7c51 8c40 58a2 a4bf 57ed 0cc1 8a7c a4c0
000000a0: 92a7 0cc1 d8b8 3ec1 fec4 4abe cf8e 023f
000000b0: 1ffb c140 a34a 63c0 cd41 9340 58cb 0940
000000c0: 6562 8640 aa9d 74c1 d8d0 15c0 f32d fb40
000000d0: db1f 0cc1 db3f b93f 77f7 b1c0 20ab c540
000000e0: ed21 2fc1 fb62 1ac0 d498 82c0 d8eb 68bf
000000f0: 45d1 a0bf 2ff4 e440 4baf 3d40 5a19 bf3f
00000100: f7fa 2c3f bbf3 98c0 137c 28c1 9a0c 053f
00000110: 26ee 47c0 498c 7340 2a2e fd40 a322 fb40
00000120: c470 2341 e5b3 2041 bb23 fabe 9645 943f
00000130: da66 9fc0 4c24 8640 9cbe adbf 3b39 08c0
00000140: 20db 81c0 df41 2941 b0e5 64bf cc92 06c1
00000150: 7c92 b740 3829 bd3d 8ac3 7140 3523 f0c0
00000160: e8b2 f340 32ff 07c0 ac99 3f41 ad11 543f
00000170: 128d 483f e14c bec0 0064 e6bf e638 c3be
00000180: b3cb 7a3e 824d 6fc1 d972 9ac0 001f 27c0
00000190: 06a8 9bbe 4ca4 32c0 e731 a140 24a7 35c0
000001a0: 523b bcc0 a801 0141 c28f 763e 3b10 03c1
000001b0: 412b 6140 c629 1840 402b 28bf 8a00 0941
000001c0: 59bb 6fc1 d64a 7640 9c9d 5841 3ddd 7f3f
000001d0: 4791 6341 06cf a740 8322 d43f e279 1ac0
000001e0: db15 3341 a38c 673f 0fbf 20c1 c9b7 0440
000001f0: c1d5 c63c 446d dd40 3bb8 82c0 00a9 d240
00000200: c190 79be 0cfc 3741 57c2 ad40 cd83 bc40
00000210: 268d 1140 6920 fa3f 8f4d 37c0 ba8c 9040
00000220: e1d3 9c40 6f4a a7c0 4881 9fbf 0c9e e040
00000230: 0b5c b2c0 6485 f73f 995d e53e f047 1ac1
00000240: a390 3b41 f193 5a3e 6007 58c1 60e9 afbf
00000250: 4818 80c1 716a bdc0 5ef4 03c0 89f6 f53f
00000260: 1814 18c1 a0b5 1cc1 d35a 5841 58dc e7c0
00000270: 93f7 b83f ea57 b1c0 db71 3e40 c1e1 93c0
-0.61464506 -4.8697276 -3.5477977 -3.079829 0.33849707 -0.27495518 9.509436 4.5994368
2.8769794 7.388301 -1.6508349 -3.4102674 -5.1889434 2.068448 -2.6176684 -1.6685747
-4.95802 6.878392 12.220214 3.8368127 10.632199 6.3147016 1.0997363 -7.795364
10.723819 3.804264 -1.6723269 -5.431893 7.990212 2.041594 -2.7024786 0.34719947
-0.5341629 11.842232 8.77141 0.036570862 4.384947 -1.2862043 -8.807944 -5.1402025
-8.790911 -11.920128 -0.19801709 0.5099916 6.0619044 -3.5514305 4.6017823 2.153036
4.199511 -15.288492 -2.3408718 7.849359 -8.757777 1.4472612 -5.561458 6.1771393
-10.945783 -2.4122913 -4.081156 -0.9098487 -1.2563864 7.1548076 2.963824 1.4929612
0.6757044 -4.7797523 -10.530292 0.51972353 -3.1239104 3.8054373 7.9118853 7.847978
10.215031 10.04392 -0.48855385 1.1583736 -4.981305 4.191931 -1.3573794 -2.128493
-4.0579987 10.578582 -0.89412975 -8.410839 5.7366314 0.092363775 3.7775598 -7.5042977
7.615589 -2.124951 11.975018 0.8283947 0.78340256 -5.9468846 -1.7999268 -0.38129348
0.24491768 -14.956423 -4.8265195 -2.611267 -0.3040163 -2.791278 5.0373416 -2.8383265
-5.8822412 8.062904 0.24078277 -8.1914625 3.518265 2.3775496 -0.65690994 8.562632
-14.983239 3.8483176 13.538479 0.9994696 14.222968 5.2440214 1.6573032 -2.4136891
11.192836 0.9044897 -10.046645 2.0737174 0.024271848 6.919588 -4.084989 6.58313
-0.24371625 11.499035 5.429973 5.891089 2.27424 1.9541141 -2.8641088 4.5171785
4.900864 -5.227836 -1.2461329 7.019293 -5.5737357 1.9337583 0.44797972 -9.642563
11.722812 0.21345498 -13.501801 -1.3743095 -16.011856 -5.9192433 -2.06179 1.9215862
-9.504906 -9.794342 13.522174 -7.2456474 1.4450554 -5.5419817 2.9756992 -4.621308

feature_net.linear_layer_output.bias f4 [5]
00000000: 6eab 803f 58e6 ba3f e8e9 64bf 9415 873f
00000010: ed79 7740
1.0052316 1.4601545 -0.8941941 1.055346 3.8668168

feature_net.linear_layer_0.weight f4 [32, 10]
00000000: 82c9 913f c08d 0e40 0817 0a40 0c65 bbc0
00000010: a134 9b40 f365 07c0 3964 d33f db92 aa3f
00000020: c760 5540 26ad 00bf fb26 86c0 900f 80c0
00000030: addd bb3f 5bee 95c0 dd59 4f40 84ec e23e
00000040: 8416 c63e 3af0 de3d 87ec 1140 378a 85c0
00000050: 0abf 3641 92af 97c0 d3a7 d8bf 241c 1840
00000060: 97e0 b5bf 32f6 9ebe ee6d cabf 2abf 8e3f
00000070: 16e7 16bf cc69 ddbd 83bd bac0 2041 d23f
00000080: e163 0d40 3d60 8ec0 389c b93f dea0 afbe
00000090: 0e28 0840 023c dec0 ce43 c2bf a27d 10bf
000000a0: ee07 8140 97a1 f2be fd24 b2bf a7ec eabf
000000b0: b0d6 71bf 929d 3e3f 718e 3f40 e005 b93e
000000c0: 3198 aa3f 1ce1 00c0 ced6 9fc0 7420 67bf
000000d0: 0cab 33bf 9edd a0bf 72d5 7dbe f6eb 33c0
000000e0: 330c 25c0 49f0 2a40 acbd 9b40 d009 7940
000000f0: ce80 bb40 c0c2 3841 039a 51c0 0a74 1840
00000100: 6f57 fc3f dbd5 bcc0 6f6c 583f 5fea 9240
00000110: 93bb 2b3f 4af0 3b40 0849 65bf 2a8e 8ec0
00000120: 24d1 5940 97ca f540 9b8c e2be 6868 70c0
00000130: 37f5 39bf c87f 37bf 3e7f 0140 7dcd 18bf
00000140: 940e e0c0 d1c6 e0bd da53 8040 c467 ebc0
00000150: adea 1340 c2ae 20c0 9319 3640 4648 ddbf
00000160: 6d92 8ebf 3cca 08c0 20af 20c1 5571 8540
00000170: eff1 ee3f 7e5c e83f 6a2e 5b40 5e46 1ebd
00000180: 5603 c73e 247a 713e 608f 0b41 b743 b2c0
00000190: 62d4 84c0 8c9f c7c0 152b 5440 acbd 0d3f
000001a0: 885d 8bc0 afd3 fbbf c246 5f40 c781 7040
000001b0: 6855 203f 1e28 29c0 7ae7 84c0 bd91 39c0
000001c0: 7f06 953f b37d c340 da18 aa40 d71f a740
000001d0: 02a8 1640 6d65 1d40 e040 113f 4e47 49bf
000001e0: 0c61 9c40 c814 fcbf 5625 c6c0 f909 14c0
000001f0: 7bc1 e0c0 6df3 ac3f 128a 30bf 08a4 873f
00000200: c40d 55bf e1bb d33f 3aa2 b540 b32d 2741
00000210: 34cd 4dc0 992b 4340 0165 1040 b8a2 b9c0
00000220: 8a19 c53e 1227 a740 2037 1a3f 22b2 d73f
00000230: c912 55c1 e08e 0841 cd76 e83c 2bc8 d93b
00000240: 9401 c43f ac7c 80c0 8a1d 03c0 4ee6 11c0
00000250: b8ef 18c0 e987 f33f 850d 06c1 c403 4ec1
00000260: e19a 1a3f 394b 0b40 922e a93f 8128 3cbf
00000270: a602 92bf a7b3 11c0 e14e 36be 9416 c5bf
00000280: e4a4 10c1 9a98 cdc0 fc5a fb3e d690 82bf
00000290: 30df 4640 1761 9c40 3d26 b1bd da67 83be
000002a0: a5e9 64c0 04c7 aa3e 0f53 313f 55a7 5ec1
000002b0: 8573 22c0 d154 e43e 50ad b440 426a 8340
000002c0: 9280 e33f f321 443f bff0 74bd b31e 9ebf
000002d0: c070 12c0 d215 4341 289b 22c0 bf28 12bf
000002e0: 8be3 9d3f ea16 6ac0 af1a 42bf 15f1 81c0
000002f0: 71e0 e6bf 9fcb 2940 865b a040 61d1 e640
00000300: b1e0 d6bf 56bc abc0 b097 3640 9d2d bd3f
00000310: 7273 743f 000b 8d40 c311 4ebe b4ef e23e
00000320: 61e7 fd40 b8fa 3541 36dd 78bf d1a0 ba3f
00000330: 5f5b 3cc0 e530 0bc1 4829 ffbe 0d7a d33f
00000340: 905e 4440 1d1a 3a3f a898 5540 a814 7940
00000350: 4ad8 3cc0 cc6a c5c0 b79d 35bf 1fce 0ec1
00000360: d0b4 3c3f 9074 ca3e 8991 2b40 453b 0ebf
00000370: a2d2 36be ce81 1440 faf4 7840 47c0 2ebf
00000380: 519d d140 0ebd f7c0 f13a 8040 47bf b83e
00000390: f3a4 cd3e a43a 8cbf 9038 4040 8138 29c1
000003a0: c3c7 52bf c7f7 6440 da1b 4b40 28b9 243f
000003b0: 25e4 9c3f ac7e 033d c271 14c0 3fba 1641
000003c0: bbd4 9f40 9c65 d0c0 ce76 8bc0 deac 2340
000003d0: bd8b 41c0 8954 8e40 0034 18c0 d092 15be
000003e0: 64ec b140 200c 35c0 199c 0741 88c6 0941
000003f0: 4cd6 c6c0 94db 9b40 148a 1340 afd7 99c0
1.138962 2.2274017 2.1576557 -5.856085 4.8501744 -2.1155975 1.651496 1.3326067
3.3340318 -0.50264204 -4.1922584 -4.0018997 1.4677025 -4.685346 3.2398598 0.44321072
0.38689053 0.10885663 2.2800615 -4.173122 11.42164 -4.740182 -1.6926216 2.3767176
-1.4209164 -0.31047207 -1.5814798 1.1152089 -0.5894636 -0.10811195 -5.8356338 1.6426125
2.2092211 -4.449248 1.4500799 -0.3430242 2.1274447 -6.944825 -1.5176942 -0.564417
4.032218 -0.47388908 -1.3917538 -1.835347 -0.9446821 0.74459183 2.993069 0.36137295
1.3327695 -2.0137396 -4.9949713 -0.90283895 -0.7018287 -1.2567632 -0.24788454 -2.811277
-2.5788696 2.6709158 4.8669033 3.891224 5.859473 11.547546 -3.2750251 2.3820825
1.9714183 -5.9011054 0.84540457 4.5911098 0.6708309 2.936541 -0.8956456 -4.454854
3.40339 7.68098 -0.44247898 -3.7563725 -0.72639793 -0.71679354 2.0233912 -0.5968855
-7.0017796 -0.10975421 4.010236 -7.3564167 2.3111985 -2.5106664 2.845311 -1.7287681
-1.1138436 -2.1373434 -10.042755 4.1700845 1.8667582 1.8153226 3.424708 -0.038641326
0.38869733 0.23581749 8.722504 -5.570766 -4.1509256 -6.238226 3.3151295 0.5536754
-4.3551674 -1.9673976 3.4886937 3.757921 0.6263032 -2.6430736 -4.1532564 -2.8995202
1.1642607 6.109094 5.3155336 5.2226367 2.3540044 2.4593155 0.56739616 -0.7862443
4.8868465 -1.9693842 -6.1920576 -2.3131087 -7.023618 1.3511788 -0.6896068 1.0596933
-0.8322413 1.6541711 5.676053 10.448657 -3.2156496 3.049536 2.2561648 -5.801113
0.38496047 5.2235193 0.60240364 1.6851237 -13.317086 8.534882 0.028376961 0.0066461763
1.5312982 -4.0152187 -2.048678 -2.2796817 -2.3896313 1.9025851 -8.378301 -12.875919
0.60392576 2.1764662 1.3217337 -0.73499304 -1.1407058 -2.27659 -0.17803527 -1.5397515
-9.0402565 -6.424878 0.49092853 -1.020045 3.1073723 4.886852 -0.086498715 -0.2566517
-3.5767605 0.33354962 0.6926736 -13.915853 -2.5383008 0.4459596 5.6461563 4.106721
1.7773612 0.766143 -0.059799906 -1.2353119 -2.2881317 12.192827 -2.54072 -0.57093424
1.2335066 -3.6576486 -0.75821966 -4.060679 -1.8037244 2.653053 5.0111723 7.213059
-1.678732 -5.36674 2.8530083 1.4779545 0.95488656 4.407593 -0.20123963 0.44323504
7.9344945 11.373711 -0.9721254 1.4580327 -2.9430768 -8.699437 -0.49836183 1.6521622
3.0682716 0.72696096 3.3374424 3.8918858 -2.9507012 -6.1692867 -0.7094378 -8.925323
0.737134 0.39542055 2.6807578 -0.5555919 -0.17853788 2.3204226 3.8899522 -0.6826214
6.5504537 -7.741828 4.007195 0.36083433 0.4016491 -1.0955396 3.0034523 -10.576295
-0.8233606 3.5776231 3.173575 0.64345026 1.2257124 0.032103226 -2.3194432 9.42047
4.994718 -6.5124035 -4.3582525 2.557426 -3.024154 4.447819 -2.3781738 -0.14606786
5.5601063 -2.828865 8.47561 8.61097 -6.2136593 4.870554 2.3053026 -4.8075786

feature_net.linear_layer_0.bias f4 [32]
00000000: 090c 89c0 c5ea 9f40 6ebf ab3e aa8f 2d40
00000010: bec5 83bf 3a8d a940 40c5 c33f 6556 723f
00000020: 929d 9b40 89a5 a340 27c8 d63e 2d94 4c3d
00000030: 6270 5d40 ee75 d03f 9c25 2b3f cc6b 6340
00000040: 2765 b03d 68ce c3be 640a 263f 28ab c03f
00000050: 7a48 6d40 07ea 9ebf 18d2 51be 4478 3240
00000060: c2e3 833f 6740 c83f dfc2 0640 57a8 ac40
00000070: 38d1 b23f 9467 0840 7fcc 873f 4c9f a540
-4.282719 4.9974084 0.33544487 2.7118936 -1.0294721 5.2984896 1.5294571 0.9466308
4.8629847 5.113957 0.4194958 0.049946 3.4599843 1.6285989 0.6685426 3.5534544
0.08613043 -0.38243413 0.64859605 1.5052233 3.7075486 -1.241517 -0.204903 2.7885904
1.0303881 1.5644654 2.105644 5.3955493 1.3970098 2.131322 1.0609282 5.1756954

feature_net.layer_norm_0.weight f4 [32]
00000000: 01db 8d40 a433 1e40 ac06 9b40 8e4a 1240
00000010: 3a17 d23f 94c6 8f40 c2b7 043f cd43 ae40
00000020: bb7b cc3e 96c3 0541 d7cb 5b40 3bc7 6840
00000030: 240e 9840 7601 ed3e 3747 f440 6d2a ad40
00000040: 4480 8540 2c5f 8440 5549 6c40 7130 3b40
00000050: 3aa6 7c40 85c7 8a40 c858 8f40 45c6 f240
00000060: 07b8 6c40 534e b23e e9f4 093f 3508 aa40
00000070: e33c 9e40 327d d340 fdeb 5d40 123f 9740
4.432984 2.471902 4.8445644 2.2858005 1.6413338 4.4929905 0.5184289 5.4457765
0.3993815 8.36025 3.4343164 3.63716 4.751726 0.46290177 7.633693 5.411429
4.1719074 4.1366177 3.6919758 2.9248316 3.9476457 4.3368554 4.4795876 7.586703
3.6987321 0.34825382 0.5388933 5.313502 4.9449325 6.6090326 3.4675286 4.726449

feature_net.layer_norm_0.bias f4 [32]
00000000: f0fd a93e c058 4fbf eaa9 4ebf 3d6c debe
00000010: 0626 c53f 0228 32bd bcf1 a0bf c9d7 0abf
00000020: 9101 9abf 28f5 59c0 30cc 55be 32da 1740
00000030: 028a bb3f ec61 9cbf fcb9 8b3f f467 0f40
00000040: 7f3e 93bf d287 c1bd ce1d 583f 23f7 e8be
00000050: 81a4 b2bf 3501 1540 8327 67c0 9e91 f1bf
00000060: 1477 153f 4d8b 6cbf 3490 9ebf 7761 a13d
00000070: daa0 0640 e83f 12c0 7205 fe3f 8cec b33f
0.3320155 -0.80994797 -0.8072802 -0.43441954 1.5402229 -0.043495186 -1.2573771 -0.5423551
-1.2031728 -3.4055882 -0.20878673 2.3726926 1.4651492 -1.2217383 1.0916133 2.2407198
-1.1503447 -0.09449734 0.8442048 -0.4550105 -1.3956453 2.3281987 -3.6117866 -1.8872564
0.58384824 -0.92400056 -1.2387757 0.07879918 2.1035676 -2.2851505 1.9845412 1.4056563

feature_net.linear_layer_1.weight f4 [32, 32]
00000000: 39fd 9640 98ca 3d3f 1f2b 8fbf d86d d440
00000010: f8d3 a740 e71c d540 1b3c 06bd 0a0f 1c40
00000020: 4da8 ae3e e0c9 b840 d7dc 3abf 160c a93f
00000030: 0592 1041 a6a2 aabe e1d5 a13f c9df 8bc0
00000040: 17e1 3f3e 3be4 a1bf 3599 2a41 a4b5 a540
00000050: 51a5 61c0 3d24 1741 0f43 f640 50fb b540
00000060: c691 b33f aa21 1b3d 8b3d 39be bc7e 8740
00000070: 7d7b 5940 6dbc a840 6691 153f b14b e53f
00000080: 4699 7440 2267 58bf 9b0b 07bf 8ad2 a540
00000090: 47ee dfc0 3c9a f240 5760 d0be ac1e 4240
000000a0: c1c3 ffbf 0dd4 42c0 54f7 d83e 453e 7a3f
000000b0: e934 493f 916f 113f 5397 b840 253c 083f
000000c0: b5dd 8740 c401 2b40 6322 cb40 ecf8 9a40
000000d0: f782 0440 8f23 4b40 1e63 4fc0 bc45 37c0
000000e0: bf3a 383f 8f0b e53e 0e94 4fbf 0ed0 1d40
000000f0: d345 0041 cf97 433f 8f97 a240 d411 20c1
00000100: 1311 6d3f de4d 7940 1423 ba40 66cc 9f40
00000110: 281d eb40 29e4 1bc0 7fcd 6d3f 4a64 2840
00000120: 18dd 3640 8fa3 573f ebb3 303c ac1c 3740
00000130: 9b94 b540 9f42 18bf acfe 7b40 f4c6 a240
00000140: 2fd8 7c40 ea95 1740 3559 7ebf c5c9 1bc0
00000150: bf67 8c3f e30d f1be 2dc1 c93f 4bfb 6740
00000160: e35f a740 8a0d 79bd 00c6 883f b258 863f
00000170: ff44 1640 c604 0440 e3f7 d140 8aa0 8f3d
00000180: ad3c 9c40 6454 a3bd b3a8 9e3f 69f7 fd3f
00000190: 5c39 6c40 0072 8b40 b6ac a33f 1f48 a0c0
000001a0: 18d1 07be a8bd a540 5898 b7c0 1abc d640
000001b0: aa83 963f d366 cf3e 895d bdbf 6abf d440
000001c0: baf7 33bf ddaa 5240 92c7 1cc1 5b53 84be
000001d0: 98dc 063e fad4 0d40 bcc8 b640 6671 b840
000001e0: bf0a 04c0 dd18 91bd 3838 063f 09e8 d740
000001f0: 678b 80bf d19a da40 725c 2d3e dca1 f940
00000200: 8b3e c940 d0b0 7c40 23db 0940 ed7a e7bd
00000210: b22a 0441 9d1a f13f f153 82be 4a45 4241
00000220: 8911 c23f 238b 7040 96f0 5f40 c583 3440
00000230: bbcb 203f 7a3f 22bd 6d40 39c0 d74a bcc0
00000240: 7fbc dbc0 8913 e33f 153d b140 97f5 c340
00000250: b1d7 423f e7b3 9b40 9de9 fc3f 4300 0640
00000260: 4e28 5d40 60c1 d5be dc51 073f 109e e73e
00000270: 68d7 fd40 c8db 9740 5ccb e540 efda a53f
00000280: 2c04 8640 5d03 f63e 10ce 20bf 9c3c 41c0
00000290: 2980 de40 a216 4241 916a a13e 8b69 6f40
000002a0: 8742 fd3d 6f35 ed40 4ebc e840 fdfb 3340
000002b0: 8b6d b440 9844 553d d119 b93f 6ea2 ac40
000002c0: 86da 1541 db1e a13f 26f5 75bf de01 a6c0
000002d0: 22f3 28c1 6ee1 e640 fa84 eb40 261f 1141
000002e0: 97fa d540 a722 e73e a730 0cbf 83ba 14c1
000002f0: 87ff 5940 17d0 ea40 ec9a a2c0 c7b7 1a40
00000300: cf64 52bf 0959 95bf 16ce ca3e ec83 7840
00000310: 8fdc d540 b3e9 24c0 50e4 9e3d 7c8d 7641
00000320: a42f 9d3f 0809 0541 f7cb 5440 38e0 e840
00000330: 576f e440 2f69 93be 2b3f 9440 bb58 8b40
00000340: 18fd 77bf 54ef a03f cb94 8c40 f234 9dbf
00000350: 4276 16c0 cf4d 3241 eb10 2941 f2ef 0241
00000360: 5bfb 9740 d37d ce3e 9920 7d3f 58b0 b140
00000370: 6aec 0641 3ebb 5441 4559 2f40 2429 0c41
00000380: a197 a040 11e7 4b3f 15be f6bf 7886 2340
00000390: 1d2c e240 6e24 e140 7c46 52be 5dd1 ed3f
000003a0: c100 a13e 0e19 b540 6465 8040 7692 a540
000003b0: 23e4 9240 e707 333f aace e5be 39ef 35c1
000003c0: 35b1 ee3d c9cd 6cc0 4d37 883f 30ea 8040
000003d0: 673d 9640 244a 5f3f 17f0 9d40 8b4c c440
000003e0: 9774 dac0 71a1 ec3e 39da f43e 050c e33f
000003f0: afab 9340 ac2f c140 a426 9840 a8e5 8540
4.718411 0.7413726 -1.1185035 6.6384087 5.244625 6.659778 -0.032772165 2.438418
0.34112778 5.774643 -0.72993225 1.3206813 9.035649 -0.33327216 1.2643396 -4.3710675
0.18738209 -1.2647775 10.662404 5.178423 -3.525715 9.446347 7.695686 5.686928
1.4028862 0.0378739 -0.18089883 4.2342205 3.3981621 5.273001 0.58424985 1.7913724
3.821855 -0.8453237 -0.52752084 5.1819506 -6.9978366 7.5813274 -0.406985 3.033122
-1.9981614 -3.0441926 0.42376196 0.97751266 0.7859636 0.5681086 5.768472 0.53216773
4.245814 2.6719828 6.3479476 4.842886 2.0704935 3.1740453 -3.2404246 -2.8636312
0.7196464 0.4473538 -0.8108529 2.4658237 8.017047 0.76403517 5.081001 -10.004353
0.9260418 3.8953776 5.816782 4.993701 7.347309 -2.4358008 0.9289169 2.6311212
2.8572445 0.84233946 0.010785083 2.861125 5.6743903 -0.59476656 3.937419 5.0867863
3.9506948 2.368525 -0.9935487 -2.43419 1.0969161 -0.47080907 1.5762078 3.6247127
5.230455 -0.060803927 1.0685425 1.0495818 2.3479612 2.0627913 6.5615096 0.07013042
4.8824067 -0.079750806 1.2395233 1.9841129 3.691001 4.357666 1.2787082 -5.008804
-0.13263357 5.1794014 -5.7373466 6.7104616 1.1758931 0.40508136 -1.479417 6.648366
-0.70299876 3.2916787 -9.798723 -0.25844845 0.13170087 2.216124 5.7120037 5.7638426
-2.063156 -0.070848204 0.52429533 6.7470746 -1.0042542 6.8313985 0.16929796 7.801008
6.2888846 3.9482918 2.154 -0.11302743 8.260424 1.8836247 -0.25454667 12.141916
1.5161601 3.7584922 3.4990592 2.8205426 0.6281087 -0.039611317 -2.8945572 -5.8841357
-6.86676 1.7740337 5.5387063 6.123729 0.7611037 4.8657107 1.9758793 2.093766
3.455585 -0.41749096 0.5285928 0.4523778 7.9325447 4.745579 7.181074 1.2957438
4.1880093 0.4804944 -0.62814426 -3.0193243 6.9531446 12.130526 0.31526616 3.7408168
0.12366205 7.4127727 7.2729864 2.8122551 5.638372 0.05206737 1.4461004 5.394828
9.36585 1.2587541 -0.9607719 -5.187728 -10.559359 7.2150183 7.3599825 9.070105
6.6868396 0.45143625 -0.5476174 -9.295535 3.4062212 7.3379016 -5.0814114 2.4174669
-0.8218507 -1.1667796 0.39610356 3.8830519 6.6831737 -2.5767639 0.07758391 15.409542
1.2280164 8.314705 3.324949 7.2773705 7.1385913 -0.28791186 4.632711 4.3545814
-0.96870565 1.2573037 4.393163 -1.2281783 -2.350968 11.143996 10.56663 8.18358
4.749433 0.4033037 0.98877865 5.5527763 8.432718 13.295713 2.7398236 8.760044
5.0185094 0.79649454 -1.9276758 2.5550823 7.067885 7.035697 -0.205347 1.8579518
0.31445888 5.6593084 4.012377 5.1741285 4.5903487 0.69933933 -0.44884235 -11.370904
0.11654893 -3.7000601 1.0641876 4.0285873 4.6949954 0.87222505 4.935558 6.1343436
-6.826732 0.4621692 0.4782274 1.7738043 4.6147075 6.0370693 4.754717 4.184284

feature_net.linear_layer_1.bias f4 [32]
00000000: 31ec cf3f d2e2 0340 b160 4b40 ef73 5640
00000010: 5801 7d40 b037 2f40 b81e de40 da58 8040
00000020: e71f 9540 00f8 a240 3018 3a40 8225 e740
00000030: ff68 5d40 4a24 7d40 aaa3 5340 5c40 5b40
00000040: 5a3c 8440 2210 4140 6540 7e3f afcf 8740
00000050: 804d c140 1b99 bf40 f570 5c40 ca2a 9440
00000060: c325 5d40 86c0 2540 4f88 3c40 aa35 1340
00000070: a274 1c40 69da 6a40 c5ae 4340 49d7 d33f
1.6243955 2.060719 3.1777766 3.350826 3.953207 2.737774 6.94125 4.010846
4.6601443 5.0927734 2.9077263 7.2233286 3.4595335 3.95534 3.3068643 3.4258032
4.132367 3.0166097 0.9931701 4.244102 6.0407104 5.9874396 3.4443944 4.6302233
3.4554298 2.5898757 2.9458196 2.3001504 2.4446187 3.6695807 3.057542 1.6550075

feature_net.layer_norm_1.weight f4 [32]
00000000: 58a3 cd40 0cad 5a41 da96 bd40 1154 f140
00000010: 57c1 1541 bc6e 1841 7237 113f 196b 2541
00000020: f9bf dd40 d7b0 5741 8573 2a41 96f4 e03e
00000030: 7ebc 9340 c4c3 ae40 84fa 6541 9500 f340
00000040: 1cf1 a840 66f3 6541 1214 b440 5afa c840
00000050: ab9f b53f a69f 423f 66b8 2440 9d4b 5e41
00000060: 602d 1c41 ead0 0941 9d97 e540 3c36 c140
00000070: 05f3 8e40 999e 6741 a703 2341 ea63 0341
6.4261894 13.667248 5.9246645 7.541512 9.359702 9.527035 0.5672523 10.338647
6.929684 13.480674 10.653203 0.43936604 4.6167593 5.461397 14.373661 7.593821
5.2794323 14.371923 5.62745 6.2805605 1.4189352 0.76024854 2.5737548 13.89346
9.761078 8.613504 7.1747575 6.0378704 4.4671655 14.47622 10.188392 8.211893

feature_net.layer_norm_1.bias f4 [32]
00000000: 8294 80bf 0f5e 02c0 04e2 64bc 8a96 75bf
00000010: fff8 853f 3632 ce3f 078c 06c0 af7c 7d40
00000020: 286d b73b f3a4 d53f 855e 56be 6f79 aebf
00000030: 8a33 34c0 46b6 b5be 2940 2740 8517 a83f
00000040: 00a9 93bf ff8b b33f 17ab 79bf 2340 93be
00000050: b958 88c0 7212 03c0 c124 4ac0 c60c 4d40
00000060: 0e55 0640 65cb 693f 4fd4 663f 0532 94c0
00000070: 0fda 29c0 c7f7 3740 06c5 533f c647 56c0
-1.0045321 -2.036991 -0.013969902 -0.9593283 1.0466613 1.6109073 -2.1022966 3.960735
0.0055977292 1.6690964 -0.20934494 -1.3630809 -2.8156457 -0.35490626 2.613291 1.3132178
-1.153595 1.4027098 -0.9752669 -0.2875987 -4.2608304 -2.0480008 -3.1584933 3.2039046
2.0989413 0.9132598 0.9016771 -4.631106 -2.6539342 2.8744981 0.8272251 -3.3481307

feature_net.linear_layer_output.weight f4 [5, 32]
00000000: 1de7 f73e 5d1f 88c0 0f57 e040 a6e8 fdc0
00000010: fa76 8840 8ffc 97c0 b2d2 d0bf 5377 ec3f
00000020: 8d5d b9c0 0b68 ac40 eb95 d7bf 0ef4 f23f
00000030: 6d95 9540 1bd3 a43f 00d4 c63f e393 7ac0
00000040: 5737 4741 705d 63c0 19b7 0b40 3156 d4c0
00000050: d4d4 6fc0 ebdc 0dc0 07c1 8f40 c093 04c0
00000060: 4b59 943e 993e 83c0 04ad f8bf 8f37 1fc1
00000070: 500d 8e40 6b82 1240 e8af b73f d468 56c0
00000080: bf65 01c0 4454 6b40 6e85 38c0 7c5c 6640
00000090: 98d5 8040 d609 8fc0 5734 223f c074 6540
000000a0: b7c1 c540 3c81 d1c0 59dc e4c0 faa3 1f3f
000000b0: da5b 35bf 38a0 353f 7a49 87c0 d1ac 7b40
000000c0: 44fa 613f 563b 3dc0 ce99 03c0 d347 823f
000000d0: a987 ff3e 5e6a 80c0 051e f93f b629 8740
000000e0: 6225 9dc0 8d68 e6bf 10c1 41be 9ee5 1f3e
000000f0: d46d 85bf e6b8 d740 1d8d 19bf 3f60 30c1
00000100: 0cbb 63c0 d15b c2c0 8b31 4840 2221 46c0
00000110: fde3 9dc0 cd67 fe3f 88d2 a93e 66f9 40c0
00000120: 3037 4940 c4db b540 7d79 8340 ee44 1440
00000130: 0019 6ebf 970d 0540 ffa9 8d3e 255c 09c0
00000140: 3504 1fbe 4f18 e93f 3228 1740 81f1 62c0
00000150: 4c59 1ac0 e887 2ec0 8ac4 7fc0 2c33 d8c0
00000160: f28f da40 4e97 a83f d1e1 06c0 304c c4c0
00000170: ab77 72c0 2b0c fdc0 f806 0d40 34ee 2b40
00000180: 7090 8240 e722 47c0 f6df ef3e e1f2 22c0
00000190: 95e8 2740 7260 48c0 9e57 b3be 3e45 6e40
000001a0: ee2b 6b40 f3de 08c0 e434 e940 9a0a a23d
000001b0: f109 13c0 06e3 ddc0 7ff3 d440 353d f8bf
000001c0: 465c 81bf db61 f7c0 3bd9 8dc0 96ed f5c0
000001d0: d002 0140 8b41 05c0 4f6a 2bc0 4c4e 34c0
000001e0: 10df 0e40 2f09 12c0 de7b cb40 83c5 e1c0
000001f0: 1c7c 3fc0 a621 b1bf f335 0341 01a0 3140
00000200: 1822 aec0 f177 3e40 c6d2 81c0 3c8b cebe
00000210: 09a3 9f3f ddaa 2e40 fe4f 883f 897c 9ec0
00000220: 41c7 8abf c28b 4c40 cae0 40c0 63dc 983f
00000230: 4fca ce40 f1fc b2bf e3ba 30c1 8bde 6c40
00000240: 1440 903f 2c43 0641 a89c 2540 abc4 2640
00000250: b30e 8c3f 850f 0dc0 0d66 ffbf fce8 d33e
00000260: ef1b 65bf e0e4 6440 b95b 93c0 3dc6 f240
00000270: 856c 7940 ad0c 8c3e 0a42 94c0 a08c 57c0
0.48418513 -4.2538285 7.0106273 -7.9346495 4.2645235 -4.74958 -1.6314299 1.8473915
-5.79267 5.3877006 -1.6842626 1.898073 4.6744905 1.2876924 1.5533447 -3.9152763
12.451011 -3.552578 2.1830504 -6.6355214 -3.747365 -2.2166088 4.492313 -2.071518
0.28974375 -4.1013913 -1.94278 -9.951064 4.439125 2.28921 1.4350557 -3.3501482
-2.021835 3.6770182 -2.883144 3.5993948 4.0260735 -4.4699507 0.63361114 3.5852509
6.179897 -6.5470257 -7.151898 0.62359583 -0.7084328 0.709476 -4.2277193 3.9324229
0.882725 -2.9567466 -2.0562625 1.0178169 0.49908188 -4.0129843 1.9462286 4.2238417
-4.9108133 -1.8000656 -0.18921304 0.15614936 -1.0424142 6.7413206 -0.59980947 -11.023498
-3.5582914 -6.073708 3.1280239 -3.0957723 -4.9340806 1.9875427 0.33168435 -3.015222
3.1439934 5.683077 4.10858 2.3167071 -0.93006897 2.0789545 0.2766876 -2.146249
-0.15528949 1.8210543 2.3618283 -3.5459902 -2.4117002 -2.727045 -3.9963708 -6.7562466
6.8300714 1.3171175 -2.1075327 -6.1343 -3.788554 -7.9077353 2.2035503 2.6864138
4.0801315 -3.1115053 0.46850556 -2.5460742 2.6235707 -3.1308866 -0.35027784 3.7229762
3.6745563 -2.1386077 7.2877064 0.07912178 -2.2974818 -6.933963 6.6547236 -1.9393679
-1.0106285 -7.7306952 -4.4327674 -7.685252 2.0157967 -2.0821254 -2.6783636 -2.8172789
2.2323647 -2.2818105 6.3588705 -7.0553603 -2.99195 -1.3838394 8.200671 2.7753909
-5.441662 2.9760706 -4.056979 -0.40340602 1.2471629 2.7291787 1.0649412 -4.952702
-1.0842057 3.1960301 -3.01372 1.1942257 6.462196 -1.3983442 -11.045627 3.701083
1.1269555 8.391399 2.5876865 2.6057537 1.0941986 -2.2040722 -1.9953018 0.4138869
-0.8949575 3.5764694 -4.6049466 7.586699 3.8972485 0.2735342 -4.6330614 -3.367958

feature_net.linear_layer_output.bias f4 [5]
00000000: 27e8 023d d25b a2be 2204 0040 9983 783f
00000010: fb60 603f
0.03195968 -0.31710678 2.0002522 0.970758 0.8764798

feature_net.linear_layer_0.weight f4 [32, 10]
00000000: 5c80 2741 d2a2 9340 b19a ebc0 6416 dfc0
00000010: 4452 87be 2460 1440 7bda 703f a5e3 1dc0
00000020: 5249 47be dbde 96bf 02ab aac0 2a52 7bc0
00000030: d1f5 fd3f 1ac8 b63d 4a18 903f c512 623f
00000040: 69bc 363f 40c7 4d3f 196b 1241 3ae5 0f40
00000050: 72d5 23bf 9a55 d540 7742 6e40 5ea2 c1c0
00000060: b3bb 3140 6ea0 d5c0 35bb 613e 79f6 1dc0
00000070: 2cfa 2340 5cc3 143f 893a 9140 4a39 3940
00000080: 9b98 d23f dacc 14c0 8230 9f40 f46a 6d40
00000090: 62b2 4340 1076 d8bf a4e6 16bf 719d 0c3f
000000a0: 0f66 6ac0 7d04 aac0 84a2 d840 0ef5 e740
000000b0: 09eb 813f 440c 923e ab81 dc3f 3b23 843f
000000c0: f5c9 48bf 3c8a babf 1019 9ec0 80dd 9040
000000d0: 797f 9940 173a 99bf 778b 7140 c5a3 893f
000000e0: 2fa6 c73f ada4 883d 578d b9c0 f57b 0840
000000f0: de70 1dc1 8476 0fc1 e979 8bbe 4a40 06be
00000100: 4a11 38c0 ab56 95bf c721 5bbe 1454 893e
00000110: 8013 72bd d2f4 2d3f efc7 0341 8824 2640
00000120: 10b7 813e b26b 80bd bb5b b83f d6a0 46c0
00000130: c297 bc3f 4faf 0640 0ba9 853d 3814 93c0
00000140: 012f 7a3f a33b 83bf a6da 8940 7a56 1540
00000150: bb05 8240 4461 a840 0a9b 6d40 5f31 dbbe
00000160: b330 92bf cd7f eabf f254 68c0 13aa 9b40
00000170: 31d6 333f 9b21 8ebe 7705 0c3f 3613 2ac0
00000180: ed2e c73e d6ae c73e 159e 0041 f597 bdc0
00000190: f1fd cfc0 511e bb40 676c a83f 6f49 723f
000001a0: a6ee b140 e784 32c0 fd4c ab40 848b e2bf
000001b0: 878c afbd 1d78 503d a045 0441 30f6 37c0
000001c0: 238e 26c0 9263 b840 e28a 06c0 6d80 a53f
000001d0: 7e8d aabe bf1c 8abd ed53 6840 6aef 73bf
000001e0: 3eb4 fc40 9bf6 04c1 54fa 2fc0 5196 863f
000001f0: 316b cd3f db49 7d40 c95e 13c0 2eab f940
00000200: 5d33 75be 57cc bcbe abd6 e9c0 8b57 14c1
00000210: cf50 4d3e d9c4 3340 80fd 9a3e e9f0 3f40
00000220: 10ca 953e bf01 2b3f f00d 67bf e55b d1bf
00000230: 85f7 2641 6ef1 8fbf a630 86bf 3173 5bc0
00000240: c610 e9bf 8e38 67c0 c78f 3fc0 584b a6bf
00000250: abca e7be b5c8 4240 0c02 bfc0 8d9d ccbf
00000260: 1224 f540 33d9 29bf 1490 1c41 cea8 3840
00000270: 5825 683f 807b 1cbe 8da1 b83f af9c df3e
00000280: b874 e040 6c56 edbf d5e1 69c0 c8a8 f43f
00000290: 8ba4 2cc0 8f7a 3840 5059 79be 9f2c cd3f
000002a0: 6312 19bf 8f7e 8cbe bd3b 0340 cb83 c03f
000002b0: 3ffd 9c40 76ca fb3e b804 02c0 bcc4 c140
000002c0: 6d58 d5bf d016 b9c0 2e8d 5dbf 7a5d b5c0
000002d0: 6be4 a740 3d31 52c0 ceb3 d03f d2f8 8ebf
000002e0: 0b15 14c1 9c3c 69bf 8249 25bf d493 7940
000002f0: 8622 9d40 5076 dabf 6ab0 4040 ae7c 9040
00000300: 925f b83f 11e9 33bf 0dda 84c0 c657 5ec0
00000310: cf8a 803e 4425 ebbf 2eea ec3f 697a 8dbf
00000320: 27bd 4d41 db3b 96c0 4c4e 48bf 8d23 8fbe
00000330: 062b 0fc0 c095 06be 4cff 0a3f 28f9 ec3f
00000340: 2e4e 1fc1 e42d 7e40 fbf5 1fc0 dbbf 4041
00000350: 954a 21c0 bb48 f63f bd0a 07c0 d9d1 8540
00000360: 59cd 8dbe a8b0 3040 93bf 2bbf 97cb 24bf
00000370: db05 7fc0 bf55 17c1 9df7 da3e d38a 4d3e
00000380: 3a9c 7e40 846f 9b40 d339 0040 5ba6 c4be
00000390: e59c b240 ef2e e640 2fc6 5141 0ddd cd3f
000003a0: 982a 68c0 4941 2940 e1cf c3bc b327 a4c0
000003b0: 5c8c c73f 3bb9 543f 61f9 75c0 08f1 3a3f
000003c0: b784 2e41 a2a9 5640 3701 88bd 9112 47be
000003d0: d5ee e63f 5b7a c13f aa1f c43f 577b ee3f
000003e0: 49c8 8540 73ee aa3d 082a ce3f 45e3 0741
000003f0: 5d5b bb40 33a6 b83d ec5f 90c0 7d54 dac0
10.468838 4.6136255 -7.362633 -6.971483 -0.2642995 2.318368 0.94083375 -2.4670193
-0.19461563 -1.178676 -5.333375 -3.92689 1.9840642 0.08924885 1.1257412 0.8830989
0.7138124 0.80382156 9.151147 2.2483659 -0.63997567 6.6666994 3.7228067 -6.05107
2.7770813 -6.6758337 0.2204407 -2.4681685 2.5621443 0.58110595 4.5383954 2.8941216
1.6452821 -2.3250031 4.9746714 3.709653 3.0577626 -1.691103 -0.5894568 0.54927737
-3.6624792 -5.313048 6.7698383 7.248664 1.0149852 0.28524983 1.7227072 1.0323251
-0.7843316 -1.4573436 -4.9405594 4.5270386 4.7968106 -1.1970853 3.7741373 1.0753103
1.559759 0.066720344 -5.7985034 2.1325657 -9.840055 -8.9664345 -0.27241448 -0.13110462
-2.8760552 -1.1667074 -0.21399604 0.2682196 -0.059100628 0.6795169 8.236312 2.5959797
0.25334978 -0.06270541 1.4402994 -3.1035666 1.4733813 2.10445 0.06526383 -4.596218
0.9772797 -1.0252575 4.3079405 2.333403 4.0631995 5.2618732 3.7125878 -0.42811105
-1.1421112 -1.8320252 -3.6301847 4.864511 0.70248705 -0.27760014 0.5469584 -2.6574225
0.3890299 0.39000577 8.038594 -5.9247994 -6.4997487 5.8474507 1.3158082 0.946433
5.560382 -2.7893617 5.353148 -1.7698827 -0.08571725 0.0508958 8.266998 -2.874401
-2.6024253 5.7621546 -2.1022267 1.2929817 -0.33311075 -0.06743764 3.6301224 -0.9528719
7.897002 -8.310206 -2.7496538 1.0514623 1.6048337 3.9576328 -2.3026602 7.802146
-0.23945375 -0.3687465 -7.3074546 -9.271373 0.20050357 2.8088896 0.3027153 2.999079
0.29255724 0.6679954 -0.9025564 -1.6356169 10.43543 -1.1245553 -1.0483596 -3.4289057
-1.8208244 -3.6128268 -2.9931505 -1.2991743 -0.4527181 3.0435002 -5.969 -1.5985581
7.660653 -0.66347045 9.785175 2.885303 0.9068198 -0.15281487 1.4424301 0.43674228
7.014248 -1.8541999 -3.6544087 1.9114008 -2.697543 2.8824804 -0.24350476 1.6029242
-0.5979368 -0.27440307 2.0505211 1.504022 4.905914 0.49177903 -2.031538 6.0552654
-1.666761 -5.7840347 -0.8654355 -5.6676607 5.246633 -3.2842553 1.6304872 -1.1169684
-9.255137 -0.9110811 -0.6456529 3.8996477 4.9104643 -1.7067356 3.0107675 4.5152197
1.4404166 -0.70277506 -4.1516175 -3.4741073 0.25105903 -1.8370748 1.8508966 -1.1052982
12.85868 -4.6948066 -0.7824447 -0.2795681 -2.237001 -0.13143063 0.542958 1.8513536
-9.956587 3.971551 -2.4993885 12.04684 -2.5201771 1.9240946 -2.1100304 4.181866
-0.2769573 2.7607822 -0.67089194 -0.64373153 -3.9847324 -9.458434 0.4276704 0.20072488
3.9782853 4.8573627 2.0035293 -0.3840817 5.581652 7.193229 13.110885 1.6083084
-3.6275997 2.6446097 -0.023902835 -5.129846 1.5589709 0.8309514 -3.8433459 0.73024035
10.907401 3.3541036 -0.06640857 -0.19440676 1.8041636 1.5115465 1.5322163 1.863139
4.180699 0.08346262 1.6106577 8.492986 5.8549027 0.09016075 -4.511709 -6.8228135

feature_net.linear_layer_0.bias f4 [32]
00000000: f149 6140 4d9c 9e40 2406 3a40 2707 9a3f
00000010: b7df cdbe 5e50 ae40 7126 0840 6333 0040
00000020: dd56 e2bf 9992 863f 7315 453e 6f4a f140
00000030: 2e7c a03e 555e a540 8063 7340 664a 1e40
00000040: 8571 42c0 a985 7340 1680 aa40 4732 f940
00000050: 7604 1740 1c32 1740 2e58 24be 44e3 1d40
00000060: 71b4 0540 1e32 1bbe 5700 fa3f 8bc0 2a3f
00000070: 49ed e5c0 4a37 d140 a91d ad3f 5ce2 1640
3.520138 4.9565797 2.9066248 1.2033433 -0.40209743 5.4473104 2.1273463 2.0031364
-1.7682759 1.0513488 0.19246463 7.540336 0.31344742 5.167765 3.802948 2.473291
-3.0381787 3.805033 5.3281355 7.7873874 2.3596473 2.3624334 -0.16049263 2.4669962
2.0891383 -0.15155837 1.9531354 0.6670005 -7.1852155 6.537999 1.3524677 2.3575659

feature_net.layer_norm_0.weight f4 [32]
00000000: 30a4 8d40 b2ec 8a40 b488 a040 3782 2a40
00000010: 0892 b440 876c bd40 53df b140 d4eb 9f3e
00000020: 3209 8a40 516d d040 a7ac ab40 284d 8240
00000030: 0dd0 6c40 5000 8740 536a 1a40 93d4 ed40
00000040: b9f1 8b40 3bc7 1f40 ccb6 6240 060c 2540
00000050: 0319 f940 6e4c ab40 2b6b 0d41 9d3f 8b3f
00000060: 8f74 8940 0b22 7140 0c17 d740 8a79 d640
00000070: 0193 cb40 b575 7340 5c70 7040 ce7a ac40
4.4262924 4.3413935 5.0166874 2.6641977 5.642826 5.919498 5.5585113 0.3123461
4.3136225 6.5133443 5.3648257 4.0719185 3.7001984 4.218788 2.4127395 7.432199
4.373257 2.496535 3.542407 2.5788589 7.784303 5.35308 8.838664 1.0878788
4.2954783 3.7677028 6.7215633 6.7023363 6.361695 3.8040593 3.7568579 5.389991

feature_net.layer_norm_0.bias f4 [32]
00000000: 28e3 31c0 4de8 3ac0 d3c2 1a40 6e27 5ebf
00000010: 946a 2fc0 143b e7bf a28b 92bf 2b22 a3bf
00000020: 4e9e 32c0 edeb b03e e16e 27c0 0273 c1bd
00000030: c796 11c0 54e1 aabf f282 753f bf6a eb3f
00000040: 496d 0e40 cc8f 4b3e bc19 f4bf 744c 05c0
00000050: a918 14be 8efe 0ac0 06a4 9ebe f27b 3bc0
00000060: e2ea 33be 7bb3 50c0 929c 9d3f a486 ddbf
00000070: bcb9 9d40 66e5 a3bf ddda 98bf b33f e2bf
-2.7794895 -2.9204285 2.4181411 -0.86778915 -2.74088 -1.8064904 -1.1448863 -1.2744802
-2.7909122 0.34554997 -2.6161425 -0.09445764 -2.2748277 -1.3350015 0.9590293 1.8391951
2.2254202 0.19879073 -1.9070354 -2.0827913 -0.14462532 -2.1717868 -0.30984515 -2.92944
-0.1757007 -3.2609546 1.2313406 -1.7306714 4.9289227 -1.2804382 -1.1941792 -1.767569
