otk/AgileRL-MATD3/simple_adversary_v3/result/20240102-0837/MATD3_trained_agent_0020000.pt (torch, 686182 bytes, 336 tensors)

feature_net.linear_layer_0.weight f4 [32, 8]
00000000: 286b bb40 10ea 92bf f5f4 b73e 32b2 083e
00000010: c93d 653d 35a8 9a3d 11f3 c8c0 47ef 3740
00000020: a919 d93e 55d0 e5c0 b4e4 0fc0 deb9 9340
00000030: cd4a c83f 7cdf 27c0 edca 02c0 d096 043e
00000040: 49c8 36bf 946b bd3f ea51 35c0 5262 0040
00000050: 7a7b 8e40 52c1 d3c0 a9f0 71bf ef9b b4be
00000060: 2ff8 17c0 edb1 9f40 1130 b040 d3e8 93c0
00000070: 8ce1 83bf d309 a83e 5491 15bf f823 c8bf
00000080: 21a3 74c0 206b b2c0 fb69 0d3f 1716 3b40
00000090: 8a67 613f 4617 2dbf 9e86 4b40 3de9 ed40
000000a0: a429 c13f b983 c3bf 7f0f f73f c44b 70be
000000b0: f6e4 3bc0 d215 28c0 e2f2 42c0 6b76 0cbf
000000c0: 196f 4bc0 d266 13bf 0cb0 debf b4cb 3ec0
000000d0: f814 5a3f b4ad 0c3f 89aa aec0 b50a 2cbf
000000e0: b00e 6940 2e33 9040 6185 203f 48a9 953f
000000f0: 5e20 70c0 5f06 95c0 05c1 8fbf e2fe 203f
00000100: f9a8 b8be e4a8 da3f 760a cabd e5a3 1bc1
00000110: 284f 89bf 39df 08be f683 00bf 4761 14be
00000120: 714a 55c0 3212 43c0 283d b840 f60a 9340
00000130: 0581 d9bf 8d85 0cc0 fc45 42c0 c3db 6fbf
00000140: 15cc 8cbf 1270 b53f b2ee 2bbf f2f9 423f
00000150: d1b5 403f c3c1 9ebf f0b5 1140 f24a 69c0
00000160: c4dd 6e3f ca7b 2041 688a 1abf 3f35 3ec0
00000170: 8400 93be 5c19 613f 36dc 53bf 0000 8f3f
00000180: 6d48 1e3f a7ac 50bf 9ef6 443f 48eb 97c0
00000190: 64ed 71bf 5a0c 0a3e 60e2 24c0 50f3 f140
000001a0: 3396 60be 2745 9abe aea3 0341 096e 4c40
000001b0: 523f a3be baa7 c43d b48c 1abd 8520 bb3e
000001c0: a791 77c0 8576 d93e e732 7cc0 790e a9be
000001d0: e549 a7c0 c8c2 573e 8eff 813d 13b2 283f
000001e0: 9954 dcbf fa12 36bf 267a 08bf b188 b540
000001f0: 0bd6 b03f d92a 2fbe 1123 d33e 4f36 a4c0
00000200: c0e0 bbc0 14e6 86bf 15b8 6d40 d2f3 a63f
00000210: 9048 85be e2c6 943f a85e 2fc0 7904 3ebe
00000220: 1d71 74c0 99eb a240 0564 563f bbe1 f3be
00000230: 4f69 6840 97cc 9cc0 62db 6bbf 35ac 4b3f
00000240: 3607 25bf 9fdd 04c1 c32d 4fc0 db0f dd3e
00000250: ef68 553e e0f4 54be 8fd2 8fc0 02a8 5640
00000260: acf3 c6bd ba28 75c0 a61c 3bbf 88e9 93c0
00000270: 8304 90bf 5cd5 393f b064 7f3f 97db 2c40
00000280: ea7f 59c0 bf0a aac0 cd37 00c0 733d 24bf
00000290: 9f02 5340 7a4c be40 46ce 243e ecd2 4f3f
000002a0: a0f0 e540 dac0 85c0 0a24 94c0 58c0 6a40
000002b0: 630b d33e bd1c ee3f 8b06 74bf 014f 0fc0
000002c0: d37a 2340 8aba 0240 dc36 0b3f 8eee ea3f
000002d0: 2854 663f 9325 c33e aba4 86c0 8dea 71c0
000002e0: 1b47 5ac0 f816 803f 88f2 c7bf fc9b a740
000002f0: 0bea 2040 5f2f a3be 5ca8 c9bf d51c 833f
00000300: 8830 2e40 000c f13e 315b c4be a5e4 113f
00000310: fab1 f73f 7b2c 493f 68b2 4140 7c8c 5940
00000320: 1f9b 79bf cf8a d03d ae28 9ec0 5dd3 49bf
00000330: 1485 a33e 5ac8 f73e 8053 c740 fcf0 c73f
00000340: cf06 8940 1ae7 58c0 c35b 853f cd20 dcbf
00000350: d504 6bc0 685c d140 7a28 16c0 7760 e93e
00000360: f82f 9240 dcff ad40 b3d0 34c0 c697 70c0
00000370: bada df3f 589a c63f c2ff a9bf c5c3 853e
00000380: 92c6 5740 c36f e3bf ee93 1940 cd7a 6abf
00000390: 731e d6c0 0de6 cd3f 43d8 193f 7853 c73f
000003a0: 0365 00bf cd88 9640 3c27 79c0 3ac8 3ac0
000003b0: d6de 0540 3ca7 efbd 6ebe 81bf 05fb 46bf
000003c0: 6e1f 82bf 3e0c a740 92c6 c1bf 6e98 d1bf
000003d0: d475 993e 2fb4 0a3f 9d78 f63f 734e d8c0
000003e0: ed7c a7c0 d514 0ec0 9162 10bf e805 553d
000003f0: 035c ba3e 75a3 9e3e cb4f b340 539e ca3f
5.8568306 -1.147768 0.35929075 0.13349226 0.055967126 0.07551614 -6.279671 2.8739793
0.4240239 -7.181681 -2.248334 4.616439 1.5647827 -2.6230154 -2.0436356 0.12948155
-0.7139936 1.4798455 -2.8331246 2.006001 4.452573 -6.6173487 -0.94507843 -0.35275218
-2.374523 4.9904695 5.5058675 -4.622171 -1.0303206 0.32819995 -0.5842488 -1.5635977
-3.8224566 -5.575577 0.5523984 2.9232233 0.88048613 -0.6761364 3.1800914 7.4347215
1.5090833 -1.5274574 1.9301604 -0.23466402 -2.9358497 -2.6263318 -3.0460744 -0.5486819
-3.1786559 -0.57578766 -1.7397475 -2.981183 0.85188246 0.5495255 -5.4583173 -0.6720384
3.6415215 4.5062475 0.6270352 1.1692286 -3.7519755 -4.6570277 -1.123078 0.6288892
-0.36066416 1.7082791 -0.098652765 -9.727513 -1.0727282 -0.13366403 -0.50201356 -0.14490233
-3.3326685 -3.0479856 5.7574654 4.595088 -1.6992499 -2.1956513 -3.0355215 -0.93694705
-1.0999781 1.4174826 -0.67161095 0.76162636 0.7527743 -1.2402881 2.2767296 -3.6451993
0.9330714 10.030222 -0.6036744 -2.972 -0.2871133 0.8792932 -0.8275789 1.1171875
0.6182926 -0.81513447 0.7693881 -4.747471 -0.94502854 0.13481274 -2.5763168 7.560951
-0.21932296 -0.30130884 8.227461 3.194216 -0.31884247 0.09602304 -0.03773184 0.36548248
-3.868265 0.42473236 -3.9406068 -0.33018854 -5.2277703 0.21070397 0.06347571 0.6589672
-1.7213317 -0.71122706 -0.53311384 5.672936 1.3815321 -0.17106189 0.4123769 -5.1316295
-5.8711853 -1.0538964 3.7143605 1.3043158 -0.26031923 1.1623194 -2.7401524 -0.18556394
-3.819404 5.0912595 0.8374637 -0.47633156 3.6314275 -4.8999743 -0.92131627 0.7955964
-0.6446413 -8.304107 -3.237168 0.4317616 0.2084081 -0.20796537 -4.494453 3.3540044
-0.097144455 -3.8306108 -0.7309059 -4.622257 -1.1251377 0.72591186 0.9976301 2.7009027
-3.3984323 -5.313812 -2.0034058 -0.64156264 3.297035 5.9468355 0.16094312 0.81181216
7.185623 -4.1797915 -4.6293993 3.6679897 0.41219625 1.860252 -0.95322484 -2.239197
2.5543716 2.0426354 0.54380584 1.8354051 0.8997216 0.38114604 -4.207601 -3.7799408
-3.41059 1.000701 -1.562089 5.237791 2.5142848 -0.3187208 -1.5754504 1.0243174
2.721712 0.47079468 -0.38350824 0.5698951 1.9351189 0.78583497 3.026514 3.3991995
-0.9750232 0.10182726 -4.942466 -0.7883814 0.31937468 0.48395044 6.228943 1.5620418
4.282081 -3.3891053 1.0418628 -1.719751 -3.67217 6.54253 -2.3462205 0.4558141
4.5683556 5.437483 -2.825238 -3.7592635 1.7488625 1.5515852 -1.3281176 0.26125923
3.3714948 -1.7768482 2.399654 -0.9159363 -6.691217 1.6085831 0.60095614 1.5572348
-0.5015413 4.7041993 -3.8930197 -2.9184709 2.0917258 -0.11701819 -1.013624 -0.77726775
-1.0165842 5.2202444 -1.5138724 -1.6374643 0.29972708 0.5418119 1.9255558 -6.7595763
-5.2339997 -2.2200215 -0.564004 0.052007586 0.36398324 0.30984083 5.6034904 1.5829567

feature_net.linear_layer_0.bias f4 [32]
00000000: 341f d53f 0184 e93f cfde 0c40 9d3c dd3f
00000010: ee4b ae3f 5ccb bd3f 41bf e83f df73 afbe
00000020: 6ceb 1dbe fa20 1540 540e 9bbf f46a 4b40
00000030: 0ea2 86bd ec58 f8be 66ba d83f aebd df3f
00000040: c09e 933f dee3 c03e 7ad7 c83f 763a ae40
00000050: 38b1 803f 44fe c63f ec56 88bf 46ee b8bf
00000060: 87bf 783d 9a59 c93f 1044 bc3f bcc4 3e3e
00000070: c215 863f 092e 0dbf 2a33 f03f 682b b1be
1.6650147 1.8243409 2.2010992 1.7284123 1.3616922 1.4827685 1.8183366 -0.3426809
-0.15421838 2.3301377 -1.2113748 3.178403 -0.06573878 -0.48505342 1.6931884 1.7479761
1.1532822 0.3767385 1.5690758 5.4446363 1.0054083 1.5546346 -1.0651526 -1.4447715
0.06072953 1.5730469 1.4708271 0.18629736 1.047539 -0.5514837 1.8765614 -0.3460343

feature_net.layer_norm_0.weight f4 [32]
00000000: 3346 6340 09f9 1140 c35d 5140 16a8 6240
00000010: e1ad 1b40 39cf ea3f d9cb 1040 5105 a740
00000020: 1d8b 7640 5ab4 2340 f1d6 9140 528f 7840
00000030: d134 9d40 5135 7640 1c82 3140 3963 5c40
00000040: d3a5 3540 e4ea 9140 f2a7 8a3e 9432 4340
00000050: 6448 ac40 f9eb 5f40 d70d 8340 29a0 2240
00000060: 3ea3 1f40 da33 8240 9fb7 3540 9bac 5940
00000070: ac49 9140 a54d 8340 8c6b 9a40 de38 9340
3.5511596 2.280825 3.2713478 3.5415092 2.4324877 1.8344489 2.2624419 5.219399
3.8522408 2.5578828 4.557488 3.8837476 4.9126973 3.8470042 2.7735662 3.443556
2.838246 4.559923 0.27081257 3.049962 5.3838367 3.4987776 4.0954394 2.5410254
2.4943385 4.0688295 2.8393323 3.40116 4.540243 4.103228 4.8256283 4.600692

feature_net.layer_norm_0.bias f4 [32]
00000000: 4a59 5dbf 6db0 fbbf a566 643f 6a71 00c0
00000010: 8269 9abf 0544 11bf d694 aebf be90 323f
00000020: 9fc3 dc3f 7382 babf dec4 c3bc 0d42 d23d
00000030: 9c2d 16bf fc02 aa3f 4787 3140 887e 2ebf
00000040: 42d6 bdbf 7732 c43e dabd 57bf 79f2 9e3d
00000050: 6ffa 55be a6ab 1bc0 4322 2abe 7bdc ff3f
00000060: 3ef0 853f 2f50 bfbe f5dc 643f 4f0e 34be
00000070: 9f6e be3e 9477 7bbf 3dd0 bcbf b63e ff3e
-0.8646437 -1.9663216 0.89219123 -2.0069222 -1.2063448 -0.56744415 -1.3639171 0.6975211
1.7247199 -1.457106 -0.023897585 0.102665044 -0.58663344 1.3282161 2.7738817 -0.6816182
-1.4831011 0.38319752 -0.84274065 0.07761092 -0.20896314 -2.4323516 -0.16614632 1.998916
1.0463941 -0.37365863 0.89399654 -0.17583583 0.37193772 -0.98229337 -1.4751049 0.49852532

feature_net.linear_layer_1.weight f4 [32, 32]
00000000: 5b48 9f40 30ab 383f b0f6 2a41 1055 9440
00000010: 674f d23e abd8 ea40 1546 f8bd 608b 1e41
00000020: 27db c940 a639 9b40 d3cc 0c40 26fb f140
00000030: 26c3 b340 0ffe 8e40 a4c9 6a40 acf9 0240
00000040: 00e3 d940 188d fb40 dc8e 61bf 2bc9 1741
00000050: d276 a440 a553 e440 ae35 6540 5038 d93f
00000060: 3fea c240 2cff bf40 a25d 1e41 aed3 c640
00000070: 4214 a540 0fc1 ed40 d42d d040 7ef3 b040
00000080: 42d0 6f40 38a5 d040 0cfe 3240 ab47 433f
00000090: 0593 3ac0 ede0 e03f 69e5 3a3e db6b 6440
000000a0: 3a7d ce40 4c9b 2540 ff8f 1b40 f984 8cc0
000000b0: e7c1 8c40 cff3 4c40 0f02 b83f 4a3d be40
000000c0: a418 abc0 b0b1 9ac0 dc4a 38be 50c2 84be
000000d0: e4c8 91c0 08b9 0e40 a7db 3f40 eb10 6840
000000e0: 50e3 583f 3b4a 0c40 2ade a13f 5f08 1340
000000f0: 4880 1d40 1a83 1a40 a36b f73f c8ff 0eba
00000100: 8aef 993e 40cd b140 bf97 123f 815f f240
00000110: 7517 1d40 69c5 9b3f 8064 1840 1642 a340
00000120: 6afb 523f 89c5 793f 8ac7 25bf dbe2 6d40
00000130: 5d88 293e ac82 323d f164 a03f 664c f03f
00000140: 6ca6 b43f 75d9 9240 8069 e53f d33c fd3e
00000150: a63f e73f 60b8 e140 227b e93f 984b 3b40
00000160: b6b1 a33f 79a7 29c0 3505 26c0 a263 2e40
00000170: 6aff f53e dac1 7f40 7ddd e13f 34fa b140
00000180: 79ed 953f 6fad 0740 9df9 9c3f 7dce 3b3f
00000190: 7005 59be 918c a4bf 49c9 bb3f 9cb7 8a40
000001a0: d2be 2b40 88ea 55c0 6acc 4e3f 1bb6 2f3f
000001b0: f882 d140 643f d33f ac5a b83f 9774 debd
000001c0: d1ee 8740 5b09 ab3f 07ee c03f 7d7a 4f40
000001d0: 565b 8440 f10e 9940 90f8 9d40 7ae0 e73f
000001e0: c454 e13f 83e7 6040 019b 1cbf 88ef 28c0
000001f0: fe05 a3c0 bc40 fcbe 3197 8b3e 1059 b740
00000200: bc93 dd40 c711 f0c0 6c94 0740 6655 3a40
00000210: 0d20 8e40 31ba 9740 d0c9 463f 4259 2640
00000220: 4f84 1e40 af52 8dbe cd46 5f40 ac91 513d
00000230: d88a 3b40 71bc 1740 6832 01c0 4245 1ac0
00000240: 8648 6540 0fef 3c40 b7c2 ae3f 7bed 5b40
00000250: 3a65 b93e 174b c2c0 dd17 a440 7b75 63bf
00000260: b25f 6a40 aa4a 51c0 f765 0a40 5af3 e13f
00000270: ab6f ab40 cbe3 503e aee5 0141 1b28 bd40
00000280: c8ef 2f40 9b2a c1bf 7118 963f 0ef2 ec3f
00000290: cdd7 103f 78c8 9d3f 2f63 b940 63ea 11c0
000002a0: 0cb1 eb3f 5051 8ac0 0508 4e40 8eb9 b13e
000002b0: 6735 2740 f0a8 81c0 3109 9240 a7fa 183c
000002c0: bfd0 bcc0 166b 0740 ff2d a53f aff1 c940
000002d0: ab1f 9a3f 8d1b b1be a205 383f bb3e 063f
000002e0: e5c0 9ebf accb d23d 2fee 0040 641f 11c1
000002f0: 42db 2fbe 33da f6bf d12b 4240 0756 8c3f
00000300: 6765 e2be f6fc 8b3f 4e9b b240 d9f7 1c3f
00000310: 7830 5dc0 df93 34c0 f565 84bf 2841 d13f
00000320: ae66 393f 3f40 58c0 0229 4cc0 badc 713f
00000330: 2ea9 23c0 d010 f1be fb83 0f3f 7973 80c0
00000340: 5da3 3dc0 645c 8540 f765 96bf e470 5dc0
00000350: f681 3140 9452 6a40 de9b 0b40 53f3 3e40
00000360: 8ea1 4d40 e1b1 68c0 d019 c3be 5704 3d40
00000370: 9dee 1c40 a54c e23f ef98 34c0 2672 36c0
00000380: df8c 2fc0 e3d6 23c0 c4fc b83f 13c4 4cc0
00000390: bc1d a2c0 a866 6040 0c7c b63e 8b03 0e40
000003a0: b2aa 7940 ad0a 9abe 0ec3 62c0 067e 1240
000003b0: c8ba a8c0 9f69 5740 cd5a 493f f32d 283e
000003c0: 6b26 c93e 576a cdbe 1b28 2e3f 603c a8bf
000003d0: 99bd 9b40 cb72 7fc0 5e32 4cc0 61bf d23f
000003e0: 0dd6 ccbf 749e 7ec0 a45a 7540 7e4f 8340
000003f0: 032c 4f40 db54 a740 2193 533f 3625 b2c0
4.9775825 0.7213621 10.685226 4.6353836 0.41076204 7.3389487 -0.12122742 9.909027
6.308002 4.850787 2.2000015 7.561908 5.617572 4.468513 3.6685572 2.0464888
6.80896 7.8609734 -0.8810861 9.486613 5.1395044 7.1352105 3.5814013 1.697031
6.0910945 5.999899 9.89786 6.21334 5.158723 7.4298167 6.5055943 5.529723
3.747086 6.5201683 2.7967558 0.7628123 -2.9152234 1.7568642 0.18251576 3.569083
6.4527864 2.5876036 2.4306638 -4.391232 4.3986697 3.202381 1.4375628 5.9449816
-5.346758 -4.8341904 -0.17997307 -0.259295 -4.555773 2.2300434 2.9977815 3.6260326
0.8472185 2.1920307 1.2645924 2.297386 2.4609547 2.4142518 1.9329723 -0.00054549845
0.30065566 5.556305 0.57262796 7.574158 2.4545567 1.216962 2.381134 5.101817
0.8241488 0.9756704 -0.647576 3.7169712 0.16555925 0.04358165 1.2530805 1.8773315
1.4113288 4.589045 1.7922821 0.49460468 1.8066299 7.0537567 1.8240702 2.9264889
1.2788608 -2.6508467 -2.5940678 2.724831 0.48046428 3.9962068 1.7645718 5.5617924
1.1713096 2.1199605 1.2263676 0.7336195 -0.2119348 -1.2855397 1.4670802 4.3349133
2.6835217 -3.3424397 0.8078066 0.68637246 6.5472374 1.650372 1.4402671 -0.108620815
4.2479024 1.336223 1.507264 3.241851 4.1361494 4.783074 4.936592 1.811538
1.7603993 3.5141304 -0.6117402 -2.6396198 -5.0944815 -0.49268138 0.27263787 5.729622
6.924284 -7.50217 2.118434 2.9114623 4.4414124 4.7414784 0.7765169 2.5991979
2.4768255 -0.27602145 3.4886963 0.051164314 2.9303493 2.3708766 -2.0187016 -2.4104772
3.5825515 2.952091 1.3653172 3.4363697 0.36210042 -6.0716662 5.127913 -0.88851136
3.6620908 -3.2701821 2.1624734 1.765239 5.3573813 0.20399396 8.118574 5.9111457
2.74901 -1.5091127 1.1726209 1.8511369 0.56579286 1.2326803 5.7933574 -2.2799308
1.8413405 -4.322426 3.2192395 0.3471188 2.6126344 -4.0518723 4.563622 0.009337104
-5.9004817 2.115911 1.2904662 6.3107524 1.2040914 -0.34591332 0.71883595 0.5243947
-1.2402617 0.102927536 2.0145376 -9.070164 -0.17173484 -1.9285339 3.0339243 1.0963753
-0.4421799 1.0936573 5.581458 0.61315686 -3.4560833 -2.8215253 -1.0343615 1.6348009
0.724223 -3.3789213 -3.190003 0.94477427 -2.557201 -0.4708314 0.5606076 -4.014096
-2.963096 4.167528 -1.1749867 -3.4600153 2.7735572 3.6612902 2.1813884 2.9836013
3.2129855 -3.6358569 -0.3810563 2.95339 2.4520638 1.767964 -2.8218343 -2.850717
-2.742973 -2.5599906 1.4452138 -3.1994674 -5.0661297 3.5062656 0.35641515 2.2189662
3.9010434 -0.3008627 -3.5431552 2.2889419 -5.2728004 3.3658216 0.78654176 0.16423778
0.39287123 -0.40120193 0.68029946 -1.3143425 4.8668942 -3.9913814 -3.1905742 1.6464654
-1.6002823 -3.9784212 3.8336573 4.1034536 3.2370613 5.2291083 0.82646376 -5.5670424

feature_net.linear_layer_1.bias f4 [32]
00000000: 4630 2f41 d9a3 c13f 51c4 f83e 0a02 7140
00000010: af25 3f40 c353 8440 b698 d43f e3c5 4440
00000020: 0218 833d 89cc 0440 13c2 1841 fdb8 8440
00000030: 12fa 1dbe 7eb8 7a40 a402 6640 358a 1240
00000040: 2e35 a03e bca1 82be e72a a1bf 8627 5a40
00000050: f98e f0be 2b9f 1a3f e3d5 3f40 bbb0 803f
00000060: 12c9 bdbe b7c0 b73f b113 e03f 1f25 1e40
00000070: d874 5d40 c57f 663f e23b 7540 6439 e03f
10.9492855 1.5128127 0.48587278 3.7657495 2.986675 4.135225 1.6609104 3.074578
0.064010635 2.0749838 9.547381 4.1475816 -0.15427426 3.9175105 3.5939112 2.2896855
0.31290573 -0.2551402 -1.2591218 3.4086623 -0.4698408 0.6039912 2.9974296 1.0053934
-0.37067467 1.4355687 1.7506009 2.4710157 3.4602566 0.9003871 3.83178 1.7517514

feature_net.layer_norm_1.weight f4 [32]
00000000: fdb3 903e d05f b540 7121 4040 57ac b140
00000010: 5aee bf40 afe7 1b41 71b0 ea40 c0ca ff40
00000020: 59b2 c540 5c16 b240 90ea a43e f053 0b41
00000030: bd2f b040 7888 ca40 7b5d cb40 97d4 5e40
00000040: 025f b240 b6c9 dd40 4b05 cd40 691e bc40
00000050: f5ae 8a40 2e26 b640 b120 9640 8cfb a940
00000060: 90c5 a340 0861 d240 a442 0441 6d02 6240
00000070: ccd8 7c3f 7bee dc40 ab42 d740 f1f4 ae40
0.2826232 5.667946 3.002041 5.5522876 5.9978456 9.744063 7.3340383 7.9934998
6.178021 5.5652294 0.32210207 8.707993 5.5058274 6.329159 6.355161 3.4817255
5.5740976 6.930873 6.406896 5.878712 4.333857 5.6921606 4.6914907 5.3119564
5.1178665 6.5743446 8.26627 3.531398 0.98768306 6.9041114 6.726888 5.4674

feature_net.layer_norm_1.bias f4 [32]
00000000: 8314 99bf 1e9a 09c0 6e95 0abf d7d5 c73f
00000010: 205b ee3f bf40 1b40 42f9 853e ceda d03f
00000020: 61ff 39bf 1b6f 50bf e225 aebf e08e 3840
00000030: c56b 0bc0 fae2 2640 5491 6b3f 2bbf b6bf
00000040: c1ce eebf abef 9ebd 3e5f 0dc0 464a b03f
00000050: ca35 3dc0 2a67 b1bf 84d3 823f dd98 e8bf
00000060: e607 dabf a81c 7dbe d157 6f3f 5228 80bf
00000070: 1cb8 e3bf da1c 53be 7696 2a40 768d ed3d
-1.1959385 -2.1500316 -0.5413426 1.5612134 1.8621559 2.4258268 0.2616673 1.6316774
-0.726553 -0.81419533 -1.3605311 2.8837204 -2.1784527 2.6076035 0.9201863 -1.427709
-1.8656846 -0.07760557 -2.2089381 1.3772666 -2.956408 -1.3859608 1.02208 -1.817165
-1.703366 -0.24717963 0.9349337 -1.0012305 -1.7790561 -0.20616475 2.6654334 0.11599247

feature_net.linear_layer_output.weight f4 [5, 32]
00000000: 6159 1dbf 0773 e0c0 583a 85c0 1b15 67bf
00000010: f9ae 9ebf 9c0c 683f 3e5d 01c0 8732 63bf
00000020: e2d8 4240 c6ab 0040 8f4e d3bf 6177 82c0
00000030: e21f 1540 6367 92be 5a6a b63f 7089 4c3f
00000040: 02ed c4c0 064f b83e 6da6 6c40 4336 523f
00000050: 22cb 2641 806e 0f40 0f7b 853f 01d7 9cc0
00000060: dc60 063e be16 f93f c6a1 80c0 1e7f a73f
00000070: 8241 c440 5dfd 3a3f 1264 27c0 8e79 3640
00000080: e6be 08bf 140f 7540 ea5a e73f 73bd 23c0
00000090: 0c84 eb3f 5c55 08c0 f5ac 19c0 04d6 8dc0
000000a0: 3ba9 ffc0 3b52 f5c0 fec4 4abe 30c7 513f
000000b0: 2dc4 4a40 7ac9 19c0 56ea 3a40 db7e 873f
000000c0: 0877 65c0 bc89 cfc0 6e7e 8c3f 9307 dc40
000000d0: 3f54 c8bf 9362 2fbe bbd9 8ebf fc3e b840
000000e0: b791 e9bf b3bf cbbf 9ef5 5cc0 891b 1940
000000f0: 909f 7b3e 913c a540 7e37 b83f ef28 043d
00000100: f7fa 2c3f ea16 8bc0 acb1 93c0 b11b a8be
00000110: dfea 1bc0 a5f7 5440 8188 4240 01e3 4240
00000120: f1a3 cc40 405e b740 bb23 fabe 165b 2f3e
00000130: 0cce 9ec0 88f8 8a40 b882 1ec0 c38a 94bf
00000140: a094 053f ddf9 cf40 5144 5640 3dd6 45c0
00000150: 87d2 2040 5e34 c33c 1adb 1440 a098 f8c0
00000160: 07cf 9640 3c80 4a3d 3d47 a53f a2a0 a83f
00000170: 2b71 dfbe b2de 66c0 ae6e 25c0 1d1b b4bf
00000180: b3cb 7a3e f45d fcc0 afb7 42bf 6e7e 16c0
00000190: e6e5 e6bf 3a23 d9bf 1918 10bf 6cad 32c0
000001a0: aa86 35c0 2a59 ba3f c28f 763e b0d2 b3c0
000001b0: 463e 7a40 01eb 723f 2bba a13f 7ab4 6a40
000001c0: 1aad fdc0 10d3 a33f a115 1441 4523 0940
000001d0: ba03 2b41 a37d 5240 15be 1f40 0df3 5fbf
000001e0: 7887 ae40 17d2 b33f 8356 d3c0 9720 8540
000001f0: 23f9 78be 55b0 8040 fc3c 17c0 d881 af40
00000200: c190 79be 680b 9840 8f48 2140 7ba9 d93f
00000210: 38ff 2c40 d13b fe3f d9c7 58c0 719a cabd
00000220: f58c 8e3e d998 3cc0 4881 9fbf 78d7 9f40
00000230: 887c 0dc0 765c f7bd c750 b03f ab7a b1c0
00000240: 45ea f040 1dde 7fbd 9dcb 13c1 da28 6bbf
00000250: 5456 27c1 b983 a8c0 90cd 4dc0 b9c7 1140
00000260: 6791 93c0 8f12 d0c0 04f5 e240 0993 e5be
00000270: bf19 eebe e980 a8bf 5ad4 1140 054f 2cc0
-0.61464506 -7.0140414 -4.163372 -0.9026658 -1.2397147 0.9064424 -2.021316 -0.88748974
3.0444875 2.0104842 -1.6508349 -4.0770726 2.330071 -0.28594503 1.4251206 0.79897213
-6.1539316 0.3599779 3.6976578 0.82114047 10.424593 2.2411194 1.042818 -4.9012456
0.13122886 1.9460065 -4.0197477 1.3085668 6.1329966 0.7304285 -2.6154828 2.851169
-0.5341629 3.8290453 1.807462 -2.558438 1.8399673 -2.13021 -2.4011815 -4.432375
-7.989408 -7.666288 -0.19801709 0.8194456 3.1682236 -2.4029222 2.9205527 1.0585588
-3.58539 -6.4855633 1.0976083 6.8759246 -1.565071 -0.17127447 -1.1160196 5.7576885
-1.8247594 -1.5917877 -3.4524913 2.3923056 0.24572587 5.1636434 1.4391935 0.0322656
0.6757044 -4.346547 -4.6154385 -0.32833627 -2.4362104 3.327615 3.0395815 3.0451052
6.3950124 5.730255 -0.48855385 0.1712459 -4.962652 4.3428383 -2.4767284 -1.1604847
0.5217991 6.499251 3.3479197 -3.091201 2.5128496 0.023828682 2.325873 -7.768631
4.712772 0.0494387 1.2912365 1.3174021 -0.43641028 -3.6073422 -2.5848804 -1.4070774
0.24491768 -7.886469 -0.7606153 -2.3514667 -1.803891 -1.6963875 -0.5628677 -2.7918348
-2.8363442 1.4558461 0.24078277 -5.6194687 3.9100509 0.9488984 1.2634939 3.6672654
-7.9273806 1.2798786 9.2552805 2.1427777 10.68841 3.2889183 2.4959767 -0.8748024
5.4540367 1.4048489 -6.6043105 4.1602283 -0.24313788 4.021525 -2.3630972 5.4846
-0.24371625 4.7513924 2.5200536 1.7004846 2.7030773 1.9862005 -3.3871977 -0.098927386
0.27841917 -2.946829 -1.2461329 4.9950523 -2.2107258 -0.120781824 1.3774651 -5.546224
7.5285974 -0.062467683 -9.23721 -0.9185921 -10.458576 -5.2660794 -3.2156715 2.277815
-4.6114993 -6.5022655 7.092409 -0.4483874 -0.46504018 -1.316434 2.278586 -2.692323

feature_net.linear_layer_output.bias f4 [5]
00000000: 5715 f6be 1362 2640 6b28 11be 180d 62be
00000010: 7b59 ff3f
-0.48063156 2.599736 -0.14175574 -0.22075307 1.9949182

feature_net.linear_layer_0.weight f4 [32, 10]
00000000: 3d09 863f 7b51 85bf e77c a6bf a094 42c0
00000010: 05cf 873f 2a2b ebbf 8431 d13f 9c30 a2bf
00000020: edde ed3f be17 d43e 4424 32bf bb1f a5bd
00000030: b8ee 1c3e 2e5b 2fc0 d347 b23f 2847 833f
00000040: ca40 5fbf 694b 863f a1ea 49c0 beb1 7fbc
00000050: edf7 1041 4b59 7fc0 bd30 933f 0ec9 5c3e
00000060: 1f16 293f 19ab a8bf 3024 dd3e 6052 15be
00000070: 8d30 983e 5742 0ec0 c731 a6c0 2a1e 9940
00000080: 0d14 023e 58e3 5d3e 5ac9 e93f 4af9 8ebf
00000090: 8b24 12c0 eccf 0bbf 3f29 63be 3944 c73f
000000a0: 788d d6be 52be f83e 3e90 ecbf 229c 303f
000000b0: 5b81 2fbf 1e6c a53f 8f93 0fc0 de4e a73f
000000c0: 9d69 5dbe 851f fb3f 7658 98c0 5d35 3bbf
000000d0: eb4c cebd d1fc 7fc0 86d1 89be dd29 32c0
000000e0: 6c2d 9d3f e1b2 bbbe d26b 2a3f fbe1 f8be
000000f0: 43ab 6440 e2d0 bd40 04e6 4dbf 1d94 53bf
00000100: a2db 913f 27a7 25bf ec36 b03f 842d 0a3f
00000110: 3571 14c0 b3d6 9b3f f495 34bf 02d4 e9bf
00000120: 1138 7a40 5388 033e 1c66 6cc0 489d f9bf
00000130: 582c 753f 0456 70bf 41fa 64bf a1ad 723f
00000140: 331e 1ec0 1d0c 673f 1588 1a3f 22de 76c0
00000150: 89ee ee3f 250e 0a40 e7b7 853f 12a7 343f
00000160: 19fb 91c0 1e1d a93f ac38 d0c0 056c 5c40
00000170: 0375 f53f b0af d93f 18cf 2c40 f297 b4bd
00000180: 6e2a d6be fc1a f0bd 55cb 9c40 1fad 42c0
00000190: efcd 5bc0 fd74 b7c0 570a 96be 4d9d 09c0
000001a0: 35eb 1140 bfe3 1740 eddc ef3e 55a2 1340
000001b0: 10f4 0b3e dde9 90be fe79 1ec0 ac6b 9bbf
000001c0: 7cc7 2740 1161 3e40 b211 9440 c293 7d40
000001d0: cd8d cc3f 921a a3be 7b77 123f fc2a b5be
000001e0: d7ed 5840 8dfa 55bf accd 9ac0 c3ae 32bf
000001f0: dde0 80c0 f790 d0bf e70d d33e d007 bdbf
00000200: e93f b33d 8f34 2a3f c5ac 6040 f4f4 b440
00000210: d028 22be d647 32bf af3f 7d3f 9e53 bbbf
00000220: 9a93 063f f415 b73e 93af 20c0 548e e3be
00000230: 2c93 0fc1 0ea3 f540 5297 96bf 5d41 97bd
00000240: 8881 0f3f 74b7 bc3e 4120 1fbf f18b 8f3d
00000250: e419 8e3f ec37 8bbe 6211 a2c0 1558 e4c0
00000260: 068a 613f c908 4a3f 85bd a93f 5bb0 2f3f
00000270: 81d4 df3e bf93 653f 467e 8a3e c109 c3be
00000280: d5d1 e3c0 31f2 b9bf 8fea 9d3d 7272 1abf
00000290: fe6e b13e 90f1 02c0 2c2c 883e fce6 cebf
000002a0: 5638 64c0 c1d6 0dbf 45b6 3dc0 3b1a 2ac1
000002b0: 89cd ccbe 5995 3e3f 634d f43f ee0a c03f
000002c0: f41e fb3f 8cac 663f 763c cebd 7550 bd3e
000002d0: bf04 72bf 5e37 cf40 5f6b f03e 6cb7 5ebf
000002e0: c20d 2cbf 3eee 37bf 3e75 f13f 797a bbc0
000002f0: a512 7ebf 5563 33bf b87b 3240 4011 5e40
00000300: b9fd 1340 1d0d 44c0 8812 f23f efdd 233f
00000310: 3c52 63c0 fab8 8a3f 103d b1bf 46a7 b0bf
00000320: 3b45 d940 9e09 5540 24e5 d6bf 58a4 bb40
00000330: e0f1 c8bf 4afe 80c0 65c4 e03f f29e fdbd
00000340: c4e5 ba3d d69f 3fbf 9445 0140 8df2 45bd
00000350: 5769 87c0 4d9d adc0 e09a 24c0 98a7 8bc0
00000360: be5e 08c0 a166 bf3e e307 2940 1516 7440
00000370: a449 a73f 2a1f 94be 5c94 6940 7f4f 0dc0
00000380: e179 8440 9f38 fabf c448 0c40 c247 f3bf
00000390: 160d 1fc0 e3ce a03f 4083 1540 d53a c8c0
000003a0: 5bda 913f 753e 5440 afa9 c93f a76e e13f
000003b0: 6d88 ab3c 1015 943e 2192 babf 2618 b340
000003c0: da93 a040 ab07 a9c0 e92e 05c0 f429 c23f
000003d0: c87c 39be fe25 b43e 5042 a3c0 a867 f33f
000003e0: 7b90 6fbe c5b9 32bf c467 8240 e687 8040
000003f0: c4a7 ecbf 1fec 85be 1528 373f 509b 21bf
1.0471569 -1.0415491 -1.3006867 -3.0403214 1.0610052 -1.8372548 1.6343236 -1.2671084
1.8583657 0.41424364 -0.69586587 -0.08062693 0.15325439 -2.7399402 1.3928169 1.025609
-0.87208235 1.0491763 -3.1549456 -0.015606342 9.060529 -3.989825 1.1499249 0.21561071
0.6604938 -1.3177215 0.4319167 -0.14582205 0.2972454 -2.222799 -5.1935763 4.784932
0.12702961 0.21668756 1.8264573 -1.1169827 -2.2834804 -0.5461414 -0.22183703 1.5567695
-0.41904807 0.48582703 -1.8481519 0.6898824 -0.68556756 1.292362 -2.2433813 1.3070943
-0.2162232 1.9618994 -4.7607985 -0.731283 -0.10073265 -3.9998057 -0.26917666 -2.7838051
1.2279487 -0.3665991 0.6657077 -0.4860991 3.572953 5.9317484 -0.804291 -0.8264788
1.1395152 -0.6470818 1.3766761 0.539757 -2.3194096 1.2174896 -0.7054131 -1.8267825
3.909672 0.12844972 -3.6937323 -1.9501123 0.9577079 -0.9388125 -0.8944436 0.94796187
-2.4705932 0.9025286 0.60363895 -3.857308 1.8666545 2.1571133 1.0446748 0.7056743
-4.5619016 1.3212011 -6.506918 3.444093 1.9176334 1.700674 2.70014 -0.08818044
-0.41829246 -0.11723897 4.899821 -3.0418165 -3.4344442 -5.733031 -0.29304764 -2.1502259
2.279981 2.3732755 0.4684824 2.306783 0.13667321 -0.28303424 -2.4761958 -1.2142234
2.6215506 2.9746745 4.62716 3.9621434 1.5980774 -0.3185621 0.5721356 -0.35384357
3.3895166 -0.83585435 -4.8376064 -0.69797915 -4.027449 -1.629424 0.41221544 -1.4768009
0.08752424 0.6648645 3.510545 5.6549015 -0.15835881 -0.6964086 0.989253 -1.4634893
0.5256897 0.35758936 -2.5107162 -0.44444525 -8.973431 7.676154 -1.1764929 -0.07385514
0.56057024 0.36858714 -0.6215859 0.070091136 1.1101651 -0.27191103 -5.064622 -7.135752
0.8810123 0.78919655 1.3260962 0.6862847 0.43716815 0.8967857 0.27049464 -0.3809338
-7.1193643 -1.4527036 0.07710754 -0.6033088 0.34654993 -2.0459938 0.265962 -1.6164241
-3.5659385 -0.55405813 -2.9642498 -10.631404 -0.4000056 0.74446636 1.9086117 1.5003335
1.9618821 0.90107036 -0.10070126 0.36975446 -0.9453849 6.4755087 0.46956918 -0.8699863
-0.6720849 -0.71847904 1.8863904 -5.8587003 -0.992472 -0.70073444 2.7888012 3.4698029
2.312361 -3.0633004 1.8911905 0.6401052 -3.5518942 1.08377 -1.384676 -1.3801048
6.789701 3.328712 -1.6788678 5.8638115 -1.5698814 -4.031041 1.7559935 -0.12383832
0.091258556 -0.74853265 2.0198717 -0.048327018 -4.231609 -5.4254518 -2.5719528 -4.364208
-2.1307826 0.37382987 2.6411064 3.8138478 1.3069348 -0.28930026 3.6496801 -2.207977
4.139878 -1.9548529 2.1919413 -1.9006274 -2.4851737 1.2563137 2.3361359 -6.2571816
1.1394762 3.316312 1.5754908 1.7611893 0.020939076 0.2892232 -1.4575845 5.596698
5.0180483 -5.282186 -2.0809882 1.5169053 -0.18114007 0.35185236 -5.101845 1.9016008
-0.23394959 -0.6981471 4.0751667 4.016589 -1.8488698 -0.2615671 0.71545535 -0.63127613

feature_net.linear_layer_0.bias f4 [32]
00000000: bf26 44c0 e3df bb3f a58d 8cbf 4e69 af3f
00000010: acb1 74c0 1e39 f2bf da1a 2a40 8254 8c3f
00000020: 9a07 fa3f 0faf 3e40 ff16 8ebe 49e0 fd3f
00000030: fcfd 9e3f 3bcc 0b40 fcab fe3e 50e3 4640
00000040: 6bbe 7d3f e7a3 89bf d572 4140 9925 29be
00000050: 6dd4 893f 8507 723f cb36 f63f 0ecc 3440
00000060: 5013 b53f f6f7 2140 8d20 2040 3f99 be3f
00000070: b52d 1740 b5d8 2e40 cda1 053f f12d 7b40
-3.0648649 1.46777 -1.0980726 1.3704011 -3.8233442 -1.8923681 2.657889 1.096329
1.953357 2.9794347 -0.2775192 1.9834071 1.242126 2.1843402 0.4974059 3.107624
0.9911868 -1.0753144 3.0226338 -0.16518249 1.0767952 0.94542724 1.9235471 2.8249545
1.4146519 2.5307593 2.5019867 1.4890517 2.3621647 2.7319767 0.52200013 3.924679

feature_net.layer_norm_0.weight f4 [32]
00000000: 90e3 7940 5f4d 5f3f 834a 7a40 8221 f13f
00000010: e91b 8240 6c3d 6040 c2b7 043f 531b 4040
00000020: bb7b cc3e 2f3c b740 4b72 1f40 3ffe 4b40
00000030: c4b0 0b40 7601 ed3e 33fc de40 39cb 5740
00000040: eadf 1640 2a45 5b40 8638 fa3f 1417 0940
00000050: 3750 3340 fcd6 9640 572a 1c40 728f b540
00000060: f12d 5940 534e b23e e9f4 093f 4380 6240
00000070: 44a8 2340 8146 b040 2e9f 3c40 fb0a 5940
3.9045143 0.87227434 3.9107978 1.8838351 4.065907 3.503749 0.5184289 3.0016677
0.3993815 5.7260966 2.491351 3.187393 2.182664 0.46290177 6.968286 3.3717787
2.3574166 3.4260964 1.95485 2.1420336 2.801771 4.713743 2.4400842 5.6737604
3.393429 0.34825382 0.5388933 3.5390785 2.557145 5.5086064 2.9472156 3.3912952

feature_net.layer_norm_0.bias f4 [32]
00000000: 43e6 b4be 1fae d7bf 915f 96bf ee94 323f
00000010: 2345 0940 da33 fcbf bcf1 a0bf d253 0fc0
00000020: 9101 9abf 2c40 06c0 d95b c0bf d6fc 1a3f
00000030: e0ad 0d3f ec61 9cbf e093 cd3f 9e1e 633f
00000040: df94 7c3e fbf8 0540 a483 e9bd 872f 90bf
00000050: 127d 22bf 53c6 1340 b07c 1d3e 66d5 e7bf
00000060: 4e3d 94be 4d8b 6cbf 3490 9ebf e10a 483e
00000070: 50e5 683f c9bc 82bf adcb 3b3f 4fb5 98bf
-0.35331926 -1.6850013 -1.1747915 0.697585 2.1448448 -1.9703324 -1.2573771 -2.239491
-1.2031728 -2.0976667 -1.502803 0.6054205 0.5534344 -1.2217383 1.6060753 0.88718593
0.24666165 2.0933216 -0.114020616 -1.1264504 -0.6347209 2.3089797 0.15379596 -1.8111999
-0.28953022 -0.92400056 -1.2387757 0.195354 0.90974903 -1.0213863 0.7335766 -1.1930331

feature_net.linear_layer_1.weight f4 [32, 32]
00000000: dee5 0e40 5e30 263f 525e 77c0 67fd e63f
00000010: 98f0 f13f 9c4c f9be 1b3c 06bd f6b8 fa40
00000020: 4da8 ae3e da99 9040 29e7 c3bf 0a8a 063f
00000030: 6d1e 6740 a6a2 aabe 196e b53f 1abe bfbf
00000040: a6f9 8e3f 8f77 9bc0 a3f2 b840 af6f 8140
00000050: a3a7 62c0 fee6 a440 1a8b 9d40 183c 4e40
00000060: 197a 4240 aa21 1b3d 8b3d 39be fd7f e23f
00000070: fb97 8540 0b9c 3a40 fa05 40bf 5894 cc3f
00000080: 3b59 a140 d4db 3dbf 98a5 01bd db0d 9040
00000090: a080 f2c0 f96f 8b40 5760 d0be abcf de3e
000000a0: c1c3 ffbf 077a 08c0 2b28 3140 305e b93f
000000b0: 226d 6a3f 916f 113f a0fd 4f40 996a 2c3f
000000c0: 4cf3 9c40 6252 6440 2743 a03f 5a93 e7bf
000000d0: 88ea 3940 7028 653f ca74 abbf b9bb e4bf
000000e0: 01c4 163f 8f0b e53e 0e94 4fbf f9d9 553c
000000f0: 4a0b a640 d6a2 dbbe 75cf 8940 af3e 96c0
00000100: 6ffe 5abf 3028 ea3f 99c3 1940 f8f9 5340
00000110: ea5e a340 642d 39bf 7fcd 6d3f 39d2 37c0
00000120: 18dd 3640 1f1b b23f 1e5b 81bf 8c86 a340
00000130: 5da0 f43f 9f42 18bf e0dc 8940 afa0 0d40
00000140: e0db 0540 50f9 693f 64dd 573e 0b11 84c0
00000150: 3c41 873f 6633 85bf edd6 2ec0 fe45 3d40
00000160: f869 02c0 8a0d 79bd 00c6 883f 53c9 c4bf
00000170: d087 26c0 d7ae c6bd 32b7 c03e 1fa2 1c40
00000180: 2882 d940 d114 e8be fc23 cb3f 2b0a 14c0
00000190: 0106 b53e bdc0 e340 b6ac a33f 740f 0ec0
000001a0: 18d1 07be 8daf c73f ddf4 adc0 910b c1bd
000001b0: 03bd 2340 d366 cf3e c956 85bf db13 6b40
000001c0: 687e cbbf d5a8 1740 82bb 9cc0 0fb3 e13e
000001d0: d250 16c0 e555 8840 748e 5b40 7404 3640
000001e0: 8f43 be3e dd18 91bd 3838 063f 73ed fd3f
000001f0: cd16 013e eabc 833f fb7f a53f 8589 2940
00000200: cc5d ab3f a332 f83b 1cfa 8540 b7a8 6bbf
00000210: ad21 2540 fe3f 1e40 f153 82be af62 a940
00000220: 8911 c23f 3115 5f40 71e0 ccbf 6841 1540
00000230: f626 763d 7a3f 22bd 5d27 12c0 48f0 14c0
00000240: fdde 88c0 d770 403f 8067 9d3f dbe9 8440
00000250: 4d02 14bf c180 8640 bac4 5340 2c70 96be
00000260: 0528 363f 60c1 d5be dc51 073f 5c13 0b40
00000270: 64e7 8340 50ac 6d40 87d7 a040 ada1 4d3f
00000280: 5d00 ad40 a619 f9be 1b64 4240 0e0d 8f3f
00000290: cbe3 8e40 9a00 b640 916a a13e 9be6 e340
000002a0: 8742 fd3d a2f6 a440 91c1 08c0 70d1 5abe
000002b0: ea95 eb3f 9844 553d e702 a53f afa4 6d40
000002c0: f966 bc40 2e96 3d40 f0d9 ec3f 82b3 94c0
000002d0: 2ac5 88c0 d768 f93f 59e9 1440 6b59 b240
000002e0: 1dd8 9a40 a722 e73e a730 0cbf 330b 92c0
000002f0: 2d8b 2040 0dcf 6440 fb82 9ac0 0479 853f
00000300: 34eb 72bf 8a80 8abf 87db 873f d848 8240
00000310: a260 8f40 0527 d0bf 50e4 9e3d c58d d840
00000320: a42f 9d3f ae0f d23f c64f 86bf fcaf 3140
00000330: 3fac b440 2f69 93be 0318 9e40 7964 a440
00000340: d48c 0e40 1a6d 1240 fd26 a3be c752 bc3f
00000350: 6335 a3c0 839d b540 9a73 1940 d1a9 a040
00000360: d0cf a540 d37d ce3e 9920 7d3f 4178 b840
00000370: c373 863f b386 8b40 dfc9 123f 88a8 e340
00000380: 8f8f fb3f 52f3 8a3d e5ca bc3f fd72 10c0
00000390: 4289 9740 613c a040 7c46 52be ab03 5940
000003a0: c100 a13e cca5 7040 b8b8 91c0 b140 2840
000003b0: 8a27 03bf e707 333f ccf8 f4be c126 f5c0
000003c0: 7195 4ebf 238c c3bf ed3d 9abf e7e6 4340
000003d0: 3dcc 4940 c1b9 4bbf ca46 3740 2d56 1f40
000003e0: 50cf 6abf 71a1 ec3e 39da f43e fed1 023e
000003f0: 4cb1 443e a844 5f40 ceca 1f40 3918 0340
2.23278 0.6491755 -3.8651319 1.8046082 1.8901548 -0.4869126 -0.032772165 7.8350782
0.34112778 4.5187807 -1.530492 0.5255438 3.611232 -0.33327216 1.4174224 -1.4979889
1.1169937 -4.8583446 5.7796187 4.0448833 -3.5414817 5.1531973 4.92323 3.2224178
3.0387022 0.0378739 -0.18089883 1.7695309 4.1748023 2.915774 -0.7500912 1.5982771
5.0421424 -0.74163556 -0.031652063 4.5016913 -7.5782013 4.3574185 -0.406985 0.43517813
-1.9981614 -2.132448 2.7680767 1.4481869 0.91572773 0.5681086 3.249855 0.67350155
4.9046993 3.5675282 1.2520493 -1.8091843 2.9049397 0.8951483 -1.3395016 -1.7869788
0.5889283 0.4473538 -0.8108529 0.013052457 5.188878 -0.4289767 4.3065743 -4.695152
-0.85544485 1.8293514 2.4025633 3.312132 5.105336 -0.72334886 0.9289169 -2.872206
2.8572445 1.3914527 -1.0105932 5.110174 1.9111439 -0.59476656 4.3082123 2.2129323
2.091545 0.91396046 0.21080548 -4.1270804 1.0566783 -1.040631 -2.731868 2.957397
-2.0377178 -0.060803927 1.0685425 -1.5373939 -2.6020393 -0.09701317 0.37639767 2.447395
6.797138 -0.45328382 1.5870357 -2.3131206 0.35356143 7.1172776 1.2787082 -2.2196932
-0.13263357 1.5600449 -5.4361405 -0.09426034 2.5584114 0.40508136 -1.041711 3.673087
-1.5897951 2.3696797 -4.897889 0.44081923 -2.3486829 4.260485 3.4305696 2.8440218
0.37160918 -0.070848204 0.52429533 1.9838089 0.12606354 1.0292027 1.2929682 2.6490185
1.3388 0.0075743957 4.186781 -0.92054313 2.5801804 2.4726558 -0.25454667 5.2932963
1.5161601 3.4856684 -1.6005994 2.332117 0.06009575 -0.039611317 -2.2836525 -2.3271656
-4.2772202 0.7517218 1.2297211 4.153547 -0.5781601 4.203217 3.3088822 -0.29382455
0.71154815 -0.41749096 0.5285928 2.1730566 4.121996 3.7136421 5.0263095 0.8032482
5.4062943 -0.4865238 3.03736 1.1175859 4.4653068 5.6875734 0.31526616 7.1219
0.12366205 5.1551065 -2.1368144 -0.21368957 1.8405125 0.05206737 1.2891511 3.7131765
5.88757 2.9622912 1.8504009 -4.6469126 -4.274068 1.948512 2.3267424 5.5734153
4.838881 0.45143625 -0.5476174 -4.563867 2.5084946 3.5751374 -4.828489 1.0427556
-0.9489014 -1.0820477 1.061387 4.071392 4.480546 -1.6261908 0.07758391 6.767306
1.2280164 1.6411035 -1.0493095 2.7763662 5.646026 -0.28791186 4.940431 5.1372647
2.2273455 2.287909 -0.31865683 1.4712762 -5.100267 5.6754775 2.3976808 5.0207295
5.1816177 0.4033037 0.98877865 5.7646794 1.0504078 4.360193 0.5733928 7.1143227
1.9653186 0.06784691 1.4749418 -2.2570183 4.735505 5.0073705 -0.205347 3.3908489
0.31445888 3.7601194 -4.5537987 2.6289485 -0.51232207 0.69933933 -0.47846067 -7.6609807
-0.8069678 -1.5277141 -1.2050148 3.0609682 3.1530907 -0.7958031 2.8636956 2.4896348
-0.91722584 0.4621692 0.4782274 0.12775418 0.19208258 3.4885654 2.4967532 2.0483534

feature_net.linear_layer_1.bias f4 [32]
00000000: aef4 71be 45e2 de3f 2648 2240 a0eb 393f
00000010: 66af 1040 7d1d 973f 4f49 8840 0e6e 0b40
00000020: 3389 4540 aa9f 6f40 15f7 ee3f 3c1f 8a40
00000030: a148 4f40 af01 2040 6887 df3f 7dd3 0540
00000040: f271 0940 f0a3 c83f 5b48 2340 e472 c43f
00000050: 9d6b 0740 91ea 1b40 52d6 a13e c776 0540
00000060: 9b44 e63f c68f 7740 fe4b 783f 7622 e53f
00000070: 8039 4640 a5ce 9e3f 1472 683f 002e 853f
-0.23628494 1.7412802 2.5356536 0.7262516 2.2607055 1.1805874 4.258949 2.1785922
3.086499 3.7441201 1.8669153 4.316313 3.238808 2.5001028 1.7463198 2.0910332
2.1475797 1.567503 2.5512912 1.5347562 2.1159432 2.4361918 0.31608826 2.0853746
1.7989687 3.8681502 0.96990955 1.7901142 3.0972595 1.2406813 0.9079907 1.0404663

feature_net.layer_norm_1.weight f4 [32]
00000000: c728 8c40 d182 1e41 5056 c840 c7a9 b140
00000010: 7f8e dc40 5596 8b40 7237 113f 6915 0e41
00000020: e196 9a40 6f71 2e41 e9a3 db40 96f4 e03e
00000030: c0cc 9540 96ab a440 a310 1e41 f5bd e940
00000040: 6a53 5240 ee07 f740 83c8 ba40 af00 7540
00000050: 1f0f 1e40 1024 2f40 c92a a740 896c fb40
00000060: 4182 d340 0620 c240 3460 3940 7f6d 5140
00000070: 5e66 4c40 dbce 3841 424f e640 a586 af40
4.3799777 9.906938 6.260536 5.551975 6.8923945 4.362101 0.5672523 8.880227
4.830918 10.902694 6.8637586 0.43936604 4.681244 5.1459455 9.879062 7.304438
3.2863412 7.719718 5.8369765 3.8281667 2.469673 2.736576 5.223973 7.856999
6.60965 6.066409 2.8964968 3.272308 3.193748 11.550502 7.197175 5.485186

feature_net.layer_norm_1.bias f4 [32]
00000000: d03b aabf 1d66 f33d 17b2 973e 6801 bebf
00000010: 4962 253f 44b9 82bf 078c 06c0 057c 0940
00000020: 52e4 e0bd 2e64 913f 4354 c53e 6f79 aebf
00000030: b128 953e 8eec 2abf 9c19 3e40 8e20 13bf
00000040: a8b6 e7bf a296 ec3d 853b 63bf 225b adbf
00000050: a12f 4fc0 2424 643d 44f0 18be c6fb 8f3f
00000060: f9f9 a13f a5bd 80bf 80f5 d23f 39a2 6bc0
00000070: 7904 b1bf 06da be3f 3296 213f 9056 0fc0
-1.3299503 0.11884711 0.2962806 -1.4844179 0.64603096 -1.0212789 -2.1022966 2.1481946
-0.10981049 1.1358697 0.3854085 -1.3630809 0.29132608 -0.66767204 2.970313 -0.5747155
-1.8102617 0.115521684 -0.88762695 -1.3543437 -3.237282 0.05569853 -0.14935404 1.124871
1.2654411 -1.0057875 1.6481171 -3.6817763 -1.382949 1.4910285 0.63119805 -2.2396584

feature_net.linear_layer_output.weight f4 [5, 32]
00000000: e155 4ac0 74d3 32c0 a70e 3940 da06 7540
00000010: 5df7 b73f a828 8ebf b2d2 d0bf d6e4 74bc
00000020: 3c34 cdc0 7e58 9b40 1b9b 3140 0ef4 f23f
00000030: 4671 6240 c18a 2f40 480a 9cbf da8f 99bf
00000040: fe6d af40 0d82 2a3e fe91 f23f 333c 7cc0
00000050: 0728 98c0 05f1 d73f 141c 0640 3567 c93c
00000060: de31 d63f c89b 02bf 4609 7c3f 55e7 ccc0
00000070: 611d 3040 32fa a6c0 1852 223f 4823 11c0
00000080: 73a5 39c0 2ece 3440 ad71 013f 59bd 7140
00000090: 7030 8440 e576 72c0 5734 223f 4ba8 4d40
000000a0: 30d3 8a3f 37aa 84c0 5b11 52c0 faa3 1f3f
000000b0: 7dbd 5cbf 5817 b7bf 05de 85bf 4708 3f40
000000c0: e0b4 eabf 6ad4 82c0 fa52 8740 2a8e 8abf
000000d0: db50 4e3e 3382 88c0 cda4 7f40 afd0 6f40
000000e0: 4250 84c0 ae96 3ec0 f04c d4be 1119 68bf
000000f0: 6800 03c0 9c3b b240 c206 f4bf 2995 91c0
00000100: 127f e9bf e092 7ec0 e22f 4240 739d 16c0
00000110: 5d71 80c0 78d0 e43f 88d2 a93e 5db7 64c0
00000120: 49cd fd3e 51f4 0441 2821 2840 ee44 1440
00000130: 533e 1b40 52b2 91be 18f1 e7be 76cd 963f
00000140: 5261 c93f 4bb2 fb3d b179 be3f cc17 fabf
00000150: 31bb f5bf e450 11c0 1fc1 c4c0 1aaf 8cc0
00000160: 1021 a040 5f26 9b40 465c 3ebf 8ee9 d3bf
00000170: 39d6 bbbe cb4b 83c0 0776 bcbf bd0f ff3f
00000180: 1403 2e40 6263 acc0 c823 ecbe fa4a d7bf
00000190: 4ce0 8f3f fa7c 71c0 9e57 b3be 08a5 a33f
000001a0: 941e cdbf c7e0 05bf e70a ba40 9a0a a23d
000001b0: 6f33 1a3f e77d 1dc0 8630 a840 ab5b 3ec0
000001c0: a089 11c0 efd0 70c0 bf38 fdbf ce61 81c0
000001d0: 0017 9e3f 01d5 05bf c65e 99be d703 acbf
000001e0: 9189 e33e 1eaf 8dc0 d5e4 4f40 efec df3e
000001f0: 38b7 32bf c7d5 90bd a4ba a440 2da8 4940
00000200: 77e0 26c0 524c 8b40 9b57 b5c0 a234 813f
00000210: b223 2b3e 7e03 0d40 fe4f 883f 641a 43c0
00000220: 2f6a 1fc0 94ee 2340 77cf bfbf 63dc 983f
00000230: c8b8 0a40 e16b 10c0 f6a1 efc0 c51c 9f40
00000240: 2596 0e40 4066 3140 f69f 0fc0 63a7 7440
00000250: 5699 efbe 72c0 e93f 4cf0 c1be 9a82 c73f
00000260: 1ad5 ec3d d9a3 533f 777d 41bf 5a02 2b40
00000270: 8659 2740 f94d 083f 6ef1 adc0 de29 70bf
-3.1614916 -2.794156 2.8915193 3.8285432 1.4372364 -1.1106157 -1.6314299 -0.014947137
-6.4126263 4.8545523 2.775092 1.898073 3.5381637 2.7428439 -1.2190638 -1.1997025
5.482177 0.16651173 1.8950803 -3.9411743 -4.754886 1.6870428 2.0954638 0.024585346
1.6733968 -0.51018953 0.9845165 -6.403239 2.7517931 -5.2180414 0.63406515 -2.2677784
-2.9007232 2.8250842 0.5056408 3.7771819 4.130913 -3.7885067 0.63361114 3.2133968
1.0845699 -4.145778 -3.2823093 0.62359583 -0.86226636 -1.4303999 -1.045838 2.9848802
-1.8336449 -4.0884295 4.228879 -1.0824635 0.20148031 -4.2658935 3.9944336 3.747112
-4.134797 -2.9779468 -0.4146495 -0.9066325 -2.0468998 5.5697765 -1.9064562 -4.549458
-1.8241904 -3.9777145 3.0341725 -2.35336 -4.0138383 1.787612 0.33168435 -3.5736916
0.49570683 8.309648 2.6270237 2.3167071 2.425679 -0.2845636 -0.45301127 1.1781452
1.5732825 0.12289866 1.4880887 -1.9538512 -1.9197751 -2.2705622 -6.1485744 -4.3963747
5.004036 4.848434 -0.7435955 -1.655565 -0.36686876 -4.103002 -1.4723519 1.9926678
2.7189379 -5.3871317 -0.4612105 -1.6819756 1.1240325 -3.773253 -0.35027784 1.2784739
-1.6024957 -0.5229611 5.813831 0.07912178 0.6023473 -2.4608095 5.2559233 -2.974345
-2.274025 -3.7627523 -1.9782943 -4.043189 1.2350769 -0.52278143 -0.2995512 -1.3438672
0.44440892 -4.4276266 3.2483418 0.43735453 -0.6981082 -0.07072025 5.1477833 3.1508896
-2.6074502 4.3530664 -5.666944 1.0094187 0.16712835 2.2033381 1.0649412 -3.0484858
-2.490856 2.5614367 -1.4985188 1.1942257 2.1675282 -2.2565844 -7.4885206 4.972262
2.227914 2.7718658 -2.2441382 3.8227165 -0.46796674 1.8261855 -0.37878644 1.5586731
0.115640834 0.82671887 -0.7558207 2.6720185 2.614839 0.53243977 -5.4357214 -0.93813884

feature_net.linear_layer_output.bias f4 [5]
00000000: 7467 173f 757c 12bf 6e16 963f dea8 153f
00000010: 1575 303f
0.5914223 -0.57221156 1.1725595 0.58460796 0.68928653

feature_net.linear_layer_0.weight f4 [32, 10]
00000000: 602b 6b40 ff4b 3e3f be6b 9bc0 8ea9 19c0
00000010: 1a5c 51be 74ed f53f 5e02 43bf cbf5 edbf
00000020: 631d d7bf 575f a83f 1972 aac0 bfa1 46c0
00000030: a62e 0e3f 50ea d3be a406 be3f 81a6 bd3f
00000040: 5f6b c33f e9b7 81bc 64aa cd40 219b 1040
00000050: f0b4 f93d 4ea7 a240 b41f a5bf 5bfc 87c0
00000060: 7770 edbe 999b 89c0 ab1e 843f 348e 99bf
00000070: cb11 0c40 dd3a 6abf 7d58 563f 48df 5f3f
00000080: cf90 1e3f 3537 6bbe 025d 9440 1059 1fbd
00000090: 0243 8140 8b47 bfbe 14aa f5be c6cf 5640
000000a0: 0263 36c0 57b8 4ac0 4cde ff3f f8ca 2a40
000000b0: d506 863d 1e1a e8bf c955 ac3e 2095 1fbf
000000c0: 7556 04bf 2c7d ddbf a85e 89c0 a13e f53f
000000d0: 04b0 f63f 4d68 ca3f 35cc 5a40 f47b d63e
000000e0: d261 7f3f 3179 fd3e 137a 9abf 27c1 ae3e
000000f0: 9fac f7c0 e686 11c1 eb72 403e 67f4 033f
00000100: b96b 483f 55f8 a03e 3c6d 6a3f 9a6d 973e
00000110: 0465 a2be c1fc e8bd d85e c13f 0596 8140
00000120: 1dbc ad3f 13fd a6bf 5fd4 f33f ff87 ce3f
00000130: a6e7 2040 8414 4abf edd1 e43f 68f3 84c0
00000140: 5fbf 42be f427 31c0 49e8 4240 457d 5740
00000150: 0adc e93f 75ed f63f d519 0140 004f 7b40
00000160: 9bf6 433c 7103 803e e85e de3d b403 2640
00000170: 7830 f7bf 70fc 0840 6f93 c53f 34e4 9f3f
00000180: 91b8 e83e c5cc 8e3e 93bc 7b40 cdd1 abc0
00000190: dc37 a9c0 18d9 df3f 24d2 4b40 63bf 01be
000001a0: cb8b 5140 90c1 a2bf 8294 a240 6132 cabf
000001b0: b8d1 21bf 6167 9d3e a1bc 9a40 fb70 b6bf
000001c0: fbe2 79c0 18b9 813f d3d3 703f 5eee b43f
000001d0: 7675 ee3e 7f0f 4e40 f8eb dbbe e252 0bc0
000001e0: 1d29 61bf 31aa c4c0 2a3a a63e 722a a4bc
000001f0: 396a 3a3f 0c24 ef3e b82a 1540 dcc4 9440
00000200: f1de 8b3e 388e 853f f168 85c0 4c95 7ac0
00000210: 005c 0540 0987 4040 c597 fe3f 397b 4340
00000220: fbdc 363f df67 51bf ec8c dcbf e325 80c0
00000230: 6b88 c640 64a6 96bf 9c94 0dc0 2e34 aabe
00000240: d6dc b2bf 8ea2 2dbf 7e84 81c0 a3fd 83be
00000250: 9c5d 3c3f ad11 dabe c918 04c0 8cc4 913f
00000260: 339b b640 b562 163e 0863 d240 f102 65bf
00000270: e8f5 2540 f068 16bf 0f00 92bf 8d7c f6be
00000280: 3383 ae3e 237c d43f c35e 98bf 5c7f 3a3f
00000290: 627d 10c0 1fac 0a40 fa58 94bf 968f 00bf
000002a0: 33dd a03e ae45 133f 1433 fb3e f057 9c3f
000002b0: 6ff7 aebf 2958 0040 715a 5cbf b238 6540
000002c0: e977 3240 aa6e d3c0 a444 663f 9dd9 e03f
000002d0: 12de 4a40 0190 a53f bb3a 0740 ab14 08bf
000002e0: c57e aac0 b075 3d3f 58be 11be 5b02 483f
000002f0: f1c9 963f f426 5bbf 1969 7c3f 8359 6d40
00000300: bfcb 1a40 bddf 8ebd 6122 2240 1f7f f7be
00000310: af00 953f 3fc5 333e 0d83 4e40 4d85 cbbe
00000320: cb42 f440 52fd 50c0 d2f4 873f 0d94 623f
00000330: d96e 53bf e37c 6dbf cba2 c53f 85c9 25be
00000340: 9005 b5c0 cf7f 8640 a0fb c3bf 9df6 0c41
00000350: 3358 a03e 09fa e0bf 676e 57bd ac83 7ebf
00000360: 399b cb3e 47be f8be d54a 6d3f 7bc7 e93f
00000370: f90d 2ac0 5539 ddc0 8eb2 833d a199 853f
00000380: c7bb 023f aca8 0340 f44e 813f 6f9d 33bd
00000390: 25a7 3c40 05a3 b040 fb61 c840 c332 1240
000003a0: 6878 41bf d620 c8be c5f4 9340 bcea bf3f
000003b0: 7850 283f be5e b53f f19b a9bf 78a3 0f40
000003c0: bbc8 fc40 1b41 5840 7649 093e ec2f cf3d
000003d0: 2644 f63e f939 9abf c5c0 333f 992f a13d
000003e0: c462 893f e34e c2be f9ad 07c0 2c93 ca40
000003f0: 833a d13f afc0 03c0 b370 f4be 46a6 8040
3.6745224 0.7433471 -4.856902 -2.4009738 -0.2044529 1.921309 -0.7617549 -1.8590635
-1.6805843 1.3154095 -5.326428 -3.1036222 0.5553993 -0.41389704 1.4845777 1.4816438
1.5267142 -0.015834766 6.4270496 2.2594683 0.12192714 5.082923 -1.29003 -4.249555
-0.46374866 -4.300244 1.0321859 -1.1996522 2.188586 -0.9149607 0.8372877 0.87450075
0.6193971 -0.22970279 4.6363535 -0.038903296 4.0394297 -0.3735927 -0.47981322 3.3564315
-2.849793 -3.1675012 1.9989715 2.6686382 0.06544272 -1.813297 0.336592 -0.6233692
-0.5169442 -1.7303824 -4.2928047 1.9159738 1.9272466 1.581308 3.4187138 0.41891444
0.99758637 0.49506524 -1.2068504 0.3413174 -7.739822 -9.095434 0.18793838 0.51544803
0.7828937 0.31439462 0.9157293 0.29575807 -0.31717694 -0.11376334 1.5107069 4.049563
1.3573033 -1.3045982 1.9049186 1.6135253 2.5141387 -0.78937554 1.7876564 -4.1547127
-0.19018315 -2.7680635 3.0454276 3.3670208 1.8270276 1.9291216 2.0172017 3.9266968
0.011960651 0.25002626 0.10857946 2.593976 -1.9311666 2.1404076 1.5435618 1.2491517
0.45453313 0.27890602 3.9333847 -5.3693604 -5.288069 1.7488127 3.184701 -0.12670664
3.2741573 -1.271532 5.0806284 -1.5796624 -0.6321063 0.30742934 4.835526 -1.4253229
-3.9044788 1.0134611 0.9407322 1.4135244 0.4657399 3.2196958 -0.42953467 -2.1769338
-0.8795336 -6.1457753 0.3246625 -0.02003977 0.7281833 0.4670719 2.3307323 4.6490307
0.27318528 1.0434027 -4.16906 -3.9153624 2.0837402 3.008242 1.9890066 3.054396
0.7143094 -0.8179912 -1.7230506 -4.004625 6.2041526 -1.1769528 -2.2121954 -0.33242935
-1.3973644 -0.67826164 -4.0474234 -0.25779447 0.73580337 -0.4259161 -2.0640128 1.1388106
5.706445 0.14686091 6.574589 -0.89457613 2.593134 -0.5875387 -1.1406268 -0.481419
0.34084472 1.6600384 -1.1903919 0.72850585 -2.2576528 2.1667554 -1.1589653 -0.50219095
0.31418762 0.575282 0.49062407 1.2214336 -1.3669261 2.0053809 -0.860755 3.5815854
2.7885687 -6.607259 0.8994849 1.756641 3.169804 1.2934572 2.1129596 -0.53156537
-5.327975 0.740077 -0.14232767 0.78128594 1.1780378 -0.8560631 0.98597866 3.7085884
2.4186857 -0.069762684 2.5333483 -0.48339173 1.1640834 0.17555712 3.2267487 -0.39750138
7.6331534 -3.2654614 1.0621588 0.8850716 -0.82591015 -0.92768687 1.5440305 -0.16190155
-5.656929 4.2031016 -1.5311165 8.810208 0.3131729 -1.7576305 -0.052595522 -0.99419665
0.39766863 -0.4858267 0.9269231 1.8264002 -2.6571028 -6.9132485 0.06430541 1.0437509
0.51067775 2.05717 1.010222 -0.043851312 2.9477017 5.5199 6.2619605 2.2843482
-0.7557435 -0.39087552 4.623629 1.499351 0.65747786 1.4169538 -1.3250715 2.2443523
7.899503 3.3789737 0.1340693 0.10116562 0.48098868 -1.2048942 0.7021602 0.07870407
1.0733266 -0.3795081 -2.1199934 6.3304653 1.6345981 -2.0586355 -0.47742233 4.020297

feature_net.linear_layer_0.bias f4 [32]
00000000: 4f37 a540 6ba2 1440 58d4 7c3f c400 1b40
00000010: 79ed 1040 991d 8840 dca5 dc3f 0b08 9b40
00000020: 697f c2bf 6fe4 4cbf a8f8 ae3f af77 8340
00000030: 4ae7 ff3f d2a6 3540 02e7 863f de78 3b40
00000040: b6aa 92bf ad8f 0140 0528 1040 27d7 9c40
00000050: 1077 db3f 12e7 323f 84e4 f13e 99b5 2f40
00000060: aa12 1240 6176 2d40 c46b f33f c91a 1b3f
00000070: 4771 56c0 35cf ed3f 3c96 d83f 1f53 ad3f
5.1630015 2.3224132 0.9876151 2.4219217 2.2644942 4.253613 1.7238116 4.844732
-1.5195132 -0.8003606 1.3669634 4.10836 1.9992459 2.838307 1.0539248 2.9292521
-1.1458347 2.0243943 2.2524426 4.9012637 1.714571 0.69883835 0.47244656 2.7454588
2.2823892 2.7103503 1.9017262 0.60587746 -3.350664 1.857886 1.6920848 1.3540992

feature_net.layer_norm_0.weight f4 [32]
00000000: a3dc 1840 49a4 b440 76d5 9e40 5b6f de3f
00000010: aee6 5c40 837f 4a40 1b5b a140 d4eb 9f3e
00000020: 6b28 6140 d6f5 6240 4e0e 6e40 acbd 0640
00000030: b2b8 3d40 567c 7140 32bb 4540 5b4e 3b40
00000040: 935d 0340 3744 2140 be31 fc3f ed99 0640
00000050: 399f c540 8a10 8040 0164 c040 45ca f53f
00000060: 6392 6b40 af94 c73f 8a12 ab40 1abc c240
00000070: 9e35 9640 5bdd 6c40 3fa8 1b40 365c 5c40
2.3884666 5.6450543 4.9635572 1.7377733 3.4515796 3.1640327 5.0423713 0.3123461
3.518092 3.5462546 3.719623 2.1053267 2.964398 3.7732139 3.0895505 2.9266574
2.0525863 2.5197885 1.970268 2.103145 6.1756864 4.002019 6.0122075 1.9202353
3.6808097 1.559225 5.346013 6.0854616 4.694045 3.7010105 2.432144 3.443128

feature_net.layer_norm_0.bias f4 [32]
00000000: ce71 90bf 6682 07c0 8c92 0c40 54c8 203f
00000010: 67bd 01c0 f91d bfbf 99b1 7340 2b22 a3bf
00000020: 2dda 48bf 60cb f83e 2a29 9b3e 49f6 72be
00000030: c5ef 98bf fc80 adbe 1207 b43d 2585 903e
00000040: eae0 a53f 0720 a2bf c554 2bc0 d3c5 14bf
00000050: 8771 c7bf dab3 693f fb96 9a3d d90f fabf
00000060: 6432 eebe 2d81 debf 395f 973f 8412 82be
00000070: 539e 1540 2fd6 b9be 613f 43bf 82b9 32bf
-1.128473 -2.117334 2.1964445 0.62805676 -2.0271852 -1.4931022 3.8077147 -1.2744802
-0.7845791 0.48592663 0.30304843 -0.23726763 -1.1948172 -0.3388747 0.08790411 0.2822658
1.2959263 -1.2666024 -2.677049 -0.58114356 -1.5581521 0.91290057 0.075483285 -1.9536086
-0.4652282 -1.7383171 1.1825935 -0.2540475 2.3377883 -0.36296222 -0.76268584 -0.6981431
