otk/AgileRL-MATD3/result/20231223-1901/models/MATD3/MATD3_trained_agent.pt (torch, 272986 bytes, 224 tensors)

feature_net.linear_layer_0.weight f4 [32, 3]
-0.14030325 -0.14062443 0.05199082 -0.074430175 0.3570903 0.22036354 0.20317425 0.16398218
0.04615254 -0.48586488 -0.4904032 -0.16877453 -0.0020538797 0.177012 -0.35203588 0.09808762
0.10487212 -0.28812745 0.4849465 -0.51435804 0.008612575 0.049044635 0.009949436 -0.045493495
0.23915362 -0.4283377 0.16136503 0.028005421 0.037683852 0.007992994 0.06482354 0.20865284
-0.3960963 -0.38329297 -0.45818472 0.18809232 0.40110904 0.22956434 0.13635075 -0.15363134
-0.08858652 0.17959604 -0.29566845 -0.07195223 0.33710408 -0.28160703 0.35727784 0.2549423
-0.04888459 -0.09115253 0.14869623 0.38929385 0.3037522 0.46851656 -0.2172651 0.14220041
-0.2605526 -0.26317888 0.08498255 -0.18675035 0.14298846 0.33082026 0.059777983 0.266801
-0.2961353 -0.72584206 0.15203263 -0.48377323 0.052002892 0.2965062 -0.12598193 0.054732006
0.006902595 -0.077535905 0.3024684 -0.029023195 -0.047096368 -0.033494517 -0.12692507 -0.0044117114
-0.13127935 0.0014928151 -0.15308666 -0.017980935 -0.04364526 0.3090822 0.6081655 -0.20923437
0.04312548 -0.1390881 -0.010182233 0.114044115 -0.24398471 -0.16795243 0.33399457 -0.3157789
00000000: a8ab 0fbe daff 0fbe 53f4 543d d96e 98bd
00000010: 8ad4 b63e fba6 613e e90c 503e f2ea 273e
00000020: 720a 3d3d 48c3 f8be 2116 fbbe 3bd3 2cbe
00000030: 629a 06bb a242 353e 0c3e b4be 2ae2 c83d
00000040: 32c7 d63d 7185 93be e84a f83e f8ac 03bf
00000050: c21b 0d3c 07e3 483d f602 233c 6357 3abd
00000060: b0e4 743e 144f dbbe e03c 253e a06b e53c
00000070: 625a 1a3d 0cf5 023c 34c2 843d 17a9 553e
00000080: 22cd cabe fa3e c4be 3097 eabe 469b 403e
00000090: 2a5e cd3e ea12 6b3e 889f 0b3e 8951 1dbe
000000a0: d96c b5bd 06e8 373e db61 97be b15b 93bd
000000b0: e898 ac3e cc2e 90be 1fed b63e cc87 823e
000000c0: 353b 48bd 2dae babd d343 183e 8651 c73e
000000d0: 6985 9b3e 67e1 ef3e be7a 5ebe fc9c 113e
000000e0: 2667 85be 62bf 86be 550b ae3d 7c3b 3fbe
000000f0: 916b 123e 4661 a93e c2d9 743d 249a 883e
00000100: 0c9f 97be c9d0 39bf 71ae 1b3e 20b1 f7be
00000110: fc00 553d a9cf 973e 6801 01be ab2e 603d
00000120: 2a2f e23b 25cb 9ebd 23dd 9a3e 0dc2 edbc
00000130: 1fe8 40bd 8c31 09bd a5f8 01be 1e90 90bb
00000140: 186e 06be 90aa c33a c0c2 1cbe c14c 93bc
00000150: 5fc5 32bd 0640 9e3e bcb0 1b3f 8941 56be
00000160: 58a4 303d 1c6d 0ebe 61d3 26bc f68f e93d
00000170: 21d7 79be b9fb 2bbe 5601 ab3e c6ad a1be

feature_net.linear_layer_0.bias f4 [32]
-0.016830128 0.18429756 0.16266659 0.043260388 -0.14407738 0.056182142 -0.09052143 -0.113755755
0.022013007 0.06263362 0.09248337 -0.053129468 0.0008366591 0.0785312 -0.13707778 0.050209593
-0.16145083 0.07981436 0.03280447 -0.08368796 0.055370234 -0.14022867 -0.07763213 0.030172879
0.106116146 0.0073474087 0.053345934 -0.002428107 0.15434854 0.050408263 0.09358892 0.013717371
00000000: 56df 89bc 80b8 3c3e 1292 263e ce31 313d
00000010: 0589 13be 3f1f 663d 4d63 b9bd c7f8 e8bd
00000020: 9f54 b43c 0e46 803d ec67 bd3d 499e 59bd
00000030: 3e53 5b3a f7d4 a03d 1e5e 0cbe 93a8 4d3d
00000040: 5e53 25be b675 a33d fb5d 063d 9864 abbd
00000050: e6cb 623d 1b98 0fbe 98fd 9ebd 1d2d f73c
00000060: 6c53 d93d 88c2 f03b 4481 5a3d e020 1fbb
00000070: 8b0d 1e3e e578 4e3d 8cab bf3d d3be 603c

feature_net.layer_norm_0.weight f4 [32]
0.9135194 1.1864412 1.1461322 1.0 0.8771383 1.0018922 0.8906239 0.88785905
0.9849596 1.0175321 1.0981102 0.94125634 1.000185 1.0579002 0.858271 1.0537852
0.8530903 1.0740974 0.95656514 0.91605943 1.0103544 0.85787946 0.91726243 0.9649597
1.0930698 0.9521087 0.9652129 0.95481586 1.161126 0.97227 1.0586163 1.0286653
00000000: 68dc 693f 4edd 973f 76b4 923f 0000 803f
00000010: 238c 603f 013e 803f eeff 633f bb4a 633f
00000020: 5026 7c3f 7e3e 823f e08e 8c3f 2df6 703f
00000030: 1006 803f 4669 873f a6b7 5b3f 6fe2 863f
00000040: 2064 5a3f 067c 893f 74e1 743f df82 6a3f
00000050: 4b53 813f fd9d 5b3f b6d1 6a3f 9907 773f
00000060: b6e9 8b3f 65bd 733f 3118 773f d06e 743f
00000070: c79f 943f b0e6 783f bd80 873f 4eab 833f

feature_net.layer_norm_0.bias f4 [32]
-0.037321232 0.18285558 0.16012613 0.0 -0.15450732 0.034114737 -0.10574779 -0.12842348
0.009478904 0.011052044 0.10150083 -0.06235364 -0.001911564 0.07079667 -0.15098624 0.04402253
-0.1679648 0.07659808 0.0022837818 -0.09093724 0.04148896 -0.15027802 -0.09128046 0.022204997
0.103540346 -0.050673965 -0.03328529 -0.04516569 0.14719398 -0.031070974 0.057463236 0.0024538487
00000000: 26de 18bd 7e3e 3b3e 1bf8 233e 0000 0000
00000010: 2b37 1ebe e5bb 0b3d 4c92 d8bd 7281 03be
00000020: 684d 1b3c a213 353c abdf cf3d 8866 7fbd
00000030: 728d faba d8fd 903d 239c 1abe f850 343d
00000040: f7fe 2bbe 74df 9c3d 80ab 153b 4e3d babd
00000050: 54f0 293d 7be2 19be 40f1 babd 41e7 b53c
00000060: f60c d43d 818f 4fbd 2856 08bd a9ff 38bd
00000070: 05ba 163e 8e88 febc 925e 6b3d c0d0 203b

feature_net.linear_layer_1.weight f4 [32, 32]
-0.26047784 0.060654014 0.30655676 0.50174785 -0.054416902 -0.28873312 -0.23186526 -0.005468851
0.043327633 0.49488318 0.35926953 -0.10370608 -0.15889163 0.1943978 0.044018395 0.04906361
0.11511852 -0.3527725 0.084199965 -0.0017598378 0.21846595 -0.025744073 -0.062402524 0.13137588
0.04664872 -0.25598854 0.37554207 0.08393223 -0.25445345 -0.47785938 -0.0214907 -0.011563523
0.4886389 0.36700287 0.016062567 -0.26763058 -0.12501498 -0.17965007 -0.36130172 0.008659307
0.0023544922 -0.030746311 0.11691269 -0.043608673 0.4533921 0.4146207 0.4325399 -0.15897706
-0.118074834 0.5671309 0.15828654 -0.011428467 0.37185758 0.014075992 -0.27024737 0.027063016
0.07497343 -0.09913937 0.2735737 -0.4026733 -0.106245145 0.023253404 -0.39092824 0.018624222
-0.041670196 0.278131 0.03145438 0.3483302 0.3039759 0.36853534 -0.07730541 -0.07136596
0.039499607 -0.22523884 0.22877136 -0.010145558 0.7545439 -0.07201874 0.35695645 0.24006493
-0.03467439 0.012357171 -0.045322463 0.07227801 0.66000456 -0.027091308 0.21974207 0.30151385
-0.014581775 -0.22170703 -0.015140435 0.06923781 0.29827943 0.44931188 0.3776177 0.3948727
-0.1623465 0.5509742 0.09192871 -0.07687588 -0.31102812 0.48113984 0.00132473 -0.1018136
0.2573634 0.070248656 -0.35211584 0.1438418 -0.33936122 0.055918626 0.17599007 0.44394198
-0.051457036 0.38823715 0.14798069 0.31919274 0.1436734 -0.1538133 0.36343524 0.43061998
0.12603651 -0.09262301 0.3947342 0.09922135 -0.23567851 0.0595081 0.07411532 -0.12512039
-0.013459934 0.6135572 0.005220432 0.029348666 0.03202633 -0.28121108 0.21194997 -0.089409165
0.55176824 0.127361 0.17309125 0.16283338 -0.013437902 -0.17911282 -0.20827684 -0.36303562
-0.20068645 0.22499868 0.1139925 -0.49103594 -0.10930803 0.114191614 0.34785125 0.17994502
-0.055375222 -0.4334278 0.010717796 -0.22213708 0.46078536 -0.101370804 0.28093088 -0.11578661
-0.14611422 -0.29340786 -0.051758107 -0.33758622 -0.20074737 0.16505198 -0.07541862 -0.3725376
-0.017339459 -0.033270296 0.1975269 -0.20358418 0.08779354 0.006327505 0.233771 -0.19353598
0.24352747 0.19328281 0.33094215 -0.42073902 -0.11327757 -0.042619977 0.15479843 0.06720468
0.31570527 -0.0095117595 0.29551047 0.04564021 -0.2894833 -0.16651756 0.3952354 0.5416669
-0.30716914 0.10761771 -0.19112875 -0.05183183 0.10284564 -0.063459985 -0.18827604 0.20704047
-0.46993855 -0.045465294 -0.20094188 0.0045649824 0.26548183 -0.48821765 -0.06369173 0.386294
0.10029361 0.18723117 0.33311632 -0.37190711 -0.3809315 0.55624676 -0.11643207 0.3166378
-0.42812675 -0.087834105 0.049022928 0.21213938 -0.06990066 0.18341173 -0.26871163 -0.15927997
0.16209199 -0.26306432 0.42435557 -0.10658138 0.43089718 0.24831866 -0.10402195 0.14290977
0.32146966 0.35180387 -0.31443316 0.31298923 -0.32864937 -0.21247509 0.12179672 -0.09595164
-0.047438387 -0.04732608 -0.16379364 -0.14292167 -0.005719258 0.24359792 -0.17182633 0.16476485
0.10601098 -0.24000794 -0.023678925 -0.08571884 -0.05966557 0.3184106 -0.27960002 0.43472683
00000000: 5a5d 85be 5870 783d 02f5 9c3e 8c72 003f
00000010: 42e4 5ebd d4d4 93be 166e 6dbe 0c34 b3bb
00000020: 5178 313d 5461 fd3e 2df2 b73e da63 d4bd
00000030: 7db4 22be 3810 473e a24c 343d edf6 483d
00000040: 42c3 eb3d 999e b4be 0871 ac3d 5caa e6ba
00000050: 8ab5 5f3e 3ce5 d2bc ca99 7fbd 6687 063e
00000060: ba12 3f3d ee10 83be 0d47 c03e a9e4 ab3d
00000070: b947 82be fca9 f4be 440d b0bc ee74 3dbc
00000080: e12e fa3e cde7 bb3e a595 833c e006 89be
00000090: ed03 00be 30f6 37be 8afc b8be c4df 0d3c
000000a0: d34d 1a3b b0df fbbc ec6f ef3d 029f 32bd
000000b0: 0223 e83e 2a49 d43e df75 dd3e e2ca 22be
000000c0: 38d1 f1bd 7e2f 113f de15 223e 773e 3bbc
000000d0: 1e64 be3e fd9e 663c dd5d 8abe 42b3 dd3c
000000e0: ab8b 993d 9509 cbbd da11 8c3e 322b cebe
000000f0: 0e97 d9bd ec7d be3c bf27 c8be d391 983c
00000100: 5eae 2abd 3067 8e3e 4fd6 003d 5658 b23e
00000110: bba2 9b3e aab0 bc3e 4c52 9ebd 5128 92bd
00000120: 57ca 213d 03a5 66be 0a43 6a3e 8e39 26bc
00000130: ca29 413f 907e 93bd ffc2 b63e 95d3 753e
00000140: bc06 0ebd bb75 4a3c 0ca4 39bd 7e06 943d
00000150: 0ff6 283f 97ee ddbc 1104 613e 0660 9a3e
00000160: 66e8 6ebc 2b07 63be 960f 78bc 8ecc 8d3d
00000170: 15b8 983e 350c e63e 1b57 c13e c12c ca3e
00000180: 293e 26be a50c 0d3f 1f45 bc3d 1a71 9dbd
00000190: 143f 9fbe f657 f63e 90a2 ad3a a683 d0bd
000001a0: 23c5 833e 87de 8f3d 8748 b4be 444b 133e
000001b0: c1c0 adbe ee0a 653d be36 343e 5d4c e33e
000001c0: 9dc4 52bd 05c7 c63e 4088 173e 3b6d a33e
000001d0: 1f1f 133e 3c81 1dbe 2f14 ba3e 397a dc3e
000001e0: b70f 013e 22b1 bdbd 9a1a ca3e 9034 cb3d
000001f0: b555 71be c4be 733d c6c9 973d 8f1f 00be
00000200: 0e87 5cbc 1612 1d3f 2810 ab3b 9d6c f03c
00000210: 0a2e 033d e6fa 8fbe 6a09 593e 271c b7bd
00000220: af40 0d3f ec6a 023e d53e 313e cbbd 263e
00000230: a52a 5cbc 5a69 37be 8646 55be cedf b9be
00000240: c080 4dbe 0e66 663e e674 e93d 1069 fbbe
00000250: e3dc dfbd 4bdd e93d 8f19 b23e 8243 383e
00000260: 21d1 62bd 40ea ddbe b299 2f3c e777 63be
00000270: 0fec eb3e 7f9b cfbd 2cd6 8f3e 8821 edbd
00000280: f79e 15be 8e39 96be 4f00 54bd 1ad8 acbe
00000290: b890 4dbe 6303 293e 1475 9abd 40bd bebe
000002a0: 7b0b 8ebc 6f46 08bd 7e44 4a3e 5f78 50be
000002b0: 19cd b33d f656 cf3b aa61 6f3e 4c2e 46be
000002c0: 445f 793e eeeb 453e 4071 a93e 1b6b d7be
000002d0: 12fe e7bd 4992 2ebd 7b83 1e3e 9ba2 893d
000002e0: 1fa4 a13e 36d7 1bbc 264d 973e 3bf1 3a3d
000002f0: 2837 94be 9483 2abe 4b5c ca3e afaa 0a3f
00000300: 4645 9dbe ad66 dc3d 41b7 43be 9d4d 54bd
00000310: bca0 d23d 4ff7 81bd 6fcb 40be 6b02 543e
00000320: c99b f0be d139 3abd b5c3 4dbe d995 953b
00000330: 3ced 873e aaf7 f9be cf70 82bd 54c8 c53e
00000340: bc66 cd3d 87b9 3f3e 398e aa3e 9c6a bebe
00000350: 7409 c3be 3066 0e3f f073 eebd 5a1e a23e
00000360: 6e33 dbbe 5ee2 b3bd 44cc 483d 113b 593e
00000370: 1428 8fbd 49d0 3b3e 9294 89be 4a1a 23be
00000380: 71fb 253e 5eb0 86be 2245 d93e 5747 dabd
00000390: 8e9e dc3e 3f47 7e3e 7609 d5bd f056 123e
000003a0: ac97 a43e a31f b43e 62fd a0be 2040 a03e
000003b0: bb44 a8be 1293 59be 8f70 f93d 4b82 c4bd
000003c0: c14e 42bd fed8 41bd 85b9 27be 0f5a 12be
000003d0: 9d68 bbbb bc71 793e 3ef3 2fbe 1eb8 283e
000003e0: 491c d93d a4c4 75be 4efa c1bc 5c8d afbd
000003f0: e263 74bd b706 a33e bc27 8fbe 8494 de3e

feature_net.linear_layer_1.bias f4 [32]
-0.009926653 0.07189834 0.15517332 0.061138675 0.056171354 0.08801108 0.020707062 -0.05122887
0.15685663 -0.08583834 -0.06937812 -0.039874922 -0.07888957 -0.03291957 0.14887464 -0.11600654
-0.07809824 0.17479743 0.07965926 -0.051275138 -0.0521924 -0.064299874 0.015599085 -0.013251436
0.10966145 0.08064265 -0.070792615 -0.09373981 -0.008143339 0.02193117 0.07775337 0.1441247
00000000: 66a3 22bc 703f 933d c1e5 1e3e 8c6c 7a3d
00000010: ef13 663d 273f b43d dba1 a93c 5dd5 51bd
00000020: 069f 203e 03cc afbd 1e16 8ebd e353 23bd
00000030: db90 a1bd acd6 06bd 9872 183e d694 edbd
00000040: f8f1 9fbd 19fe 323e 6524 a33d e105 52bd
00000050: b3c7 55bd a7af 83bd 4e93 7f3c 8d1c 59bc
00000060: 2f96 e03d f927 a53d b8fb 90bd a8fa bfbd
00000070: a46b 05bc ffa8 b33c 293d 9f3d 6d95 133e

feature_net.layer_norm_1.weight f4 [32]
1.0 1.1469201 1.1777027 1.1427538 1.1266288 0.946177 1.0224637 0.94100076
1.1403611 0.9210922 1.0529213 0.9293741 0.93064624 1.0 1.1977746 0.9642295
1.0494283 1.185547 1.0 0.92033005 0.9469672 0.928775 1.0 1.065805
1.1835825 1.1794951 0.9477348 0.9175085 1.0403292 1.0438311 1.0263194 1.0
00000000: 0000 803f 47ce 923f f6be 963f c245 923f
00000010: 5f35 903f a838 723f 17e0 823f 6de5 703f
00000020: 5af7 913f b3cc 6b3f 20c6 863f 76eb 6d3f
00000030: d53e 6e3f 0000 803f ae50 993f bfd7 763f
00000040: ab53 863f 01c0 973f 0000 803f c09a 6b3f
00000050: 716c 723f 33c4 6d3f 0000 803f 4c6c 883f
00000060: a27f 973f b2f9 963f bf9e 723f d6e1 6a3f
00000070: 8229 853f 429c 853f 6f5e 833f 0000 803f

feature_net.layer_norm_1.bias f4 [32]
0.0 0.13955297 0.17168292 0.15845646 0.11397033 -0.054759637 0.03944391 -0.029938273
0.14125217 -0.08881446 0.053030618 -0.073531054 -0.080150366 0.0 0.16435581 -0.06278264
-0.025268996 0.18197717 0.0 -0.09128503 -0.053033274 -0.07549558 0.0 0.008050038
0.15522017 0.19467054 -0.059524417 -0.09414021 0.027714683 0.051711276 0.02744434 0.0
00000000: 0000 0000 f9e6 0e3e a6cd 2f3e 6942 223e
00000010: 4769 e93d a44b 60bd f08f 213d 1c41 f5bc
00000020: 69a4 103e 5be4 b5bd a236 593d 7397 96bd
00000030: e025 a4bd 0000 0000 e44c 283e 2f94 80bd
00000040: ed00 cfbc 3958 3a3e 0000 0000 a5f3 babd
00000050: 6b39 59bd 6d9d 9abd 0000 0000 4ee4 033c
00000060: 09f2 1e3e b757 473e e0cf 73bd 95cc c0bd
00000070: e709 e33c 34cf 533d f4d2 e03c 0000 0000

feature_net.linear_layer_output.weight f4 [3, 32]
-0.11684809 -0.08575948 0.931533 0.32297227 0.1817329 -0.096196905 0.3230141 0.07699675
0.09725817 -0.1258116 0.23085913 -0.30836707 0.038378663 -0.2787629 0.55976707 0.16494371
0.38037875 0.21797734 0.5037501 -0.10339323 -0.29978248 -0.3607583 0.21617569 0.25575206
-0.09093373 0.111868255 -0.21628812 0.12311349 -0.045343544 -0.078258306 0.122851625 -0.020097163
0.15670767 0.40245363 0.12290848 0.12127888 0.18368593 0.24065012 0.316686 0.26387128
0.43971202 -0.29553893 0.09487654 -0.06769337 -0.17050819 -0.039114665 0.6780704 0.039997324
-0.07984591 0.2617582 0.17998905 0.040165965 -0.44724697 0.5013449 -0.050708305 0.25729603
0.37693036 0.28580025 -0.038965117 -0.17272744 0.43874273 0.47066844 0.18380104 0.35625365
-0.45288563 0.17044903 0.14051333 0.18172953 0.3239116 0.6417367 -0.1461776 -0.3058762
0.12785926 0.16050509 0.15120217 -0.19247325 -0.08431722 0.19772911 0.29342082 -0.5125989
-0.3556771 0.21282461 0.07490664 -0.056167524 -0.066176 -0.2244745 -0.124061 -0.3830917
0.21749477 0.5665116 0.15163653 -0.009200311 -0.13596697 -0.045048144 0.096980445 0.05878061
00000000: 0d4e efbd aba2 afbd f278 6e3f 9f5c a53e
00000010: 3018 3a3e e202 c5bd 1b62 a53e 79b0 9d3d
00000020: 4b2f c73d c2d4 00be 5666 6c3e 4ae2 9dbe
00000030: f232 1d3d 03ba 8ebe e54c 0f3f 01e7 283e
00000040: 01c1 c23e 7435 5f3e c4f5 003f d4bf d3bd
00000050: 177d 99be 50b5 b8be 295d 5d3e eff1 823e
00000060: 773b babd 2f1b e53d a27a 5dbe ed22 fc3d
00000070: 27ba 39bd e445 a0bd a299 fb3d cea2 a4bc
00000080: fa77 203e 670e ce3e 71b7 fb3d 1061 f83d
00000090: 2a18 3c3e fc6c 763e ab24 a23e 231a 873e
000000a0: ef21 e13e e150 97be a24e c23d d2a2 8abd
000000b0: b399 2ebe b336 20bd 0696 2d3f 3cd4 233d
000000c0: 4186 a3bd 2c05 863e 0d4f 383e 1185 243d
000000d0: 8efd e4be 2458 003f 83b3 4fbd 4ebc 833e
000000e0: 04fd c03e 6954 923e e399 1fbd 76df 30be
000000f0: e3a2 e03e 74fb f03e 5736 3c3e e166 b63e
00000100: a0e0 e7be 318a 2e3e bae2 0f3e 4e17 3a3e
00000110: bed7 a53e db48 243f 95af 15be ce9b 9cbe
00000120: 8aed 023e 725b 243e bed4 1a3e b517 45be
00000130: 82ae acbd 8079 4a3e 413b 963e ae39 03bf
00000140: 4f1b b6be b2ee 593e a768 993d eb0f 66bd
00000150: 4887 87bd a5dc 65be b213 febd 9824 c4be
00000160: f3b6 5e3e e706 113f 9b46 1b3e e7bc 16bc
00000170: ed3a 0bbe 6784 38bd af9d c63d f0c3 703d

feature_net.linear_layer_output.bias f4 [3]
0.15808311 0.11292333 0.06973654
00000000: 8ae0 213e 5944 e73d 08d2 8e3d

feature_net.linear_layer_0.weight f4 [32, 11]
0.18709722 -0.05453828 0.056314662 0.36041063 0.05997154 0.025400441 0.46922585 -0.1578036
-0.17906386 0.55557805 0.09427719 -0.23981005 0.31734225 -0.15302892 -0.5019541 -0.20300874
-0.23484202 -0.19752984 0.13352768 -0.45573112 0.15325965 0.13911602 0.20826322 0.1988103
0.33597407 -0.062932104 -0.07876386 0.1227598 0.15375103 0.0860144 -0.5376354 0.060111143
-0.04488298 0.3142496 -0.48990527 0.58228534 -0.017323256 -0.74900496 0.036500487 -0.051362917
-0.37203342 -0.10525947 -0.25197494 0.33376288 0.48372805 -0.05532542 0.15887593 0.09451551
0.044836394 0.26469213 -0.0044711884 -0.29571316 0.31496215 -0.1088236 0.18716805 0.13350031
-0.21269578 -0.27257714 -0.07141611 -0.008143273 0.054342274 -0.3862174 0.29089814 0.24643151
-0.02223236 -0.09929039 0.04979263 0.30956963 0.31577837 0.14278096 0.2750263 -0.123820394
0.12668222 -0.0075453534 0.17872557 0.070888564 -0.122079924 0.57673913 0.024325402 0.455667
0.07319052 0.029876124 0.026693849 0.17222705 0.55987155 0.40520868 -0.16514751 -0.05464349
0.013753655 0.18609878 -0.0054909224 0.14792915 -0.023435822 0.04844537 -0.12962702 0.11404632
0.056338225 0.15780012 -0.17218187 -0.057189282 -0.21921 0.07395688 -0.019020522 0.25281063
-0.1860437 -0.046414237 0.14730844 0.26562002 -0.4460246 -0.4320988 -0.15413362 0.18960674
-0.10252161 0.24654557 -0.027180016 0.34500337 0.09052867 -0.2926821 -0.019605178 -0.1592228
-0.21444084 0.28985354 0.025449814 0.008176318 -0.14169577 0.6025128 0.434434 -0.26441714
0.059042986 0.07545135 -0.48879203 -0.099977806 0.3175827 -0.013067155 0.05505669 -0.3586673
-0.23499592 -0.050161738 0.077259734 0.44748834 0.1287372 0.310302 0.05888105 0.2699288
0.03466343 0.09705954 0.05904643 0.11042924 -0.24743466 -0.24887404 -0.11695241 -0.33294547
0.09310137 0.19142483 -0.29587418 -0.360679 0.095753744 0.49349096 0.15245181 -0.21141824
0.21600294 0.14041717 0.0043550283 0.049546394 -0.04888191 0.33994487 0.12715515 0.2989216
0.15867513 0.360716 0.014851029 -0.068691306 -0.03220858 -0.475411 -0.23397078 -0.12299881
0.21384571 0.4419957 -0.025666619 0.08850422 -0.004393424 -0.2386974 -0.005082629 -0.4813104
-0.28696373 -0.603607 -0.4574141 -0.007901981 -0.28579816 -0.063656725 -0.22552666 0.26201466
0.08557897 -0.06714058 0.13681976 -0.3252856 0.269799 -0.27633783 0.28217518 -0.08874302
-0.1363821 0.326694 0.42923945 -0.47209683 -0.32235566 0.208881 -0.10597513 0.20701718
0.38437667 -0.66395926 0.3953123 0.12669787 0.16084313 -0.23210375 -0.11893367 0.08731368
0.19417037 0.23669478 0.0046533807 0.3165039 -0.024896132 0.25382885 -0.42034447 -0.013860433
-0.33294398 0.28393528 0.11553928 -0.15586267 -0.172766 -0.2524532 -0.048066225 0.0049781585
-0.3416937 -0.5964135 0.24273401 -0.4332643 -0.39508206 -0.25152403 0.10711825 0.18240461
0.18344438 0.32471213 -0.10532491 -0.68367946 0.05956509 0.24890769 0.3171332 0.33034196
0.20079559 -0.06610273 -0.2587336 -0.19363073 -0.10862591 -0.21421698 -0.06903263 0.28230733
00000000: 6a96 3f3e 8863 5fbd 34aa 663d be87 b83e
00000010: b8a4 753d 9614 d03c 5f3e f03e 4497 21be
00000020: 845c 37be 5d3a 0e3f 6614 c13d c490 75be
00000030: af7a a23e 9db3 1cbe 1080 00bf 86e1 4fbe
00000040: 6d7a 70be 4345 4abe 7bbb 083e 9755 e9be
00000050: 19f0 1c3e 6e74 0e3e f442 553e ed94 4b3e
00000060: cb04 ac3e 8ce2 80bd f24e a1bd 7d69 fb3d
00000070: e970 1d3e 5128 b03d 79a2 09bf 1a37 763d
00000080: 37d7 37bd 53e5 a03e ddd4 fabe a710 153f
00000090: 80e9 8dbc cabe 3fbf 8981 153d ec61 52bd
000000a0: 2a7b bebe 4792 d7bd dc02 81be f8e2 aa3e
000000b0: 34ab f73e e89c 62bd 5fb0 223e 5991 c13d
000000c0: 5ea6 373d ba85 873e 0c83 92bb b767 97be
000000d0: b842 a13e e8de debd fba8 3f3e 4eb4 083e
000000e0: eccc 59be 3b8f 8bbe 9c42 92bd 5d6b 05bc
000000f0: 0196 5e3d 49be c5be 9af0 943e 8b58 7c3e
00000100: a320 b6bc c358 cbbd 5bf3 4b3d e97f 9e3e
00000110: b4ad a13e 2c35 123e 3fd0 8c3e 8c95 fdbd
00000120: fcb8 013e 033f f7bb d603 373e 062e 913d
00000130: 0a05 fabd 2da5 133f 1146 c73c 2f4d e93e
00000140: e9e4 953d c6be f43c 0fad da3c 4a5c 303e
00000150: be53 0f3f 8377 cf3e 6e1c 29be dad1 5fbd
00000160: 0357 613c ae90 3e3e 32ed b3bb bd7a 173e
00000170: 7bfc bfbc a76e 463d f2bc 04be 1e91 e93d
00000180: e9c2 663d 5b96 213e 7250 30be 4f3f 6abd
00000190: 9678 60be b476 973d edd0 9bbc 6570 813e
000001a0: 3d82 3ebe db1c 3ebd 06d8 163e 59ff 873e
000001b0: 565d e4be 0e3c ddbe 34d5 1dbe 4528 423e
000001c0: daf6 d1bd 7176 7c3e a0a8 debc 48a4 b03e
000001d0: 1867 b93d 6eda 95be 0a9b a0bc 4d0b 23be
000001e0: 6196 5bbe af67 943e 217c d03c f7f5 053c
000001f0: b218 11be 473e 1a3f 226e de3e af61 87be
00000200: 0fd7 713d 3d86 9a3d f342 fabe 2ac1 ccbd
00000210: 339a a23e 9f17 56bc 2083 613d 3ea3 b7be
00000220: c5a2 70be 6576 4dbd 5a3a 9e3d 311d e53e
00000230: afd3 033e e7df 9e3e 422d 713d 1c34 8a3e
00000240: 3efb 0d3d 27c7 c63d abda 713d ba28 e23d
00000250: 835f 7dbe d6d8 7ebe bf84 efbd d477 aabe
00000260: eeab be3d df04 443e d27c 97be ebaa b8be
00000270: 8a1a c43d d9aa fc3e 541c 1c3e 067e 58be
00000280: e02f 5d3e 85c9 0f3e a0b4 8e3b 29f1 4a3d
00000290: 6638 48bd 410d ae3e f634 023e 410c 993e
000002a0: bc7b 223e c4af b83e bb51 733c 07ae 8cbd
000002b0: 25ed 03bd 1269 f3be 0996 6fbe cde6 fbbd
000002c0: 5ffa 5a3e 434d e23e cd42 d2bc b341 b53d
000002d0: b6f6 8fbb 176d 74be 2f8c a6bb 516e f6be
000002e0: e9ec 92be fd85 1abf 2e32 eabe 4f77 01bc
000002f0: 2354 92be 755e 82bd 76f0 66be c926 863e
00000300: 0744 af3d 0081 89bd 7b1a 0c3e d68b a6be
00000310: 1823 8a3e 277c 8dbe 4479 903e e7be b5bd
00000320: c0a7 0bbe 7044 a73e 46c5 db3e adb6 f1be
00000330: cd0b a5be e7e4 553e 7d09 d9bd 50fc 533e
00000340: 05cd c43e 3cf9 29bf 6066 ca3e 16bd 013e
00000350: 10b4 243e 9bac 6dbe 7f93 f3bd 84d1 b23d
00000360: 99d4 463e 1e60 723e 637b 983b cd0c a23e
00000370: f9f2 cbbc dbf5 813e 6437 d7be df16 63bc
00000380: a277 aabe f75f 913e dc9f ec3d 779a 1fbe
00000390: 92e9 30be 8c41 81be 17e1 44bd d21f a33b
000003a0: 7af2 aebe 8eae 18bf 448f 783e d1d4 ddbe
000003b0: 3248 cabe c2c7 80be d060 db3d 46c8 3a3e
000003c0: d8d8 3b3e ab40 a63e 96b4 d7bd 9e05 2fbf
000003d0: 86fa 733d a8e1 7e3e 485f a23e 9522 a93e
000003e0: 5c9d 4d3e de60 87bd bb78 84be 2247 46be
000003f0: 4377 debd b25b 5bbe fb60 8dbd 968a 903e

feature_net.linear_layer_0.bias f4 [32]
-0.004267439 0.08374058 -0.110887304 0.003140046 0.09063074 -0.09504651 -0.10121967 0.06503619
-0.0920996 -0.13175511 -0.12865427 -0.10204557 0.1468162 -0.080714434 0.11334978 0.020343151
-0.04123736 -0.032041926 0.15421599 0.07519694 -0.108465835 0.15570723 0.010780537 -0.10142294
-0.084934056 0.11752084 -0.070492364 0.10917829 0.07321492 -0.11307375 0.040755805 0.12760402
00000000: dfd5 8bbb 2e80 ab3d e218 e3bd 3bc9 4d3b
00000010: 9c9c b93d bfa7 c2bd 424c cfbd b231 853d
00000020: b79e bcbd d0ea 06be f2bd 03be 45fd d0bd
00000030: fc56 163e 9c4d a5bd ee23 e83d aea6 a63c
00000040: 82e8 28bd 653e 03bd ccea 1d3e da00 9a3d
00000050: 5623 debd b771 1f3e d9a0 303c d5b6 cfbd
00000060: e8f1 adbd c4ae f03d 4d5e 90bd de98 df3d
00000070: b4f1 953d 3693 e7bd 8fef 263d a1aa 023e

feature_net.layer_norm_0.weight f4 [32]
0.87744457 1.0336885 0.89235175 1.0076029 1.0565606 0.905793 0.910758 1.0728986
0.9289882 0.9050719 0.8725431 0.89602804 1.150062 0.95773363 0.97729915 1.0876833
1.0526065 0.8741835 1.1631529 1.0518957 0.8949337 1.1643577 1.0259576 0.90764785
1.0335209 1.1264896 0.9376837 1.1017133 1.0532825 0.8946314 1.0804139 1.0911543
00000000: 35a0 603f e84f 843f 2a71 643f 22f9 803f
00000010: 613d 873f 0de2 673f 7027 693f be54 893f
00000020: 2cd2 6d3f cbb2 673f fc5e 5f3f 1862 653f
00000030: 3b35 933f 082e 753f 4730 7a3f 3539 8b3f
00000040: cfbb 863f 7dca 5f3f 32e2 943f 85a4 863f
00000050: 601a 653f ac09 953f 9452 833f 9c5b 683f
00000060: 6a4a 843f d030 903f 0a0c 703f f104 8d3f
00000070: f6d1 863f 9006 653f 014b 8a3f f2aa 8b3f

feature_net.layer_norm_0.bias f4 [32]
0.010113693 0.1116109 -0.10508728 0.023117961 0.10292996 -0.091693595 -0.084799945 0.11071324
-0.080565184 -0.11166144 -0.12707801 -0.068791635 0.14671245 -0.069016404 0.13263248 0.081243545
0.048155684 -0.09384393 0.15144582 0.08083765 -0.09775402 0.1354527 0.0017694097 -0.09168562
-0.017682439 0.11963812 -0.019961614 0.112204894 0.07361065 -0.10228325 0.07377669 0.13969941
00000000: e7b3 253c 4194 e43d 0038 d7bd e161 bd3c
00000010: f1cc d23d dac9 bbbd 98ab adbd a0bd e23d
00000020: 5cff a4bd c1ae e4bd bd20 02be a1e2 8cbd
00000030: ca3b 163e 7958 8dbd cfd0 073e 0463 a63d
00000040: e53e 453d 3f31 c0bd 9d14 1b3e 368e a53d
00000050: 4233 c8bd 1db4 0a3e 8aeb e73a acc5 bbbd
00000060: c3da 90bc d504 f53d 8a86 a3bc aecb e53d
00000070: 2ec1 963d e179 d1bd 3c18 973d 5d0d 0f3e

feature_net.linear_layer_1.weight f4 [32, 32]
-0.14279573 0.0745262 0.021944104 0.12869741 -0.1224517 -0.19398208 0.27653864 0.0443435
0.021807766 0.01153516 0.35262096 -0.112994 -0.3905536 -0.18189013 0.11986968 0.43763015
0.5547371 -0.18373175 -0.28408232 -0.1911346 0.01879542 -0.13657768 -0.092601985 0.08459855
0.3049521 -0.15615259 0.31829962 -0.6640848 0.061937507 -0.46368685 -0.00030819047 0.040614266
-0.40670583 0.043952435 0.003419277 -0.0118643325 -0.19940203 -0.3875844 -0.023654554 -0.16206871
0.09037925 0.18749197 0.30221093 -0.40456605 0.1578111 -0.0702357 -0.0029176008 0.2623031
-0.060881242 0.12088885 -0.20547356 -0.05635899 0.21716759 -0.16883288 -0.25365287 0.15221399
0.010333581 -0.44145337 -0.48364913 -0.2225183 -0.13573165 0.63326174 -0.23135947 -0.31588167
-0.5277169 -0.26035285 -0.30701855 0.016663067 -0.08693453 0.07594987 -0.14180565 -0.41837984
0.19114247 0.2541041 0.10911516 -0.25551057 0.18652813 0.26446626 -0.33616015 -0.32887658
-0.10547565 -0.43813455 0.019196952 -0.33524457 -0.20794126 -0.078003004 0.08913838 0.026539596
0.092800476 0.12736437 0.35049957 -0.22610979 -0.00940432 -0.075794585 -0.25753602 -0.75816005
-0.46915087 -0.17613411 0.1974364 -0.2592392 -0.10650409 0.06529952 -0.40281948 0.15603125
0.21921825 0.07960885 -0.11686012 -0.06561078 -0.20710495 -0.3844045 -0.48024544 -0.0892926
0.116451986 0.09778255 0.18161996 -0.14399792 0.27952588 0.105259515 0.37529233 -0.20567295
0.16514304 -0.24811454 -0.3208543 -0.1982825 -0.4318698 -0.1017605 0.45101953 -0.093843676
-0.16724111 -0.01293349 0.030470837 -0.37816492 0.29541966 0.10758682 0.23014076 0.2023422
0.17203358 -0.054163404 -0.16184911 -0.051469456 -0.16309108 -0.25819296 0.021901492 -0.060868137
0.04117326 -0.529525 -0.055244863 -0.19659781 0.017542567 -0.4755735 -0.061811745 -0.5437195
-0.22299626 0.19043791 -0.12553273 -0.6148298 -0.2176917 0.21430236 -0.13187541 0.11106734
0.04322973 -0.43029326 -0.39553243 0.026854552 -0.22024815 0.6208177 0.20803042 -0.37488875
-0.09751493 -0.20358394 -0.20369057 0.24356496 -0.06394522 -0.1717916 -0.35897872 -0.119444504
0.1336609 0.11340331 -0.26969305 -0.09033739 -0.05001671 -0.13652338 0.080858625 0.36717126
-0.030830104 -0.18824637 -0.13300242 -0.15403226 -0.42927685 0.14356935 -0.42288986 0.22027634
-0.13120718 0.01978723 0.13175437 0.4763943 -0.25185272 -0.029754596 -0.16871174 0.19002128
0.04477362 -0.106806144 0.05126751 -0.046142347 0.6556776 0.14677577 0.36729681 0.084345706
0.55218345 0.18165413 0.37961277 -0.18122688 -0.051771775 0.40531585 0.08603065 -0.02109316
-0.2154624 0.2841258 0.510575 0.14565991 -0.11664966 0.3963495 0.14312138 0.5919991
0.1874919 -0.19130383 -0.09231531 0.03772486 -0.31959537 -0.22863686 -0.3167116 -0.26547733
-0.014021752 -0.09428145 -0.02080532 0.0813971 -0.1792971 0.1251892 0.16332385 -0.082799494
0.06786936 -0.4325066 0.3990348 0.1075851 0.06539977 -0.14765581 -0.08496238 -0.094937325
0.6421276 -0.1620505 -0.10956975 -0.028361946 -0.2785865 0.039110687 -0.58742416 0.085702196
00000000: 0b39 12be 31a1 983d 1fc4 b33c 41c9 033e
00000010: f5c7 fabd 3da3 46be 7996 8d3e 88a1 353d
00000020: 33a6 b23c f8fd 3c3c bc8a b43e 6669 e7bd
00000030: a4f6 c7be 6841 3abe 3c7e f53d 0f11 e03e
00000040: 4003 0e3f 2d24 3cbe 3d73 91be cab8 43be
00000050: daf8 993c 05db 0bbe 1ca6 bdbd 0142 ad3d
00000060: af22 9c3e 77e6 1fbe 2bf8 a23e 7601 2abf
00000070: 2fb2 7d3d 5d68 edbe a094 a1b9 255b 263d
00000080: bf3b d0be 7807 343d f315 603b 9e62 42bc
00000090: 0c30 4cbe 7671 c6be 32c7 c1bc 57f5 25be
000000a0: c218 b93d e5fd 3f3e 64bb 9a3e 4823 cfbe
000000b0: 3c99 213e bcd7 8fbd 3835 3fbb 984c 863e
000000c0: 9c5e 79bd 9394 f73d a967 52be afd8 66bd
000000d0: 2e61 5e3e 87e2 2cbe cade 81be fcdd 1b3e
000000e0: 2e4e 293c 2d06 e2be dca0 f7be d6db 63be
000000f0: 3dfd 0abe 711d 223f 7fe9 6cbe 3ebb a1be
00000100: 7418 07bf f84c 85be 8931 9dbe fc80 883c
00000110: bb0a b2bd 9b8b 9b3d 8035 11be e235 d6be
00000120: daba 433e ef19 823e c577 df3d 48d2 82be
00000130: 3b01 3f3e 1f68 873e 2f1d acbe 8362 a8be
00000140: 9e03 d8bd 2c53 e0be ed42 9d3c 2da5 abbe
00000150: 8eee 54be 0ac0 9fbd 2f8e b63d 9169 d93c
00000160: 2d0e be3d ce6b 023e ae74 b33e 5389 67be
00000170: 9414 1abc 313a 9bbd c3db 83be c716 42bf
00000180: 8b34 f0be 805c 34be c52c 4a3e 00bb 84be
00000190: d11e dabd c1bb 853d 5b3e cebe a8c6 1f3e
000001a0: c07a 603e f709 a33d 5c54 efbd f25e 86bd
000001b0: 5213 54be abd0 c4be bbe2 f5be 0adf b6bd
000001c0: 617e ee3d 3842 c83d 95fa 393e 3174 13be
000001d0: 041e 8f3e 4d92 d73d 5126 c03e ee9b 52be
000001e0: 421b 293e bd11 7ebe 0447 a4be 910a 4bbe
000001f0: 0a1e ddbe cf67 d0bd 08ec e63e 1d31 c0bd
00000200: 4141 2bbe fde6 53bc fa9d f93c d59e c1be
00000210: 3f41 973e 7b56 dc3d 05aa 6b3e cb32 4f3e
00000220: 9229 303e 72da 5dbd c6bb 25be a3d1 52bd
00000230: 5901 27be de31 84be c26a b33c de50 79bd
00000240: 4ba5 283d f38e 07bf 7048 62bd f050 49be
00000250: 6eb5 8f3c 5f7e f3be 502e 7dbd 3331 0bbf
00000260: 2259 64be 2802 433e a78b 00be 7c65 1dbf
00000270: 93ea 5ebe 1472 5b3e 590a 07be 4677 e33d
00000280: a811 313d 664f dcbe 3a83 cabe 14fe db3c
00000290: bb88 61be e9ed 1e3f ed05 553e 6bf1 bfbe
000002a0: e8b5 c7bd 4f78 50be 4394 50be 1869 793e
000002b0: b6f5 82bd 23ea 2fbe 0fcc b7be 529f f4bd
000002c0: 67de 083e ff3f e83d 3515 8abe cf02 b9bd
000002d0: 52de 4cbd c9cc 0bbe 3599 a53d dffd bb3e
000002e0: 6a8f fcbc a8c3 40be c931 08be a2ba 1dbe
000002f0: 2dca dbbe d803 133e 0585 d8be 1f90 613e
00000300: 2d5b 06be d418 a23c 9eea 063e f4e9 f33e
00000310: d7f2 80be e9bf f3bc c5c2 2cbe f094 423e
00000320: 8b64 373d 2ebd dabd e1fd 513d c2ff 3cbd
00000330: 7dda 273f 634c 163e 540e bc3e 71bd ac3d
00000340: e55b 0d3f 8a03 3a3e 9b5c c23e 8a93 39be
00000350: a40e 54bd 8f85 cf3e d630 b03d 90cb acbc
00000360: 2da2 5cbe f078 913e 0bb5 023f df27 153e
00000370: 04e6 eebd 52ee ca3e 698e 123e 418d 173f
00000380: e0fd 3f3e 27e5 43be cf0f bdbd 6285 1a3d
00000390: 01a2 a3be c81f 6abe 0628 a2be a5ec 87be
000003a0: 7ebb 65bc a216 c1bd eb6f aabc 86b3 a63d
000003b0: a999 37be 9931 003e 5e3e 273e c892 a9bd
000003c0: 17ff 8a3d 8171 ddbe 4a4e cc3e 9455 dc3d
000003d0: 51f0 853d 1633 17be c200 aebd 806e c2bd
000003e0: 7962 243f 91f0 25be 1b66 e0bd 5057 e8bc
000003f0: e4a2 8ebe 8732 203d 6e61 16bf a284 af3d

feature_net.linear_layer_1.bias f4 [32]
-0.12505907 -0.10590865 -0.11344126 -0.11008137 -0.0629439 -0.11845432 0.15252443 0.027685024
0.055434503 0.15859829 -0.13514826 0.069872186 -0.11615931 -0.11481319 -0.11302649 -0.034561113
0.0005288429 -0.070082895 0.13168378 -0.13141835 0.11163248 -0.10832191 -0.039456386 0.0070839887
-0.10153899 0.104757614 0.08340813 -0.0878867 0.13799316 0.100921676 0.089430794 -0.10442943
00000000: 7c0f 00be a2e6 d8bd e453 e8bd 5772 e1bd
00000010: bbe8 80bd 2e98 f2bd 5d2f 1c3e b4cb e23c
00000020: 4a0f 633d 9767 223e 4e64 0abe 2619 8f3d
00000030: efe4 edbd 2e23 ebbd 6f7a e7bd f48f 0dbd
00000040: 0ca2 0a3a 9f87 8fbd 1dd8 063e 8892 06be
00000050: 929f e43d e1d7 ddbd 059d 21bd ce20 e83b
00000060: adf3 cfbd 298b d63d e2d1 aa3d f1fd b3bd
00000070: 144e 0d3e 06b0 ce3d 7e27 b73d 19df d5bd

feature_net.layer_norm_1.weight f4 [32]
0.9847077 0.9084255 0.91991544 0.91989595 0.9246538 0.90072596 1.1762227 1.0744269
1.1618555 1.1883302 0.94913805 1.1013271 0.9548375 0.94567573 0.99995476 1.106034
1.0043347 0.98075193 1.162442 1.0906876 1.1462283 0.98076916 0.97749126 0.91677105
1.0474615 1.1456 1.1462507 0.9389407 1.1713625 1.145715 1.1650064 0.8992246
00000000: ce15 7c3f 938e 683f 947f 6b3f 4d7e 6b3f
00000010: 1db6 6c3f fa95 663f 778e 963f d286 893f
00000020: aeb7 943f 341b 983f b6fa 723f 49f8 8c3f
00000030: 3b70 743f ce17 723f 09fd 7f3f 8692 8d3f
00000040: 0a8e 803f 8f12 7b3f e6ca 943f a79b 8b3f
00000050: 9cb7 923f b013 7b3f de3c 7a3f 82b1 6a3f
00000060: 3813 863f 05a3 923f 58b8 923f 6b5e 703f
00000070: 35ef 953f caa6 923f ee1e 953f 9533 663f

feature_net.layer_norm_1.bias f4 [32]
-0.048930265 -0.10209938 -0.090352155 -0.09319004 -0.06445904 -0.110819146 0.16601272 0.04784322
0.16456541 0.17445506 -0.06214454 0.112326376 0.013816857 -0.034940038 -0.02275639 0.14894855
0.036649846 -0.03070017 0.15557298 0.11603141 0.14889786 0.009836168 0.06741032 -0.09714257
0.037423458 0.14716473 0.13918151 -0.061451174 0.1611791 0.13624007 0.15714219 -0.10531533
00000000: 1a6b 48bd 7b19 d1bd 8d0a b9bd 6bda bebd
00000010: 1a03 84bd 26f5 e2bd 3dff 293e 41f7 433d
00000020: d683 283e 59a4 323e 468b 7ebd 5f0b e63d
00000030: 1960 623c 491d 0fbd 9c6b babc f885 183e
00000040: 261e 163d ec7e fbbc 864e 1f3e e0a1 ed3d
00000050: ae78 183e e127 213c 6c0e 8a3d aff2 c6bd
00000060: 5749 193d 5ab2 163e 9985 0e3e 3ab4 7bbd
00000070: 220c 253e 8482 0b3e e2e9 203e 90af d7bd

feature_net.linear_layer_output.weight f4 [5, 32]
0.41179946 0.0041909693 0.18243526 0.28936043 -0.14012632 -0.1239421 -0.45822924 0.44803262
-0.33755475 -0.41716108 -0.2910553 0.39069822 -0.37400573 -0.11322612 -0.0051822457 -0.5590539
0.057613686 -0.09496335 -0.019451838 0.0075532356 -0.17243117 -0.12101181 0.04591311 0.3331817
0.3240251 -0.30592352 -0.2265685 -0.24315305 -0.47951075 -0.20076826 -0.23488405 0.17217807
-0.26754344 0.023714775 -0.20392819 -0.008499753 0.004089899 0.1679322 -0.50519556 0.040059526
0.028541898 0.19031306 0.25020793 -0.49567977 0.062972605 -0.18902665 -0.34159768 0.015461378
0.29291975 0.17361958 -0.68324363 0.013963825 -0.27771515 0.12345913 0.24326734 0.5560585
-0.07348393 -0.31234178 -0.18444304 -0.48026752 -0.1637786 -0.47835997 -0.11646226 -0.1283413
0.50187635 0.35189223 -0.12175887 0.010377318 0.23580372 -0.40942395 0.48441947 0.2988423
0.0077631827 0.40559888 0.14387411 0.119063444 0.61456656 0.070871554 0.24654871 0.22680967
0.5229093 -0.35648277 0.45050892 0.055167537 0.29078853 -0.073750734 0.21083495 0.32944477
0.07596451 0.4042839 0.23043033 -0.4303929 0.3200349 0.21983723 0.3993017 -0.06906299
-0.026883425 -0.25591204 0.032387614 0.31613132 -0.19453171 0.16596538 -0.06948294 0.21851796
0.12509637 0.4769858 -0.24844803 0.03306132 -0.023281978 -0.10401614 0.14711568 -0.17633961
0.04229463 -0.26858774 -0.22753276 0.3818103 0.35910928 0.37156555 0.1668216 -0.40391517
0.35371923 0.35856444 0.4522219 -0.43826538 0.5329471 0.27660796 0.23153697 -0.06792121
0.058701213 -0.05094539 0.23155196 0.077564225 0.15403807 0.14021465 -0.4565144 -0.46639544
-0.53164506 0.0038029177 0.158932 -0.22627607 0.365841 -0.078214705 0.29746184 -0.3497066
0.0648859 -0.11816967 -0.54168624 0.0028758438 -0.26244265 -0.13606974 -0.875585 -0.05235727
-0.07556332 -0.013076679 -0.03668581 0.004928774 -0.33643678 -0.017752618 -0.29524362 0.10645039
00000000: 61d7 d23e 6654 893b 4fd0 3a3e 0d27 943e
00000010: 467d 0fbe 5bd5 fdbd 069d eabe 8864 e53e
00000020: fad3 acbe 2396 d5be 3305 95be 9909 c83e
00000030: ae7d bfbe 19e3 e7bd d4cf a9bb 281e 0fbf
00000040: 54fc 6b3d 257c c2bd 7659 9fbc 2281 f73b
00000050: cc91 30be 0ad5 f7bd 630f 3c3d cb96 aa3e
00000060: 9ee6 a53e 02a2 9cbe 9301 68be 1dfd 78be
00000070: 6f82 f5be 3296 4dbe 7285 70be 734f 303e
00000080: 74fb 88be 7d45 c23c 8dd2 50be 8c42 0bbc
00000090: 8f04 863b 6bf6 2b3e 7f54 01bf 7515 243d
000000a0: b3d0 e93c 6de1 423e 411b 803e bdc9 fdbe
000000b0: c8f7 803d 3490 41be e4e5 aebe b851 7d3c
000000c0: 94f9 953e 55c9 313e 0ee9 2ebf 87c8 643c
000000d0: ae30 8ebe 24d8 fc3d 131b 793e da59 0e3f
000000e0: be7e 96bd 43eb 9fbe a3de 3cbe a0e5 f5be
000000f0: 94b5 27be 99eb f4be c483 eebd e76b 03be
00000100: f87a 003f 382b b43e b75c f9bd a005 2a3c
00000110: 8876 713e 04a0 d1be d405 f83e dc01 993e
00000120: 4c62 fe3b a8aa cf3e bc53 133e 89d7 f33d
00000130: 3c54 1d3f 1b25 913d 4477 7c3e cb40 683e
00000140: 62dd 053f e984 b6be 1ba9 e63e 5bf7 613d
00000150: 3ce2 943e a00a 97bd 1ee5 573e fcac a83e
00000160: 4893 9b3d 4dfe ce3e eef5 6b3e 755c dcbe
00000170: 9ddb a33e 031d 613e 4671 cc3e e670 8dbd
00000180: a13a dcbc e706 83be e0a8 043d f7db a13e
00000190: 5233 47be d4f2 293e 124d 8ebd 2cc3 5f3e
000001a0: 4319 003e 7c37 f43e 2969 7ebe 4f6b 073d
000001b0: d9b9 bebc 6a06 d5bd 7ea5 163e 5f92 34be
000001c0: 223d 2d3d 5584 89be 59fe 68be a47c c33e
000001d0: 2cdd b73e d73d be3e 48d3 2a3e f8cd cebe
000001e0: b01a b53e c295 b73e a189 e73e 5264 e0be
000001f0: 396f 083f 8f9f 8d3e 0718 6d3e 461a 8bbd
00000200: af70 703d 1dac 50bd f51b 6d3e fed9 9e3d
00000210: 28bc 1d3e 6e94 0f3e 41bc e9be 62cb eebe
00000220: e419 08bf 5f3a 793b 12bf 223e eab4 67be
00000230: 834f bb3e 082f a0bd eb4c 983e be0c b3be
00000240: e6e2 843d f102 f2bd f3ab 0abf a778 3c3b
00000250: e25e 86be de55 0bbe 5726 60bf 9474 56bd
00000260: f1c0 9abd 913f 56bc dc43 16bd 8e81 a13b
00000270: 7141 acbe f06d 91bc 2c2a 97be a902 da3d

feature_net.linear_layer_output.bias f4 [5]
-0.15365638 -0.12663545 0.15236089 0.11898983 -0.14668666
00000000: 1958 1dbe b9ac 01be 7e04 1c3e f1b0 f33d
00000010: 0735 16be

feature_net.linear_layer_0.weight f4 [32, 3]
-0.14679193 -0.1463478 0.08064836 -0.2316497 0.18716688 0.057854593 0.09818847 0.03293697
-0.06409473 -0.54429495 -0.5867251 -0.17616865 0.11367396 0.30356845 -0.24236898 0.0356206
0.007585425 -0.308792 0.56823117 -0.44145837 0.08488044 0.17008604 0.10747729 0.027326154
0.21022613 -0.4549689 0.14985253 -0.034355912 -0.05105179 -0.030270763 -0.038880616 0.07853582
-0.43719786 -0.34715015 -0.41861907 0.23708525 0.33547413 0.22144257 0.15680799 -0.22988586
-0.17289864 0.1171229 -0.1808117 0.025594926 0.47946176 -0.2940545 0.29676414 0.22351043
0.08693414 0.036112152 0.2942062 0.31087968 0.31036964 0.3626515 -0.2833171 0.12673882
-0.28914008 -0.1974875 0.16117135 -0.122248165 0.08614105 0.30651906 0.0064933007 0.39879918
-0.21163204 -0.6393294 0.24544607 -0.42239448 0.11442579 0.3074883 -0.16550377 0.025705447
-0.09623179 -0.21297713 0.21795468 -0.07511953 -0.12060718 0.008743881 -0.1956529 -0.091058105
-0.1461628 0.0075993524 -0.22002518 -0.018102994 -0.18096039 0.19201049 0.46088633 -0.27658197
-0.0365524 -0.15335171 -0.11246372 -0.023222983 -0.27676117 -0.13848521 0.30466792 -0.326924
00000000: a050 16be 33dc 15be f82a a53d 9435 6dbe
00000010: ada8 3f3e f0f8 6c3d 0917 c93d ebe8 063d
00000020: 1944 83bd ea56 0bbf 9e33 16bf 8e65 34be
00000030: e5cd e83d 536d 9b3e 932f 78be e8e6 113d
00000040: 288f f83b fc19 9ebe 9977 113f d506 e2be
00000050: ccd5 ad3d 092b 2e3e 0e1d dc3d 19db df3c
00000060: 8545 573e aff1 e8be f172 193e c9b8 0cbd
00000070: af1b 51bd 64fa f7bc 4841 1fbd 63d7 a03d
00000080: 66d8 dfbe aabd b1be 3d55 d6be 7ac6 723e
00000090: 44c3 ab3e d7c1 623e 4692 203e 3367 6bbe
000000a0: 570c 31be 22de ef3d b426 39be 73ac d13c
000000b0: 037c f53e 508e 96be 78f1 973e ebdf 643e
000000c0: 870a b23d 56ea 133d 32a2 963e 9f2b 9f3e
000000d0: c5e8 9e3e 75ad b93e f00e 91be d2c7 013e
000000e0: 2b0a 94be 2a3a 4abe 1a0a 253e 3f5d fabd
000000f0: b86a b03d 11f0 9c3e c1c5 d43b 682f cc3e
00000100: 12b6 58be 17ab 23bf 3756 7b3e 1744 d8be
00000110: 1258 ea3d 1b6f 9d3e d279 29be 3b94 d23c
00000120: 2c15 c5bd ad16 5abe 832f 5f3e 45d8 99bd
00000130: e600 f7bd 7f42 0f3c 3c59 48be ac7c babd
00000140: b3ab 15be fd03 f93b 484e 61be bb4c 94bc
00000150: ae4d 39be 669e 443e 4bf9 eb3e 279c 8dbe
00000160: f8b7 15bd 3b08 1dbe 6153 e6bd 203e bebc
00000170: a4b3 8dbe 11cf 0dbe 6ffd 9b3e 9562 a7be

feature_net.linear_layer_0.bias f4 [32]
0.0016370108 0.019116292 0.018110797 0.00050417124 -0.016545508 0.0029663257 -0.011967992 -0.013881929
0.0044748806 0.0020934865 0.0044905334 -0.007587519 -0.00282306 0.010078171 -0.015246169 0.009336466
-0.017736549 0.0055782003 0.0058113057 -0.011165703 0.008397627 -0.015715266 -0.010111575 0.008062518
0.0078689335 0.00044948235 0.002811242 -0.00075248943 0.01679598 0.0025042363 0.0041845688 0.0059908624
00000000: f890 d63a c599 9c3c 185d 943c 5c2a 043a
00000010: 728a 87bc b066 423b 6615 44bc 0871 63bc
00000020: 05a2 923b e032 093b 5325 933b b9a0 f8bb
00000030: 1603 39bb ea1e 253c 11cb 79bc faf7 183c
00000040: 3d4c 91bc 56c9 b63b c46c be3b 5af0 36bc
00000050: 3396 093c 4dbd 80bc 05ab 25bc a718 043c
00000060: b3ec 003c 80a8 eb39 d03c 383b b642 45ba
00000070: b997 893c 1d1e 243b b51e 893b ff4e c43b

feature_net.layer_norm_0.weight f4 [32]
0.99427336 1.0192362 1.0168866 1.0 0.9852261 1.0012312 0.98637646 0.98626333
1.0011065 0.9992333 1.0061585 0.9920625 0.9971876 1.0096087 0.98440385 1.0097232
0.98352116 1.0050559 0.9987419 0.9889945 1.0046281 0.9838438 0.9895814 1.0025778
1.0068566 0.99751294 0.99904096 0.9973239 1.0171846 0.99861884 1.0023884 1.0073764
00000000: b388 7e3f 5576 823f 5729 823f 0000 803f
00000010: c737 7c3f 5828 803f 2b83 7c3f c17b 7c3f
00000020: 4224 803f c1cd 7f3f cdc9 803f cff7 7d3f
00000030: b047 7f3f dc3a 813f e401 7c3f 9c3e 813f
00000040: 0bc8 7b3f aca5 803f 8dad 7f3f be2e 7d3f
00000050: a797 803f 30dd 7b3f 3555 7d3f 7854 803f
00000060: ade0 803f 025d 7f3f 26c1 7f3f 9e50 7f3f
00000070: 1b33 823f 7ca5 7f3f 434e 803f b6f1 803f

feature_net.layer_norm_0.bias f4 [32]
-4.5755616e-05 0.018840367 0.01791452 0.0 -0.017406195 0.002644587 -0.013305744 -0.015171604
0.0034517588 -0.0009369483 0.0065937988 -0.008363667 -0.0031108193 0.009445566 -0.016276425 0.008895316
-0.01831446 0.0053071193 0.0033281187 -0.011799556 0.007217022 -0.016707432 -0.011283549 0.0074346988
0.00777465 -0.002607725 -0.0009268057 -0.002675231 0.016180454 -0.0014059976 0.002395763 0.0050782575
00000000: b8e9 3fb8 1d57 9a3c 79c1 923c 0000 0000
00000010: 7097 8ebc cf50 2d3b 5600 5abc 5292 78bc
00000020: e736 623b 899d 75ba cb10 d83b c307 09bc
00000030: e3de 4bbb 93c1 1a3c 2356 85bc a9bd 113c
00000040: 3508 96bc 58e7 ad3b 911c 5a3b ed52 41bc
00000050: c57c ec3b 06de 88bc a2de 38bc c69e f33b
00000060: 7ec2 fe3b 5ee6 2abb e1f4 72ba ee52 2fbb
00000070: df8c 843c 7349 b8ba 3c02 1d3b 8367 a63b

feature_net.linear_layer_1.weight f4 [32, 32]
-0.39800283 0.07291421 0.3453779 0.50174785 0.020512223 -0.27038532 -0.25552416 0.0756369
-0.06704237 0.50305074 0.37011504 -0.17575876 -0.11551389 0.04267016 -0.07441719 0.041710824
0.015761213 -0.34892282 0.16834627 0.066689685 0.2682859 0.040045254 -0.110262655 0.05024817
-0.07732876 -0.29973614 0.40794244 0.042752426 -0.3560165 -0.4283682 0.021865185 0.06833826
0.40156424 0.28822893 -0.008593826 -0.26763058 -0.13561252 -0.21953632 -0.39884603 -0.029599749
-0.06547869 -0.048892267 0.068004474 -0.094150096 0.39496 0.3195702 0.3759092 -0.22969778
-0.16813517 0.50399256 0.12946773 -0.05436391 0.30814463 0.095033504 -0.3101519 -0.023434866
0.0064252224 -0.13919164 0.29557607 -0.44511837 -0.17813689 0.004607104 -0.40198594 -0.023578634
-0.13631196 0.13095096 -0.10876186 0.3483302 0.20436569 0.36553705 -0.1942624 -0.18030806
-0.06940483 -0.22994018 0.21039848 0.017126957 0.61793613 -0.17459658 0.29084462 0.09924818
-0.12657958 -0.12538423 -0.1796141 -0.0062522176 0.51930296 -0.13286659 0.13244256 0.1672184
-0.088902935 -0.26438302 0.017777868 0.03137516 0.18985005 0.49929497 0.42014247 0.2644675
-0.22200336 0.47606432 -0.018590305 -0.07687588 -0.29709244 0.4082464 -0.0899443 -0.08697931
0.16865289 0.014289935 -0.44260466 0.19748925 -0.3939672 -0.01935992 0.18041536 0.3927527
-0.040995065 0.33172294 0.08469414 0.37295762 0.072022595 -0.2671921 0.33304513 0.31916052
0.081461646 -0.1356173 0.3783561 0.05715477 -0.29186186 0.019792652 0.027140483 -0.16532458
-0.08391054 0.5533578 -0.074710764 0.029348666 0.09964971 -0.36229476 0.13097918 -0.04170137
0.467267 0.04843465 0.0740956 0.21818972 -0.06440852 -0.2670427 -0.22108483 -0.4111007
-0.18814598 0.16960424 0.11150452 -0.41707692 -0.16416895 -0.007779628 0.33516997 0.08400032
-0.12295437 -0.47689718 -0.02233377 -0.26456884 0.4002409 -0.14927968 0.22145325 -0.12038778
-0.18940854 -0.41813454 -0.16421409 -0.33758622 -0.25542793 0.14929393 0.032369222 -0.3895511
0.0029884097 -0.049440887 0.14752157 -0.13970517 0.030383512 -0.057463318 0.21825695 -0.30460662
0.24640775 0.11589495 0.23289065 -0.46361816 -0.2103495 0.05529941 0.24710336 0.07487151
0.28621027 -0.05350965 0.3243948 0.0050868588 -0.3891605 -0.1775936 0.39014584 0.45091307
-0.27551663 0.11595589 -0.16334945 -0.05183183 0.026567638 0.015577074 -0.17932886 0.13150033
-0.43712857 0.031145006 -0.112504326 -0.02962093 0.2440988 -0.42518258 -0.10567398 0.36626816
0.03631813 0.17290357 0.27877885 -0.44435993 -0.3977818 0.50893277 -0.16517738 0.35332486
-0.38171202 -0.044402994 0.08119635 0.25463036 -0.065202445 0.22978958 -0.21123523 -0.21589828
0.21988878 -0.18666974 0.5246142 -0.10658138 0.3951086 0.32834333 -0.038183812 0.10504977
0.40015173 0.42888823 -0.21826588 0.2597453 -0.28397742 -0.13189705 0.10664019 -0.047835544
-0.07590455 0.0017572093 -0.102921866 -0.20178016 0.060125124 0.36424047 -0.1838563 0.26200756
0.15232907 -0.19637342 0.0030018282 -0.043255452 -0.004139261 0.36178184 -0.22520395 0.47290185
00000000: 07c7 cbbe 0c54 953d 5fd5 b03e 8c72 003f
00000010: 4009 a83c f26f 8abe 10d4 82be 85e7 9a3d
00000020: 834d 89bd efc7 003f b87f bd3e 1bfa 33be
00000030: 8c92 ecbd e8c6 2e3d 0a68 98bd f8d8 2a3d
00000040: a91d 813c 03a6 b2be f762 2c3e 9a94 883d
00000050: c55c 893e 7e06 243d 63d1 e1bd 06d1 4d3d
00000060: 8a5e 9ebd 0477 99be d5dd d03e 2b1d 2f3d
00000070: cb47 b6be 1453 dbbe 9e1e b33c eef4 8b3d
00000080: d499 cd3e be92 933e 1ecd 0cbc e006 89be
00000090: 02de 0abe 21ce 60be 8c35 ccbe 2c7b f2bc
000000a0: b119 86bd 4243 48bd ee45 8b3d c4d1 c0bd
000000b0: 3238 ca3e b59e a33e 2c77 c03e e535 6bbe
000000c0: a02b 2cbe a805 013f 3093 043e b1ac 5ebd
000000d0: 22c5 9d3e eda0 c23d 3bcc 9ebe 7afa bfbc
000000e0: ac8a d23b 4188 0ebe bf55 973e 8ee6 e3be
000000f0: 8469 36be 31f7 963b 1ad1 cdbe fb27 c1bc
00000100: 5d95 0bbe 0218 063e 8abe debd 5658 b23e
00000110: 3d45 513e ac27 bb3e b9ec 46be ada2 38be
00000120: 1f24 8ebd 7075 6bbe b372 573e d54d 8c3c
00000130: 1031 1e3f 72c9 32be 96e9 943e a142 cb3d
00000140: 149e 01be b964 00be c2ec 37be 67df ccbb
00000150: 0af1 043f 2e0e 08be 069f 073e 4d3b 2b3e
00000160: be12 b6bd 365d 87be e4a2 913c 3d83 003d
00000170: 0d68 423e 97a3 ff3e ea1c d73e 4968 873e
00000180: d954 63be b4be f33e b24a 98bc 1a71 9dbd
00000190: 801c 98be ac05 d13e b834 b8bd 3522 b2bd
000001a0: 58b3 2c3e 5520 6a3c 149d e2be 9f3a 4a3e
000001b0: 12b6 c9be b298 9ebc cebe 383e e216 c93e
000001c0: 71ea 27bd 97d7 a93e 1f74 ad3d 4df4 be3e
000001d0: 9580 933d 67cd 88be e484 aa3e 0269 a33e
000001e0: 5dd5 a63d 43df 0abe e4b7 c13e 1f1b 6a3d
000001f0: eb6e 95be 3324 a23c b855 de3c d94a 29be
00000200: 4ad9 abbd dba8 0d3f f501 99bd 9d6c f03c
00000210: 2615 cc3d b37e b9be 681f 063e 0ecf 2abd
00000220: 9f3d ef3e 6963 463d 6fbf 973d 206d 5f3e
00000230: 9de8 83bd d2b9 88be 1064 62be ca7b d2be
00000240: 57a9 40be bcac 2d3e 7b5c e43d 1b8b d5be
00000250: e81b 28be 40ec febb 669b ab3e 5c08 ac3d
00000260: 80cf fbbd de2b f4be 4ff5 b6bc 9175 87be
00000270: 60ec cc3e c6dc 18be a4c4 623e de8d f6bd
00000280: 50f4 41be bb15 d6be bd27 28be 1ad8 acbe
00000290: 73c7 82be 82e0 183e 9795 043d 3e73 c7be
000002a0: 32d9 433b 8782 4abd e50f 173e df0e 0fbe
000002b0: d8e6 f83c a85e 6bbd c07e 5f3e 66f5 9bbe
000002c0: 5052 7c3e 555a ed3d e37a 6e3e 5c5f edbe
000002d0: dc65 57be a281 623d aa08 7d3e 3c56 993d
000002e0: 278a 923e ef2c 5bbd 1317 a63e aaaf a63b
000002f0: 0c40 c7be 19db 35be 32c1 c73e 14de e63e
00000300: 8410 8dbe 487a ed3d 1445 27be 9d4d 54bd
00000310: 60a4 d93c fc36 7f3c fca1 37be 06a8 063e
00000320: 51cf dfbe d023 ff3c ab68 e6bd 98a7 f2bc
00000330: 09f5 793e 88b1 d9be 9a6b d8bd 8087 bb3e
00000340: 52c2 143d a20d 313e 1abc 8e3e 2583 e3be
00000350: 0eaa cbbe 6b49 023f 4224 29be ffe6 b43e
00000360: c26f c3be eadf 35bd 464a a63d e95e 823e
00000370: dc88 85bd f64d 6b3e 0c4e 58be 7014 5dbe
00000380: 862a 613e 5a26 3fbe 1e4d 063f 5747 dabd
00000390: ad4b ca3e 9e1c a83e a166 1cbd 5524 d73d
000003a0: b0e0 cc3e 3d97 db3e 1781 5fbe 56fd 843e
000003b0: 7d65 91be 0510 07be 2c66 da3d 34ef 43bd
000003c0: d873 9bbd 2952 e63a b3c8 d2bd 759f 4ebe
000003d0: c345 763d ba7d ba3e d344 3cbe db25 863e
000003e0: 27fc 1b3e 1d16 49be 52ba 443b a12c 31bd
000003f0: a3a2 87bb 783b b93e dd9b 66be 3120 f23e

feature_net.linear_layer_1.bias f4 [32]
-0.0052759936 0.008416507 0.017296199 0.0017657941 -0.00021556561 0.0062630167 0.0074067363 0.00019295036
0.016757263 -0.01142237 -0.00971331 -0.007870485 -0.010737904 -0.0071754456 0.016324366 -0.008639827
-0.01141232 0.017884744 0.0077016884 -0.009289933 -0.0074893185 -0.009240119 -0.004075272 0.0031789774
0.0100618275 0.0016248311 -0.011113656 -0.011949807 0.003908592 0.0062144864 0.00570817 0.015654733
00000000: 3ee2 acbb 64e5 093c c2b0 8d3c 3872 e73a
00000010: 7409 62b9 fe39 cd3b 35b4 f23b b852 4a39
00000020: 8746 893c e424 3bbc 9324 1fbc 35f3 00bc
00000030: 09ee 2fbc 0020 ebbb adba 853c 108e 0dbc
00000040: bdfa 3abc 0783 923c 725e fc3b ce34 18bc
00000050: f568 f5bb de63 17bc dc89 85bb 6456 503b
00000060: 5dda 243c 49f8 d43a 0d16 36bc 20c9 43bc
00000070: a513 803b e4a2 cb3b 9a0b bb3b 5b3e 803c

feature_net.layer_norm_1.weight f4 [32]
1.0 1.0151031 1.0185165 1.010293 1.0077531 0.99266195 1.0079265 0.99930185
1.011446 0.9895807 1.0072259 0.9905467 0.9907582 1.0 1.0195581 1.0004654
1.0071899 1.0176739 1.0 0.98947376 0.9927617 0.9910485 1.0 1.010095
1.0174044 1.0178016 0.99394214 0.98930264 1.0079936 1.0081992 1.000597 1.0
00000000: 0000 803f e6ee 813f c05e 823f 4851 813f
00000010: 0efe 803f 181f 7e3f bc03 813f 3fd2 7f3f
00000020: 1077 813f 2955 7d3f c7ec 803f 7894 7d3f
00000030: 54a2 7d3f 0000 803f e180 823f 400f 803f
00000040: 99eb 803f 2343 823f 0000 803f 274e 7d3f
00000050: a125 7e3f 5bb5 7d3f 0000 803f cb4a 813f
00000060: 4f3a 823f 5347 823f fe72 7e3f f042 7d3f
00000070: ef05 813f ac0c 813f 9013 803f 0000 803f

feature_net.layer_norm_1.bias f4 [32]
0.0 0.014442729 0.018137328 0.013249746 0.0063621523 -0.0074560186 0.008847059 0.002606531
0.011316225 -0.011567348 0.007238303 -0.009819189 -0.010478966 0.0 0.017210428 -0.0014227176
-0.0034714548 0.017530119 0.0 -0.011841467 -0.007238612 -0.009354134 0.0 0.0054576625
0.014762674 0.018942911 -0.006849129 -0.01187764 0.0071924594 0.008764492 0.0006269462 0.0
00000000: 0000 0000 32a1 6c3c bc94 943c 7615 593c
00000010: 9a79 d03b 9e51 f4bb 41f3 103c 55d2 2a3b
00000020: b067 393c f984 3dbc 492f ed3b aae0 20bc
00000030: f8af 2bbc 0000 0000 e2fc 8c3c 7b7a baba
00000040: 5981 63bb 539b 8f3c 0000 0000 b602 42bc
00000050: e131 edbb 1542 19bc 0000 0000 31d6 b23b
00000060: 25df 713c 2a2e 9b3c a96e e0bb 6f9a 42bc
00000070: b9ae eb3b f298 0f3c a659 243a 0000 0000
