otk/AgileRL-MATD3/simple_tag_v3/result/20240102-0837/MATD3_trained_agent_0015000.pt (torch, 967154 bytes, 448 tensors)

feature_net.linear_layer_0.weight f4 [32, 16]
000000 28 e5 b7 3f 56 35 30 3f 0d a0 31 40 b2 ac 2c 3f
       1.4366808 0.68831384 2.7753937 0.6745101
000010 34 5c bc bf 7b 2c a3 3f e2 a5 ce bf 38 0b 18 3f
       -1.4715638 1.2747949 -1.6144373 0.5939212
000020 0a 97 10 c0 3b 7c 01 c0 b5 a2 50 40 92 db 3f 40
       -2.2592187 -2.0232074 3.2599308 2.9977765
000030 42 79 69 c0 5b 16 3c c0 11 5b 28 c0 7c b1 54 bf
       -3.648026 -2.9388645 -2.6305583 -0.8308332
000040 de c3 95 3f e3 b8 b1 bf d1 be 2f 40 71 55 1d c0
       1.1700399 -1.3884548 2.7460215 -2.45834
000050 97 4c bc be 22 07 f7 3f 38 7b 7d bf 19 e2 8a 3f
       -0.36777183 1.9299052 -0.9901614 1.085025
000060 12 86 32 40 9c 8d 11 c0 97 ec 0e bf 9e 2b d7 3f
       2.789433 -2.2742682 -0.5582976 1.6810186
000070 07 9d 94 c0 ef f1 19 40 bb 5d 06 c0 07 ef e1 3f
       -4.6441684 2.4053915 -2.0994709 1.765107
000080 b9 bc 9f 3f 8e 98 5c bf 04 3d 4c 40 3d c6 67 bf
       1.2479469 -0.8617028 3.191224 -0.9053686
000090 af d1 90 be ee 64 93 bc e6 2e 2f bf 74 e3 2c 3f
       -0.28284976 -0.017992463 -0.68430936 0.67534566
0000a0 cb 1c 65 bf 4b 68 66 40 e9 4e a5 3f ee 98 f4 be
       -0.8949706 3.6001155 1.2914706 -0.47772926
0000b0 fd 57 4b c0 2f 92 cc 3f b6 fe 9e be 00 74 af bf
       -3.1772454 1.5982112 -0.31053704 -1.3707275
0000c0 d7 8f 87 3e a9 47 c0 bf 13 ac f9 3e 53 34 41 c0
       0.2647693 -1.5021869 0.48764095 -3.0188186
0000d0 08 6f ac be b8 05 4b 3f a4 1b 83 bf 2c 5f c6 3f
       -0.3367846 0.793056 -1.024281 1.5497794
0000e0 d3 ab 3f c0 b9 1e cd 3e 7a 72 09 3f 39 5a 6b 40
       -2.9948623 0.40062502 0.536903 3.6773818
0000f0 3d df bb 3f 8a 43 ab 40 26 08 06 be 0c c8 75 3f
       1.4677502 5.3519945 -0.13089046 0.9600837
000100 90 fe 64 3f c7 d4 12 c0 06 02 21 40 da 4a 3c c0
       0.8945093 -2.294237 2.5157485 -2.9420686
000110 2f c9 3d bf ad 5f 23 3f 98 92 3c bf 59 02 c9 3f
       -0.74135107 0.63817865 -0.73661184 1.5703841
000120 55 37 b5 3f ed 39 cf 3f b6 8f 14 40 95 5f 8a c0
       1.4157511 1.6189553 2.3212714 -4.3241677
000130 3e 8d b3 c0 18 36 95 3f 03 0e 66 bf 3e bc d5 3f
       -5.6109915 1.1657133 -0.8986513 1.6698072
000140 07 41 86 3f d4 b0 9f 3f 91 6c 04 40 ae 42 d7 bf
       1.0488595 1.2475839 2.0691264 -1.6817224
000150 c4 43 36 3f fe be 76 3f 9e 1d 70 bf d1 cb be 3f
       0.7119715 0.9638518 -0.9379519 1.490595
000160 b7 3e 45 40 a4 31 bb 3f 1c a7 04 40 29 5a e4 be
       3.0819528 1.4624524 2.0726995 -0.44600037
000170 3c bf 89 c0 a4 88 85 c0 c2 2f 95 bf e3 44 a1 bf
       -4.304594 -4.17293 -1.16552 -1.2599148
000180 45 98 a3 3e e3 14 09 c0 1c 95 82 bf 4e a1 40 bf
       0.3195211 -2.1418998 -1.0201755 -0.7524613
000190 fa 37 d1 3c da ac 82 3e 30 b3 9f 3e 20 d1 20 3f
       0.025539387 0.255225 0.31191397 0.628191
0001a0 ad db 54 3e 4b b7 6e 3f 10 0f 8d c0 a9 2a 2e 40
       0.20786925 0.9324843 -4.4080887 2.7213538
0001b0 31 47 2f bf 2d 3c 8c c0 7e a3 7d bf 50 47 15 3e
       -0.68468004 -4.3823457 -0.99077594 0.14577985
0001c0 35 0e fb 3f 62 99 ce 3e 6a 28 50 40 10 31 c1 3f
       1.9613711 0.40351397 3.2524667 1.5093098
0001d0 ab 13 18 be 11 48 0b 3f 6c cf c2 be 5f 71 11 3f
       -0.14851253 0.5440684 -0.38048875 0.56813616
0001e0 9f eb b8 bf 29 50 b2 3f 7f 57 bd 3f c7 a3 74 be
       -1.4446906 1.3930713 1.4792327 -0.23890601
0001f0 32 ff 8e c0 15 24 f5 c0 33 96 d8 bf a8 aa 25 c0
       -4.468652 -7.6606545 -1.6920837 -2.588541
000200 ab 41 18 40 f2 6f 41 bf 80 a6 2b 40 6f 48 2e bf
       2.379008 -0.7556144 2.6820374 -0.68079275
000210 c8 9c 10 3e 6d aa 12 3f 8e 30 22 be bb 06 2c 3e
       0.14122307 0.572913 -0.15838835 0.16799442
000220 81 1f b4 bf 7f 9d 7f 40 53 e6 2b bf ea 64 c5 be
       -1.4072114 3.9939878 -0.6714832 -0.38553554
000230 c4 02 10 c0 47 ea c6 3f 97 a9 34 3f c7 22 e6 bf
       -2.2501688 1.5540246 0.70571274 -1.7979363
000240 bc ba 0e 40 a3 70 09 c0 f9 cc 5f 40 67 99 54 bf
       2.2301474 -2.1474998 3.4968855 -0.83046573
000250 b8 28 12 c0 c6 80 9e 3f 4a f4 86 bf 6d 97 81 3f
       -2.2837353 1.2383049 -1.0543301 1.0124336
000260 4d 4a 8e be ff 44 1f 40 9e d9 b1 3f 1b c0 31 c0
       -0.27791062 2.4885862 1.3894536 -2.7773502
000270 02 c5 81 c0 0f 7d 42 40 19 1d b6 be f5 1d b3 be
       -4.055299 3.038883 -0.35569075 -0.34983793
000280 e8 76 ae 3f 88 cb c5 bf c9 52 00 40 cc b0 76 bc
       1.3630037 -1.5452738 2.0050528 -0.0150568
000290 8d 77 08 bf 30 5b 9b 3f 3c 43 d8 bf 35 fb cf be
       -0.5330742 1.2137203 -1.6895518 -0.40621343
0002a0 40 3b b4 bd 98 e1 2b 40 59 83 16 40 e7 cd cc bd
       -0.088003635 2.6856441 2.3517668 -0.1000021
0002b0 7b e1 05 c0 29 67 83 3f 39 59 87 be 41 31 66 bf
       -2.0918872 1.0265857 -0.2643526 -0.89918905
0002c0 e8 24 fa bd f5 fa 06 c0 19 74 87 bf 78 9f 82 bf
       -0.122140706 -2.1090672 -1.0582305 -1.0204916
0002d0 60 88 94 3f a4 1a ef be 5b e2 04 bf 99 df 2a 3f
       1.1604118 -0.46700013 -0.5190789 0.6674743
0002e0 41 6f b1 c0 90 9b 11 bf 2c 53 76 3d 0b d7 03 40
       -5.544831 -0.56877995 0.060137913 2.0600002
0002f0 02 ad c1 3f 78 e0 ed 3f db b3 f2 be 21 12 3a 40
       1.5130923 1.8584127 -0.47402844 2.9073565
000300 21 66 0c 40 0f e3 80 bf 08 9d eb 3f 2d aa 40 bf
       2.1937335 -1.0069293 1.8407297 -0.7525967
000310 4d 04 d8 bd 5d 93 92 be c8 e4 34 bf af 5a aa 3e
       -0.10547695 -0.28628054 -0.7066159 0.3327231
000320 3f bc 54 bf f6 7f 7e 40 9a 96 c1 3f 46 32 8e 3d
       -0.8309974 3.97656 1.5124085 0.06943183
000330 8e bb 64 c0 1f 7f a8 3f 14 4f df be bc f1 92 bf
       -3.5739474 1.3163794 -0.4361502 -1.1480021
000340 63 ea da 3f 4a 28 86 bf ea 35 03 40 57 95 3a bf
       1.7102779 -1.0481045 2.0501657 -0.72884125
000350 6a 3f 67 bb 74 64 86 be 8c e1 25 bf 0d db d4 3e
       -0.00352856 -0.26248515 -0.6479728 0.41573372
000360 da 59 60 bf ad d7 99 40 2e c2 ab 3f 60 04 1e bf
       -0.876371 4.8075776 1.3418634 -0.61725426
000370 32 15 6a c0 3c e8 fa 3e c2 ef f6 bf 9c 93 1d bf
       -3.6575437 0.49005306 -1.9291918 -0.6155336
000380 68 ca 82 bf 40 92 1f be 8b 63 fb bf 2d ad fe 3f
       -1.021802 -0.15583134 -1.9639753 1.9896599
000390 ce 12 dc be 74 3e 1f 3f 91 b7 82 bf 07 f0 d9 3e
       -0.42983097 0.6220467 -1.021227 0.4256594
0003a0 7f 16 17 c0 5b d4 28 40 2d db 33 bf b7 bf 6e 3f
       -2.360748 2.6379611 -0.7025631 0.93261284
0003b0 12 02 0b 41 4c b5 66 c0 f4 ab 1c 40 d9 d0 f2 bf
       8.688005 -3.6048155 2.4479952 -1.8969985
0003c0 6d a2 c9 3e 46 4c 54 bf 61 80 8a 3d 96 93 e1 3b
       0.39381734 -0.82928884 0.067627676 0.0068840487
0003d0 53 4c ec 3d af 1d d2 3e fe 22 c3 be 66 7f 8f 3f
       0.11537995 0.41038272 -0.38112634 1.1210754
0003e0 cc fa e6 bf 43 28 10 c0 b3 8c ee 3c 9a fc 51 c0
       -1.8045287 -2.2524574 0.029119825 -3.2810426
0003f0 82 a7 13 c0 00 e8 eb 40 e2 1a 2d c0 5b 0d 20 3f
       -2.3070989 7.3720703 -2.7047658 0.6252038

feature_net.linear_layer_0.bias f4 [32]
000000 0c bb 6e 40 cd 61 9e 3f 56 df da 3f 63 d4 cb 3f
       3.7301664 1.2373596 1.7099407 1.592419
000010 01 22 f4 3c 20 67 20 40 71 51 99 bf fd ac 6e 40
       0.02980137 2.5062943 -1.1977979 3.7293084
000020 58 48 52 3f 2a 09 10 3f e3 d3 db 3f 12 e7 ce bd
       0.8214164 0.56263983 1.7174038 -0.10102667
000030 1d d9 ab 3f f9 16 ba 3f 77 4f bc 3f 2a 56 ad 3f
       1.3425633 1.4538261 1.4711751 1.354192
000040 a7 8f 74 3f 1f c5 24 40 01 02 07 40 c2 12 62 40
       0.95531696 2.5745313 2.1094973 3.532395
000050 d0 56 a4 3f b6 74 e7 3f 64 ec d8 3f 79 a0 07 3f
       1.2838993 1.8082492 1.6947141 0.52979237
000060 0e c9 90 3f 8d 24 7e 3e 92 7f b8 3f d0 60 1a 3f
       1.1311357 0.2481863 1.4413931 0.60303974
000070 02 4d ac 3f da c9 d8 3f ee 0b 0c 40 c5 4f 25 bf
       1.3461001 1.69366 2.1882281 -0.64574844

feature_net.layer_norm_0.weight f4 [32]
000000 01 ba 63 40 15 89 32 40 98 b6 9a 3e 9a 61 15 40
       3.5582278 2.7896168 0.30217433 2.3340821
000010 b3 26 58 40 0c 6c 0b 40 90 a9 4b 40 60 30 90 40
       3.377362 2.1784697 3.1822243 4.505905
000020 3a 1e 01 3f f6 c4 3b 3f 0e 37 9e 3e 90 1d 44 40
       0.5043675 0.73347414 0.30901378 3.0643044
000030 b9 72 c2 3e 51 24 46 3e 28 3d 0a 41 aa 70 a2 40
       0.3797815 0.19349791 8.639931 5.076253
000040 b0 d9 de 3f d0 a8 e5 3f 63 49 a1 3e 84 65 38 40
       1.7410183 1.7942142 0.31501302 2.881196
000050 74 c2 ae 3e 07 0c 37 3e 36 37 66 3e 23 28 e2 3f
       0.3413273 0.17875682 0.22481999 1.7668499
000060 96 e9 20 3f f1 81 2a 40 6d bb ee 3e 5d 18 df 3f
       0.62856424 2.664181 0.4662737 1.742931
000070 84 8f d8 3f 99 f9 72 40 c3 63 a1 bb 3e e3 64 40
       1.6918797 3.7964842 -0.0049252226 3.5763698

feature_net.layer_norm_0.bias f4 [32]
000000 7a 5b 07 3f 25 4d e2 3f 36 cf 71 bf 7e 29 f0 3f
       0.5287396 1.7679793 -0.94456804 1.8762662
000010 2c b4 83 3d fd c7 7e 3e 94 48 22 3f b0 44 d0 3f
       0.064308494 0.24880977 0.63391995 1.6270962
000020 7a 28 a9 bf f4 b2 b7 bf 80 29 8c bf 7f 3b d0 3e
       -1.3215477 -1.4351487 -1.0950165 0.40670392
000030 f1 7f 86 bf 9a bb 31 bf d0 b1 1a 40 4a 4f 44 40
       -1.0507795 -0.6942688 2.4171028 3.0673394
000040 36 1b 58 3f 33 00 c6 be 1d f6 83 bf 25 77 c1 3f
       0.8441652 -0.38672027 -1.0309483 1.5114485
000050 6e 76 57 bf ed 74 42 bf 1c 8e 55 bf 69 09 c2 be
       -0.84165084 -0.75959665 -0.83419967 -0.37897804
000060 1c 81 a5 bf 2e 44 7f bd f0 4f 94 bf 98 92 e2 3f
       -1.2930026 -0.06232088 -1.1586895 1.7700987
000070 58 21 2d 3d 22 54 39 3f a0 93 99 bd 26 dc 11 3f
       0.042268127 0.72394 -0.0749886 0.56976545

feature_net.linear_layer_1.weight f4 [32, 32]
000000 b0 6e f8 3f f0 00 79 3f 6b 64 6c 3e 1d 15 49 c0
       1.9408779 0.97267056 0.23085181 -3.1419137
000010 d6 ef 3a 3e 19 20 30 40 94 c8 c9 3f 6a 5a 83 40
       0.18255553 2.751959 1.5764337 4.104787
000020 62 8f 25 3f a0 d5 51 40 ca 55 5d 3e 71 2e b7 3e
       0.6467191 3.2786636 0.21614757 0.3577762
000030 b2 a2 08 3e bc 40 c1 be 16 48 9a be 8d 74 0e 3f
       0.13343313 -0.377447 -0.30133122 0.5564659
000040 92 42 5a 40 17 62 91 3f 4d e7 97 3e 17 00 91 3f
       3.4103131 1.135806 0.29668656 1.1328152
000050 48 32 f5 3f 36 bc de 3f 1e 01 79 3f 13 78 fb 3e
       1.915597 1.7401187 0.9726733 0.49115047
000060 e0 a4 3d bf 71 b1 90 bf 7e 19 33 3e 74 11 90 bf
       -0.74079704 -1.1304151 0.17490193 -1.1255326
000070 ec 1e fe 3e 87 24 00 bf 07 11 31 3f 89 c7 2e 40
       0.49632967 -0.50055736 0.69166607 2.7309287
000080 2d 80 28 3f 00 95 ae 40 82 60 cb 3d be 2e 19 40
       0.6582058 5.4556885 0.09930517 2.393478
000090 56 8c 08 40 c6 01 6b 3f 17 c9 1d 40 a3 bb 85 40
       2.1335654 0.9179958 2.4653986 4.179155
0000a0 66 b2 20 bf 80 0a 17 40 ef e9 84 3f 7b 56 82 40
       -0.62772214 2.3600159 1.0383891 4.0730567
0000b0 d8 c9 41 3f 19 16 a0 be a7 c9 0c c0 ed 5b 1a 40
       0.75698614 -0.3126686 -2.199808 2.4118607
0000c0 c1 60 5d 40 11 8d 0a 40 4a 09 a5 3f 05 c7 ff bf
       3.4590304 2.16486 1.289346 -1.9982611
0000d0 d3 fc eb bd ab 64 21 40 75 0f 91 3f ed bc b7 bf
       -0.11522832 2.5217693 1.1332842 -1.435453
0000e0 0b 0c bf 3f ca 8a 3b 40 b1 08 bb 3f 75 99 12 40
       1.492555 2.930346 1.4612027 2.2906163
0000f0 8b 30 86 3f 6d 97 1b c0 14 82 2b bf 56 32 66 40
       1.0483564 -2.4311173 -0.6699536 3.5968223
000100 5f 12 4d 3e 0d 45 08 40 7f 4b 8d 3d c5 44 98 bf
       0.2002654 2.1292145 0.06899165 -1.1895987
000110 df 58 42 40 0d 1d 78 40 ac 75 a1 40 e0 81 2e 40
       3.0366743 3.876773 5.0456142 2.726677
000120 d2 de 87 3f 91 ee 78 3f a3 bc 4b bf 44 8f 03 3e
       1.0614874 0.97239023 -0.7958471 0.1284762
000130 c0 83 51 bf fe 3b 29 3e 81 42 a4 40 6c d9 53 c0
       -0.8184166 0.16526791 5.133118 -3.3101454
000140 ca 74 14 40 a3 84 08 40 25 61 8a bf 63 66 1a bf
       2.3196282 2.1330955 -1.0810896 -0.6031248
000150 43 f2 2b 40 5d e1 d9 3f 49 0d 19 3f 13 ac 8a bf
       2.6866615 1.70219 0.59785897 -1.0833763
000160 f9 0d 5c be b6 ce 12 c0 39 d8 26 3e ce 5e 10 3e
       -0.21489705 -2.2938666 0.1629342 0.14098665
000170 2b f3 2b 3f 1c 7f 6c 40 19 b7 80 bf 21 8f 56 40
       0.6716792 3.6952581 -1.0055877 3.352486
000180 da 98 37 bf f5 a4 16 3f fa 5e a9 be 07 52 67 3e
       -0.7171761 0.58845454 -0.33080274 0.22589885
000190 1e 1d 6f 3e d7 19 83 bf 02 69 03 40 9e 6d 9f 3d
       0.23350951 -1.0242261 2.0532842 0.0778458
0001a0 2d 52 4b 3f 1e f7 c2 3d c0 61 8a 3f e9 91 5e 40
       0.79422265 0.0951979 1.0811081 3.4776556
0001b0 0a eb 27 3f 43 e8 a5 be a9 fb 0d 41 0c 1e a7 3f
       0.65593016 -0.32403764 8.87394 1.3056045
0001c0 11 eb df bf b1 71 8b 40 bd 36 a6 3f 80 7f dd bf
       -1.7493612 4.3576283 1.2985455 -1.7304535
0001d0 6a 81 49 3c 79 13 b5 3f 69 7b 2a be e7 29 0c 40
       0.012298921 1.4146568 -0.1664864 2.1900575
0001e0 41 af 48 3f 56 b7 3c 3f 2f f7 90 3e f9 b0 05 3e
       0.78392416 0.7371725 0.28313586 0.13055791
0001f0 7b b7 50 40 5b e0 8f 40 a8 a6 df 3f 7c e3 2b bf
       3.2611988 4.496137 1.7472734 -0.6714399
000200 ba f3 e6 3f e0 a7 cf bf 4d a4 24 3e 41 a4 59 40
       1.804313 -1.6223106 0.16078301 3.4006503
000210 94 0c bf be 65 a9 37 40 d1 ff 51 40 43 8d 34 3e
       -0.37314284 2.869714 3.2812388 0.17632012
000220 06 23 58 bd ee 0f ff bf 82 1e f0 bd f2 0d 22 40
       -0.052767776 -1.9926736 -0.11724569 2.5321012
000230 ac 51 57 3f 55 15 90 3f 1b bf 6e 40 4f 1f 4e bf
       0.84108996 1.125651 3.7304142 -0.80516523
000240 1d 20 df 3f 86 38 00 3f d4 14 f4 bf 66 03 4d bf
       1.7431675 0.5008625 -1.9068856 -0.8008331
000250 96 1f 96 3d 49 e3 6d 40 e9 bc f3 bf 4a 30 bb 3d
       0.07330243 3.7169974 -1.9042026 0.0914007
000260 7d 00 8f 3d c5 ea d2 3f cc ee c6 bf e3 3b d5 3f
       0.06982515 1.6477896 -1.5541625 1.6658901
000270 94 1e 5f 40 fd 94 59 bf c5 f7 10 3f 93 64 86 40
       3.4862413 -0.84992963 0.56628066 4.199777
000280 cc a5 0c be e0 a6 1d 40 f3 07 14 be 90 1f a3 40
       -0.13735121 2.4633102 -0.14456157 5.097603
000290 1e 79 ae be cf fe 07 40 74 a8 1d c0 6f ed eb be
       -0.3407678 2.1249273 -2.4634066 -0.46079585
0002a0 4a 1c d9 3f d3 43 a1 3e c0 4a 12 3f c3 28 18 40
       1.6961758 0.31497058 0.5714531 2.377488
0002b0 78 a9 b2 3e 92 9f 24 bf 1a 33 62 bf f4 5a 2c 40
       0.3489492 -0.64305985 -0.88359225 2.6930513
0002c0 be 60 41 40 55 6e 72 be d6 ac d0 3f d4 28 5f 40
       3.0215297 -0.23674901 1.6302745 3.486867
0002d0 c9 33 ae 3f a0 54 3f 40 2b 43 aa 3f 12 1b e4 3e
       1.3609554 2.98954 1.3301748 0.44551903
0002e0 be 68 a7 be 9a 8c 63 40 29 2d b0 bf 0c 89 6f 40
       -0.326971 3.5554566 -1.3763782 3.7427397
0002f0 7e f7 8d bf 20 da be bf cd 5c 48 3e 84 23 49 c0
       -1.1091154 -1.4910316 0.1956665 -3.1427927
000300 7b bb 77 40 98 e5 d4 bf 6e 7d 80 be 5b b6 3c be
       3.870818 -1.6632566 -0.25095695 -0.18428938
000310 5e af b8 c0 ca fd 8f 3e 79 3c bf bf 99 e8 13 40
       -5.771407 0.28123313 -1.494033 2.3110716
000320 21 85 db 3e c7 d2 20 c0 2f 24 cb 3e f9 98 3b 3d
       0.42875007 -2.5128648 0.39676043 0.045800183
000330 4c 61 6f be 23 d8 1a 3f de 0c 5d 3f 66 7d ae 3e
       -0.2337696 0.6048605 0.8634776 0.34080046
000340 a6 31 16 bf e1 58 55 40 b9 d3 32 be 66 95 64 40
       -0.5866951 3.3335497 -0.17463578 3.5716186
000350 b7 96 34 bf 85 e7 3f 3f 8a 11 90 3f c7 28 64 40
       -0.7054247 0.74962646 1.1255352 3.5649889
000360 53 7c 99 be e1 dc 38 bf 9d 66 b4 bf 64 ac 2d c0
       -0.29977664 -0.72212034 -1.4093815 -2.713647
000370 f4 02 f0 3d 0d 04 aa bf 85 fc 31 be b0 fd d0 bf
       0.11719313 -1.3282486 -0.17381485 -1.6327419
000380 e4 1f b0 3e 4f c3 47 c0 95 92 52 3f 06 64 06 c0
       0.3439933 -3.1212957 0.82254916 -2.099855
000390 6c 47 6b 40 1c 13 89 40 da a7 1e 40 a3 b4 56 40
       3.6762342 4.2835827 2.4789948 3.3547752
0003a0 62 71 42 bf 6e 11 d1 3f b3 21 04 bf 00 3b d7 bf
       -0.7595426 1.6333444 -0.5161392 -1.681488
0003b0 ce 57 c2 be 9b 0f b9 be 26 5c 16 40 ba 2d a2 c0
       -0.37957615 -0.3614472 2.3493743 -5.068082
0003c0 82 39 f2 3f 13 88 0c 40 3c 97 12 c0 57 11 f5 3c
       1.89238 2.1958053 -2.2904806 0.029915495
0003d0 31 20 1f 40 19 ab 23 40 9b 75 ae 3d 25 f1 00 c0
       2.4863398 2.557318 0.08518525 -2.0147183
0003e0 4f 8f 9f 3e 22 67 6d bf 4e fe e7 3e e5 a1 f9 3f
       0.31164023 -0.92735493 0.45311207 1.9502531
0003f0 1c 19 bc bf 67 e3 a1 3e c9 45 99 3e 43 88 c1 bf
       -1.4695163 0.31618807 0.29936054 -1.5119709

feature_net.linear_layer_1.bias f4 [32]
000000 86 68 9d bf 7d 08 e8 3f 7e b5 18 3e 9e 0d c8 be
       -1.2297523 1.812759 0.14912984 -0.3907289
000010 3a 3a 11 40 b1 b0 5a 40 69 77 2a 40 5c b4 b6 3f
       2.2691789 3.4170344 2.6635382 1.4273791
000020 69 06 48 3d ec b3 81 40 da e8 0c 40 f9 8a 87 bf
       0.04883424 4.053213 2.2017121 -1.0589286
000030 6b 78 92 40 d5 27 e5 3f 26 2d 5b be e2 ca b9 3f
       4.5771995 1.7902781 -0.21403942 1.451504
000040 90 16 38 3e 4f b0 1e 40 9e a2 80 3f 26 32 91 3f
       0.17977357 2.479511 1.0049627 1.1343429
000050 53 67 c4 3e 6c d6 d1 be 7c 86 47 bf ea fb b6 3f
       0.3836008 -0.40983903 -0.7793958 1.4295628
000060 16 d5 51 3f e8 83 59 40 c8 7e e1 3f 43 1f 46 40
       0.8196577 3.398676 1.7616816 3.095658
000070 3b 27 89 3e 2d 55 f9 3f 6d ab 00 40 be f9 46 bd
       0.26787743 1.9479119 2.010463 -0.048578016

feature_net.layer_norm_1.weight f4 [32]
000000 b1 87 82 40 fc 3e 89 40 96 93 a5 40 9e 74 08 41
       4.079064 4.2889385 5.174266 8.528471
000010 af 1f 17 40 2f 34 8b 40 b5 a4 a5 40 a5 8f 94 40
       2.3613088 4.35012 5.176356 4.6425347
000020 3e 4a 88 40 05 aa 0e 41 ac 60 c0 40 af b3 8d 40
       4.259063 8.916509 6.011801 4.428184
000030 35 90 ee 40 ad 7d b0 40 66 2d c0 40 ee 62 d9 40
       7.4551034 5.5153413 6.005542 6.7933264
000040 65 24 6a 3f 16 47 1b 40 65 73 b9 40 ce df 87 3f
       0.91461784 2.4262137 5.7953362 1.0615175
000050 d7 92 c2 40 46 b6 80 40 b0 85 ba 3f e7 11 46 40
       6.080425 4.02225 1.4572048 3.0948427
000060 f0 c1 58 40 e2 0c 18 3e 03 b3 a1 40 8b 3f 0d 40
       3.386837 0.14848664 5.053102 2.2070034
000070 fe a5 98 40 c7 49 af 40 78 9f 46 40 f4 95 bd 40
       4.7702627 5.477756 3.1034832 5.924555

feature_net.layer_norm_1.bias f4 [32]
000000 92 01 ca 3e c5 27 80 3f 52 cb 93 3f 4f 7a 92 3f
       0.39454323 1.0012137 1.1546423 1.1443576
000010 1a d1 1c bf d9 d8 14 40 25 bb ae 3f c5 30 4a 3f
       -0.61256564 2.3257353 1.3650862 0.78980666
000020 86 0d 3b 3d cf 0a 87 40 4b 9e 1d 40 18 c7 2c 3d
       0.045667194 4.2200694 2.4627864 0.042182058
000030 d2 a9 05 40 92 d6 1a 40 07 7f a3 3e 95 0a de 3f
       2.08849 2.4193463 0.31932852 1.7346979
000040 cd 24 ce bf 5e 1c 69 bf 4e 9e 6d 3f 2c 0a 3a 3f
       -1.6104981 -0.9105891 0.9281968 0.7267177
000050 b0 af f9 3d 9b 77 a9 bf 61 49 30 c0 9f a9 f6 3f
       0.12191713 -1.3239626 -2.7544787 1.9270514
000060 94 7c cf be fc dc 1b bf c3 52 89 3f 9d 53 94 3f
       -0.40524733 -0.6088407 1.0728382 1.1588017
000070 a5 00 98 be fe a8 a1 3f 6f fd 83 3d 48 01 97 3e
       -0.29687992 1.2629697 0.06444823 0.29493165

feature_net.linear_layer_output.weight f4 [5, 32]
000000 d2 53 f8 bd a0 56 d9 40 f1 78 a5 3f 87 7e 79 3d
       -0.121253625 6.7918243 1.2927533 0.06091168
000010 a4 49 6d 3f 56 ca 50 40 3d f4 a4 3f 5c bb 81 bb
       0.9269049 3.2623496 1.2887036 -0.0039591026
000020 64 57 28 3f f2 ab 38 bf 29 27 53 3f 21 45 04 be
       0.6575835 -0.7213737 0.8248163 -0.12916996
000030 da 9d e1 3f 56 09 49 3f 07 7a c4 3f 28 d3 48 bf
       1.7626297 0.7852987 1.534974 -0.784472
000040 56 f6 07 40 45 55 d4 3f b9 f3 8c 3f f1 ae af bd
       2.1244102 1.6588522 1.1011878 -0.08578289
000050 95 4f 35 40 22 44 98 40 60 07 d4 3f 57 8b fe 3d
       2.8329823 4.758317 1.6564751 0.12428921
000060 9f 3b 0d 3f 58 5a 1c 40 ba 1f 19 40 ae 5c 5e 3f
       0.551691 2.4430141 2.3925614 0.8686017
000070 23 73 ae 40 7c 57 f5 3f 4d 2a 0d 40 62 f2 90 3f
       5.451555 1.9167323 2.2057068 1.1323969
000080 f6 f5 34 3e 80 40 91 bf 66 96 83 40 06 50 97 40
       0.17671952 -1.1347809 4.112109 4.7285185
000090 17 8e 20 40 92 25 99 bf 23 13 89 c0 4b 0d 77 40
       2.5086725 -1.196459 -4.283586 3.8601863
0000a0 aa 5f 48 40 9e ce 3e c0 0d 9c 77 c0 31 2c db 3f
       3.1308389 -2.981361 -3.8688996 1.7122861
0000b0 55 80 21 c0 d7 7c 6a bf 02 e1 b7 40 dd 0e 4a c0
       -2.5234578 -0.9159674 5.746217 -3.1571572
0000c0 a6 98 dd be 9f f8 e8 bd 3a d3 3a bf 71 6a 55 3f
       -0.43280524 -0.11375546 -0.72978556 0.8336554
0000d0 cc f2 91 40 7e 9b 2a 40 12 5d 7b 3f c0 1e 1b 3e
       4.5608883 2.6657405 0.9818889 0.15148449
0000e0 74 45 6c 3f c3 15 80 3f b9 0b bf 3f 94 4a e1 be
       0.9229348 1.0006641 1.4925452 -0.4400221
0000f0 8d f1 0c 40 72 5a 7c 3f cb 7b 68 3f 9e a5 1a c0
       2.202243 0.9857551 0.90813893 -2.4163585
000100 c3 78 b1 40 f3 de 28 40 bf 66 ae 3e ec 06 ca c0
       5.5459914 2.6386077 0.34062764 -6.313345
000110 0d 15 95 be 79 fe 02 3f 13 7a 93 bf ce d3 3f 3f
       -0.29117623 0.51169544 -1.1521629 0.74932563
000120 06 16 c0 bf 74 03 75 40 d3 5c e5 bf 85 fe ac be
       -1.5006721 3.8283358 -1.7918953 -0.33787933
000130 2f 84 a4 3f a7 51 b3 c0 fb f3 36 bf b5 ff af 40
       1.2852839 -5.6037173 -0.71466035 5.499964
000140 e0 71 33 bf 9e d5 a4 3f 69 c6 5a 40 30 0c 6d bf
       -0.70095634 1.2877691 3.41836 -0.9259672
000150 36 89 5a be 62 31 f5 bf f9 45 4e c0 b1 61 96 40
       -0.21341404 -1.9155695 -3.2230208 4.699425
000160 2b c8 7e bf 62 3d c5 3d 80 2e 8c 3f 2d ab 1f bf
       -0.9952418 0.096308485 1.0951691 -0.6237057
000170 85 be 04 bf dc 02 db bf 6a d9 9f 40 25 56 90 bf
       -0.5185321 -1.7110248 4.99529 -1.1276289
000180 6c f1 ee bf 44 3c 0a 3f 80 b8 29 c0 1a de 91 bf
       -1.8667426 0.5399821 -2.651886 -1.1395905
000190 95 78 72 40 de 1b 43 40 86 14 05 c0 60 82 bb bf
       3.7886097 3.0485759 -2.0793777 -1.4649162
0001a0 96 dc d7 3f 7a 4a 08 3f df 80 0f 40 0b 20 c5 bf
       1.6864192 0.5323864 2.2422407 -1.5400404
0001b0 92 2a 84 3c a1 90 48 40 76 0d 56 3f 93 c3 bf bf
       0.01613358 3.1338274 0.8361429 -1.498156
0001c0 bf 87 9e bf cc d6 fb 3f e3 fa 02 c0 de 98 af bf
       -1.2385176 1.9674926 -2.046563 -1.3718526
0001d0 8f 26 5b 40 9b 60 ff bf 96 c2 99 bf 0c 4d 95 bd
       3.4242284 -1.9951357 -1.2012508 -0.07290086
0001e0 24 d4 36 c0 37 a3 d8 3e e0 17 c8 40 a9 75 71 40
       -2.856698 0.42312023 6.2529144 3.7728064
0001f0 c8 44 5d 3f 26 aa e0 40 9e d2 4d 40 eb 8a be c0
       0.86433077 7.02077 3.21598 -5.9544578
000200 d3 3f 12 3e 9f 88 ee 3e 57 ec 36 3f 86 0f da 3f
       0.1428216 0.4658861 0.71454376 1.7035987
000210 49 c1 7c 3f 4d b5 99 3f a2 b3 8c 3e f9 e6 62 3f
       0.9873243 1.2008454 0.274808 0.88633686
000220 1c ed 97 3f f3 1b 0c 3f b2 8d af 3f d1 5e a4 3f
       1.1869235 0.5473015 1.3715117 1.2841436
000230 47 f5 f5 3f 7a 5d 1e bd c3 14 84 3f 14 6f 60 3e
       1.9215478 -0.038663365 1.0318836 0.21917373
000240 9d bf 9a 3f a6 7f 71 be 5e 15 f0 3f 54 31 1b 3f
       1.2089726 -0.2358385 1.8756521 0.60622144
000250 2e c3 95 3f 70 cb e9 3e 60 1c 7d 3f cb ed df 3e
       1.1700189 0.45663023 0.9887142 0.4373611
000260 81 c7 46 be 47 18 5f 3f 38 c7 32 3f 93 f5 10 3f
       -0.19412042 0.8714642 0.69835234 0.56624717
000270 3c fc 15 3f a0 46 49 3e 4a 62 ad 3f e8 0e 29 3f
       0.58588004 0.19655848 1.354562 0.6603837

feature_net.linear_layer_output.bias f4 [5]
000000 13 4d db 3f b4 b1 e0 be 01 35 a0 3f 12 32 bc 3f
       1.7132896 -0.43885577 1.2516176 1.470278
000010 37 8e 5e 3f
       0.8693575

feature_net.linear_layer_0.weight f4 [32, 16]
000000 f5 3d 98 3f 07 a8 58 bd c4 5a b7 3d 75 46 14 bf
       1.1893908 -0.05289462 0.08952859 -0.5792001
000010 3c 48 6d bf 8d ed 6c be 50 ad 28 3f ca fa f1 3e
       -0.92688346 -0.23137493 0.65889454 0.4726165
000020 79 61 20 40 ac 31 88 bf bb 2e 7d bf 18 57 ac bf
       2.5059493 -1.0640159 -0.9889943 -1.3464079
000030 61 f2 57 bf b0 77 86 c0 c6 32 87 c0 cf 75 25 3f
       -0.84354216 -4.2021103 -4.224948 0.64632887
000040 5e ee 26 40 2c 1f 28 40 60 31 8f bf aa 15 55 3f
       2.6082988 2.6269026 -1.1186943 0.8323618
000050 51 b4 36 3f c0 9b d1 bf a2 0e dc 3f a9 fa 48 bb
       0.7136889 -1.6375656 1.7191966 -0.0030666983
000060 c1 2a 28 40 3b 6c fb bf 48 43 53 3f 17 c9 aa bf
       2.6276095 -1.9642404 0.8252454 -1.3342618
000070 e5 6d 3d c0 d5 72 10 bf f8 19 13 c0 24 96 2f bf
       -2.9598324 -0.5642522 -2.29846 -0.6858847
000080 26 97 f4 3f a8 9b c2 3f ac 2e 80 3d 5e 4d b8 3f
       1.9108627 1.5203753 0.06258902 1.439861
000090 49 ec 58 be 6f 0b 13 c0 af 51 b3 3f 9e 14 0f be
       -0.21183886 -2.2975729 1.4009303 -0.13972709
0000a0 42 9f 2a 3f 1a 66 26 c0 ec c6 74 c0 8d 05 98 bf
       0.6664926 -2.5999818 -3.8246412 -1.1876694
0000b0 72 9b 9e 3f ca d9 2f 3e ce a6 0b c0 fe 68 a8 be
       1.2391188 0.17172924 -2.182056 -0.32892603
0000c0 70 9d fa 3f c9 51 ff 3f 23 86 0d bf 52 2e 03 40
       1.9579296 1.9946834 -0.552828 2.0497022
0000d0 78 ec 5d 3f 8a 1a 76 bf 0e c2 fb be 37 5c 2a be
       0.8668895 -0.96134245 -0.4917149 -0.1663674
0000e0 11 d0 28 c0 56 35 90 3e 28 86 b8 c0 6f 4f 94 c0
       -2.6376994 0.28165692 -5.7663765 -4.6346965
0000f0 f3 ac a3 40 bc d0 1e 3f 9c 80 02 40 23 fa 2f 3e
       5.114862 0.62037253 2.0390997 0.17185263
000100 83 55 65 bf 17 15 4c 40 40 0b 81 40 d9 98 0f bd
       -0.89583606 3.1887872 4.0326233 -0.035057876
000110 8f ca 9d bf f5 d9 98 be 3a 20 7d be 1b e5 99 3d
       -1.2327441 -0.29853788 -0.24719325 0.075144015
000120 bc 22 7a 3f e1 ed d2 bf b9 3b 13 c0 af 18 b5 bf
       0.9770925 -1.6478845 -2.3005202 -1.4148158
000130 14 f8 da 40 fe c0 f3 c0 52 aa ef bf 34 2f 23 c0
       6.842783 -7.6173086 -1.8723853 -2.549756
000140 d1 d0 5f 40 4d 80 31 3f ad eb fe 3f f2 63 2a 40
       3.4971201 0.69336396 1.9915673 2.6623502
000150 5e 32 cf be 54 8a f1 be 1d 5b 7b 3c 87 ea 67 3e
       -0.40468115 -0.47175848 0.015341547 0.22648059
000160 57 18 41 3f e2 a9 50 3f 9e 19 f7 be 07 44 2f 3f
       0.75427765 0.8150922 -0.48261732 0.68463176
000170 df 4a 92 c0 dd d4 38 40 77 10 27 c0 23 f7 8f 3f
       -4.5716395 2.8879921 -2.61038 1.1247295
000180 cc 89 1d 40 ab ee 54 3f c6 1a 7d 3d 67 3d bc 3d
       2.4615355 0.8317668 0.06179311 0.09191399
000190 6c 1e 2b bf 53 20 7f 3e 31 f1 23 3e c8 b3 a1 3e
       -0.66843295 0.24914674 0.16009976 0.31582475
0001a0 cd 5c 17 40 75 1f 67 be 59 11 06 c0 a1 e4 15 bf
       2.365039 -0.22570594 -2.0948088 -0.58551985
0001b0 fc 2d 3e be 05 4e 49 c0 2e c5 1c c0 16 4f a3 be
       -0.18572229 -3.145387 -2.449535 -0.31896275
0001c0 51 c2 e5 bf df c7 1b 40 95 3f b4 bf d3 9a 41 bd
       -1.7949926 2.4340742 -1.4081904 -0.047266793
0001d0 bb fe 69 3e 61 e2 f2 be 4a 76 13 bf 48 fa 5c 3e
       0.22851078 -0.47438338 -0.5760237 0.2157985
0001e0 ed b8 e3 be 5a d6 7f be c7 97 b2 3e 81 53 8a 3e
       -0.44477025 -0.24984112 0.34881422 0.27016833
0001f0 3d 41 59 40 6f 01 fb c0 d8 70 f5 3e e1 b9 8d bf
       3.3946068 -7.843925 0.47937655 -1.1072351
000200 f5 c1 18 c0 94 82 1a 40 7a 83 12 c0 90 a0 81 3f
       -2.3868382 2.4142199 -2.2892747 1.0127125
000210 f5 cc 60 bd 58 b2 b8 be b1 f2 c7 3d e1 d3 81 3d
       -0.054882962 -0.36073565 0.097630866 0.06339241
000220 64 a0 25 3e 47 25 e8 be 68 32 18 bf 39 ca b1 be
       0.16174465 -0.4534094 -0.59451914 -0.34724596
000230 6e 9c 56 41 d5 f6 6b c0 01 dd 70 40 e4 96 55 b9
       13.413191 -3.6869404 3.763489 -0.00020369474
000240 5f 46 96 3f c5 68 18 c0 55 e9 27 3e ce 89 93 be
       1.1740226 -2.3813946 0.16397603 -0.28816074
000250 f0 9d a1 3a 90 7f d6 be c1 5e 58 be 2e 8e 06 3d
       0.0012330394 -0.41894197 -0.21129896 0.032850437
000260 9c ca 84 3e 51 6f 30 bf 1e 25 8b bf f8 9b d3 be
       0.2593583 -0.68919855 -1.0870702 -0.41329932
000270 de 16 5b c0 77 a2 48 41 14 18 8b bf f6 23 91 40
       -3.4232707 12.539664 -1.0866723 4.53564
000280 ee b3 26 3f 03 02 06 40 5c 47 81 bf 80 d7 49 bf
       0.651183 2.0938728 -1.0099902 -0.7884445
000290 61 a1 0d bf 70 e8 0b 3f ef 46 ad be f7 9a 3d bf
       -0.5532437 0.54651546 -0.3384318 -0.7406458
0002a0 37 94 5c 40 c2 79 ad 3f 9e 0a c1 3d 50 01 8a bf
       3.4465463 1.3552783 0.09425853 -1.078165
0002b0 ea 8d 46 c0 7b ba 69 c0 38 38 ce bf ba e4 81 3f
       -3.1024117 -3.6520069 -1.6110907 1.0147927
0002c0 5d 13 ac bf e7 bd 05 c0 b9 05 12 be 97 76 97 bf
       -1.3443409 -2.0897157 -0.14259996 -1.1833066
0002d0 9a 58 09 bf aa 48 c8 bd 1b 0b 7c 3e 29 eb d0 bd
       -0.5365082 -0.097794846 0.24613611 -0.10201103
0002e0 66 23 1c 3f 4b 51 6d bf 33 a7 da be b6 3f aa bf
       0.60991514 -0.9270217 -0.42705688 -1.3300693
0002f0 10 97 fe 40 21 69 51 41 9e 8b 7e 3f 0f 87 9d 40
       7.9559402 13.088166 0.9943179 4.9227366
000300 eb a0 4e 40 78 1e 91 3f c6 1e ae 3f 5a 1f f0 3f
       3.2285717 1.1337423 1.3603141 1.8759568
000310 c0 d7 9e 3c c9 68 3e bf fb 91 f3 3e 9b 95 fe be
       0.019389987 -0.7437864 0.47572312 -0.49723515
000320 d5 53 04 be 90 48 13 bf 31 ff e5 bf e0 16 62 be
       -0.12922604 -0.57532597 -1.7968503 -0.22079039
000330 85 ee 15 c1 b5 ec 02 c1 ce 21 24 c0 6a 20 6a bf
       -9.370732 -8.18279 -2.5645633 -0.9145571
000340 c2 49 d6 3f a8 92 c9 3f 96 4b 92 bf 25 1d 31 be
       1.6741259 1.5747881 -1.1429317 -0.17296274
000350 b1 ff 73 3e 27 04 85 3e de 91 19 3f 6a 8c 00 3f
       0.23828007 0.2597973 0.599882 0.50214255
000360 10 4e 01 bb 08 c9 47 3f e2 63 96 3f 0c fa 75 3f
       -0.0019730367 0.78041124 1.1749232 0.96084666
000370 78 de 91 c0 ee 1d b9 c0 4e f2 65 c0 cf ee 34 bf
       -4.558407 -5.7849035 -3.592914 -0.70676893
000380 28 b1 b5 3f 51 3f 76 bf 59 ae 98 3f 49 a5 d6 bf
       1.4194689 -0.96190363 1.1928207 -1.6769191
000390 54 ad 29 bf 9c 50 16 3f 38 f0 2a 3e 98 62 3c 3f
       -0.662801 0.5871675 0.16693199 0.7358794
0003a0 ad 28 0f 3f 5d ae 81 be 4d 8f ef 3e 4f e1 8c 3f
       0.5592144 -0.2532834 0.46789017 1.1006259
0003b0 35 b4 dd c0 26 ed 78 40 ab 3f 3e c0 49 b3 1f 40
       -6.928248 3.8894744 -2.972636 2.4953177
0003c0 50 46 67 bf 2c a9 1d 40 13 17 56 bf 62 58 56 bf
       -0.90341663 2.4634504 -0.8362896 -0.8372861
0003d0 dc 5d 83 bf f9 f9 ae 3e 2f 76 2f bf 8f 58 4b bf
       -1.0263019 0.3417509 -0.6853971 -0.79432005
0003e0 08 9f 08 3e 94 a5 0b 3f 51 74 d9 bf 52 43 93 3f
       0.13341916 0.5454953 -1.6988622 1.150492
0003f0 b9 0d 14 41 51 56 20 c0 0a 5e f9 3f 3b 2d 65 c0
       9.25335 -2.5052683 1.9481823 -3.5808856

feature_net.linear_layer_0.bias f4 [32]
000000 10 02 c7 3f 54 bb 0f bf 0c b1 d1 3f c3 1c b6 3f
       1.5547504 -0.56145215 1.6382155 1.4227527
000010 22 ee 95 bf 62 15 b4 be b2 34 0d 40 7f 30 86 3f
       -1.1713297 -0.35172564 2.2063413 1.048355
000020 c7 56 00 40 1d a5 fb 3f 73 ff f1 3f 22 75 e9 3f
       2.0052965 1.9659764 1.8906082 1.8238871
000030 3e e4 da 3e 09 65 36 3f 39 00 4f 40 4e 63 eb 3f
       0.4275226 0.7124792 3.2343886 1.838968
000040 fa 41 70 3f 01 a2 a1 3f ba 3c 4a 40 fb 3e c3 3f
       0.9385067 1.2627565 3.1599565 1.5253595
000050 4d bf 05 c0 43 c6 fb bf e9 66 8e 3e ab 9b c4 bd
       -2.089801 -1.966988 0.2781289 -0.09600004
000060 ea 3c 5c 40 e4 9e ad 3d ad 08 14 3f 6d ba f5 bd
       3.441218 0.084775716 0.5782574 -0.119984485
000070 c0 83 e3 bd f5 2f 51 bf 2e 2e 20 40 8d 14 d2 bf
       -0.11109114 -0.817138 2.5028186 -1.6412522

feature_net.layer_norm_0.weight f4 [32]
000000 e0 36 01 3e e7 32 06 3f 96 f2 a1 3e f3 a4 f3 3f
       0.1261859 0.5242142 0.3163039 1.9034714
000010 cc e1 3e 40 b6 6e 39 40 c2 73 9d 3e c1 84 ae 3f
       2.9825315 2.8973823 0.3075238 1.3634263
000020 b3 93 c4 40 da b4 a5 40 0c ce 4a 3e ce f9 b5 40
       6.1430297 5.1783266 0.19805163 5.6867437
000030 02 ba 74 40 52 b9 b8 3b ca 28 30 40 fe 98 88 3f
       3.823853 0.0056373263 2.7524896 1.067169
000040 3d 10 18 40 5f b5 fa 3f d1 5a 39 40 b4 4d 80 3f
       2.375991 1.95866 2.896168 1.0023713
000050 3e 05 07 40 e0 10 87 40 58 8c a0 40 6c 57 9c 40
       2.109695 4.22081 5.017132 4.8856716
000060 44 2a 39 40 ec 57 41 40 42 cd 0f 40 4a f6 fe 3f
       2.8932047 3.0209913 2.246903 1.9918911
000070 fd b7 fc 3f 41 88 13 40 2e 48 49 3d c0 96 af 40
       1.9743649 2.3051913 0.0491411 5.487152

feature_net.layer_norm_0.bias f4 [32]
000000 98 9e 30 bf df 44 aa bf d1 c2 94 bf 59 05 90 be
       -0.68991995 -1.3302268 -1.1621953 -0.2812908
000010 1d c3 59 bf ee 4c bc bf 64 2a 74 bf 9a 97 34 be
       -0.85063344 -1.4710977 -0.9537718 -0.17635956
000020 eb 61 85 3f 6a 68 ad 3f 34 16 3b bf 00 50 d3 3f
       1.0420507 1.354749 -0.73080754 1.6508789
000030 37 73 25 3f 22 ad e2 bd e0 d3 42 40 0b 09 a2 3f
       0.6462893 -0.11068179 3.0441818 1.265901
000040 f0 a2 66 bd 04 76 51 3e 73 c4 21 40 92 69 c5 be
       -0.056307733 0.20455176 2.5276153 -0.38557106
000050 4a e6 ae 3e 3f 36 ab bf 90 b4 06 3f 2b 1d da 3f
       0.34160072 -1.337593 0.52619267 1.7040151
000060 c1 06 1d 40 f1 97 cd be e9 99 e5 be a4 79 12 bd
       2.4535372 -0.40154985 -0.44843987 -0.035760537
000070 98 d2 a6 be a0 0d 14 bf ab e4 2f be cb cb 88 3e
       -0.32582545 -0.5783329 -0.17177074 0.26717982

feature_net.linear_layer_1.weight f4 [32, 32]
000000 73 20 76 bf 9b da 02 bf cb 7f 52 be 86 d3 24 40
       -0.96143264 -0.51114815 -0.20556562 2.5754104
000010 c9 2e 46 40 51 af 33 bf 01 ba d1 3e 1a 8f c7 3f
       3.0966055 -0.70189387 0.40962222 1.5590546
000020 cc 62 24 40 93 39 cd bf cd 25 aa 3e 8c 75 9e be
       2.56853 -1.6033195 0.33231965 -0.30949056
000030 dd 85 d3 bd ff 5a 0e 40 2f 11 2a 40 2a dd 6d 40
       -0.10328267 2.224304 2.6572988 3.7166238
000040 48 21 64 40 51 dc 9c 40 1c 7a c1 3f b0 a1 0c 40
       3.5645313 4.901894 1.511539 2.1973686
000050 d7 02 4f 40 c8 c7 9c 3f dd 18 12 be 80 bd ad 40
       3.2345483 1.2248468 -0.14267297 5.4293823
000060 48 01 0d 40 bc 8b da 40 e6 dc 6e 40 79 a4 83 40
       2.2032032 6.8295574 3.7322326 4.113827
000070 5f 88 50 3f 18 20 41 bd 45 6b af 3e 9c 41 5f c0
       0.81458086 -0.047149748 0.34261528 -3.4883795
000080 52 55 4f 3e b6 30 0b 3f 7c 8e 90 bd c7 47 86 3f
       0.20247391 0.543712 -0.07058427 1.0490655
000090 27 36 08 c0 b4 61 18 c0 00 1f 1e 3f 78 91 8b 3f
       -2.1283052 -2.3809633 0.6176605 1.0903769
0000a0 30 12 20 3f cd e1 7e c0 3e 6d 0a bf 3a 97 14 3f
       0.6252775 -3.9825318 -0.5407294 0.58043253
0000b0 55 7f 2f 3e d6 5a a6 40 71 dd 10 40 10 a0 37 40
       0.17138417 5.1985884 2.2635157 2.8691444
0000c0 8f 30 c1 40 a9 5d 33 3e a8 c3 f6 3f 6a a0 65 40
       6.0371776 0.17516197 1.927846 3.587916
0000d0 9f fd 57 c0 9e 23 8a 40 3d dd d8 bf 2b c5 64 3f
       -3.3748548 4.316848 -1.6942517 0.89363354
0000e0 c3 df ba 3e 33 ba 2c 40 8d bc 44 40 92 ba 80 40
       0.36498842 2.6988647 3.0740082 4.0227747
0000f0 a1 76 17 40 95 e6 4c 40 d6 cf a6 3e c4 7e 4e 3f
       2.3666155 3.2015736 0.3258044 0.8066218
000100 bb 65 4f be c0 3b de bf 3c 35 5c be 4b c8 b7 40
       -0.20253651 -1.7361984 -0.21504682 5.7432
000110 b8 6e 0a 40 27 3e 8c 3e af cd 51 3f 92 8b 54 3f
       2.1630077 0.27391168 0.81954473 0.8302547
000120 dc 87 be 3f ab 93 d2 3f 17 6d 66 3f f4 d8 07 3e
       1.4885211 1.6451315 0.9001021 0.13266355
000130 af 03 29 c0 e8 77 f4 3f eb cc da 40 c5 c4 91 40
       -2.6408498 1.9099092 6.8375144 4.5552697
000140 49 94 9d 40 8d 9e b0 40 0a 1d d3 40 2b ff 2d 40
       4.924351 5.5193543 6.597295 2.7186992
000150 a4 d8 21 40 20 da e2 3f d9 a9 29 c0 e3 39 a9 40
       2.5288477 1.7722816 -2.6509917 5.2883162
000160 ce 2b 99 40 e6 7e 99 40 14 a6 a1 40 c8 74 03 41
       4.7865973 4.7967405 5.051523 8.216011
000170 29 09 c7 3f 8e da 14 be 5f d5 9b 3f 66 7b 24 c0
       1.554967 -0.14536497 1.2174491 -2.5700316
000180 c8 24 c0 3e d1 9b 40 3d 5f 10 5c 3e 68 5c fe 3f
       0.37528062 0.047023598 0.2149062 1.987195
000190 e7 05 e4 bf 20 c8 f8 bf 7b 21 46 3f a7 c1 95 3f
       -1.7814301 -1.9436073 0.7739484 1.1699723
0001a0 4c b3 23 40 f3 70 21 40 85 8f 46 3f fa 56 d4 40
       2.5578184 2.5225189 0.77562743 6.6356173
0001b0 3c 20 61 3f 55 50 8f 3e 06 3e 42 bf 82 b9 83 3f
       0.8793981 0.27990976 -0.7587589 1.0290987
0001c0 58 64 d7 be 8b 92 29 40 64 56 5e c0 b3 d8 40 40
       -0.42068744 2.6495693 -3.4740229 3.0132263
0001d0 56 05 d9 3f fa 3a 91 40 66 19 4e 40 37 ae 1c 3f
       1.6954753 4.5384493 3.2203002 0.6120333
0001e0 db b4 02 c0 a8 91 82 40 94 a3 6d 40 50 1b b5 3f
       -2.0422885 4.0802803 3.713109 1.414896
0001f0 3c a6 b6 40 bb c4 35 40 ab f1 a8 3d 04 a1 10 41
       5.7077923 2.8401325 0.082492195 9.03931
000200 7d 81 a0 3e ad d8 92 be c7 4f 9a 3f c8 09 1e 40
       0.31348792 -0.28680936 1.2055596 2.469347
000210 ab ae f0 bf 57 17 80 bd e9 04 c0 3e 58 4c 81 40
       -1.8803304 -0.06254452 0.37503746 4.0405693
000220 64 63 37 40 0d 31 5b bf 14 e7 2d 3f 30 b1 28 40
       2.8654413 -0.8562172 0.6793072 2.6358147
000230 fd b6 3e 40 88 08 88 3f b2 d1 99 c0 91 94 5e 3f
       2.9799187 1.0627604 -4.8068476 0.86945444
000240 d8 db ec 3f d4 5f 23 40 54 06 d1 bf b5 12 8c 40
       1.8504591 2.552724 -1.6330056 4.3772836
000250 e8 75 fd 3f f7 de bd 40 ed b7 4b bf c8 fc e8 bf
       1.9801607 5.9334674 -0.79577523 -1.8202143
000260 0f f5 37 40 fb 4a b4 bf c2 83 6f be 9f db 17 3f
       2.8743322 -1.4085382 -0.23390105 0.5931949
000270 8a d9 d7 40 5e f0 1e 40 5b e8 e1 3e 14 14 92 40
       6.745305 2.4834208 0.44122586 4.564951
000280 6b 47 e2 3d 9a ad fa 3e c2 65 1e bf 44 0d 0d 40
       0.11048778 0.48960572 -0.6187402 2.2039347
000290 89 a1 db 3f c4 33 cd 3e 07 5e 8b 3e f1 8b 1d 40
       1.7158672 0.40078557 0.27220175 2.4616663
0002a0 4e 8b b0 3f bf b5 22 c0 cf d1 8f 3d 59 8e b0 c0
       1.3792512 -2.542343 0.0702244 -5.5173764
0002b0 88 fe 57 3f 69 66 3f bf bd 53 50 40 6f a3 5e 40
       0.8437276 -0.7476564 3.255111 3.4787252
0002c0 82 4f ad 40 43 c1 33 40 4e 91 c7 3f 81 9f ae 3e
       5.4159555 2.8086708 1.5591218 0.34106067
0002d0 e2 4f fa 3f e2 0a 2b 3f 17 3e 5b 3f 34 9d 33 40
       1.9555628 0.6681348 0.85641617 2.80647
0002e0 0c 9e 92 40 c1 13 01 40 76 e7 fc 3f 9c df 3d 40
       4.581793 2.0168307 1.9758136 2.966773
0002f0 4d 28 83 3f 4b 6a 2c 40 c1 ec 83 3f ed 7b 16 3f
       1.0246674 2.6939876 1.0306627 0.58782846
000300 5a 1c 17 bd da 6f 1f 40 a6 3f 6d 3d a1 2a 31 40
       -0.036892273 2.4912019 0.057922028 2.7682269
000310 d6 6e ad 3f 77 1c da 40 6b a1 5e 3e a6 ac 34 3e
       1.354945 6.8159747 0.21741264 0.17643985
000320 3b 5b cd 3e 9b d8 83 3f 27 20 dd be 40 72 b7 3e
       0.40108666 1.0300478 -0.43188593 0.35829353
000330 01 9f c0 3e 4a 29 45 40 d6 9d 86 40 b9 97 ab 3f
       0.3762131 3.080645 4.206767 1.3405677
000340 cb 6e 24 40 f2 bd 51 40 89 17 a3 40 1c 4a 26 40
       2.5692623 3.2772183 5.096623 2.5982733
000350 af 38 31 40 ad f4 90 40 58 e8 74 c0 51 41 d2 40
       2.7690847 4.5298676 -3.8266811 6.570473
000360 fd c2 db 3f e2 24 8d 40 0e 8c 60 40 a3 91 1f 40
       1.7168881 4.4107523 3.5085483 2.493264
000370 5c 61 1b 40 cc 88 1d 40 07 61 f3 be 10 a9 0d 3f
       2.4278173 2.4614744 -0.47534963 0.55336094
000380 a2 16 23 bd cc df 80 bf c2 45 fe 3e 20 ad 04 40
       -0.039816506 -1.0068297 0.49662596 2.0730667
000390 92 40 e1 3f d7 94 1b 40 a1 3a f4 3e e5 0d 5a 40
       1.759783 2.4309595 0.4770098 3.407098
0003a0 d0 fb cb 3f b5 4b b8 bf a3 b1 9a 3f 7b a7 dc bf
       1.5936222 -1.4398104 1.208546 -1.7238611
0003b0 cb 43 67 40 9f 4d c9 3f 1a 39 01 3f 7a d6 f0 bf
       3.6135128 1.5726813 0.50477755 -1.8815453
0003c0 09 c8 56 3f dd 78 08 40 28 ff 3b c0 7a f4 90 3f
       0.8389898 2.132377 -2.9374485 1.1324608
0003d0 1a 55 a5 40 dd 26 9d 3f 32 0f 55 40 e7 d3 08 40
       5.1666384 1.2277485 3.3290524 2.1379335
0003e0 99 25 66 3f 63 61 f5 3f 2e 52 ae 3f 13 e6 55 3e
       0.8990112 1.9170345 1.3618829 0.20888548
0003f0 35 e4 37 3f 47 d7 f7 3f c8 a0 6b 3e ef b5 2b 40
       0.7183259 1.9362572 0.23010552 2.6829793

feature_net.linear_layer_1.bias f4 [32]
000000 b2 64 72 40 29 43 89 3f 4d bb 0a 41 54 f1 ec bf
       3.787396 1.0723621 8.670728 -1.8511147
000010 a3 5a 12 3f 6e ac c4 40 cb 57 60 40 c2 17 01 40
       0.5716955 6.1460485 3.5053585 2.017075
000020 1c 35 a3 40 00 6e 8c 40 69 6d 08 be a6 78 81 3f
       5.100233 4.3884277 -0.13322987 1.0114944
000030 d5 7d d1 3f 0c 85 53 3f 91 c6 c4 40 6d 74 ae bf
       1.6366526 0.8262489 6.149239 -1.362928
000040 66 ec 46 40 1a 27 c4 3f 98 68 a8 3f 61 a6 42 40
       3.1081786 1.5324433 1.315692 3.041405
000050 62 3e 67 40 64 5a 0d 3f 99 7a 96 3f 5a 9a 82 40
       3.6131825 0.5521605 1.1756164 4.0813417
000060 f4 bf 6c 3f ce 2f 0c 41 46 6e ab bf ae 2d 00 40
       0.924804 8.761671 -1.3393028 2.002788
000070 5f ac 46 40 00 87 9f 40 18 5f 94 bc 31 60 c9 40
       3.1042707 4.9852295 -0.01811175 6.292992

feature_net.layer_norm_1.weight f4 [32]
000000 6e fc 8c 40 b5 e4 0e 40 b1 70 84 3e b2 cf c2 40
       4.405814 2.2327092 0.25867227 6.0878534
000010 49 a9 c7 40 2a 27 5e 40 33 14 5b 3f 43 3c 09 41
       6.2394147 3.4711404 0.85577697 8.577212
000020 9c a4 c8 3e 79 cc 3d 3f f0 71 0a 41 49 a1 0a 40
       0.39188087 0.74140126 8.652817 2.166094
000030 87 49 8c 3f fe 18 7e 40 d8 66 8e bf 80 34 95 40
       1.0959939 3.9702754 -1.1125135 4.6626587
000040 40 46 48 3f 1e 82 23 40 08 b0 bd 3f a9 c5 4f 40
       0.78232193 2.5548167 1.4819345 3.2464392
000050 ef 2e ec 3f f4 55 12 3f c7 6a 0a 41 28 5e a5 40
       1.8451823 0.57162404 8.651069 5.1677437
000060 af ff ae 40 fe 08 6e 3e 7b b4 d5 40 0f 01 d9 3f
       5.4687114 0.23245618 6.6782813 1.6953448
000070 38 79 86 40 15 dd 68 40 c5 dc c3 40 2d 43 92 40
       4.202297 3.6384938 6.1206994 4.5707

feature_net.layer_norm_1.bias f4 [32]
000000 fb 73 09 40 ee 6f 16 bf 0e e1 7a bf 83 79 3c bf
       2.147704 -0.5876454 -0.97999656 -0.7362291
000010 d9 ce 9b 3d 6b 29 1b 40 31 d3 df bf 2f be c1 3f
       0.076078124 2.424403 -1.7486326 1.5136164
000020 bc e8 53 bf cf 37 79 bf 7c b7 63 3f d8 7a 85 3f
       -0.82777 -0.9735078 0.8895185 1.0428114
000030 83 0b 86 bf 2e 67 bf 3e ba 6f af be 88 a9 4b bf
       -1.0472263 0.37383407 -0.34264928 -0.7955556
000040 5c f2 e9 bf a2 6a c2 3f 39 16 4d bf a0 e4 30 3f
       -1.8277087 1.5188792 -0.80112034 0.69098854
000050 2d 9c 74 3f 8b 05 87 bf 77 ca 04 40 0e cf 23 40
       0.95550805 -1.0548567 2.0748575 2.5595126
000060 0f 28 d1 3f 97 9a 88 bf a6 c3 a5 be c7 25 9c bf
       1.634035 -1.0672177 -0.3237583 -1.2199029
000070 63 5b 9b 3f 06 cd 2a 40 55 52 98 3f c5 c5 55 40
       1.2137264 2.6687636 1.1900126 3.340196

feature_net.linear_layer_output.weight f4 [5, 32]
000000 fc a5 14 bd 5c 09 2d 40 db 30 90 3d 05 7c 98 3f
       -0.036291108 2.7036963 0.070405684 1.1912848
000010 05 a6 b8 3f be 47 09 40 71 e7 f5 3f e5 2c 24 3e
       1.4425665 2.1450038 1.9211255 0.16032751
000020 c2 1b fd 3f 03 1a 85 3a 68 68 66 bf 2a 3b 15 40
       1.9774096 0.0010154847 -0.9000306 2.331736
000030 0c 0d 25 40 db f8 e8 3f 63 d5 81 bf cf 7c 2c 40
       2.5789213 1.8200945 -1.0143245 2.6951177
000040 e5 af ce 3f 99 e3 9b bf 46 5a 57 40 20 59 4c 40
       1.6147429 -1.2178832 3.3648849 3.1929398
000050 30 e4 2c 40 00 ea f9 3d 27 ef 88 3f 0a c2 0d 3f
       2.7014275 0.12202835 1.0697984 0.55374205
000060 1c 19 59 40 26 b8 2b be 13 ce 45 40 11 79 d9 3f
       3.3921576 -0.16769466 3.0907028 1.6990072
000070 38 4f 01 40 2e f3 b6 3f 5d f9 98 3f eb 8c ed 3e
       2.0204601 1.4292963 1.19511 0.46396574
000080 74 54 ff 3f a1 4b 26 40 7a eb 9b 3f 89 b2 81 40
       1.9947648 2.598366 1.2181237 4.053044
000090 22 7b 65 c0 07 69 41 bd a8 02 24 3f 46 0a 08 c0
       -3.5856404 -0.047219303 0.64066553 -2.125627
0000a0 95 7e 95 bc 2a 24 ab 3f 2b 95 c6 3f 91 b7 67 40
       -0.018248836 1.3370411 1.5514272 3.620579
0000b0 a0 53 d0 bc 4f c6 c5 3f 92 fd 47 3f 35 3b ba 40
       -0.0254305 1.5451144 0.7812129 5.8197274
0000c0 a6 d7 be bf ab de 6f 3e f4 4a 9b be fe 4f 97 bf
       -1.4909561 0.23424785 -0.30330622 -1.1821287
0000d0 10 5a 0b 40 46 98 dd bd 3a a9 d2 c0 2f dc 47 c0
       2.177372 -0.108200595 -6.5831575 -3.122814
0000e0 a0 38 fe 3e f5 12 08 3e 0e b8 a7 40 85 9f e3 3f
       0.49652576 0.13288482 5.2412176 1.7783056
0000f0 e8 6e 10 c0 7c e0 6f bf 48 6c 80 c0 d0 d2 af bf
       -2.2567692 -0.9370191 -4.013218 -1.373621
000100 aa 54 56 bf f4 27 68 40 44 2d fc 3d 88 8e 22 c1
       -0.8372294 3.6274385 0.12313321 -10.159798
000110 fd 8e d7 c0 d4 4d ce 3f 8b 9d 27 3e ca ef 33 c0
       -6.7362046 1.6117501 0.16368692 -2.8115106
000120 68 85 2b bf 57 3b 5a bd 25 e5 f2 3f 05 0a c1 bf
       -0.67000437 -0.053279247 1.8976179 -1.5081183
000130 78 b8 0e c0 13 18 7a c0 66 15 f4 3f f6 20 70 40
       -2.230009 -3.9077194 1.906903 3.7520118
000140 b3 81 6f bf 89 3f 2b 3f 67 f4 0d c0 7e 22 e2 3f
       -0.9355728 0.6689382 -2.2180421 1.7666776
000150 3e 49 fd be d6 9d b9 bf 91 fa a5 40 41 b6 56 40
       -0.49469942 -1.4501293 5.1868367 3.354874
000160 df 36 9a 3e 67 bf 2b bf d6 bf 08 c0 9e 12 33 40
       0.30119988 -0.6708893 -2.1367087 2.7980113
000170 87 63 66 40 9d 89 bc 3f 8f b1 95 40 98 a3 85 3f
       3.5998247 1.4729496 4.6779246 1.044055
000180 08 98 1b c0 d6 2c 2e bd 49 cd 3b 3f 25 72 af 40
       -2.4311543 -0.042523228 0.73360115 5.4826837
000190 cb c7 6c 40 a7 53 06 c0 ce d5 9c be e3 05 44 c0
       3.6996944 -2.0988557 -0.3063187 -3.0628593
0001a0 1b e6 89 40 ae de d5 3f 59 b1 40 c0 28 58 e7 3e
       4.309339 1.6708581 -3.0108244 0.45184445
0001b0 1f b8 87 40 f0 62 b0 3f 22 d6 ec 3d c8 9a 57 40
       4.2412257 1.3780193 0.1156428 3.368822
0001c0 ae f6 61 3f 28 53 f4 3f 06 67 b6 3f c0 1c d1 3f
       0.8826703 1.9087877 1.425019 1.6336899
0001d0 6b 40 90 3e c1 9c 87 3f d0 93 5e 40 64 a2 bf 3f
       0.28174147 1.0594712 3.4777718 1.4971433
0001e0 d1 95 7e 40 f1 5c be 3f 7d 3b 11 41 0a 85 1e 40
       3.977894 1.4872113 9.0770235 2.47687
0001f0 b0 d3 78 40 d8 ce e9 bf f6 8b 8b 3d e2 86 23 c0
       3.8879204 -1.8266249 0.06813805 -2.5551076
000200 c7 2e 53 40 34 bd 94 bf 19 cc 81 3d f6 b2 9c c0
       3.29973 -1.162024 0.06337757 -4.896846
000210 70 10 b7 c0 45 6f c6 3f a6 e5 0d 40 8d c2 9d 40
       -5.7207565 1.5502707 2.2171416 4.929999
000220 19 57 01 bf e8 5f 96 bf 6a 2d 55 40 f3 54 ef bc
       -0.50523525 -1.1748018 3.3308969 -0.029215312
000230 f8 b4 8a 3f b9 bc 36 c0 c1 b1 70 3e 74 f9 ca 40
       1.0836477 -2.8552687 0.23505308 6.342951
000240 79 95 4f 3f e5 59 a2 c0 04 0f 27 c0 1c 1e f8 be
       0.8108745 -5.0734735 -2.6102915 -0.48460472
000250 8a 63 a1 3f a1 c8 53 bf 11 39 1c c0 e4 90 b3 bf
       1.2608502 -0.8272801 -2.440983 -1.4028592
000260 8a 6b c7 c0 b3 ef 47 be 7c e6 a5 c0 47 0b 8c bd
       -6.2318773 -0.19525032 -5.1843853 -0.068380885
000270 00 32 9b be e2 00 b5 bf a7 3e 84 3f 6d 91 13 40
       -0.30311584 -1.4140894 1.033162 2.305751

feature_net.linear_layer_output.bias f4 [5]
000000 94 2e 5b 3f 17 97 e4 be b3 a7 ca 3f be eb 1b c0
       0.8561795 -0.44646522 1.5832428 -2.4362636
000010 d3 08 d7 bd
       -0.1049973
