otk/AgileRL-MATD3/simple_tag_v3/result/20240102-0837/MATD3_trained_agent_0005000.pt (torch, 865330 bytes, 448 tensors)

feature_net.linear_layer_0.weight f4 [32, 16]
0	0x3e974357	0.29543564
1	0xbddeaf19	-0.10873241
2	0x3ca3fa19	0.020016717
3	0x3e49feaf	0.1972606
4	0xbd88d78c	-0.06681737
5	0x3e3a01cc	0.18164748
6	0x3f8f779f	1.120838
7	0x3f588078	0.8457103
8	0xc0039187	-2.0557573
9	0xbefe7280	-0.49696732
10	0x3f2ad1a7	0.66726154
11	0x3ff335cd	1.9000794
12	0xc0358022	-2.8359456
13	0xbf35f9fe	-0.7108458
14	0xbfd6de45	-1.6786581
15	0xbd66b285	-0.056322593
16	0xbf11e288	-0.56986284
17	0xbd1b8a48	-0.037973672
18	0x3f841170	1.0317822
19	0xbeb26206	-0.3484041
20	0xbf4d9900	-0.80311584
21	0xbe4e6328	-0.20155013
22	0xbec37308	-0.381737
23	0x3e622888	0.22085774
24	0x403f3951	2.9878733
25	0xbfcfa0d4	-1.6220956
26	0xbe8edf60	-0.27904797
27	0x3e5f3037	0.21795736
28	0xc0604915	-3.5044606
29	0x3f8b8ee9	1.0902988
30	0x3da747ac	0.08167967
31	0xbd9815ce	-0.07426034
32	0x3e702e5b	0.23455183
33	0x3eb66156	0.35621136
34	0x3fa73a86	1.3064735
35	0xbf1a20db	-0.60206383
36	0x3dcf58a1	0.101243265
37	0xbee1a286	-0.44069308
38	0xbf691fef	-0.9106435
39	0x3f66d87a	0.9017407
40	0xbfff1daa	-1.9930928
41	0x3f756dd7	0.9587073
42	0x3fa4b675	1.2868181
43	0x3ea99d83	0.33127984
44	0xbf658bb5	-0.896663
45	0x3fb33427	1.4000291
46	0x3dd51cd4	0.10405889
47	0x3ed7c650	0.42143488
48	0xbf8e095b	-1.1096605
49	0x3dc57b9b	0.096427165
50	0xbeb3c217	-0.35109016
51	0x3f1e3ca2	0.6181127
52	0xbf89a436	-1.0753238
53	0xbf26bec7	-0.65134853
54	0xbf777aa9	-0.9667154
55	0xbeb255be	-0.3483104
56	0xc0065c27	-2.0993745
57	0x3e81de1e	0.25364774
58	0x3f32c808	0.69836473
59	0x3fdb1904	1.7117009
60	0x3f6dd9b6	0.92910326
61	0x3f205af7	0.626388
62	0xbeeba8ac	-0.46027124
63	0x3ff7f5d8	1.93719
64	0x3ece6cf0	0.40317488
65	0x3ee4ff57	0.4472606
66	0x3f453412	0.7703258
67	0x3eb8e3c2	0.36111265
68	0xbf16226b	-0.5864627
69	0xbe243c9a	-0.16038743
70	0xbf28eeb6	-0.65989244
71	0x3ebde648	0.37089753
72	0x3f830635	1.0236269
73	0x3dcaecf4	0.099084765
74	0x3fabe19b	1.3428224
75	0xc0162237	-2.3458383
76	0xc02bcec1	-2.6844943
77	0x3fba6266	1.4561279
78	0xbf9cbfdc	-1.2246051
79	0x3fb10eb3	1.3832611
80	0x3d899bec	0.06719193
81	0x3f01b811	0.5067149
82	0x3f837481	1.0269929
83	0x3f84e274	1.0381608
84	0xbe8445bb	-0.2583445
85	0x3e103c40	0.14085484
86	0xbf32e541	-0.69881064
87	0x3f531bdd	0.8246439
88	0x3ff94058	1.9472761
89	0x3853a220	5.045731e-05
90	0xbecf3c92	-0.404759
91	0x3af6b813	0.0018823169
92	0xc055bd75	-3.3396885
93	0xbfcbe5df	-1.5929526
94	0xbf3b5006	-0.7316898
95	0x3eac9bda	0.33712655
96	0x3de453c2	0.11148788
97	0xbfba1076	-1.4536273
98	0xbe7844fd	-0.24245067
99	0xbf9728f3	-1.1809372
100	0x3e7b577b	0.2454509
101	0xbcfe5932	-0.031048391
102	0xbe93b238	-0.28846908
103	0x3eaa398c	0.3324703
104	0xbef78da6	-0.48350257
105	0x3f4d4a4a	0.8019148
106	0xc01f064b	-2.484759
107	0x3f8ee31b	1.1163057
108	0x4006dd52	2.1072583
109	0xbf872ebc	-1.0561137
110	0xbeb42be1	-0.35189727
111	0x3f0591e0	0.5217571
112	0x3f860902	1.0471499
113	0x3e9db6b4	0.30803454
114	0x3fa86890	1.315691
115	0x3f85daff	1.0457457
116	0x3e43cc64	0.19120938
117	0x3d9c1950	0.076220155
118	0xbf4aabbe	-0.7916831
119	0x3dcdf753	0.10056939
120	0xbff0c007	-1.8808602
121	0x3f7ef5f7	0.9959406
122	0x3f84918f	1.0356921
123	0xbe69edda	-0.2284464
124	0xbffc1838	-1.9694891
125	0xc039c734	-2.9027834
126	0xbf012bed	-0.5045765
127	0xbfb5b268	-1.419507
128	0x3fa2a755	1.2707316
129	0x3ec8e5b2	0.39237744
130	0x3ee87c71	0.4540744
131	0xbeeba37c	-0.46023166
132	0x3f232d1b	0.637407
133	0x3f32be6f	0.6982183
134	0xbde44296	-0.11145513
135	0x3e8eb802	0.27874762
136	0xc0396486	-2.8967605
137	0x3f8a064c	1.0783172
138	0x3d812d24	0.06307438
139	0x3ec80fe0	0.39074612
140	0xbf0668b7	-0.5250353
141	0x3f72dad2	0.94865143
142	0x3f5af18e	0.85524833
143	0x3ec89249	0.39174107
144	0x3ebaab46	0.36458796
145	0xbbc8a8e9	-0.0061236513
146	0x3e8dc3c9	0.27688435
147	0x3f84ab9e	1.0364873
148	0x3e3bdb2d	0.18345328
149	0x3f389db8	0.7211566
150	0xbf925caa	-1.1434529
151	0xbaa754a2	-0.0012766311
152	0xbf294472	-0.66120064
153	0x3d7ef86b	0.06224863
154	0x40169193	2.3526351
155	0xc01ef9e7	-2.4840028
156	0xbff40858	-1.9065046
157	0x3fdfa2d6	1.7471569
158	0xbf6e6d8a	-0.93135893
159	0x3f416eae	0.7555951
160	0x3f0bc450	0.54596424
161	0x3ed0414d	0.4067482
162	0x3f083159	0.532003
163	0x3f61e747	0.88243526
164	0xbef9711e	-0.48719114
165	0x3f66fe56	0.90231836
166	0xc00ce3e6	-2.2014098
167	0xbe0004f6	-0.12501892
168	0xbf812693	-1.0089897
169	0xbf0461d4	-0.51711774
170	0x3f92119c	1.1411624
171	0x3ece3d00	0.40280914
172	0xbe814779	-0.25249842
173	0x3f12a7e4	0.5728743
174	0xbe53896f	-0.20657896
175	0x3f89136d	1.0709053
176	0x3f892016	1.0712917
177	0xbf0642cf	-0.5244569
178	0xbf372c30	-0.715518
179	0x3d665bbc	0.05623983
180	0x3e9a9cc4	0.30197728
181	0x3f1c2a34	0.61001897
182	0xbe075387	-0.13215457
183	0x3e0228e8	0.12710917
184	0xc0671888	-3.6108723
185	0x3e5601d2	0.20899132
186	0x3facd9f4	1.3504014
187	0x3dfe6c8d	0.12423048
188	0x400bc46f	2.1838644
189	0x3ee330aa	0.44373065
190	0x3f23a9e0	0.63931084
191	0x3f80927c	1.0044703
192	0x3fa2f53e	1.2731092
193	0x3f109500	0.56477356
194	0xbd2efccc	-0.042721555
195	0xbef3105f	-0.47473428
196	0x3e078f22	0.13238195
197	0xbf25cfba	-0.6477009
198	0xbf5ee364	-0.8706572
199	0x3ee7477c	0.45171726
200	0xc000951b	-2.0091007
201	0x3fa3bc70	1.2791882
202	0x3facb3be	1.3492353
203	0x3f779c9c	0.9672334
204	0xbfe7cc25	-1.8109175
205	0x3f7b9b4a	0.9828383
206	0x3d7fc05c	0.062439308
207	0x3f76e51c	0.96443343
208	0x3f190a52	0.5978137
209	0x3f345f14	0.7045758
210	0x3eeccda0	0.4625063
211	0xbe2780f3	-0.16357784
212	0x3ec1e78b	0.37871966
213	0xbf4b25ce	-0.7935456
214	0xbf47db55	-0.7806905
215	0x3f09be1a	0.53805697
216	0xbff16755	-1.885966
217	0x3fd1eea6	1.6400955
218	0x3f5ab755	0.8543599
219	0x3e517778	0.2045573
220	0xbfb45106	-1.4087226
221	0xbe1f2519	-0.15541495
222	0xbff33f6e	-1.9003732
223	0x3fdf046a	1.7423222
224	0x3f83fb39	1.0311042
225	0xbf1c1181	-0.6096421
226	0x3f72aa86	0.9479145
227	0xbea2b80c	-0.31781042
228	0xbea0ee20	-0.31431675
229	0x3f68b4ac	0.90900683
230	0xbf558f74	-0.8342202
231	0x3e64f325	0.22358377
232	0xbfc2dd9a	-1.5223877
233	0x405cf230	3.452282
234	0x3d53f3d8	0.05174622
235	0x3f284fe1	0.65746886
236	0x3ffc69fe	1.9719846
237	0xc026f44a	-2.6086602
238	0x3f0be84e	0.54651344
239	0xbfcd39ed	-1.6033303
240	0x3d97ed8e	0.07418357
241	0x3eab24d0	0.33426523
242	0x3e2bbff1	0.16772439
243	0xbf21a17d	-0.63137037
244	0x3ea6474e	0.32476276
245	0x3dbdc947	0.09266906
246	0xbe18c097	-0.14917217
247	0x3eba0858	0.3633449
248	0x3e60d2c1	0.21955396
249	0xc0671e39	-3.6112196
250	0x3f31f21f	0.6951007
251	0x3f14db62	0.5814725
252	0xbfb3d065	-1.4047972
253	0x4088a6ad	4.270346
254	0xbd1e794a	-0.03868989
255	0x3f3ad4b8	0.72980833

feature_net.linear_layer_0.bias f4 [32]
0	0x3f7e995c	0.9945276
1	0xbf8ed4a1	-1.1158639
2	0x3f014fe5	0.50512534
3	0xbe8f432f	-0.27980945
4	0x3f59d568	0.8509126
5	0x3fba7497	1.456683
6	0x3fc577ee	1.5427225
7	0x3ee14fe5	0.44006267
8	0xbf7ace47	-0.97971004
9	0x3df55241	0.11978579
10	0x3ea395aa	0.31950122
11	0x3e1514a9	0.14558662
12	0xbe91f6c3	-0.28508577
13	0xbd0253f6	-0.031818353
14	0xbecbd52b	-0.39811072
15	0x3f39a36e	0.72515
16	0x3f9aa48f	1.2081469
17	0x3ffc32a7	1.9702958
18	0x3f213e31	0.6298552
19	0x3f939f2e	1.1532953
20	0x3e504bda	0.20341435
21	0x3f924346	1.142678
22	0x3e39ec28	0.18156493
23	0xbc8527c7	-0.016254319
24	0xbf917963	-1.1365169
25	0x3f9fc485	1.2481848
26	0xbe934c01	-0.28768924
27	0x3fb4fdfd	1.4140011
28	0x3e05eb19	0.13077964
29	0x3fd22eeb	1.6420568
30	0x3ffd05c0	1.976738
31	0x3e980d02	0.29697424

feature_net.layer_norm_0.weight f4 [32]
0	0x3fc039ea	1.5017674
1	0x4059afff	3.401367
2	0x3e9ab698	0.30217433
3	0x3fc7bb6c	1.5604072
4	0x3ffdd9ca	1.9832089
5	0x3f7a6e3a	0.9782444
6	0x40217353	2.5226638
7	0x3fafc65d	1.3732411
8	0x3f0afb8c	0.5429008
9	0x4003e5b0	2.060894
10	0x3e9e370e	0.30901378
11	0x3fba8c34	1.4574037
12	0x3ec272b9	0.3797815
13	0x3e462451	0.19349791
14	0x408ff126	4.498187
15	0x409a91ec	4.8303127
16	0x401e575d	2.4740822
17	0x3fe9f728	1.8278551
18	0x3f7d06a2	0.98838246
19	0x400d2d82	2.2059026
20	0x3efc92d8	0.49330783
21	0x402332b7	2.5499704
22	0x3f51c40f	0.81939787
23	0x3feeb359	1.8648483
24	0x3f51f479	0.8201366
25	0x400d4c8e	2.2077975
26	0x3eeebb6d	0.4662737
27	0x401f4219	2.4884093
28	0x3fa07bd1	1.2537786
29	0x3fe60f00	1.7973328
30	0x3f717ba6	0.943293
31	0x4061730f	3.5226476

feature_net.layer_norm_0.bias f4 [32]
0	0xbe681c99	-0.22667159
1	0x3c979964	0.01850576
2	0xbf71cf36	-0.94456804
3	0xbe48fff1	-0.19628884
4	0x3eb27bcf	0.34860083
5	0x3f727408	0.947083
6	0x3f236458	0.6382499
7	0x3e950410	0.29104662
8	0xbfa28e32	-1.2699645
9	0xbd4e2716	-0.050330244
10	0xbf8c2980	-1.0950165
11	0x3f07f415	0.53106815
12	0xbf867ff1	-1.0507795
13	0xbf31bb9a	-0.6942688
14	0x3f274fe4	0.6535628
15	0x3f9ae7c1	1.2101976
16	0x3fd6302c	1.6733451
17	0x3f0319aa	0.51211035
18	0xbea49ea6	-0.3215229
19	0x3e8fc420	0.2807932
20	0xbeea12ff	-0.45717618
21	0x3f0c53e4	0.54815507
22	0xbe2a4391	-0.16627337
23	0xbe8cbe9a	-0.27489167
24	0xbf8e3c4e	-1.1112154
25	0xbb992f77	-0.0046748477
26	0xbf944ff0	-1.1586895
27	0x3f6e3969	0.9305635
28	0xbedee0e9	-0.43530968
29	0xbd0ee9e4	-0.034891024
30	0x3f2c213c	0.6723821
31	0x3ed41fdd	0.4143056

feature_net.linear_layer_1.weight f4 [32, 32]
0	0xbeef951a	-0.46793443
1	0x400325f8	2.0491924
2	0x3e6c646b	0.23085181
3	0xbefbfb59	-0.492152
4	0x3fa8a7be	1.3176191
5	0x3ff863c9	1.9405452
6	0xbf4032ff	-0.75077814
7	0x3f7ce1c9	0.9878202
8	0x3f3e807f	0.7441482
9	0x3feb3d8d	1.8378159
10	0x3e5d55ca	0.21614757
11	0x3e06dab6	0.13169369
12	0x3e08a2b2	0.13343313
13	0xbec140bc	-0.377447
14	0x3e724be0	0.23661757
15	0x3fd996a8	1.6999102
16	0x400ab2b7	2.167158
17	0xbf901b01	-1.1258241
18	0x3f1f94b2	0.62336266
19	0x3f345118	0.7043624
20	0x3f29922e	0.6623868
21	0x3f4fb835	0.8114045
22	0x3f44cb78	0.7687297
23	0x3ed26f0a	0.4110034
24	0xbf4ed31e	-0.8079089
25	0x3e9737aa	0.29534656
26	0x3e33197e	0.17490193
27	0xbe088900	-0.13333511
28	0x3ef3766e	0.47551292
29	0xbfafb99b	-1.3728517
30	0x3cfe6adf	0.03105682
31	0x3fc4a54a	1.5362942
32	0xbe1f1ad1	-0.15537573
33	0x3ffd5a2b	1.9793142
34	0x3dcb6082	0.09930517
35	0x3fca58f5	1.5808398
36	0x40184bd7	2.379629
37	0xbf6c5831	-0.9232207
38	0x3f754515	0.95808536
39	0xbe6bd512	-0.23030499
40	0xbf2e08b6	-0.6798204
41	0x40372b2b	2.8620098
42	0x3f84e9ef	1.0383891
43	0x3fa09cdf	1.2547873
44	0x3f41c9d8	0.75698614
45	0xbea01619	-0.3126686
46	0xbf648feb	-0.892821
47	0x4028dda4	2.6385279
48	0x40351864	2.8296137
49	0xbf379a60	-0.7171993
50	0x3fc6044c	1.5470061
51	0xc031b36f	-2.7765768
52	0x3fa3623e	1.2764356
53	0x40367c69	2.8513434
54	0x3f846ff4	1.0346665
55	0xbe70dc1a	-0.23521462
56	0x3fae878c	1.3635116
57	0x400437d5	2.0659077
58	0x3fbb08b1	1.4612027
59	0x40070a3f	2.1100004
60	0x40204527	2.5042207
61	0xbfd0ca60	-1.631176
62	0xbee6a810	-0.45050097
63	0x405c9e7b	3.4471729
64	0x3f3635d9	0.71175915
65	0xbf87ec86	-1.0619056
66	0x3d8d4b7f	0.06899165
67	0xbf183aff	-0.5946502
68	0xbfb1764a	-1.3864224
69	0xbe37d931	-0.17953946
70	0x3f2194bb	0.6311757
71	0x3f201619	0.6253372
72	0x3f71a117	0.9438643
73	0x3f3b7401	0.7322388
74	0xbf4bbca3	-0.7958471
75	0x3f8be5e6	1.0929534
76	0xbf5183c0	-0.8184166
77	0x3e293bfe	0.16526791
78	0x4044585d	3.0678933
79	0xbfacf38c	-1.3511825
80	0xbe79a70e	-0.24380133
81	0x3f051db2	0.51998436
82	0xc01f1315	-2.4855397
83	0xbf99ac71	-1.200575
84	0x3fb18bfa	1.3870842
85	0xbfc280f8	-1.5195608
86	0xbd45e5d9	-0.048314903
87	0xbf7f8360	-0.9980984
88	0xbeb65074	-0.35608256
89	0x3ec09bfb	0.37619004
90	0x3e26d839	0.1629342
91	0xbf4e00d7	-0.8047003
92	0x3f861309	1.0474559
93	0x3f484c08	0.78241014
94	0xbfe530c2	-1.7905505
95	0xbedbfecd	-0.42967835
96	0xbf04e5c6	-0.51913106
97	0xbe08cf79	-0.13360395
98	0xbea95efa	-0.33080274
99	0x3f882f86	1.0639503
100	0xbf1a055b	-0.6016442
101	0xbf828f4a	-1.0199978
102	0x3fc37f71	1.5273267
103	0x3d0f9850	0.035057366
104	0x3f2653c3	0.6497156
105	0x3eda3d36	0.42624825
106	0x3f8a61c0	1.0811081
107	0x400c2f25	2.1903775
108	0x3f27eb0a	0.65593016
109	0xbea5e843	-0.32403764
110	0x40b04d5a	5.5094423
111	0xbde93137	-0.1138634
112	0xbf092f96	-0.53588235
113	0x405e4891	3.473179
114	0x3f23db42	0.64006436
115	0xbe825ec4	-0.25462925
116	0xbf52b810	-0.8231211
117	0xbdaf802d	-0.085693695
118	0xbe2e7227	-0.17035733
119	0x3e8cabca	0.27474815
120	0x3f348040	0.70508194
121	0xc0026f8f	-2.038059
122	0x3e90f72f	0.28313586
123	0x3f492ed7	0.78587097
124	0x3fe9bb5a	1.82603
125	0x3f85e5a3	1.0460705
126	0x3fcf5d8d	1.6200424
127	0x3fa091e1	1.2544519
128	0xbcf2aa5e	-0.029622253
129	0x3e0ca95b	0.13736479
130	0x3e24a44d	0.16078301
131	0x40713097	3.7685907
132	0xc0218098	-2.5234737
133	0xbfc12f91	-1.5092641
134	0x3e01fba0	0.12693644
135	0x3eb59cea	0.35471278
136	0xbdec4b9b	-0.11537858
137	0xc0538e86	-3.305574
138	0xbdf01e82	-0.11724569
139	0x3f9752f7	1.1822194
140	0x3f5751ac	0.84108996
141	0x3f901555	1.125651
142	0x3fffd476	1.9986713
143	0xbf9dcebd	-1.2328717
144	0xbea11a6f	-0.3146548
145	0xc0031028	-2.047861
146	0xbf9f6a5e	-1.2454336
147	0xbfd6f9d6	-1.6794994
148	0xbfd09765	-1.6296202
149	0x3e8cf5b4	0.27531207
150	0xbfec8a99	-1.8479797
151	0x3ee89c77	0.45431873
152	0x3d783beb	0.060604017
153	0xbf39c23f	-0.7256202
154	0xbfc6eecc	-1.5541625
155	0xbf6fcf55	-0.9367574
156	0xbf595623	-0.8489706
157	0xbfb99cf3	-1.4501022
158	0x3cf96394	0.03044299
159	0xbf0efb48	-0.55852175
160	0xbf9dd826	-1.2331588
161	0x40035459	2.0520232
162	0xbe1407f3	-0.14456157
163	0x3f54f2da	0.8318306
164	0x3f4aa1df	0.79153246
165	0x3f1cba8c	0.6122215
166	0x3f90d5e5	1.1315275
167	0xbfbccdbb	-1.4750284
168	0x3fe6d755	1.8034464
169	0x3f21541c	0.63018966
170	0x3f124ac0	0.5714531
171	0x3fc7066b	1.5548834
172	0x3eb2a978	0.3489492
173	0xbf249f92	-0.64305985
174	0x3f0ea73d	0.55723935
175	0x3e8e9610	0.27848864
176	0x400039a6	2.0035186
177	0xbfaaef50	-1.3354282
178	0x3fd501d0	1.6641178
179	0xbd1ee193	-0.038789343
180	0x3fa84b62	1.3148005
181	0x408161f4	4.043207
182	0x3fa9d87c	1.3269191
183	0xc00a46e2	-2.1605763
184	0xbe9d5293	-0.30727062
185	0x3fe961d8	1.8232985
186	0xbfb02d29	-1.3763782
187	0x3fa66dda	1.3002274
188	0x3f1aa705	0.604111
189	0xbf3ac0e8	-0.729506
190	0x3ccecda7	0.025244547
191	0xbeda713a	-0.4266451
192	0x3f14b7da	0.58093035
193	0xbd13104c	-0.035904214
194	0xbe807d6e	-0.25095695
195	0xbf258150	-0.6465044
196	0xbddfd00f	-0.10928356
197	0x3f7b3a9e	0.9813632
198	0x3f01c212	0.5068675
199	0x3face29f	1.3506659
200	0x3ef48d45	0.4776403
201	0xbe9209ce	-0.28523105
202	0x3ecb242f	0.39676043
203	0xbf343560	-0.70393944
204	0xbe6f614c	-0.2337696
205	0x3f1ad823	0.6048605
206	0x4022b8e1	2.542534
207	0xbf9c52eb	-1.2212805
208	0x40408822	3.008309
209	0x3fb8a552	1.4425452
210	0x3f476c3c	0.7789953
211	0x401bb779	2.4330733
212	0xbfcb6613	-1.5890526
213	0x3f356349	0.7085462
214	0x3fcc3dca	1.5956357
215	0x3f410483	0.7539751
216	0xbda128b6	-0.07869093
217	0xbff6edbe	-1.9291303
218	0xbfb4669d	-1.4093815
219	0x3df5d884	0.12004188
220	0xbf826295	-1.0186335
221	0xbea72281	-0.32643512
222	0xbee1dcdf	-0.44113824
223	0x4060e0ee	3.5137286
224	0x3ea437b4	0.32073748
225	0xbf61754d	-0.8806961
226	0x3f529295	0.82254916
227	0x3ee7073e	0.45122713
228	0xbfc1a91e	-1.5129735
229	0xc00fa4c4	-2.2444315
230	0x3f0c45ba	0.54793894
231	0x3f8a399d	1.0798832
232	0xbf50c651	-0.81552607
233	0xbebc0760	-0.36724377
234	0xbf0421b3	-0.5161392
235	0xbf00efb8	-0.5036578
236	0xbec257ce	-0.37957615
237	0xbeb90f9b	-0.3614472
238	0x3f036bdd	0.5133646
239	0xc0445040	-3.067398
240	0xbf05dc14	-0.5228894
241	0x3ed71154	0.42005408
242	0xbffff4b6	-1.9996555
243	0xbf9da6e5	-1.2316557
244	0x3e6e0dc6	0.23247442
245	0xc0067d10	-2.1013832
246	0xbd13b43c	-0.036060557
247	0xbed8ae75	-0.423206
248	0x3e47dfd0	0.19518971
249	0xbf012f44	-0.50462747
250	0x3ee7fe4e	0.45311207
251	0xbf6e14b2	-0.9300033
252	0xbf03e2e1	-0.51518065
253	0xbf69e70d	-0.9136818
254	0xbefbc44c	-0.491732
255	0xbffb099a	-1.9612305

feature_net.linear_layer_1.bias f4 [32]
0	0xbd519e98	-0.051176637
1	0x3f7ef5bc	0.9959371
2	0x3d0d9fc2	0.034576185
3	0x3e67243b	0.22572415
4	0xbf5ec8b8	-0.8702502
5	0x3f0362c3	0.51322573
6	0x3f5dbb15	0.8661359
7	0x3e52b442	0.20576575
8	0x3e75660f	0.23964714
9	0x40057979	2.085539
10	0xbee2e614	-0.4431616
11	0x3f16689e	0.58753383
12	0x40306c00	2.7565918
13	0xbf7266db	-0.94688195
14	0x3f238307	0.63871807
15	0x3dd73675	0.10508434
16	0xbf339be1	-0.7015973
17	0x3fd23ac3	1.6424183
18	0xbdcf5614	-0.1012384
19	0x3ed88a92	0.4229322
20	0x3fc56614	1.5421777
21	0x3ebb9b2a	0.36641818
22	0xbf78a667	-0.9712891
23	0x3fda7ef7	1.7069997
24	0xbf0b4de5	-0.5441573
25	0x3f871719	1.0553924
26	0x3fa2e40d	1.2725846
27	0x40094755	2.1449788
28	0x3f9376ee	1.152067
29	0x3f4945b1	0.78621966
30	0xbd983594	-0.07432094
31	0xbfb1c220	-1.3887367

feature_net.layer_norm_1.weight f4 [32]
0	0x4058a35c	3.3849707
1	0x409789c3	4.7355666
2	0x40240cff	2.5632932
3	0x40a134c1	5.0376897
4	0x4012709d	2.2881234
5	0x4022ee42	2.545792
6	0x4078f628	3.8900242
7	0x3fe39557	1.777995
8	0x401f59e4	2.4898615
9	0x40680914	3.625554
10	0x40acd466	5.4009275
11	0x408367ba	4.106412
12	0x40a77c87	5.233951
13	0x4085e6a1	4.184403
14	0x4056c432	3.3557248
15	0x40868b2d	4.204489
16	0x40407a7a	3.0074754
17	0x40567961	3.3511584
18	0x407baa96	3.9322867
19	0x3f8f7e2c	1.121038
20	0x407b7cd5	3.9294941
21	0x406c9de1	3.6971362
22	0x400f005d	2.2343972
23	0x404390f0	3.0557213
24	0x4018b75e	2.3861918
25	0x3f522a2b	0.82095593
26	0x4092a812	4.5830164
27	0x3fbe4f5e	1.4867971
28	0x4093ab00	4.614624
29	0x40538514	3.3049974
30	0xbd03f961	-0.032220248
31	0x406cb915	3.6987965

feature_net.layer_norm_1.bias f4 [32]
0	0x3f2a0780	0.66417694
1	0x3ff65a32	1.9246275
2	0x3eef3e76	0.4672734
3	0x3f8689a7	1.0510758
4	0xbf16724b	-0.5876815
5	0x3f36f1e1	0.7146283
6	0x3f386a7f	0.720375
7	0x3ea30dd6	0.31846493
8	0x3f22aa2b	0.63540906
9	0x40155b9c	2.3337164
10	0x3e6ba327	0.23011456
11	0x3f63cf91	0.88988596
12	0x40145702	2.3178105
13	0x3f1e4f84	0.6184008
14	0x3ef8973a	0.48552877
15	0x3f2d1a25	0.6761802
16	0xbec6127e	-0.38685983
17	0x3ea7c394	0.32766402
18	0x3edc8383	0.43069085
19	0x3f28659a	0.6578003
20	0x3f8cd725	1.1003157
21	0x3d7954da	0.060871936
22	0xbf9c83e1	-1.2227746
23	0x4008283c	2.1274557
24	0xbea21b6f	-0.31661555
25	0x3fcfbcf7	1.6229542
26	0x3f908191	1.128954
27	0x40037c0a	2.0544457
28	0x3fc5b032	1.5444396
29	0x3f116a00	0.5680237
30	0x3f95f66e	1.1715829
31	0xbf3b76ed	-0.7322834

feature_net.linear_layer_output.weight f4 [5, 32]
0	0xbf607e14	-0.8769238
1	0x40c2e0b1	6.089928
2	0x3d616dc1	0.05503631
3	0xbf59c172	-0.850608
4	0x3f5f1b30	0.8715086
5	0x403091f4	2.7589083
6	0x3efd7cac	0.4950918
7	0xbe4e21e3	-0.20130114
8	0xbee9b0b3	-0.45642623
9	0xbe159bc4	-0.14610201
10	0x3ffa3399	1.9546996
11	0xbfcacd2f	-1.5843867
12	0x3f92c7fa	1.1467278
13	0x3d37a54a	0.044835366
14	0x3fba5f1b	1.4560274
15	0xbfacbc6f	-1.3495005
16	0x400d8c0a	2.2116723
17	0x3f380f91	0.7189875
18	0x3ecc886e	0.39947838
19	0xbea99f94	-0.3312956
20	0x4007b354	2.1203203
21	0x40973420	4.725113
22	0x401967f2	2.3969693
23	0xbf400773	-0.75011367
24	0xbe38bf39	-0.18041696
25	0x3fd28b7e	1.644882
26	0x3fe2b7a5	1.7712294
27	0xbe7cafd3	-0.24676447
28	0x40968fab	4.7050376
29	0x3f30c052	0.6904346
30	0x3ffd6cf6	1.9798877
31	0x3e870eca	0.2637847
32	0xbf888d0e	-1.0668046
33	0xbda7bb56	-0.08190028
34	0x3fb3398e	1.4001939
35	0x3f3ef7ff	0.7459716
36	0x3fa13fcd	1.2597595
37	0xbfbd7b6c	-1.480329
38	0xc0843b6f	-4.132255
39	0x3e8b773c	0.27239406
40	0xbea568ee	-0.32306617
41	0xbedeec93	-0.43539867
42	0xc050b5c7	-3.2610948
43	0x4052f79d	3.296363
44	0xbfaacf7f	-1.3344573
45	0xc08bb226	-4.3654966
46	0x401eff3f	2.484329
47	0xbffe96d5	-1.988978
48	0x3d391982	0.04519034
49	0xbe1dfbb4	-0.15428048
50	0xbe864045	-0.2622091
51	0x3f0d343d	0.55157834
52	0x3fe0a7df	1.755123
53	0x3f38919a	0.7209717
54	0x3f76b360	0.96367455
55	0x3e577a9d	0.21042867
56	0xbe2ec890	-0.17068696
57	0x3ff08885	1.8791662
58	0x3fd2db02	1.6473086
59	0x3fb12423	1.3839153
60	0xbea019e9	-0.31269768
61	0x3dd5a232	0.10431327
62	0x3ea1494a	0.31501228
63	0xc01b3455	-2.425069
64	0x40911d59	4.5348325
65	0x3f926868	1.1438112
66	0xbfe90be6	-1.8206756
67	0xc0a814d4	-5.2525425
68	0xbf1d4b78	-0.6144328
69	0xbea5d86e	-0.32391685
70	0xc040aa71	-3.010403
71	0xbfd50936	-1.6643436
72	0xc0056715	-2.0844166
73	0xbeca6fdc	-0.39538467
74	0x3fa3fa77	1.2810811
75	0xbe3092c2	-0.17243484
76	0xbf8a0826	-1.0783737
77	0xc0233291	-2.5499613
78	0xbfb3e899	-1.4055358
79	0x40a2e759	5.0907407
80	0x4004e983	2.0767524
81	0xc01ddb97	-2.4665277
82	0x40ae46f5	5.4461617
83	0x3fd6a725	1.6769758
84	0xbf3c4e70	-0.73557186
85	0xc01cd8c3	-2.45073
86	0xbf3bebf1	-0.73406893
87	0x3fe83e97	1.8144101
88	0xc00dd504	-2.2161264
89	0xbe6a2d0b	-0.22868745
90	0xbf2a45d5	-0.66512805
91	0xbfa6ed91	-1.304125
92	0xbede76e1	-0.43450072
93	0x3f066193	0.52492636
94	0xbf0fa5fb	-0.5611264
95	0xc0210857	-2.516134
96	0xbf2cc540	-0.6748848
97	0x3fd9a468	1.7003298
98	0xbfcf4369	-1.6192447
99	0xbf83fa8b	-1.0310835
100	0x404d38ec	3.2065992
101	0x4012a3d2	2.2912488
102	0xbf067e62	-0.52536595
103	0xbe11d79d	-0.14242406
104	0x3f4093b7	0.75225395
105	0x401403c1	2.3127291
106	0x3e28c7d5	0.1648248
107	0xbf19aa96	-0.6002592
108	0x3f9aa53c	1.2081676
109	0xbe82b0c5	-0.2552549
110	0xbe821cc1	-0.25412562
111	0xbf441e84	-0.76609063
112	0xc018b7bf	-2.386215
113	0x3fa3d72d	1.2800041
114	0x3ecf42d4	0.40480673
115	0xbf08b497	-0.5340056
116	0xbe601a5b	-0.21885054
117	0xbf800129	-1.0000354
118	0xc035f484	-2.843049
119	0x3ff13ca8	1.8846636
120	0xbf95121e	-1.1646154
121	0x3f562431	0.83648974
122	0x409613f6	4.6899366
123	0x400beb01	2.1862185
124	0x3f539699	0.8265167
125	0x4099b5ba	4.8034334
126	0x3fb322b9	1.3994972
127	0xc03ac702	-2.9183965
128	0x3e123fd3	0.1428216
129	0x3eee889f	0.4658861
130	0x3f36ec57	0.71454376
131	0x3fda0f86	1.7035987
132	0x3f7cc149	0.9873243
133	0x3f99b54d	1.2008454
134	0x3e8cb3a2	0.274808
135	0x3f62e6f9	0.88633686
136	0x3f97ed1c	1.1869235
137	0x3f0c1bf3	0.5473015
138	0x3faf8db2	1.3715117
139	0x3fa45ed1	1.2841436
140	0x3ff5f547	1.9215478
141	0xbd1e5d7a	-0.038663365
142	0x3f8414c3	1.0318836
143	0x3e606f14	0.21917373
144	0x3f9abf9d	1.2089726
145	0xbe717fa6	-0.2358385
146	0x3ff0155e	1.8756521
147	0x3f1b3154	0.60622144
148	0x3f95c32e	1.1700189
149	0x3ee9cb70	0.45663023
150	0x3f7d1c60	0.9887142
151	0x3edfedcb	0.4373611
152	0xbe46c781	-0.19412042
153	0x3f5f1847	0.8714642
154	0x3f32c738	0.69835234
155	0x3f10f593	0.56624717
156	0x3f15fc3c	0.58588004
157	0x3e4946a0	0.19655848
158	0x3fad624a	1.354562
159	0x3f290ee8	0.6603837

feature_net.linear_layer_output.bias f4 [5]
0	0x3f961906	1.1726387
1	0x3faca1ba	1.3486855
2	0x3ea9d414	0.33169615
3	0x3fe0e4ab	1.7569784
4	0x3f5e8e37	0.8693575

feature_net.linear_layer_0.weight f4 [32, 16]
0	0x3f1ed03a	0.6203648
1	0xbef22b84	-0.47298825
2	0xbe6fb2a1	-0.23407985
3	0x3e0363cc	0.12831038
4	0xbec5a0e8	-0.38599324
5	0xbda528ee	-0.08064447
6	0x3f1cdf93	0.6127865
7	0x3ee69956	0.4503886
8	0x3fef8aa5	1.8714186
9	0xbe37b03e	-0.17938325
10	0xbe95cdf5	-0.29258695
11	0xbf79930c	-0.9749
12	0xbf8ef1e1	-1.1167566
13	0xbf6d7cc4	-0.927685
14	0xc02edc59	-2.732199
15	0x3f93da27	1.155095
16	0x3f96e2a8	1.178792
17	0xba079a60	-0.0005172845
18	0xbe047f49	-0.1293918
19	0xbfb8da17	-1.4441556
20	0x3eb80528	0.35941434
21	0xbf3a1a37	-0.7269625
22	0x3f328137	0.69728416
23	0x3fa344fc	1.2755427
24	0x3ec7de14	0.3903662
25	0xbd95c2ba	-0.07312532
26	0x3d33b838	0.043876857
27	0xbf8ad562	-1.0846369
28	0xc03dd8eb	-2.9663646
29	0x40044756	2.066854
30	0xbfe51b3f	-1.789894
31	0x3f886c0c	1.0657973
32	0xbe0e0d8c	-0.13872355
33	0x3f240bbc	0.64080405
34	0xbede4daa	-0.43418628
35	0x3dc345b1	0.09534777
36	0xbefca299	-0.49342802
37	0xbfaf7ff8	-1.3710928
38	0x3fbe0261	1.4844476
39	0x3f217e2e	0.6308316
40	0x3e8a6a6c	0.27034318
41	0xbf66d35b	-0.9016625
42	0xbfb1b8da	-1.3884537
43	0xbf420b34	-0.75798345
44	0xbf08a7f1	-0.5338126
45	0x400d282c	2.205577
46	0xbfafdce4	-1.3739285
47	0x3f7864ed	0.97029
48	0x3ebc8342	0.36818892
49	0x4035195c	2.8296728
50	0xbf3b5976	-0.7318338
51	0x3f2f4fed	0.6848133
52	0xbc733a27	-0.014845408
53	0xbf85a75e	-1.0441701
54	0x3da8eda3	0.082484506
55	0x3eb4cda2	0.35313135
56	0xbf7c929c	-0.9866121
57	0x3fba5a7c	1.4558864
58	0xbf836aef	-1.0267009
59	0xbff85d8d	-1.940355
60	0x40195e29	2.396372
61	0xbedfe294	-0.43727553
62	0xbfc7fa86	-1.5623329
63	0xbf22724b	-0.6345565
64	0xbf24fa75	-0.6444467
65	0x3fd7d155	1.6860758
66	0xbec5a44f	-0.3860192
67	0x3f3213eb	0.6956164
68	0xbf85311a	-1.040561
69	0xbf8e9c38	-1.1141424
70	0x3d0de704	0.03464414
71	0x3f5b7235	0.8572114
72	0xbf1b0756	-0.6055807
73	0x3f333d4f	0.70015424
74	0x3fd2f7f9	1.6481925
75	0xbf857e6d	-1.0429207
76	0x40584f30	3.3798332
77	0xc0823b27	-4.0697207
78	0xbebd92e2	-0.37026125
79	0xbdfc00e9	-0.12304861
80	0x3fe1c536	1.7638309
81	0xbea6bd88	-0.32566476
82	0x3f9f45f1	1.244322
83	0x3ebd856c	0.37015855
84	0xbee7dace	-0.45284122
85	0xbfa51eb2	-1.2899992
86	0xbf8de6e8	-1.1086092
87	0xbf10cd3b	-0.56563157
88	0x3f16e9c4	0.5895045
89	0xbd1de156	-0.038544975
90	0xbeddf855	-0.43353525
91	0x3fcc5a05	1.5964972
92	0xc0261cd3	-2.5955093
93	0x404af1bc	3.1710043
94	0xbfec4063	-1.8457149
95	0x3f81cf69	1.0141422
96	0x3fae8fc3	1.3637623
97	0x3e8f665f	0.2800779
98	0xbe4621a8	-0.19348776
99	0x3f23386b	0.6375796
100	0xbeb7a508	-0.35868096
101	0xbe0f0d0a	-0.13969818
102	0xbd027252	-0.031847306
103	0x3effb404	0.4994203
104	0x3fda543d	1.7056957
105	0x3ea6afb6	0.32555932
106	0xbe48456a	-0.1955773
107	0xbf10217b	-0.5630109
108	0xbe949863	-0.29022512
109	0xbfc3e418	-1.5303984
110	0xbfde3345	-1.7359396
111	0x3f9c03d3	1.2188667
112	0xbdc017c3	-0.09379532
113	0x400154fa	2.0208116
114	0xbf50856c	-0.81453586
115	0xbdfa1125	-0.12210301
116	0xbeb212ff	-0.34780118
117	0xbf010380	-0.50395966
118	0xbdbf6961	-0.09346271
119	0x3f10deb1	0.565898
120	0xbdf5466f	-0.11976325
121	0xbd723bd7	-0.0591391
122	0xbf607dbb	-0.8769185
123	0xbe76829f	-0.24073265
124	0x403b8e4d	2.9305604
125	0xc0a47ef4	-5.140497
126	0x3f859d5a	1.0438645
127	0xbdc33cb2	-0.09533061
128	0xbfc12ab9	-1.5091163
129	0x3f4d0a6c	0.8009403
130	0xbf11e720	-0.56993294
131	0x3f435e01	0.76315314
132	0xbe3939bc	-0.1808843
133	0xbec6b932	-0.38813168
134	0x3e9236bc	0.28557384
135	0xbe3e7062	-0.18597558
136	0x3cb9720b	0.022637388
137	0x3df4bf8f	0.119505994
138	0xbe47f305	-0.19526298
139	0xbcc5a5a4	-0.024126835
140	0x410b1e83	8.694949
141	0xbfee0b44	-1.8597188
142	0x3f9791f8	1.1841421
143	0x3ee87ae5	0.4540626
144	0x3f2aa065	0.6665099
145	0xbf972d53	-1.1810707
146	0x3e76fb00	0.24119186
147	0xbeadd23c	-0.3394946
148	0xbdc590c8	-0.096467555
149	0xbf2a674b	-0.6656386
150	0x3edbc3a0	0.42922688
151	0x3f016208	0.5054021
152	0x3dde41de	0.10852407
153	0xbd2a0275	-0.04150625
154	0xbe442346	-0.19154081
155	0xbd910f5e	-0.07083009
156	0xc01ab125	-2.417062
157	0x40ebf536	7.373683
158	0xbfd41478	-1.6568747
159	0x401e4607	2.4730241
160	0x3f380c23	0.7189352
161	0x3f31b6d7	0.69419616
162	0xbe7460d6	-0.23865065
163	0xbf5b7ada	-0.8573433
164	0xbec4b1c0	-0.38416862
165	0x3f14e5b1	0.5816298
166	0xbf0364ea	-0.5132586
167	0xbf10e789	-0.56603295
168	0x3feed6be	1.8659284
169	0x3fdb1450	1.7115574
170	0xbe2ca46f	-0.16859601
171	0xbfb1a650	-1.387888
172	0xbff9ba29	-1.9509937
173	0xbf075780	-0.5286789
174	0xbf9cf46b	-1.226209
175	0x4002a7e1	2.0414965
176	0xbf79b707	-0.975449
177	0xbf5aafa2	-0.85424244
178	0xbf0a50fd	-0.5402983
179	0xbf55bd76	-0.8349222
180	0xbdff9a9c	-0.12480661
181	0x3e9ce8cf	0.3064637
182	0xbec4c6f7	-0.38433048
183	0xbe4c2e03	-0.19939427
184	0x3da1121d	0.07864783
185	0xbebe3ae3	-0.37154302
186	0x3e7317c9	0.23739542
187	0xbd4a268c	-0.049353167
188	0x408e0d7c	4.439146
189	0x40c2e33d	6.090239
190	0x3f8a3da0	1.0800056
191	0x3fbd9639	1.4811469
192	0x3fcaf475	1.5855852
193	0x3fcd6615	1.6046778
194	0x3e815109	0.25257137
195	0x3f74e10c	0.95655894
196	0xbdcd7f40	-0.10034037
197	0xbe954706	-0.2915575
198	0x3e3cc642	0.18435004
199	0x3ec1ad84	0.37827694
200	0xbeaace35	-0.33360448
201	0xbd9a9bbc	-0.07549235
202	0x3efe4e98	0.49669337
203	0x3d7dda80	0.061975956
204	0xc0a43eef	-5.1326823
205	0xc08872fa	-4.264035
206	0xc00f0e42	-2.2352452
207	0xbf009ce2	-0.50239384
208	0xbe9d46d0	-0.30718088
209	0x3f75128f	0.95731443
210	0x3e20b2d9	0.15693225
211	0xbf605cd0	-0.8764162
212	0xbd3eccdb	-0.046582084
213	0xbe9de449	-0.3083823
214	0x3ea21212	0.31654412
215	0xbed40b9e	-0.41415113
216	0x3f6c892c	0.9239681
217	0x3e8aee74	0.2713505
218	0x3fb9c0fa	1.4512017
219	0x3f30df5e	0.6909083
220	0xc02378e4	-2.5542536
221	0xc03b65f6	-2.9280982
222	0xc0141b90	-2.3141823
223	0x3fa74e2b	1.307073
224	0x3f139fa3	0.5766546
225	0x3e30b844	0.17257792
226	0x3ec5b926	0.3861782
227	0x3eb28f23	0.3487483
228	0x3f24e4f9	0.64411885
229	0xbf048871	-0.51770693
230	0x3d9b4a2e	0.07582508
231	0xbedd4189	-0.43214062
232	0x3f727f85	0.9472583
233	0xbf96a484	-1.1768956
234	0xbe43bf84	-0.19116026
235	0xbdac3eec	-0.08410439
236	0xc0913433	-4.537622
237	0x3ffcd6f4	1.9753098
238	0xc0331b00	-2.798523
239	0x3f9c4922	1.2209818
240	0xbfa0e653	-1.2570289
241	0x3fcd4376	1.6036212
242	0xbf8d657a	-1.1046593
243	0x3ee2117a	0.4415396
244	0xbf35bd8d	-0.70992357
245	0xbddb059b	-0.106944285
246	0x3dd207c0	0.102553844
247	0x3f0edebd	0.5580862
248	0xbcf3809c	-0.029724412
249	0xbf47e3e9	-0.7808214
250	0xbe9b765b	-0.30363736
251	0xbe847939	-0.25873736
252	0x40d04d8a	6.509465
253	0xc0801af2	-4.003289
254	0x3f878f41	1.0590593
255	0xbf15958e	-0.5843133

feature_net.linear_layer_0.bias f4 [32]
0	0x3eefe96a	0.46857768
1	0xbfe24e1f	-1.7680091
2	0x3ddc629b	0.10760995
3	0x3fad788a	1.3552411
4	0x3f99b677	1.2008809
5	0xbd4ab4e7	-0.04948893
6	0x3f79a796	0.9752134
7	0x3fe4417d	1.7832485
8	0x3f95de36	1.1708438
9	0x3f5d713e	0.8650092
10	0x3f4e7cba	0.8065907
11	0x3f38f836	0.7225374
12	0x3eca5044	0.39514363
13	0xbe229083	-0.1587544
14	0x3f941597	1.1569089
15	0x3f56e845	0.83948165
16	0x3ff1f4a6	1.8902786
17	0x3f98cdce	1.1937807
18	0x3f00a0c4	0.5024531
19	0x3e8c43e4	0.27395546
20	0x3f17b6e8	0.5926347
21	0x3e80212d	0.2502531
22	0xbf401825	-0.7503684
23	0xbd839ef9	-0.06426806
24	0x40102d48	2.2527637
25	0x3f3bcbe7	0.73358005
26	0x3f8f5ddf	1.1200522
27	0x3f863200	1.0484009
28	0x3f85d5a3	1.0455822
29	0xbf599052	-0.8498584
30	0x3fcd67c0	1.6047287
31	0xbe5e6095	-0.2171653

feature_net.layer_norm_0.weight f4 [32]
0	0x3e0136e0	0.1261859
1	0x3f3e06dc	0.74229217
2	0x3ea1f296	0.3163039
3	0x3f92c6f9	1.1466972
4	0x3fc213c7	1.5162286
5	0x400449f5	2.067014
6	0x3e9d73c2	0.3075238
7	0x3fd99153	1.6997474
8	0x40788714	3.8832445
9	0x40735bbf	3.8024747
10	0x3e4ace0c	0.19805163
11	0x40486e89	3.1317465
12	0x4025d245	2.5909588
13	0x3fd89814	1.692141
14	0x400752ee	2.1144366
15	0x4012c178	2.2930584
16	0x3fd25559	1.6432296
17	0x3fcce324	1.6006818
18	0x3fc67868	1.5505495
19	0x3eaef2b9	0.34169558
20	0x3fbd57f2	1.4792464
21	0x4025cee7	2.5907533
22	0x4038cfa9	2.8876746
23	0x40429004	3.04004
24	0x3ff5fd03	1.9217838
25	0x400d0aae	2.2037768
26	0x3fb85279	1.4400169
27	0x3f896b09	1.073579
28	0x3f6fd9e0	0.93691826
29	0x404b72a8	3.178873
30	0x3f9ba7c0	1.2160568
31	0x3fe1a565	1.76286

feature_net.layer_norm_0.bias f4 [32]
0	0xbf309e98	-0.68991995
1	0xbf8db908	-1.1072092
2	0xbf94c2d1	-1.1621953
3	0x3dab48c6	0.0836349
4	0x3f257a57	0.646398
5	0xbf4a2ff2	-0.7897941
6	0xbf742a64	-0.9537718
7	0x3f796c33	0.97430724
8	0x3f6560a2	0.89600575
9	0x3f9c1394	1.2193475
10	0xbf3b1634	-0.73080754
11	0x3f1177e5	0.5682357
12	0x3eafc292	0.34328133
13	0x3e4b7163	0.19867472
14	0x3f3c6656	0.7359365
15	0x3fa1fcf3	1.2655319
16	0x3f30f164	0.6911833
17	0xbeb3ee3e	-0.35142702
18	0x3f87491c	1.0569186
19	0xbe9fef33	-0.31237182
20	0xbe12d8c3	-0.143405
21	0x3f2c8f9d	0.67406636
22	0x3e8502b2	0.2597862
23	0x3e566c04	0.20939642
24	0x3f8df35b	1.1089891
25	0x3d7c072d	0.06153028
26	0xbe6e255d	-0.2325644
27	0x3d1a27dc	0.03763567
28	0xbeb68e34	-0.35655367
29	0x3f1f60c7	0.62257046
30	0x3effc060	0.49951458
31	0xbe7ffddf	-0.24999188

feature_net.linear_layer_1.weight f4 [32, 32]
0	0xbf762073	-0.96143264
1	0x3eb0d7bf	0.345396
2	0xbe527fcb	-0.20556562
3	0x3fcb595e	1.5886648
4	0x3ffdd808	1.9831553
5	0x3dc9198a	0.09819324
6	0x3ed1ba01	0.40962222
7	0x3f6409cb	0.8907744
8	0x3fff1cd9	1.9930679
9	0xbffb3c67	-1.9627808
10	0x3eaa25cd	0.33231965
11	0xbec9068d	-0.3926281
12	0xbed0c069	-0.40771797
13	0x3f1d5044	0.614506
14	0xbe2b80e6	-0.1674839
15	0x3fa888f5	1.3166796
16	0x3f633e28	0.8876672
17	0x3fb1b9bd	1.3884808
18	0xbef03edc	-0.46922958
19	0x3ee60727	0.44927332
20	0x3de3a759	0.111159034
21	0x3ee312d8	0.44350314
22	0xbe42779b	-0.18990938
23	0x3ff2358c	1.8922591
24	0x3f204191	0.62600046
25	0x400fd64a	2.2474542
26	0xbf53bd6f	-0.8271093
27	0x3f005da6	0.50142896
28	0x3fe9edba	1.8275673
29	0xbfd6d0bc	-1.6782451
30	0xbeaef634	-0.34172213
31	0x3e0db0d1	0.13836981
32	0x3e4f5552	0.20247391
33	0x3ee66667	0.45000002
34	0xbd908e7c	-0.07058427
35	0x3f15b223	0.5847494
36	0x3fb721f0	1.4307232
37	0xc041fdaf	-3.0311086
38	0x3f1e1f00	0.6176605
39	0x3f9a1e95	1.2040583
40	0x40043573	2.0657623
41	0xbfa8daeb	-1.3191808
42	0xbf0a6d3e	-0.5407294
43	0x3f9c10c5	1.2192618
44	0x3fda9ffb	1.7080072
45	0x3cc84ef2	0.024451707
46	0xbfbc3635	-1.4704043
47	0x3fe8737c	1.8160243
48	0x3fa44b51	1.2835485
49	0xbf6a7b8a	-0.91594756
50	0xbf02c642	-0.5108377
51	0x402459e4	2.5679865
52	0x3fe90ab5	1.8206393
53	0x3f12564b	0.5716292
54	0x3fa8434e	1.314554
55	0xbf6df325	-0.92949134
56	0xbe983e8e	-0.29735225
57	0x3e022a4c	0.12711447
58	0x3f1df554	0.61702466
59	0x3f9c9622	1.2233317
60	0x3db1ddef	0.086849086
61	0x4003c896	2.0591178
62	0x3f195998	0.59902334
63	0xbe753912	-0.23947552
64	0xbe4f65bb	-0.20253651
65	0xbfc53cc3	-1.5409168
66	0xbe5c353c	-0.21504682
67	0x40178ba6	2.3678985
68	0x3f889e0c	1.0673232
69	0xbf55204d	-0.8325241
70	0x3f51cdaf	0.81954473
71	0x3f0e197b	0.5550763
72	0x3f99c4ca	1.201318
73	0x3fc90659	1.5705062
74	0x3f666d17	0.9001021
75	0x3f41bdc7	0.756802
76	0xbffbceca	-1.9672482
77	0x3f84281a	1.0324738
78	0x403ba4dc	2.9319372
79	0x3fe5c834	1.7951722
80	0x400f669e	2.2406383
81	0x405b84c2	3.429978
82	0x40281756	2.6264243
83	0x4009c729	2.1527808
84	0x402b6d36	2.6785407
85	0x3fc6cc47	1.553109
86	0x3f17a0ab	0.59229535
87	0x40656c39	3.5847304
88	0x3fff4db6	1.994559
89	0x3f51c8bc	0.8194692
90	0x4031cb92	2.77805
91	0x402b9c34	2.681409
92	0x3eccd847	0.40008757
93	0xbf8fbe0c	-1.1229873
94	0x3fae1e75	1.3603045
95	0xbe072f7c	-0.13201708
96	0x3ec024c8	0.37528062
97	0xbe39c95b	-0.18143217
98	0x3e5c105f	0.2149062
99	0x3f3ec3c8	0.7451749
100	0x3f97e122	1.186558
101	0xbe7de226	-0.247933
102	0x3f46217b	0.7739484
103	0x3ed49ac6	0.41524333
104	0x40400a53	3.0006301
105	0x3ea2e5bc	0.31815898
106	0x3f468f85	0.77562743
107	0x4067cf1a	3.6220155
108	0x3e2ac93c	0.16678327
109	0x3e89fead	0.26952115
110	0xbf081d92	-0.5317012
111	0x400b95c5	2.1810162
112	0x3ea5ed3d	0.3240756
113	0x3f3d778f	0.74010557
114	0xc02bc8a4	-2.6841211
115	0x3f927f8c	1.1445174
116	0x3f9a939a	1.2076294
117	0x3ee89fba	0.45434362
118	0xbf6fc90f	-0.93666166
119	0x3f54085c	0.82825255
120	0xbdf00582	-0.117198005
121	0xbe9dcb9c	-0.30819404
122	0xbe7d7141	-0.24750234
123	0x4000cee4	2.0126276
124	0x3ff1955d	1.8873707
125	0x402607d3	2.5942276
126	0xbee8fdbb	-0.4550608
127	0x3ffb3cb1	1.9627897
128	0x3ea0817d	0.31348792
129	0xbe425df5	-0.18981154
130	0x3f9a4fc7	1.2055596
131	0x3e96f014	0.2948004
132	0xbfc19244	-1.5122762
133	0x3f96a97c	1.1770473
134	0x3ec004e9	0.37503746
135	0x3f11d9de	0.56973064
136	0x3f977c7c	1.1834865
137	0x3faafce4	1.3358426
138	0x3f2de714	0.6793072
139	0x40184cbb	2.3796833
140	0xc02fcec3	-2.7469947
141	0x3ecab198	0.39588618
142	0x3e198a1b	0.1499409
143	0x3ebe54cf	0.3717408
144	0xbdbfe200	-0.09369278
145	0x3fe91d09	1.8211986
146	0x3fd1ff77	1.6406087
147	0xbed45c2c	-0.41476572
148	0x3ee3fc2b	0.44528326
149	0x3f77e224	0.9682944
150	0x3ea548c7	0.32282087
151	0xbebae46e	-0.36502403
152	0x3f696ba0	0.9117985
153	0x3f6ae274	0.9175179
154	0x3ee1a674	0.44072306
155	0x401def8e	2.4677463
156	0x3f81a99e	1.0129888
157	0x3ba73b14	0.005103478
158	0x3edbbe16	0.42918462
159	0xbf28b5a4	-0.6590216
160	0x3de2476b	0.11048778
161	0x3f933d0b	1.1503004
162	0xbf1e65c2	-0.6187402
163	0x3fc6ec25	1.5540816
164	0x3e8c8201	0.27442935
165	0xbf0d3a11	-0.5516673
166	0x3e8b5e07	0.27220175
167	0x3f25c844	0.64758706
168	0xbf6da0b0	-0.92823315
169	0xbf0bc2ba	-0.54594004
170	0x3d8fd1cf	0.0702244
171	0xbfd0605a	-1.6279404
172	0x3fc664c8	1.5499506
173	0xbf6e8066	-0.9316467
174	0x3fc84fd7	1.5649365
175	0x3dd95efc	0.1061382
176	0x3ff638ea	1.9236119
177	0x3f2efb3a	0.6835209
178	0x3e3674ff	0.17818068
179	0x3fb71039	1.4301826
180	0x3fb641c4	1.423882
181	0x3f317ab2	0.69327843
182	0x4046b4ef	3.1047933
183	0x3f904f24	1.1274152
184	0x4009caf1	2.1530116
185	0x3f541257	0.82840484
186	0x3f8ccd75	1.10002
187	0xbe76d329	-0.24103989
188	0x3de0ce83	0.10976889
189	0xbe43225a	-0.19056073
190	0x3f9a2281	1.204178
191	0x3ffa4d7a	1.9554894
192	0xbd171c5a	-0.036892273
193	0x4046fba6	3.1091094
194	0x3d6d3fa6	0.057922028
195	0xbf6774d8	-0.90412664
196	0xbeb9d76b	-0.36297163
197	0x4067cd58	3.6219082
198	0x3e5ea16b	0.21741264
199	0xc0009079	-2.008818
200	0xbfa39604	-1.2780156
201	0x3e7d8e36	0.2476128
202	0xbedd2027	-0.43188593
203	0xbf7254c7	-0.9466061
204	0x3da60661	0.081066854
205	0x3f8f9683	1.1217808
206	0x3effe0f4	0.49976313
207	0xbfdaa501	-1.7081605
208	0xbf30b6e1	-0.6902905
209	0x3ed1c692	0.4097181
210	0x3f0f2261	0.55911833
211	0x3f279667	0.6546387
212	0x3f93b8d3	1.1540779
213	0x3f041910	0.5160074
214	0xc0081c83	-2.1267402
215	0x409f83ab	4.9848228
216	0xbf83f7f6	-1.0310047
217	0x3f1a50ec	0.60279727
218	0x3f1f322f	0.6218595
219	0xbfa6fe19	-1.3046294
220	0xbebeb528	-0.37247586
221	0x3fcb9136	1.590369
222	0xbf74861d	-0.9551714
223	0x3f3095be	0.6897849
224	0xbd2316a2	-0.039816506
225	0xbef8d1ef	-0.48597667
226	0x3efe45c2	0.49662596
227	0x3f8970ef	1.073759
228	0xbefc75ef	-0.49308726
229	0x3fd80643	1.6876911
230	0x3ef43aa1	0.4770098
231	0x3eeaded0	0.45873117
232	0xbfbfb1fd	-1.4976193
233	0xbf89d1c4	-1.076714
234	0x3f9ab1a3	1.208546
235	0xc0277c1d	-2.6169503
236	0x3faf9f95	1.3720576
237	0x3fb21c50	1.391489
238	0x3f288c8a	0.65839446
239	0xc0020911	-2.0318034
240	0x3f5f547b	0.8723828
241	0x3fb8d840	1.4440994
242	0xbff8cf7b	-1.9438318
243	0x3e746810	0.23867822
244	0x3f963b60	1.173687
245	0xbfa0a98e	-1.2551744
246	0x3f6b842b	0.9199855
247	0x4009ae0d	2.1512482
248	0x3ee5e0eb	0.4489816
249	0x3fdc1600	1.7194214
250	0x402b35aa	2.6751504
251	0x3f919266	1.1372802
252	0x3ed11d4b	0.4084266
253	0xbfab87f1	-1.3400861
254	0x3ed34b3c	0.41268337
255	0x3fb7aba1	1.4349252

feature_net.linear_layer_1.bias f4 [32]
0	0x3f8f410c	1.1191726
1	0x3d4ea4fb	0.050450306
2	0x40753a9d	3.8317025
3	0xbe1e55c6	-0.15462407
4	0x3f5936da	0.8484932
5	0x40159013	2.3369186
6	0xbf7e3455	-0.992986
7	0x3fa22bf7	1.2669667
8	0x3ef89744	0.48552907
9	0x3edd2158	0.43189502
10	0xbd5f1171	-0.054459993
11	0x3e5aca1c	0.21366161
12	0xbeed766c	-0.4637941
13	0x3f477cb9	0.77924687
14	0x3f45cfe3	0.77270335
15	0xbebfc92a	-0.37458163
16	0xbf8a3da8	-1.0800066
17	0x3f42f6e3	0.7615797
18	0x3f9fce38	1.2484808
19	0x3f4a737c	0.79082465
20	0x3f59bd42	0.8505441
21	0x3e908e6e	0.28233665
22	0x3f4edab0	0.8080244
23	0x3fc1bd20	1.5135841
24	0x3f6545ce	0.8955964
25	0x40805716	4.0106306
26	0xbf35cd5a	-0.71016467
27	0x3eee8f97	0.46593925
28	0x40230d86	2.5477004
29	0x4011ca0d	2.2779572
30	0xbfb07f99	-1.378894
31	0x404c9b39	3.196974

feature_net.layer_norm_1.weight f4 [32]
0	0x4079724f	3.8976018
1	0x40438bda	3.0554109
2	0x3e8470b1	0.25867227
3	0x4049438d	3.144748
4	0x3fe4f7a1	1.788807
5	0x403fa7c2	2.9946141
6	0x3fbd6d57	1.4798993
7	0x40839f3a	4.113187
8	0x3ee83022	0.45349222
9	0x3fa2b056	1.2710063
10	0x4106104f	8.378982
11	0x40219509	2.5247214
12	0x3fd00f58	1.6254683
13	0x4045dcd4	3.0916033
14	0x3f75edf4	0.9606621
15	0x408e0852	4.4385157
16	0x3f960b08	1.1722116
17	0x404deece	3.2177005
18	0x40071af9	2.1110213
19	0x40258509	2.5862448
20	0x3fdd7a6a	1.7302983
21	0x4028140c	2.6262236
22	0x408a124a	4.3147326
23	0x4034b682	2.8236394
24	0x406f74b6	3.7414985
25	0x3e6e08fe	0.23245618
26	0x3fdc2270	1.719801
27	0x4025e67f	2.5921934
28	0x40550f06	3.329042
29	0x3ff3863e	1.9025342
30	0x407b4e17	3.9266412
31	0x40806806	4.012698

feature_net.layer_norm_1.bias f4 [32]
0	0x3f5894f6	0.84602296
1	0x3eaf8c60	0.34286785
2	0xbf7ae10e	-0.97999656
3	0x3d472cfc	0.048626885
4	0x3ec81b80	0.3908348
5	0x3f1295f7	0.5726008
6	0xbf92a3fa	-1.1456292
7	0x3f8f7ce1	1.1209985
8	0xbf3d4d54	-0.7394612
9	0xbf0bb252	-0.5456897
10	0x3f5babe7	0.8580918
11	0x3ef48354	0.47756445
12	0xbf36f372	-0.7146522
13	0x3e48e7fc	0.19619745
14	0x3e2b5877	0.16732965
15	0x3e73cf1f	0.23809479
16	0xbfbb23e8	-1.4620333
17	0x3f4d7d2e	0.80269134
18	0x3dbfaf71	0.09359635
19	0x3d7d9a42	0.06191469
20	0x3dd0f371	0.10202683
21	0x3d29c36d	0.04144614
22	0xbed0ec28	-0.40805173
23	0x3f18e646	0.5972637
24	0x3f64390b	0.8914954
25	0xbf889a97	-1.0672177
26	0xbe528e8e	-0.20562193
27	0x3e24e714	0.16103774
28	0x3fbfbfcc	1.4980407
29	0x3fb6a4a2	1.4268992
30	0x3ec1475e	0.3774976
31	0x3fea9945	1.8328024

feature_net.linear_layer_output.weight f4 [5, 32]
0	0xbeb72c85	-0.35776153
1	0x402d0776	2.7035804
2	0x3d9030db	0.070405684
3	0x3f8c74a7	1.09731
4	0x3fb89e75	1.4423357
5	0x3fed35d0	1.8532047
6	0x3ff4d881	1.9128572
7	0xb95f8a1b	-0.00021318386
8	0x3ffd1c78	1.9774313
9	0x3a851a03	0.0010154847
10	0xbf67dee2	-0.9057447
11	0x40050420	2.0783768
12	0x40232aec	2.5494947
13	0x3fdf46d3	1.7443489
14	0xbfa14f9a	-1.2602417
15	0x4028dc37	2.6384408
16	0x3fceef7a	1.6166832
17	0xbfb6eb33	-1.4290527
18	0x40497162	3.1475453
19	0x404b7e97	3.1796014
20	0x4022f0bc	2.5459433
21	0xbdfe05bd	-0.12403438
22	0x3f88d64c	1.0690398
23	0x3ea396c8	0.31950974
24	0x404f4970	3.2388573
25	0xbe2bb826	-0.16769466
26	0x4045c694	3.0902452
27	0x3fd9c61f	1.7013587
28	0x3ff3bea6	1.9042556
29	0x3f9557d1	1.1667424
30	0x3f978f4c	1.1840606
31	0x3d86a03e	0.065735325
32	0xbef3cc6e	-0.47616905
33	0x4082d811	4.0888753
34	0x3f9beb7a	1.2181237
35	0x3ff12f99	1.8842651
36	0xbfad82f9	-1.3555595
37	0xbda69041	-0.08132983
38	0x3ef45d52	0.47727448
39	0xc00eb601	-2.2298586
40	0xbbad49cc	-0.0052883383
41	0x3fea8ed0	1.8324833
42	0x40933d46	4.6012297
43	0x401f269d	2.4867318
44	0xbe1b5252	-0.15168121
45	0x3f67afef	0.9050283
46	0x3f609315	0.8772443
47	0x408a4907	4.3214145
48	0xbffdc0e4	-1.982449
49	0x3dcc277a	0.09968467
50	0xbf7c73c3	-0.9861414
51	0x3f46d359	0.7766624
52	0x3f824ec8	1.0180292
53	0x3fb66296	1.4248836
54	0x3e4e9a23	0.20175986
55	0xbfb8f9f2	-1.4451277
56	0xbf04b89b	-0.51844186
57	0x3e0812f5	0.13288482
58	0x402357a5	2.5522244
59	0xbec61a6c	-0.38692033
60	0xc0096caf	-2.1472585
61	0xbfe46d39	-1.7845832
62	0xbfe75bcf	-1.8074893
63	0xc0220d6d	-2.5320694
64	0xbfbeb458	-1.4898787
65	0x3f0aabb8	0.5416827
66	0x3dfc2d44	0.12313321
67	0xc04f6a7f	-3.240875
68	0xbfb90959	-1.4455978
69	0x3f5d9582	0.86556256
70	0x3eb0a68b	0.34502062
71	0x3eb14d7b	0.34629425
72	0xbf104f19	-0.56370693
73	0xbef5e4a7	-0.4802601
74	0xc02d4cd1	-2.7078135
75	0xbfe19bbd	-1.7625653
76	0xc021737b	-2.5226734
77	0xc012aead	-2.2919114
78	0x3f686eae	0.90793884
79	0xbf80789a	-1.0036805
80	0xbf2984d7	-0.6621832
81	0x3fbec472	1.49037
82	0xbfcee11d	-1.6162449
83	0x3f9e7998	1.2380857
84	0xbf7581a2	-0.9590093
85	0xbff9be01	-1.951111
86	0x409f99cd	4.9875245
87	0x401383b7	2.3049142
88	0x3f3b1707	0.7308201
89	0xbf2bbf67	-0.6708893
90	0xbea3f715	-0.32024446
91	0xbf1f3d40	-0.62202835
92	0x3f49bf02	0.7880708
93	0x3f3cdbc4	0.73772836
94	0x3fb77963	1.4333919
95	0xbd94f4dd	-0.072732665
96	0x3f407229	0.75174195
97	0x3ef7064f	0.48247
98	0x3f3bcd49	0.73360115
99	0x403a3a89	2.9098227
100	0x401f189b	2.4858768
101	0x3e92cea4	0.2867328
102	0xbe99b369	-0.30019692
103	0xbdf7a007	-0.1209107
104	0x4089e61b	4.309339
105	0x3fd5deae	1.6708581
106	0xbec6bbd3	-0.38815174
107	0x3fdf1781	1.7429048
108	0x40203055	2.50295
109	0xbf1aa6ad	-0.6041058
110	0x3ff25c21	1.8934366
111	0x408790bd	4.2364182
112	0x3f70d547	0.94075435
113	0x3fc7c9f6	1.5608509
114	0x400da565	2.21322
115	0x3f07121a	0.52761996
116	0x4006511d	2.0987008
117	0x40135ad3	2.3024185
118	0x4029b0f9	2.6514266
119	0x3f72eaa6	0.94889295
120	0x4032d191	2.794041
121	0x3fbe5cf1	1.4872113
122	0x407e8503	3.9768684
123	0x4080b2b3	4.021814
124	0x408ddfe9	4.433583
125	0xbf7062c3	-0.939007
126	0x3f8c3596	1.0953853
127	0x3e979396	0.29604787
128	0x406842c7	3.6290758
129	0xbe10241f	-0.14076279
130	0x3d81cc19	0.06337757
131	0xbf6513c5	-0.8948329
132	0xbfde1c90	-1.7352467
133	0x3fbae4eb	1.460111
134	0x4027b848	2.6206226
135	0x3f824fe2	1.0180628
136	0xbee5479c	-0.44781196
137	0xbf3fc4b7	-0.7490954
138	0x40256936	2.5845466
139	0x3f1c376a	0.61022055
140	0xbf5bef33	-0.85911864
141	0xbf8f9f16	-1.1220424
142	0xbec5abed	-0.3860773
143	0x3fca2d94	1.5795159
144	0x3f925cf4	1.1434617
145	0xc00e5f98	-2.2245846
146	0xbf8da239	-1.1065131
147	0xbf9f5b0c	-1.244966
148	0x3fcd4de2	1.6039393
149	0x3e4ff465	0.20308073
150	0x3f04cf75	0.51879054
151	0x3e7caeac	0.24676007
152	0xc0373de1	-2.8631518
153	0xbe47efb3	-0.19525032
154	0xbf12e0dc	-0.5737436
155	0xbf8367e7	-1.0266083
156	0x3f9f53a3	1.2447399
157	0x3d644237	0.05572721
158	0x405c6b88	3.4440632
159	0x3fff812e	1.9961298

feature_net.linear_layer_output.bias f4 [5]
0	0x3f0ea772	0.5572425
1	0xbf9cc2ad	-1.224691
2	0x3ebfee01	0.3748627
3	0x3d8f4dce	0.06997262
4	0xbed9d591	-0.4254575

feature_net.linear_layer_0.weight f4 [32, 16]
0	0xbe2145f2	-0.15749338
1	0xbf66c42a	-0.9014307
2	0x3f8c777b	1.0973963
3	0xbf36bcc0	-0.7138176
4	0x3dbed418	0.093177974
5	0xbe829fad	-0.25512448
6	0xbf3993b3	-0.72490996
7	0x3f63090a	0.8868567
8	0xbc8029d0	-0.015644938
9	0xbf8deb6c	-1.108747
10	0xbfc7d2bd	-1.5611187
11	0x3f6efae9	0.9335161
12	0xbf03388e	-0.5125817
13	0xbf6822f2	-0.9067832
14	0xbf7cc893	-0.9874355
15	0x3f832279	1.0244895
16	0x3cfcc364	0.030854888
17	0xbec9d110	-0.39417315
18	0xbe686113	-0.22693281
19	0x3dd9823c	0.10620543
20	0x3e5000a4	0.20312744
21	0x3ea27cac	0.31735742
22	0x3e0dda61	0.13852836
23	0xbdae4740	-0.085096836
24	0xbe8c7f7d	-0.27441016
25	0xbf539024	-0.82641816
26	0x3fd141b0	1.6348171
27	0xc049be93	-3.1522567
28	0xbf8127db	-1.0090288
29	0x4067c28b	3.621249
30	0xbfa43e1c	-1.2831454
31	0x3f843314	1.0328088
32	0x3f8e11f9	1.1099235
33	0xbd54bb3e	-0.05193638
34	0xbf066abb	-0.5250661
35	0xbebd1157	-0.36927292
36	0xbf9a3495	-1.2047297
37	0x3f212757	0.6295065
38	0x3c917a8b	0.017758628
39	0xbfa4545b	-1.2838243
40	0x3fac36d1	1.3454229
41	0x3ccae312	0.024766479
42	0x3d284c05	0.041088123
43	0x3f99f327	1.2027329
44	0x3e78e12a	0.24304643
45	0xbf86f548	-1.0543604
46	0xbf0b1314	-0.54325986
47	0x3e673c87	0.22581683
48	0x3f0bde94	0.546365
49	0xbf8d4dfe	-1.1039426
50	0xbf3a6318	-0.72807455
51	0x400554da	2.083304
52	0x3f2a8c2c	0.66620135
53	0x400d2cfd	2.2058709
54	0xbf6bacf4	-0.9206078
55	0xbfbbc038	-1.4668036
56	0xbfa4f4ff	-1.2887267
57	0x3e571c49	0.21006884
58	0x3eb6d5da	0.3571003
59	0x40160094	2.3437853
60	0x400c29fd	2.1900628
61	0x3b8008b4	0.0039072875
62	0x3f08fc70	0.5351019
63	0xbf18be51	-0.596654
64	0x3da545d4	0.08069959
65	0xbfba3648	-1.4547815
66	0x3fa716ac	1.3053794
67	0x3f6ec65f	0.9327144
68	0x3e854b68	0.26034093
69	0x3ff10e36	1.8832462
70	0xbf96dd96	-1.1786373
71	0x3e8d359c	0.27579963
72	0xbe5791a7	-0.21051656
73	0xbf91c3f3	-1.1387924
74	0x3f1c9dc9	0.6117826
75	0x3f3c02b6	0.73441637
76	0x3fafd10c	1.3735671
77	0xc0127e32	-2.2889524
78	0xc024b7a0	-2.5737076
79	0x3fccb724	1.599339
80	0xbed04b9d	-0.40682688
81	0x3e978cf9	0.2959974
82	0xbf8f45ba	-1.1193154
83	0xbd7a2b19	-0.061076257
84	0x3f7e4ee9	0.9933916
85	0x4011f1a8	2.2803745
86	0xbe03c96a	-0.12869802
87	0xbfe4bf87	-1.787095
88	0xbe0d5769	-0.13802876
89	0xbf60d4ed	-0.878249
90	0x3fedf37c	1.858993
91	0x3fe28736	1.7697513
92	0x3fca91dd	1.5825764
93	0x3fab59e2	1.3386805
94	0xbf8aab0b	-1.0833448
95	0x3f315e86	0.69284856
96	0xbe9dc3d8	-0.3081348
97	0xbf46d739	-0.77672154
98	0x3ef97c1d	0.48727503
99	0x3f0b6461	0.5445004
100	0x3f231737	0.637073
101	0x3f008c5f	0.5021419
102	0x3cebea1e	0.02879816
103	0x3d843403	0.06455233
104	0x3f3c32e7	0.7351517
105	0x3e82da14	0.25557005
106	0x3f98e0be	1.1943586
107	0xc04593f2	-3.0871549
108	0x3fa2d5c5	1.2721487
109	0x3fd97d6c	1.6991401
110	0x3d8d617f	0.069033615
111	0x3f276b8a	0.65398467
112	0x3eb4095b	0.35163388
113	0x4002975f	2.040489
114	0xbe417f8c	-0.18896312
115	0xbf081b07	-0.5316624
116	0x3f467d56	0.77535
117	0x400c72db	2.1945102
118	0xbf99d0b5	-1.2016817
119	0x3e3c8f01	0.18413927
120	0x3faaaa4d	1.3333222
121	0x3f0283bb	0.50982255
122	0xbf072094	-0.52784085
123	0x3c5ba2e7	0.013405538
124	0xbf320b4c	-0.6954849
125	0xbfbfa61d	-1.4972569
126	0x3f9f11f8	1.2427359
127	0x3f25cf57	0.647695
128	0xbd16edc3	-0.03684784
129	0xbfbbab3b	-1.466163
130	0xbefd8e39	-0.4952257
131	0x3e80531a	0.250634
132	0x3f6eb76f	0.9324865
133	0xc00637ca	-2.097155
134	0xbfba4bc1	-1.4554368
135	0xbf9261ec	-1.1436133
136	0x3d838ef6	0.06423752
137	0xbe612491	-0.21986605
138	0xbe1a2f4d	-0.15057106
139	0x4008eb33	2.1393554
140	0x3ec99211	0.39369252
141	0x404390a7	3.0557039
142	0xbe9a21c3	-0.30103883
143	0x3edfaf04	0.43688214
144	0xbe657cd9	-0.22410907
145	0xbcfb0d10	-0.030645877
146	0xbee28c97	-0.44247887
147	0xbeb2764b	-0.34855875
148	0x3bef6323	0.007305519
149	0x3e7e94ac	0.24861401
150	0x3f85a4bc	1.0440898
151	0xbf95c034	-1.1699281
152	0x3ff9283b	1.9465402
153	0x3f508aa8	0.8146157
154	0x3ea3793d	0.31928435
155	0x4004bd7f	2.074066
156	0xbe75fcd4	-0.24022228
157	0xc03d282e	-2.9555774
158	0x3f8e7871	1.1130506
159	0x3ea4b608	0.3217013
160	0x3f45fa6f	0.77335256
161	0x3eb265b1	0.3484321
162	0x3fe0c79b	1.7560915
163	0xbde7bb35	-0.11315004
164	0xbf1adf81	-0.6049729
165	0x3fa17c84	1.2616124
166	0xbebc36af	-0.3676047
167	0xbe8cc054	-0.27490485
168	0xbd608d78	-0.054822415
169	0x3ecb10e2	0.39661318
170	0x3f6d2783	0.92638415
171	0xbfba1c9d	-1.4539982
172	0x4049ee9b	3.1551883
173	0x3fad426a	1.3535893
174	0xbeb74cd6	-0.3580081
175	0x3eb1012b	0.34571204
176	0x3f9bf7d8	1.2185011
177	0xbf079bc0	-0.5297203
178	0xbdb98a37	-0.090595655
179	0x3ff4ab64	1.9114804
180	0xbf31a6ba	-0.6939503
181	0x3fcf67c8	1.6203547
182	0x3eaca3cf	0.33718726
183	0x3e9e2f30	0.30895376
184	0xbf0838e7	-0.53211826
185	0x3e1fea59	0.1561674
186	0xbf920990	-1.1409168
187	0xbe4fb2de	-0.20283076
188	0xc041d08c	-3.0283537
189	0xc033e111	-2.810612
190	0x3d609153	0.054826092
191	0x3da85e56	0.08221118
192	0x3eb273e8	0.34854054
193	0x3f5bc2a5	0.8584388
194	0xbf3a79fa	-0.7284237
195	0xbee6aaf7	-0.4505231
196	0x3d8d9ddc	0.06914875
197	0xbf76ad68	-0.96358347
198	0x3fc776d6	1.5583141
199	0xbec247c2	-0.37945372
200	0x3e31c7bc	0.17361349
201	0x3f777e49	0.9667707
202	0x3fe09776	1.7546222
203	0xbf8b7bfd	-1.0897213
204	0x3da36980	0.07979107
205	0x40106713	2.2562912
206	0x3f9718e8	1.1804476
207	0x3f81f534	1.0152955
208	0xbe833b97	-0.256314
209	0x3ed2a98c	0.4114498
210	0x3f08f188	0.5349355
211	0x3ece280d	0.4026493
212	0xbea97377	-0.33095905
213	0x3eac73d6	0.33682126
214	0x3dfb19e7	0.122608
215	0xbd8c7ee0	-0.06860137
216	0x3f536c5d	0.82587224
217	0xbe8fa768	-0.28057408
218	0xbf161a7a	-0.5863415
219	0xc051d1bf	-3.278427
220	0x3faf5951	1.3699132
221	0x4066f6e9	3.6088202
222	0xbdaffd21	-0.085932024
223	0x3f958085	1.1679846
224	0xbe3a230c	-0.18177432
225	0x3f3205db	0.69540185
226	0x3efe2668	0.49638677
227	0xbfe17793	-1.7614616
228	0xbf341d27	-0.7035698
229	0x3ec939ad	0.39301816
230	0x3f37a970	0.71742916
231	0x3f9758cf	1.1823977
232	0xbf7cea3c	-0.98794913
233	0xbe9ec59c	-0.3101014
234	0xbee7175d	-0.45135012
235	0xbf1f71f6	-0.62283266
236	0xbf2bea63	-0.6715452
237	0x3f59b558	0.85042334
238	0x3c9167c9	0.017749684
239	0xbd750dc7	-0.059827592
240	0x3e171531	0.14754178
241	0xbec408dc	-0.3828801
242	0xbf4ceca5	-0.8004859
243	0x3f9042ea	1.127042
244	0x400a1e7e	2.158111
245	0x3d99cc2c	0.07509646
246	0x3f90e709	1.1320506
247	0xbec2594d	-0.37958756
248	0xbf6dadf9	-0.92843586
249	0x3edd2672	0.43193394
250	0x3f37ba1e	0.7176837
251	0xbf8589a3	-1.0432628
252	0xbf8da7c4	-1.1066823
253	0x40330ea5	2.7977688
254	0x3ebefaf1	0.37300828
255	0x3fbfcb8f	1.4983996
