otk/AgileRL-MATD3/simple_spread_v3/result/20240102-0837/MATD3_trained_agent_0040000.pt (torch, 983398 bytes, 336 tensors)

feature_net.linear_layer_0.weight f4 [32, 18]
0	0xbf65a462	-0.89703953
1	0x3fcf2b41	1.6185075
2	0x3ec835be	0.39103502
3	0xc01a4f8c	-2.4111052
4	0xc0c53af9	-6.163449
5	0x3f3585d1	0.7090731
6	0x3fc547ee	1.5412576
7	0xc0a5874d	-5.172766
8	0xbfb5e605	-1.4210821
9	0xbfda7b29	-1.7068835
10	0x40056d6a	2.084803
11	0xbf8f3474	-1.1187882
12	0x4008a1bc	2.1348715
13	0xbfcca033	-1.5986389
14	0x3e295a5b	0.16538374
15	0x3e41a2ad	0.18909712
16	0xbe0342ad	-0.12818404
17	0xbc9273f2	-0.017877553
18	0xbf54d8ff	-0.8314361
19	0x4084cc92	4.149972
20	0x3fa0f0ae	1.257345
21	0xbeed1c97	-0.46310875
22	0x3efaa803	0.48956308
23	0xbfd41728	-1.6569567
24	0x3fbb303e	1.4624097
25	0xbf285076	-0.65747774
26	0x3f2a7211	0.665803
27	0xc0ad2193	-5.4103484
28	0x3f40bf4d	0.752919
29	0xbfa60b7d	-1.2972256
30	0x3f869e7d	1.0517117
31	0xc12e00a2	-10.8751545
32	0xbe08f59e	-0.13374946
33	0x3e233798	0.15939176
34	0x3e08e812	0.13369778
35	0x3ca0bc0f	0.019620923
36	0xbfd2cbb4	-1.6468415
37	0xbfb268b4	-1.3938203
38	0xbfc87367	-1.5660218
39	0x401bbf51	2.433552
40	0x4028198f	2.62656
41	0xc0018ad3	-2.0240982
42	0xbfa1b78e	-1.2634141
43	0xbff7959f	-1.9342536
44	0x40096d62	2.1473012
45	0x40942b26	4.630267
46	0xbfd0225c	-1.6260486
47	0xbf868609	-1.0509654
48	0x407b870c	3.9301176
49	0x40f031c2	7.506074
50	0xbc047f9c	-0.008087065
51	0x3d006d79	0.0313544
52	0xbe3656de	-0.17806575
53	0xbd819bfc	-0.0632858
54	0x4024b68f	2.5736425
55	0x3fa18250	1.2617893
56	0x3eaaac17	0.3333442
57	0x3f606ba3	0.8766424
58	0x3f049724	0.5179312
59	0xbfc37e6b	-1.5272955
60	0x407fa8b5	3.994672
61	0x3fcde299	1.6084777
62	0xc09d66f4	-4.9188175
63	0xc033bbe5	-2.8083432
64	0xbedc8665	-0.43071285
65	0xbe9872c0	-0.29775047
66	0xc0d07239	-6.513943
67	0x3faee527	1.3663682
68	0x3e9b1ecd	0.30296937
69	0xbc0f24e5	-0.008736824
70	0x3ef92a2c	0.48664987
71	0x3de7786a	0.11302264
72	0xbff2dd77	-1.8973836
73	0xbe2c92fe	-0.16852948
74	0x3e6f5df1	0.2337568
75	0x3eec847c	0.46194828
76	0x3f365487	0.7122273
77	0xc017f0c2	-2.3740697
78	0xc051a06b	-3.2754161
79	0xc05f29df	-3.4869306
80	0x4066e8d8	3.6079617
81	0x403bb2d5	2.93279
82	0x3ee6d6bb	0.450857
83	0xbee9ba44	-0.45649922
84	0x40df0212	6.9690027
85	0x40e55f0d	7.167853
86	0x3d9984f9	0.07496066
87	0xbda6ad06	-0.0813847
88	0xbe175b76	-0.14780983
89	0x3ee232dd	0.4417943
90	0x3eabb28c	0.33534658
91	0x4085e22a	4.183858
92	0x3f2c9339	0.67412144
93	0x3e97cdbb	0.29649147
94	0x3f95c9c0	1.1702194
95	0xc0940e48	-4.6267433
96	0xc0752a17	-3.830694
97	0xc1294fd6	-10.581991
98	0xc085bb3c	-4.1791058
99	0x4005e4a6	2.0920806
100	0x3fd9fbb7	1.7029942
101	0x3ef4fffa	0.47851545
102	0x403c99f8	2.9468975
103	0xc06bd7da	-3.6850495
104	0x3d731bb1	0.05935258
105	0xbdb02023	-0.085998796
106	0x3dc7f964	0.09764364
107	0xbe802dd9	-0.2503498
108	0xbfa87a46	-1.3162315
109	0xbd0d729c	-0.03453313
110	0xbff96de7	-1.9486665
111	0xc097eb7d	-4.747496
112	0x40667e28	3.60145
113	0xc0b06ca6	-5.5132627
114	0x401880fa	2.382872
115	0x40f7618d	7.730658
116	0x3f4ec847	0.8077435
117	0xc123ee4e	-10.24568
118	0xbf97e5ea	-1.1867039
119	0x3fddf6ff	1.7341002
120	0xc082eae0	-4.0911713
121	0x41055b4a	8.334787
122	0x3d95e61e	0.07319282
123	0x3d0eb4bf	0.03484034
124	0x3d1e8784	0.038703457
125	0xbece24b7	-0.40262386
126	0x400e04ad	2.2190354
127	0x3f2482d0	0.64262104
128	0x4091170c	4.5340633
129	0xbf085bcc	-0.5326507
130	0x41165929	9.396768
131	0xbfe6ad07	-1.8021554
132	0xc098f767	-4.7802005
133	0xbfc5f5cc	-1.5465636
134	0xbe5cbe61	-0.21556999
135	0xbfadd28c	-1.3579879
136	0xc0e30662	-7.094529
137	0x3f8684ac	1.0509238
138	0xbfb792e6	-1.4341705
139	0xbf57c23a	-0.8428074
140	0x3c88fc2a	0.016721804
141	0x3d9d5f5a	0.076842025
142	0x3e1eb01e	0.15496871
143	0x3e067c25	0.13133295
144	0x404bdf42	3.1855016
145	0x3eb29167	0.34876558
146	0xbf9f8aa6	-1.2464187
147	0x3ef46b80	0.47738266
148	0x3f81ff05	1.0155951
149	0xbdb7222a	-0.08942063
150	0x409209e1	4.563706
151	0xc063a559	-3.556967
152	0xc0e1e855	-7.059611
153	0x3ebc9ba5	0.36837497
154	0xbfc11a33	-1.508612
155	0xbf7050cb	-0.9387328
156	0xc1150e8c	-9.3160515
157	0x406d3f01	3.7069705
158	0x3cf9978c	0.030467771
159	0xbe2aa478	-0.16664302
160	0x3e99cd1d	0.30039302
161	0x3d2c7319	0.042101953
162	0xc04c71e4	-3.1944513
163	0x3ed9e94f	0.42560813
164	0xc09964c6	-4.7935514
165	0xbf900c77	-1.1253804
166	0x402ddfa7	2.7167757
167	0x3e166941	0.14688589
168	0x40cd3784	6.413027
169	0xbf9d513f	-1.2290419
170	0x3f3ff9ee	0.7499074
171	0x3f5e4d01	0.8683625
172	0xc078ec73	-3.8894317
173	0xc055a01c	-3.3378973
174	0xc09711dc	-4.72093
175	0xbdf5fbd9	-0.12010927
176	0x3e02c83f	0.127717
177	0xbd4bb980	-0.049737453
178	0xbe9a773c	-0.30169094
179	0x3e36f982	0.17868617
180	0x4004c2dd	2.0743935
181	0xbede76cb	-0.43450007
182	0xbe9ad4ab	-0.30240378
183	0xbebfca43	-0.37459
184	0x3f1da6d8	0.6158271
185	0x3f0bc88e	0.546029
186	0x40af3a80	5.475891
187	0x40085f5f	2.130821
188	0xc0e29da8	-7.081745
189	0xbeda9be8	-0.42697072
190	0xbf808568	-1.0040712
191	0xbf5d2b84	-0.86394525
192	0xc10ad46f	-8.676864
193	0xbf97dc6e	-1.1864145
194	0xbcf0bf54	-0.029388107
195	0xbeda0876	-0.4258458
196	0x3ea143fa	0.31497175
197	0x3e4c2bd4	0.19938594
198	0x3fdc2939	1.720008
199	0x3f8ac1cb	1.0840391
200	0x3e63c10e	0.22241613
201	0xbf405ce2	-0.7514173
202	0xc0e4655f	-7.1373744
203	0xc0a694bc	-5.205656
204	0x40bd7cb2	5.9214716
205	0x3fa9c772	1.3263991
206	0x3da52545	0.08063749
207	0xbf4c5fa7	-0.79833454
208	0xc0865dc2	-4.198945
209	0x40c3b590	6.1159134
210	0xbf425760	-0.75914574
211	0xbead4e00	-0.33848572
212	0x3ec7705e	0.38952917
213	0xbeb5df76	-0.3552205
214	0xbe14ee7b	-0.14544098
215	0xbe833d5a	-0.25632745
216	0xc03d6af9	-2.959654
217	0x3fa8580c	1.315187
218	0xc01937ed	-2.3940384
219	0xbf7ce616	-0.98788583
220	0x3e516301	0.20447923
221	0xc0321295	-2.7823842
222	0xc0b3ba35	-5.6164804
223	0xbef76c9a	-0.48325044
224	0x401b7119	2.428778
225	0xbf7f2659	-0.9966789
226	0x40016a1d	2.0221016
227	0xbff9bb43	-1.9510273
228	0x40f8d859	7.7764096
229	0xbf97ad96	-1.1849849
230	0x3efca9bc	0.49348247
231	0x3e73966c	0.2378785
232	0x3e08c560	0.13356543
233	0xbee81533	-0.45328674
234	0x400805a2	2.1253438
235	0x3f290d5e	0.6603602
236	0x3e325056	0.17413458
237	0x3fc8d694	1.5690484
238	0x3e7a248e	0.24428007
239	0xbf117f78	-0.56835127
240	0x405cc9e9	3.4498236
241	0xc0c52473	-6.1606994
242	0xc0bca803	-5.8955092
243	0x40568e75	3.352445
244	0x3bb7ca11	0.005608805
245	0xbf2611d8	-0.6487098
246	0xc06a219d	-3.6583016
247	0x3fe53fd3	1.7910103
248	0x3e281bdc	0.16416878
249	0x3ed53a70	0.41646147
250	0xbcd1258d	-0.0255306
251	0x3cad5249	0.0211574
252	0xbff226e7	-1.8918122
253	0x4089b703	4.3035903
254	0x3efb3d42	0.49070174
255	0x3f88ed9d	1.0697514

feature_net.linear_layer_0.bias f4 [32]
0	0xbf20460f	-0.626069
1	0xc0583132	-3.3780026
2	0xc08db55f	-4.42839
3	0xc0a72b46	-5.2240324
4	0x3f969c28	1.1766405
5	0x400d5400	2.208252
6	0xc08eef93	-4.466745
7	0xbf440d41	-0.76582724
8	0x3fc64c17	1.5491971
9	0x40e640af	7.195396
10	0x405eb126	3.4795623
11	0xc010c929	-2.2622778
12	0xc0c3dbfc	-6.1206036
13	0xc0c63c3f	-6.1948543
14	0xc0a73e37	-5.2263446
15	0x3f1dc524	0.6162894
16	0xbfb307a2	-1.3986704
17	0xc0603df9	-3.5037825
18	0x3f1c7409	0.61114556
19	0x403df794	2.968236
20	0x4068dc4e	3.6384463
21	0xc0615eb7	-3.521406
22	0xbf26b563	-0.65120524
23	0xc03ea402	-2.9787602
24	0x40d0bf7a	6.5233736
25	0x40133f86	2.3007522
26	0x40f0b44b	7.5220084
27	0x40935c91	4.6050496
28	0xc055df8b	-3.341769
29	0x3fe1dc30	1.7645321
30	0x4085b838	4.1787376
31	0x4086f311	4.217171

feature_net.layer_norm_0.weight f4 [32]
0	0x401b06b0	2.4222832
1	0x40aac5b8	5.3366356
2	0x40a647a6	5.196246
3	0x408f3254	4.4748936
4	0x40e7315a	7.2247744
5	0x405c3bfe	3.4411616
6	0x4070784d	3.7573426
7	0x40e01a75	7.0032296
8	0x40a86747	5.262607
9	0x409d6a54	4.9192295
10	0x40a61069	5.189503
11	0x40a3593d	5.1046433
12	0x3febcdaf	1.8422145
13	0x409c066d	4.8757844
14	0x40b864e2	5.762315
15	0x40e3e4c3	7.121675
16	0x40004e60	2.0047836
17	0x4096ee45	4.7165856
18	0x40e290f7	7.080196
19	0x4109e5ce	8.618605
20	0x40cea22a	6.4572954
21	0x4090d084	4.5254536
22	0x3fedef94	1.8588738
23	0x40c15fb8	6.0429344
24	0x40913faa	4.5390215
25	0x40376309	2.8654196
26	0x4098d734	4.77627
27	0x4079567c	3.8959036
28	0x40688d31	3.6336176
29	0x408c28bd	4.379973
30	0x4059aa52	3.4010205
31	0x410c900e	8.78517

feature_net.layer_norm_0.bias f4 [32]
0	0xbee36d5a	-0.44419366
1	0x4002f8d8	2.0464382
2	0x3f7cf1e5	0.988066
3	0x3fcd9a4a	1.606271
4	0x3ea312e3	0.31850347
5	0x3f9a6145	1.2060934
6	0x40287ab0	2.6324883
7	0x4071c506	3.7776504
8	0xbf73a5d4	-0.9517491
9	0x3f027636	0.50961626
10	0xbfb51944	-1.4148335
11	0x3fb4cfdd	1.4125935
12	0x3fbddb45	1.4832541
13	0x4061afb3	3.5263488
14	0x40348640	2.820694
15	0x3f9ecf5b	1.240703
16	0x3ff93173	1.9468216
17	0x3f126d17	0.5719771
18	0x3fbcfc98	1.4764585
19	0x40638c18	3.5554256
20	0xbfdae5bd	-1.710136
21	0x405d7b3c	3.4606466
22	0x3f9d6fc5	1.2299734
23	0x3f29083a	0.6602818
24	0x3ff36727	1.9015855
25	0xbf174367	-0.5908722
26	0x3f8cef2d	1.1010491
27	0x4027f44f	2.6242864
28	0xbdb95679	-0.090496965
29	0x3f4b3776	0.793815
30	0x401b5849	2.4272635
31	0xbe03c222	-0.12867025

feature_net.linear_layer_1.weight f4 [32, 32]
0	0x40019319	2.0246031
1	0xc0503342	-3.2531285
2	0x3f8112ae	1.0083826
3	0xbf7eb650	-0.99496937
4	0xc1a571f7	-20.680647
5	0x40ac0ef6	5.3768263
6	0x3f6cc5e2	0.92489445
7	0x4008d1c6	2.1378036
8	0x3f369a95	0.71329623
9	0x409791c3	4.736543
10	0xbfdd757b	-1.7301477
11	0x405c951f	3.4466016
12	0xc10de157	-8.867515
13	0xc076c02a	-3.8554788
14	0x400408c7	2.0630357
15	0x40378268	2.8673344
16	0x3f4695d5	0.77572376
17	0x408b3209	4.349858
18	0x3ecebfe9	0.4038079
19	0x402dcfb9	2.7158034
20	0xbfd425a1	-1.6573983
21	0xbe032f5c	-0.12811035
22	0x4070cca8	3.7624912
23	0x401f21a8	2.4864292
24	0x402d3ef0	2.7069664
25	0x4080ce64	4.025194
26	0x40893b60	4.288498
27	0x400eab6d	2.229213
28	0x3fe93b9a	1.8221314
29	0x401cffa8	2.453104
30	0x40a17592	5.045602
31	0x408f2c12	4.4741297
32	0xc078148e	-3.8762546
33	0x3d3a4cec	0.045483515
34	0x409c5a96	4.886058
35	0x3fded798	1.7409544
36	0x4021d896	2.5288444
37	0xc07e9641	-3.9779208
38	0x40f6fa57	7.718059
39	0x3ff99792	1.949938
40	0x403dd576	2.9661536
41	0x40124f88	2.2861042
42	0x409dab9d	4.927199
43	0xbf3b49f1	-0.731597
44	0x3fcb49ae	1.588186
45	0x40168be6	2.3522887
46	0xc08438a7	-4.1319156
47	0x408a4713	4.321176
48	0xbed0aaa7	-0.40755197
49	0x402e3a27	2.7222993
50	0x4093ada8	4.6149483
51	0x40e02976	7.005061
52	0x40fe3720	7.944229
53	0x40457065	3.084985
54	0xc09155bd	-4.541716
55	0x40cad5de	6.338607
56	0xbe8fcba4	-0.28085053
57	0xc0e1740b	-7.0454154
58	0x40b44334	5.6332035
59	0x3f22155f	0.6331386
60	0x3f6f5213	0.9348461
61	0x4087fcf2	4.249627
62	0xbf3e2e6b	-0.7428958
63	0x40af1e38	5.472439
64	0x40510b66	3.2663207
65	0x4024b696	2.5736442
66	0x408d8b60	4.4232635
67	0x408108f0	4.032341
68	0x400713b4	2.1105776
69	0x40822871	4.0674367
70	0x3ff6f0f0	1.9292278
71	0x3fa7ca35	1.3108584
72	0x406d6d8e	3.7098117
73	0x404e4c19	3.2233946
74	0x40856f28	4.169819
75	0x3fdf83be	1.746208
76	0x4060b003	3.510743
77	0x4080b471	4.0220265
78	0x3fdae7d9	1.7102004
79	0x4034c93d	2.8247826
80	0x3f634e4d	0.8879135
81	0x407977a6	3.8979278
82	0x3fac7350	1.347269
83	0xc19ed30a	-19.853046
84	0x40843407	4.131351
85	0x3f2db40a	0.6785284
86	0x401d8f52	2.4618726
87	0x403f4a6f	2.988918
88	0x4048a753	3.1352127
89	0x3fe16b05	1.7610785
90	0x403a0f46	2.9071822
91	0x4047e4ec	3.1233473
92	0x4037e5a5	2.8733914
93	0x40870de2	4.2204447
94	0x401003ab	2.2502239
95	0x40b46c18	5.638195
96	0x3f8b6850	1.0891209
97	0x411c5bd6	9.772421
98	0x412f3251	10.949784
99	0x40ee0412	7.437997
100	0x416dc88f	14.8614645
101	0x409ff0c6	4.9981413
102	0x409afc5b	4.843305
103	0xc045cedb	-3.0907505
104	0x4191af85	18.210703
105	0x4186656f	16.799528
106	0x4180ef53	16.116858
107	0x41a93e02	21.155277
108	0x404ba488	3.1819172
109	0x410b7339	8.715631
110	0xc089a234	-4.30105
111	0x4162ae43	14.167544
112	0x409c56d6	4.8856
113	0x41325579	11.145867
114	0xc087e58d	-4.2467713
115	0xc00b3733	-2.175244
116	0x41b79350	22.94693
117	0xc0e2c1ce	-7.086158
118	0x40c2b61d	6.0847306
119	0x41a62450	20.76773
120	0x4182b3a6	16.337719
121	0x4112ddb7	9.17913
122	0x4179e020	15.617218
123	0x4178fdde	15.561979
124	0x40bce429	5.9028516
125	0x4110b965	9.045262
126	0x3f64c53e	0.8936347
127	0x3ff17fcc	1.8867126
128	0x40a8bd11	5.2730794
129	0x4082562c	4.073019
130	0x40331873	2.7983673
131	0x3fb5ac4b	1.4193205
132	0x408a17ec	4.31542
133	0x40c3fd10	6.1246414
134	0x403b7bf4	2.9294405
135	0xbbd2e84c	-0.0064363834
136	0x4003da7f	2.060211
137	0xc03ebd29	-2.9802954
138	0x3f0f1e69	0.5590578
139	0xbf53b419	-0.8269668
140	0x4105abfb	8.354487
141	0x410cfdd5	8.811971
142	0x400114a5	2.016885
143	0x3fca007d	1.5781399
144	0x40cdb801	6.4287114
145	0x40c72cac	6.224203
146	0x4003ab23	2.0573204
147	0x40c10267	6.0315433
148	0x3fd09a5a	1.6297104
149	0x400e2020	2.2207108
150	0x40297b87	2.6481645
151	0xbf84809c	-1.0351748
152	0xc0d1bc65	-6.5542474
153	0x3eefb876	0.4682042
154	0x404f4cd9	3.2390654
155	0x404d8a50	3.211567
156	0x40ead3a2	7.338334
157	0x40da6614	6.8249607
158	0x3fe61fe3	1.7978481
159	0x40b6dcd8	5.7144585
160	0xc0eb9ded	-7.363028
161	0x3f4d6f31	0.8024779
162	0xbf8153b3	-1.0103668
163	0x410cdea1	8.804353
164	0x405de43b	3.467055
165	0xc01d0461	-2.4533923
166	0xbebb417f	-0.36573407
167	0x4011abf9	2.2761214
168	0x403254d1	2.7864268
169	0xbf01889d	-0.5059908
170	0xbe04b240	-0.12958622
171	0x40889807	4.268558
172	0xbeacc2f8	-0.337425
173	0x3f3af311	0.7302714
174	0xbff0b8bb	-1.8806375
175	0x40a4048f	5.1255565
176	0x3dffe0e0	0.124940634
177	0xbfd27094	-1.6440606
178	0x3f98a3ef	1.1925029
179	0x3f939b9f	1.1531867
180	0x40a8a809	5.270512
181	0x40716905	3.772035
182	0x403c55bb	2.9427326
183	0x40172e07	2.3621843
184	0x3fc919ec	1.5711036
185	0x400184c8	2.0237293
186	0x40f75e5e	7.7302694
187	0x411f90c9	9.972848
188	0xc0bbcf80	-5.8690796
189	0xbfb3ef77	-1.4057454
190	0xc0d5682d	-6.668967
191	0x40fb18f7	7.8467975
192	0x405bf379	3.4367354
193	0x401ee357	2.4826257
194	0xc0aa5582	-5.322938
195	0x40dc7a2c	6.8899136
196	0x40bd0d6f	5.90789
197	0x4105530b	8.332774
198	0x3fcba85e	1.5910757
199	0x408daffc	4.4277325
200	0x3f349e40	0.7055397
201	0xc0285bf5	-2.6306126
202	0xbfa39c24	-1.2782025
203	0x400fc2ca	2.246264
204	0x3f059d96	0.5219358
205	0x40a9ee1c	5.310316
206	0x4094dc38	4.651882
207	0xbf2f2af8	-0.6842494
208	0x409b46fc	4.852415
209	0x3f67386a	0.90320456
210	0x4086ec3a	4.2163363
211	0x40938503	4.609987
212	0x3feebaa9	1.8650714
213	0x40e7a69d	7.2390885
214	0x40ac45a9	5.3835034
215	0xbf2cbc88	-0.67475176
216	0x403fd114	2.997136
217	0x40b9e007	5.808597
218	0x407884f4	3.8831148
219	0x40dfea42	6.997346
220	0x402a1be5	2.6579525
221	0x3feafed6	1.835902
222	0x3ea87ec3	0.32909212
223	0x3fcfdd05	1.6239325
224	0x400973e7	2.147699
225	0x3fef7a1d	1.8709141
226	0x406d2ffd	3.706054
227	0x409fbb3f	4.991607
228	0x405ef75d	3.4838479
229	0x40f48ece	7.642432
230	0x4084995f	4.143722
231	0xbf06dd13	-0.5268108
232	0x40bebcda	5.960553
233	0x40bf9da6	5.987994
234	0x40230a15	2.5474904
235	0xc0c1b8fd	-6.0538316
236	0xbf2c4af0	-0.67301846
237	0xbf8aa20c	-1.0830703
238	0x3f776615	0.9664014
239	0xc1ac00d1	-21.500399
240	0xc02b6dbf	-2.6785734
241	0xc0c21446	-6.064975
242	0x3ecf13e5	0.40444866
243	0x402bb1fc	2.6827383
244	0x40bb3e49	5.851353
245	0xbec70630	-0.38871908
246	0x3f0f9363	0.5608427
247	0xc07ae815	-3.9204152
248	0x40ad509b	5.4160895
249	0x3f9153c4	1.1353688
250	0x402f29fe	2.736938
251	0x3fcbc4c0	1.5919418
252	0xc0f2c55e	-7.5865927
253	0xbeb7acf6	-0.35874146
254	0x403afc28	2.9216404
255	0x408a602b	4.3242393

feature_net.linear_layer_1.bias f4 [32]
0	0x408860f8	4.261837
1	0x3f5660c2	0.8374139
2	0x4094ecb9	4.653897
3	0x416c78e8	14.779518
4	0x3fb83f63	1.4394344
5	0x4023a841	2.5571444
6	0x403a6605	2.9124768
7	0x40465b15	3.0993092
8	0x3f7a0864	0.97669053
9	0x400b1667	2.1732423
10	0x3fc004a8	1.5001421
11	0x3ff2caa9	1.8968097
12	0x400d33fd	2.206298
13	0x4085213e	4.160308
14	0x4080eb63	4.0287337
15	0x40033298	2.049963
16	0x4025156b	2.5794322
17	0x403bbe03	2.9334724
18	0x4084e275	4.1526437
19	0x416e49ab	14.892985
20	0x3fadb56b	1.3570989
21	0x402cc654	2.699605
22	0x400f7876	2.2417274
23	0x40765290	3.8487892
24	0x4024f21e	2.5772777
25	0x416ce25f	14.805266
26	0x3fdf9a1e	1.7468908
27	0x401f8c1b	2.4929264
28	0x404fa1fd	3.244262
29	0x401e7ee3	2.4764946
30	0x401f1ce7	2.486139
31	0x40393f5e	2.8944926

feature_net.layer_norm_1.weight f4 [32]
0	0x41169b85	9.412969
1	0x4056116f	3.344814
2	0x40f4ee99	7.6541257
3	0x3e6cbb7c	0.23118395
4	0x40df84ff	6.984985
5	0x40588fa1	3.3837664
6	0x40ddbd7d	6.929381
7	0x4104ea40	8.30719
8	0x408d8440	4.422394
9	0x41061e31	8.382371
10	0x40a4e935	5.1534677
11	0x41111fca	9.070261
12	0x40cd2936	6.4112806
13	0x41138a29	9.2212305
14	0x40b18485	5.5474267
15	0x40b1b701	5.5535893
16	0x40ea2dea	7.3181047
17	0x40cbfdbb	6.374723
18	0x3fd75268	1.6822023
19	0x3e3d6c97	0.18498455
20	0x40978794	4.7353
21	0x411dae0d	9.854993
22	0x406290f7	3.540098
23	0x4091454c	4.539709
24	0x409ae663	4.8406234
25	0x3e591591	0.21199633
26	0x40972f20	4.7245026
27	0x4094ec5f	4.653854
28	0x40848501	4.141236
29	0x408655ca	4.1979723
30	0x405eea23	3.4830406
31	0x4093ecfe	4.6226797

feature_net.layer_norm_1.bias f4 [32]
0	0x40159d70	2.3377342
1	0x3fd92913	1.696566
2	0x4018caa8	2.3873692
3	0xbf4b0162	-0.79298985
4	0xbeb06f09	-0.34459713
5	0x3f96e04c	1.17872
6	0x3f0392ec	0.5139606
7	0x3fc9bee6	1.5761383
8	0x3f8bf5f1	1.093443
9	0x3feab6f3	1.8337082
10	0x3fe762a5	1.8076979
11	0x3fc35acd	1.5262085
12	0x3eb32e8d	0.34996453
13	0x3f7a315a	0.97731555
14	0x400a4059	2.1601775
15	0x3f55598d	0.8333977
16	0x3f04fe01	0.5195008
17	0x3ef05c92	0.46945626
18	0x3f871e0c	1.0556045
19	0xbf3bac07	-0.7330937
20	0x3eae5cd0	0.34055185
21	0x3e07770c	0.13229007
22	0x3fa1078a	1.2580426
23	0x4029f100	2.6553345
24	0xc049618b	-3.1465786
25	0xbf4d8beb	-0.8029162
26	0x3f892d66	1.071698
27	0xbfe9ba92	-1.8260062
28	0x3f28edbd	0.6598776
29	0x3f0908bc	0.5352895
30	0x3f9d48ea	1.2287877
31	0x3fb357c1	1.4011155

feature_net.linear_layer_output.weight f4 [5, 32]
0	0xc0ad856f	-5.4225383
1	0xc01e0bfe	-2.469482
2	0x3f2236a3	0.6336462
3	0x3e6a84f4	0.2290228
4	0xc0d9b562	-6.8033915
5	0xbfd164cf	-1.6358889
6	0x3f9ba3c3	1.2159351
7	0xc06e36dc	-3.7220984
8	0x3f694947	0.9112744
9	0xbfad95ea	-1.3561375
10	0x40857346	4.1703215
11	0x40eeaa06	7.458255
12	0x4038aca8	2.885538
13	0x412f4e61	10.956635
14	0xbf244b02	-0.6417695
15	0xc07a5a98	-3.9117794
16	0x40df15a0	6.97139
17	0x40be214e	5.9415655
18	0xc0bd80b4	-5.921961
19	0xbd90c09e	-0.07067989
20	0x3fa02029	1.2509815
21	0x3fbfb1c8	1.497613
22	0xc0af74da	-5.483014
23	0x3fa9977c	1.3249354
24	0xc11a390b	-9.6389265
25	0x3e3fc3e4	0.1872707
26	0x40621cc3	3.5330055
27	0x4042f13d	3.045974
28	0x4016770c	2.351016
29	0x40b4c19c	5.648634
30	0x40a57313	5.170297
31	0x40626bd3	3.537831
32	0x40c0e0ff	6.0274653
33	0x3f142fbc	0.57885337
34	0xc04bc203	-3.1837165
35	0xbd437e17	-0.04772767
36	0xc03e415f	-2.97274
37	0xbfe806c4	-1.8127065
38	0xc0022169	-2.0332892
39	0xbfbac02e	-1.4589899
40	0xbe975fcb	-0.29565272
41	0xc0b83a98	-5.7571526
42	0xc02019d3	-2.5015762
43	0x3fa19b25	1.2625471
44	0xbfa72d9c	-1.3060794
45	0x400f901f	2.2431715
46	0x3fec6d57	1.8470868
47	0xbfc65011	-1.5493184
48	0x3fda2b7f	1.7044524
49	0xc095e569	-4.684254
50	0x3e5ddd25	0.21666391
51	0xbef5da8a	-0.48018295
52	0x3f73b887	0.9520344
53	0xc0d036fb	-6.5067115
54	0x400c87db	2.195792
55	0x40348ea7	2.8212068
56	0x401200aa	2.2812905
57	0x3d561981	0.052270416
58	0xbf958a6d	-1.1682869
59	0x400c3a71	2.191067
60	0x400420ea	2.064509
61	0x3ed83d8a	0.4223445
62	0x3f7b50df	0.98170274
63	0x408c09c0	4.37619
64	0xc0ee7597	-7.451854
65	0xbf35a90d	-0.70961076
66	0x409c27b2	4.8798456
67	0xbdedadfe	-0.11605452
68	0x40064be5	2.0983822
69	0x4049d3ae	3.153545
70	0x4097a8b2	4.7393427
71	0xc1041297	-8.254539
72	0x3f8bb67c	1.0915065
73	0x3fa4c512	1.2872641
74	0x4001b0f3	2.0264251
75	0xc01692fa	-2.3527207
76	0x3fac56ee	1.3464029
77	0x3eed1607	0.46305868
78	0xbfe3a50e	-1.7784746
79	0x3f030395	0.5117734
80	0xbffd4dcf	-1.978937
81	0x40185063	2.3799064
82	0x3f282367	0.6567902
83	0x3d615718	0.0550147
84	0xbfa334b3	-1.2750458
85	0x406ab955	3.6675618
86	0xc01a4cec	-2.410945
87	0xbfa1644e	-1.2608736
88	0xc03cf65e	-2.952537
89	0x3e5f0cb6	0.21782193
90	0x4017764e	2.3665957
91	0x3f1fcd39	0.6242252
92	0xbf57b2fd	-0.8425749
93	0x3f208de7	0.62716526
94	0x3eaa5571	0.33268312
95	0xc0007f3d	-2.007766
96	0x401d53e7	2.458246
97	0x4053dc16	3.310308
98	0xc02579f7	-2.5855691
99	0x3ed38669	0.41313484
100	0x401bf927	2.437082
101	0x3f865cd3	1.0497078
102	0xbfb1e74f	-1.3898715
103	0xc0224f71	-2.5360987
104	0x4029644d	2.6467469
105	0xbe94bf0e	-0.29052013
106	0xc013ac32	-2.307385
107	0xbefdeaeb	-0.4959329
108	0xc00ed3f9	-2.2316878
109	0xbfd10559	-1.6329757
110	0xc010fc21	-2.2653887
111	0xc06ace15	-3.6688282
112	0x3fba9d7e	1.4579313
113	0xbf5d2a9c	-0.8639314
114	0x3fa0f014	1.2573266
115	0xbe1eab7d	-0.15495105
116	0x3fcd250f	1.6026934
117	0xbf05c9a7	-0.5226082
118	0xbfc65741	-1.5495378
119	0xbfa53bc9	-1.290887
120	0xbfa3c09d	-1.2793156
121	0x3f14112f	0.5783872
122	0x4011ed24	2.280099
123	0xc053bf1b	-3.3085392
124	0x3e4f19ab	0.20224635
125	0x3f61f0a2	0.882578
126	0xbfdb1d61	-1.7118341
127	0x3f8de10e	1.1084306
128	0xbff2bb03	-1.8963321
129	0xc063e135	-3.5606205
130	0x405536a3	3.3314598
131	0x3de9ae8f	0.114102475
132	0xc08aea8d	-4.3411317
133	0xbfd893e5	-1.6920134
134	0x3fb04a15	1.3772608
135	0x4088579d	4.260695
136	0xc023d6b4	-2.5599794
137	0x3fafeb23	1.3743633
138	0x3f4b3413	0.79376334
139	0x3ee02f88	0.43786263
140	0x3fa53bbf	1.2908858
141	0x40490e05	3.1414807
142	0x3fc6a2c2	1.551842
143	0xc04f7694	-3.2416124
144	0xbff11a94	-1.8836236
145	0x3eff8ab7	0.4991052
146	0x3fadd480	1.3580475
147	0x3e10973c	0.14120191
148	0xbfbca4ab	-1.4737753
149	0xc0297182	-2.647553
150	0xbf998308	-1.1993113
151	0x40370b87	2.8600786
152	0xbeabfc3e	-0.33590883
153	0xbdac5ff0	-0.08416736
154	0xbfd954e0	-1.6979027
155	0xbfd3e4be	-1.6554182
156	0x3fb3ebea	1.405637
157	0x3e757309	0.23969664
158	0x40304a0f	2.7545202
159	0xbf646f8e	-0.8923272

feature_net.linear_layer_output.bias f4 [5]
0	0xc03f55a1	-2.9896014
1	0x3ed4402c	0.4145521
2	0x3f7bb362	0.9832059
3	0x40208745	2.5082562
4	0x3d434750	0.04767543

feature_net.linear_layer_0.weight f4 [32, 18]
0	0x401af925	2.4214566
1	0xc049de9c	-3.154212
2	0x4015c148	2.339922
3	0x400f885a	2.2426972
4	0x40801352	4.0023584
5	0xc0adb04b	-5.42777
6	0xc0a32a0e	-5.0988836
7	0x41050a90	8.315079
8	0x3edc5efb	0.43041214
9	0x3ea8e290	0.32985353
10	0xc057b548	-3.3704395
11	0x411891b1	9.535569
12	0xbf1599a9	-0.5843759
13	0xbe141956	-0.1446279
14	0x3e2a238e	0.16615126
15	0x3e371f20	0.17882967
16	0x3e9b66a5	0.3035175
17	0xbe4915a6	-0.19637164
18	0xbf8ca261	-1.0987054
19	0x3f65e5c4	0.8980372
20	0xbf9c9f78	-1.2236166
21	0x3ed591aa	0.41712695
22	0x3e5ecd05	0.21757896
23	0x3f05bfea	0.5224596
24	0xc0936e98	-4.60725
25	0xbf694cb4	-0.91132665
26	0x40e4d5d2	7.151101
27	0x405c9cb5	3.4470646
28	0xc000cb42	-2.0124059
29	0x3fd0261c	1.626163
30	0x405a36c0	3.4095917
31	0x401352c7	2.3019273
32	0xbea25c54	-0.31711066
33	0xbe3dd374	-0.18537694
34	0x3d317204	0.043321624
35	0xbee1e3d2	-0.44119126
36	0x40051fdd	2.0800698
37	0xbf9b4f2b	-1.2133535
38	0x4026304f	2.5966985
39	0xbf8b88a7	-1.0901078
40	0xbf9e6d48	-1.23771
41	0x40a4f92a	5.1554155
42	0x3f8ce864	1.100842
43	0x406aa210	3.6661415
44	0xc09ce1f9	-4.9025846
45	0x3ff9e714	1.9523644
46	0x3f06f05a	0.527105
47	0xc029287c	-2.643096
48	0x40233c5f	2.5505598
49	0xc00b080b	-2.172366
50	0x3cff80ff	0.03118944
51	0xbf03fff0	-0.51562405
52	0xbe7c685b	-0.24649183
53	0xbdac8dd9	-0.08425493
54	0x3f5f61c3	0.8725855
55	0xc03fc530	-2.9964104
56	0x40121721	2.2826617
57	0xc03138a4	-2.769082
58	0xbeee2c6e	-0.46518272
59	0x4105b4ea	8.356668
60	0x40239eb5	2.5565617
61	0x40070faa	2.110331
62	0x40002de3	2.0028007
63	0x3f901e94	1.1259332
64	0xc00cf885	-2.2026684
65	0xbf1a72c0	-0.60331345
66	0xc00ea3ef	-2.2287557
67	0xc05b4a21	-3.4263995
68	0x3e4f709e	0.20257804
69	0xbd0fd7f7	-0.03511807
70	0x3e85c779	0.26128748
71	0xbe8e1e46	-0.27757472
72	0x40a8e148	5.2775
73	0x402f935a	2.7433686
74	0xc0bd0b2f	-5.907615
75	0xbf6b93fc	-0.9202268
76	0xc16953f3	-14.582995
77	0xc13ab576	-11.669302
78	0xc071cc37	-3.7780893
79	0x3f5b9d9b	0.8578736
80	0xbf87c3d8	-1.0606642
81	0x3fcdab81	1.6067964
82	0xbf2da0ea	-0.6782366
83	0xbff25227	-1.8931321
84	0xc00970cb	-2.1475093
85	0xbffc6e5b	-1.9721178
86	0xbc11638e	-0.008873833
87	0xbd9e0d84	-0.07717422
88	0x3e2a45b8	0.16628158
89	0x3e678081	0.22607614
90	0x3ef4fd9b	0.47849736
91	0xc0456ba3	-3.0846946
92	0x3f679d4b	0.90474385
93	0x3fdac230	1.7090511
94	0xc066cd03	-3.606263
95	0x408f3471	4.4751515
96	0x40664c5c	3.5984106
97	0xc09c4c94	-4.884348
98	0xbfdc4295	-1.7207819
99	0x3fb3435e	1.4004934
100	0x40227558	2.538412
101	0xbfeb798b	-1.8396467
102	0xc0d34386	-6.6019926
103	0x408b3132	4.3497553
104	0x3cd022a6	0.025407147
105	0x3db2cbf2	0.08730306
106	0xbbefdd61	-0.0073200916
107	0x3ce968e7	0.028492404
108	0x40062181	2.095795
109	0xbf7caa6f	-0.9869756
110	0x3e8eed69	0.27915505
111	0xbd263d46	-0.04058578
112	0xbfc07e92	-1.5038626
113	0x4067c011	3.6210978
114	0x408f676f	4.481376
115	0xc043d5a1	-3.0599139
116	0x3ff8cf80	1.9438324
117	0xc0e975af	-7.2956157
118	0xc065df49	-3.5917532
119	0x40878ca3	4.2359176
120	0xc051044f	-3.265888
121	0x40f14069	7.5391126
122	0xbe92c94a	-0.28669196
123	0x3f0d3197	0.55153793
124	0xbeab2cc7	-0.334326
125	0xbd915ad2	-0.07097401
126	0x3e9ed737	0.3102357
127	0x3f34671d	0.7046984
128	0x402abb98	2.6676998
129	0x3f80d40f	1.0064715
130	0xbfee29ea	-1.8606541
131	0x40c56f59	6.1698422
132	0xbf06fa3d	-0.52725583
133	0x408fdb38	4.49551
134	0x4058f782	3.3901067
135	0xc13d22fd	-11.821042
136	0x3e952f5a	0.2913769
137	0x402e2b4a	2.7213922
138	0xc0281d86	-2.626802
139	0xc0669a56	-3.60317
140	0x3de56219	0.11200351
141	0xbe1e848a	-0.15480247
142	0xbd534c38	-0.05158636
143	0xbed29403	-0.4112855
144	0x403f851b	2.992499
145	0x3e9dbcc2	0.30808073
146	0x409f4810	4.9775467
147	0x3fea2486	1.8292396
148	0xc030bfed	-2.7617142
149	0xbedc27af	-0.42999026
150	0xbee88093	-0.45410594
151	0x4013320c	2.2999296
152	0xc06ded84	-3.7176218
153	0xc06c1165	-3.6885617
154	0x40364cab	2.8484294
155	0x404b1a40	3.1734772
156	0xc015afa1	-2.3388445
157	0xbfd49683	-1.6608433
158	0x3e8c120b	0.27357516
159	0xbea93dbe	-0.33054918
160	0xbe87920e	-0.26478618
161	0x3e95326b	0.29140028
162	0x407ef04d	3.9834168
163	0xc0841745	-4.1278405
164	0x3fa55ce0	1.2918968
165	0xbdc4146b	-0.09574207
166	0xc0e37da4	-7.109087
167	0x4104115b	8.254237
168	0xbf1f5042	-0.6223184
169	0x40601084	3.501008
170	0xc045a2a8	-3.0880527
171	0xbfe9ac92	-1.8255789
172	0x3fb86252	1.4405005
173	0xbdb89449	-0.09012658
174	0x3fcbf649	1.5934535
175	0x3f1b34a1	0.6062718
176	0xbcd6234e	-0.026139881
177	0x3e6b24d1	0.22963263
178	0xbcf13b37	-0.029447181
179	0xbe424a8f	-0.18973754
180	0x3f057786	0.52135503
181	0x3ff8f5e4	1.945004
182	0x3ff1736a	1.8863347
183	0xbe9cded3	-0.3063875
184	0xbfe0df33	-1.7568115
185	0x40fae663	7.8406234
186	0x40239565	2.5559933
187	0xc1047178	-8.277702
188	0xbfefda31	-1.8738462
189	0xbe975b9b	-0.29562077
190	0x40126c16	2.287847
191	0xc0e5840c	-7.172369
192	0x3f0b918a	0.5451895
193	0xbea65d81	-0.32493213
194	0x3e53e340	0.20692158
195	0xbe535d64	-0.20641094
196	0xbe09ab61	-0.13444282
197	0xbe3e0346	-0.18555936
198	0xbf694ae7	-0.91129917
199	0xc021009a	-2.5156617
200	0xbed50495	-0.41605058
201	0xbfa4634a	-1.2842801
202	0xc0d7175e	-6.7216024
203	0xbf78be19	-0.97165066
204	0x40e0a817	7.020519
205	0x4091db40	4.558014
206	0xbea46b8a	-0.32113296
207	0x3d27d94e	0.040978722
208	0x3fee4725	1.8615462
209	0x40d7609f	6.7305446
210	0xc005664f	-2.0843694
211	0xbf40f30f	-0.7537088
212	0xbe3037aa	-0.17208734
213	0xbc6fe1fb	-0.01464128
214	0x3d82b55f	0.0638225
215	0xbe3da42b	-0.18519656
216	0xbfa3ae2e	-1.278753
217	0x3f2bf630	0.6717253
218	0x3d8bc485	0.068245925
219	0x3f06c021	0.52636915
220	0xc10a73ea	-8.653299
221	0x4084e256	4.152629
222	0x411944bf	9.579284
223	0xc061b8fd	-3.5269158
224	0xbe4dff3f	-0.201169
225	0xbf809999	-1.0046874
226	0x40c1c591	6.055367
227	0xc001b158	-2.0264492
228	0xbebca582	-0.36845022
229	0xbf795a54	-0.97403455
230	0x3ea8518f	0.32874724
231	0xbe0bd5d8	-0.13655794
232	0xbccc234b	-0.024919173
233	0xbefb333f	-0.49062535
234	0xc067960c	-3.6185331
235	0xbf1ca95d	-0.6119593
236	0xbfc6916d	-1.551313
237	0x3fc54875	1.5412737
238	0x400da1f4	2.2130098
239	0xbfc26589	-1.5187236
240	0x403dad5a	2.9637055
241	0x40a7c578	5.242855
242	0x40687692	3.632237
243	0x3eb37da3	0.3505679
244	0xc081464d	-4.0398316
245	0xc066b91c	-3.6050482
246	0xc031008f	-2.765659
247	0xc01edc78	-2.4822063
248	0x3df339d8	0.11876267
249	0x3e6671c6	0.22504339
250	0x3da6e736	0.08149569
251	0xbd569f2f	-0.052397903
252	0x4005ee59	2.0926726
253	0x3ec6aba3	0.38802823
254	0xc01d4e6d	-2.4579117
255	0xc0899772	-4.299737

feature_net.linear_layer_0.bias f4 [32]
0	0xbe8f10a2	-0.27942377
1	0xc00c6831	-2.1938593
2	0xc0d87c92	-6.7652063
3	0x411cfa5e	9.811125
4	0x402dfd38	2.7185802
5	0xbda81240	-0.08206606
6	0xbf916251	-1.1358129
7	0xc00f4a4b	-2.2389095
8	0xc0fa82e6	-7.828479
9	0xc079d4ea	-3.9036202
10	0x3fbd0ba2	1.4769175
11	0xc0148bd9	-2.3210356
12	0xbfc64e41	-1.5492631
13	0xc0037c17	-2.0544488
14	0x3f64f794	0.89440274
15	0x40089868	2.1343021
16	0xc0bbe10e	-5.8712225
17	0x4125041d	10.313504
18	0xbdf621fc	-0.12018201
19	0xc07abfb7	-3.9179513
20	0x40187928	2.3823948
21	0x3fbd8f00	1.4809265
22	0x409cc9b9	4.8996243
23	0x3fd7d53b	1.6861948
24	0x408ba9f1	4.364495
25	0x40358295	2.836095
26	0x3dae73ff	0.08518218
27	0x3e8748e2	0.26422793
28	0xc080d989	-4.0265546
29	0x3d9585fc	0.07300946
30	0x4007503c	2.114272
31	0x404f8e12	3.2430463

feature_net.layer_norm_0.weight f4 [32]
0	0x40807c97	4.0152087
1	0x40813db0	4.03878
2	0x408cd6a7	4.4012027
3	0x40f0dd14	7.526987
4	0x40d6d015	6.7129006
5	0x405e5419	3.473883
6	0x40e8f0e3	7.279405
7	0x40688c01	3.6335452
8	0x408ec589	4.461613
9	0x4070db04	3.7633677
10	0x40ad693f	5.4190974
11	0x4092bbc3	4.58542
12	0x40cb000d	6.343756
13	0x40434d09	3.0515769
14	0x40b40e57	5.6267505
15	0x406b082c	3.6723738
16	0x3e3fcf96	0.18731532
17	0x40c96809	6.2939496
18	0x40dad8c1	6.838959
19	0x403da5c8	2.9632435
20	0x40ac4ad5	5.384135
21	0x4027cec7	2.6219957
22	0x4100dd3e	8.054014
23	0x40a9e073	5.3086486
24	0x40903307	4.506229
25	0x4074d608	3.8255634
26	0x404b1f2a	3.173777
27	0x41055658	8.33358
28	0x40a32eea	5.099477
29	0x409c270b	4.879766
30	0x407ca988	3.9478474
31	0x40ac40f7	5.3829303

feature_net.layer_norm_0.bias f4 [32]
0	0x4021c9b2	2.5279355
1	0xbe7ae78e	-0.24502394
2	0x409353c5	4.603976
3	0x3f1acc44	0.60467935
4	0x407adc0b	3.9196804
5	0xbf9a0274	-1.2031999
6	0x400c54e5	2.1926816
7	0x3fc0b818	1.5056181
8	0x3e9963d3	0.29958972
9	0x3ff11c5e	1.8836782
10	0xbe395d94	-0.18102103
11	0x4019cd49	2.4031546
12	0x3fb2b3da	1.3961136
13	0x3ebd8359	0.37014273
14	0xbe3e77ae	-0.18600342
15	0x3da568c7	0.08076625
16	0xbf457c2f	-0.77142614
17	0xbc8105f9	-0.015749918
18	0x3eeaab4d	0.45833817
19	0x404a7a4d	3.1637146
20	0x3f61be3c	0.881809
21	0x40309db5	2.7596257
22	0x404da5eb	3.2132518
23	0xbf8e7d56	-1.1132
24	0x3f8c2ae0	1.0950584
25	0x405b46f9	3.4262068
26	0x3e485148	0.19562256
27	0x400a01d5	2.1563618
28	0x400290c1	2.040085
29	0xbdf314e5	-0.1186922
30	0x3e78517e	0.24249837
31	0x404ddd26	3.2166228

feature_net.linear_layer_1.weight f4 [32, 32]
0	0x406cc560	3.6995468
1	0x3fab8fc4	1.3403249
2	0xc0890304	-4.281618
3	0xbf02f765	-0.51158744
4	0x4076a0eb	3.8535717
5	0x40744486	3.8166823
6	0x40daf9aa	6.8429766
7	0xbe8bf112	-0.2733236
8	0x3f99600b	1.1982435
9	0xbf0e90c0	-0.5568962
10	0xbeefb794	-0.46819746
11	0x4056c54d	3.3557923
12	0x4098584d	4.760779
13	0x40d10f07	6.5330844
14	0x40432db6	3.049665
15	0x40b931ce	5.7873297
16	0x3eb12666	0.34599608
17	0xbfd8508e	-1.6899583
18	0x4081f4a2	4.0611124
19	0xbe1e23c9	-0.15443338
20	0x4007c157	2.1211755
21	0x40bd3da5	5.913775
22	0x406a0049	3.6562674
23	0x406c0836	3.6880012
24	0xc08210ee	-4.0645666
25	0x40ea0d94	7.3141575
26	0x3fe7e74f	1.8117465
27	0x40972820	4.723648
28	0x401d1295	2.4542592
29	0x3f54c12f	0.83107275
30	0x40840398	4.1254387
31	0xc0166dee	-2.3504596
32	0x40849a39	4.143826
33	0x402c0a44	2.6881266
34	0x3f65190c	0.89491343
35	0xc0081513	-2.1262863
36	0x408714e8	4.221302
37	0xbfd5b916	-1.6697109
38	0xc00e9007	-2.2275407
39	0x3fb3e1cc	1.4053283
40	0x401f27ad	2.4867966
41	0xbfb1ff01	-1.3905946
42	0x407be1e2	3.9356618
43	0x402d0605	2.7034924
44	0x3fb598b8	1.4187231
45	0x40a60708	5.1883583
46	0x3f760759	0.9610496
47	0x4094ad70	4.6461716
48	0xbe26f62f	-0.16304849
49	0x40867543	4.201814
50	0x410f1348	8.942207
51	0x3e1eedcb	0.15520398
52	0x40b6ef1c	5.716688
53	0xc0a0d2a0	-5.025711
54	0x408c3525	4.3814874
55	0x409dc708	4.930546
56	0x40606cd2	3.5066419
57	0x413a3a33	11.639209
58	0x409cd97f	4.90155
59	0xbf79440c	-0.97369456
60	0x4009bfe5	2.1523373
61	0x4087c431	4.242699
62	0x3fccca32	1.5999205
63	0x3fc70d48	1.5550928
64	0x403f64a9	2.9905188
65	0xbfe472a2	-1.7847483
66	0xbe068687	-0.13137256
67	0x405417b2	3.3139462
68	0xc09353ac	-4.603964
69	0x400955f1	2.1458704
70	0x3ee7552e	0.45182174
71	0xbf694202	-0.91116345
72	0x3fc9e5f8	1.5773306
73	0x4126be54	10.421467
74	0x407061b8	3.7559643
75	0x407b135c	3.9230566
76	0x3fed5c68	1.8543825
77	0x3f7071d3	0.9392368
78	0x4101439b	8.079005
79	0x409e76a8	4.9519844
80	0x3e7fb31b	0.24970667
81	0x3f780ca4	0.9689429
82	0x4087ce4f	4.243934
83	0x3fd2cd4c	1.6468902
84	0x407a3ae7	3.909845
85	0x40aef939	5.4679227
86	0xc0bd5b8f	-5.9174266
87	0x4075e9d0	3.8423958
88	0x40938013	4.609384
89	0xbc9b8dff	-0.018988607
90	0xc016ca6b	-2.3561046
91	0xbd9981c6	-0.074954554
92	0xbf59c962	-0.8507291
93	0x409ff7f7	4.999019
94	0x3ff31ca9	1.8993121
95	0x409b4a42	4.8528147
96	0xc15598f6	-13.349844
97	0x3fcd1f76	1.6025226
98	0x40ddcdd7	6.931377
99	0x4100bbfd	8.045896
100	0x406cecb9	3.7019484
101	0x40b0c215	5.5236917
102	0x40457b06	3.0856338
103	0x3fde3810	1.7360859
104	0x3f842bf2	1.0325911
105	0x4033b187	2.8077104
106	0xc0ad50b3	-5.416101
107	0xc12c4e54	-10.769123
108	0x3b35a973	0.0027719408
109	0x40b252a6	5.572589
110	0x4020ecab	2.514445
111	0xbe8b7021	-0.27233985
112	0x3f140380	0.5781784
113	0x40c4a204	6.1447773
114	0x400ac8b3	2.1684997
115	0xc00bfba6	-2.1872344
116	0x40426f5f	3.0380476
117	0x3f9eb261	1.2398187
118	0x407805d4	3.8753557
119	0x3fa65d81	1.2997285
120	0x408f0f5d	4.4706254
121	0xc044122b	-3.063609
122	0xbe86c5e0	-0.26322842
123	0x3fb28e90	1.3949757
124	0x40179cbb	2.368941
125	0xc00187c1	-2.0239108
126	0x40dc9fd7	6.8945117
127	0x402dd92b	2.71638
128	0x41c9160e	25.135769
129	0x4127af86	10.480352
130	0x4143d393	12.239154
131	0x41f47bad	30.560389
132	0x4142fe3c	12.187069
133	0x41143ed4	9.265339
134	0xc0aecf2c	-5.4627895
135	0x419005b4	18.002785
136	0x40e450e6	7.1348753
137	0x41858cb9	16.693712
138	0x41ca632f	25.29843
139	0x41b8b5e1	23.088808
140	0x41c3b1d0	24.461823
141	0x41c72637	24.89366
142	0x3ed82e85	0.42222992
143	0x418b1960	17.38739
144	0x3e9a7c0b	0.30172762
145	0x4221a475	40.410603
146	0x411fa01d	9.97659
147	0x4115c3c3	9.360293
148	0x41a23277	20.274641
149	0x41f57f14	30.68705
150	0x3fc94a6a	1.5725834
151	0xc0ac5150	-5.384926
152	0x418b500c	17.414085
153	0x41c25970	24.29367
154	0x41a1b7b3	20.214697
155	0xbfe37379	-1.7769614
156	0xc120796c	-10.029644
157	0x4191c8c1	18.223024
158	0x41b8bcdb	23.092215
159	0x41b7d72e	22.980068
160	0x409faacd	4.9895997
161	0x3f9cabac	1.223989
162	0xc022ea70	-2.545559
163	0xbea9b073	-0.33142433
164	0x40169911	2.3530924
165	0xc0975b3e	-4.729888
166	0xbfc81602	-1.5631716
167	0x40575a18	3.364874
168	0xbfac66ec	-1.3468909
169	0xc049f632	-3.1556516
170	0x409d7fb9	4.921841
171	0x411fab39	9.979302
172	0x40e16352	7.043374
173	0x404453eb	3.067622
174	0x40d8abc3	6.770967
175	0x40d89be9	6.769032
176	0xbe200465	-0.15626676
177	0x3fc6fe64	1.5546384
178	0xbf8c539c	-1.0963016
179	0x3fd2c21f	1.6465491
180	0x408fde26	4.4958677
181	0x402c5afd	2.6930535
182	0x409ee0f4	4.96496
183	0xc127d949	-10.490548
184	0xbfb400a5	-1.4062697
185	0x40813487	4.037662
186	0x402c965f	2.696678
187	0xc02fdfcb	-2.7480342
188	0xc0649ab5	-3.5719426
189	0x40cb6dc6	6.35715
190	0x3df9acb0	0.12191141
191	0x405f958a	3.4935021
192	0x3fb096b2	1.3795989
193	0xc045d509	-3.0911276
194	0x414004ac	12.001141
195	0x4047f451	3.124287
196	0x409923da	4.7856264
197	0x3f565126	0.8371757
198	0x40c995bb	6.2995276
199	0xc09b3b4c	-4.8509884
200	0xc084b620	-4.147232
201	0x40bfad3c	5.989897
202	0xbfa28e8c	-1.2699752
203	0x3f3e9eab	0.7446086
204	0x3f91eb0e	1.1399858
205	0x40a34911	5.1026692
206	0x40eb8143	7.359529
207	0xbe464484	-0.19362074
208	0x3ea5e711	0.32402852
209	0xc0b77c3b	-5.733915
210	0x4108644c	8.524487
211	0x409179c2	4.546113
212	0x3fe372d5	1.7769419
213	0x3dad504e	0.084625825
214	0x40235d7d	2.552581
215	0x3ff2f1e1	1.8980066
216	0xc0cc7526	-6.3893003
217	0x3fad0b15	1.3519007
218	0xbf9c342f	-1.2203425
219	0x409e97e3	4.956041
220	0x40f1806b	7.546926
221	0x40022814	2.0336962
222	0xbeafe2ef	-0.34352824
223	0x401f6f30	2.4911613
224	0x400f144b	2.2356136
225	0x4027be22	2.6209798
226	0x41035ded	8.210431
227	0x3ec8399c	0.39106452
228	0x40ac9f8e	5.394477
229	0x3e537e3e	0.20653626
230	0xc102f779	-8.185418
231	0x408d0d8f	4.407905
232	0x40eacdd3	7.337625
233	0x4063af2c	3.5575666
234	0x3ec02f59	0.37536123
235	0x3f40092f	0.75014013
236	0x3fc17b8f	1.5115832
237	0x4018b926	2.3863006
238	0x40c3c4cd	6.1177735
239	0x409c9484	4.8931293
240	0x3c5e81be	0.013580738
241	0xbf014b23	-0.50505275
242	0x3dc1707d	0.094452836
243	0x4026c33d	2.6056664
244	0x3baa59f1	0.00519871
245	0x40c7a14a	6.2384386
246	0x40a60830	5.1884995
247	0xc00ad077	-2.1689737
248	0xbf6fed61	-0.93721586
249	0xc01a3d1d	-2.40998
250	0x4005bdf2	2.0897183
251	0xbeb19ead	-0.34691373
252	0xbe7c79f0	-0.2465589
253	0x3d38b6ea	0.045096315
254	0x4029c8bd	2.652877
255	0x412b153a	10.692682

feature_net.linear_layer_1.bias f4 [32]
0	0x40236297	2.5528924
1	0x3ff9d619	1.9518462
2	0x401ba2bf	2.4318082
3	0x404874a8	3.1321201
4	0x41e7055b	28.877615
5	0x3ffe7bd4	1.9881539
6	0x4035c95b	2.8404148
7	0x404e7e3a	3.2264543
8	0x4099bb13	4.804086
9	0x4083b65d	4.116011
10	0x403ecff7	2.9814432
11	0x40588556	3.3831382
12	0x40abc8f6	5.3682814
13	0x40133bb3	2.3005188
14	0x4081ba69	4.054005
15	0x4069a88c	3.6509123
16	0x3fea374a	1.8298123
17	0x4013825d	2.3048317
18	0x3fdf6393	1.7452263
19	0x3ff2a2a4	1.8955884
20	0x40b26343	5.574617
21	0x409f0c3d	4.970244
22	0x3fdfd895	1.748797
23	0x3facc792	1.3498404
24	0x409399e7	4.612537
25	0x40790757	3.891073
26	0x404f1620	3.2357254
27	0x409c948b	4.8931327
28	0x4029ba6f	2.652004
29	0x40af02db	5.4690986
30	0x406808c0	3.625534
31	0x3fb3d7df	1.4050254

feature_net.layer_norm_1.weight f4 [32]
0	0x4102ee67	8.183204
1	0x40956a75	4.6692452
2	0x40cf7d75	6.4840646
3	0x412521d9	10.320764
4	0x3e3a3440	0.18183994
5	0x4047fe14	3.1248827
6	0x410d3dc6	8.827581
7	0x40f14bd2	7.5405054
8	0x40b161b7	5.543178
9	0x4085d965	4.1827874
10	0x40c0e581	6.0280156
11	0x40845681	4.1355596
12	0x404df0fe	3.217834
13	0x4102d463	8.176852
14	0x40b95dfe	5.7927237
15	0x40bb5d35	5.855128
16	0x4057a853	3.3696487
17	0x4102a0a6	8.164221
18	0x411a8756	9.658041
19	0x40af1557	5.471355
20	0x40a4beef	5.1483073
21	0x409408f8	4.626095
22	0x40d2fb8e	6.5932074
23	0x4107733b	8.465632
24	0x4094d192	4.6505823
25	0x40955261	4.666306
26	0x40864682	4.196107
27	0x40b7fc80	5.7495728
28	0x40fbc756	7.868083
29	0x40c6be70	6.210747
30	0x4110d62b	9.052287
31	0x4054c0c5	3.3242657

feature_net.layer_norm_1.bias f4 [32]
0	0x3d91ea86	0.0712481
1	0x3fb26570	1.3937206
2	0xbf1025ac	-0.5630748
3	0x3f9355f8	1.151061
4	0xbf9c57a6	-1.2214248
5	0x3f6b9813	0.9202892
6	0x3f81d9d5	1.0144602
7	0x3eb70615	0.35746828
8	0x3ddd4f46	0.10806136
9	0x3fffc3a7	1.9981583
10	0x3fe0e022	1.75684
11	0x3d9924f9	0.07477755
12	0x3fa1b5a1	1.2633554
13	0x3eb99915	0.36249605
14	0xbf0db1da	-0.55349505
15	0xbe1d73dd	-0.1537623
16	0x3fc90029	1.5703174
17	0x3f3b99f8	0.7328181
18	0x3d5d37fd	0.054008473
19	0x3f6a5ffd	0.91552716
20	0x3fd4eff9	1.6635734
21	0x3f8edd35	1.1161257
22	0x3e233e69	0.15941776
23	0xbebcb28a	-0.36854964
24	0xbfe11a24	-1.7586102
25	0xbfac4b01	-1.3460389
26	0xbf8fbaeb	-1.1228918
27	0x3c91be3e	0.01779091
28	0x3fb8600f	1.4404315
29	0x3f52ac31	0.82293993
30	0x3f94b324	1.1617169
31	0x3f605592	0.8763057

feature_net.linear_layer_output.weight f4 [5, 32]
0	0x401bcfc2	2.4345555
1	0xc00241ea	-2.035273
2	0x3fb2f93a	1.3982308
3	0x40b3f9d9	5.624249
4	0x3fcac2c6	1.584069
5	0xc0dc6926	-6.8878355
6	0x417f5322	15.957796
7	0x40b07e4a	5.515416
8	0x40f0a874	7.520563
9	0xc1087170	-8.527695
10	0xbff62086	-1.9228675
11	0x4082fc60	4.0933075
12	0x401aad7d	2.416839
13	0x40c43e2e	6.1325903
14	0x3fa95458	1.3228865
15	0x3fb511ea	1.4146092
16	0xc0335022	-2.801766
17	0x40c02939	6.005032
18	0x3ec14fff	0.37756345
19	0xbe48a121	-0.19592716
20	0x3f0c2af2	0.5475303
21	0x3f1d216e	0.61379135
22	0xc020566f	-2.5052755
23	0x40679527	3.6184785
24	0x3f1c7f6a	0.6113192
25	0xc0b3682e	-5.6064672
26	0x40c5505d	6.16606
27	0xc0d22a18	-6.5676384
28	0x4062363b	3.53456
29	0x40bbb94a	5.8663683
30	0x41323629	11.138223
31	0xc094fcc8	-4.655857
32	0x4004d3a9	2.0754187
33	0x3eaf96e7	0.34294817
34	0x4048c1bf	3.1368253
35	0xc022196d	-2.5328019
36	0xbd9d1e6b	-0.076718174
37	0x3fc451c1	1.5337449
38	0x40464326	3.0978484
39	0x402622e1	2.5958788
40	0x3f57ac99	0.8424774
41	0xc003f03a	-2.0615373
42	0xc023b79b	-2.5580814
43	0xbe96a307	-0.29421255
44	0xc01e01cb	-2.4688594
45	0x408c2c82	4.380433
46	0xbfcb0b0e	-1.5862749
47	0xbfd96d08	-1.6986399
48	0x3f911f6a	1.1337712
49	0xbe9be309	-0.30446652
50	0x3f78acc7	0.9713864
51	0x402921ff	2.6427
52	0xbfac7a3c	-1.3474803
53	0x3fdd5064	1.7290158
54	0xc01902f4	-2.3908052
55	0xc0452e6b	-3.0809581
56	0xbfefb932	-1.8728392
57	0xbfbff01f	-1.4995154
58	0xc0845d15	-4.1363626
59	0x3fa733f3	1.3062729
60	0x405f3ab5	3.4879582
61	0xbfce578e	-1.612047
62	0xbddd54d8	-0.10807198
63	0x3f3853a7	0.72002643
64	0xc084b1f9	-4.146725
65	0xbe8a73ef	-0.27041575
66	0x40c03a53	6.0071197
67	0x3f8776ce	1.0583131
68	0xbd7ed1dd	-0.06221186
69	0xbf24a93b	-0.64320725
70	0xbe38bfc2	-0.180419
71	0x3c4f292e	0.012644095
72	0x3e04b5c2	0.1295996
73	0x3fd49b44	1.6609883
74	0x403b86a4	2.9300928
75	0x3fe7ad22	1.8099711
76	0xbee0101e	-0.43762296
77	0xbce429dd	-0.027851993
78	0x3cd0118b	0.02539899
79	0x402b46f7	2.6762064
80	0xc0518f42	-3.2743688
81	0x3e699ece	0.22814485
82	0x3f7d51a4	0.989527
83	0xc00f85ca	-2.2425408
84	0x3fc1d957	1.5144452
85	0xbfc2e2d7	-1.5225476
86	0x3f779e17	0.967256
87	0x3fd2be47	1.6464318
88	0x3e8e3195	0.27772203
89	0xc0268826	-2.6020598
90	0x3ff5a35b	1.9190477
91	0xbfb0920b	-1.3794569
92	0xc08a5579	-4.3229337
93	0x4068f708	3.6400776
94	0xbf48ebed	-0.78484994
95	0xc03b8b74	-2.9303865
96	0xc0045296	-2.0675406
97	0xc0859ac8	-4.175144
98	0x3ffb2f80	1.9623871
99	0x40b7c718	5.7430534
100	0xbca4f6e9	-0.020137267
101	0xbfb1c824	-1.3889203
102	0x4040c577	3.0120523
103	0x3fa42010	1.2822285
104	0x4014fccd	2.3279297
105	0xbcc030aa	-0.023460705
106	0x4009c149	2.1524222
107	0xbf48dba0	-0.7846012
108	0x400147f0	2.0200157
109	0xbd8f3ab8	-0.069936216
110	0xc08d12ae	-4.40853
111	0xbed8cb8c	-0.42342794
112	0xbf05af51	-0.52220637
113	0xc0015f45	-2.0214398
114	0xbea72a38	-0.32649398
115	0xbff91524	-1.9459577
116	0x40192153	2.392659
117	0x3f9fbcc8	1.2479486
118	0x3f28c76e	0.65929306
119	0x40120305	2.2814343
120	0x404f9f04	3.2440805
121	0x409165f7	4.543697
122	0xbf5ed5a8	-0.87044764
123	0xbfd80ccc	-1.6878905
124	0x3fae31a0	1.3608894
125	0x3e005507	0.12532435
126	0x3ef58bdd	0.4795827
127	0xbf37875a	-0.71690905
128	0x403ae987	2.9205034
129	0x40284404	2.6291513
130	0x3e7b6d4c	0.24553412
131	0xc03f30f5	-2.987363
132	0x3d8acbc5	0.06777147
133	0x3fe423b3	1.7823395
134	0xbfefa4de	-1.8722188
135	0x3f366890	0.712533
136	0xc00d76fc	-2.2103872
137	0xbfa55b60	-1.291851
138	0xc02f04cd	-2.734668
139	0x3f9ccc5d	1.2249867
140	0x4043a61a	3.057013
141	0xbd1aacea	-0.03776256
142	0x4074c163	3.8243034
143	0xbe790711	-0.24319102
144	0xbfd18c7e	-1.6371
145	0x406daf61	3.7138293
146	0x41001935	8.006154
147	0x402314e8	2.548151
148	0xbf5799e3	-0.8421919
149	0xbf8ba19d	-1.0908695
150	0xc02850d7	-2.629934
151	0xbf9b74a2	-1.2144969
152	0xbeeee084	-0.46655667
153	0xc08663d5	-4.1996865
154	0x3da891f4	0.08230963
155	0x3fd62b1a	1.6731904
156	0xc02cf639	-2.7025282
157	0xbe82e477	-0.2556493
158	0x3f83d466	1.0299194
159	0xc03ffe2f	-2.9998891

feature_net.linear_layer_output.bias f4 [5]
0	0xbff902a8	-1.9453936
1	0xbff1d354	-1.8892617
2	0xbe95235b	-0.29128537
3	0x4080f180	4.02948
4	0x406e4d66	3.723474

feature_net.linear_layer_0.weight f4 [32, 18]
0	0xc0625f5c	-3.5370703
1	0xbf3c8990	-0.73647404
2	0xbf6ffb0a	-0.9374243
3	0xbff37ec3	-1.902306
4	0x3f8e63dc	1.1124225
5	0xbf18e2f0	-0.5972128
6	0xc05fbc18	-3.4958553
7	0x409dc927	4.9308047
8	0x4123f12a	10.246378
9	0xbfa750eb	-1.3071569
10	0x400d5e61	2.2088854
11	0xc03bdd59	-2.935385
12	0xbf324214	-0.6963208
13	0x40389bca	2.8845086
14	0x3f008af6	0.5021204
15	0x3dd6cfb6	0.104888365
16	0xbb86b691	-0.004111119
17	0x3dc050b5	0.09390394
18	0xbda43cbc	-0.08019397
19	0x3f951879	1.1648093
20	0x401459fa	2.3179917
21	0x403932ff	2.8937376
22	0x402c0f7a	2.6884446
23	0x3d98db2b	0.07463678
24	0xc04349b4	-3.0513735
25	0xc0d5e486	-6.684146
26	0x40aa6bec	5.325674
27	0x40c226ee	6.067252
28	0x4033d3e1	2.809807
29	0x40075fb8	2.1152172
30	0x40083e26	2.1287932
31	0x3eb0c630	0.34526205
32	0x3e6ca803	0.23110966
33	0x3e36577e	0.17806813
34	0xbcec1282	-0.028817419
35	0xbe94c3a6	-0.29055518
36	0xbfa8a67e	-1.3175809
37	0xc0805a07	-4.0109897
38	0x3f8859e2	1.065243
39	0xbf72b24a	-0.948033
40	0xbc97f9c6	-0.018551718
41	0x402f1434	2.735608
42	0x3f1636f8	0.58677626
43	0x40cfe80e	6.497077
44	0x400e9f94	2.2284899
45	0xbf68934b	-0.9084975
46	0x40a19a9d	5.0501237
47	0x41219a8c	10.100231
48	0x3f20740d	0.6267708
49	0xc01ca058	-2.4472866
50	0xbd80aee6	-0.06283359
51	0xbd588196	-0.052857958
52	0xbee2a734	-0.4426819
53	0xbe0cabc6	-0.13737401
54	0xc053984e	-3.306171
55	0x40253a52	2.5816846
56	0xbff70221	-1.9297525
57	0x3ebe9f71	0.3723102
58	0x40ab0789	5.34467
59	0xc0e5a461	-7.176316
60	0xbb78d13c	-0.003796651
61	0x3ea0b5a5	0.31388584
62	0x3f3a3a79	0.7274547
63	0x407e53c9	3.9738638
64	0xbe608605	-0.21926124
65	0x3fb37df0	1.4022808
66	0x408b0b4b	4.3451285
67	0xc0dae1c6	-6.84006
68	0xbeca0e76	-0.39464158
69	0x3f39eacc	0.72623897
70	0xbed9d3d1	-0.42544416
71	0xbdf705c9	-0.1206165
72	0xbfa6bca6	-1.3026321
73	0x401f5b4b	2.489947
74	0x40060f33	2.0946777
75	0x4057441d	3.3635323
76	0xc0b28aa5	-5.5794244
77	0xc04f5def	-3.2401083
78	0x3e0aec16	0.13566622
79	0xbfa09fa6	-1.2548721
80	0x402cf5a4	2.7024927
81	0xc0ef7774	-7.4833317
82	0x3fd845e9	1.6896335
83	0x3f672a7a	0.9029919
84	0x4105cbf8	8.362297
85	0x40d6f746	6.7176847
86	0xbe58bbbf	-0.2116537
87	0xbef0764a	-0.46965247
88	0xbec8b3e1	-0.39199737
89	0xbe0fe691	-0.14052798
90	0xc066a6b2	-3.6039243
91	0x3f5966da	0.84922564
92	0x3fa46337	1.2842778
93	0xbeaeb6a8	-0.3412373
94	0xbe582d56	-0.21111044
95	0xbeee0931	-0.46491387
96	0x40f783b7	7.7348285
97	0x408ea7c0	4.4579773
98	0x400cfbc0	2.2028656
99	0xc0ab143e	-5.346221
100	0x3d96b759	0.073591895
101	0x3facb681	1.3493196
102	0x3f63cd88	0.8898549
103	0x3e76395f	0.24045323
104	0xbd9af420	-0.075660944
105	0x3de1e3be	0.110297665
106	0xbea4ef8c	-0.3221401
107	0x3db324ad	0.0874723
108	0xbf164084	-0.58692193
109	0xc06ead2d	-3.7293198
110	0x40883cd2	4.2574244
111	0x400643e5	2.097894
112	0xbfa552ee	-1.2915933
113	0x3dea5bf1	0.11443318
114	0x404a8b05	3.164735
115	0x403271ce	2.788196
116	0x40891685	4.283999
117	0xc1175466	-9.458105
118	0x3f01270e	0.5045022
119	0x40353386	2.8312697
120	0x4064969c	3.5716925
121	0x40cf6950	6.4816055
122	0xbeca537c	-0.3951682
123	0x3e31dd8d	0.17369671
124	0x3c84f78a	0.016231317
125	0x3e9ca9af	0.30598208
126	0xbecd16a2	-0.4005633
127	0x3fa67421	1.300419
128	0x3e9c24ba	0.3049677
129	0xbf16f3ac	-0.58965564
130	0x3e842aaa	0.258138
131	0xbd9a5d70	-0.07537353
132	0xbf7a117a	-0.9768292
133	0xc02cc20b	-2.6993434
134	0x403dec8c	2.9675627
135	0x401cc5a1	2.4495623
136	0xc06c7704	-3.6947641
137	0xc116dbce	-9.428663
138	0x3f8feef8	1.1244802
139	0x3fc795df	1.5592612
140	0xbe99771a	-0.2997368
141	0xbe6ab141	-0.2291918
142	0x3e956c7b	0.29184327
143	0xbd3e1df7	-0.046415295
144	0xc0315e03	-2.771363
145	0xbf5c0e37	-0.8595919
146	0x3e07cece	0.13262483
147	0xbf063ddb	-0.52438134
148	0xc0f7e677	-7.746883
149	0x401730be	2.36235
150	0x3f0ee643	0.558201
151	0xc0148231	-2.3204463
152	0x41030da9	8.190835
153	0x3fb56eba	1.4174416
154	0xbfb1e15a	-1.3896897
155	0x403ba9ec	2.9322462
156	0x411f411d	9.953397
157	0xbfd524e1	-1.665188
158	0x3e6f66b8	0.23379028
159	0xbe2c39e9	-0.16818966
160	0x3d05f74b	0.03270654
161	0x3de0a6ba	0.109693006
162	0xc04761a3	-3.1153343
163	0x3fab1292	1.3365042
164	0xc0927f44	-4.5780354
165	0xbf8a118b	-1.0786604
166	0x4050a72e	3.2602038
167	0xc028d192	-2.6377912
168	0x406d6db2	3.7098203
169	0x3f70666c	0.93906283
170	0x4110ed53	9.0579405
171	0xc05a7c7e	-3.4138484
172	0xc0678463	-3.6174552
173	0x3d2e6521	0.042576913
174	0xc0397097	-2.897497
175	0x40600203	3.5001228
176	0xbe6bf13d	-0.23041244
177	0xbd8ad2f9	-0.06778521
178	0xbd3023c0	-0.043002844
179	0x3e430af9	0.19047154
180	0x3d945c4c	0.07244167
181	0xbf55f5e1	-0.83578306
182	0x3f5cdb57	0.86272186
183	0xbf800664	-1.000195
184	0x3f82a435	1.0206362
185	0x3eaead8b	0.34116778
186	0xc025d62c	-2.591197
187	0x3feb3b6d	1.837751
188	0x40774017	3.8632867
189	0xc08234a7	-4.0689273
190	0xc126ddd7	-10.42916
191	0x40c4238a	6.1293383
192	0x3fdd5852	1.7292578
193	0x3e95a788	0.2922938
194	0x3db20732	0.08692779
195	0x3ea52620	0.3225565
196	0xbe295ae0	-0.16538572
197	0x3f0bea12	0.5465404
198	0xc08cc3dd	-4.398909
199	0xbd8c5132	-0.06851424
200	0x408168d3	4.044046
201	0x3f938d6d	1.1527535
202	0x3fbee5ce	1.4913881
203	0xc07257fc	-3.7866201
204	0x4052dc99	3.2947142
205	0x407751bc	3.8643637
206	0x40457b08	3.0856342
207	0xbf8613e9	-1.0474826
208	0x3f8914bd	1.0709454
209	0x3da9a876	0.082840845
210	0x40ac99cf	5.3937755
211	0x40fa9ad8	7.831402
212	0xbe253759	-0.16134395
213	0xbebe9336	-0.37221688
214	0x3b07c110	0.002071444
215	0xbecc1bfc	-0.398651
216	0xbf33d508	-0.70246935
217	0x3f3d1f48	0.73875856
218	0x3f998b63	1.1995662
219	0x3f0b6c3b	0.5446202
220	0x40754b6c	3.8327284
221	0xc0f9e831	-7.8095937
222	0x3f602601	0.8755799
223	0x3f200005	0.6250003
224	0xc0117f9a	-2.2734132
225	0x40d49def	6.644279
226	0x3f50d22d	0.815707
227	0x4012db49	2.294634
228	0x409848ae	4.758872
229	0xc1273ef2	-10.4528675
230	0x3d6f1a8c	0.058374926
231	0x3c3e9062	0.011631103
232	0xbe3202cb	-0.17383878
233	0x3ea50ca3	0.32236204
234	0x40305faa	2.7558389
235	0xbeacaf50	-0.33727503
236	0x409ac298	4.836254
237	0x3fc87266	1.5659912
238	0x3fbd5269	1.4790775
239	0xc04eff87	-3.2343462
240	0xc0572df2	-3.3621793
241	0x404cf0f3	3.2022064
242	0x40282059	2.6269743
243	0xc0ab8815	-5.3603616
244	0x4068fa8d	3.6402924
245	0x404c5dfa	3.1932359
246	0x4033f7ac	2.8119917
247	0x3f7eba4b	0.9950301
248	0xbcfc4b03	-0.030797487
249	0x3de5912c	0.1120933
250	0x3ccd288c	0.025043748
251	0xbe670495	-0.22560342
252	0xc068fb02	-3.6403203
253	0xc0088f88	-2.1337605
254	0xbff7b060	-1.93507
255	0xbf36af0f	-0.7136087

feature_net.linear_layer_0.bias f4 [32]
0	0x40da4de0	6.822006
1	0xbf4f3d5a	-0.8095299
2	0x3f98fd7e	1.195236
3	0xc03db8d1	-2.9644053
4	0xbffe2779	-1.9855796
5	0xc08394be	-4.111907
6	0xbe8e42c9	-0.27785328
7	0xbe1fc13e	-0.1560106
8	0xbf6d5f8a	-0.92723906
9	0xc03b7a18	-2.929327
10	0x3f9c83da	1.2227738
11	0x3e099e9c	0.13439411
12	0x407d4f55	3.957967
13	0xbfb0868a	-1.3791058
14	0xbf977a66	-1.1834228
15	0x413c31b5	11.7621355
16	0xbf11b95a	-0.5692345
17	0x3e108e83	0.14116864
18	0x40098231	2.1485713
19	0xbdfb3638	-0.12266201
20	0xc0269f52	-2.6034741
21	0x407d1a38	3.9547253
22	0x3e96a0ab	0.29419455
23	0xbf6b68d9	-0.9195686
24	0x401168a8	2.2720127
25	0x410e01f9	8.875482
26	0x3ff36532	1.9015257
27	0xc06291f6	-3.5401587
28	0xbfa2cc70	-1.2718639
29	0x404f22d8	3.2365017
30	0xc042d746	-3.0443892
31	0x40197b8f	2.3981664
