otk/AgileRL-MATD3/simple_spread_v3/result/20240102-0837/MATD3_trained_agent_0005000.pt (torch, 626278 bytes, 336 tensors)

feature_net.linear_layer_0.weight f4 [32, 18]
00000000: d11a 903f a757 263f de68 ab3f c00e 693e
00000010: 9c52 0bc0 492c 0940 6ca4 e7bf 6b3f c03f
00000020: 373b fa3f 5b4d 6cbf bb78 4f3f a48d 90bf
00000030: cc92 c33e c1de a0bf 5b5a 293e ada2 413e
00000040: ad42 03be f273 92bc 5496 8b3b c5bf 583f
00000050: ca27 773f 52ad 573d d378 4140 f1a2 1cbe
00000060: 04af 1340 7dc5 a2be 9243 e2bf 6b78 85be
00000070: cc36 9dbf cd7f 633f a654 0dbf ec45 22c0
00000080: 9ef5 08be 9837 233e 12e8 083e 0fbc a03c
00000090: 78cd 57be 9975 5abe 356f 1b3e 1ea6 1e3f
000000a0: b1e8 1b40 69fd 1cbe e42f 3dc0 4cc4 35c0
000000b0: 0441 59be ecf1 463f 68ec 00bf 9f83 963f
000000c0: e87b 6b3e 4a83 463f 9c7f 04bc 796d 003d
000000d0: de56 36be fc9b 81bd 2af3 cf3f 3583 a3bf
000000e0: d8bc e53f 9848 26bf 3f0c d1bf 0498 1bbf
000000f0: 2b99 e5bf 9f83 be3f d6b4 0dbe be51 4e3d
00000100: 1304 a1be c658 183f b656 32bf 5268 b53f
00000110: cd1e 9b3e e524 0fbc 2c2a f93e 6a78 e73d
00000120: 5b3c 6e3f c669 1bbf 4dfd c73f 6f90 8fbf
00000130: c84e 17be d2ca 2ebf 8908 293f 7764 773f
00000140: dab5 e03e 2db8 3bbf 7a24 f3be 0be9 9f3f
00000150: 85de 133f b5a5 953f f984 993d 06ad a6bd
00000160: 765b 17be dd32 e23e c731 8d3f f9bb 803e
00000170: 15e5 b43f c01a 563f 6f3b 983d 39ef bbbf
00000180: fb3e 55bf 6cf5 02c0 7426 f2bf 888a be3f
00000190: 4b98 c93f f961 2abe 57d7 8abf b94e 30bf
000001a0: b11b 733d 2320 b0bd 64f9 c73d d92d 80be
000001b0: 06c5 acbd bca9 82bc efb3 ac3e f3dd 3fbf
000001c0: aab7 bbbf 5bf9 ae3f b35c 59bf edd2 c53f
000001d0: bb56 3040 3737 39c0 fbd2 febe d6fd 773e
000001e0: de67 60bf 6a9e 29be 1ee6 953d bfb4 0e3d
000001f0: 8487 1e3d b724 cebe 3c53 8e3e 7beb 973f
00000200: 5ea8 f33f 10d7 323f 5014 fabe 982c 72bf
00000210: 8afa 34c0 fa9b eabf d21c 8b3f 197c 0bc0
00000220: 4891 ac3e 5fd1 3f3f fdb4 c83e 55c9 293f
00000230: 2afc 883c 5a5f 9d3d 1eb0 1e3e 257c 063e
00000240: 49fa 513f 916f 683e ae24 6b3d 0ceb 41bc
00000250: 6407 bcbe ee16 b0be d99d 30bf a159 dbbf
00000260: 8406 06bd a1d6 623e a765 f9bd f5f2 80bf
00000270: fdfe cfbf 9201 1540 8c97 f93c 78a4 2abe
00000280: 1dcd 993e 1973 2c3d 02bb 95be 66e7 57be
00000290: 6490 d53e 008c 91bf b904 463f 45ea d83f
000002a0: 9756 b93f e21b 6cbe 89c8 ac3f 6451 67bf
000002b0: e43b 7ebf db31 dfbe b3d3 48bf c27b 7bbf
000002c0: 3fc8 023e 80b9 4bbd 3c77 9abe 82f9 363e
000002d0: 7c3c 0f3f 1daf 3d3f 7f71 0f3d 7081 893f
000002e0: 4155 77bf 46f8 713e 1b0b 2840 0fd1 18c0
000002f0: b639 b8bf 1cc9 b6bf a69b b2bf 0bd1 7ebe
00000300: 9a8d a9bf 9d59 943e 54bf f0bc 7608 dabe
00000310: fa43 a13e d42b 4c3e 2d86 a63e 6e8c 0f3f
00000320: b05f 2d3d 222f 503f 3656 513f 6f4f 51bf
00000330: fa48 853f 5405 4ac0 8980 85bf 9593 7fbf
00000340: 454b 62bf 722f e23f 0c26 993f 469a bb3f
00000350: 5e70 c73e 76df b5be 7bee 14be 5a3d 83be
00000360: 8c79 27be fa95 a13f bb5b a03f 0908 d1be
00000370: c5af 543f 234f 8fbf 9c50 6d3f 62ef bbbf
00000380: 607d 09bf 62cf 34be f943 b1bd dc78 1e3e
00000390: c76a 0740 126d 60c0 bca9 fc3e 6c96 733e
000003a0: 60c5 083e 3315 e8be 453a 09bd f7ed 53bd
000003b0: 040d a83e 0fe4 5bbf f257 52bf 9173 0840
000003c0: e26a d43f f614 5fc0 17a5 e7bf 0931 0840
000003d0: cf6a 7b3d 6dd7 59bf cafe 27be c4c1 3ebf
000003e0: dc1b 283e 703a d53e 8d25 d1bc 4952 ad3c
000003f0: 7410 25bf 9d7a 2d3f 3dce b7bf 8c9a 253f
1.1258184 0.64977497 1.3391378 0.22759533 -2.176917 2.143328 -1.8097053 1.5019354
1.9549321 -0.92305535 0.81043595 -1.1293225 0.38197935 -1.2567979 0.16538374 0.18909712
-0.12818404 -0.017877553 0.004259864 0.8466762 0.9654509 0.052655526 3.0229995 -0.15296532
2.307557 -0.31791297 -1.7676871 -0.26068434 -1.2282348 0.88866884 -0.5520729 -2.5355177
-0.13374946 0.15939176 0.13369778 0.019620923 -0.21074474 -0.21333922 0.15179141 0.61972225
2.4360774 -0.15331043 -2.956048 -2.840106 -0.21216208 0.77712893 -0.5036073 1.1758918
0.22996485 0.7754408 -0.008087065 0.0313544 -0.17806575 -0.0632858 1.6246083 -1.2774416
1.7948256 -0.6495452 -1.6331862 -0.6077883 -1.7937368 1.4883918 -0.13838515 0.050370924
-0.3144842 0.5951046 -0.6966356 1.4172461 0.30296937 -0.008736824 0.48664987 0.11302264
0.93060845 -0.6070827 1.5624176 -1.1215953 -0.14776146 -0.6827823 0.6602865 0.9663767
0.43888742 -0.73327905 -0.47488767 1.2492994 0.5776141 1.1691195 0.07496066 -0.0813847
-0.14780983 0.4417943 1.1030816 0.25143412 1.413241 0.8363457 0.07433211 -1.468238
-0.83299226 -2.0462294 -1.8917985 1.4886026 1.5749601 -0.16638936 -1.0846967 -0.6887012
0.05935258 -0.085998796 0.09764364 -0.2503498 -0.08436017 -0.015950076 0.33731028 -0.7494804
-1.4665425 1.3669847 -0.8490707 1.5454994 2.7552936 -2.893995 -0.4977034 0.24217924
-0.8765849 -0.16564336 0.07319282 0.03484034 0.038703457 -0.40262386 0.27797878 1.1868738
1.9035757 0.6985941 -0.48843622 -0.94599295 -2.8277917 -1.832885 1.086817 -2.1794493
0.3370459 0.7492885 0.39200583 0.66322833 0.016721804 0.076842025 0.15496871 0.13133295
0.8202253 0.22698809 0.057408027 -0.011835825 -0.3672439 -0.34392494 -0.68990856 -1.7136728
-0.032721058 0.22152187 -0.12177592 -1.0074145 -1.6249691 2.3282208 0.030467771 -0.16664302
0.30039302 0.042101953 -0.29244238 -0.21084365 0.41711724 -1.137085 0.77350956 1.6946493
1.447955 -0.23057511 1.3498698 -0.9035857 -0.99310136 -0.43592724 -0.7844803 -0.98235714
0.127717 -0.049737453 -0.30169094 0.17868617 0.55951667 0.74095327 0.035020348 1.0742626
-0.9661446 0.23629865 2.6256778 -2.38776 -1.4392612 -1.4280124 -1.395375 -0.24884431
-1.3246338 0.2897462 -0.029388107 -0.4258458 0.31497175 0.19938594 0.32524243 0.56073654
0.042327583 0.8132192 0.8177217 -0.8176183 1.0412896 -3.1565752 -1.0429851 -0.9983457
-0.883961 1.7670729 1.1964736 1.4656456 0.38952917 -0.3552205 -0.14544098 -0.25632745
-0.1635496 1.2623894 1.2527994 -0.40826443 0.83080703 -1.1196026 0.92701125 -1.4682429
-0.5370693 -0.17657235 -0.08655543 0.15475792 2.1158922 -3.5066571 0.49348247 0.2378785
0.13356543 -0.45328674 -0.033502836 -0.051740613 0.3282243 -0.85894865 -0.82165444 2.1320536
1.6595118 -3.4856544 -1.8097256 2.1279929 0.061381157 -0.8509434 -0.16405788 -0.7451441
0.16416878 0.41646147 -0.0255306 0.0211574 -0.6447823 0.6776522 -1.4359814 0.64688945

feature_net.linear_layer_0.bias f4 [32]
00000000: bfa1 67bd 6c90 d13e 5247 163f 80ed 743f
00000010: b2c7 1d40 8103 203f 832c babf 7836 0bbf
00000020: 357e 2940 bba2 2b40 b9cd 0c3f fd82 1d3f
00000030: 979f 17bf 8ee1 d3bd 9d0c 56bf e8fd cdbe
00000040: 298e d0bf 6221 e73f 601e 8a3f 345a 733e
00000050: 62de f43f 5e89 b5bf aa87 2d3f c9f9 12bf
00000060: b993 1bbf 47a7 c23f ffe6 4540 51c9 a73f
00000070: 3b11 923f 5672 52bf 001a 253e 1905 1640
-0.056550737 0.40930498 0.58702576 0.95674896 2.4653134 0.62505347 -1.4544834 -0.5437999
2.648328 2.6818073 0.5500141 0.61528 -0.5922789 -0.103457555 -0.83612996 -0.40232778
-1.6293384 1.8057063 1.079052 0.23764879 1.9130366 -1.4182546 0.6778513 -0.5741239
-0.6077228 1.5207299 3.092224 1.3108312 1.1411508 -0.8220571 0.161232 2.3440611

feature_net.layer_norm_0.weight f4 [32]
00000000: 5950 1240 767b f03f 2680 1040 fb91 f93f
00000010: 416f 853f b951 c43f bb15 4340 36e8 1940
00000020: 0bd9 f83f a123 c63f b039 e73f 7cef de3f
00000030: a5f5 2b40 7d88 5c40 7a03 0b40 c954 0840
00000040: 1279 4540 82fd 7b3f 9e32 e63f 3d21 3940
00000050: 9465 3b40 207f 2e40 f146 e43f 51b7 0640
00000060: c17e 2c40 91e8 ce3f 1efd f23f c4df 2d40
00000070: 4805 ae3f dc38 1540 13ac 0d40 494a dd3f
2.286154 1.8787677 2.2578216 1.9497675 1.0424577 1.533744 3.0482013 2.404798
1.9441236 1.5479623 1.806448 1.7416835 2.686868 3.4458306 2.1720872 2.1301749
3.0855145 0.984337 1.7984197 2.8926537 2.9280748 2.726509 1.783415 2.1049387
2.6952364 1.6164724 1.8983495 2.7167826 1.3595362 2.3315954 2.2136276 1.7288295

feature_net.layer_norm_0.bias f4 [32]
00000000: ab82 8ebe f485 2a3f 713e fd3d e142 20bf
00000010: 5d17 10bf 9eef fc3d 2192 83bf beac 203f
00000020: 065a 0bbf b173 1c3e eacb 42bf e50a ab3e
00000030: 9458 67bc ccd8 aa3d 1710 bc3f 17ea 67bf
00000040: 9c05 bc3f 75fb 16bf 9808 e33e 297e 40bf
00000050: 6158 f63d 1d73 2a3f e0ac 2f3a 5436 223f
00000060: d164 35be b4c0 3f3e 2b3d 1bbd 9b06 963f
00000070: a08c 49bf 8456 56bf e2b5 47be 74d5 273d
-0.27834067 0.66610646 0.123654254 -0.6260205 -0.5628565 0.12350391 -1.027897 0.62763584
-0.5443424 0.15278508 -0.760924 0.3340675 -0.01412024 0.08342132 1.469241 -0.9059157
1.4689212 -0.5897744 0.44342494 -0.75192505 0.12028576 0.665819 0.00067014806 0.6336415
-0.1771424 0.18725854 -0.03790013 1.1720766 -0.787302 -0.8372576 -0.19502977 0.04097505

feature_net.linear_layer_1.weight f4 [32, 32]
00000000: 2809 cfbc 6a0d 843f fffb af3f 50a4 bf3d
00000010: 9aac e63e cbf2 b5bd 336a 8abf 20e5 a53f
00000020: 721b a13f 6f3c d63f 030e d5bf d661 65bf
00000030: 0afc 51be ab77 0240 e825 b13f a3f4 5c3f
00000040: 7851 bac0 584e 2940 c131 22bf 6b3f 1e40
00000050: e9d0 b43f 7b8a c43e a2ad 25bf a9c0 6dc0
00000060: 0ef9 5ebd 413e 0340 7c7c 6a3f c73c 3f3e
00000070: de31 2d3e 80c1 acbf 7300 df3f abce e73f
00000080: 8ce9 86bf 7a5c f8bf 2190 debf 7721 993e
00000090: 1873 6dbf 93e4 8ebd ef40 e3bf 4583 fbbf
000000a0: 5f96 013f 1ba4 953f 5c61 093f 8275 12c0
000000b0: c537 c93f afe1 143f 3679 6dbf 1da2 3d3f
000000c0: 92f9 943e 92a2 a53e 3560 c83f 8502 6440
000000d0: cc3c dd3f 1a61 0140 d4c1 9b3f 87ed 7b3f
000000e0: 791c 7a3f 7cdb 25bf 54a7 a93f b933 c43f
000000f0: 48fd a8bf 0b04 d13e a712 5dbf 9921 d63f
00000100: ee5a 58bf ebf8 3c3f f227 303e c059 463f
00000110: 303a 833f 99bd 463f 5b37 e8bf 7e2d bd3f
00000120: 4b4d d13f 068d 85bf 0b46 0f40 1b3c ab3f
00000130: 825e bcbf b7cb 273f e44a 0740 1575 7d3f
00000140: 84f2 f03d aac1 883f da09 9b3c 4a58 9abf
00000150: 764a 3b3f e358 1b3f fffe 433e 4541 0d40
00000160: ce2b 5040 4171 7dbf 6ee5 6ebf 5181 483f
00000170: c68f 4b3f ae7c e33f 254b 8ebe 9156 1a3f
00000180: cc10 153f 0a42 01bf ebe9 1c40 fd77 8e3f
00000190: 3d11 0840 f8c3 ccbd c6c7 9e3e b830 f13f
000001a0: ced3 4340 80fe 0840 f9e2 f23f b04a 2e40
000001b0: c986 d63e a95d ad3f ddde c4be a888 a83d
000001c0: e692 88bd 391d f03f ac53 fe3e 9264 1940
000001d0: 5234 8140 2dae db3f 9160 67bf ab5d fa3f
000001e0: a6e2 4e40 e135 db3f 1004 2e40 bbcc c53d
000001f0: dd05 d63e d218 bd3f 0a94 243f d0fa 4740
00000200: 09b5 863e d065 843f bfb4 0dbc fff2 1abf
00000210: fdc9 8bbd 36f3 d4bd 49f4 f4bd 5df9 96bf
00000220: 408b fcbf 0374 05c0 4d7e 1e3f 2d7a 49be
00000230: 7df3 493f 6d54 853e 72ae b53e 1211 693f
00000240: 4f45 5b40 7bd3 d83e e693 1440 4aab da3f
00000250: a1b5 3d3e 0314 a73f faf4 4c3f 1a53 4440
00000260: 5676 553e edc6 15bf 26d0 933f 7b06 98bf
00000270: 8bfc 483f 8f7c 42bf 9172 16bf 3412 6c3e
00000280: bfab 1d40 8069 b9bf f0d2 3ebe d1f6 0940
00000290: baf0 7a3f 2832 2740 e4e3 483e 2eb2 1d3e
000002a0: 5d38 983f 0d0a aabf 6111 c4bf a9a5 f1bf
000002b0: 921a 423e b432 3b3e 4a39 13c0 de24 2abf
000002c0: 2d84 bd3f bd80 6bbf cf9c 073f ec57 c1bf
000002d0: 331d 393f 45bf 403f dbb9 513f c3ac c73f
000002e0: 1781 3f3e 9c97 cd3f c11b 1740 78df 7d40
000002f0: 375e 14be 7962 963f b15e 04be 4f8a 0c40
00000300: c807 3f3f 5758 81bf 224f b63a 603e 2dbf
00000310: b02b a13f d61f dcbf 8bfa 29bf 6e18 34bf
00000320: d556 1bbf 7283 393f 31ed 84bf 7af6 2e3e
00000330: ec71 92bf 6f1f f6bf cba0 94bf e125 bebf
00000340: 0f75 8bbf a151 e53d 25c1 bbbf 0c65 243f
00000350: 0bfb 2240 bb82 99bd a526 823f 82ea 003e
00000360: 8deb ac3d c7fe aa3e 991a 2e40 6a93 0540
00000370: d4c5 f73e e7a1 8f40 7e21 2d40 7d43 1b3f
00000380: b692 663f a3b4 2ec0 d30c 87bf 9498 7a3f
00000390: e731 983f dfb6 5c3f 5966 4b3e a359 7dbf
000003a0: 5300 2740 c32b 113f c7b5 77be bafc c3bf
000003b0: 5ec0 b23f 0ae6 aa3c 4048 bfbf df17 97bf
000003c0: aee2 9c3b a6b7 bdbe 83b3 0240 fc18 1ec0
000003d0: 5d1b f13f 38f7 58be ebac e43f fa17 e43f
000003e0: bc0e 693f 58ea 56bf 16c7 f03f 0257 8c3f
000003f0: 1f2e 36bf 3c8c b03f 5b46 f3bd c09d 463f
-0.02527292 1.0316594 1.3748778 0.09357512 0.4505356 -0.088842 -1.081366 1.2960548
1.2586501 1.6737193 -1.6644901 -0.8960241 -0.20506302 2.038554 1.3839693 0.86310786
-5.822445 2.6454067 -0.6335717 2.4726207 1.4126254 0.38386902 -0.6471807 -3.714884
-0.054436736 2.0506747 0.915962 0.18675528 0.16913554 -1.3496552 1.7422012 1.8109945
-1.0540023 -1.9403222 -1.7387735 0.29908344 -0.92753744 -0.06977191 -1.7754191 -1.9649435
0.50620073 1.1690706 0.53664184 -2.288422 1.5720145 0.58156866 -0.9276308 0.7407549
0.29096657 0.32350594 1.565436 3.5626538 1.7284179 2.0215516 1.2168527 0.9840931
0.97699696 -0.6478803 1.325419 1.5328285 -1.3202295 0.40823397 -0.86356586 1.6729003
-0.8451375 0.7381732 0.17202738 0.774807 1.0252132 0.77633053 -1.8141893 1.4779508
1.6351713 -1.0433662 2.23865 1.3377718 -1.4716341 0.6554522 2.113946 0.9900678
0.11765006 1.0684102 0.018925596 -1.2058194 0.73160493 0.60682505 0.19140242 2.2071087
3.2526736 -0.99000937 -0.9331883 0.7832232 0.79516256 1.7772424 -0.27791706 0.6028834
0.58228755 -0.5049139 2.4517772 1.1130368 2.1260521 -0.099983156 0.3101179 1.8842993
3.0598025 2.1405334 1.8975517 2.7233086 0.41899708 1.3544208 -0.3845128 0.0822919
-0.06668644 1.8758918 0.49673212 2.3967633 4.0376368 1.7162529 -0.90381724 1.9559835
3.2325835 1.7125818 2.718998 0.0965819 0.41801348 1.47732 0.6428839 3.1246834
0.26309994 1.0343571 -0.00864905 -0.6052703 -0.068256356 -0.10397951 -0.11960656 -1.179485
-1.9729996 -2.0852058 0.6191147 -0.19675513 0.7888716 0.26040974 0.35484654 0.9104167
3.4261053 0.42348847 2.321527 1.7083523 0.18526317 1.3052982 0.80061305 3.067572
0.20845923 -0.5850666 1.1547897 -1.1876978 0.7851035 -0.7597131 -0.58768564 0.23053819
2.4636075 -1.4485321 -0.18635154 2.1556895 0.9802357 2.6124363 0.19618183 0.15400001
1.1892201 -1.3284317 -1.5317804 -1.887868 0.18955448 0.1828106 -2.3003716 -0.66462505
1.4805962 -0.91993314 0.52973646 -1.5104957 0.7231018 0.75291854 0.8192422 1.5599598
0.18701588 1.6061893 2.361069 3.9667645 -0.14489065 1.1748801 -0.12926747 2.1959417
0.7462125 -1.0105084 0.0013909081 -0.676733 1.2591457 -1.7197216 -0.66397923 -0.70349777
-0.6067937 0.72466195 -1.0384885 0.17086211 -1.1441016 -1.9228343 -1.161157 -1.485531
-1.0895098 0.1119721 -1.4668318 0.64216685 2.5465724 -0.07495638 1.0168043 0.12589458
0.08443365 0.33397505 2.7203734 2.0871224 0.48393118 4.4885135 2.7051692 0.60649854
0.90067613 -2.7297752 -1.0550789 0.97889066 1.1890229 0.8621654 0.19863261 -0.989649
2.6093948 0.567074 -0.24190436 -1.5311501 1.3964956 0.020861644 -1.4943924 -1.180416
0.0047877645 -0.37054175 2.0422065 -2.470275 1.8836476 -0.21188056 1.786527 1.7819817
0.9103811 -0.8395133 1.8810756 1.0964053 -0.71164125 1.3792796 -0.118786536 0.7758446

feature_net.linear_layer_1.bias f4 [32]
00000000: 381d 103f 234d 10be 8ae8 b63f 7a8d 1a40
00000010: a3ce b03e dbea 9a3f 9616 203e fe3a 633f
00000020: fe57 e53e 54e6 0f3f 1718 8abe b08f 703f
00000030: 19c6 2c3f 522f 9b3f c5d1 203f e2fc 873f
00000040: 9be0 bb3e e864 a73f 121b 263f fb98 1740
00000050: aa01 393f faaa b83f 5120 543f 9849 923d
00000060: 1f9f 243f 99c6 1540 8d9b 613f 88c5 793f
00000070: c251 4b3f c1af 503f 776f 7b3f 3cbc 573f
0.56294584 -0.14091925 1.4289715 2.414885 0.3453265 1.2102922 0.15633616 0.8876189
0.44793695 0.5621083 -0.26971504 0.9396925 0.67489773 1.2123816 0.6282008 1.0624049
0.36694798 1.3077669 0.64885056 2.3687122 0.72268164 1.4427178 0.8286181 0.07142943
0.643053 2.3402464 0.88127977 0.97567034 0.7942163 0.8151818 0.98216957 0.842716

feature_net.layer_norm_1.weight f4 [32]
00000000: 1af4 5640 5c22 7340 2930 3d40 7cbb 6c3e
00000010: e355 a340 662a 6c40 b303 a140 7e9a 4540
00000020: d49b 4b40 7d05 8640 039b 9940 fc1b 2e40
00000030: 4468 4a40 b10e 3940 601e 6c40 70f2 9940
00000040: 42f5 7e40 3537 8c40 11e2 4d40 976c 3d3e
00000050: e547 4140 58a6 1a40 7d35 4540 3fa8 b940
00000060: ca9f 8340 2777 8c3e 8fc7 8d40 8e5a 7440
00000070: 77a2 4c40 bbb7 8c40 e887 5740 3561 6c40
3.3586488 3.7989721 2.9560645 0.23118395 5.104234 3.6900878 5.0317016 3.0875545
3.181386 4.18817 4.8001723 2.720458 3.1626139 2.8915217 3.689354 4.8108444
3.9837193 4.381739 3.216923 0.18498455 3.020013 2.4164028 3.0813897 5.801788
4.1132555 0.27434656 4.43061 3.818027 3.197416 4.397428 3.36767 3.693433

feature_net.layer_norm_1.bias f4 [32]
00000000: e2e6 753f adb0 3ebe 3031 443f 6201 4bbf
00000010: 73f9 49be eedc f73e ab5a 853e 3f92 e0bd
00000020: 7a56 9d3f ca54 e2bd 272f 503f d1ee 0f3f
00000030: e9d0 123f 1ad7 0d3f 3ae1 933f ea15 7e3f
00000040: ca77 79be b28e 363e 702a 1b3e 07ac 3bbf
00000050: 3a6b 453e 0f7b 313f b660 8c3f e902 633f
00000060: 7ac5 3bbe 229e 3dbf 4b30 f03e 242c 1d3f
00000070: a430 043f 2661 013f 36a7 0f3f 404c e03e
0.96055424 -0.18622084 0.76637554 -0.79298985 -0.19724064 0.48410743 0.26045737 -0.10965394
1.2292016 -0.110513285 0.8132195 0.5622378 0.5735002 0.55406344 1.1553109 0.9925219
-0.24362102 0.17827871 0.15152907 -0.7330937 0.19279185 0.693284 1.0967014 0.88676316
-0.1833705 -0.74069417 0.46911845 0.6139548 0.5163672 0.5053886 0.5611452 0.43808174

feature_net.linear_layer_output.weight f4 [5, 32]
00000000: e7d9 723e 9cfa 18bf 1f41 7abf f484 6a3e
00000010: 6f24 b03f 613e 06c0 3591 423f 22b9 cabf
00000020: 93e4 0f40 09ca febe aa8b 7f40 017c 1f3f
00000030: bf6b 01c0 4f0b ccbd b6fc 13bf 5db4 ec3e
00000040: f443 79be ad87 2cbf 03a6 0ec0 9ec0 90bd
00000050: 196a 08c0 7f76 37c0 28eb b8be 4d3d 883f
00000060: 9644 15c0 4f19 413e a14e d9bb c550 b5bf
00000070: 109f d03f edbf 9440 351b 5640 8da9 9abe
00000080: bc6a 1540 7e79 1a40 763e edbe 177e 43bd
00000090: b178 f93f ed55 a6bf f1f0 15c0 af6f 1ac0
000000a0: 195a a13f 9519 b5bf 2a4f d1bf 8c9d fd3f
000000b0: 11ef 28bf 40a8 243e 6d83 b93f 999e fabe
000000c0: a522 debf 12ec c2bf 3f2d 0c40 8ada f5be
000000d0: 1d5b febe f984 acbf 589f be3f 1053 3340
000000e0: 75ff 84be ab75 5b3d 42bc 28c0 eb8b 0740
000000f0: e4e3 29c0 22ef d13d 23a7 143f a8fb f43f
00000100: f66f c9bf 4dd4 e03d 5b9f 1d3e fead edbd
00000110: 6ee4 84bf a7a8 5940 8940 c53f 04cb 9c3e
00000120: e433 3fbe 9d6e 0240 499c e1bf 49a5 503f
00000130: a72a 3640 2849 823f f67d 53c0 20a0 67bf
00000140: cdea 8cbf 3d51 8240 7a6b 60bf 1857 613d
00000150: 04b0 03c0 ef74 9f3f 2cdb 32c0 41c0 b1bf
00000160: 05c5 7b3f 7815 5f3e 87f2 c63f c285 8cbf
00000170: 0cec e73f 25d4 bdbd 50e7 6ebf d32a ffbd
00000180: a920 0240 8b2c 7940 cfe0 13c0 6986 d33e
00000190: 13a8 5c40 6628 733e d1d7 fc3f abd0 0440
000001a0: 3f5f a53f 198c da3f 406a 72bf c03a 38bf
000001b0: 4134 26be 39e2 86be 02d9 9ebf bc4f 23c0
000001c0: b4ae 3a3f 2102 933f 1a5b 443f 7dab 1ebe
000001d0: e30b 8bbf 4340 5c3e 493b 9f3f 06de 33c0
000001e0: fcc8 8540 8c69 1d3f ae07 02c0 f0b6 2ec0
000001f0: 32e1 9dbd 13f3 90be 6652 5dbe 4b2c 2440
00000200: 9aa0 f3bf a20e 34bf 8200 0140 8fae e93d
00000210: bd14 33c0 9c0e 333e cd3c afbf 8e46 eabe
00000220: f2b2 f0bf fb29 ebbf 374b 0c40 468a 633f
00000230: c59a 50bf 8b3a 4040 79e9 5fbd a7cf 6740
00000240: 4e64 2ec0 8084 2b3f 5ab9 1b40 3c97 103e
00000250: ab71 733f ed4b 0c3f 52c8 a03e 08c0 3340
00000260: 492f c9bf 207a a9bd a5c7 23bf dc31 b1bf
00000270: cfa8 283f df57 a03f 720e 2140 26c5 c6bf
0.23715936 -0.597574 -0.97755617 0.2290228 1.3761119 -2.0975573 0.7600282 -1.5837748
2.248326 -0.49763516 3.9928994 0.6229859 -2.0222013 -0.099630944 -0.5780748 0.46231356
-0.24342328 -0.67394525 -2.2288826 -0.07067989 -2.1314757 -2.8666074 -0.3611691 1.0643708
-2.3323112 0.1885731 -0.0066316877 -1.4165274 1.6298542 4.6484284 3.3454106 -0.30207482
2.3346395 2.4136653 -0.46336716 -0.04772767 1.9489957 -1.2994972 -2.342831 -2.4130666
1.2605621 -1.4148432 -1.6352284 1.9813704 -0.65989786 0.16079807 1.4493233 -0.48949125
-1.7354323 -1.5228293 2.1902616 -0.48018295 -0.4967889 -1.347808 1.4892378 2.8019447
-0.25976148 0.053579014 -2.6364903 2.117915 -2.6545343 0.10250689 0.5806753 1.9139299
-1.5737293 0.10977993 0.1539282 -0.11605452 -1.0382211 3.4009187 1.541032 0.3062364
-0.18672138 2.0380013 -1.762582 0.81502205 2.8463533 1.0178576 -3.304563 -0.90478706
-1.1009156 4.072417 -0.87663996 0.0550147 -2.0576181 1.245756 -2.7946272 -1.3886796
0.983475 0.21785533 1.5542763 -1.097832 1.8118911 -0.09268979 -0.93321705 -0.1245934
2.0332434 3.8933437 -2.3105962 0.41313484 3.4477584 0.2374588 1.9753362 2.075236
1.2919692 1.7074004 -0.94693375 -0.71964645 -0.16230871 -0.2634447 -1.2409976 -2.5517416
0.72922826 1.1485025 0.7670151 -0.15495105 -1.0863003 0.21508889 1.2439967 -2.8104262
4.180784 0.61489177 -2.0317187 -2.7299156 -0.07708968 -0.2831045 -0.21613464 2.5652034
-1.9033387 -0.7033483 2.015656 0.114102475 -2.7981408 0.17486042 -1.369043 -0.45756954
-1.880461 -1.8372186 2.1920907 0.88882864 -0.8148616 3.0035732 -0.054666016 3.622049
-2.724872 0.66999054 2.433188 0.14120191 0.9509532 0.54803354 0.31402832 2.8085957
-1.5717555 -0.082752466 -0.6397651 -1.3843341 0.6588258 1.2526816 2.5165067 -1.5528915

feature_net.linear_layer_output.bias f4 [5]
00000000: 16bc a8be 2de7 43be db44 0f3f 082d 38bf
00000010: a8aa 663f
-0.32955998 -0.19131155 0.5596444 -0.7194371 0.9010415

feature_net.linear_layer_0.weight f4 [32, 18]
00000000: 38c4 e93f 9ccd 81be f386 803f 650b a8bf
00000010: c9bb b0bf 8504 a9bf b680 89bf 03c8 4d3f
00000020: 5ea2 94bf db79 01bf be8f 0a3d 5849 963f
00000030: 3a13 0dbe 830d 8bbf 8e23 2a3e 201f 373e
00000040: a566 9b3e a615 49be 167c 443f a331 3fbf
00000050: 626d b3be 3d6b f03d cd75 39c0 2c39 9cbe
00000060: 6caa 91be 8f30 013d 1471 65be cd12 0d3f
00000070: 4c10 5bbd 5761 4240 f9ca 7fbe a4ea 02be
00000080: 545c a2be 74d3 3dbe 0472 313d d2e3 e1be
00000090: 4890 f53e 3edf d3bf 195d 4d3e cab6 8a3f
000000a0: d5b1 d3bf 6f0d 2340 cb00 213e 3eb5 b43f
000000b0: 93df 96bf a5f0 fd3f 1ecc f3bb 7fd4 32bf
000000c0: 411e 253f 37c3 8abf ff80 ff3c f0ff 03bf
000000d0: 5b68 7cbe d98d acbd fbd8 223f 5cab 853d
000000e0: 2d93 4b3f 2efb 25bd 2b3d 2c3f 54be e13f
000000f0: 92ca 703f 6298 e2bf be8b 143f e0be 0240
00000100: 3706 ccbf a43b 72bf 923d 9fbf 8a1b 46bf
00000110: 9e70 4f3e f7d7 0fbd 79c7 853e 461e 8ebe
00000120: 5803 d63e e577 88bf 60bc cbbe dacf 633f
00000130: be27 433f 253b 00c0 ba02 823f 12de 873d
00000140: 9216 d8bf 5f65 4940 9ac1 71bf 9021 b03f
00000150: f686 73bf 1e06 b8bf 8e63 11bc 840d 9ebd
00000160: b845 2a3e 8180 673e acbc 1dbf a9d3 cc3e
00000170: 12fe 08bf bd66 063f c08a fdbf f514 2ac0
00000180: 23c1 913e 026a bc3f 8c2b ab3f bddc cabf
00000190: 5505 91bd 9a2e 943e bb95 9d3e 7c36 fa3f
000001a0: a622 d03c f2cb b23d 61dd efbb e768 e93c
000001b0: 63c2 19bf 2613 0b3e 32e7 4ebf 26bf d93d
000001c0: e276 3fc0 0f42 6e3f f229 4c40 dc59 26bf
000001d0: 3c7b c23f de49 a4bf 5018 c0bd 2a66 ccbf
000001e0: 364a 35be f6f4 8b3f 4ac9 92be 9731 0d3f
000001f0: c72c abbe d25a 91bd e95b 6c3f 1e83 acbd
00000200: 114a 1d3f 5010 4f3e b045 29c0 7d11 313f
00000210: 6600 c73e 32a8 c13f e0eb 7b3f f0af fcbf
00000220: aa66 fb3e c887 06bf 578e 19bf de5b d8be
00000230: 1962 e53d 8a84 1ebe 384c 53bd 0394 d2be
00000240: 4860 2e3f dc8d aa3e 4d6a 8d3f 757b 423d
00000250: f23f 9dbf 2b32 df3e 972a 34bd 5f7c 9b3f
00000260: 3e53 a3bd f51a 0bc0 4f8c 633f 6c00 833f
00000270: eb4c e13f 7331 2bc0 0b12 8c3e be3d a9be
00000280: 0e92 87be 6b32 953e e6ca 373d 80d6 0ac0
00000290: e320 32bf be3d 173f 126a 0f3f c215 5840
000002a0: 62ee 2bbf 6870 50bd 1859 d8be 9def 1040
000002b0: 53e9 3b3f 8dd9 b8be dd0d 343f 0a19 b1be
000002c0: 4e23 d6bc d124 6b3e 373b f1bc 8f4a 42be
000002d0: 07f5 82be cf4a c23e 73c0 72bd 037a b33f
000002e0: 49c1 5ebd 6eaa 7bbe 3807 2240 993c 64c0
000002f0: 2ad9 fabf 7bd0 2740 c206 833f 6dfc 113f
00000300: 97f2 343f 4bbb ce3e 40e3 533e 645d 53be
00000310: 61ab 09be 4603 3ebe c104 0abf d632 0cbe
00000320: 3e1e b0bf 5e42 863e 247f 343f 9163 0d40
00000330: f9f3 eebe c67e 733f 0aa0 3740 f72b a4bf
00000340: 58f3 b0bf 5243 68bf ed76 83be 3e7f 6bbf
00000350: aa37 30be fbe1 6fbc 5fb5 823d 2ba4 3dbe
00000360: 48b5 893d d9b0 493f 2a87 d63f e31b d63f
00000370: 3208 9bbf 7c22 b13e 1d92 803f 9043 523f
00000380: 53f2 503e 1e95 e6bf 6814 0a40 eec5 f1bf
00000390: e1e7 16be 4a44 16be 8f51 a83e d8d5 0bbe
000003a0: 4b23 ccbc 3f33 fbbe 598f 73bf e5a6 03bf
000003b0: a205 3dbf 94b0 38bc ca4a 8e3e f67d 20c0
000003c0: cafd 833e a7ec a53f 59c6 2b40 cd5d 0c3f
000003d0: 19bb 99bf d1ab fb3e 8d8e f6be dcf9 153f
000003e0: d839 f33d c671 663e 36e7 a63d 2f9f 56bd
000003f0: 99d2 e53e 43e0 f8bd 4bb5 f63d 2040 a93e
1.8263006 -0.2535218 1.0041183 -1.3128477 -1.3807307 -1.3204504 -1.0742404 0.8038332
-1.161205 -0.5057656 0.03382849 1.1741133 -0.13776866 -1.0863498 0.16615126 0.17882967
0.3035175 -0.19637164 0.7675184 -0.74685115 -0.3504439 0.11739204 -2.897815 -0.3051237
-0.28450334 0.03154045 -0.22406417 0.5510681 -0.05348234 3.0371912 -0.24979772 -0.12784821
-0.31711066 -0.18537694 0.043321624 -0.44119126 0.4796164 -1.6552503 0.20055045 1.0837033
-1.6538645 2.547695 0.15722959 1.4117811 -1.178698 1.9839064 -0.007440104 -0.69855493
0.6449929 -1.0840825 0.03118944 -0.51562405 -0.24649183 -0.08425493 0.63612336 0.06526825
0.7952145 -0.040522747 0.67280835 1.7636209 0.940591 -1.7702754 0.5802573 2.0429
-1.5939397 -0.94622254 -1.2440665 -0.7738577 0.20257804 -0.03511807 0.26128748 -0.27757472
0.41799426 -1.0661589 -0.39792156 0.8898903 0.76232517 -2.00361 1.0157082 0.066341534
-1.6881888 3.1468122 -0.9443604 1.3760242 -0.9512781 -1.4376867 -0.008873833 -0.07717422
0.16628158 0.22607614 -0.61616015 0.40005234 -0.5351268 0.52500516 -1.9807968 -2.657529
0.28467664 1.4719851 1.3372664 -1.5848614 -0.07081095 0.28941804 0.30778298 1.9547877
0.025407147 0.08730306 -0.0073200916 0.028492404 -0.60062236 0.13581523 -0.80821526 0.10632162
-2.991631 0.9306955 3.1900601 -0.64980865 1.5193858 -1.2835042 -0.09379637 -1.5968678
-0.1770409 1.0934131 -0.28669196 0.55153793 -0.334326 -0.07097401 0.92327744 -0.08423446
0.6144114 0.20221066 -2.6448784 0.6916731 0.3886749 1.5129454 0.9840679 -1.9741192
0.49101764 -0.52550936 -0.5998282 -0.4225759 0.11200351 -0.15480247 -0.05158636 -0.4112855
0.68115664 0.33311355 1.1048065 0.04748102 -1.228514 0.43592963 -0.04398593 1.214733
-0.079748616 -2.1735203 0.8888597 1.0234504 1.7601599 -2.6748931 0.27357516 -0.33054918
-0.26478618 0.29140028 0.044871233 -2.169342 -0.6958143 0.59078586 0.56021225 3.376328
-0.6716062 -0.05088845 -0.42255473 2.2646248 0.734029 -0.36103478 0.70333654 -0.34589416
-0.026139881 0.22963263 -0.029447181 -0.18973754 -0.25577566 0.379477 -0.059265565 1.402161
-0.05438355 -0.24576733 2.5316906 -3.5661986 -1.9597523 2.6220996 1.0236437 0.57025796
0.7068266 0.40377268 0.20692158 -0.20641094 -0.13444282 -0.18555936 -0.53913504 -0.13691267
-1.3759229 0.2622251 0.705065 2.209202 -0.4667051 0.95115316 2.869143 -1.2825917
-1.3824263 -0.9072772 -0.2567667 -0.9199103 -0.17208734 -0.01464128 0.0638225 -0.18519656
0.0672403 0.78785473 1.6759999 1.672726 -1.2111876 0.34596622 1.004459 0.8213434
0.2040494 -1.8014257 2.1574955 -1.8888528 -0.14736892 -0.14674488 0.32874724 -0.13655794
-0.024919173 -0.49062535 -0.95140606 -0.51426536 -0.7383672 -0.011272568 0.27791435 -2.507688
0.25779563 1.2962846 2.6839812 0.5483063 -1.2010223 0.49154523 -0.48155633 0.5858438
0.11876267 0.22504339 0.08149569 -0.052397903 0.44887236 -0.121521495 0.12046298 0.33056736

feature_net.linear_layer_0.bias f4 [32]
00000000: 5531 0140 6d8c 04bf f17b 3abf 042a 4a40
00000010: 8a82 763f d58e da3f e5ad c53f 6e75 b6bd
00000020: 7d22 b53e 0b8d 46bf fd44 8cbf 68a6 89bf
00000030: 8891 f5bc 60dd c63f 1ffd b9be 1869 1340
00000040: 549c 803f 25f4 4840 8068 db3f 6228 86bf
00000050: 8114 df3e e49d 1f40 51ea a2bf c3a9 723f
00000060: fc96 d93e 5ab9 fe3f 3b4f 97bf 0e04 a6be
00000070: 8e1e 9e3f 154f 12bd 8937 4e40 c580 16bf
2.018636 -0.5177677 -0.7284537 3.1588144 0.96292937 1.7074839 1.5443693 -0.08909117
0.35377875 -0.77558964 -1.0958554 -1.0753908 -0.029976621 1.5536308 -0.3632593 2.3032894
1.0047708 3.1399014 1.7141266 -1.0481074 0.4357033 2.4940119 -1.2727758 0.94790286
0.42498004 1.9900315 -1.1821054 -0.32424968 1.2353075 -0.03571995 3.2221396 -0.58790237

feature_net.layer_norm_0.weight f4 [32]
00000000: 4000 ba3f ce27 1b40 495e ac3f 7b8c 0440
00000010: 9d2e 0f40 21cb ab3f 713a 0c40 e665 2140
00000020: f54e b33f 47fe d03f 05ad 0a40 56c1 6040
00000030: 911a 0140 11f2 ef3f 74be 6a40 01a6 e43f
00000040: 96cf 3f3e 13fa ea3f d4ff 0240 2920 9540
00000050: b2d4 0e40 674e de3f 7e82 8140 3126 ea3f
00000060: 76db f03f 8a11 e13f f2bf d43f 4c1b c73f
00000070: 99cc d33f 8fc2 e93f 97a1 2340 ace6 0040
1.4531326 2.4243045 1.3466274 2.0710742 2.23722 1.3421365 2.191067 2.5218444
1.4008471 1.6327599 2.1668103 3.5118003 2.0172465 1.8745748 3.6678743 1.786316
0.18731532 1.8357567 2.0468645 4.660176 2.231732 1.7367676 4.047179 1.8292905
1.8816974 1.7583477 1.6621077 1.5555205 1.6546813 1.82625 2.5567377 2.014079

feature_net.layer_norm_0.bias f4 [32]
00000000: 4a63 a9be 0341 0fbe af88 1140 0237 873e
00000010: 0ea7 703e d0da e6be 3f4b e4be 28a1 3e3f
00000020: d5fb 343f b001 383f de93 c5be 0e3f 163f
00000030: 34e0 18be c8e3 b33d 9005 e83e 8a20 803d
00000040: 2f7c 45bf 12a9 15bd a783 9bbb fda6 d33f
00000050: 7094 47be 0c82 993f f51e 583f 7623 ccbf
00000060: d235 35bd 56c7 4a3d a325 cabe 715f 4dbe
00000070: 55bc 40bf 0bac 36bf 7fbc 1d3f b6b7 a53f
-0.33083564 -0.13989644 2.2739675 0.26409155 0.23501226 -0.45088816 -0.44588658 0.74464655
0.70696765 0.71877575 -0.38589376 0.58689964 -0.14929277 0.0878368 0.45316744 0.06256206
-0.77142614 -0.03653819 -0.004745919 1.6535336 -0.19490218 1.1992812 0.84422237 -1.5948322
-0.04424078 0.049506508 -0.3948184 -0.2005594 -0.7528737 -0.71356267 0.6161575 1.2946689

feature_net.linear_layer_1.weight f4 [32, 32]
00000000: cad3 ebbd 9117 ce3e aa22 403e 9017 08c0
00000010: bc77 28c0 e18e f03f ba51 543f 0feb 483e
00000020: 13a5 5c3f 84ec ef3f 901a 943e 3de7 35bd
00000030: 8431 be3e d179 81bf 71d6 5b3f ed70 c7bf
00000040: 6626 b13e 522e 653f 8920 f9be f2df e4bd
00000050: a579 5240 b644 b4bc 0ef4 fe3f 42bc b63f
00000060: 0168 0e40 df25 0c40 280e bdbe a36a 153f
00000070: 265d e53f 4562 e0bf ac79 9c3f 8d22 113f
00000080: cf45 e23f d412 b93d f3e1 a9bf b6c2 05bd
00000090: 4681 a63f 8bea 2c3f 7130 673c 41c8 db3e
000000a0: c425 293e ecaf 3ebf 97c2 79bf 4b87 123e
000000b0: cc7d 20be 2413 373f b2c2 78bf 5480 593f
000000c0: 2ff6 26be 554e 2540 294f 9b3f c9f2 2e3f
000000d0: aae9 673f 20f0 7ebf 1fae 993f 4428 6040
000000e0: 2988 8340 b784 5b40 4093 07be 15f8 bebd
000000f0: 4d97 da3f 1190 1ac0 334a bf3f ac47 573f
00000100: 73da 713f 845a f4bf 5d5f 353e 1e17 f63e
00000110: 5206 adbf 6739 0240 3876 553f a89e 8b3f
00000120: fb0f 8d3e f718 ce3f 735d 87bf 28af 3840
00000130: 7fe2 dd3e 04e7 da3f 4494 acbf b31c 1fbf
00000140: 1bb3 7f3e fd8f 41bf 585e babf 6844 c13f
00000150: 3b99 893f 3333 4040 a4e5 fe3d fbca 0d40
00000160: 9a68 303e d8a3 17bf 117b 5cbf 6f15 bf3c
00000170: 2100 af3d ce7c 5140 0154 5c40 c9b2 a43f
00000180: c121 8d3f 3154 9f3f af11 e43f b926 3940
00000190: 00ff 4b40 8e76 853e 950b bcbf cef7 01c0
000001a0: a39a 83bf da67 9f3f ac37 b33f 8379 213f
000001b0: b32d 26be 0282 21be eb7e 843f 2d2c 46be
000001c0: 8003 143f e911 e83f cdf4 3f40 3510 97bf
000001d0: 980a bbbf 331b de3d 9d65 ecbf 9b10 b63f
000001e0: f7cb a6be fba7 fbbe a745 413f 388d c13f
000001f0: cd45 2240 864a 2d3f a71a 9abe f610 1c3e
00000200: 86de 9f40 5faa d53f b88b 1f40 8e9b 2c40
00000210: 75b9 8440 ae2f 0640 7ee0 b7bd 6478 783f
00000220: 03ce 95bf 456c 6b3f ea0c 3640 6024 a43f
00000230: 52e2 243e 3b06 9940 fbb5 5640 77d7 ac3f
00000240: 0b7c 9a3e b330 4e40 b177 af40 d494 8d3e
00000250: d972 1040 7411 9640 ae85 0740 ec5a bc3f
00000260: c223 013f d634 b83f fb1b af3f 5819 cf3f
00000270: ae02 9140 06c2 ac40 8434 8d40 4eb7 753f
00000280: 8a9c a03f 29c2 42bf 6a24 5fc0 84dd 8f3f
00000290: 6ced ff3f 70b7 523e 7d37 463f f0c3 003e
000002a0: 03b0 eebe 0ab4 1fc0 4d87 d5bf bb3d 09bf
000002b0: 7887 0740 58e7 5a3f 4c15 80bf 7837 5740
000002c0: 6504 20be cf96 083f b22c ac3f 47a9 0c3f
000002d0: cecf 5fc0 207b 8f3f b9dd 80bf 7de4 0ac0
000002e0: f3de 3fbe 556a ab3f f878 d4be 9fed 8fbf
000002f0: dc12 9abe a354 4fbf b598 5f3e e5f5 1b3e
00000300: edc4 21c0 3183 0140 a163 db3f 90a4 433f
00000310: 6967 a6be b810 393f bc96 933f 16b8 19c0
00000320: f7cf 0ebf bc35 0140 0cf0 883f 72e9 68be
00000330: b6e0 20c0 6f56 f63f 8ef0 b93e 6dac 893f
00000340: 11e7 a53e 423a 04c0 5035 1d40 42d4 a33f
00000350: ac33 cabf 6272 073f c79e 7c3d acf7 88bf
00000360: d2cd c9be 02df 1cbf 4b8c 623f 1657 5a40
00000370: 202b 883f 5535 993f 9fd6 b9bf 3051 1c40
00000380: b684 6fbf 1712 da3e 5c33 b23f b2e1 5f3f
00000390: 22b4 1f3e 8494 1a40 709d 0640 38ed 29be
000003a0: 4be6 00bf 2a88 1640 8c67 bc3f 1f4a 3640
000003b0: 2a6e 203c 806b 893f 38bf b73e fed1 4bbf
000003c0: be81 5e3c 6110 fabf 64ec f63f 7395 bd3f
000003d0: 5419 9dbe 791e 4840 b905 e83e c12a 9cbf
000003e0: 0c2f 0cc0 cad9 8cbe e246 36bf 7b77 9a3f
000003f0: 4ee6 ab3f ded6 3440 2f07 ee3e f36c d43f
-0.11515005 0.40252355 0.18763223 -2.1264381 -2.632308 1.8793603 0.82937205 0.19620918
0.86189383 1.8744054 0.28926516 -0.04440998 0.37147152 -1.01153 0.85874087 -1.5581337
0.34599608 0.89523804 -0.48657635 -0.11175527 3.2886746 -0.02200542 1.991823 1.4276202
2.225098 2.1898115 -0.36924863 0.5836584 1.7919052 -1.752999 1.2224631 0.56693345
1.7677554 0.09036794 -1.3272079 -0.032656394 1.3008201 0.67545384 0.01411067 0.4292622
0.16518313 -0.74487185 -0.97562546 0.14309423 -0.15672988 0.7151358 -0.9717208 0.8496144
-0.16304849 2.582906 1.2133533 0.6833921 0.9059092 -0.9958515 1.2006263 3.5024576
4.110371 3.4299753 -0.13239765 -0.09324662 1.7077423 -2.415043 1.4944519 0.8409374
0.9447395 -1.9090123 0.1771216 0.48064512 -1.3517554 2.0347536 0.8338351 1.0907793
0.27551255 1.6101369 -1.0575393 2.8856907 0.43336865 1.710175 -1.3482747 -0.62153167
0.24970667 -0.75610334 -1.4560041 1.5099001 1.0749887 3.003125 0.12446144 2.215514
0.17227402 -0.5923438 -0.86125284 0.02332565 0.085449465 3.2732425 3.4426272 1.2867061
1.1025926 1.2447568 1.7817897 2.8929884 3.187439 0.26067013 -1.4691035 -2.0307498
-1.0281566 1.2453568 1.4001365 0.6307604 -0.1622837 -0.1577225 1.0351232 -0.19352789
0.5781784 1.8130466 2.9993165 -1.1801821 -1.4612608 0.108450316 -1.846851 1.4223818
-0.32577488 -0.49151596 0.75496906 1.5121222 2.5355103 0.6769184 -0.3009846 0.15240845
4.9959135 1.6692618 2.4929028 2.6969943 4.147639 2.0966601 -0.08978365 0.970587
-1.1703495 0.9196208 2.8445382 1.2823601 0.1610196 4.7820106 3.3548572 1.3503255
0.30172762 3.2217224 5.483361 0.2765261 2.2570097 4.6896305 2.1175342 1.4715247
0.5044519 1.4391124 1.3680414 1.6179609 4.531577 5.3986845 4.4126606 0.95982826
1.2547772 -0.76077515 -3.4865975 1.1239476 1.999433 0.20577788 0.7742842 0.12574744
-0.4661866 -2.4953637 -1.6681916 -0.5360982 2.1176434 0.8550925 -1.0006499 3.3627605
-0.15626676 0.53355116 1.345114 0.54945797 -3.4970584 1.120945 -1.0067664 -2.1701958
-0.18737392 1.3391825 -0.41498542 -1.1244391 -0.30092514 -0.8098852 0.21835597 0.1523052
-2.5276444 2.0236323 1.7139779 0.7642298 -0.3250077 0.72291136 1.1530375 -2.4018607
-0.5578608 2.0189047 1.0698256 -0.22745302 -2.5137153 1.9245127 0.3631634 1.0755745
0.32402852 -2.0660558 2.456379 1.2799151 -1.5797019 0.5290891 0.06167486 -1.0700583
-0.3941484 -0.6127778 0.8849532 3.4115653 1.0638161 1.1969401 -1.4518622 2.4424553
-0.93561876 0.42591926 1.3921924 0.8745376 0.15596059 2.4153147 2.1033592 -0.16594398
-0.503514 2.3520608 1.47191 2.848274 0.00979189 1.0735931 0.35888076 -0.796173
0.013580738 -1.9536248 1.9290891 1.4811233 -0.30683386 3.12686 0.45316866 -1.2200547
-2.1903715 -0.2750991 -0.7120191 1.2067713 1.3429658 2.8256145 0.46489856 1.6595749

feature_net.linear_layer_1.bias f4 [32]
00000000: 0b43 443f ebdd 913f 05a5 5f3f 9cc8 583f
00000010: 4563 7940 26cb d83e 18c2 543f 5149 6a3f
00000020: 5a05 9c3f 0009 38bf 85f2 9d3e 0093 203f
00000030: d46a 803f be1c ae3e a954 143f 2a2f 403f
00000040: 7ca0 3e3f f819 003f a720 c93e 733a 2e3f
00000050: 9a7c 963e 6125 ca3f 8dfb 213f 8d8a 933d
00000060: aa52 113f 1116 4a3f 9caf af3e 25d8 9f3e
00000070: 0e3c 9f3e 20c5 643f c5b1 4d3f 0a7a 673f
0.766648 1.1395849 0.87361175 0.84681106 3.896684 0.4234249 0.83108664 0.9151812
1.2189133 -0.7188873 0.3084909 0.62724304 1.0032601 0.34006304 0.5794168 0.75071967
0.7446363 0.50039625 0.39282724 0.68057936 0.29391938 1.5792657 0.6327446 0.07204161
0.5676676 0.7893992 0.34313667 0.31219593 0.31100506 0.8936329 0.8034938 0.9042059

feature_net.layer_norm_1.weight f4 [32]
00000000: 10f8 6040 9350 5c40 32f7 4140 ff94 1040
00000010: 4034 3a3e 474b 8d40 8790 4f40 20f1 1b40
00000020: 2170 0d40 c4a2 a740 9b97 8840 5f4a 5340
00000030: 5b0d 5640 4b92 dd3f bac3 8140 30f9 6340
00000040: c8f1 9340 31b7 6d40 a663 5640 2008 4240
00000050: b28d 4640 a73c 7240 98f8 7d40 8d13 6540
00000060: e6be 0940 cfd1 4840 2aac 5d40 9be8 9240
00000070: e8de 5340 8e79 5740 94d6 4940 af8f 7d40
3.5151405 3.4424179 3.0307126 2.259094 0.18183994 4.415439 3.2431962 2.436592
2.2099688 5.238619 4.2685065 3.3014143 3.3445652 1.731027 4.0551424 3.5620842
4.6232643 3.714306 3.349832 3.031746 3.1023984 3.784952 3.968298 3.5793183
2.1522765 3.1378057 3.463633 4.590894 3.31048 3.366794 3.1537218 3.9618948

feature_net.layer_norm_1.bias f4 [32]
00000000: 8af5 343f 109d 3a3f 7ee1 803e bfe6 ee3e
00000010: a657 9cbf 536c 3a3f ac41 563f 9596 683f
00000020: 2165 093e 868f 543f 20c4 3e3f 294f 3e3f
00000030: c832 ae3e e51a 3f3e bce8 f33e 9592 9f3f
00000040: 272c 5f3f 84c2 793d df4d ebbe 33e3 993e
00000050: 8c41 fe3e 7f9e fe3e 2d0d 413f 7078 b23f
00000060: 7492 fcbe 8039 963e 69df 493e 96e7 0c3f
00000070: b898 413f f99b 83bd 4027 0b3f f432 6a3f
0.7068716 0.7289591 0.25172037 0.4666042 -1.2214248 0.7282154 0.8369396 0.9085477
0.13417484 0.830315 0.74518013 0.7433954 0.34023118 0.18662603 0.476385 1.2466608
0.87176746 0.06097652 -0.45957848 0.30056152 0.49659383 0.49730298 0.7541073 1.3943005
-0.49330485 0.29340744 0.1971413 0.5504087 0.75623655 -0.06426234 0.54356766 0.91484

feature_net.linear_layer_output.weight f4 [5, 32]
00000000: 6e4c 94be a470 68be d907 84bd c99d 9abf
00000010: c6c2 ca3f 9324 8abf 9355 0040 ad7e 7dbe
00000020: da9e 8f3f 9e0b f8bd 1994 9f3f aec2 e53e
00000030: 4a01 5840 3c02 973f 3fae 1dc0 a706 58bf
00000040: dc19 06be 63e6 0440 5c68 22c0 9358 dbbf
00000050: d38e 193f 130e 7e40 2be4 24bf 7342 26c0
00000060: d650 ba3f 2b70 ce3f 15f9 b340 0a21 bfbf
00000070: bfcc 0c3f 0a1c 8c40 31ad 3240 7536 8abf
00000080: 33a2 febe c4dc 7abf 382e 7840 d3ae e2bf
00000090: 6b1e 9dbd ce82 b2bd d3c8 9b3f bba7 0540
000000a0: 0285 c63d 853c fcbf 0b59 4d3f 8234 9c3f
000000b0: 748c 19bf 1ce6 3240 36d7 1a3f d13a 05c0
000000c0: f34b a03f ac55 a23e 2102 763f b753 0e3f
000000d0: 5edf febf faed 253f 412b 32c0 31cf 7abf
000000e0: ae64 84bf 18a5 cdbf 6b3d 563f 9d58 cbbf
000000f0: bd8a 9b3f d348 163e 01a8 603f b66c 763e
00000100: 3f0f 223e d70f 5cbf 597c 37bf 5f6d a2bf
00000110: ddd1 7ebd 703e debe ecb4 b4be 16ab 37bf
00000120: e145 03c0 f588 b33f 75c1 a8bf 0ee4 1440
00000130: 80a1 aa3e 31ec a7bf f8a4 1040 4b99 3240
00000140: c41c 1dbf 49e8 b23f 27a4 edbf 820f 0ec0
00000150: 37de 073f b2e1 81bf 6159 1940 8158 1d40
00000160: 14ff 9bbf dcc8 25c0 710d 143f 10e7 3b40
00000170: 4d6e 0340 fff4 3d3f 1e38 73bd bfaf 103f
00000180: 4286 86c0 085c d7bf b881 83be 8739 df3f
00000190: e9f6 a4bc 5a4c 86bf 5a56 a73f bcfd 113f
000001a0: 95cb 233f 9ae5 3940 ffde 0f40 f662 e03f
000001b0: 2368 213e 9117 fc3e da56 413f 9f16 8e3e
000001c0: 24af 39c0 71cf bbbf 1a74 a83f 9510 073f
000001d0: f64f b03e a363 6c3f 1e49 903f 5dbe 09bf
000001e0: ffb8 4e3f 0048 0fbf f5a0 8fbd 28d5 4cbf
000001f0: 6012 b23f e82d 29be fa10 02c0 4ef7 a83f
00000200: 8aba 753e 709b ff3f d3cf 913f dcb6 96bf
00000210: c5cb 8a3d c530 8840 e742 cebf 7f77 b4bf
00000220: 02d6 593f 8e43 eebf eed2 00c0 4662 4abf
00000230: ea66 f03f 7b38 afbd 9d7f 553f 560e 12bf
00000240: f0eb 0240 649c c73f 3bd0 b33f 259c 123f
00000250: 0285 bcbf a782 853e a867 cdbf 3d6a b83f
00000260: 971b 803f b54b 86bf 2141 9ebf 456b 033f
00000270: 938c 39be d6b1 85bf 96be ebbf 99d0 72c0
-0.2896456 -0.22699219 -0.06446809 -1.2079402 1.584069 -1.0792412 2.005223 -0.24755354
1.1220353 -0.12111591 1.2467071 0.4487509 3.3750787 1.1797557 -2.4637601 -0.8438515
-0.13095802 2.0765617 -2.5376196 -1.7136406 0.5998356 3.969609 -0.64410657 -2.5978057
1.4555919 1.6127981 5.6241555 -1.4931958 0.5499992 4.3784227 2.7918208 -1.0797869
-0.49733123 -0.9799311 3.877821 -1.7709602 -0.076718174 -0.08716355 1.2170662 2.0883625
0.09693338 -1.9705969 0.80213994 1.2203524 -0.5997994 2.7952948 0.60484636 -2.0817149
1.2523178 0.31705987 0.96097 0.5559649 -1.9911916 0.6481625 -2.78389 -0.979724
-1.0343225 -1.6066008 0.83687466 -1.5886418 1.2151715 0.14676218 0.87756354 0.24064907
0.15826128 -0.8596167 -0.71674114 -1.2689627 -0.06221186 -0.4340701 -0.35294282 -0.7174543
-2.05114 1.4026171 -1.3184038 2.3264194 0.3332634 -1.3118955 2.260069 2.7906063
-0.6137202 1.3977138 -1.856572 -2.2196965 0.5307345 -1.0147002 2.3960803 2.4585268
-1.2187219 -2.5903845 0.5783301 2.935978 2.0536072 0.7420196 -0.05937969 0.5651817
-4.203889 -1.6824961 -0.25684905 1.7439431 -0.020137267 -1.0492051 1.3073227 0.5702779
0.63982517 2.9046388 2.2479856 1.75302 0.15762381 0.4923673 0.7552315 0.27751634
-2.9013147 -1.4672681 1.3160431 0.5275968 0.34436005 0.92339534 1.1272314 -0.53806096
0.8075103 -0.5596924 -0.07013122 -0.8001275 1.3911858 -0.16521418 -2.0322862 1.3200471
0.2399694 1.9969311 1.1391548 -1.1774554 0.06777147 4.2559533 -1.6114167 -1.4098967
0.85092175 -1.8614366 -2.0128741 -0.79056203 1.8781407 -0.08555695 0.8339785 -0.57053125
2.0456505 1.5594602 1.4047922 0.5726951 -1.4728091 0.26076242 -1.6047258 1.4407421
1.000842 -1.0491854 -1.2363626 0.51335555 -0.18120031 -1.0444896 -1.8417537 -3.7939818

feature_net.linear_layer_output.bias f4 [5]
00000000: 2a57 46be fcfc 0bbf 9c64 60be 9470 593f
00000010: bf37 093d
-0.19369188 -0.546829 -0.2191338 0.84937406 0.03350043

feature_net.linear_layer_0.weight f4 [32, 18]
00000000: e14f 31bf 9263 44bd 959e 99bf b7fc d03f
00000010: 2bd3 74be 2cee 1b3f 11a3 26bf 1388 1840
00000020: 8106 8340 a74b f0bf 2819 f0be 6496 3c3f
00000030: 9b36 a9bf 2259 933f f68a 003f b6cf d63d
00000040: 91b6 86bb b550 c03d 40b2 923f 7d7e 463f
00000050: 3a92 06be dd78 f1be 18f5 49bc b81e 2d3e
00000060: 7c2c 85c0 3046 4fc0 46fb 6a3f ad0b 88bd
00000070: a6d2 4b3e 4089 153f 47e4 4a3f 18d1 493e
00000080: 03a8 6c3e 7e57 363e 8212 ecbc a6c3 94be
00000090: 6fa9 c5bb 4966 d8bf d787 383e 7c89 c0bf
000000a0: e7a3 703f 56a1 c83d c6a2 2ac0 48b2 2b40
000000b0: 4e97 883f 13b4 4dbf e8d0 8a3f f973 1140
000000c0: d229 30be cb27 8c3f e6ae 80bd 9681 58bd
000000d0: 34a7 e2be c6ab 0cbe 5ebc 3dbf 4c92 443f
000000e0: 3d21 35bf 3337 d3bd 1660 253f 0e24 6f3e
000000f0: 6cba 953d 3e2a b63f c7e2 a53f f0e1 4dbf
00000100: 3fa9 533f a837 b1bf d581 0e3f 9b4f 5cc0
00000110: 760e cabe ccea 393f d1d3 d9be c905 f7bd
00000120: a2ec d63e c523 563f 7bb9 8ebf 7dd6 e93e
00000130: 4b88 d2bf 0e78 64c0 49d3 903e a85e 1f40
00000140: dacf e83e 80e5 913e b66c afbe 1852 9ebd
00000150: a37c 083f 250e 983f bfbb 58be 4a76 f0be
00000160: e1b3 c8be 91e6 0fbe ad9f 8bbe 45f5 4b3f
00000170: 83d8 67bf 179f d83e f87e 83be d344 853e
00000180: c7d6 bf3f b29e 433f eb45 f0be f01f 7cc0
00000190: bad8 d13e 35cc 263f ab5b 32bf 80f8 533f
000001a0: 20f4 9abd bee3 e13d 8cef a4be ad24 b33d
000001b0: af6a e7be 48e4 e1be d20c 243e aa52 0a40
000001c0: 877e 1bc0 5544 b83f e88a 1c40 f2cb dd3f
000001d0: 9eb3 2940 4667 efbf 8514 92bf 94d5 3440
000001e0: 5e8e 5f3e 2341 283f 7c53 cabe 8ddd 313e
000001f0: 8af7 843c afa9 9c3e 8be5 f8be 12f5 e6bd
00000200: 9264 5cbf 7720 21bf 5dbf 98be 5f6d 38bf
00000210: 6660 f63e ee09 3440 0026 943f 3fb4 0640
00000220: cf9a b53d 3726 2dc0 7c52 b3bd 49c5 65bf
00000230: 1a77 99be 41b1 6abe 7b6c 953e f71d 3ebd
00000240: bb03 1dbe 81ba d3be db5b b23e 0add 03c0
00000250: 1a07 acbf 6c48 533f f138 823f b032 2e3f
00000260: c7bc 3d40 1705 f0bf ab74 5e3f 669a 603f
00000270: eb77 51bf f07e 29be b866 6f3e e939 2cbe
00000280: 4bf7 053d baa6 e03d 7374 92bf f5f2 8d3f
00000290: 637b d7bf 0e2c 0840 dbb8 1540 034e e4bf
000002a0: 6f5c 153f 2b67 88bf 1a6e 7c3f 301a cb3e
000002b0: bffb bfbf 6a20 db3f 4026 2bbf c979 ab3f
000002c0: 3df1 6bbe f9d2 8abd c023 30bd f90a 433e
000002d0: 03a7 41bf ec13 a4bb 4ca6 9ebf a160 93be
000002e0: 1b47 3640 bb96 6bbf 864e 913e 18db e83f
000002f0: 593f 473f 2392 8cbe a29a 20c0 a3a5 1a3e
00000300: 283a 8d3f 8b12 c7be 3207 b23d 2026 a53e
00000310: e05a 29be 12ea 0b3f e633 1ebf 3dc5 3c3e
00000320: cb8d 37bf 8720 753d a3e5 95bf 5ed5 7ebf
00000330: 6612 1240 c176 1640 30fc df3e bf39 633f
00000340: f573 5cbf d4d4 7b3c 12e6 9cbe 6b29 f73e
00000350: 5937 25be 3693 bebe 10c1 073b fc1b ccbe
00000360: 2585 50be 8d3d e6bd c3a1 babe db32 debe
00000370: 3fb9 99bf 15f0 873e eca3 bfbe 2092 833f
00000380: d77e 173f 020a f93e a199 73bf 3400 e23f
00000390: ca9f e23f fdb2 c9bf 8c1a 6f3d 6290 3e3c
000003a0: cb02 32be a30c a53e 6205 abbe 153b 2dbf
000003b0: 4771 113e 4ea2 08bf 0d1f 17c0 59b8 ba3f
000003c0: fb01 1640 46f8 7b40 8b98 e93d bc10 47c0
000003d0: a5db 123f 4147 01bf cb29 823e ea3e d8be
000003e0: 034b fcbc 2c91 e53d 8c28 cd3c 9504 67be
000003f0: da12 003f 9582 79bf a113 313e 6fe1 4abf
-0.6926251 -0.04794652 -1.200152 1.6327122 -0.23908679 0.60910296 -0.6509257 2.3833053
4.094544 -1.8773087 -0.46894193 0.7366698 -1.3219789 1.1511576 0.5021204 0.104888365
-0.004111119 0.09390394 1.1460648 0.77536756 -0.13141719 -0.47162524 -0.012326501 0.1690625
-4.16168 -3.238659 0.9178966 -0.06642852 0.19904575 0.5841255 0.79254574 0.19708669
0.23110966 0.17806813 -0.028817419 -0.29055518 -0.006032161 -1.6906215 0.18020569 -1.5041957
0.94000095 0.097963974 -2.666185 2.6827564 1.0671175 -0.80352896 1.0845003 2.2727034
-0.17203453 1.0949644 -0.06283359 -0.052857958 -0.4426819 -0.13737401 -0.7411555 0.7678573
-0.7075384 -0.10313263 0.6459974 0.23353598 0.07310948 1.4231641 1.2959832 -0.8042288
0.82680124 -1.384511 0.5566686 -3.4423587 -0.39464158 0.72623897 -0.42544416 -0.1206165
0.41977412 0.8364833 -1.1150354 0.45671454 -1.6447843 -3.5698276 0.28286198 2.4901524
0.45471078 0.28495407 -0.34262627 -0.07730502 0.5331518 1.1879317 -0.2116537 -0.46965247
-0.39199737 -0.14052798 -0.2727026 0.79671127 -0.90564746 0.42308876 -0.25682807 0.2602907
1.498742 0.76414025 -0.46928343 -3.9394493 0.40985662 0.65155345 -0.69671124 0.82801056
-0.075660944 0.110297665 -0.3221401 0.0874723 -0.4519858 -0.44119477 0.16020516 2.1612954
-2.4295976 1.4395853 2.4459782 1.7327864 2.651588 -1.8703392 -1.1412512 2.8255358
0.21831653 0.6572439 -0.3951682 0.17369671 0.016231317 0.30598208 -0.48612627 -0.11277212
-0.8609096 -0.6294016 -0.298335 -0.7204189 0.4812042 2.813106 1.1574097 2.1047513
0.08867418 -2.7054574 -0.08755967 -0.8975416 -0.2997368 -0.2291918 0.29184327 -0.046415295
-0.15333454 -0.4135323 0.34835705 -2.0603662 -1.3439667 0.8253238 1.0173627 0.68046093
2.964647 -1.8751553 0.8689677 0.87735593 -0.81823605 -0.16552329 0.23379028 -0.16818966
0.03270654 0.109693006 -1.1441787 1.108977 -1.683453 2.127689 2.3394077 -1.7836307
0.5834417 -1.0656484 0.986055 0.39668417 -1.4998702 1.7119267 -0.6685524 1.3396541
-0.23041244 -0.06778521 -0.043002844 0.19047154 -0.75645465 -0.0050072577 -1.23945 -0.2878466
2.84809 -0.9202687 0.2838022 1.8191862 0.77831036 -0.27455243 -2.509438 0.15102248
1.1033373 -0.38881335 0.08692779 0.3225565 -0.16538572 0.5465404 -0.6179794 0.18434615
-0.71700734 0.059845474 -1.1710705 -0.9954432 2.282373 2.3509982 0.4374709 0.8875999
-0.86114436 0.015370566 -0.3064428 0.48273787 -0.16134395 -0.37221688 0.002071444 -0.398651
-0.2036329 -0.11242209 -0.3645154 -0.43398175 -1.2009658 0.26550356 -0.3742975 1.0278969
0.5917792 0.48640448 -0.95156294 1.7656312 1.7705014 -1.5757748 0.058374926 0.011631103
-0.17383878 0.32236204 -0.33402544 -0.6766828 0.14203368 -0.5337266 -2.3612702 1.4587508
2.3438709 3.9370284 0.114060484 -3.1103964 0.573664 -0.5049935 0.2542251 -0.422355
-0.030797487 0.1120933 0.025043748 -0.22560342 0.50028765 -0.9746488 0.17292644 -0.79250234

feature_net.linear_layer_0.bias f4 [32]
00000000: 31db 09be 08c8 003f e4a3 b73f 4e6b 0b3f
00000010: c03a 8f3e 8e94 66bf c42b 713f e365 59bf
00000020: b77d d73b 2221 503f 27d2 5a3f 5404 8c3f
00000030: 1707 cf3f b38c 47bf f186 10bf e5d6 6d40
00000040: 9c94 993f 43d0 6abe ddb9 ed3f 2efb 6c3f
00000050: b21a eabf 4fa3 01bf 6219 fabe d7e7 b5bf
00000060: 7c5f e8bf 4a3a 1e40 1774 d33e f453 743f
00000070: 43a5 8f3f f6eb a43f 1e37 923f 1009 97bf
-0.13462521 0.50305223 1.434689 0.5446061 0.2797451 -0.90070426 0.94207406 -0.8492109
0.0065762657 0.81300557 0.8547692 1.0938821 1.6174039 -0.77949065 -0.56455904 3.7162411
1.1998477 -0.22931008 1.8572346 0.9257077 -1.8289397 -0.50639814 -0.4884749 -1.4211377
-1.815414 2.4723077 0.41299507 0.954406 1.1222309 1.288451 1.142307 -1.1799641

feature_net.layer_norm_0.weight f4 [32]
00000000: bf14 1d40 8310 4740 14ad 2040 ffe5 0640
00000010: 313b 1340 3ddd 1c40 d1ac 8a3e fa67 0840
00000020: a192 8a3f 3f19 e33f 48f4 0040 4528 173f
00000030: 0cfe aa3f 672c 3240 3cfd e43f fb87 2940
00000040: f2d6 f43f c9e9 0640 7428 1f40 2ce4 813e
00000050: bdac 5440 1f01 8d40 c45b 1140 3ea7 1e40
00000060: 84ef 3640 9451 db3f 7fee 5d40 872c 7a3f
00000070: 2c5d 853f adf2 cc3f c76c d03f 808e 1840
2.4543912 3.1103828 2.5105639 2.1077878 2.3004878 2.4510033 0.27084973 2.1313462
1.0825998 1.774208 2.0149097 0.5904582 1.3358779 2.78396 1.7889781 2.6489246
1.9128096 2.108019 2.486844 0.25369394 3.323043 4.406387 2.271226 2.4789577
2.8583689 1.7134271 3.4676816 0.97724193 1.0419059 1.6011559 1.6283196 2.3836975

feature_net.layer_norm_0.bias f4 [32]
00000000: b8c0 93bd 5783 313f 2e51 6fbe da9c 283f
00000010: 76d8 9b3e 9484 0c3f a335 8dbf 6b78 813e
00000020: 9bfa 443e 6393 a03e 65d4 e83e 8b75 c1bf
00000030: 8e91 88bf 0f46 623e 73c8 6dbe c484 493e
00000040: e0d6 1c3f c07d a6bd 0cd3 aebd ffb6 46bf
00000050: fc90 bd3e 9920 713f 7642 16bf af6e 7abf
00000060: 49d6 b53e 5c65 a83d 082f 92be c79b edbd
00000070: bc70 85bf 68be c9be f855 393f e517 c43e
-0.072144926 0.69341034 -0.23370811 0.65864336 0.30438584 0.548898 -1.1031994 0.25287184
0.19236223 0.31362447 0.45474544 -1.5113996 -1.066942 0.22097038 -0.23220997 0.19679552
0.61265373 -0.08129454 -0.08536348 -0.7762298 0.37024677 0.94190365 -0.5869516 -0.9782514
0.3551505 0.08222458 -0.28551507 -0.11601978 -1.0425029 -0.3940308 0.723968 0.3829948
