otk/AgileRL-MATD3/simple_reference_v3/result/20240102-0837/MATD3_trained_agent_0040000.pt (torch, 812506 bytes, 224 tensors)

feature_net.linear_layer_0.weight f4 [32, 21]
000000 aa b9 a2 bf c2 c9 84 be fa 37 45 c0 68 66 ad c0
       -1.271291 -0.2593518 -3.0815415 -5.418751
000010 b6 87 87 be 54 ea 98 40 7e bc 6a 40 18 9d fb 3f
       -0.26470727 4.7786045 3.6677547 1.9657316
000020 66 e8 e2 40 30 d7 38 c0 6d 29 fd 3f a9 37 70 bf
       7.090869 -2.888134 1.9778267 -0.9383493
000030 9f ae 7c 40 7c 26 ae 3f 88 99 07 40 3d cb cb 3f
       3.948158 1.3605494 2.1187458 1.5921398
000040 f7 df e2 3c 41 72 68 40 c6 90 45 40 37 5a 90 40
       0.027694685 3.6319735 3.0869613 4.5110126
000050 8d 7e ca 3f b7 7f 70 3b 0b 40 21 bf 5c b9 c7 40
       1.581987 0.0036697218 -0.62988347 6.241377
000060 74 a5 d4 40 70 26 5b c0 fd 1a 03 c0 38 12 20 c0
       6.645197 -3.424221 -2.0485222 -2.501112
000070 af 3a 5d c0 d8 48 44 41 e9 c0 f1 bf ac 5a f1 c0
       -3.4567068 12.267784 -1.8886997 -7.5423183
000080 10 4a 82 40 2e 1c 27 40 76 1c 32 40 60 2c 22 40
       4.071541 2.611095 2.782987 2.5339584
000090 fe 5e 1b 40 d3 fb 86 40 d7 2b 46 40 b4 07 49 40
       2.4276729 4.2182403 3.0964258 3.1410952
0000a0 20 24 3a 40 14 4f 3d 40 14 af 4c 3f c4 0c b2 3e
       2.908455 2.9579515 0.7995465 0.34775364
0000b0 45 7b 4a bf 13 f6 64 c0 49 66 42 40 e7 4e 46 40
       -0.79094344 -3.5775192 3.037493 3.0985658
0000c0 6d b7 28 be e1 97 ae 40 d0 8e 6d c0 dc 00 b3 40
       -0.16476221 5.45604 -3.7118416 5.593855
0000d0 a5 f2 23 41 90 a8 3c 3f d7 83 6d 40 10 8a ad 40
       10.246739 0.73694706 3.7111719 5.4231033
0000e0 43 39 8b 40 07 13 a9 3f b5 41 1c 40 f8 75 a0 40
       4.35074 1.3208932 2.4415104 5.0144005
0000f0 76 c1 89 40 2f 3a a9 40 8e 93 a8 3c 00 ca ed 3d
       4.304866 5.2883525 0.020578172 0.11610794
000100 91 ed 23 3f f9 1b 38 be 45 df 25 40 84 aa 44 40
       0.6403437 -0.1797942 2.5917523 3.0729074
000110 a4 73 63 c0 f3 00 31 c0 d0 f8 67 bf 65 c1 8b 41
       -3.5539331 -2.765683 -0.9061403 17.46943
000120 b7 45 f3 c0 48 b8 a9 be 9d 3b 46 40 17 fa 65 40
       -7.60226 -0.33148408 3.0973885 3.5933893
000130 fa d1 12 40 0e 82 3e 40 b1 b8 59 40 1a 10 5b 40
       2.294066 2.976688 3.4018977 3.4228578
000140 c1 4e 18 40 d4 c8 5e 40 6e 63 6c 40 16 33 6b 40
       2.3798068 3.4810076 3.6935687 3.674993
000150 ab 66 7f 3f 7f be 97 3f e9 d5 51 40 63 a4 88 c0
       0.99766034 1.185501 3.278681 -4.2700667
000160 9f 36 d8 c0 26 c7 cb 40 c4 38 0b 40 91 74 a4 c0
       -6.7566676 6.36806 2.1753397 -5.1392293
000170 b2 6d 07 41 e5 d6 9d 40 4a 80 b9 c0 b5 2d 21 40
       8.464281 4.9324822 -5.7969103 2.5184147
000180 f8 37 04 40 28 4e 3f 40 08 dd 1c 40 ff 28 83 40
       2.065916 2.9891453 2.4509907 4.0987544
000190 8a d1 29 40 8c 21 83 40 a5 07 6f 40 7c 3a 3b 40
       2.6534142 4.097845 3.7348416 2.9254446
0001a0 67 d0 c4 3f 44 23 61 40 b3 74 dd bf 47 30 04 c1
       1.5376099 3.5177774 -1.7301239 -8.261786
0001b0 18 60 90 40 35 34 7c c0 23 66 48 c0 ec ae b8 c0
       4.51173 -3.9406865 -3.131234 -5.771353
0001c0 42 42 30 40 0c 22 43 40 81 ec 04 41 f6 7a 57 3f
       2.754044 3.048953 8.30774 0.84172
0001d0 22 30 da 40 6f d9 b8 3f af fe 96 3f 0a d2 ae 40
       6.8183756 1.4441355 1.1796473 5.4631395
0001e0 8d 4b 3f 40 35 e3 98 40 49 86 3a 40 c4 21 a5 40
       2.9889863 4.777735 2.914446 5.160372
0001f0 c8 85 f7 3f 22 e1 28 40 8d e4 99 bd 3c b5 54 3f
       1.9337702 2.638741 -0.07514296 0.8308904
000200 62 ff a5 3f 50 8f 90 3e a1 22 ae c0 ee 58 be bf
       1.2968562 0.2823434 -5.441727 -1.4870889
000210 89 b6 8b 40 aa aa b3 3f 2a e3 d0 c0 af cf 5c 41
       4.366032 1.4036458 -6.52773 13.800704
000220 33 d9 69 c0 13 da 55 40 02 37 22 40 2d 2b 44 40
       -3.6538818 3.3414352 2.5346074 3.0651352
000230 3d eb 47 40 98 90 40 40 5e 81 66 40 c4 7c 33 40
       3.1237328 3.0088253 3.601646 2.80449
000240 79 af 50 40 60 ac 38 40 a3 8d 3c 40 7c f7 8e bf
       3.26071 2.885521 2.9461448 -1.1169276
000250 77 dd bb 3e ca f7 a2 3f 1c 40 56 bf fe 1b f3 3f
       0.36692402 1.2731869 -0.83691573 1.8992918
000260 95 78 86 40 7e f6 8a c0 86 ac 43 c0 78 76 ca c0
       4.2022195 -4.3425894 -3.057405 -6.3269615
000270 51 88 31 41 03 6c a0 3e 0c c8 88 40 af 69 2a 40
       11.09578 0.31332406 4.27442 2.6627004
000280 cc c4 1f 40 a4 af 4a 40 e4 a6 45 40 bf de 41 40
       2.4963865 3.1669703 3.0883112 3.0292203
000290 c0 91 4d 40 91 f6 5f 40 e7 ab 4f 40 82 a9 31 40
       3.2120209 3.4994242 3.244867 2.775971
0002a0 3b 29 a3 bc 64 a7 02 3f df ec 14 c0 1c 1a a8 bc
       -0.019917121 0.5103667 -2.3269575 -0.020520262
0002b0 36 92 2f c0 9e ed ac bf 3d 95 94 40 f0 fa b2 3f
       -2.743299 -1.3510015 4.6432176 1.398283
0002c0 b4 27 e5 c0 ed 4c 1f c1 5d db 68 41 b4 b3 57 40
       -7.1610966 -9.956281 14.5535555 3.3703432
0002d0 19 10 3f 40 6f 00 42 40 46 4d 61 40 43 ab 2e 40
       2.9853575 3.0312765 3.5203414 2.729203
0002e0 58 c5 35 40 01 9a 34 40 bc 8b 5b 40 dd 48 4b 40
       2.84017 2.8218997 3.4304037 3.1763222
0002f0 ba 76 33 40 c7 57 bc bf fb d1 bc bc ed 15 bc c0
       2.8041215 -1.4714288 -0.023049345 -5.8776765
000300 64 7b e4 40 9f 2b 4c 40 eb c1 d8 c0 bc dc 8b 40
       7.1400623 3.1901624 -6.7736716 4.370695
000310 85 a4 c6 bf 1e c6 c4 be 79 96 c5 40 38 d3 16 40
       -1.5518957 -0.384324 6.1746182 2.3566418
000320 9c 58 13 40 4e 66 3f 40 3f 01 f9 3f ed 2b 3e 3f
       2.3022833 2.9906192 1.9453505 0.74285775
000330 ab 3d 19 40 fd 44 5f 40 79 00 bc 3f f2 ee 8c 3f
       2.394389 3.4885857 1.4687644 1.101042
000340 6c 48 2c 40 6e 5c 59 40 03 06 35 be d4 91 08 40
       2.6919203 3.3962665 -0.17678075 2.1339006
000350 87 5d 40 40 d2 7f f5 c0 f3 77 1a c0 69 e1 fb bf
       3.0057085 -7.671853 -2.4135711 -1.9678165
000360 55 57 ea bf 41 72 d4 40 fc 2c 4f 41 e0 60 07 c0
       -1.8307902 6.638947 12.9484825 -2.1152878
000370 b1 50 d2 c0 d3 84 47 40 45 d2 4a 40 4a d3 2f 40
       -6.57235 3.117482 3.1690838 2.747271
000380 c1 3e 37 40 87 20 16 40 b4 50 28 40 36 57 2c 40
       2.8632052 2.3457353 2.6299257 2.692823
000390 56 9a 21 40 a0 ff 21 40 2c b5 2f 40 df 66 95 be
       2.525045 2.531227 2.7454329 -0.29180047
0003a0 7e 6b 28 bf 06 bd d7 3f 45 38 d0 3e 3d a7 99 bf
       -0.6578902 1.685456 0.4066793 -1.2004162
0003b0 3c e9 1e 40 1d c9 e7 bf 33 80 8b c0 0d b0 5e c0
       2.4829855 -1.810825 -4.3593993 -3.4794953
0003c0 93 12 03 c1 53 f4 52 41 29 36 5f 40 35 50 7a 40
       -8.192035 13.184649 3.4876807 3.9111454
0003d0 a6 0d 3f 40 6c 91 60 40 8c 19 65 40 40 e9 1f 40
       2.985208 3.5088758 3.5796843 2.4986115
0003e0 e5 1a c5 3f cd 6c 45 40 b2 6a 19 40 f9 83 5c 40
       1.5398833 3.0847657 2.3971372 3.445555
0003f0 b7 62 63 bf 74 3c 61 3f 04 bc 95 bf db 8e 70 40
       -0.888225 0.8798287 -1.1698003 3.7587192

feature_net.linear_layer_0.bias f4 [32]
000000 31 ae 34 40 55 91 23 40 3d a4 96 40 21 26 91 40
       2.8231318 2.5557454 4.7075486 4.5359044
000010 a9 b7 34 40 63 07 8c 40 23 e9 2d 40 b5 cd 4b 40
       2.8237097 4.3759017 2.7173545 3.1844304
000020 5e 7f 16 40 fd e0 5a 40 6b 2f 48 40 3b 90 1c 40
       2.3515239 3.4199822 3.1278942 2.4463031
000030 fd 9e 68 3f b4 5a 3d 40 73 af 29 40 2a 41 2d 40
       0.90867597 2.958661 2.6513336 2.7071023
000040 3a c5 40 40 b4 6d 40 40 d0 1d 4f 40 b4 60 17 40
       3.0120378 3.0066957 3.2361946 2.3652773
000050 48 39 84 40 53 b3 2a 40 6a 0e 8d 40 7c 0d 23 40
       4.1319923 2.667195 4.4080095 2.547698
000060 8c d3 da 3f 67 22 3d 40 b0 a7 74 40 12 3e 53 40
       1.7095809 2.9552248 3.8227348 3.3006635
000070 6d 87 5a 40 5e 8f 0b 40 49 ef e8 3f fa c8 8a 40
       3.4145157 2.1806254 1.8198024 4.3370333

feature_net.layer_norm_0.weight f4 [32]
000000 4f 7b 44 3e 01 1b ee 40 9c f9 01 40 d9 85 f5 40
       0.19187663 7.4407964 2.03086 7.672589
000010 91 1c a7 40 f8 65 62 40 e6 cf 5e 41 22 cd e9 40
       5.222237 3.5374737 13.925756 7.3062906
000020 fe 39 63 41 38 0b 4a 40 6d c8 b6 40 36 ea 25 41
       14.201658 3.1569347 5.711966 10.36968
000030 d7 49 ca 40 11 a5 fa 40 86 a4 62 40 6c b6 30 41
       6.3215137 7.8326497 3.5412917 11.044537
000040 db a2 bc 40 40 43 90 3e 34 79 4d 3e 0f cc 77 40
       5.89488 0.28176308 0.20065767 3.8718297
000050 82 73 3f 40 47 30 34 40 1c e6 5c 40 4f 70 61 41
       2.991425 2.8154466 3.4515448 14.089919
000060 6b 29 b1 40 8c 67 70 3e 7b a2 f3 40 b6 44 08 41
       5.536306 0.23477 7.613584 8.516775
000070 af fb 9b 40 92 b5 80 40 31 e7 ac 40 29 23 5e 40
       4.874473 4.0221643 5.4032216 3.470896

feature_net.layer_norm_0.bias f4 [32]
000000 e2 cd 31 bf 13 8b 03 40 81 8a 22 40 85 e8 bf 3f
       -0.6945478 2.0553634 2.5397036 1.4992834
000010 b2 b4 9f 3e bb 52 23 bf e1 24 a3 3f 5a 4e 9a 3f
       0.31192547 -0.6379811 1.274563 1.2055161
000020 9e 0e d1 3f be 4c 96 3f 85 96 51 3f ed fc 0a 3f
       1.6332586 1.174217 0.818703 0.54292184
000030 7d 15 4c 40 4e d2 2f 3f 30 3a ed 3f 0b d8 23 3f
       3.1888115 0.68680274 1.8533382 0.6400153
000040 25 90 d2 3e 2e b7 44 bf 12 1a 50 bf 65 65 c2 3e
       0.411256 -0.7684201 -0.8128978 0.37967983
000050 8d 30 5c 3f 5a f6 e3 3f fd f5 1a 3e 88 17 c2 3e
       0.8601158 1.7809556 0.151329 0.37908578
000060 99 86 77 bb a0 d7 6e bf 67 fd 0b 40 ac e5 5d 3f
       -0.0037769435 -0.9329777 2.1873415 0.86678576
000070 1f eb 32 3f 66 8b a5 3f 79 52 e0 be 17 9d 3c 40
       0.69890016 1.2933166 -0.43812922 2.947088

feature_net.linear_layer_1.weight f4 [32, 32]
000000 03 6d e2 3f 0a 31 07 c0 49 19 10 bf 74 1b b8 3f
       1.7689518 -2.112368 -0.5628858 1.4383378
000010 c2 a5 d5 be c7 b9 bb 40 19 96 a4 40 a8 f1 df 40
       -0.41728026 5.866428 5.1433225 6.998249
000020 61 cc 06 3f 26 8d 72 40 53 04 aa 40 e0 9c 9b 3f
       0.5265561 3.789865 5.313028 1.215725
000030 3d fd 81 40 cd 88 2d 41 c3 ff 91 bf 09 64 84 c0
       4.062163 10.845899 -1.1406177 -4.1372113
000040 17 6e 5f c0 09 dc 78 3d 92 13 16 bf 91 4c 0d 41
       -3.4910944 0.060756717 -0.5862361 8.831193
000050 26 1b a1 40 bd e9 06 41 98 88 1f c0 72 61 a3 40
       5.034564 8.432065 -2.492712 5.105645
000060 ee c1 9b 40 01 1e 30 3f ab 28 03 40 44 7a ed 40
       4.867423 0.6879578 2.0493572 7.421175
000070 b7 b9 03 c0 85 16 e1 3f 1e 13 03 40 87 3f 19 c0
       -2.0582101 1.7584997 2.0480418 -2.3945024
000080 52 aa 3b be 4e 14 2d c0 f4 e4 e8 3f d9 cd 00 40
       -0.18326691 -2.7043643 1.8194871 2.012564
000090 06 14 9a 40 4b 43 d2 40 46 76 5c 40 a7 c2 05 40
       4.8149443 6.5707145 3.4447188 2.0900056
0000a0 f3 bd 71 3e 38 be aa bf be 7c 66 3f 85 2b 09 c1
       0.23607616 -1.33393 0.9003409 -8.573125
0000b0 2b 27 b9 c0 85 98 e8 be a6 c8 82 c0 0a 20 b7 40
       -5.7860312 -0.45428863 -4.086993 5.722661
0000c0 45 af 02 c1 c1 84 2d be 19 87 3d 3f 51 47 df 40
       -8.16779 -0.16945173 0.7403427 6.9774556
0000d0 23 3d af 40 63 0b c4 40 f7 f0 35 40 9d ac ec 3f
       5.476213 6.12639 2.8428323 1.8490177
0000e0 65 48 02 40 59 57 fe ba 1c 05 0c 41 ac 2f 7b c0
       2.0356686 -0.0019404694 8.751247 -3.9247847
0000f0 e0 c0 a2 bf db 01 2d c0 d2 73 2a 41 f2 97 2a 40
       -1.2715111 -2.7032382 10.653276 2.665524
000100 2d 6e ce 3f e1 92 54 40 0b 5d ef 3f 6f 61 ed 3f
       1.6127373 3.3214648 1.870027 1.8545359
000110 aa 8f 11 41 ec 5e 5e 40 e4 5e 85 41 c1 a7 8f 40
       9.097574 3.4745436 16.671333 4.489228
000120 2c 4d 7f c0 5a 07 14 41 83 b8 2b 40 d2 1a 16 c1
       -3.9890852 9.251795 2.6831367 -9.381548
000130 71 a9 e9 40 76 dc 0c 41 9a 67 a8 40 58 98 1a c0
       7.301934 8.803823 5.2626467 -2.4155483
000140 a7 c9 b7 c0 e8 2e 0c bd 40 30 66 bf b7 c1 ba 40
       -5.743366 -0.03422442 -0.89917374 5.836147
000150 c5 63 11 40 48 c1 bd 40 21 9c 5c 40 62 cc 23 41
       2.2717144 5.929844 3.4470294 10.237398
000160 e5 39 2a 40 a9 0e 55 be fc 4f bc 40 ce 2f 2e 3f
       2.6597836 -0.20806374 5.8847637 0.68041694
000170 21 75 d2 3f ce e8 b5 40 16 eb 17 40 17 b7 16 41
       1.6441995 5.6846685 2.3737235 9.4197
000180 01 8e df 3f f2 e7 5a 40 db 4b d7 3f 7f 77 13 40
       1.7465211 3.4204068 1.6820024 2.3041685
000190 a0 e3 0d 41 b5 10 6b 40 02 80 83 41 19 88 90 40
       8.8680725 3.6728947 16.437504 4.5166135
0001a0 79 44 81 c0 a4 b3 0d 41 1d b2 41 40 20 0f 14 c1
       -4.0396085 8.856358 3.0264962 -9.253693
0001b0 da 0b db 40 2d d2 03 41 05 1f a8 40 e2 a4 1f c0
       6.8451967 8.238812 5.2537866 -2.4944386
0001c0 00 27 b3 c0 ec 20 06 3e 3a 2f 5e bf 43 5c c8 40
       -5.5985107 0.13098496 -0.8679081 6.2612624
0001d0 47 33 13 40 ee cd bc 40 b3 a2 5f 40 30 3c 25 41
       2.3000047 5.900138 3.4943054 10.327194
0001e0 67 ee 54 40 e8 6b 9d 3e fa e0 c6 40 c6 e5 f0 3e
       3.327051 0.30746388 6.214963 0.47050303
0001f0 56 94 da 3f 65 13 b6 40 5d c0 32 40 3c 0a 19 41
       1.7076519 5.6898675 2.792991 9.564999
000200 e6 41 54 3e 7b 07 6e 40 46 5c 8f 40 03 56 b3 40
       0.20728263 3.7192066 4.480014 5.6042495
000210 cb 0f 4d 3f 8d 6e cb c0 f7 e2 50 3f af d6 09 41
       0.80102223 -6.357245 0.8159632 8.614913
000220 17 14 98 3f 5a 75 a0 40 d3 15 86 3f f9 ab f5 bf
       1.1881131 5.014325 1.047541 -1.9193107
000230 78 35 ba 40 f5 fb bc bf c6 af 45 41 ef 0b d5 3f
       5.819027 -1.4764391 12.355413 1.6644267
000240 32 89 d4 3e 89 14 88 3f a3 56 a2 3e 66 40 45 bf
       0.41510922 1.0631267 0.31706724 -0.7705139
000250 19 02 bb c0 d0 94 9d 3f 1b e4 2e c0 46 d9 3b 40
       -5.844006 1.2311039 -2.7326725 2.9351363
000260 a3 ee 65 40 8b b8 a6 bd b2 e6 25 40 25 bb 0e bf
       3.5926902 -0.081406675 2.5922055 -0.5575431
000270 7f 51 14 bf a6 98 d8 40 1a cf 27 c1 b7 81 72 3f
       -0.57936853 6.768634 -10.488062 0.9472918
000280 61 51 8f 40 76 56 32 40 99 79 b2 40 13 8f 65 3f
       4.478684 2.7865272 5.5773435 0.8967144
000290 e0 10 c7 bf 64 fc 96 40 c2 08 cb 3e 84 a2 79 40
       -1.5552025 4.7183094 0.3965512 3.9005442
0002a0 70 41 de 3f 68 7d 31 40 1e 54 21 bf 40 d9 0d c0
       1.736372 2.7732792 -0.6301898 -2.216385
0002b0 0f f2 f5 3f 59 d1 fd 3f 81 e6 8a 40 bf b0 fb 3f
       1.9214495 1.9829513 4.3406377 1.9663314
0002c0 d2 34 87 40 cb c1 01 3f f7 bd 09 3d 5b ec d2 c0
       4.225198 0.5068633 0.03362843 -6.591352
0002d0 82 76 cb 3f e5 f6 ee c0 ae 75 f8 3f ee 56 f2 3f
       1.5895541 -7.4676385 1.9410913 1.8932779
0002e0 9d 02 2b 40 89 18 87 3e 44 d7 72 bf 2a 98 0f 3f
       2.6720345 0.26385906 -0.9485972 0.5609156
0002f0 21 d0 31 41 c5 f3 05 c0 c6 95 84 3e 0c b1 67 41
       11.113313 -2.0930035 0.25895518 14.480724
000300 7d 9a 3c 3f 70 8a ff 40 c2 59 5c c0 31 d2 c6 40
       0.7367323 7.985649 -3.4429784 6.213158
000310 c8 da 60 40 99 06 7f bf c1 26 8a 40 19 c3 8b c0
       3.5133533 -0.9961944 4.3172307 -4.3675656
000320 3b 70 e4 c0 a3 b4 a8 3e 9b 11 a8 40 2d cb 9b 3f
       -7.1387 0.32950315 5.252149 1.2171379
000330 ba 8c c0 3f 34 a6 1d c0 19 51 16 40 38 11 89 3f
       1.5042946 -2.4632692 2.3486998 1.070838
000340 13 f5 4d 40 49 e6 3b bf 38 c2 30 3f 80 1c 2a c0
       3.2180831 -0.7339826 0.69046354 -2.6579895
000350 94 01 18 40 67 23 7e 40 1c e8 77 40 a7 dc f7 bf
       2.3750963 3.9709108 3.8735418 -1.9364213
000360 bf 06 db 40 42 4d 48 be 77 3e 66 bf 47 85 f2 c0
       6.8445735 -0.19560722 -0.89939064 -7.578769
000370 3e dc 94 40 13 79 79 3f c7 31 83 3f b5 0b 39 40
       4.651885 0.9745037 1.0249566 2.8913395
000380 df d2 27 40 b8 7e 2f c0 fb 8e 50 40 11 84 09 c1
       2.6222456 -2.7421093 3.2587268 -8.594743
000390 32 ae db 40 cf e8 4a 40 53 8d db 40 8a 81 21 41
       6.865014 3.1704595 6.8610015 10.094126
0003a0 b2 b3 a0 bf 8d 64 67 c0 a5 0b c2 bf 15 a2 e6 c0
       -1.2554839 -3.6155121 -1.5159804 -7.2072854
0003b0 09 68 3d bf 0e b3 2f be 05 5f 8c bf c8 79 fb c0
       -0.7398687 -0.17158148 -1.0966498 -7.858616
0003c0 21 9d 95 bf a1 7f 7c 3d cb f2 9b 3e ed c7 5a 40
       -1.1688577 0.061645154 0.30458674 3.4184525
0003d0 e3 c4 fe be a3 d8 ea bf d7 9a fa bf 53 1b 11 41
       -0.49759588 -1.8347362 -1.9578503 9.069171
0003e0 97 97 cc 40 7c 15 bc 3e b3 35 ce bf 45 aa 06 c0
       6.3935046 0.3673514 -1.6110138 -2.1041424
0003f0 ff 64 cf 3f 81 c9 ba bf c1 dc 69 c0 30 09 fa 3f
       1.6202697 -1.4592744 -3.6540987 1.9534054

feature_net.linear_layer_1.bias f4 [32]
000000 a6 b9 7e 40 c6 28 11 40 b7 12 d5 40 3d 0c dd 40
       3.980081 2.2681136 6.6585345 6.907744
000010 b3 77 eb 3f 24 2c 8a 40 d9 d2 45 40 29 af 07 3f
       1.8395904 4.3178883 3.0909941 0.5300165
000020 4b d2 54 40 8b f8 92 3f e1 4c 70 40 d5 69 db 3f
       3.3253353 1.1482099 3.7546923 1.7141672
000030 31 c8 76 40 3b ee cd 40 72 2e c0 40 dc ef 31 40
       3.8559687 6.435331 6.0056696 2.7802649
000040 da 21 b1 40 0e 83 c5 3f 16 bc 23 40 5c 31 bd 40
       5.5353823 1.543062 2.5583549 5.9122753
000050 ac 7e 02 40 87 33 2c 40 1f 6f 44 3f 34 60 49 40
       2.0389814 2.690645 0.7673206 3.1464968
000060 4d 19 ce 3f 5e 1b ef 3f af c6 02 40 1a 03 79 3f
       1.6101471 1.8680227 2.0433767 0.9727036
000070 6e 88 c1 40 83 e9 98 40 ec 87 65 40 e8 ec 34 40
       6.047904 4.778505 3.586421 2.8269596

feature_net.layer_norm_1.weight f4 [32]
000000 ae b8 a2 40 11 af d4 40 c9 3f a1 3e 9b e0 ae 3e
       5.085044 6.6463704 0.31493977 0.34155735
000010 22 c8 e8 40 93 c4 f8 40 6c b7 13 41 b6 11 3e 41
       7.2744303 7.773996 9.232281 11.879324
000020 80 01 e1 40 ec af 4b 41 04 a8 ff 40 ec da 1b 41
       7.031433 12.73045 7.9892597 9.740948
000030 01 2c ee 40 c1 87 89 3e 76 60 b2 3e 4c 81 ec 40
       7.4428716 0.26861385 0.3483922 7.3907833
000040 70 a5 08 41 69 83 89 40 b5 8f 26 41 94 b8 a2 3e
       8.54039 4.2972913 10.410085 0.31781447
000050 81 c7 21 41 fb 65 07 41 a0 5a 38 40 36 62 87 40
       10.111207 8.462398 2.8805313 4.2307386
000060 e7 c4 ae 40 1c 6d cb 40 f1 4a 09 41 ec 11 bf 40
       5.461536 6.357069 8.580796 5.9709377
000070 97 03 8d 3e c6 2a ee 40 d5 4e 74 40 d4 69 e7 40
       0.275418 7.4427214 3.8173115 7.2316685

feature_net.layer_norm_1.bias f4 [32]
000000 58 13 ef 3f fa 65 1c 40 9b 21 2f bf 65 46 3d bf
       1.8677778 2.4437242 -0.6841065 -0.7393554
000010 23 a5 8c 40 87 01 7a 40 cc 8c 22 40 cf 3c f7 3f
       4.3951583 3.9063432 2.5398436 1.9315432
000020 58 cf a9 40 26 be ff 3f a4 f3 47 3f fe 84 27 40
       5.3065605 1.9979904 0.7810614 2.6174922
000030 1f ce 53 40 6c 8f 35 bf 5a a6 35 bf 6a 95 20 40
       3.3094556 -0.7092197 -0.7095696 2.5091195
000040 92 66 39 40 ce 70 4c 40 cf 4d 89 40 e5 2a 28 bf
       2.8968854 3.194385 4.290748 -0.6569045
000050 1d 71 10 40 66 2b 16 40 aa d7 57 40 83 3f fa 3f
       2.256904 2.3463988 3.372538 1.9550632
000060 38 1d b7 3f 7f e5 07 40 bb 72 db 3f 71 f3 d4 be
       1.4305792 2.1233823 1.7144388 -0.4159198
000070 28 fc 31 bf 6d d3 52 40 45 d1 dd 3f ec b1 28 40
       -0.69525385 3.2941544 1.7329489 2.6358595

feature_net.linear_layer_output.weight f4 [15, 32]
000000 61 cc 68 bf ed 06 89 c0 3f 88 23 3e 15 27 e2 be
       -0.9093686 -4.2820954 0.15969943 -0.44170442
000010 75 7c d3 bf f9 ba 05 3e 8a 7b 78 40 28 3c c4 bf
       -1.6522356 0.13059606 3.8825402 -1.5330858
000020 35 67 b1 40 3b 7b 4f c0 ec ee 90 c0 87 30 42 c0
       5.5438485 -3.2418964 -4.5291653 -3.0342119
000030 e1 0c b6 40 a4 42 14 3d 88 a7 78 3d dd cc b8 40
       5.689072 0.036196366 0.060706645 5.7750077
000040 b2 eb 6d 3f 37 24 c4 bf fd 0b 2f 3e 8d 24 6f bf
       0.9293777 -1.5323552 0.17094417 -0.9341515
000050 f9 16 44 40 57 c2 b7 3e 25 1c b6 40 7b 64 17 c0
       3.0639021 0.35890457 5.6909356 -2.3655078
000060 21 a8 96 3f 91 07 26 40 b5 0e 8e 3e 79 42 c4 40
       1.1770059 2.5942118 0.27745596 6.1331143
000070 64 b6 06 3d 2f 4b c7 c0 2e ed 9c 3f ee a1 9b c0
       0.032888785 -6.2279277 1.2259881 -4.863517
000080 e0 ac 7c bf 52 18 4e c0 3a e1 7c be ff 0c 89 be
       -0.98701286 -3.2202344 -0.24695292 -0.26767728
000090 7d cd 3b 41 58 51 4c bf ab 79 be 3f f8 39 18 be
       11.737668 -0.7981162 1.488088 -0.14865863
0000a0 88 c2 11 c0 92 0c 8e 3f 35 d8 d2 be 42 60 b1 be
       -2.2774982 1.1097586 -0.41180578 -0.3464375
0000b0 3d 4c 14 c1 2c df 48 3d de 9f 8c 3d 12 73 a5 40
       -9.268613 0.04904096 0.0686643 5.1702967
0000c0 2f e0 47 bf 96 58 c1 3f 93 58 13 c0 29 cb 03 3f
       -0.7807645 1.5105159 -2.3022811 0.5148187
0000d0 10 d1 d6 3f 18 bc 0b 40 97 35 5d 40 17 c5 b4 3f
       1.6782551 2.1833553 3.4563959 1.4122647
0000e0 09 8d 05 c0 2f 2a 2c bf 42 2d 22 40 6b db 74 c0
       -2.086733 -0.6725187 2.5340123 -3.8258922
0000f0 ad de 84 3e be 46 be 40 6a 5c a9 bf 18 fb 03 c0
       0.25951138 5.9461355 -1.3231328 -2.0622005
000100 64 7e 31 40 39 df d4 40 d5 6a c0 be ee 93 a9 be
       2.7733393 6.652249 -0.37581506 -0.33120674
000110 28 d2 db c0 cb f0 1e 3f 52 8e 90 40 e3 ae ec 3e
       -6.869404 0.6208617 4.517373 0.46227178
000120 58 c5 db be 2f ea 3c bf 06 49 87 3e 4b cc 80 3e
       -0.42924 -0.73794836 0.264229 0.25155863
000130 de 23 df 40 c5 42 0b 3f 7e ea 76 3e 1b 94 6c c0
       6.9731283 0.5439876 0.24112889 -3.6965396
000140 b4 e7 59 40 9d 39 92 c0 21 a1 cf bf e3 94 a6 be
       3.404767 -4.569533 -1.6221048 -0.32535467
000150 bb aa 53 bf 0e 60 15 3f c2 ba fb be 2a 23 8a bf
       -0.8268239 0.5834969 -0.49165922 -1.0791981
000160 c7 e8 db 40 e8 00 4c 40 ce 5f 8f c0 f1 e5 85 c0
       6.872165 3.1875553 -4.480445 -4.184319
000170 14 94 20 be e8 39 8a c0 db f3 54 40 dd 3f 13 3e
       -0.15681487 -4.3195686 3.3273838 0.1437983
000180 22 06 31 c0 57 b8 c5 c0 b4 65 10 be e6 4e 08 3f
       -2.7659993 -6.1787524 -0.14101297 0.5324539
000190 12 4e 70 3f d5 a6 4d 41 32 5c dc 3e 5d 5b 80 c0
       0.93869126 12.85323 0.4303909 -4.0111527
0001a0 b0 9d a6 be d7 7f f2 bf ca b6 54 bf 00 75 04 40
       -0.3254218 -1.8945264 -0.83091414 2.069641
0001b0 79 fb e0 3f 1d 54 d3 3a 0f 63 7e 3c 20 80 8d c0
       1.7576743 0.001612309 0.015526547 -4.4218903
0001c0 86 8b ba 3d f1 ff c3 40 49 a2 f7 3f a3 70 f6 be
       0.09108643 6.124993 1.93464 -0.4813281
0001d0 b4 94 6d bf 2c 03 2d bf d2 6f a0 c0 eb dc b4 3f
       -0.9280503 -0.67582965 -5.01365 1.4129919
0001e0 20 27 41 c0 38 30 c3 3d c0 67 f9 bd 65 a0 02 c0
       -3.018013 0.09530681 -0.12177992 -2.0410397
0001f0 57 9c c8 3e 14 a4 9a bf 70 fd e6 bf 02 d8 11 bf
       0.39181778 -1.2081323 -1.8046093 -0.56970227
000200 50 8c c7 40 6d c9 22 3d e9 ae 88 be 0e 3f b3 3d
       6.235878 0.039742876 -0.26695946 0.08752261
000210 ad 46 ff 3f 73 72 07 c1 86 5f 31 bf d6 c8 fe bf
       1.9943444 -8.465442 -0.6928638 -1.990504
000220 0c 94 83 40 50 41 84 be 13 15 eb 40 47 4d b3 3f
       4.111822 -0.2583108 7.3463225 1.4007958
000230 a4 af 81 bf e0 5c f3 3d 7e a0 3a be a7 51 ce 40
       -1.0131726 0.11882949 -0.18225285 6.4474673
000240 a6 d3 8b bf b8 7b f9 c0 52 52 2b 40 8d 64 5d bf
       -1.0923965 -7.7963524 2.6768994 -0.86481553
000250 23 b4 50 40 90 77 a8 bf a5 e4 f3 40 db b7 97 c0
       3.2609947 -1.3161488 7.6216607 -4.7411933
000260 6d 60 5f be 38 3d 98 be 97 eb 82 40 9d 62 a0 bf
       -0.21814127 -0.29734206 4.0912585 -1.2530094
000270 e1 84 b9 3e ef 25 08 40 00 07 6e 40 d8 11 0a 3f
       0.3623419 2.1273153 3.7191772 0.5393348
000280 ad fe d1 3f 31 f9 c4 bf fd 59 ac be 51 fb 73 be
       1.6405846 -1.5388547 -0.33662406 -0.23826338
000290 29 a6 d2 bf d8 93 2e 3e c1 91 4c bf bc dc 9a c0
       -1.6456958 0.17048585 -0.799099 -4.839445
0002a0 3f a7 f1 3f a3 2b 9e c0 14 9b 88 40 fb 4e 7f c0
       1.8879164 -4.9428267 4.2689304 -3.9891956
0002b0 a8 cd 0f 3f ba 63 26 3e d9 90 dd 3d 22 7b 83 bf
       0.5617318 0.1624898 0.10818643 -1.0271952
0002c0 7c e2 6d 40 ea 7e 09 3f 1b 78 dc bd 1a e5 5f bf
       3.7169485 0.5370928 -0.10765096 -0.87458956
0002d0 14 0a b5 c0 6b ef ba 3f 52 8f 84 c0 20 74 82 40
       -5.6574802 1.4604315 -4.142495 4.0766754
0002e0 8a ba 0f c0 e3 f9 3c bf 4d ba a3 bf a8 8a 77 3f
       -2.2457604 -0.73818797 -1.279123 0.9669595
0002f0 7b 83 17 be f8 8c 67 40 42 78 16 3f df fd 06 40
       -0.1479625 3.617979 0.5877725 2.109245
000300 3f 37 09 40 53 eb ea 3e a7 34 16 3e e1 9f c3 bb
       2.143997 0.45882663 0.14668523 -0.005969987
000310 db f0 b6 3f ea b7 84 3e 40 be f0 3f 27 c6 7e 3f
       1.4292253 0.25921565 1.880806 0.99521106
000320 b1 d1 56 3f 66 5c c1 3f b7 47 a4 3d 8e 9b 0c 3f
       0.83913714 1.5106323 0.08021491 0.5492486
000330 43 a7 f6 3e 5a a5 96 bd 4a 91 01 3d 3a 6b cf 3e
       0.48174486 -0.07355757 0.0316327 0.40511495
000340 39 69 f7 3e 86 07 75 3f 3e d4 5a 3f 7f 51 64 be
       0.48322466 0.95714605 0.85480106 -0.22296713
000350 f2 9c eb 3e db c8 5b 3f 41 0a 1c 40 c2 2c d8 3d
       0.46018177 0.85853356 2.4381258 0.10555412
000360 a5 3b fd bd 11 cc 8b 3e 3e 27 e5 3e 0a 78 e9 3f
       -0.12364892 0.27304128 0.44756502 1.8239758
000370 f1 de 41 be f7 03 ec 3d e9 ea 98 3f 7e f6 8b 35
       -0.18932702 0.11524194 1.1946689 1.0428046e-06
000380 61 85 2f 3f 0b 8a d1 bf 7a 54 db bd 5f dd 95 bd
       0.68562895 -1.6370252 -0.10709472 -0.07317614
000390 eb 3f 22 bf d1 ef 99 3d b5 8e 74 bf e8 4c b4 c0
       -0.6337878 0.075164445 -0.95530254 -5.634388
0003a0 0d a8 35 bf d9 47 c4 c0 ae 47 fc 3f b7 31 91 bf
       -0.7095955 -6.1337705 1.9709375 -1.1343297
0003b0 f7 c4 28 3f 36 21 81 3c 31 ac 3a 3f ff b4 7f 40
       0.65925545 0.015762907 0.72918993 3.9954221
0003c0 14 e8 d0 3f c1 fe 6a 3e 13 6d 67 c0 2f 92 05 3d
       1.6320825 0.22948743 -3.6160324 0.032610115
0003d0 58 2c e1 c0 24 10 01 40 57 c6 bd 3e 7b a0 a1 40
       -7.036663 2.0166101 0.37065384 5.05084
0003e0 16 8f 3f 40 73 c2 58 c0 ee 65 9a 40 48 f7 1a 40
       2.9931083 -3.3868682 4.8249426 2.4213428
0003f0 19 17 8d 3e f9 1d 04 40 be dd 30 40 ac e0 81 3e
       0.27556685 2.0643294 2.763534 0.25366724

feature_net.linear_layer_output.bias f4 [15]
000000 cf de b8 bf 32 cb ef 3f be 4f 2a 40 b5 45 20 c0
       -1.4442996 1.8733885 2.661117 -2.5042546
000010 fb 5b fc 3c d0 24 bd bf c0 61 a8 3f f2 b3 15 be
       0.030805578 -1.4776859 1.3154831 -0.14619425
000020 3d 4e 70 be 4e dc bc 3f 04 6a 03 bf a9 ce 35 bf
       -0.23467346 1.4754732 -0.5133364 -0.71018463
000030 68 ef b4 3e 5c eb e2 3f 08 57 1c 40
       0.35338902 1.7728076 2.442812

feature_net.linear_layer_0.weight f4 [32, 21]
000000 40 43 5a 3f c5 0c 9d 40 b2 cd 23 40 26 24 3b c0
       0.85258865 4.907809 2.5594296 -2.9240813
000010 c5 4f 04 c1 24 27 51 40 a8 45 c8 40 44 cf a9 bf
       -8.269475 3.268014 6.258503 -1.3266377
000020 b9 e5 41 c0 39 1f 59 41 46 09 b9 c0 23 06 a8 40
       -3.0296462 13.570123 -5.782382 5.250749
000030 ec 6a 74 40 66 f2 82 40 78 82 ba 40 76 40 98 40
       3.819026 4.0920897 5.8284264 4.757869
000040 73 17 7f 40 bf bb 7a 40 19 dd ae 40 69 23 7e 40
       3.9858062 3.917709 5.4644895 3.9709113
000050 21 db 7c 40 22 1a d4 be df 38 75 40 0a 97 b6 40
       3.9508746 -0.41426188 3.8315961 5.7059374
000060 9e 0c 08 40 8a 06 3b 3f 81 7b e6 3f 7c 12 ca c0
       2.12577 0.7305685 1.800644 -6.3147564
000070 37 ab 97 c0 b9 ca b6 c0 ca 97 71 bf 83 fc 33 41
       -4.7396502 -5.7122464 -0.94372237 11.249148
000080 d7 c3 5b 40 42 5e a1 40 5c 56 45 40 e7 69 a9 40
       3.433828 5.042756 3.083396 5.2941775
000090 e0 c6 3d 40 84 4e 6d 40 ee c1 91 40 41 9d 81 40
       2.9652634 3.7079172 4.554923 4.050446
0000a0 40 6e 99 40 d8 10 bd 40 52 56 61 3e ff 9c 77 40
       4.7947083 5.908306 0.22005585 3.8689573
0000b0 b0 69 d9 40 68 6e 50 3f de d6 24 c0 75 89 b2 bc
       6.7941513 0.81418467 -2.5756145 -0.02179406
0000c0 68 c0 6f c0 18 1a 11 be ad 81 77 41 9c 37 4d c0
       -3.7461185 -0.1417011 15.469159 -3.2065191
0000d0 70 4c c3 c0 f8 57 87 40 68 3d b9 40 75 79 0b 40
       -6.1030807 4.2294884 5.788746 2.1792881
0000e0 da b2 73 40 75 c6 91 40 e1 b9 90 40 47 40 92 40
       3.8077912 4.5554757 4.5226903 4.5703464
0000f0 dd fb 98 40 39 f4 c7 40 da 7d 96 40 d1 2a f5 bf
       4.780745 6.2485623 4.7028627 -1.9153692
000100 b6 fe 53 c0 10 56 28 40 2f 9f 51 41 be e4 d5 bf
       -3.3124213 2.6302528 13.101363 -1.6710432
000110 69 93 d7 40 dc 95 e3 bf c7 a0 e0 40 ba a1 26 41
       6.7367444 -1.7780108 7.019626 10.414484
000120 c7 dc 8a 40 82 6e 39 40 1c 53 89 bf 74 74 07 41
       4.3394504 2.8973699 -1.0728488 8.465931
000130 5b 16 7b c0 54 bb 06 40 bb 6a 1f 41 4d 76 da 40
       -3.9232395 2.1051836 9.963557 6.826941
000140 81 55 8c 40 90 5b c2 40 0e 03 02 41 cd d9 b4 40
       4.3854375 6.073677 8.125746 5.651587
000150 92 6f 1a bf c6 28 e5 3f 25 b0 80 3f 95 e7 58 c0
       -0.6032649 1.7903068 1.0053755 -3.3891346
000160 27 54 94 be 90 ae c7 40 be ea d8 3f 37 bb 1d c0
       -0.28970453 6.240059 1.6946638 -2.4645517
000170 3d d9 d2 c0 2c 42 58 41 8d 02 06 c1 de 17 83 40
       -6.5890183 13.516155 -8.375623 4.0966635
000180 e7 bb 9c 40 67 4e 6f 40 ee 4b 8f 40 02 98 9b 40
       4.8979373 3.7391603 4.4780188 4.8623056
000190 db 7c a5 40 b2 e0 8d 40 32 e7 a0 40 24 4c a7 40
       5.171491 4.4336786 5.028222 5.2280445
0001a0 4e 92 9d 40 14 95 b5 be 2e 83 11 40 3d aa 91 3f
       4.9241095 -0.354653 2.2736316 1.1380078
0001b0 28 5d 85 bf 6d 77 2b 40 27 60 30 bf bd 1c 42 c0
       -1.0419054 2.6791642 -0.68896717 -3.033004
0001c0 94 36 d4 3f e5 f9 9e c0 86 47 c7 c0 b3 80 68 41
       1.6579156 -4.9680047 -6.227481 14.531421
0001d0 cd a2 8d 40 39 58 aa 40 ff 5b 79 40 e1 91 93 40
       4.426123 5.3232694 3.89624 4.6115575
0001e0 7a ce 64 40 82 e5 98 40 25 de 5f 40 e2 2d 88 40
       3.5751023 4.778016 3.4979336 4.255601
0001f0 a8 86 a3 40 ec ed 82 40 19 32 ad 3f 42 00 62 40
       5.1101875 4.091543 1.3530914 3.5312657
000200 f5 56 d3 c0 93 31 bd 3e 0a 30 9d 40 1a 51 e9 3f
       -6.604365 0.36951885 4.912114 1.8227875
000210 9f eb ca 3e 54 84 7a 3f 40 56 09 c1 4e 4b 12 41
       0.3963289 0.97858167 -8.583557 9.143385
000220 6f 9b c2 40 63 c7 56 40 40 fd a0 40 b3 3e 39 40
       6.081474 3.3559196 5.0309143 2.8944519
000230 61 ae 35 40 1f a7 92 40 3a 36 a2 40 b7 31 a3 40
       2.8387682 4.5829005 5.0691195 5.0998187
000240 79 d0 3c 40 2d d3 91 40 a7 8e ac 40 b0 3c 9d bf
       2.9502242 4.5570283 5.3924136 -1.2284145
000250 ca 83 2b 40 eb a1 d9 40 63 75 b7 40 f6 28 d1 bf
       2.6799188 6.8010154 5.7330794 -1.6340625
000260 62 3a 14 c0 a9 0b 2c 40 e7 1b e8 bf 5d 9f 2a 41
       -2.3160634 2.6882117 -1.8133515 10.663907
000270 f9 dc bc bf 90 ec 47 c0 dc 17 8c 40 bf 66 ab 40
       -1.4754936 -3.1238136 4.3779125 5.3562922
000280 5f 74 a6 40 5f fb 9d 40 18 7a 10 40 02 4d 39 40
       5.2017055 4.936935 2.257452 2.8953252
000290 b2 24 e8 40 f5 50 5b 40 a6 88 c2 40 76 7e 7b 40
       7.2544794 3.4268162 6.0791807 3.9295936
0002a0 d7 59 af 3d 82 f5 35 40 31 91 20 c0 d7 a2 e9 c0
       0.085620575 2.8431096 -2.5088618 -7.301128
0002b0 af 77 5f 40 14 e8 bd be 00 d4 be 40 5a a5 4e 40
       3.49168 -0.37091124 5.963379 3.2288423
0002c0 11 ea 17 41 1b 80 f1 3f 74 87 1c 41 6f 7f 80 40
       9.494645 1.886722 9.78307 4.015556
0002d0 0a 66 d9 40 10 2e a2 40 7d 52 51 40 55 f8 8f 40
       6.793706 5.068123 3.2706597 4.499064
0002e0 6f 37 29 40 d6 d3 08 41 aa 2b d6 3f f3 fd cd 40
       2.6440084 8.551718 1.6732075 6.4372497
0002f0 af 33 6e 40 22 77 25 bf 03 44 5c 40 26 29 b6 bf
       3.7219045 -0.6463491 3.441651 -1.4231308
000300 4e 26 64 40 44 2c 5e 3e 2d 8c 25 40 9c 34 a0 3f
       3.564838 0.21696573 2.5866807 1.2516055
000310 34 42 9f c0 4f 13 f0 c0 ce 98 c9 c0 ad 77 77 41
       -4.9768314 -7.502357 -6.299903 15.466718
000320 6c be 96 40 40 91 a4 40 96 70 3c 40 97 c9 8a 40
       4.710745 5.1427307 2.9443717 4.337108
000330 70 b6 82 40 82 f3 97 40 ee 70 45 40 ed f0 9a 40
       4.08477 4.748475 3.0850177 4.84191
000340 9c de 9a 40 5a d5 8a 40 df 8d 87 3e 76 84 19 3f
       4.839674 4.338544 0.26475427 0.59967744
000350 3c 33 85 3f 4a a4 48 3f 41 94 67 bf 1c 33 c4 40
       1.040626 0.78375685 -0.9046059 6.131239
000360 54 90 bb 3f bc fe 89 40 8b 3c 76 3f 27 31 06 41
       1.465342 4.3123455 0.9618613 8.387
000370 97 ea b4 40 64 f2 f6 3e 5a 53 03 41 c8 16 33 c0
       5.6536365 0.48231804 8.2078495 -2.7982655
000380 68 32 93 3f 8f 15 e6 40 6c 98 55 40 a1 c9 a7 40
       1.1499758 7.1901317 3.337428 5.243363
000390 02 11 ab 40 b3 67 f7 40 f7 1c 8e 40 af 5d 1d bf
       5.345826 7.7314086 4.4410357 -0.61471075
0003a0 93 ab 43 40 da f4 81 bf 69 ba 65 bb 38 84 3f 3f
       3.057347 -1.0152848 -0.0035053736 0.74811125
0003b0 ed 4f 97 c0 15 40 47 40 7c b9 f7 40 6c c1 b1 40
       -4.7285066 3.1132863 7.741392 5.554861
0003c0 2d e7 2c c1 9f de 23 41 22 d3 5a 40 25 78 b4 40
       -10.806439 10.241851 3.4191365 5.639666
0003d0 2f fa 2a 40 4b 6f 94 40 14 2c 94 40 48 62 48 40
       2.67152 4.6385856 4.6303806 3.1309986
0003e0 24 c2 a0 40 0f 69 9b 40 7f e2 cd 40 04 3f 9c 40
       5.023699 4.8565745 6.4338984 4.8826923
0003f0 d3 6d b2 bf bd 64 8b 40 fd 5e 19 c0 31 e1 2d c0
       -1.3939766 4.356047 -2.3964226 -2.7168696

feature_net.linear_layer_0.bias f4 [32]
000000 af cd 36 40 6e b7 31 40 02 7b 75 40 5e 8e 1e 40
       2.856304 2.7768207 3.8356328 2.4774394
000010 e1 bb 36 40 5e 98 69 40 3f 47 39 40 81 50 3c 40
       2.8552172 3.6499248 2.8949735 2.9424136
000020 6c f1 0f 41 b2 b3 5e 40 7f b2 9b 40 01 68 53 40
       8.996441 3.4797177 4.865539 3.303223
000030 85 73 09 41 ab a7 fe 40 f9 e3 fd 40 c4 f6 9d be
       8.590703 7.9579673 7.9340787 -0.3085233
000040 34 bf fb 40 1d ef 0f 41 f0 62 41 40 7e 2b 0a 41
       7.86709 8.995877 3.0216637 8.635618
000050 53 39 cb 40 49 f7 04 41 74 18 c4 40 c3 83 91 40
       6.3507476 8.310372 6.127985 4.547334
000060 72 a1 4d 40 92 ce 1a 41 2b d4 73 40 2f e2 8f 40
       3.2129788 9.675432 3.8098247 4.4963603
000070 ab 5d 48 40 28 1a 8d 40 c3 1d ca 40 4c 3d 11 41
       3.130717 4.409443 6.316133 9.077465

feature_net.layer_norm_0.weight f4 [32]
000000 c7 ef 49 41 35 95 31 41 a1 e9 49 41 81 33 14 41
       12.621039 11.0989275 12.619538 9.262574
000010 e9 7b a2 41 3c f2 7c 41 7e 52 28 41 c6 a9 cf 40
       20.310503 15.809139 10.52014 6.4894743
000020 71 7d d7 40 54 66 9b 41 2c 1f 00 41 e6 91 0b 41
       6.7340627 19.424965 8.00761 8.72312
000030 a9 4e cf 40 f0 00 0e 41 06 82 ba 40 1b 97 1c 40
       6.478352 8.875229 5.828372 2.4467227
000040 0c 2c 89 3e 73 37 e0 40 c4 3c 86 41 a0 57 c9 3e
       0.26791418 7.0067687 16.77967 0.39324665
000050 fc 78 f2 40 fa 9f 77 40 8a b3 1e 41 bc fb 0c 41
       7.5772686 3.8691392 9.918833 8.811459
000060 89 fb 7a 41 8b 64 b9 40 b3 c4 7d 41 bf 94 7c 41
       15.68641 5.7935233 15.860522 15.786315
000070 dd a5 47 41 0e 81 57 41 97 16 97 40 91 79 3b 40
       12.477994 13.4690075 4.7215075 2.9292948

feature_net.layer_norm_0.bias f4 [32]
000000 a9 27 80 3f f1 44 54 3f ad 15 2e 40 91 5c ea 3f
       1.0012103 0.82917696 2.720073 1.8309499
000010 84 2d 39 40 44 80 1f 40 0f 74 d6 3f 74 7e a8 3f
       2.893403 2.4922037 1.6754168 1.316359
000020 40 b1 59 40 be fa 36 40 dd ab bd 3f 41 97 4d 40
       3.4014435 2.859054 1.4818074 3.2123568
000030 a3 0b 29 40 67 f2 b2 3f e4 c8 46 bd e3 8a 3f c0
       2.6413352 1.3980225 -0.048531428 -2.992852
000040 e2 55 81 bf 00 82 0f 41 8a 3d f4 3f 25 67 9a bf
       -1.0104334 8.969238 1.908128 -1.2062727
000050 a8 91 2c c0 a9 63 9f 40 8a 7c 56 3f a4 4b 28 c0
       -2.6963902 4.9809155 0.8378378 -2.6296167
000060 43 52 20 40 fc a3 b2 40 6e f9 a1 3f eb ee 1d 40
       2.5050209 5.5825176 1.2654245 2.4677074
000070 45 d0 70 40 4f a8 2d 40 9f bd d3 40 54 91 7b c0
       3.7627118 2.7133977 6.616897 -3.9307451

feature_net.linear_layer_1.weight f4 [32, 32]
000000 96 b9 81 bf 9e ea 85 40 71 54 26 41 4c 8a e2 40
       -1.0134761 4.18489 10.395616 7.079382
000010 e6 8f a7 3f ab b4 2e 41 a9 82 aa 40 24 04 b3 3f
       1.3090789 10.919108 5.3284497 1.3985639
000020 bd bb 52 40 3a d7 14 40 9d 85 27 40 66 bc 8c 40
       3.2927086 2.3256364 2.61753 4.397998
000030 0d 4c 80 40 a1 b8 18 40 73 37 71 3f 84 21 2d c0
       4.0092835 2.3862689 0.94225234 -2.7051706
000040 b6 f3 61 3f ff 4f 75 c0 13 be 4b 40 0c 64 af be
       0.882625 -3.8330076 3.1834762 -0.34256017
000050 00 59 8f 40 ac fc 64 c0 a4 6a da 40 69 46 86 be
       4.4796143 -3.5779219 6.8255177 -0.26225594
000060 ea 3e d5 3f 04 73 47 c0 5b b3 93 40 c8 93 a1 40
       1.6659825 -3.116395 4.615644 5.0492897
000070 b0 39 9c 40 4b 48 d6 bf 07 6c b2 3f 30 2f 68 40
       4.882042 -1.6740812 1.3939217 3.62788
000080 c7 d8 29 41 b6 61 92 40 87 a4 4e 40 5b f8 4d 40
       10.615424 4.5744276 3.228792 3.2182834
000090 2c ba 53 41 09 c5 3e 41 e7 5f 97 40 49 d0 a6 bf
       13.232952 11.923104 4.730457 -1.3032314
0000a0 a3 50 ac 40 83 c4 2d c0 b0 97 ba 40 33 11 3f 3f
       5.3848433 -2.7151191 5.8310165 0.7463562
0000b0 23 ce 63 c0 ee dc 86 c0 b6 07 c0 40 5d 32 40 40
       -3.5594566 -4.214469 6.0009413 3.003074
0000c0 55 66 74 3f 0a 7e bf 3f b3 ce 6b c0 e4 b0 1e bf
       0.95468646 1.4960339 -3.684491 -0.61988664
0000d0 79 45 2b 40 8b c8 37 40 64 01 18 41 6e c8 0d 41
       2.6761153 2.8716152 9.5003395 8.861433
0000e0 9d b5 a2 40 34 8a 41 40 b7 79 43 40 97 e4 27 bc
       5.0846696 3.0240602 3.054304 -0.010247371
0000f0 ba 4a 17 c0 01 ae 8e c0 42 55 76 bd bd 1c 61 40
       -2.363936 -4.4587407 -0.060139902 3.517379
000100 d2 5f 69 40 11 bb 3b c0 38 7b 37 41 14 f2 89 40
       3.6464734 -2.9332926 11.467583 4.3108006
000110 eb 7e 7e c0 a8 70 85 c0 e4 5a 07 41 69 72 0b 40
       -3.9764965 -4.170002 8.45969 2.178858
000120 68 2a ab 40 de fc a4 40 89 bc 7f 40 11 cf ed 40
       5.3489265 5.1558676 3.9958823 7.4315267
000130 12 87 3b 40 e5 e9 3a c0 c8 21 e1 40 7f c3 ef bf
       2.930119 -2.9205258 7.0353737 -1.8731536
000140 d0 50 2a 3e 0b 0f b2 3e 08 da 09 c1 05 f6 a7 3f
       0.1663239 0.34777102 -8.61573 1.3121954
000150 1a fb 89 40 74 1c 32 40 a0 c1 90 c0 45 93 d6 3f
       4.311902 2.7829866 -4.523636 1.6763693
000160 f8 fb 4c 41 46 7f a2 40 82 67 a5 c0 f9 32 47 40
       12.811516 5.0780363 -5.168885 3.1124861
000170 20 a0 33 40 a7 10 02 40 73 59 6e 40 b7 e0 af 40
       2.8066483 2.0322664 3.7242095 5.496181
000180 cb d0 79 40 96 a5 7a c0 c1 a5 67 40 f4 de 5a 40
       3.9033687 -3.9163566 3.6194918 3.419858
000190 50 91 61 3f 42 27 8d 3f 74 35 85 3f 1c 32 4b 3c
       0.88112354 1.1027606 1.0406938 0.012402084
0001a0 6c 5e e6 3f 8f cd 92 be 61 16 e0 40 4a d1 b2 40
       1.7997565 -0.28672454 7.002732 5.588048
0001b0 59 1b c3 bf 2e ae 46 3f 74 24 8f 40 07 c1 cb c0
       -1.5242721 0.7760953 4.4732 -6.367313
0001c0 3f e9 60 be 91 1e 81 3f 60 ca a3 3f e1 8a 6d bf
       -0.21963976 1.0087453 1.2796135 -0.9279004
0001d0 74 d8 39 41 58 95 84 be e8 1e 0a bd 41 12 65 40
       11.615345 -0.2589519 -0.03372088 3.5792391
0001e0 14 2e 12 41 ca a2 86 40 41 f5 1d c0 fb d7 15 41
       9.13625 4.2073717 -2.468094 9.36523
0001f0 a8 a2 a8 40 ef 4b ab c0 74 c7 29 bf cf 4d 1a 40
       5.2698555 -5.353019 -0.66319966 2.410999
000200 3d 8e 97 bf 48 b6 46 3f d6 bc 89 40 96 96 89 40
       -1.1840283 0.7762189 4.3043013 4.299632
000210 ca 72 c7 c0 39 c3 21 41 47 46 18 40 d7 84 72 40
       -6.2327623 10.110162 2.3792894 3.789358
000220 64 29 48 40 da 27 b7 c0 de 6a b1 40 eb 3d 16 41
       3.1275263 -5.7236147 5.5442953 9.390117
000230 cd b6 2f c0 50 c0 b0 3f 95 2f 6c 40 e3 24 10 40
       -2.7455323 1.3808689 3.6904042 2.2522514
000240 32 3e 46 3f fb 1d 9e 3f 4f a4 6a c0 7d 7e 9f 3f
       0.7743865 1.2352899 -3.6662786 1.2460476
000250 7c d5 bf 40 0e 7b 41 40 0d 19 4d 40 22 99 e4 bf
       5.99481 3.0231357 3.204654 -1.7859232
000260 25 72 7f 40 b9 3a 33 40 55 0d 10 c1 58 5d c2 c0
       3.9913418 2.8004591 -9.003255 -6.0738945
000270 0f 64 b7 3f b0 f8 dd 40 e0 1b 2d 40 eb cd a3 bf
       1.432741 6.9366074 2.7048264 -1.2797216
000280 5d d6 47 40 9b 5b ef 3e 9b aa 10 c1 2d 8b 39 c0
       3.1224587 0.46749577 -9.041652 -2.8991196
000290 19 9a 14 c1 07 71 02 40 d9 4f 03 c0 88 fe 77 c0
       -9.2876215 2.0381486 -2.0517485 -3.8749104
0002a0 b3 ea 79 40 a6 9d 5e bf 9a 21 78 c0 b2 55 e8 c0
       3.90495 -0.869593 -3.8770509 -7.260461
0002b0 de 31 9b 40 0a eb a3 40 fa 90 bd 40 35 05 d3 40
       4.8498373 5.1224413 5.9239473 6.5943856
0002c0 21 3e d8 be 41 02 55 41 03 29 6b c0 56 a8 0b 3f
       -0.422349 13.31305 -3.6743782 0.54553735
0002d0 e9 3a 52 c0 12 9d 1e 41 be bd 61 3f 34 ac bd 40
       -3.2848456 9.913347 0.8818015 5.927271
0002e0 a3 8f 15 c1 fa 52 b6 40 47 b6 22 40 0b 0a ca bf
       -9.347568 5.697629 2.5423753 -1.5784315
0002f0 46 ac ef 3f b8 70 44 40 a1 a2 2e 41 c8 4e d3 bf
       1.8724449 3.0693798 10.914704 -1.6508417
000300 f7 7b d3 40 49 b3 14 bf e0 4a 65 c0 bd ca 37 40
       6.6088824 -0.5808607 -3.582695 2.8717492
000310 10 e4 ba 40 55 0b 35 41 e8 a9 23 c0 b7 a9 7a 40
       5.8403397 11.315267 -2.5572453 3.9166086
000320 4c ae 65 40 57 a3 cc c0 d9 a3 e1 be 82 5b d4 40
       3.5887632 -6.394939 -0.44070318 6.6361704
000330 d3 05 42 40 3d 8d ab 40 fa b9 d7 40 26 f2 74 40
       3.0316055 5.360991 6.741452 3.8272796
000340 ae 1e 30 bf 7d ea 05 41 29 73 d5 c0 4c 6d 1d 3e
       -0.68796813 8.369748 -6.6703076 0.15373725
000350 8d 64 73 3f ef aa e3 40 45 d4 1e 41 c6 d7 07 3f
       0.95075303 7.114616 9.926824 0.5306362
000360 77 e0 9e bd 80 fc cd 40 73 c4 9b 40 fa a1 8e c0
       -0.07757657 6.4370728 4.8677306 -4.4572725
000370 76 b3 4a 40 73 b1 c5 40 71 d7 20 41 d1 7f ec be
       3.1672034 6.1779113 10.052598 -0.46191266
000380 e1 99 24 41 1f df 78 3f 08 8c 78 40 4e 19 09 41
       10.287568 0.97215456 3.8835468 8.568678
000390 9a 60 27 41 e9 88 73 c0 da b7 2f 40 55 eb ec 40
       10.461084 -3.8052313 2.7455964 7.403727
0003a0 96 3b 78 c0 0f 87 40 be c4 e4 3c 41 4e ba 64 40
       -3.8786368 -0.18801521 11.805851 3.5738711
0003b0 5b 5f 13 c0 63 24 14 40 c9 8e e4 bf a5 47 79 c0
       -2.302695 2.3147209 -1.7856075 -3.8949978
0003c0 f4 af 14 bf ad e8 a6 bf 81 76 46 c0 a7 4a bc 3f
       -0.58080983 -1.3039757 -3.100983 1.4710282
0003d0 6f 24 13 41 be 3b 0f 40 c9 21 3f 40 a6 f0 f3 bf
       9.196395 2.2380214 2.986437 -1.9057815
0003e0 60 8b a3 40 6b 67 30 40 15 73 32 40 d0 49 17 bf
       5.1107635 2.7563121 2.788274 -0.59097004
0003f0 20 7f e4 40 8a 34 a0 40 65 03 1a c0 b0 9f b2 40
       7.140518 5.0064135 -2.4064572 5.581993

feature_net.linear_layer_1.bias f4 [32]
000000 18 c5 ca bf 91 6a 4b 40 37 a7 c9 3f 12 06 28 40
       -1.5841398 3.1783793 1.5754155 2.6253705
000010 3b c0 0e 40 09 0c 41 41 d8 3f 17 41 e4 91 cf be
       2.2304828 12.065438 9.453087 -0.40540993
000020 a4 68 e6 3f 1e 4e 8d 3e a7 f0 69 bd 48 5c df 3f
       1.8000684 0.2759866 -0.05711427 1.7450037
000030 b7 13 3a 41 58 99 22 3f 2a 33 68 41 20 b2 9b 3f
       11.629813 0.63515234 14.512491 1.2163734
000040 67 3c 65 41 cd 6e 19 3d 29 9c 5f c0 66 d1 68 bd
       14.327247 0.037459183 -3.4939063 -0.056840323
000050 65 18 ae 3f 93 b5 36 40 64 7c 0c 3f e5 dd 5a 40
       1.3601195 2.8548324 0.54877305 3.4197934
000060 b2 6a 90 3f 54 b4 1f 41 36 09 2e 41 ca f6 9c c0
       1.1282561 9.981525 10.877249 -4.9051256
000070 79 6e ac 40 62 40 c5 c0 f2 0f 4c 41 98 9b 1f 41
       5.3884854 -6.164109 12.753893 9.975487

feature_net.layer_norm_1.weight f4 [32]
000000 a0 a7 a5 40 a8 37 32 41 62 a7 4f 41 19 98 17 41
       5.176712 11.138588 12.978365 9.474633
000010 78 60 36 41 ef 25 7c 41 81 bc 39 41 6a 5c 33 41
       11.398552 15.759261 11.608521 11.210062
000020 9e 8e 34 41 70 df 4b 41 d8 dc 18 41 3a 33 19 41
       11.284819 12.74205 9.553917 9.5750065
000030 56 e7 a6 40 b4 87 43 41 07 b5 a1 41 f2 2f 4c 41
       5.2157393 12.220631 20.213392 12.761705
000040 25 a6 88 41 76 51 02 41 0c c7 d2 40 e1 97 21 41
       17.081125 8.144888 6.5867977 10.09958
000050 1d 77 ae 40 aa b3 a0 40 a1 84 1b 41 12 c6 01 40
       5.45204 5.0219316 9.71988 2.0277143
000060 fa 85 82 41 09 ca 72 41 95 0d a5 bf a5 2a 5e 40
       16.315418 15.174325 -1.289477 3.4713528
000070 28 c5 d3 40 28 93 ca 40 73 f3 41 41 17 44 d9 40
       6.617817 6.3304634 12.121936 6.7895617

feature_net.layer_norm_1.bias f4 [32]
000000 c9 de 2a 3d 0d 35 2d 3f f1 f1 ff bf b5 d4 f4 3e
       0.04171637 0.67659074 -1.999571 0.47818533
000010 8a b0 3c 40 af ba 7a 41 e5 cb c4 40 af d0 2e 40
       2.948275 15.670577 6.1498895 2.731487
000020 9c 54 7a 3e c0 e6 d4 3f 5a 28 78 bf a3 5a 4f bf
       0.24446338 1.6632919 -0.9693657 -0.80997676
000030 7c 3f 65 41 ff db 36 3e 50 85 7b 41 39 a0 19 40
       14.327999 0.1785736 15.720047 2.4004042
000040 e8 86 85 41 da 4d b1 3e 21 f8 10 40 67 70 8b be
       16.690872 0.3462971 2.2651446 -0.27234194
000050 fe ee 3e 3f 35 6a 1f c0 8d 83 76 bd ad bb 1a c0
       0.74583423 -2.4908574 -0.06018405 -2.4177048
000060 04 7f 09 40 01 69 25 41 1c b4 5a 41 96 fd 7c 40
       2.1483774 10.338136 13.668972 3.9529777
000070 5c 3b c4 bf 6e e6 dd bf 5a 1c 51 41 26 c8 93 c0
       -1.5330615 -1.7335947 13.069422 -4.618182

feature_net.linear_layer_output.weight f4 [15, 32]
000000 5c db be 3f 50 5c b1 be 17 12 08 41 f9 33 3d 40
       1.4910693 -0.3464074 8.504416 2.9562972
000010 e6 c2 59 c0 75 f9 22 3c ba 79 11 3f 13 66 90 3f
       -3.4025207 0.0099471705 0.56826365 1.128115
000020 f3 5f b1 bf 9e 63 91 40 a8 af 8f 40 78 a8 95 40
       -1.3857406 4.5434103 4.4901924 4.676815
000030 7d 9a 9a 3e c0 a2 13 3e 25 d1 2f 3e a1 c8 e5 bf
       0.3019599 0.14417553 0.17169626 -1.7951852
000040 7b 44 0b 40 32 46 32 3f 9a 72 41 40 dd db 43 c0
       2.1760547 0.6963836 3.0226197 -3.0602944
000050 2a 49 37 c0 90 20 59 c0 67 9f e0 3f 01 a5 fd be
       -2.8638406 -3.3926125 1.7548646 -0.4953995
000060 9d be 9c 3d 33 c6 35 3e 10 ba c5 3e 18 44 cd 40
       0.07653544 0.17751388 0.38618517 6.414562
000070 3a 1e 14 40 94 96 54 3f 8c 33 5e bf 7a 23 ac 3f
       2.314345 0.83042264 -0.86797404 1.3448327
000080 d9 64 5d be ad 2a a1 3f 5e 17 a8 40 cf f8 e1 c0
       -0.21620502 1.2591149 5.2528524 -7.061622
000090 ef d5 8c 3f fa 2e 7b bf 7a d1 01 bf 58 83 1e 40
       1.1002787 -0.98118556 -0.5071026 2.4767666
0000a0 52 8f 46 c0 db 43 56 c0 07 3b b3 bf 6d 29 88 bf
       -3.1024976 -3.3478916 -1.4002389 -1.0637642
0000b0 f3 27 cc bf a2 b5 41 40 0b bd 03 41 5d 2e cd 3f
       -1.5949692 3.026711 8.233653 1.6029774
0000c0 0f f0 2c c0 05 4e 2f 40 d3 ec 1d 40 42 fe 7c 40
       -2.702152 2.739137 2.4675796 3.9530187
0000d0 5a 46 6a 41 bd b4 d6 bf b8 bc 70 40 53 8f 99 c0
       14.642176 -1.6773907 3.7615185 -4.7987456
0000e0 ed c4 4e 3c 6c d8 db bf f2 39 eb bf 4c d2 4e 40
       0.012620193 -1.7175422 -1.8377059 3.2315855
0000f0 2e 2b 4e 40 57 c7 52 c0 af dd 30 c0 07 e6 9e bf
       3.2213855 -3.2934167 -2.7635305 -1.2413949
000100 0e 6b b4 c0 c8 97 dc 3f 4f e2 d2 3f d1 52 89 3d
       -5.638068 1.723382 1.6475314 0.06705249
000110 36 8d bc bf 5e 7e fc 3e e6 8c 40 bf 08 b2 63 40
       -1.4730594 0.4931516 -0.75214994 3.5577412
000120 b0 65 a3 3e bc ee 2e 3f de 8a 8d 3f 18 39 24 c0
       0.3191352 0.6833303 1.1058004 -2.5659847
000130 99 6e 47 c0 e3 17 ca bd a2 3b a7 c0 c2 8f 04 c1
       -3.1161253 -0.09867837 -5.2260294 -8.285097
000140 3c 93 99 40 39 ba 04 40 dc 29 89 c0 e6 d6 73 3d
       4.799223 2.0738661 -4.28636 0.059531115
000150 a8 14 ed c0 8a 85 b4 40 c4 f9 36 40 f0 63 2c 3d
       -7.4087715 5.641301 2.8589945 0.042087495
000160 fa a6 a4 bf ad c2 08 c0 72 11 46 bf 3b e8 79 bf
       -1.2863457 -2.136882 -0.7737037 -0.9761998
000170 3c ef c4 3f 69 ae 0c 40 fa ea a2 40 8a a0 fa 3f
       1.5385509 2.1981452 5.0911837 1.9580243
000180 46 a2 ff 3c 79 87 ac 3e fe b9 36 3f b6 55 c1 3e
       0.031205308 0.33697107 0.7137755 0.37760705
000190 be 05 51 3f 2a 5c b1 3f 19 e6 77 3f 32 df 92 3f
       0.81649387 1.3856251 0.96835476 1.1474364
0001a0 7b 98 17 3e fe 98 96 3f 03 fa 67 3f 1b 99 8e 3f
       0.1480426 1.176544 0.9061586 1.1140474
0001b0 c6 99 77 3f 4d e4 b7 3f 87 1c 50 3f a8 94 3e 3f
       0.96719015 1.4366547 0.8129353 0.7444558
0001c0 9f df 2a 3f bb 47 d0 3e f2 fe 6f 3f 54 5a 6c 3f
       0.6674747 0.40679726 0.9374839 0.9232533
0001d0 16 6f 4e 3f f2 17 5e 3e 45 1c 77 3e 1b 78 6b 3f
       0.80638254 0.21688822 0.24131878 0.9198014
0001e0 4b fe 94 3f a3 b9 7e be d4 e5 1b 3f 38 ad aa 3f
       1.1640104 -0.24875502 0.60897565 1.3334112
0001f0 05 45 36 3f 6d 09 17 3f a7 e8 15 3f c3 62 80 3f
       0.71199065 0.5899876 0.58558124 1.003014
000200 63 86 79 c1 49 d4 1d c1 9a 43 6f c1 61 2e a1 c1
       -15.595309 -9.864327 -14.954004 -20.147646
000210 f9 2e 7c c1 31 8a 0e 41 07 aa c7 3f f1 ac 93 c1
       -15.761468 8.908738 1.5598763 -18.459444
000220 cf f7 99 c1 fd fa 41 c1 94 e6 70 c1 bd ec 4a c1
       -19.246 -12.123776 -15.0562935 -12.682797
000230 36 fa 53 41 3b 96 84 c1 b8 d2 d4 40 92 ff 68 c1
       13.248587 -16.573355 6.6507225 -14.562395
000240 42 4a d3 40 e6 0b 7a c1 e3 b5 25 c1 e1 ed 9a c1
       6.6028147 -15.627905 -10.356906 -19.366152
000250 36 25 86 c1 ad 5e 6c c1 9c 8d a0 c1 d7 44 62 c0
       -16.76817 -14.773114 -20.069145 -3.5354517
000260 b6 eb ad c1 e6 ed 29 40 72 90 09 41 ab bc c5 c0
       -21.740093 2.6551452 8.597765 -6.1792808
000270 d9 57 0d c1 19 c5 85 c1 3a b4 8e 40 47 60 24 c0
       -8.833947 -16.72124 4.4595003 -2.5683763
000280 70 de 8c c0 92 d2 30 40 e3 e1 d2 c0 45 7b 76 c0
       -4.402153 2.7628522 -6.590074 -3.8512738
000290 61 1c f8 bf a0 bc 75 40 36 e7 4c 3f 80 2d b3 3d
       -1.938366 3.8396378 0.800403 0.08748913
0002a0 f8 83 9a c0 32 66 52 40 4f a3 c7 40 e8 31 27 bf
       -4.8286095 3.2874875 6.238685 -0.65310526
0002b0 26 85 e4 3f 18 0a fc 40 80 05 b5 bd fe ab 46 c0
       1.7853134 7.876232 -0.0883894 -3.1042476
0002c0 4e 4d 31 bf ad 50 89 40 16 aa b6 40 03 f6 31 40
       -0.6925858 4.291098 5.7082624 2.7806404
0002d0 71 6a e1 40 8d 11 23 40 e9 be b3 40 84 50 32 40
       7.0442433 2.5479462 5.6170545 2.7861643
0002e0 50 b3 ae bf d9 43 d1 bf 44 63 e3 bf 6f 28 82 c0
       -1.3648472 -1.634883 -1.7764668 -4.0674357
0002f0 7c 9c 2b 40 d0 9a c9 3f 75 d8 6e bf a0 91 9e c0
       2.681426 1.575037 -0.9329904 -4.9552765
000300 b8 19 3c bf 63 05 c7 c0 1f 4b fa 40 27 44 b4 c0
       -0.73476744 -6.2194076 7.82167 -5.6333194
000310 dd ca f9 bf 47 96 3d 3f a5 ef 3f c0 0b 88 c6 3e
       -1.9515034 0.7405743 -2.9990017 0.38775668
000320 e3 30 49 40 99 97 04 c1 64 c8 ca c0 c4 d0 41 c0
       3.1436088 -8.287011 -6.3369617 -3.028367
000330 b4 1a 97 be fd 4a 9d c0 ca 10 4d bf 1e 65 f5 3f
       -0.2951256 -4.915404 -0.80103743 1.9171484
000340 ee 42 88 bf 1d a1 55 c0 61 bf cd be 75 de ca c0
       -1.0645425 -3.3379586 -0.40185073 -6.3396554
000350 a2 fa 22 3e da 31 a9 3f 0d 29 a1 40 02 b2 ae 3d
       0.15915921 1.3218338 5.036261 0.08530046
000360 f2 3a 0d 40 9a 12 db 3f 1f b8 01 3f 30 58 bb 40
       2.2067227 1.7115052 0.5067157 5.854515
000370 2d 23 02 40 2b d8 55 40 c1 91 7c 3f ba 5d ba 40
       2.033397 3.3413188 0.986599 5.823941
000380 0a d9 b8 bf b2 23 73 c0 fb 07 6c 40 95 77 d1 3f
       -1.4441235 -3.7990537 3.687987 1.6364619
000390 c8 58 c3 c0 b4 98 a7 bf c8 4d 97 c0 e2 7e 92 3f
       -6.1045876 -1.3093476 -4.728245 1.1444972
0003a0 c4 16 1d 41 75 29 f3 c0 70 78 ef be ca 8e 62 40
       9.818058 -7.5988107 -0.46771574 3.5399652
0003b0 4b 6a 49 3f ce 15 50 3f 15 ad 6e 3f a5 9e b3 c0
       0.78677815 0.8128327 0.9323285 -5.613116
0003c0 9c 22 39 bf 91 dd bb c0 df ac 0b 40 96 a4 d0 bf
       -0.72318435 -5.8707967 2.1824262 -1.6300228
0003d0 27 40 51 40 2a 99 20 41 19 f0 37 40 ac 0c 97 c0
       3.2695405 10.037394 2.8740294 -4.720297
0003e0 e3 dd 5f 40 1d 70 a6 3e 6d ea 8d 3e 22 d1 81 3f
       3.497918 0.3250741 0.27717915 1.0141947
0003f0 ec 4a 88 3f 68 20 db bf 05 e3 b5 3e 4b 95 85 40
       1.0647864 -1.7119265 0.35524765 4.1744742
