otk/AgileRL-MATD3/simple_reference_v3/result/20240102-0837/MATD3_trained_agent_0020000.pt (torch, 608474 bytes, 224 tensors)

feature_net.linear_layer_0.weight f4 [32, 21]
0	0xbfe1459f	-1.7599372
1	0xbfa2787a	-1.2693017
2	0x3e14ba27	0.14524136
3	0x3fd26cb2	1.6439421
4	0xbfcbdc19	-1.5926543
5	0x40ab5a7f	5.354797
6	0x3f36faf6	0.71476686
7	0x3f9d9ea9	1.2314044
8	0x409736a9	4.7254224
9	0x3fcc657f	1.5968474
10	0x3faee1a5	1.3662611
11	0x3e7ef548	0.24898255
12	0x40000a10	2.0006142
13	0x3ee69672	0.45036656
14	0x40719db8	3.7752514
15	0x40754acd	3.8326905
16	0x400258ef	2.036678
17	0x4060910e	3.5088534
18	0x4062635c	3.5373144
19	0x401bd98c	2.435153
20	0x3fabdd41	1.3426896
21	0x3e6aee1b	0.22942393
22	0x3e8b36e8	0.27190328
23	0x409b045f	4.8442836
24	0x409e6381	4.9496465
25	0xbf990086	-1.1953285
26	0xbfee425c	-1.8614001
27	0xc05640e8	-3.3477116
28	0xbf89f03c	-1.0776439
29	0x4116ca80	9.424438
30	0xbfb7ce95	-1.4359919
31	0xc0875ce0	-4.2300873
32	0x3ffa9276	1.9575946
33	0x402301b9	2.5469801
34	0x3fa17e71	1.2616712
35	0x401d58f6	2.4585547
36	0x3fd8ac70	1.6927624
37	0x40298548	2.6487598
38	0x40304e2a	2.7547708
39	0x4014a646	2.3226485
40	0x3ff39449	1.9029628
41	0x3fdf058e	1.742357
42	0xbee56553	-0.44803867
43	0xbf85261d	-1.0402256
44	0x3fd8ff99	1.6953002
45	0xc08af592	-4.342477
46	0x3fb94266	1.4473388
47	0x405c8ffc	3.446288
48	0x3fb02903	1.3762516
49	0x40156c75	2.3347447
50	0xc0930100	-4.593872
51	0x40656036	3.5839972
52	0x40ff5190	7.9787064
53	0x3f2b588e	0.66932
54	0x401235ac	2.2845259
55	0x40311693	2.7670028
56	0x4043b2b7	3.057783
57	0x400b232f	2.1740224
58	0x40291f52	2.6425366
59	0x403fa1ae	2.9942431
60	0x403aadfe	2.9168696
61	0x4033a459	2.806906
62	0x400d4bba	2.207747
63	0x3e121c4b	0.14268605
64	0xbf387887	-0.7205891
65	0x3f8eba98	1.1150694
66	0x3f6091c5	0.87722427
67	0x3da8b1c7	0.08237033
68	0x3f8c173c	1.094459
69	0xbff4aef9	-1.9115897
70	0xc018a241	-2.3849032
71	0x4151d289	13.1139
72	0xc0edbbcd	-7.429175
73	0x3f200b11	0.62516886
74	0x40046ca0	2.06913
75	0x4021a1aa	2.5254922
76	0x4012e2c1	2.29509
77	0x401180dc	2.27349
78	0x3fbbe66c	1.4679694
79	0x3fdb6c38	1.7142401
80	0x401b0779	2.422331
81	0x4011de22	2.279183
82	0x40170d0c	2.3601713
83	0x400cf303	2.2023323
84	0x3ebdf277	0.37099048
85	0x3f7ae664	0.980078
86	0x401dfa83	2.468415
87	0xbf7ae0cc	-0.9799926
88	0xc0d99a1f	-6.8000636
89	0x4058336c	3.3781385
90	0x4044dd05	3.07599
91	0xc025fc96	-2.5935416
92	0x4091883d	4.5478806
93	0x40a67af5	5.2025094
94	0xc05cfc1a	-3.452887
95	0x3f8e36dd	1.1110493
96	0x3e59b798	0.21261442
97	0x3fbbac06	1.4661872
98	0x3feb61b2	1.8389189
99	0x4048d690	3.1380959
100	0x4029bf45	2.6522992
101	0x4029e309	2.6544821
102	0x401dbd7c	2.4646902
103	0x3fe7de33	1.8114685
104	0x3f882435	1.063605
105	0x3fe51d7e	1.7899625
106	0xbf8b5d02	-1.0887759
107	0xc0cb6ca0	-6.35701
108	0x407dd1a6	3.965921
109	0xc07220c5	-3.78325
110	0x3f139610	0.5765085
111	0xc06cda1c	-3.7008123
112	0xbe48bd15	-0.19603379
113	0x40466fc0	3.1005707
114	0x40874200	4.2268066
115	0x3fb56d04	1.4173894
116	0x409b7206	4.857669
117	0x3e9fed93	0.31235942
118	0x3f5a4a72	0.85269845
119	0x40885889	4.2608075
120	0x400e8aaa	2.2272134
121	0x40221c20	2.5329666
122	0x3fde33b2	1.7359526
123	0x4073bb7b	3.808318
124	0x3f5ce8d1	0.8629275
125	0x40064a6a	2.0982919
126	0x3f725f55	0.94676715
127	0x3e7f2998	0.2491821
128	0x3f96e4b8	1.178855
129	0xbf83afd9	-1.028804
130	0xc03bf793	-2.9369857
131	0x3f03747f	0.51349634
132	0x3fec5a0e	1.8464983
133	0x3edef46f	0.43545863
134	0xc0808550	-4.0162735
135	0x411c13c4	9.754826
136	0xc06b7b42	-3.679398
137	0x4053102c	3.297862
138	0x4012d6d1	2.2943614
139	0x4024fb9b	2.5778568
140	0x4024771f	2.5697706
141	0x403c2ade	2.9401164
142	0x40551fc2	3.3300633
143	0x3fe59369	1.7935611
144	0x402b436c	2.67599
145	0x3fee60e7	1.8623322
146	0x40316a24	2.7721033
147	0xbe9c2dc0	-0.30503654
148	0x3f5e7120	0.86891365
149	0x3e3cd181	0.18439294
150	0x3f60b79d	0.8778017
151	0x3e2e9855	0.17050298
152	0x405b39a7	3.4253938
153	0xbfff7974	-1.995894
154	0xc081aa35	-4.052027
155	0xc0e510ca	-7.1582994
156	0x40ed894f	7.4230113
157	0xbcd9402f	-0.026519863
158	0x404e6d8f	3.225437
159	0x4021374a	2.5189996
160	0x3f229ed3	0.63523597
161	0x3f280fe2	0.65649235
162	0x3fd72b6e	1.6810129
163	0x400d47e0	2.207512
164	0x3f809cf3	1.0047897
165	0x4002ca83	2.0436103
166	0x3f65f560	0.8982754
167	0x4002ebcc	2.045642
168	0x3e2f21e1	0.17102768
169	0x3e5103d7	0.20411621
170	0xbffb4a58	-1.9632063
171	0xbd23babe	-0.039973013
172	0xc00dabce	-2.2136111
173	0xbf002b9c	-0.5006654
174	0x406a0811	3.6567423
175	0x3f2c391c	0.6727464
176	0xc0ab012b	-5.3438926
177	0xc0d5e560	-6.68425
178	0x412f2860	10.947357
179	0x4011ee46	2.280168
180	0x4022a6e5	2.5414364
181	0x400e607d	2.2246392
182	0x40107494	2.2571154
183	0x3feccc19	1.8499786
184	0x3ff66337	1.9249028
185	0x3ff851aa	1.9399922
186	0x40267c31	2.60133
187	0x4006b9ad	2.1050828
188	0x40121a08	2.2828388
189	0xbf83011d	-1.0234715
190	0x3d97ed9f	0.074183695
191	0xc0453a79	-3.081694
192	0x40b0053a	5.500638
193	0x4042f13c	3.0459738
194	0xc0b762db	-5.7308173
195	0x3ff8f694	1.945025
196	0xbe0e023f	-0.13868044
197	0xbf5be498	-0.8589568
198	0x40ccea35	6.4035897
199	0x404cd350	3.2003975
200	0x40377a30	2.8668327
201	0x401fa9c6	2.4947371
202	0x404500b5	3.0781682
203	0x3f870d75	1.0550982
204	0x4013eb78	2.3112469
205	0x40086dd4	2.1317034
206	0x4023f4ed	2.561824
207	0x40026764	2.0375605
208	0x403bc246	2.9337325
209	0x40199ad2	2.4000745
210	0x3d6b39ae	0.057428055
211	0x3e4e9272	0.20173052
212	0x3ff7571a	1.9323456
213	0xc08fe89b	-4.497144
214	0xbf833342	-1.0250018
215	0xbff9e306	-1.9522407
216	0x3f48f76b	0.7850253
217	0x40c94389	6.289494
218	0x411372f4	9.215565
219	0xbfe47452	-1.7847998
220	0xc06722f3	-3.6115081
221	0x40055a74	2.0836458
222	0x40405f9d	3.0058358
223	0x3fdd818f	1.7305163
224	0x401797aa	2.3686318
225	0x401dd1ed	2.4659379
226	0x401ccd69	2.4500372
227	0x3ff80ab2	1.9378264
228	0x3fd03daa	1.6268818
229	0x3fb199dc	1.3875079
230	0x40543eef	3.3163412
231	0x3eb1e67c	0.34746158
232	0xbda94e6c	-0.08266911
233	0xbdeee236	-0.1166424
234	0x3ef17413	0.4715887
235	0x3fa25a1a	1.2683747
236	0x403256a7	2.7865388
237	0xbf21496a	-0.63002646
238	0xc06f5d6d	-3.7400773
239	0xc03c64cb	-2.943652
240	0xc0c1c563	-6.055345
241	0x411a67b2	9.650316
242	0x3ffc6c7f	1.972061
243	0x40283af3	2.628598
244	0x3ff889a8	1.9417009
245	0x4025da69	2.5914557
246	0x4002de17	2.0448053
247	0x401687e4	2.352044
248	0x3fbef6ba	1.4919045
249	0x3ff572cb	1.9175657
250	0x4004488f	2.0669286
251	0x40274798	2.6137447
252	0x3df062f7	0.11737626
253	0x3eb0b8aa	0.34515887
254	0xc001302c	-2.0185652
255	0x4029851b	2.648749

feature_net.linear_layer_0.bias f4 [32]
0	0x40564dd7	3.348501
1	0x40129060	2.290062
2	0x402f32f8	2.737486
3	0x4043802d	3.0546982
4	0x400bb496	2.182897
5	0x406605a8	3.5940952
6	0x40031541	2.0481722
7	0x3fb5395d	1.4158131
8	0x3fe3c20c	1.7793593
9	0x40665c6d	3.5993912
10	0x400afc30	2.1716423
11	0x3fbfb523	1.4977154
12	0x3f3cdbde	0.7377299
13	0x3ffd09d4	1.9768624
14	0x4018b2e0	2.3859177
15	0x3ff7e2e3	1.9366115
16	0x3fda9a2e	1.7078302
17	0x406b3084	3.6748362
18	0x407ecf5a	3.9814057
19	0x4010b1a5	2.2608426
20	0x4042e2aa	3.0450845
21	0x40218001	2.5234377
22	0x400fd779	2.2475264
23	0x3fceaf24	1.6147199
24	0x40375876	2.8647742
25	0x40703fb4	3.7538881
26	0x3ffd6ff2	1.9799788
27	0x4017a0d2	2.3691907
28	0x3feb5db2	1.8387969
29	0x40349d69	2.8221076
30	0x4003943d	2.0559227
31	0x407f6887	3.9907548

feature_net.layer_norm_0.weight f4 [32]
0	0x3e447b4f	0.19187663
1	0x40a6908b	5.2051444
2	0x403ff257	2.9991663
3	0x40d730c1	6.7247014
4	0x4075a244	3.838029
5	0x3fee1168	1.8599062
6	0x411126de	9.071989
7	0x40db7de6	6.8591185
8	0x413ddaa1	11.865876
9	0x407f7aac	3.9918623
10	0x408df967	4.4366946
11	0x4106a6f8	8.415764
12	0x40e2fb63	7.093187
13	0x40c40e53	6.1267486
14	0x4072b244	3.7921305
15	0x40fa9a57	7.8313403
16	0x40a6490f	5.1964183
17	0x3e904340	0.28176308
18	0x3e4d7934	0.20065767
19	0x3fd10de0	1.6332359
20	0x402a2083	2.6582344
21	0x40231447	2.5481126
22	0x40515aa8	3.2711582
23	0x4130e297	11.05532
24	0x4092103d	4.564482
25	0x3e70678c	0.23477
26	0x40fd1138	7.908352
27	0x40c2f7cb	6.092748
28	0x3fdef508	1.7418528
29	0x3ffae662	1.9601557
30	0x40386390	2.8810768
31	0x40649dd6	3.5721335

feature_net.layer_norm_0.bias f4 [32]
0	0xbf31cde2	-0.6945478
1	0x3fc34a41	1.5257035
2	0x3e6568a9	0.22403206
3	0x3f853743	1.040749
4	0xbdb521af	-0.08844315
5	0x3f83c264	1.0293698
6	0x3f6038c1	0.875866
7	0x3d255678	0.040365666
8	0x3fa8bacd	1.3182007
9	0x3e625e35	0.2210625
10	0xbe66c425	-0.2253576
11	0x3e1bf882	0.15231517
12	0x3ff612cd	1.9224488
13	0x3e00e586	0.12587556
14	0x3f1cdc79	0.61273915
15	0x3eca8c15	0.3956
16	0xbed8b504	-0.42325604
17	0xbf44b72e	-0.7684201
18	0xbf501a12	-0.8128978
19	0xbb9b6c18	-0.0047431104
20	0x3f88dbfe	1.0692136
21	0x3fdbc590	1.7169666
22	0xbee2d4b0	-0.44302893
23	0x3f4ef704	0.80845666
24	0x3f121cc9	0.5707517
25	0xbf6ed7a0	-0.9329777
26	0x3ff8066f	1.9376963
27	0x3c3fd1ea	0.011707762
28	0x3eb62bdd	0.3558034
29	0x3ee56c99	0.44809416
30	0xbb16a3aa	-0.0022985735
31	0x400433c8	2.0656605

feature_net.linear_layer_1.weight f4 [32, 32]
0	0x3fe26d03	1.7689518
1	0xc018a09a	-2.3848023
2	0xc01d88f9	-2.4614851
3	0x40990989	4.782414
4	0xbde8929d	-0.11356089
5	0x40acae69	5.3962903
6	0x3ee4a9f7	0.44660923
7	0x40c42dfc	6.1306133
8	0xbf91d8bb	-1.1394266
9	0x3fe5b783	1.7946628
10	0x40b091a2	5.5177774
11	0x3f7b08f9	0.98060566
12	0x407b5816	3.9272513
13	0x4078377a	3.878386
14	0xbf08942d	-0.533511
15	0xc06c2931	-3.6900141
16	0xbf98bbd5	-1.1932322
17	0x3d78dc09	0.060756717
18	0xbf161392	-0.5862361
19	0x40fb6d2c	7.8570766
20	0x408e47bd	4.446257
21	0x40ad1d6e	5.4098425
22	0xc017ce3c	-2.3719625
23	0x4018a763	2.3852165
24	0x40ad36ba	5.4129305
25	0x3f301e01	0.6879578
26	0x405a387f	3.4096982
27	0x400eaa08	2.229128
28	0x3fba0e30	1.453558
29	0x3eca551f	0.39518067
30	0x40ccf57d	6.404967
31	0xbf7c1809	-0.98474175
32	0xbe3baa52	-0.18326691
33	0xc054693b	-3.3189228
34	0x3f4a13bb	0.78936356
35	0x3fc5cc01	1.5452882
36	0x40df866c	6.985159
37	0x406a3b21	3.659859
38	0x3ffec3db	1.990352
39	0x405533fa	3.3312974
40	0x40065105	2.098695
41	0xbf55aafd	-0.8346403
42	0x402beba9	2.6862586
43	0xc0b4c842	-5.6494455
44	0x3fb04f24	1.3774152
45	0xbba9ab02	-0.0051778564
46	0xbfdfee21	-1.7494546
47	0x40171f46	2.3612838
48	0xc021074b	-2.5160701
49	0xbe2d84c1	-0.16945173
50	0x3f3d8719	0.7403427
51	0x40936398	4.6059074
52	0x40e02a2b	7.0051475
53	0x408d3a61	4.4133763
54	0x4054720e	3.3194613
55	0x3ed26966	0.41096038
56	0x4045aada	3.088553
57	0xbafe5759	-0.0019404694
58	0x40c95905	6.2921166
59	0xbf5484af	-0.8301496
60	0xc04a7c29	-3.1638281
61	0xbf12c480	-0.57331085
62	0x40c91675	6.2839913
63	0x400b5ca5	2.1775296
64	0x3fce6e2d	1.6127373
65	0x3f80b514	1.0055261
66	0xbf8c8d89	-1.0980693
67	0x402cd286	2.7003493
68	0x40cd4e81	6.415833
69	0x3f7e9e16	0.9945997
70	0x40db9944	6.862459
71	0xbf23235b	-0.63725823
72	0xc0b24d9b	-5.5719733
73	0x406ae07d	3.6699517
74	0x3f301879	0.6878734
75	0xc08e1f4f	-4.441322
76	0x40b0ea4b	5.5286
77	0x40920371	4.56292
78	0x403a9088	2.9150715
79	0xc088069d	-4.2508073
80	0xbef4ff67	-0.47851107
81	0xbd0c2ee8	-0.03422442
82	0xbf663040	-0.89917374
83	0x3fe7a37c	1.8096766
84	0x3f1b2419	0.60601956
85	0x4030a169	2.7598517
86	0x3f8d4546	1.1036766
87	0x3f94c605	1.1622931
88	0x3f668962	0.9005338
89	0xbe550ea9	-0.20806374
90	0x40bbaee6	5.8651
91	0xbf84ea1c	-1.0383945
92	0x3f8a316a	1.079633
93	0x409f22f5	4.973017
94	0x4054adf4	3.3231173
95	0x4098879d	4.7665544
96	0x3fdf8e01	1.7465211
97	0x3f8b10d0	1.0864506
98	0xbfac3cd6	-1.3456066
99	0x4038a4e4	2.8850641
100	0x40c86081	6.2617803
101	0x3f983f01	1.1894227
102	0x40dd0d62	6.9078836
103	0xbf13959d	-0.57650167
104	0xc0b31742	-5.596589
105	0x405e0833	3.4692504
106	0x3f5d76dc	0.8650949
107	0xc08bce42	-4.368928
108	0x40a57710	5.170784
109	0x4088922b	4.267843
110	0x4031ac95	2.7761586
111	0xc08c11da	-4.377179
112	0xbef3d6af	-0.47624728
113	0x3e0620ec	0.13098496
114	0xbf5e2f3a	-0.8679081
115	0x400528a8	2.0806065
116	0x3edb391d	0.4281701
117	0x402b78e2	2.679253
118	0x3f913c20	1.1346474
119	0x3fbb40d1	1.4629155
120	0x3f9332d5	1.1499888
121	0x3e9d6be8	0.30746388
122	0x40be8e3d	5.954863
123	0xbf8afa9f	-1.0857733
124	0x3f917da6	1.136647
125	0x409baddd	4.8649735
126	0x40575a10	3.364872
127	0x409bccdd	4.8687577
128	0x3e5441e6	0.20728263
129	0x3fc54cbc	1.5414042
130	0x40b8dc14	5.776865
131	0x409ac9d1	4.837136
132	0x3ff3b251	1.9038793
133	0xc0448614	-3.0706835
134	0x3f75a31c	0.9595201
135	0x40361999	2.8453124
136	0x3efe9e00	0.4972992
137	0x401b16d9	2.4232695
138	0x3fefa12b	1.872106
139	0xbee31c71	-0.44357637
140	0x3f93eb3c	1.1556163
141	0xbef06752	-0.46953827
142	0x41162228	9.383339
143	0x4047c2f9	3.1212752
144	0x403d1e19	2.954962
145	0x3f881489	1.0631267
146	0x3ea256a3	0.31706724
147	0x3fe23ea5	1.7675368
148	0xc08c0417	-4.3754992
149	0x3fd801e6	1.6875579
150	0xc07ef3ef	-3.9836385
151	0x402e47df	2.7231367
152	0x400a7fb3	2.1640441
153	0xbda6b88b	-0.081406675
154	0x3f7f4a03	0.9972231
155	0xbf508f48	-0.8146863
156	0x3c762830	0.01502423
157	0x40f19ee0	7.550644
158	0xc0af1599	-5.4713864
159	0x3faab8eb	1.3337682
160	0x408f5161	4.478684
161	0x40367245	2.8507245
162	0x401351ba	2.3018632
163	0x3fd59da9	1.6688739
164	0x3f3b2eb8	0.7311816
165	0x401ea409	2.478762
166	0x3f70ad86	0.94014776
167	0x3ed1a66e	0.40947288
168	0x3fb63a05	1.4236456
169	0xbeaefdd9	-0.34178045
170	0x3fa299f4	1.2703233
171	0xc03367a6	-2.8032012
172	0xbfc1e382	-1.5147555
173	0x400e72d8	2.2257595
174	0x4022f0ea	2.5459542
175	0x406b43e3	3.6760185
176	0x40075b53	2.114949
177	0x3f01c1cb	0.5068633
178	0x3d09bdf7	0.03362843
179	0xc08e0a38	-4.4387474
180	0x405d59dd	3.4586098
181	0xc098f625	-4.780047
182	0x402e0c5b	2.719504
183	0x3f9f53e4	1.2447476
184	0x4013c9c2	2.3091893
185	0x3e871889	0.26385906
186	0x3fef24a5	1.8683058
187	0x3fe5d6c0	1.7956161
188	0x40c905a1	6.281937
189	0x3d9a645b	0.075386725
190	0x3ef87768	0.485286
191	0x414b56c5	12.708684
192	0x3f3c9a7d	0.7367323
193	0x40c28ce4	6.0796986
194	0xc081939b	-4.0492682
195	0x4086a226	4.2072935
196	0x3f77ee21	0.9684773
197	0xbf945470	-1.1588268
198	0x3f5d2ef7	0.8639979
199	0xc0c90a9b	-6.2825446
200	0xc100b1fc	-8.043453
201	0xbffcb453	-1.974253
202	0x402ac3c6	2.668199
203	0xbff07a1e	-1.8787267
204	0x3fd952ad	1.6978356
205	0x3ec62965	0.38703457
206	0x4018ad51	2.3855784
207	0xbf00d40b	-0.5032355
208	0x3e1e93e8	0.1548611
209	0xbf3be649	-0.7339826
210	0x3f30c238	0.69046354
211	0x3ece6af2	0.40315968
212	0x3fc6d0cc	1.553247
213	0x3ff2b562	1.8961604
214	0x3f0051b6	0.5012468
215	0xc00d517f	-2.2080991
216	0x4089ae5d	4.3025346
217	0xbe484d42	-0.19560722
218	0xbfb9a654	-1.4503884
219	0xc0935219	-4.6037717
220	0x402c766d	2.6947281
221	0x402385a3	2.5550315
222	0x3f7329a8	0.9498544
223	0x402b4fb9	2.676741
224	0x4027d2df	2.6222456
225	0xbf7c82d1	-0.9863711
226	0x3f57af7c	0.8425214
227	0xc040039c	-3.0002203
228	0x4078f90e	3.890201
229	0x4082c1ae	4.0861425
230	0x4044d2b8	3.0753613
231	0x41163188	9.387093
232	0xbef377e8	-0.4755242
233	0xc00b876d	-2.1801407
234	0xc0064e8f	-2.0985448
235	0xc0e5fbcc	-7.186987
236	0x3e853c13	0.26022395
237	0xbea9246b	-0.33035597
238	0xc02fc3bb	-2.7463214
239	0xc0a855b1	-5.2604604
240	0xbdf3485f	-0.11879038
241	0x3d7c7fa1	0.061645154
242	0x3e9bf2cb	0.30458674
243	0x408074e7	4.0142703
244	0x3fdfb193	1.7476066
245	0xbe8b3eca	-0.27196342
246	0xbdfdaad6	-0.123861
247	0x40c42c46	6.1304045
248	0x4039422c	2.8946638
249	0x3ebc157c	0.3673514
250	0x4017d704	2.3724985
251	0xc07b4d5f	-3.9265974
252	0x3f81b4ef	1.0133342
253	0xbeeecdb4	-0.46641314
254	0xc00aab45	-2.1667035
255	0xbeb39a19	-0.35078505

feature_net.linear_layer_1.bias f4 [32]
0	0x40568a56	3.3521934
1	0x404c5cd9	3.193167
2	0x40622356	3.5334067
3	0x406c2890	3.6899757
4	0x3ffda8b2	1.9817107
5	0x4042ce33	3.0438354
6	0x3fbfa2c3	1.4971546
7	0x3ef4c6c9	0.4780791
8	0x400adfb1	2.169903
9	0x3fa958ca	1.3230221
10	0x40320f63	2.7821891
11	0x3fb62015	1.4228541
12	0x403c5e35	2.94325
13	0x405d6a3d	3.4596093
14	0x40579f5a	3.369101
15	0x402a6bb4	2.6628237
16	0x406562eb	3.5841625
17	0x3f874f91	1.0571157
18	0x3ff7fa24	1.9373212
19	0x4059056d	3.3909562
20	0x4007294d	2.1118958
21	0x3ff4c1b1	1.912161
22	0x3fc20f42	1.5160906
23	0x3f50a16e	0.8149632
24	0x403664c2	2.8498998
25	0x401239a3	2.2847679
26	0x3f66d823	0.9017355
27	0x3f7fb722	0.99888813
28	0x405c789f	3.4448621
29	0x406e0753	3.719197
30	0x4040ca94	3.0123644
31	0x3fe826d2	1.8136847

feature_net.layer_norm_1.weight f4 [32]
0	0x4080e658	4.028118
1	0x40a91acd	5.2845216
2	0x3ea13fc9	0.31493977
3	0x3eaee09b	0.34155735
4	0x40e88dd8	7.267315
5	0x40bfd302	5.994508
6	0x4102f825	8.185582
7	0x40ff3e02	7.9763193
8	0x40db321e	6.849868
9	0x414391cf	12.223098
10	0x40c6dcea	6.214467
11	0x40e87536	7.264308
12	0x40898cd7	4.2984424
13	0x3eb3211a	0.34986192
14	0x3eb26076	0.3483922
15	0x40daf5c6	6.8425016
16	0x40f035da	7.5065737
17	0x403ae9a4	2.9205103
18	0x41128ebb	9.159846
19	0x3ebde03e	0.37085146
20	0x40b18fc3	5.548799
21	0x4106fb57	8.436362
22	0x4099269b	4.7859626
23	0x40aa4343	5.3207107
24	0x40841cb9	4.128506
25	0x41060c6d	8.378034
26	0x40d6eeca	6.716649
27	0x4092098b	4.563665
28	0x3e8d0397	0.275418
29	0x40a87b1f	5.2650294
30	0x40ccfaa3	6.4055953
31	0x40cb436f	6.3519816

feature_net.layer_norm_1.bias f4 [32]
0	0x3fd571d1	1.6675359
1	0x4037c315	2.8712819
2	0xbf2f219b	-0.6841065
3	0xbf3d4665	-0.7393554
4	0x404798f0	3.1187096
5	0x40576993	3.3658187
6	0x3f86fc10	1.0545673
7	0x3fb42e96	1.4076717
8	0x401c623f	2.4434965
9	0x3f6f432c	0.9346187
10	0x3fae0332	1.3594725
11	0x3fd5a02b	1.6689504
12	0x40388dca	2.883654
13	0xbf20e1a7	-0.6284432
14	0xbf35a65a	-0.7095696
15	0x4016094d	2.3443177
16	0x403e54cb	2.9739254
17	0x40219a56	2.525045
18	0x403f6f1e	2.991157
19	0xbf1a9c29	-0.6039453
20	0x3f9bb189	1.2163554
21	0x3fc21712	1.516329
22	0x40004437	2.0041635
23	0x3e9517dc	0.29119766
24	0x4000ec62	2.0144277
25	0x3ffda067	1.9814576
26	0x3f419993	0.7562496
27	0x3f4c05f5	0.7969659
28	0xbf31fc28	-0.69525385
29	0x4046bee2	3.1054006
30	0x3f9b9468	1.2154665
31	0x3f9a33a2	1.2047007

feature_net.linear_layer_output.weight f4 [15, 32]
0	0xc0645c2c	-3.5681257
1	0xbfd7e9b2	-1.6868193
2	0x3e23883f	0.15969943
3	0xbee22715	-0.44170442
4	0xbfb33da3	-1.4003185
5	0xbf2ecfdd	-0.68285924
6	0xbf80f870	-1.0075817
7	0xbfb64719	-1.4240447
8	0x3fe87be7	1.8162812
9	0x3f2b5a93	0.6693508
10	0xbf8c2d29	-1.0951282
11	0xc05e46ee	-3.4730792
12	0x401047fb	2.2543933
13	0x3c91fb4e	0.017820027
14	0x3d78a788	0.060706645
15	0x40124bcf	2.285877
16	0xbda9c9e8	-0.08290464
17	0x3f9a0dde	1.2035482
18	0x3f623098	0.883554
19	0xbf77acba	-0.96747935
20	0x3f1d0764	0.613394
21	0x403ee0fa	2.9824815
22	0x40495757	3.1459558
23	0x3fbff3b9	1.4996253
24	0xbd9c4755	-0.07630793
25	0x40736909	3.8032858
26	0x3f448881	0.7677079
27	0x40d2a636	6.5827894
28	0x3d06b664	0.032888785
29	0xc0754077	-3.8320596
30	0x4008f636	2.1400275
31	0xc080ed6b	-4.0289817
32	0xc0163425	-2.3469326
33	0xc0979166	-4.736499
34	0xbe7ce13a	-0.24695292
35	0xbe890cff	-0.26767728
36	0x410578ad	8.341962
37	0x3e5aefbd	0.21380515
38	0xbe9596cf	-0.2921662
39	0x3fcbbc9c	1.5916934
40	0xbdf18c8e	-0.11794387
41	0x408e911d	4.455214
42	0xbf7f533a	-0.9973637
43	0xbed265dc	-0.41093338
44	0xc097cacd	-4.743506
45	0x3d48df2c	0.04904096
46	0x3d8c9fde	0.0686643
47	0x3eae4fe8	0.3404534
48	0xbfddafbb	-1.7319254
49	0x3fc30be2	1.5238001
50	0xc07da341	-3.9630892
51	0x3f03cb29	0.5148187
52	0x40485c88	3.1306477
53	0x40179799	2.3686278
54	0x400f4a1a	2.2388978
55	0x40679507	3.618471
56	0xc0565652	-3.3490186
57	0xbf829b1c	-1.0203586
58	0xbf036ac7	-0.51334804
59	0xbf8976eb	-1.0739416
60	0x3e84dead	0.25951138
61	0x40368cab	2.8523357
62	0xbf8774f3	-1.0582565
63	0xbf7e5104	-0.9934237
64	0x4032fa94	2.796544
65	0x4097cc30	4.743675
66	0xbec06ad5	-0.37581506
67	0xbea993ee	-0.33120674
68	0xc0bc33a6	-5.8813047
69	0x3fad4ba2	1.3538706
70	0x401b8005	2.4296887
71	0x3fe20d32	1.7660277
72	0xbfc85e4d	-1.5653778
73	0x3e8808fe	0.2656936
74	0x3f5418bd	0.8285025
75	0xc011098e	-2.2662082
76	0x40aeb662	5.4597635
77	0x3f0b42c5	0.5439876
78	0x3e76ea7e	0.24112889
79	0xc05d0e9d	-3.454017
80	0x3e7829ac	0.24234647
81	0xbff05aea	-1.8777745
82	0xc01a4659	-2.4105437
83	0xbea694e3	-0.32535467
84	0xbf5ee92d	-0.8707455
85	0x3f2c4714	0.67295957
86	0xbd1e80ed	-0.038697172
87	0x3e9a8f6c	0.30187547
88	0x40a982f4	5.2972355
89	0x3f939b0d	1.1531693
90	0xbf8901e6	-1.0703704
91	0x3f0448db	0.5167367
92	0xbe209414	-0.15681487
93	0xc0412d29	-3.0183814
94	0x3f95cf77	1.1703938
95	0x3e67ff82	0.22656062
96	0xc0056828	-2.0844822
97	0xc06ed094	-3.7314806
98	0xbe1065b4	-0.14101297
99	0x3f084ee6	0.5324539
100	0xbe2408ac	-0.16018933
101	0x41156d50	9.339188
102	0x3f393f7f	0.7236251
103	0xc034dbe1	-2.8259203
104	0xbff9c2bc	-1.9512553
105	0xbf9fd529	-1.2486926
106	0x3fe686e7	1.8009919
107	0x3fc41c5c	1.5321155
108	0x3f800f3f	1.0004653
109	0x3ad35430	0.0016123112
110	0x3c7e630f	0.015526547
111	0xc050fb77	-3.2653482
112	0x3f534e90	0.8254175
113	0x401848a5	2.3794339
114	0x3ecce2a3	0.4001666
115	0xbef670a3	-0.4813281
116	0xc01d3a9a	-2.4567018
117	0xbf8465a2	-1.0343516
118	0xc082c1c5	-4.0861535
119	0x3f443935	0.7664979
120	0xbf872b1f	-1.0560035
121	0xbf7631ea	-0.9616991
122	0xbf12ffff	-0.5742187
123	0x3d77c867	0.060493853
124	0x3ec89c57	0.39181778
125	0x3ebc544c	0.36783063
126	0xbfaa546a	-1.3307011
127	0x3eca7a72	0.39546543
128	0x40051814	2.0795946
129	0x3fd2f199	1.647998
130	0xbe88aee9	-0.26695946
131	0x3db33f0e	0.08752261
132	0x3f84bfb2	1.0371001
133	0xc0ae12fa	-5.4398165
134	0xc008379d	-2.1283944
135	0x3f903b43	1.1268085
136	0xbf504e92	-0.8136989
137	0x402605f2	2.5941129
138	0x40e29f42	7.0819407
139	0x3f187cf3	0.5956566
140	0xc00cd69e	-2.2005992
141	0x3df35ce0	0.11882949
142	0xbe3aa07e	-0.18225285
143	0x4096fb76	4.718196
144	0x3e7047a4	0.23464829
145	0xc0a9fb18	-5.311901
146	0xbfcb0ad3	-1.5862678
147	0xbf5d65e4	-0.864836
148	0x3ff48079	1.9101707
149	0x3f50c904	0.81556726
150	0x4037f48f	2.8743017
151	0xc06779dc	-3.6168127
152	0x3f0cd157	0.5500693
153	0xbfaf6398	-1.3702269
154	0xc014cff2	-2.325192
155	0xbef70348	-0.4824469
156	0x3eb984e1	0.3623419
157	0x3ff7d708	1.9362497
158	0x3f62af5e	0.8854884
159	0xbf3dc02b	-0.7412135
160	0x4038665c	2.8812475
161	0xbeff82a7	-0.49904367
162	0xbeac59fd	-0.33662406
163	0xbe73fb51	-0.23826338
164	0xbfc553c5	-1.541619
165	0xc00891f0	-2.1339073
166	0x3e1de1f3	0.15418224
167	0xc02360bc	-2.5527792
168	0xbf96f24b	-1.1792692
169	0xc08f5466	-4.4790525
170	0x4024d656	2.575582
171	0xbff8ea72	-1.9446547
172	0xbac6058c	-0.0015107854
173	0x3e267975	0.1625727
174	0x3ddd90d9	0.10818643
175	0xbffa2e96	-1.9545467
176	0x40994a90	4.790352
177	0x3f1d09e9	0.61343247
178	0x3e1db924	0.15402657
179	0xbf591c4f	-0.8480882
180	0x3eec4272	0.46144444
181	0xbe5c3613	-0.21505003
182	0xbf2ca063	-0.6743223
183	0x3fd09d3f	1.6297988
184	0xc0090cce	-2.1414065
185	0x3d1e497b	0.038644295
186	0xbff61806	-1.9226081
187	0xbfa97664	-1.3239255
188	0xbe17837b	-0.1479625
189	0x4088526a	4.2600603
190	0x404b5d4a	3.177569
191	0x3f165a8c	0.58731914
192	0x4009373f	2.143997
193	0x3eeaeb53	0.45882663
194	0x3e1634a7	0.14668523
195	0xbbc39fe1	-0.005969987
196	0x3fb6f0db	1.4292253
197	0x3e84b7ea	0.25921565
198	0x3ff0be40	1.880806
199	0x3f7ec627	0.99521106
200	0x3f56d1b1	0.83913714
201	0x3fc15c66	1.5106323
202	0x3da447b7	0.08021491
203	0x3f0c9b8e	0.5492486
204	0x3ef6a743	0.48174486
205	0xbd96a55a	-0.07355757
206	0x3d01914a	0.0316327
207	0x3ecf6b3a	0.40511495
208	0x3ef76939	0.48322466
209	0x3f750786	0.95714605
210	0x3f5ad43e	0.85480106
211	0xbe64517f	-0.22296713
212	0x3eeb9cf2	0.46018177
213	0x3f5bc8db	0.85853356
214	0x401c0a41	2.4381258
215	0x3dd82cc2	0.10555412
216	0xbdfd3ba5	-0.12364892
217	0x3e8bcc11	0.27304128
218	0x3ee5273e	0.44756502
219	0x3fe9780a	1.8239758
220	0xbe41def1	-0.18932702
221	0x3dec03f7	0.11524194
222	0x3f98eae9	1.1946689
223	0x358bf67e	1.0428046e-06
224	0x3ee4f92e	0.4472136
225	0xbe283a9f	-0.16428612
226	0xbddb547a	-0.10709472
227	0xbd95dd5f	-0.07317614
228	0xbf81d2a2	-1.0142405
229	0xbedb7c29	-0.42868164
230	0x3f9e1c21	1.2352334
231	0xbff1d67e	-1.8893583
232	0xc026c4a9	-2.6057532
233	0xc0ac2b10	-5.3802567
234	0x3fd88838	1.6916571
235	0xc0830421	-4.094254
236	0xbf892c4c	-1.0716643
237	0x3c812136	0.015762907
238	0x3f3aac31	0.72918993
239	0x40831beb	4.097158
240	0x3e213306	0.1574212
241	0xbf12152f	-0.57063574
242	0xc073cb85	-3.8092968
243	0x3d05922f	0.032610115
244	0xc0b374ca	-5.6080065
245	0x40092f48	2.1435108
246	0xbe7a8b4c	-0.244672
247	0x40132985	2.2994092
248	0x3fc4f170	1.5386181
249	0xc0834f79	-4.1034513
250	0x4008ab66	2.1354613
251	0x3f5709d5	0.8399938
252	0x3e8d1719	0.27556685
253	0x3f917346	1.1363304
254	0x400a2884	2.1587229
255	0x400215c6	2.032579

feature_net.linear_layer_output.bias f4 [15]
0	0x3ef2f1b8	0.47450042
1	0x3fa40ff1	1.2817365
2	0x4015e68a	2.342196
3	0xbfe87278	-1.8159933
4	0x3f7feb82	0.9996873
5	0xbf021a14	-0.5082104
6	0x3fa861c0	1.3154831
7	0xbf0cc2fa	-0.5498501
8	0x3d75cb08	0.06000808
9	0x3fb03039	1.3764716
10	0xbe2dd73d	-0.16976638
11	0xbe35cb48	-0.17753327
12	0xbeb0a1c1	-0.34498408
13	0x3fe2eb5c	1.7728076
14	0xbf75003c	-0.9570348

feature_net.linear_layer_0.weight f4 [32, 21]
0	0x3dc2ff78	0.09521383
1	0x3fde607a	1.7373192
2	0x4041aebf	3.0262907
3	0xc00dc7d8	-2.2153225
4	0xc09657d3	-4.6982207
5	0x3fe97bcf	1.8240908
6	0x3ff2108b	1.8911299
7	0xc001411d	-2.0195992
8	0xc05b25b7	-3.424177
9	0x411489f9	9.283685
10	0xc09b12a4	-4.8460255
11	0x40428671	3.0394557
12	0x4008155d	2.126304
13	0x404d9ecd	3.2128174
14	0x404dc462	3.2151113
15	0x4022a234	2.54115
16	0x40317327	2.7726533
17	0x3fa4ba7d	1.2869412
18	0x404306bc	3.047286
19	0x400d5230	2.2081413
20	0x3ff61cf5	1.9227587
21	0x3e9d0067	0.3066437
22	0x3feb9c32	1.8407042
23	0x40976455	4.7309976
24	0x3ef5a8ec	0.4798044
25	0xbea56453	-0.32303104
26	0x3efd2fce	0.49450535
27	0xc06647ad	-3.5981247
28	0xc03e3c69	-2.9724371
29	0xc0b39c8d	-5.61286
30	0x3e438b1b	0.19096033
31	0x40ecd549	7.401036
32	0x4029843f	2.6486967
33	0x4038a7b3	2.8852355
34	0x403a2a18	2.9088192
35	0x40419b09	3.0250876
36	0x4040651a	3.0061707
37	0x3fff170a	1.9928906
38	0x4064eac2	3.5768285
39	0x3ffe311c	1.9858737
40	0x4032f8d0	2.7964363
41	0x3fd2d792	1.6472037
42	0x3e2670ca	0.16253963
43	0x3fd79985	1.6843725
44	0x409d08c1	4.9073186
45	0x3f4e3530	0.8054991
46	0xc0001e9b	-2.001868
47	0xbf1552db	-0.5832955
48	0xc004161e	-2.06385
49	0xbfe46830	-1.7844296
50	0x41219b3c	10.100399
51	0xc0905456	-4.510295
52	0xc0a4b234	-5.1467533
53	0x4030f96d	2.7652237
54	0x4022fb0f	2.5465734
55	0x3fefa80e	1.8723161
56	0x404956bf	3.1459196
57	0x4002d1d7	2.0440576
58	0x400713a2	2.1105733
59	0x4019405c	2.3945532
60	0x4022484f	2.5356634
61	0x404749ae	3.113872
62	0x401f2ce4	2.487115
63	0xbf336e7c	-0.7009046
64	0xc0877da3	-4.2340865
65	0x4035baa7	2.8395174
66	0x412b3764	10.701023
67	0xbf8a8e85	-1.0824744
68	0x40322fbe	2.784164
69	0x3f9b2be5	1.212277
70	0x40c15d08	6.0426064
71	0x40acea5f	5.4036098
72	0x3fa9d1ef	1.3267192
73	0x3ff3f71e	1.9059789
74	0x3d9f02cf	0.077642076
75	0x4098e64c	4.7781124
76	0xc019b405	-2.4016125
77	0x3ec5addc	0.38609207
78	0x40ac2689	5.379704
79	0x40053b63	2.0817497
80	0x405ac1e2	3.4180837
81	0x40161c00	2.345459
82	0x407c3e95	3.9413197
83	0x40706a3a	3.7564836
84	0x3f1f4e27	0.62228626
85	0x3f8a4d7e	1.0804899
86	0xbe1aaf50	-0.15105939
87	0xbfd8ca6e	-1.6936777
88	0xbe84e57e	-0.2595634
89	0x40854033	4.164087
90	0x3e3e9303	0.18610768
91	0xc048d83e	-3.1381984
92	0xc090c96e	-4.5245886
93	0x4109aa9b	8.604152
94	0xc0c94d1c	-6.290663
95	0x400ffd0b	2.2498195
96	0x402ff46f	2.749294
97	0x401d9588	2.4622517
98	0x3fba23b3	1.4542145
99	0x40175dd9	2.365103
100	0x400bb26a	2.1827645
101	0x401a765e	2.4134746
102	0x3fd3ce25	1.6547285
103	0x402d270d	2.7055085
104	0x40415a8d	3.0211518
105	0x3ed89a2c	0.42305124
106	0x3fa5e6b4	1.296103
107	0x3fcc613b	1.5967172
108	0xbf9107dd	-1.1330525
109	0x3fdc4c7c	1.7210841
110	0xbf57267e	-0.8404311
111	0xc041e86a	-3.0298104
112	0x3fb25965	1.3933531
113	0xc09912b5	-4.7835336
114	0xc0b47ac2	-5.639985
115	0x41179d42	9.475893
116	0x400d4cfe	2.2078242
117	0x4025002c	2.5781355
118	0x400a1a43	2.157853
119	0x400348af	2.0513113
120	0x3ffbd02c	1.9672904
121	0x40114d38	2.270338
122	0x4005233f	2.0802763
123	0x401ce7a5	2.4516385
124	0x4013a843	2.3071449
125	0x40058e92	2.0868268
126	0x3e661532	0.22469023
127	0x40273606	2.6126723
128	0xc0974e5e	-4.7283163
129	0xbea43e28	-0.3207867
130	0x408ac95f	4.3370814
131	0xbf57ddcf	-0.8432283
132	0xbc3b9366	-0.011448717
133	0xbf7e1d7e	-0.9926375
134	0xc0edb872	-7.4287653
135	0x40ee3337	7.443752
136	0x403ab938	2.9175549
137	0x4031ada5	2.7762234
138	0x401b8a4d	2.4303162
139	0x3fd89d68	1.6923037
140	0x3fb2e01e	1.3974645
141	0x3ff51ac6	1.9148796
142	0x3ff64034	1.9238343
143	0x401cdeb0	2.4510918
144	0x3fb1372f	1.3844966
145	0x400749cf	2.11388
146	0x4027848e	2.6174655
147	0xbff7fd71	-1.9374219
148	0x3f864d28	1.0492296
149	0x404a5253	3.1612747
150	0x40816eca	4.044774
151	0x3f85e91e	1.0461767
152	0xc08bc4d8	-4.367779
153	0x408c459b	4.3834968
154	0xbeff276f	-0.49834773
155	0x40d21bd3	6.5658965
156	0xbf281598	-0.6565795
157	0xbfcdb895	-1.6071955
158	0x3f94aa7d	1.1614529
159	0x402957af	2.6459768
160	0x3fdfc17e	1.7480924
161	0x40700f90	3.7509499
162	0x40255db5	2.5838444
163	0x3fc086cf	1.504114
164	0x40508e65	3.258691
165	0x3fcc02c9	1.593835
166	0x40358550	2.8362617
167	0x400d3df6	2.2069068
168	0xbf6d0aff	-0.92594904
169	0x40335071	2.8017848
170	0xc03df9e6	-2.9683776
171	0xc0df8a44	-6.985628
172	0x404ecd9a	3.231299
173	0x3ff25b06	1.8934028
174	0x40249f2e	2.5722156
175	0x400d59fe	2.2086177
176	0x4082ac2d	4.0835176
177	0xbdf6c2c7	-0.120488696
178	0x40bc628e	5.8870306
179	0x3fe13280	1.7593536
180	0x4049fc77	3.1560342
181	0x4019bd57	2.4021814
182	0x404a9bc2	3.1657567
183	0x401929e5	2.393182
184	0x3fe2c3ee	1.7716043
185	0x40631155	3.5479329
186	0x3fe6cf90	1.8032093
187	0x4041f6aa	3.0306802
188	0x4006f2a6	2.10856
189	0xbd9684f6	-0.07349579
190	0x3fc5dfea	1.5458958
191	0xbf1da5be	-0.6158103
192	0x40009f14	2.0097094
193	0x3f4164f0	0.75544643
194	0x3f2c013e	0.67189395
195	0x3f67aa07	0.90493816
196	0xc0822373	-4.0668273
197	0xc0d1893b	-6.548002
198	0xc08060a2	-4.011796
199	0x412f18aa	10.9435215
200	0x40347b09	2.8200095
201	0x40173dee	2.363155
202	0x400dd274	2.21597
203	0x400d40bc	2.207076
204	0x3fff6d9e	1.9955328
205	0x4024a5fa	2.5726304
206	0x400e69dc	2.2252111
207	0x401339bd	2.300399
208	0x401ef32d	2.4835923
209	0x3ffccd7e	1.9750211
210	0xbf9b917a	-1.2153771
211	0x3e747c7e	0.23875615
212	0x3ed4da09	0.41572598
213	0xc077ead9	-3.873709
214	0x3ee66c1d	0.4500436
215	0x405f0c37	3.4851205
216	0x4080b950	4.022621
217	0x3f4f66d7	0.81016296
218	0xc02e2c81	-2.7214663
219	0x409a3fa0	4.8202667
220	0x3ff89400	1.9420166
221	0x3d5b9368	0.053607374
222	0x4078e323	3.8888633
223	0xbf86179d	-1.0475956
224	0xbe93908c	-0.28821218
225	0x40867723	4.202043
226	0x4021401f	2.5195386
227	0x401d05aa	2.4534707
228	0x405742da	3.3634553
229	0x40527f8e	3.2890353
230	0x3f7e4569	0.9932466
231	0x3e6f191c	0.23349422
232	0x3fe3f6c7	1.7809685
233	0xc0445eab	-3.068278
234	0xbfc23f0d	-1.5175492
235	0x3e1d01ea	0.15332761
236	0xc0910d22	-4.532853
237	0x40389302	2.8839726
238	0x40a6ccd1	5.212502
239	0x405629da	3.3463044
240	0xc0f9cfb0	-7.8066025
241	0x40b1c18c	5.5548763
242	0x3f2f8d82	0.685753
243	0x4022795b	2.538657
244	0x400f954b	2.2434871
245	0x4014e9d8	2.3267727
246	0x4009f13c	2.1553488
247	0x3f976988	1.182908
248	0x408c4051	4.382851
249	0x402d3215	2.7061818
250	0x4032b289	2.792147
251	0x3fad571e	1.3542211
252	0xc002e2b0	-2.045086
253	0x3fd5edf6	1.6713245
254	0x3f82af2d	1.020971
255	0xc094e2d4	-4.652689

feature_net.linear_layer_0.bias f4 [32]
0	0x3f9a6785	1.2062842
1	0x3fc1126d	1.5083748
2	0x3fb91520	1.4459572
3	0x3f559bc5	0.8344081
4	0x3fa4e316	1.2881801
5	0x3f915a12	1.1355612
6	0x3fba2b50	1.4544468
7	0x4012013d	2.2813256
8	0x408b5171	4.3536916
9	0x3fefa5e3	1.87225
10	0x3fd9efac	1.7026267
11	0x3fbfc164	1.4980893
12	0x40a753b8	5.2289696
13	0x407908a7	3.891153
14	0x405a8c2d	3.4148057
15	0x4007c5c1	2.121445
16	0x409823f8	4.7543907
17	0x40923e96	4.57014
18	0x3f9fb84e	1.247812
19	0x40a6a42a	5.2075396
20	0x40abc7ab	5.3681235
21	0x40645fdb	3.5683506
22	0x40658cb5	3.586713
23	0x40346d6e	2.819179
24	0x3fe59857	1.7937115
25	0x40cda0d3	6.425882
26	0x3fb30ca7	1.3988236
27	0x401050d9	2.2549345
28	0x3fa5241a	1.2901642
29	0x3fda080c	1.7033706
30	0x405c4194	3.4415026
31	0x40820643	4.0632644

feature_net.layer_norm_0.weight f4 [32]
0	0x40db82d4	6.85972
1	0x40c01ce5	6.003527
2	0x40f81d11	7.753548
3	0x40acbb96	5.3978987
4	0x4133151e	11.192656
5	0x412e6aac	10.901043
6	0x40d2e8a9	6.590901
7	0x401fba16	2.4957328
8	0x404adc4a	3.1696954
9	0x413a787f	11.654418
10	0x408a5ea9	4.324055
11	0x40a875ec	5.2643948
12	0x4006b97d	2.1050713
13	0x40c345ee	6.1022863
14	0x3fe835b6	1.8141391
15	0x408209ab	4.06368
16	0x3e892c0c	0.26791418
17	0x40a3118e	5.095893
18	0x41070db2	8.440844
19	0x3ec957a0	0.39324665
20	0x4060c5e8	3.5120792
21	0x4063f4c7	3.561815
22	0x405c5b10	3.443058
23	0x40ab1096	5.3457747
24	0x40acc7f4	5.3994083
25	0x408758cd	4.22959
26	0x410fa35f	8.9773855
27	0x41379d4d	11.4759035
28	0x409ff684	4.9988422
29	0x40fc1c70	7.8784714
30	0x4036ca7d	2.856109
31	0x401ebc14	2.4802294

feature_net.layer_norm_0.bias f4 [32]
0	0xbf585f10	-0.84520054
1	0xbed9f251	-0.42567685
2	0x3fc953bb	1.5728678
3	0x3f42c0ee	0.7607564
4	0x3e542fb3	0.20721321
5	0x4002aeed	2.0419266
6	0x3f8b4f5b	1.0883592
7	0xbe866d65	-0.26255336
8	0x3f1a9248	0.6037946
9	0x3face9ae	1.3508813
10	0xbf4748f9	-0.7784572
11	0x3fc389a7	1.5276383
12	0x3f882ff0	1.0639629
13	0x3fa23fe4	1.2675748
14	0xbf61d624	-0.8821738
15	0xbf4fc449	-0.8115888
16	0xbf8155e2	-1.0104334
17	0x4082b9d3	4.0851836
18	0x3fa4dd42	1.2880023
19	0xbf9a6725	-1.2062727
20	0x3ee3098e	0.44343227
21	0x3f4100c7	0.7539181
22	0x3fd0fb85	1.6326758
23	0x3ea2ef2c	0.318231
24	0x3ea5d24b	0.32387003
25	0x4038e86b	2.8891857
26	0x3f32eb71	0.69890505
27	0x3e99f11f	0.30066773
28	0x3f413b79	0.75481373
29	0x3f0d1e54	0.551244
30	0x406f808c	3.7422209
31	0xbf8ff71d	-1.1247288

feature_net.linear_layer_1.weight f4 [32, 32]
0	0xbfd7e4b7	-1.6866673
1	0x3ffe9a52	1.9890845
2	0x409e7d67	4.952808
3	0x40a57b3c	5.1712933
4	0xbeb7014b	-0.35743174
5	0x412655c7	10.395942
6	0x402af240	2.6710358
7	0x405b65f2	3.4280972
8	0x3f9c5bf4	1.2215562
9	0x406d726c	3.7101088
10	0x3e75abc9	0.23991312
11	0xbee33e3b	-0.44383416
12	0x3fc59879	1.5437156
13	0x3f8132c4	1.0093617
14	0x402ee0e6	2.7324767
15	0xc00f5e2b	-2.2401226
16	0x3f61f3b6	0.882625
17	0xc03fb8c9	-2.9956534
18	0x3f8790fb	1.059112
19	0xbeaf640c	-0.34256017
20	0x3f7bf708	0.98423815
21	0xc003ad11	-2.0574381
22	0x404ae878	3.1704388
23	0x3fdd07dd	1.7268025
24	0xbf9f1438	-1.2428045
25	0xc02963c5	-2.6467144
26	0x403e84e0	2.97686
27	0xbf53ce9d	-0.8273714
28	0x3f320a42	0.695469
29	0xbe51f67d	-0.20504184
30	0x4023d9ba	2.560164
31	0x40279413	2.6184127
32	0x40a750ff	5.228637
33	0x3f1e9a97	0.61954635
34	0xbfde1281	-1.7349397
35	0x3fd27b2a	1.6443837
36	0x4122b240	10.168518
37	0x40c744e5	6.22716
38	0x408f9e6e	4.4880896
39	0xc0a4e416	-5.1528425
40	0x407dd65c	3.9662085
41	0xc002eb3c	-2.0456076
42	0x4097c86d	4.743216
43	0x401424c5	2.3147442
44	0x3db83ffd	0.0899658
45	0xbfb4bd70	-1.4120312
46	0x403c5fb4	2.9433413
47	0x4011eefd	2.2802117
48	0x3f746655	0.95468646
49	0x3ee7c00e	0.45263714
50	0xc000edc5	-2.0145123
51	0xbf1eb0e4	-0.61988664
52	0xbf667581	-0.90023047
53	0x3f6b5b47	0.91936153
54	0x40c3ebab	6.122518
55	0x4050632f	3.2560537
56	0x40d3dc1f	6.6206203
57	0x400f135e	2.235557
58	0x3ccd06c8	0.025027648
59	0xbf3d3822	-0.73913777
60	0xc0094596	-2.1448722
61	0xc021bc3c	-2.527114
62	0xbe3358bf	-0.17514323
63	0x3faba639	1.3410102
64	0x3f44843e	0.76764286
65	0xc0326833	-2.7876098
66	0x40ff14a7	7.971271
67	0x3fca9c32	1.5828917
68	0x3f0ac3a6	0.54204786
69	0xc07368a2	-3.8032613
70	0x409c083b	4.8760047
71	0x3f9b0bbb	1.2112955
72	0x4052038f	3.2814672
73	0x40577074	3.3662386
74	0x40965d02	4.6988535
75	0x40a3235a	5.0980654
76	0x3e3685b8	0.17824447
77	0xc04a5c62	-3.1618886
78	0x40b31176	5.5958815
79	0xbfacf881	-1.3513337
80	0x3e2a50d0	0.1663239
81	0x3eb9fe6f	0.3632693
82	0xc03f0ad4	-2.985036
83	0x3fa7f605	1.3121954
84	0x3e2726f7	0.16323458
85	0x400de548	2.2171192
86	0xc0560772	-3.3442044
87	0x404807d8	3.1254787
88	0x40d4565d	6.6355424
89	0x4095de71	4.6834035
90	0xc050fc9b	-3.2654178
91	0x3ec534bc	0.38516796
92	0x3e5561c9	0.20838083
93	0x3f54cf5f	0.83128923
94	0x4074eda0	3.8270035
95	0x40368d1e	2.852363
96	0x404dffee	3.2187457
97	0x3ef33ef8	0.4750898
98	0x3f4cf5e9	0.8006273
99	0x402924ca	2.6428704
100	0x3f493ab1	0.7860518
101	0x3f420ac4	0.7579768
102	0xbf6566e8	-0.8961015
103	0x3fbba90b	1.4660963
104	0x3f16b9c9	0.58877236
105	0xbe54619e	-0.20740363
106	0xbfa13b71	-1.2596265
107	0x3fc9a297	1.5752743
108	0xbffb972d	-1.965551
109	0x3ea26cac	0.31723535
110	0x40a3ebf7	5.1225543
111	0xc03a511b	-2.9112003
112	0xbe60e93f	-0.21963976
113	0x3faca198	1.3486814
114	0xbf7e8f17	-0.9943709
115	0xbf6d8ae1	-0.9279004
116	0x40cd30bc	6.412199
117	0xbfd0a125	-1.6299177
118	0x3f1a6f77	0.6032633
119	0x408d5605	4.4167504
120	0x40c90806	6.2822294
121	0x406cbeea	3.6991525
122	0x3f110397	0.566461
123	0x408ed531	4.4635243
124	0x3fbdf3fe	1.4840086
125	0xc02d88f8	-2.711485
126	0xbdf63fd1	-0.12023891
127	0x3fbbd68e	1.4674852
128	0xbd93b110	-0.07211506
129	0x3f5a06cb	0.85166615
130	0x3f8b3751	1.0876256
131	0x405bb8e9	3.433161
132	0xc0833de9	-4.1013074
133	0x404222db	3.0333774
134	0xbfe87c45	-1.8162924
135	0x407e840b	3.9768093
136	0x3eb72307	0.3576891
137	0xc05d2141	-3.4551547
138	0x405ccd6c	3.450038
139	0x410c1a7d	8.756467
140	0xbe45a742	-0.19302085
141	0x3f2453a2	0.64190114
142	0x3f53f83d	0.82800657
143	0x3f3c9e24	0.73678803
144	0x3f463e32	0.7743865
145	0x3e9f0e46	0.31065577
146	0xc019f2eb	-2.4054515
147	0x3f9f7e7d	1.2460476
148	0x408ac934	4.337061
149	0x405ccba4	3.4499292
150	0x3fb0ad81	1.3802949
151	0xbfa04151	-1.2519933
152	0x4040f24f	3.0147893
153	0x402aa5a1	2.6663592
154	0x3fe0dac4	1.7566762
155	0xc0d98b8e	-6.7982855
156	0x40112d72	2.2683988
157	0x40cdcb8e	6.431098
158	0x40432cfc	3.0496206
159	0x3e760610	0.2402575
160	0x40c452b9	6.135098
161	0x40141f6c	2.3144178
162	0xc00f03c5	-2.234605
163	0xbf9deb87	-1.2337502
164	0xbfb5dc10	-1.4207783
165	0x40870eb3	4.2205443
166	0xbfef6df9	-1.8705436
167	0xc004b07b	-2.0732715
168	0x403e05d9	2.969107
169	0x3fe8acba	1.8177712
170	0xbf671bc6	-0.90276754
171	0xc07f10a9	-3.9853919
172	0x40c36855	6.106486
173	0xbecb24d4	-0.39676535
174	0x3feaf320	1.8355446
175	0x40f23527	7.5689883
176	0xbed83e21	-0.422349
177	0x40e2bd04	7.085573
178	0x3e63404d	0.22192498
179	0x3f0ba856	0.54553735
180	0x4079ba0e	3.9019809
181	0x40a7e97d	5.247252
182	0x3fe92416	1.8214138
183	0x4013ba16	2.3082328
184	0xbf3598aa	-0.7093607
185	0x4006c6ca	2.1058831
186	0x406aab03	3.6666877
187	0x3ff02361	1.8760797
188	0xbeb3a1c5	-0.35084358
189	0x3e07e550	0.1327107
190	0x40983ae1	4.7571874
191	0xbf677d3b	-0.9042546
192	0x3fc98fde	1.574703
193	0xbf953e99	-1.1659728
194	0x3e783d32	0.24242094
195	0x3fa4dbf4	1.2879624
196	0x40761b10	3.8454018
197	0x40f930a7	7.787189
198	0x406640ed	3.5977128
199	0x3e494e91	0.19658877
200	0x3fb555d8	1.4166822
201	0xc009e17a	-2.154387
202	0x407492a3	3.82145
203	0x40d3fe8c	6.6248226
204	0x3fa3646f	1.2765025
205	0x40ca316d	6.3185334
206	0x3f4b8cb9	0.795116
207	0x3ff74117	1.9316739
208	0xbf301eae	-0.68796813
209	0x4052839a	3.2892823
210	0x3e0493b6	0.12946972
211	0x3e1d6d4c	0.15373725
212	0xbde743f4	-0.11292258
213	0x40064629	2.0980322
214	0x40735bcd	3.802478
215	0xbf28e4f3	-0.6597435
216	0x40002081	2.001984
217	0x3fa56fd5	1.2924753
218	0x405b18ba	3.4233842
219	0xc02d10cd	-2.7041504
220	0x405be330	3.4357414
221	0x40c95c2e	6.2925024
222	0x4053e0d2	3.310597
223	0xc01ebe72	-2.4803739
224	0x407b0f4f	3.9228094
225	0xc0350f05	-2.8290417
226	0x3f69f55d	0.9139002
227	0x40160748	2.3441944
228	0x40a85eac	5.2615566
229	0xc0e8af38	-7.271389
230	0xc0912af8	-4.536495
231	0x40946928	4.6378365
232	0xc0cd021e	-6.4065084
233	0xc0742927	-3.8150117
234	0x40217c74	2.523221
235	0x3fd30cb0	1.6488247
236	0xbf042724	-0.51622224
237	0x3fec597e	1.8464811
238	0xc01a34ba	-2.4094682
239	0xc07f0062	-3.9843984
240	0xbf14aff4	-0.58080983
241	0xbfa4c415	-1.287234
242	0xc0e1fe86	-7.0623198
243	0x3fbc4aa7	1.4710282
244	0x40a2139a	5.064893
245	0x3fa83e2d	1.3143975
246	0xbf12074f	-0.570424
247	0xc0ba40f2	-5.820428
248	0x3fa69901	1.3015443
249	0x404d960e	3.2122836
250	0xc022525f	-2.5362775
251	0x3f112977	0.56703895
252	0x408f5389	4.478947
253	0x40a22b8f	5.067817
254	0xbf1551cd	-0.58327943
255	0x4079c856	3.9028525

feature_net.linear_layer_1.bias f4 [32]
0	0xbf37eb8b	-0.71843785
1	0x40180ebe	2.3758998
2	0x3fd20485	1.6407629
3	0x3ffa683e	1.9563062
4	0x403bc4ab	2.9338787
5	0x40afab7e	5.489684
6	0x40488005	3.1328137
7	0xbe06c170	-0.13159728
8	0x3fe87ddd	1.816341
9	0x3fdadaeb	1.7098058
10	0x3f593f20	0.84861946
11	0x3ff4d173	1.9126419
12	0x40d86ee3	6.763536
13	0x3f4d3959	0.8016563
14	0x40c1950b	6.0494437
15	0x3fcd8c13	1.6058372
16	0x40aaa3fa	5.3325167
17	0xbee8bb37	-0.45455334
18	0x3fb1efca	1.3901303
19	0x3cefdbd1	0.029279621
20	0x3f1e9845	0.61951095
21	0x3f81973a	1.0124276
22	0x3fa5086e	1.2893198
23	0x3fd0e1fa	1.6318963
24	0x3f679140	0.9045601
25	0x4061c3eb	3.527583
26	0x40ae1aa7	5.4407535
27	0x3f5546cf	0.8331117
28	0x402ea165	2.7286007
29	0xc03247da	-2.7856355
30	0x408df223	4.4358077
31	0x407bde7b	3.9354541

feature_net.layer_norm_1.weight f4 [32]
0	0x40d3ab73	6.614679
1	0x4102ff4e	8.18733
2	0x41197238	9.590385
3	0x40c323ca	6.098119
4	0x4111620e	9.086439
5	0x40e4e76e	7.1532507
6	0x40d18f0d	6.5487123
7	0x411c75a6	9.778723
8	0x410b7bac	8.717693
9	0x41081d60	8.507172
10	0x40f70276	7.7190504
11	0x40982a94	4.7551975
12	0x40c8e34e	6.277747
13	0x40fa8fd0	7.830055
14	0x41291322	10.567171
15	0x40d48c73	6.6421447
16	0x40cd973f	6.4247127
17	0x4103d32c	8.239056
18	0x4027c6ad	2.6215012
19	0x40d0c095	6.5235085
20	0x40800278	4.0003014
21	0x40a7512b	5.228658
22	0x4100f504	8.059818
23	0x40614d81	3.5203555
24	0x41629327	14.160926
25	0x411e00e4	9.875217
26	0x405ae271	3.420071
27	0x40cadbc9	6.3393292
28	0x40be373c	5.9442425
29	0x40a598ad	5.174887
30	0x4096ddb4	4.7145634
31	0x40d97992	6.79609

feature_net.layer_norm_1.bias f4 [32]
0	0x3f204121	0.6259938
1	0x3fde6066	1.7373168
2	0xbf82439b	-1.0176882
3	0xbee1e412	-0.44119316
4	0x3fc30bee	1.5238016
5	0x40d75780	6.729431
6	0x40473928	3.1128635
7	0x3f25cdc2	0.64767087
8	0xbe95570f	-0.29167983
9	0x400cb9bf	2.198837
10	0x3ef08bfa	0.46981794
11	0x3f90961d	1.1295811
12	0x40dd4947	6.915195
13	0x3f21aa0d	0.631501
14	0x40d3b4c4	6.615816
15	0x3fa8d05d	1.3188587
16	0x40bd86b4	5.9226933
17	0x3f1bb50f	0.6082315
18	0x40419034	3.0244265
19	0xbe1c7d86	-0.15282258
20	0xbf33c354	-0.7021992
21	0x3eeacfe1	0.45861724
22	0x3f37eb43	0.71843356
23	0xbf825ef0	-1.0185223
24	0x40068f1b	2.1024845
25	0x40848431	4.1411366
26	0x40b52a40	5.6614075
27	0x3f44b30c	0.76835704
28	0x3f53a63f	0.82675546
29	0xc0203d0b	-2.5037258
30	0x407b5ac8	3.9274158
31	0x3f2f5cba	0.68500865

feature_net.linear_layer_output.weight f4 [15, 32]
0	0xbf84ebbe	-1.0384443
1	0x3fb8ad40	1.4427872
2	0x4063c783	3.5590522
3	0x406738de	3.612846
4	0xc0c9af16	-6.302623
5	0xbe3d1381	-0.18464471
6	0x3e10fddb	0.14159338
7	0x3ede0dd6	0.4336993
8	0xc0279e9b	-2.6190555
9	0x401c1aa5	2.4391263
10	0xc0625643	-3.536515
11	0x401a5e8a	2.4120202
12	0x3f020b9f	0.5079898
13	0xbfac3109	-1.3452464
14	0xbebd7204	-0.3700105
15	0xbe479cc8	-0.19493401
16	0x3fed7652	1.8551733
17	0x3ee26c29	0.44223145
18	0xbf2661d8	-0.6499305
19	0x3cdf9ba7	0.0272959
20	0xc09daad0	-4.927101
21	0xc0af3e23	-5.476335
22	0x3fd6476c	1.6740546
23	0xbf845d17	-1.0340909
24	0x400451dc	2.0674963
25	0x3fa1a4c7	1.2628411
26	0xbf22427c	-0.633827
27	0x402e4c2b	2.723399
28	0xc063e6d8	-3.5609646
29	0xbfcc0276	-1.5938251
30	0xbf06a078	-0.52588606
31	0x40301632	2.7513547
32	0x404dc54e	3.2151675
33	0x3ea3c5bd	0.319868
34	0x400c7eb2	2.1952329
35	0xbfaf2bec	-1.3685279
36	0x4011a520	2.2757034
37	0xbfc9f0e2	-1.5776637
38	0xbf9e5b8c	-1.2371688
39	0x3f4d4014	0.801759
40	0x3e4e9d49	0.20177187
41	0xc02533bb	-2.5812824
42	0x3f44e431	0.7691069
43	0x3e62112d	0.22076865
44	0xbd79cbb2	-0.060985275
45	0xbfb0ae6c	-1.3803229
46	0x40d984b9	6.7974515
47	0x3f7dadad	0.99093133
48	0xc049d755	-3.1537678
49	0xbedd8363	-0.43264303
50	0xbf63c0f9	-0.8896633
51	0x3ea681db	0.32520947
52	0x401d28b7	2.45561
53	0xc050e64e	-3.2640567
54	0xc0701672	-3.75137
55	0xc0868f92	-4.2050257
56	0x4007a3c2	2.11937
57	0xbe086ca8	-0.13322699
58	0xbfc779cb	-1.5584043
59	0x4047dee6	3.1229796
60	0x3f5cdac2	0.862713
61	0xc018c283	-2.386872
62	0xc039359e	-2.8938975
63	0xbfdcab42	-1.7239764
64	0xc0463bd6	-3.097402
65	0xbe895e4a	-0.2682975
66	0xbf82590f	-1.0183429
67	0x40683e7c	3.6288137
68	0xbe0be587	-0.13661776
69	0x3e9caa03	0.3059846
70	0x3fcd27a6	1.6027725
71	0xbd36e322	-0.044650204
72	0xbf7ed9f3	-0.99551314
73	0x3fdb7c7b	1.7147363
74	0x3f9706c7	1.1798943
75	0xbf2e622c	-0.6811855
76	0xbe9e0e65	-0.30870357
77	0xbff6a202	-1.9268191
78	0xc0a3aa6e	-5.1145544
79	0xc0903235	-4.506129
80	0x4092bd47	4.585605
81	0x3f739787	0.9515309
82	0xbed49ab0	-0.41524267
83	0xbdb1a503	-0.086740516
84	0xc1092c37	-8.573295
85	0x400be33b	2.185744
86	0x3e59535b	0.21223204
87	0x3dfe0b9c	0.12404558
88	0xbe46e1af	-0.19422029
89	0xbf924ed3	-1.1430305
90	0xbef84425	-0.4848949
91	0xbf80eb59	-1.0071822
92	0x3f883c86	1.064347
93	0x40296a7a	2.6471238
94	0x40998e1c	4.7985973
95	0x3eee9e46	0.46605128
96	0x3cffa246	0.031205308
97	0x3eac8779	0.33697107
98	0x3f36b9fe	0.7137755
99	0x3ec155b6	0.37760705
100	0x3f5105be	0.81649387
101	0x3fb15c2a	1.3856251
102	0x3f77e619	0.96835476
103	0x3f92df32	1.1474364
104	0x3e17987b	0.1480426
105	0x3f9698fe	1.176544
106	0x3f67fa03	0.9061586
107	0x3f8e991b	1.1140474
108	0x3f7799c6	0.96719015
109	0x3fb7e44d	1.4366547
110	0x3f501c87	0.8129353
111	0x3f3e94a8	0.7444558
112	0x3f2adf9f	0.6674747
113	0x3ed047bb	0.40679726
114	0x3f6ffef2	0.9374839
115	0x3f6c5a54	0.9232533
116	0x3f4e6f16	0.80638254
117	0x3e5e17f2	0.21688822
118	0x3e771c45	0.24131878
119	0x3f6b781b	0.9198014
120	0x3f94fe4b	1.1640104
121	0xbe7eb9a3	-0.24875502
122	0x3f1be5d4	0.60897565
123	0x3faaad38	1.3334112
124	0x3f364505	0.71199065
125	0x3f17096d	0.5899876
126	0x3f15e8a7	0.58558124
127	0x3f8062c3	1.003014
128	0xc0e233bb	-7.0688148
129	0xbfdff4e8	-1.7496614
130	0xc0d34d1d	-6.6031632
131	0xc0ba2422	-5.8169107
132	0xc0a17964	-5.046068
133	0x40a37530	5.108055
134	0x3f7b4821	0.98156935
135	0xc0d61830	-6.6904526
136	0xc0a9dc40	-5.308136
137	0xc056f434	-3.358655
138	0xc099e4c6	-4.8091764
139	0xc06140e8	-3.5195866
140	0x41115e79	9.085565
141	0xc0bdfd9d	-5.9372087
142	0x407ca0ce	3.9473147
143	0xc0b6e216	-5.7150984
144	0x405afb77	3.4215982
145	0xc0e4f5e0	-7.155014
146	0xbfea1766	-1.8288391
147	0xc0f155a6	-7.541705
148	0xc0aec5ec	-5.4616604
149	0xc05f7b9d	-3.4919198
150	0xc0c5e544	-6.1842365
151	0xc0297cc7	-2.6482408
152	0xc1103e49	-9.015206
153	0x3fadb7ad	1.3571678
154	0x40af5386	5.4789457
155	0xc03ef706	-2.983827
156	0x3e8f3635	0.27971044
157	0xc10c7b13	-8.780047
158	0x4032ef6b	2.795863
159	0x3eaabd9d	0.33347788
160	0x3f02ffa5	0.5117133
161	0xbf89398b	-1.0720686
162	0xc0822b69	-4.067799
163	0xbfb3200d	-1.3994156
164	0xc06af0ea	-3.6709542
165	0x4041a378	3.0256023
166	0xbf1b7183	-0.6072008
167	0xc08ee6ae	-4.465659
168	0xc0a06884	-5.0127583
169	0xbf8cf913	-1.1013511
170	0x40becc31	5.9624257
171	0x3f7425a6	0.95369947
172	0x3f513ce5	0.8173354
173	0x4076098b	3.8443325
174	0xbddfab07	-0.10921293
175	0xc0a8668b	-5.2625175
176	0xbf84194e	-1.0320222
177	0x3fcf0a58	1.6175032
178	0x40926acf	4.575538
179	0x405a1fb6	3.4081855
180	0x401fa504	2.4944468
181	0x4062a319	3.5412047
182	0x40c00e37	6.001735
183	0x40732fb3	3.7997863
184	0x4002668b	2.0375087
185	0xbe93f098	-0.28894496
186	0xbfe271a8	-1.7690935
187	0xc02e8bc6	-2.727281
188	0x3ffe6cd5	1.9876963
189	0x3ff6ef98	1.9291868
190	0xbe27ac76	-0.16374382
191	0xc057eb0f	-3.3737218
192	0xc088686f	-4.2627482
193	0xc011f401	-2.2805178
194	0x40b44813	5.633798
195	0x3f855f37	1.0419682
196	0xbf3a82a6	-0.72855604
197	0xbd0ce53c	-0.034398302
198	0xc001bca2	-2.0271382
199	0xc01b787c	-2.4292288
200	0x40b675f2	5.7018976
201	0xc08d4008	-4.4140663
202	0xc0b686f2	-5.703973
203	0xbe91493c	-0.28376186
204	0xbeecf8c4	-0.46283543
205	0xc099f7a1	-4.811478
206	0x3e043800	0.12911987
207	0x401e368a	2.4720788
208	0xbfabf531	-1.3434201
209	0xc08d3c3c	-4.413603
210	0xbca120a0	-0.019668877
211	0xc0a675c9	-5.201878
212	0xbe6d04e3	-0.23146395
213	0x3e0902cf	0.13379978
214	0x3f8d8e6e	1.1059091
215	0x4008c5fb	2.1370838
216	0x3fdf7473	1.7457412
217	0x4005f2fb	2.0929554
218	0x3e2ed1ff	0.17072295
219	0x3f8090b4	1.004416
220	0x3f7e8c07	0.99432415
221	0x3f39b9ed	0.72549325
222	0x3e88dfe9	0.2673333
223	0x40894722	4.289933
224	0xc06eca62	-3.7311025
225	0xc089fed9	-4.3123593
226	0x409a17a9	4.815388
227	0x3ddfd6f3	0.1092967
228	0xc081ad16	-4.0523787
229	0xbf153d31	-0.58296496
230	0xc06b94e8	-3.6809635
231	0x3e792269	0.24329533
232	0x40e7e9fd	7.247313
233	0xc08e4345	-4.4457116
234	0x3ff1ec25	1.890019
235	0x3d1fdc9c	0.03902875
236	0x3f6e790a	0.9315344
237	0xc027c731	-2.6215327
238	0x3eabfc22	0.335908
239	0xc051d371	-3.2785304
240	0xbe082c72	-0.13298205
241	0xc0d8c619	-6.774182
242	0xbf69d79a	-0.91344607
243	0xbfc1b8c9	-1.5134517
244	0x3f6d0e17	0.92599624
245	0x409f4564	4.9772205
246	0x3f5ebe05	0.87008697
247	0xc06de402	-3.7170415
248	0x4009a036	2.1504035
249	0xbe31900b	-0.17340104
250	0xbd462384	-0.048373714
251	0x3ea12cc7	0.31479475
252	0x3f84a014	1.0361352
253	0x3e915bb1	0.28390267
254	0x3f660f90	0.89867496
255	0x3fdbc9b5	1.7170931

feature_net.linear_layer_output.bias f4 [15]
0	0xbf7df5c4	-0.99203134
1	0x3f4afa2c	0.7928798
2	0xbe9f8c22	-0.311616
3	0x3f7f7bbf	0.99798197
4	0x40c4ed0f	6.153938
5	0x3f316fcc	0.69311213
6	0xbf15a6cf	-0.58457655
7	0x3f03c52c	0.51472735
8	0x3f1ca5f2	0.6119071
9	0xbda52902	-0.08064462
10	0x3ea68613	0.32524166
11	0xbfba22c0	-1.4541855
12	0x3f849834	1.0358949
13	0xbf1e171a	-0.61754
14	0xbe2e50f8	-0.17023075
