otk/AgileRL-MATD3/simple_reference_v3/result/20240102-0837/MATD3_trained_agent_0005000.pt (torch, 455450 bytes, 224 tensors)

feature_net.linear_layer_0.weight f4 [32, 21]
00000000: 328a 0a3e 5a77 b2bf 7745 e1bf 9bf0 79bf
00000010: ee3c 873f e2c1 6940 5462 d53f a6e8 ac3e
00000020: 2190 503f 05cb 153e 200e 44bd 1918 6b3f
00000030: 2300 903f 4b81 103f 554c d73f c2d0 fb3f
00000040: 685c 7c3f b61b 0740 ceb0 803f 2ba8 c43f
00000050: e56c 743f 5e39 533e 3181 543f fa12 2c40
00000060: 2314 a43f 7201 9abe 9afc dfbf f7d8 5fc0
00000070: 63c9 9e3f 4a14 6c40 7094 69bf e7bc 88bf
00000080: 6698 8b3f 0901 663f 447e 293e b2ef ba3f
00000090: 7562 e33f 4354 513f 2610 0540 067d 7f3f
000000a0: 2a06 843f 75bc 4f3f 1186 99be c5ec 5e3e
000000b0: 995e 97bf f5c9 b9bf 50a5 be3e e0bb 623f
000000c0: 865b 1440 5daf fabe a4c1 39c0 a659 2f40
000000d0: 7d60 b040 0249 c03f a8e0 c33f d708 0040
000000e0: 8dc3 803f 02ad 323f 7e89 a93f 50b0 9e3f
000000f0: 55e8 993f 9b1b 853f f3ad f73f 7e73 b13e
00000100: 982e e03e 6971 993f e63c 6f3f c9fb 4c3c
00000110: f7b8 3d3e 2dd1 5cc0 7ca9 afbf b8fc e440
00000120: c04e 23c0 26be 863e 1553 bc3f b28c c83f
00000130: 2fec d83f 9743 a63f 665a 293f 9e34 883f
00000140: 60ce 053f 02d9 873f a58d 733f 14e2 853f
00000150: 8921 d73d b691 febe 09e0 de3f 1576 9a3f
00000160: b7dc 5ac0 7be3 a33f cf0c 5340 ce16 9fbe
00000170: 5b84 7040 b7ab fe3f bc68 13be bb15 983f
00000180: b352 7b3f cde7 7a3f 33b1 b23f b108 c03f
00000190: 582b cb3f 1373 9a3f edc3 b93f 5f0b 923f
000001a0: 03bd 403f 3236 1540 5bbe 84bf 8d80 49c0
000001b0: 2a96 933f a333 28bf 0011 883f d664 39c0
000001c0: fb53 cc3d 4a95 a43e d876 0e40 e47d b63d
000001d0: 58d2 143f e5e4 ae3e b7cd af3f 2eda be3f
000001e0: 3f49 b63f acb0 af3f 49f7 4f3f bcd9 b83f
000001f0: 2ab4 cb3f 157b 493f 0bae 23bf bb5d 813e
00000200: 74e1 41be de81 323f 1ab8 02c0 28f7 07bf
00000210: 2f4f ec3f 35de 183e 2874 29c0 2a03 8e40
00000220: 287f b9bf 236f 993f 00b1 5b3f 0149 503f
00000230: 6dc1 b33f 252d 8d3f 2e24 1d3f de60 2e3f
00000240: 8b22 a43f a89e cd3f a3a5 5f3f e67c c03d
00000250: 92eb fb3e 068e e6be a3ab 913e d337 bebd
00000260: f057 e93f fcec d2bf c3a5 49c0 712e 97c0
00000270: 2a5c 0640 c51a 3040 c76b c53f 9a7d 663f
00000280: b0fc 9d3f 1fd2 943f 3987 0f3f 7360 9e3f
00000290: 8013 463f 9e76 8e3f 86cd 823f 93cb 963e
000002a0: 999f 37be a389 f63e cc77 afbf ae5c d3bc
000002b0: e997 60bf acfd 41be 3a8f 3240 0897 aa3d
000002c0: ca37 4cc0 a30c 4ac0 5c45 b040 3018 463f
000002d0: 403a 1c3f ed48 183f ab73 a53f 5da3 613f
000002e0: 0cdf 2b3f 17b9 8e3f 477b 933f 8353 173f
000002f0: b9a3 933f 4fb4 88bf 43ba a5be 6a08 f03f
00000300: 04e9 e53e 633a 1540 0eef bebe 673c 99bf
00000310: a5c9 20bf 3174 6abe eff4 a13f 90c9 2640
00000320: ff13 723f 1191 423f 9d32 023f 4373 fc3f
00000330: 3c2a 3d40 c393 8b3f 55d4 0040 e0b4 903f
00000340: 0075 503f 98fb 9e3f c35a a7bf 6d30 b8be
00000350: 60fe ba3e 822a 46c0 5525 b4be 4f3f b73e
00000360: 036c e5be 3e33 e53f 552b ba40 5534 18c0
00000370: f45a 51bf dafc 9a3f 8916 a23f f2d2 623f
00000380: 7a12 a73f 6c36 923f c169 9f3f f99a a93f
00000390: f5c2 423f 6740 053f 8d09 7e3f ba16 f33e
000003a0: a898 79be 2245 81bf 9318 fc3f 3d87 973e
000003b0: fba0 e53f 7864 1fbf 91e3 72c0 cdd3 42c0
000003c0: dfb7 3dbf 224f 4940 5100 863f 4076 b03f
000003d0: f62a 2c3f 4f1b 803f 30d2 cf3e ec9d 853f
000003e0: eac5 8b3f 7372 373f 67bd 0d3f 85a7 823f
000003f0: 10d5 153f a076 493d 2c21 c5bf 596f ae3f
0.1352928 -1.3942673 -1.7599324 -0.9763276 1.0565469 3.6524587 1.6670632 0.33771247
0.81469923 0.14628227 -0.047865033 0.91833645 1.1250042 0.56447285 1.682017 1.9673083
0.985785 2.1110663 1.0053957 1.5363821 0.9547866 0.20627353 0.8300963 2.6886582
1.2818645 -0.30079228 -1.7498963 -3.4976175 1.2405208 3.6887383 -0.9124212 -1.0682648
1.0905883 0.8984533 0.16552073 1.4604399 1.7764422 0.817692 2.0791106 0.99800146
1.0314381 0.8114694 -0.29985097 0.21770008 -1.1825744 -1.4514757 0.37235498 0.88567924
2.3180861 -0.48961917 -2.902444 2.7398467 5.5117784 1.502228 1.5302935 2.0005395
1.0059677 0.6979524 1.3245084 1.2397556 1.2024027 1.039905 1.934996 0.34658426
0.43785548 1.1987735 0.934523 0.012511202 0.1852759 -3.450267 -1.3723598 7.1558495
-2.5516815 0.26316947 1.4712855 1.5667937 1.6947078 1.2989377 0.6615356 1.0641057
0.5226803 1.06131 0.9513801 1.0459619 0.10504443 -0.49720544 1.741212 1.2067286
-3.4197214 1.2803797 3.2976568 -0.31072086 3.7580783 1.9896153 -0.14395422 1.1881632
0.98173064 0.9800995 1.3960327 1.5002652 1.5872602 1.2066368 1.4512917 1.140972
0.7528841 2.3314328 -1.0370592 -3.148471 1.1530201 -0.6570379 1.0630188 -2.8967795
0.099769555 0.3214515 2.2260036 0.089107305 0.5813346 0.34159008 1.3734654 1.4910333
1.4241103 1.3725791 0.812367 1.4441447 1.5914357 0.78703433 -0.63937443 0.25266823
-0.1893366 0.6972941 -2.0424867 -0.53111506 1.8461665 0.14928515 -2.6477146 4.437886
-1.449193 1.1987041 0.85816956 0.81361395 1.4043404 1.1029402 0.6138333 0.6811656
1.2823042 1.6064043 0.87362117 0.093988225 0.49203163 -0.4503023 0.2845126 -0.092879914
1.8229961 -1.6478572 -3.1507423 -4.724419 2.0993752 2.751634 1.5423516 0.900354
1.2342739 1.1626624 0.5606571 1.2373184 0.77373505 1.1129949 1.0218971 0.2945219
-0.17931975 0.48151883 -1.3708434 -0.025801029 -0.87731797 -0.18944424 2.7899919 0.08329588
-3.190905 -3.1570213 5.5084667 0.7738066 0.6102638 0.59486276 1.2925924 0.881399
0.6713722 1.1150235 1.1521996 0.59111804 1.1534339 -1.0680026 -0.3236867 1.8752568
0.4490434 2.3316886 -0.3729176 -1.1971558 -0.62807685 -0.22895886 1.2652873 2.6060524
0.9456176 0.76002604 0.5085848 1.9722675 2.9557028 1.0904468 2.0129597 1.1305199
0.8142853 1.242053 -1.3074573 -0.35974446 0.36522198 -3.0963445 -0.35184732 0.35790488
-0.4480897 1.7906263 5.8177896 -2.378194 -0.8177941 1.2108414 1.2663127 0.88603127
1.3052514 1.1422858 1.2454149 1.3250419 0.7607873 0.52051395 0.99233323 0.47478276
-0.2437464 -1.0099223 1.9695 0.29595366 1.7939752 -0.6226268 -3.7951396 -3.0441773
-0.7410869 3.145455 1.0468847 1.3786087 0.67253053 1.0008334 0.40590048 1.0438819
1.0919774 0.7165901 0.5536713 1.0207373 0.5852823 0.049185395 -1.5400748 1.3627731

feature_net.linear_layer_0.bias f4 [32]
00000000: f374 5b3f ea19 8b3f b2d3 0040 f764 e13f
00000010: 9c54 d33f 8e38 803f 6004 1c3f d3cd 073f
00000020: 8fdf fb3e ea87 b63f 6803 9f3f da50 75bd
00000030: 4d02 ff3e 1fc1 983f 66d1 7a3f 4473 ba3f
00000040: 4ab0 483f 020b 8f3f b870 bf3f 6189 b73f
00000050: 39ca ab3f 611a ab3f 3265 a53f 36e4 9c3f
00000060: 28d7 8c3f 376e a13f 409d 703f 8549 a13f
00000070: 5d6c 213f 3e4c ed3f e826 663f 9b16 b93f
0.85725325 1.0867283 2.0129209 1.7608937 1.6510196 1.0017259 0.60944176 0.5304844
0.49194 1.4260228 1.2422915 -0.05989156 0.49806443 1.1933936 0.97975767 1.4566426
0.78393996 1.1175234 1.4956274 1.43388 1.3421088 1.3367425 1.2921507 1.2257144
1.100316 1.261176 0.93989944 1.2600561 0.63055974 1.8538892 0.89903116 1.4460024

feature_net.layer_norm_0.weight f4 [32]
00000000: 4be8 d73f 95e4 2440 e921 2740 9052 8c40
00000010: 2e2b 2640 16a8 af3f 02d8 7f40 52ea 8840
00000020: 3b9b 8f40 bcae a43f 19f1 3f40 5e7f 2540
00000030: c884 8540 832d a740 eea6 ee3f 1756 5840
00000040: f7a5 2140 4043 903e 3479 4d3e b7c0 a73f
00000050: 796f 2040 271e da3f e379 2340 ac03 9c40
00000060: f7c9 0340 8c67 703e b90a 8340 830a 6840
00000070: 0cd4 1440 4cca a93f 9542 bd3f 82c1 f73f
1.6867765 2.5764515 2.6114447 4.3850784 2.5963855 1.3723171 3.997559 4.2786036
4.487699 1.2865825 2.9990904 2.5858989 4.1724586 5.2243056 1.8644693 3.3802545
2.5257547 0.28176308 0.20065767 1.3105687 2.5068038 1.7040452 2.5543144 4.875448
2.059202 0.23477 4.095059 3.6256416 2.3254423 1.3264861 1.4785944 1.9355929

feature_net.layer_norm_0.bias f4 [32]
00000000: d037 ce3e cf8b 453f 9a4e 313f 7556 193f
00000010: 3805 dc3e be31 8d3f 8848 3f3f e847 333f
00000020: a410 1e3f 1521 873e ab1c d6bd a58b d03e
00000030: 34b1 e73f 35ae 723f 22e1 ea3e 0da5 3c3f
00000040: cdb5 29be 2eb7 44bf 121a 50bf 8523 103e
00000050: 84a0 493f d53d d03f 8633 ca3d 123b b43f
00000060: 4d9b 9b3e a0d7 6ebf 48b5 b1be d59e 3ebe
00000070: 969f 2d3f 4c1b b63d c054 5b3f 975e 5a3f
0.40276957 0.77166456 0.6926056 0.5989755 0.42972732 1.1030805 0.7472005 0.70031595
0.6174414 0.26392427 -0.10454687 0.4073154 1.8100953 0.9479707 0.45874888 0.7368935
-0.16573258 -0.7684201 -0.8128978 0.1407605 0.7876055 1.626887 0.098731086 1.4080527
0.30391923 -0.9329777 -0.3470862 -0.18615277 0.67821634 0.08891925 0.85676193 0.8530058

feature_net.linear_layer_1.weight f4 [32, 32]
00000000: b5f6 a03e 9de5 64bf 70ee 0a40 c525 de3e
00000010: f092 f4be ca6d 0b40 0957 80bf ff70 8440
00000020: 198d e03f 9fab 34be f96e 8e3f 055c e63f
00000030: 6807 a8bd 90ec 2340 30ee 2abe bdbc 0840
00000040: 624d 993f 09dc 783d 9213 16bf c99e 2640
00000050: df0a f33f ea73 493f 0c7d 1cbf d997 6340
00000060: 5c61 c13f 011e 303f 148f bcbf 5342 6d3f
00000070: e8b4 56be 070b 5ebf c1f2 3440 0f2c 5f3f
00000080: 3e4e be3e 815e 27be 75b7 7a3f d44c 0640
00000090: 9bee 493e bd05 9c3f 0014 bf3e 1d9f d23e
000000a0: 4b48 4c3f 892d f63f e8c3 a6bf 357c d3be
000000b0: 075b cbbe cae4 16be 70fd bdbc d118 4540
000000c0: f6ab 36bf c184 2dbe 1987 3d3f e873 fd3f
000000d0: 91de 3b40 939f 2140 281a 303f 586f 9fbf
000000e0: 4749 a53e 5957 feba bcd3 0e40 e6a2 5740
000000f0: 5cf2 c7bf 77b1 173f 187d 0340 554a 86bd
00000100: 5d87 493e c2f0 96bf d1c4 6abd 7b79 05bf
00000110: 15ea 0d40 905c a0be d493 d53f 49d9 9b3f
00000120: 78d1 51bf 7769 43bf bfe2 06c0 d9c5 f3bf
00000130: 0f3d 3a3f 7354 213e 5db9 7b3f 9737 943c
00000140: 427a 91be e82e 0cbd 4030 66bf 29b6 193f
00000150: 7380 95bd 29f4 623f 21cf 5e3f 31df a53e
00000160: fd4d 32bf a90e 55be db28 d03f 2523 413e
00000170: e64e 41bf 76ed 1340 3c9b d1be f36e ec3e
00000180: e883 a73e 05c2 6bbf 24ed a0be 7a60 8bbe
00000190: 73e6 0040 d4d1 45be 1eab e03f c3d6 913f
000001a0: 0ff8 4ebf 7039 69bf c969 f8bf 3cf3 f8bf
000001b0: a01c d33e 1241 0ebe 5b49 6f3f bea2 07bd
000001c0: 6efe 89be ec20 063e 3a2f 5ebf d80e 563f
000001d0: 41d5 86be a7d0 563f 44ae 793f fbcf 163f
000001e0: 8176 e8be e86b 9d3e c34e ca3f 1fce 183e
000001f0: 9c81 1cbf 5c47 1140 3f36 95be 7481 1a3f
00000200: 82f2 04be 97f6 8d3d eb18 a73f 60b4 2640
00000210: 54cc df3f e090 eebf 880b 5340 d2e6 173f
00000220: 359e 2dbf 7595 0840 4312 953f 78d6 963e
00000230: 98ba a63e da23 38be e6b7 7840 e105 89bf
00000240: b934 8f3f 8914 883f a356 a23e ea9d 733f
00000250: 19fd 19c0 2e09 123f 24d4 fcbf a603 0640
00000260: 5ffc 7d3f 8bb8 a6bd 2ee1 0640 1058 583d
00000270: b1c9 883f a9bf 1540 edd4 67bf 701a a43f
00000280: c840 1340 2bc6 9d3f 8926 a73f 7e4d dc3e
00000290: 1035 1740 41e7 0140 7f3b e13f 05eb 9c3f
000002a0: ee27 f63f e598 ba3f 0c90 a83d 4211 583f
000002b0: 0eb0 813f 2a48 0040 d824 3b3f 4aa7 263f
000002c0: b044 253f cbc1 013f f7bd 093d 18b1 d0bf
000002d0: b5aa fe3f bdbd 1fc0 e39f 5840 aa3d 61be
000002e0: 07db 1f3f 8918 873e ddff 2a40 ed7e 04bf
000002f0: b410 7240 9911 8ebf 75bc 20bf b33d b640
00000300: 980a 973e 9eda 3e40 f2b0 5cc0 f588 0640
00000310: a15a be3e fa07 70bf 2462 b83e 18c9 84bf
00000320: ce5d 83c0 971d dc3f a9ec 2540 a721 9dbf
00000330: 35fc a93f 7b9e 53bf ed72 c63f 6a7b babf
00000340: f9ed 37bf 49e6 3bbf 38c2 303f 2c8e ddbe
00000350: 1045 0a40 35f6 3d3f 2d40 06c0 9a2c 873f
00000360: 8b68 f03f 424d 48be d7ec 39bf 5877 3fc0
00000370: a63c 4dbe 01f2 d83e 46f2 51be 48b4 f63e
00000380: dd2d 40bf 7304 1fbf 964a f23f 6cce 0d40
00000390: 8f8c 12bf 9999 f93f 826a 88bf 0cb6 b43f
000003a0: 4342 2e3f 2b10 d2bd 52b9 47c0 7465 8fbf
000003b0: 8aad 81bd c2f4 813e f186 0a3f 2ab7 2d40
000003c0: 1778 5540 a17f 7c3d cbf2 9b3e a534 2740
000003d0: f8fb 1640 18da ec3f ede5 d03f 05cd 9dbf
000003e0: c1ca 8ebf 7c15 bc3e 9666 1f3f 35c4 833f
000003f0: 70a9 4f3e c248 183f b7af 983f 7d61 e5be
0.31438223 -0.8941286 2.170803 0.4338819 -0.47768354 2.178576 -1.0026561 4.1387935
1.754306 -0.17643593 1.1127616 1.7996832 -0.08204538 2.5613136 -0.16692424 2.1365197
1.197674 0.060756717 -0.5862361 2.6034415 1.8987693 0.78692496 -0.61128306 3.556143
1.5107837 0.6879578 -1.4731164 0.9267933 -0.20967448 -0.86735576 2.8273165 0.87176603
0.3716907 -0.16344644 0.97936183 2.0984392 0.19719927 1.2189251 0.37319946 0.4113702
0.7979781 1.9232646 -1.3028536 -0.413057 -0.39717886 -0.14735714 -0.023192137 3.0796397
-0.7135614 -0.16945173 0.7403427 1.9800997 2.9354594 2.5253646 0.6878991 -1.2455854
0.3228247 -0.0019404694 2.2316732 3.3693175 -1.5620837 0.59255165 2.05451 -0.065571465
0.19680543 -1.1792223 -0.057316605 -0.5213849 2.2174122 -0.3132062 1.6685739 1.2175685
-0.8196025 -0.763328 -2.1075895 -1.9044753 0.7274942 0.15754871 0.98329717 0.018092914
-0.28413588 -0.03422442 -0.89917374 0.6004358 -0.0729989 0.8865381 0.87034804 0.32396844
-0.6965025 -0.20806374 1.6262468 0.18861063 -0.75511014 2.3113685 -0.40938747 0.46178398
0.32717824 -0.92092925 -0.31430924 -0.27222043 2.0140655 -0.19318324 1.7552221 1.1393665
-0.8084726 -0.9110327 -1.9407283 -1.9449229 0.41232777 -0.1389201 0.93471307 -0.033114187
-0.26951927 0.13098496 -0.8679081 0.836164 -0.26334575 0.8391213 0.97531533 0.58911103
-0.4540291 0.30746388 1.5805286 0.14922379 -0.6113527 2.2699804 -0.2914295 0.6035378
-0.12983134 0.06931799 1.3054479 2.6047592 1.7484231 -1.8637962 3.2975788 0.5933658
-0.6781953 2.1341221 1.1646198 0.29460502 0.32564235 -0.17982426 3.8862243 -1.0704919
1.1187965 1.0631267 0.31706724 0.9516283 -2.4060729 0.5704526 -1.975224 2.0939727
0.9921321 -0.081406675 2.1074939 0.052818358 1.0686551 2.339823 -0.90559274 1.2820568
2.300829 1.2326101 1.3058635 0.43027872 2.3626137 2.0297396 1.7596282 1.2259222
1.9230936 1.457791 0.082306 0.84401333 1.0131853 2.0044045 0.73103094 0.6509901
0.64557934 0.5068633 0.03362843 -1.6304045 1.9895846 -2.4959557 3.3847587 -0.21996179
0.62443584 0.26385906 2.6718667 -0.51756173 3.7822695 -1.109912 -0.6278756 5.6950316
0.2950027 2.9820933 -3.4483 2.1021092 0.3717852 -0.9376217 0.36012375 -1.0373869
-4.105201 1.719653 2.5925696 -1.2275895 1.3280092 -0.82663697 1.5503823 -1.4568913
-0.7184749 -0.7339826 0.69046354 -0.4327253 2.1604652 0.7420381 -2.097667 1.0560486
1.8781904 -0.19560722 -0.72627014 -2.9916592 -0.20042667 0.42372134 -0.20502576 0.4818442
-0.7506998 -0.62116164 1.8929012 2.215724 -0.57245725 1.9499999 -1.0657504 1.4118056
0.6806986 -0.1025699 -3.120686 -1.1202836 -0.06331928 0.25382048 0.54112154 2.7143044
3.3354547 0.061645154 0.30458674 2.6125882 2.359129 1.8504057 1.6320168 -1.2328192
-1.1155626 0.3673514 0.6226591 1.0294253 0.20279479 0.5948602 1.1928624 -0.4480094

feature_net.linear_layer_1.bias f4 [32]
00000000: d749 aa3f 6660 ca3f 0bbe a03e 34c9 073f
00000010: 9204 853f 3a59 b63f 5bb9 cd3e 6027 9c3f
00000020: 2719 ac3f 92d1 813f 13b8 a33f 571c 953f
00000030: 5d00 cb3f 605b a33e 4fc9 b83e eb3a 9c3f
00000040: 0a06 dc3f b262 263f 2076 9f3f 8fe5 a43e
00000050: c12d cf3e ef43 993f c951 ed3e a1d2 873e
00000060: 478e dd3f faa9 2d3f 237c 3d3f 3abf b73f
00000070: 2ccd ac3e d595 b73f 1a97 943f f7c1 613f
1.3303784 1.5810668 0.3139499 0.53041387 1.039202 1.424598 0.40180477 1.2199516
1.3445176 1.0142081 1.279055 1.1649274 1.5859486 0.3190565 0.36091086 1.220548
1.7189343 0.6499435 1.2457924 0.3220639 0.40464595 1.1973857 0.4635146 0.26527885
1.7309045 0.6783749 0.7401754 1.4355233 0.33750284 1.43426 1.1608613 0.8818659

feature_net.layer_norm_1.weight f4 [32]
00000000: 0936 7940 f66b 3440 2482 c53e 2d15 eb3e
00000010: ae25 7240 e727 8640 916e c740 10d5 7f40
00000020: cf14 d940 6936 ff3f 0fa8 9240 32d2 9740
00000030: d391 ac40 bf1f cf3e ae20 cd3e e46a 9940
00000040: acaa 2940 8cea 8440 9a92 4c40 3ee0 bd3e
00000050: 6fc6 3a40 ecb1 c140 974d 9b40 327b 8540
00000060: c662 7340 a615 a040 b607 7940 6da3 6a40
00000070: 7586 ba3e 2718 8540 8897 9c40 63a8 8c40
3.893923 2.8190894 0.38575852 0.45914593 3.7835498 4.192371 6.232247 3.9973793
6.78379 1.993848 4.583015 4.7444086 5.392801 0.40453908 0.40063995 4.794298
2.651042 4.153631 3.1964478 0.37085146 2.9183614 6.052969 4.8532214 4.1712885
3.8029037 5.0026426 3.8910956 3.6662247 0.36430708 4.1591983 4.8934975 4.395555

feature_net.layer_norm_1.bias f4 [32]
00000000: 75e2 de3f b8fb cd3f 22c3 1bbf 7f23 1ebf
00000010: 71af d13f 8898 ab3f 9eeb 363f a88a a73f
00000020: 0bac 9f3f 5ccb bf3f 3532 bf3e eb16 b73f
00000030: deb8 1d40 e5e4 12bf a946 28bf e359 b93f
00000040: 6ee7 ec3f b60b f83f 9ac6 aa3f 299c 1abf
00000050: 72b6 d23e 7382 b83f 7da7 623f 77ef 6c3e
00000060: 139c dc3f d209 133f 7999 e93e 6283 af3f
00000070: 40eb 1bbf 8605 923f 7d52 273f 37ab 2d3f
1.7412859 1.6092443 -0.60844624 -0.6177291 1.6381665 1.3405924 0.71453273 1.308919
1.2474378 1.4983935 0.37342992 1.4303869 2.4644084 -0.57380515 -0.6573282 1.4480556
1.8508127 1.9378574 1.3341858 -0.6039453 0.4115482 1.441481 0.88536817 0.23138224
1.723513 0.5743686 0.45624903 1.371197 -0.6090584 1.1407936 0.6536024 0.6783938

feature_net.linear_layer_output.weight f4 [15, 32]
00000000: 0ec4 2a3f 592a bcbf f2f0 523e d494 a0be
00000010: 0494 493f c545 8e3e eb06 bbbf 99ad 98bf
00000020: 205b 44be cd2a 813f d32a 0fc0 ca0c 10c0
00000030: c791 8dbf 4832 923d d279 e53d c3fa 06c0
00000040: 5011 b4be bb6b 6fbf abf8 9cbf baac 77bf
00000050: 0681 dcbc b196 a23f cb83 3f40 262b 76bf
00000060: 3bf7 b7bf 590e e93d 4070 debd c49b 3f40
00000070: 2a6d 073d 0ba4 1dc0 f355 1fc0 31dc 87be
00000080: b099 26bf 0ab0 f0bf caa8 91be 43e1 b8be
00000090: 629c 9540 1e58 9e3e ccb1 9b3f dc18 b1be
000000a0: 77b8 89bf 0f54 e93f a1a6 9f3f a531 2bbf
000000b0: 5661 e4bf 2cdf 483d f5d2 8a3c f0db 83bf
000000c0: 1133 8cbd 6c18 8b3e 1c4f 7bbf 29cb 033f
000000d0: d634 d93f eb11 b43f 1d7b 853f 559d 023f
000000e0: 9b0c 39c0 05ab 00c0 e398 babf a9e9 bdbf
000000f0: adde 843e 1906 7f40 5a43 a93f 748f 123e
00000100: 9043 7640 d8bd f13f da48 cbbe 7df7 abbe
00000110: e6fa 1ac0 c54f 043f 7f17 29bf 9cbb 2f40
00000120: a65a f3bf cd52 8cbf a2c6 9abe fb90 fb3f
00000130: 030a 493f c542 0b3f 5331 473e d8ec cebf
00000140: ee1f bebd a082 17c0 74ef be3e e394 a6be
00000150: 427b 13c0 8800 bbbf d5e0 193f 6c16 c83d
00000160: aca0 3340 be1f 6c3d 00f3 7b3f 9d2e af3f
00000170: 9b1e 26be 184c 4fbf 8a28 d23f 88eb 3d3f
00000180: df8b d73c e84a d4bf ac72 10be e64e 083f
00000190: 327a 85bf 02d8 9e40 082a 05c0 b5a0 d4bf
000001a0: 1863 cabf 3a13 e03e f5de c7bf 4362 fe3e
000001b0: ca58 d33f 3d12 50bd 6967 7e3c cae6 03c0
000001c0: 8c72 b83f b83b 3a40 0f2d 4ebe a370 f6be
000001d0: 07d9 8dbf 0557 3cbf 2bf1 38bf 8304 8d3f
000001e0: 5250 aa3f 24d7 f23f 18d6 07c0 734a 0a40
000001f0: a69c c83e 1bc7 0b3e 46dd 53bf 63ad fcbd
00000200: 2540 dc3f 7828 2c40 87d5 62be 20fb d63d
00000210: b7cd be3f 41e5 88c0 b221 0dc0 49c8 873f
00000220: e7ae 86bf e858 063f 3d12 0e40 f609 41bf
00000230: d77d 0940 85ce 993d 73c1 05be 89c8 4740
00000240: 926e fb3f 2739 3fc0 32e7 68bf e465 5dbf
00000250: 305c d13f fc2d 23be b3a1 f13f 50c4 c7bd
00000260: a857 d8be 4810 843f 0251 383e a286 27c0
00000270: cd84 b93e ea84 bfbf 6dac a03e 1a58 8c3d
00000280: f46a 2040 9c6c a2bc fd59 acbe 03b2 79be
00000290: 7cac 0bc0 3e19 29bf 2308 09c0 dcc4 bdbf
000002a0: 3962 2a40 3d8f 04c0 ecd0 9a3f 6fc8 8240
000002b0: 8196 a33e 7579 263e d990 dd3d d66b acbf
000002c0: aadb 4040 c426 b1bf d6fc 583f 4f1c 59bf
000002d0: 58e1 2ebf 1102 0140 7d05 e23e fcc7 883e
000002e0: 4e05 44c0 967c 5c3e 7f96 0abf ee0d 223f
000002f0: 7b83 17be 5347 583d ccd2 fabf d3c3 8a3f
00000300: 3f37 0940 53eb ea3e a734 163e e19f c3bb
00000310: dbf0 b63f eab7 843e 40be f03f 27c6 7e3f
00000320: b1d1 563f 665c c13f b747 a43d 8e9b 0c3f
00000330: 43a7 f63e 5aa5 96bd 4a91 013d 3a6b cf3e
00000340: 3969 f73e 8607 753f 3ed4 5a3f 7f51 64be
00000350: f29c eb3e dbc8 5b3f 410a 1c40 c22c d83d
00000360: a53b fdbd 11cc 8b3e 3e27 e53e 0a78 e93f
00000370: f1de 41be f703 ec3d e9ea 983f 7ef6 8b35
00000380: c83a 073f 0bd8 20c0 8fce 76bd 3b98 403c
00000390: 235c 11c0 c4ed 5dbf 3cb3 0240 8460 98bf
000003a0: 4e26 1abf 3df1 e1bf 6498 733f 682b c0be
000003b0: a700 c7bf a743 de3c e7ec 473f e05a afbf
000003c0: 7b34 17bf fe4b 28bf 0719 3fc0 2f92 053d
000003d0: 2e5d c3bf b629 9340 053f 5cbd 2ed8 87be
000003e0: 2b55 0d3f 4eaa bf3f 6551 6a3f 7e46 25bf
000003f0: 1217 8d3e 387a 58bf 8411 b73f 6e56 3c40
0.66705406 -1.4700423 0.20599726 -0.31363547 0.7874148 0.27787605 -1.4611486 -1.1927978
-0.19175386 1.0091187 -2.2369888 -2.2507806 -1.1060113 0.07138497 0.11204876 -2.1090553
-0.35169458 -0.9352376 -1.2263387 -0.96747935 -0.026916992 1.2702237 2.992419 -0.9615959
-1.4372324 0.1137969 -0.10861254 2.9938822 0.03306309 -2.4631374 -2.489621 -0.2653518
-0.6507826 -1.8803723 -0.28449088 -0.3610936 4.6753397 0.30926603 1.2163634 -0.3458928
-1.0759419 1.8228778 1.2472726 -0.66872627 -1.7842205 0.04904096 0.016946295 -1.0301495
-0.06845678 0.2716707 -0.98167586 0.5148187 1.6969249 1.4067968 1.0428196 0.5102132
-2.8913944 -2.0104382 -1.4577907 -1.4836932 0.25951138 3.9847472 1.3223679 0.14312536
3.8478737 1.8886061 -0.3970402 -0.33587256 -2.4215636 0.5168422 -0.6605148 2.7458258
-1.9012039 -1.0962769 -0.3022967 1.965362 0.785309 0.5439876 0.1945241 -1.6166029
-0.09283434 -2.3673477 0.37292063 -0.32535467 -2.304398 -1.4609537 0.6010869 0.09769902
2.8066816 0.05764746 0.98417664 1.36861 -0.16222613 -0.80975485 1.6418622 0.7418752
0.026311813 -1.658536 -0.14106244 0.5324539 -1.0427916 4.963868 -2.0806904 -1.6611544
-1.5811491 0.4376467 -1.5614916 0.49684343 1.6511471 -0.050798643 0.015527585 -2.0609612
1.4409957 2.909895 -0.20134376 -0.4813281 -1.1081856 -0.7357028 -0.72242993 1.1017002
1.3305762 1.8971906 -2.1224422 2.160794 0.39182013 0.13650171 -0.8275951 -0.123377584
1.7207075 2.68997 -0.22151767 0.10497117 1.4906529 -4.277985 -2.2051816 1.0607997
-1.0522126 0.5247941 2.2198632 -0.75405824 2.1483057 0.075100936 -0.13062076 3.1216147
1.9643118 -2.9878633 -0.90977776 -0.864836 1.6356258 -0.1593551 1.8877472 -0.097542405
-0.42254376 1.0317469 0.17999652 -2.6175923 0.3623413 -1.4962437 0.3138155 0.068527415
2.506528 -0.01982718 -0.33662406 -0.24384312 -2.1824026 -0.6605414 -2.1411216 -1.4825702
2.662245 -2.0712426 1.2095008 4.086967 0.31950763 0.1625727 0.10818643 -1.3470409
3.0134072 -1.3839955 0.847608 -0.8480882 -0.683126 2.0157511 0.44144812 0.26715076
-3.0628238 0.21531901 -0.5413589 0.63302505 -0.1479625 0.052802395 -1.959558 1.0841011
2.143997 0.45882663 0.14668523 -0.005969987 1.4292253 0.25921565 1.880806 0.99521106
0.83913714 1.5106323 0.08021491 0.5492486 0.48174486 -0.07355757 0.0316327 0.40511495
0.48322466 0.95714605 0.85480106 -0.22296713 0.46018177 0.85853356 2.4381258 0.10555412
-0.12364892 0.27304128 0.44756502 1.8239758 -0.18932702 0.11524194 1.1946689 1.0428046e-06
0.5282407 -2.5131862 -0.060255583 0.011755045 -2.2712486 -0.86690927 2.0421896 -1.1904454
-0.602147 -1.7651745 0.95154405 -0.37533116 -1.5547074 0.027131869 0.7809586 -1.3699608
-0.59064454 -0.65740955 -2.9859025 0.032610115 -1.5262811 4.5988417 -0.053771038 -0.2653212
0.5520808 1.4973848 0.9153045 -0.6456069 0.27556664 -0.8456149 1.430222 2.9427752

feature_net.linear_layer_output.bias f4 [15]
00000000: d52f 13bf f3b6 283f e808 823f 54e3 0ebf
00000010: 85a7 1f3e f7c1 20bf c061 a83f 23f0 90be
00000020: 0e1a 653d 7964 673e 2fb4 333f 4599 b03e
00000030: 607f 88be 5ceb e23f 168c 59be
-0.5749486 0.6590416 1.0158968 -0.55815625 0.15591247 -0.62795967 1.3154831 -0.2830821
0.05593305 0.22596921 0.70196813 0.34491935 -0.2665968 1.7728076 -0.21244845

feature_net.linear_layer_0.weight f4 [32, 21]
00000000: 02d1 cebe 2cfd 593e 501f f63f 0cda 3cbf
00000010: 1a8a 42c0 97cf 3840 440a f53f 418c 16c0
00000020: 1da0 c0bf 4b5a a140 2448 67bf 3418 893f
00000030: b35e 743f 31ef 953f 7fce 9f3f 8e56 343f
00000040: 894a 9c3f 01c7 603f 7d29 c53f f426 893f
00000050: f808 a03f e8ce 85bf eff0 903f 2be7 be3f
00000060: c835 2340 e016 d83f 0082 92bf 5cef 723d
00000070: 0df2 51c0 c8b4 e6bf f894 2c3f 66c3 e93f
00000080: 598f ba3f e46e 683f 5c77 903f fbaa fc3e
00000090: 517d fb3e ad63 c43f 7fde b23f ea39 163f
000000a0: 3d68 973f 5962 793f ef7d 16be 4f3b 7f3f
000000b0: 0ac8 2340 a3c9 1940 ef65 e0bf 7253 f4bf
000000c0: 7795 9abf 2393 aebf 4d20 6040 1ec6 ddbe
000000d0: 5de0 39c0 54f7 363f debd 253f 7ba3 063f
000000e0: 6df9 803f 7b76 233f e094 ad3f 1b4e 453f
000000f0: 9c3f 1f3f 9902 c03f fee4 953f e3e6 3cbf
00000100: 1691 c2bf becd d13f 31bc c040 c00e 063f
00000110: bc09 dc3e 858d 0c3f 8de3 bd3f d417 2840
00000120: 52dd 663f ad8e e23e f46c 3b3f 15c8 f43f
00000130: 5920 7a3f 4cf4 8e3f bf48 d23f 3b24 753f
00000140: c3e0 803f a9e2 ae3f b4a7 c03f 0a1c b03f
00000150: 4031 b5be 769a 093f 4c72 e63e 045a 85bf
00000160: 9a79 2fbf 3778 f23f b7fa b53e 6a35 bcbf
00000170: c659 5fc0 bedb ae40 110e 0cc0 52f4 873f
00000180: f6f5 ac3f 1906 503f 00b8 a43f 9cec 043f
00000190: 1927 8e3f f8c6 983f b9dc ae3f 9328 bc3f
000001a0: e6af 8c3f e34f c4be cdd4 603f 5cfd 933f
000001b0: 2cbd 8bbf f734 c73f 8410 83bf 69b5 f5bf
000001c0: 1cb9 993f 723c e2bf aa4d 4bc0 816b 8b40
000001d0: f80d 933f f1de 9e3f 9b22 443f 9e72 603f
000001e0: 7da7 603f 541f 8b3f ca6e 913f 4c28 8c3f
000001f0: 3249 953f 0568 9d3f 64bc e03d d71b c9bd
00000200: 64bc 4bbf d684 78bf 4b74 e0be 626a d4be
00000210: 6e3b eebd 7872 d63f cb2a 2cc0 cb1f b140
00000220: 0e86 d23f 9c3c 353f 170b ad3f 60b5 343f
00000230: 69de 9d3f c3c8 b03f 2cf0 a23f 7e19 753f
00000240: 3e3c 6d3f e546 9c3f 4119 dd3f 2c06 5ebf
00000250: 970a da3f 7f7c 033f 2ecc e53f 98ba 263f
00000260: f0d0 82bf 09cb c83f 387f 29c0 31e7 7040
00000270: e8f6 183f 7ea1 bbbf aebd 5b3f 5da3 c03f
00000280: 519f 9c3f 3fa9 ba3f d547 793f 68e8 b23f
00000290: 832a 1f3f c11e 883f 1964 cf3f a4b7 793f
000002a0: ab45 62be bc2f c33f 13ac a5bf 0a55 90c0
000002b0: a7f1 553f 1f6c a03f afb2 973f 48ca 843e
000002c0: 5fd2 763f c0f8 cdbd a16f 0c40 07db a23d
000002d0: 2e6d cc3f 477e 383f ea11 913f a920 4e3f
000002e0: e69a d13e ee37 573f bb50 3c3f dd1f 803f
000002f0: 2190 ce3f 67df 763d e4e7 373f 3035 3cbf
00000300: 5044 843f 6205 cdbd 1f24 973f 12d1 5d3f
00000310: 2438 22c0 baa7 2dc0 f5f3 0cc0 b99a af40
00000320: 708b ae3f c605 813f a564 8a3f c0f6 913f
00000330: d7a9 a33f b593 763f b63e 493f c27e 8f3f
00000340: 5a07 973f 9099 b13f bd69 5cbf 7bbf 983f
00000350: 2c61 c73e 68df 68c0 607e 2c3e d3c6 bd3f
00000360: a861 7e3f d294 94bf f8ec 29c0 50ad 4f40
00000370: bf79 2fbe 23a4 ab3f 9758 ac3f 2aba 853f
00000380: f479 743f d3c8 be3f 20a3 563f 2f4e 893f
00000390: 2de3 4c3f 974e cd3f 0e8d 9c3f 5333 febe
000003a0: 57da 2f3f f5a3 edbf 53bf 8dbf 7447 813f
000003b0: 8d20 8bbf d2b0 c43f 29ce c43f 4a0d 5e40
000003c0: c243 92c0 fe5c 6c40 8cc2 ca3f d4fe 943f
000003d0: 106a 903f f8d3 9d3f 1b71 313f 934b 863f
000003e0: d534 6f3f a9db b13f cea6 e83f fed0 9e3f
000003f0: 630d 593f 4504 edbc 54c8 debe 49f1 40c0
-0.40393835 0.21287984 1.9228306 -0.73770213 -3.039679 2.8876703 1.9143758 -2.3523104
-1.5048863 5.042272 -0.9034445 1.0710511 0.95457 1.171362 1.2484893 0.7044457
1.2210246 0.87803656 1.5403286 1.0715013 1.2502737 -1.0453768 1.1323527 1.4914297
2.5501575 1.6881981 -1.1445923 0.059310302 -3.2803986 -1.802392 0.6741481 1.8262756
1.4574996 0.90794206 1.1286426 0.49349198 0.49119046 1.5342919 1.397415 0.5868212
1.1828686 0.9741569 -0.14696477 0.9969987 2.5590844 2.402932 -1.7531108 -1.9087965
-1.2076863 -1.3638653 3.5019715 -0.43315214 -2.904319 0.7147114 0.6474284 0.525932
1.0076119 0.6385266 1.3561058 0.77072304 0.62206435 1.5000793 1.1710508 -0.73789805
-1.5200527 1.6390913 6.0229726 0.52366257 0.42976177 0.5490344 1.4835068 2.6264544
0.9018146 0.44249478 0.73213124 1.912356 0.9770561 1.1168303 1.642845 0.9575841
1.0068592 1.3662921 1.5051179 1.3758557 -0.35389137 0.53751314 0.45009077 -1.0418096
-0.68544924 1.8942937 0.35542843 -1.4703801 -3.4898543 5.464324 -2.1883585 1.0621436
1.3512561 0.81259304 1.2868652 0.5192354 1.1105682 1.193572 1.3661109 1.4699882
1.099118 -0.383422 0.8782471 1.1561694 -1.0917106 1.5563039 -1.0239415 -1.9195987
1.2009616 -1.7674696 -3.1766152 4.356873 1.1488638 1.2411786 0.76615304 0.8767489
0.87755567 1.0868936 1.1361935 1.0949798 1.1662962 1.2297369 0.10973433 -0.09819763
-0.79584336 -0.9707769 -0.43838724 -0.41487414 -0.11632429 1.6753683 -2.6901119 5.535131
1.644716 0.7079561 1.3519009 0.70589256 1.2333499 1.3811268 1.2729545 0.95742023
0.9267005 1.2209135 1.7273332 -0.8672817 1.7034482 0.5136184 1.7952936 0.6512847
-1.0220013 1.5686961 -2.6483898 3.7641108 0.5975175 -1.4658659 0.85836303 1.5049855
1.223612 1.45829 0.9737523 1.3977175 0.6217424 1.0634385 1.6202422 0.9754584
-0.22096889 1.5248942 -1.2943138 -4.5103807 0.8357186 1.2532996 1.1851405 0.25935578
0.9641475 -0.10057211 2.1943133 0.079519324 1.5970819 0.72067684 1.1333592 0.80518585
0.4093849 0.84069717 0.73560685 1.0009724 1.6137735 0.060271647 0.7183821 -0.7351866
1.0333347 -0.10010792 1.1807898 0.8664714 -2.5346766 -2.7133622 -2.20239 5.487637
1.3636303 1.0079887 1.0811964 1.1403427 1.2786206 0.96319133 0.78611314 1.1210558
1.1799119 1.3874989 -0.86098844 1.1933435 0.38941324 -3.6386356 0.16845083 1.4826301
0.9936776 -1.1607916 -2.6550884 3.2449532 -0.17136286 1.3409466 1.3464535 1.0447438
0.95498586 1.4905037 0.8384266 1.0726985 0.8003414 1.6039609 1.2230546 -0.49648532
0.68692535 -1.8565661 -1.1074013 1.0099931 -1.0869309 1.5366461 1.5375415 3.469561
-4.570771 3.6931758 1.5840621 1.1640267 1.1282368 1.2330313 0.6931321 1.0491813
0.9343999 1.389516 1.8175905 1.2407529 0.8478605 -0.0289327 -0.43512213 -3.0147269

feature_net.linear_layer_0.bias f4 [32]
00000000: 3b0b 7c3f f0bf e73d 30b0 b53e 5724 ba3f
00000010: ec9f 933f 95bb 293e 4f11 f93f 5993 8f3f
00000020: 8632 5d3f f550 2d3f a406 4e3e fbbb bb3f
00000030: 475b 813f 99fe 883f 0f50 fa3f 989c 713f
00000040: 402e 0c40 606e c23f 341d 643f b198 1240
00000050: 3a27 0b40 5f26 bd3f eb48 373f a9f3 9f3f
00000060: 06b6 0840 7d86 c03f 3546 713f 8787 903f
00000070: 934c d63f 8b5d a73f 33e5 263e 0ffc 8b3f
0.98454636 0.11315906 0.35485983 1.454234 1.1533179 0.16575463 1.9458407 1.1216842
0.8640522 0.67701656 0.2011972 1.4666742 1.0105981 1.0702697 1.9555682 0.9437957
2.1903229 1.5189934 0.8910706 2.2905695 2.1742692 1.4777335 0.7159564 1.2496234
2.1361098 1.5041043 0.9424775 1.129136 1.6742119 1.3075422 0.1629837 1.0936297

feature_net.layer_norm_0.weight f4 [32]
00000000: cef8 8840 dd89 1140 f673 7d40 f607 3540
00000010: a226 a440 2df7 b440 a4ec 1540 628f e63f
00000020: fc78 0f40 6b46 bb40 adda 5f40 7f1c 0e40
00000030: 5fa0 aa3f 51bd 1340 c883 b13f 4f7c ca3f
00000040: 0c2c 893e 113e b83f 3ba9 de3f 5488 343f
00000050: 8234 1840 bb63 ea3f 52ce 0340 084d 3f40
00000060: 1b9c 2840 3054 d43f 4904 9240 264d 8b40
00000070: 4b2c 4040 bd77 2c40 578b 2b40 8108 713f
4.2803717 2.2740395 3.9602027 2.828611 5.129716 5.655173 2.3425684 1.8012507
2.2417593 5.852346 3.497722 2.2204893 1.3330191 2.30843 1.3868341 1.5819186
0.26791418 1.4393941 1.7395395 0.7052052 2.3782048 1.8311685 2.0594678 2.9890766
2.634528 1.6588192 4.563023 4.3531675 3.0027034 2.6948082 2.6803796 0.941536

feature_net.layer_norm_0.bias f4 [32]
00000000: 7ecc 03bf a60a 323f a4ee 043f 6a35 7c3f
00000010: 21dc a13e 6eec 2f3f 6747 433f 4fcc 133e
00000020: e97d af3e 4348 6f3f 1bcf ec3c ab8e a23e
00000030: fa9b 4fbf 4adf 0f3f 72f7 a0bd 9016 d9be
00000040: e255 81bf 108c acbc 53b0 713f 178e 69bf
00000050: d0c6 b4bd fbef 8abd 3871 ba3f 8770 833e
00000060: 0d9a d83e 10a3 48be c79f 28bc 011e 7fbd
00000070: 0501 013f 0b09 3cbf fc8f 083f e078 4cbf
-0.51483905 0.695475 0.51926637 0.98519003 0.31613258 0.6872014 0.76280826 0.14433406
0.3427575 0.9346964 0.02890735 0.31749472 -0.81097376 0.5620009 -0.078596964 -0.42400026
-1.0104334 -0.02106288 0.94409674 -0.91232437 -0.08826983 -0.06784054 1.4565802 0.2567179
0.4230503 -0.19593453 -0.010292 -0.062284473 0.5039218 -0.734513 0.533447 -0.7987194

feature_net.linear_layer_1.weight f4 [32, 32]
00000000: af77 973e fe92 583f e53b 8940 4bef 8540
00000010: 000a 1240 4296 4840 39be 88bf 8796 1f40
00000020: b47b 7c3f 0a1f 9b3d bfe4 093f c6ab 79bf
00000030: c95b 6b3f 56d5 1a3f 621f 98be 5faf ff3e
00000040: b6f3 613f fd47 d63f 8608 513f c939 b3be
00000050: 1dcb 793f 948d 2b3e e01d 8d3f 6c82 df3f
00000060: 6076 fd3e 7a06 a4be 38ed 4cc0 811c 653f
00000070: e5db 81bf ab3a edbe f5f8 0b40 2031 9a3f
00000080: 0675 983f 6570 a5bd 5b97 c73e abd8 5e3f
00000090: 8f66 f23f 3ded 2740 cf23 3640 d4a9 7bbf
000000a0: a654 fe3f 97b3 2ec0 02fc dd3f 0c98 b0bf
000000b0: 810f 283e edc5 b7bf 0fe5 1340 ab21 2d40
000000c0: 5566 743f 7ef3 593d d91c 0c3f 8912 75bf
000000d0: 1fa6 4bbf 6ad7 edbd b8e2 5440 657c 05c0
000000e0: 1dc3 0940 9235 323f 3814 9d3f d7cf e63f
000000f0: d9d3 adbf 034a 11c0 1a41 11c0 27cf ff3f
00000100: 0ad0 b63f 1460 d9bf 916f 623f ccfb 8d3f
00000110: 10e9 e0be cd79 81bf 0ecb 70bf fadd 41be
00000120: 80c7 bb3f 0a12 613f 1709 fe3f 207b 253f
00000130: 0fa2 f2bc a13c dbbd fd07 3b3f 87fc 433f
00000140: d050 2a3e 43ae aa3d 80f1 e6bf c2f4 a03f
00000150: a53e e63e 34d6 6b3f 1573 bcbf d9c4 63bf
00000160: 32d0 5940 0808 2140 391f 133e 9f8e bb3f
00000170: 87cc e5bf 19d1 03c0 ce26 0040 bef8 0240
00000180: 5572 b3bf 1c8b aabf 6f39 83bf 26d1 85bf
00000190: aa7f 07c0 b352 e23e c5e9 94bf f38e 0fbe
000001a0: 0d2e 28bf 270f 75bf a6ee 2fc0 b2de d03f
000001b0: c8c3 1640 f695 3340 dbb5 433f 69a8 3fbf
000001c0: 3fe9 60be 7eec b23f 0570 aabe 9f17 61bf
000001d0: 36a2 8140 bab7 683f 535c 613f 91c3 7f3f
000001e0: 9559 1d3f 3a19 073f 843a 41c0 6558 f13f
000001f0: 6433 b73f a13a 493f caad 8b3e fb14 c8be
00000200: 2680 a7bf f94f b83e 40fa 55bf 0454 4a3f
00000210: 3ded c2bf 7702 9540 b697 2ebe d656 a33f
00000220: f743 f83f 552a 08c0 5a48 943e 8a59 0340
00000230: 0561 153f 23d6 9ebf 4020 273e 5500 ec3e
00000240: 323e 463f e52f ebbf 58b7 d9bf 2be7 803f
00000250: 511c 103f d539 003f 2e21 09bf 33f8 773f
00000260: 81b7 3340 9af1 163f 8e5e 7c3f c560 a0bf
00000270: 4dcd 8e3f e689 b33f e2ec 2f3e 40cc b53f
00000280: af5b 9040 b0f6 b1bf 0dde 983f bf99 1640
00000290: 8e58 14c0 1332 493f f5d9 33be 40ee 2e3f
000002a0: 03d4 983f 5b54 0440 0925 c63f bce6 b6bf
000002b0: 1f56 d03e e11f 71bf 61be c13e f1b1 a83f
000002c0: 213e d8be 87c0 cb3f 88f7 dd3f e380 fc3e
000002d0: ac4e a53f eb74 4740 3c27 05bf 24ec 8b3f
000002e0: 28c7 93bf 1003 bfbf 5af1 353f 8d8b 1040
000002f0: 5a90 2b3f 4552 983f 412e ecbe c153 b03f
00000300: 833a 973f a2a5 dabe 0816 1c40 faff 863f
00000310: d5ed 323f 790d 59bf 1cb4 413d a65f b03e
00000320: ec0d b5bf 72b9 91bf 451f 0240 d9e3 7f3f
00000330: 5f72 1dc0 8b86 0d3f 114d 60bf c3dc fe3c
00000340: ae1e 30bf a0df c33f 4415 bc3f 83f1 dc3e
00000350: 0f39 9d3e e3af 8c3d e246 25be ef6f c6bf
00000360: 482f 94be 24a0 a43f 1381 803f 550e bbbf
00000370: f745 4a40 7a05 3740 18a7 513f b730 3c3e
00000380: 8695 a23f 2549 843e ee69 233f 7f35 943f
00000390: 5bec c03f 4d26 cec0 625c c1bf d59e 1840
000003a0: c91c 01c0 08f0 64c0 b605 ac3f cd29 0a40
000003b0: 879b 35be d91b 2440 3dc9 b83e 5bd7 38c0
000003c0: f4af 14bf a6fb 133f 2636 44bf a445 e83f
000003d0: a50f 1740 919b 8dbe 5643 3c3f dcbd 173f
000003e0: 6418 bcbe 0bf7 6e3f 7707 09be de79 9fbf
000003f0: 8f2e 5140 b9c4 0940 e9e6 9c3f e248 1540
0.295835 0.8459929 4.2885613 4.1854606 2.2818604 3.134171 -1.0683051 2.4935625
0.98626256 0.075742796 0.53864664 -0.9752773 0.9193693 0.60481775 -0.29711443 0.49938485
0.882625 1.6740719 0.8165363 -0.35005024 0.9757555 0.16753227 1.1024742 1.7461677
0.49504375 -0.3203619 -3.2019787 0.8949662 -1.0145231 -0.46333823 2.1870701 1.2046242
1.1910713 -0.08078078 0.38982663 0.8704936 1.8937548 2.6238549 2.8459356 -0.9830601
1.9869583 -2.7297113 1.7342532 -1.3796401 0.16412164 -1.4357277 2.3108556 2.70518
0.95468646 0.053210728 0.5473152 -0.9573141 -0.79550356 -0.116133526 3.3263378 -2.0857174
2.1525338 0.6961299 1.2271795 1.8032178 -1.3580276 -2.2701423 -2.2695985 1.9985093
1.4282238 -1.6982446 0.88451487 1.1092467 -0.43927813 -1.0115296 -0.94059837 -0.18932334
1.4670258 0.8791815 1.9846524 0.64641 -0.029618291 -0.107049234 0.73059064 0.765572
0.1663239 0.08334019 -1.804245 1.2574694 0.4496967 0.92123723 -1.472262 -0.8897224
3.4033322 2.5161152 0.14367379 1.46529 -1.7953042 -2.0596373 2.0023685 2.046432
-1.4019266 -1.3323703 -1.0251902 -1.0454452 -2.117167 0.4420372 -1.1633841 -0.14019375
-0.6569527 -0.95726246 -2.748941 1.6317961 2.3556995 2.806028 0.76449364 -0.7486635
-0.21963976 1.3978422 -0.3328859 -0.8792667 4.051051 0.90905344 0.880315 0.99907786
0.61464816 0.5277287 -3.0191965 1.8855101 1.4312558 0.78605086 0.27281028 -0.39078507
-1.3085983 0.35998514 -0.83584976 0.7903445 -1.5228649 4.656551 -0.1705006 1.2760875
1.9395741 -2.1275837 0.2896145 2.05234 0.58351165 -1.2409099 0.16320896 0.46094003
0.7743865 -1.8373991 -1.7009077 1.0070547 0.5629321 0.50088245 -0.53566253 0.96863097
2.8080752 0.58962405 0.9858178 -1.2529532 1.1156403 1.4026458 0.17180207 1.4202957
4.511192 -1.3903408 1.1942765 2.353134 -2.317905 0.7859203 -0.17563613 0.6833229
1.1939701 2.0676486 1.5480052 -1.4289165 0.40690705 -0.9418927 0.3784056 1.3179303
-0.422349 1.591813 1.7341166 0.49317083 1.2914634 3.116511 -0.5201299 1.0931439
-1.1545153 -1.492281 0.710714 2.2585175 0.6701714 1.1900107 -0.4612904 1.377556
1.1814731 -0.42704493 2.4388447 1.0546868 0.6989415 -0.8478618 0.047290906 0.34447974
-1.4144874 -1.1384718 2.0331585 0.9995704 -2.4601057 0.5528342 -0.87617594 0.031111127
-0.68796813 1.530262 1.469399 0.4315301 0.30707595 0.06869485 -0.16140321 -1.550291
-0.28942323 1.2861371 1.003939 -1.4613749 3.1605203 2.8597093 0.8189559 0.18377958
1.2701881 0.25837055 0.6383351 1.1578826 1.507213 -6.4421754 -1.5106318 2.3846943
-2.017382 -3.5771503 1.3439243 2.1588013 -0.1773511 2.5641997 0.36091033 -2.8881443
-0.58080983 0.5780586 -0.76645124 1.8146253 2.3603299 -0.2765775 0.73540246 0.5927408
-0.3673736 0.9334571 -0.13381754 -1.2459066 3.2684667 2.152632 1.2257968 2.3325734

feature_net.linear_layer_1.bias f4 [32]
00000000: 3783 9b3f 987f 763f ae98 743f f77e ab3f
00000010: aede 073f 0711 9a3f 8769 c23e 4352 663f
00000020: e207 753f bd78 7b3f 38d2 3a3f f417 643f
00000030: fef9 8a3f 3a28 393f 4676 a43f e484 743f
00000040: 068c a33f f158 803f 6717 803f a9c9 6f3f
00000050: 07be 823f 1719 a33f 168a 983f 5169 cb3e
00000060: aeae 903e d2ed 943f 6075 a43f cdc6 8f3d
00000070: c64a 323f a5ea 21be 47b0 0d3f c010 493f
1.2149419 0.9628844 0.9554547 1.3398122 0.5307416 1.2036446 0.37971136 0.8996927
0.95715153 0.98231107 0.7297702 0.8909905 1.0857542 0.72327006 1.2848594 0.95515275
1.2777107 1.0027143 1.0007142 0.93667084 1.0214242 1.2742032 1.191714 0.39728788
0.2825827 1.1635077 1.284832 0.0702034 0.69645345 -0.15812166 0.553471 0.78541183

feature_net.layer_norm_1.weight f4 [32]
00000000: dad6 4740 ef6d 9640 4707 b640 9d18 8c40
00000010: e910 a840 107c 9640 4b26 8d40 6deb 9840
00000020: 8790 9540 168b 7540 89d3 7340 5c0a ba40
00000030: fac4 8040 a264 a340 4061 6c40 f044 9540
00000040: f47f 7540 6397 5240 76a2 5f40 b9c1 9c40
00000050: 64a1 8640 fcf4 9740 83f9 6f40 20c3 8740
00000060: 19c3 ce40 bf3d 9e40 ee22 4c40 df43 9940
00000070: 2335 6540 c99f 5b40 527e 8a40 fc8d 7f40
3.1224885 4.7009196 5.6883883 4.3780046 5.252064 4.7026443 4.4109244 4.7787385
4.6738925 3.8366141 3.809786 5.8137646 4.024045 5.1060343 3.6934357 4.664665
3.8359346 3.29049 3.4942908 4.898648 4.207201 4.7486553 3.749604 4.242569
6.4613156 4.9450374 3.189632 4.789535 3.5813682 3.4316275 4.32792 3.993041

feature_net.layer_norm_1.bias f4 [32]
00000000: ac1d 6a3f 357f 8d3f 39bc f83e 5bbb 87bd
00000010: 6f0c d13e d102 213f c558 dd3e 0286 3d3f
00000020: 2c57 b93e 4c3a ab3f a34e ca3e 1db4 ee3f
00000030: b2a6 513f c7f3 4f3f 9d6a ab3f a0f0 8d3f
00000040: d19e fd3f 18fd 9f3f 9815 8c3f de17 963e
00000050: 6a27 8f3f 3d9b 0840 9457 ba3f 9105 9ebd
00000060: 8196 b5bc 4edf f43f 5fd7 953f 5f50 933e
00000070: 04e7 383f f39d 78be 4f00 103f 3b73 7d3e
0.91451526 1.1054446 0.48581102 -0.06627532 0.408298 0.6289492 0.43231788 0.74032605
0.3619932 1.3377166 0.3951312 1.8648716 0.8189498 0.8123135 1.3391911 1.1089058
1.9814092 1.2499113 1.094409 0.29315084 1.1183903 2.134475 1.4557977 -0.077159055
-0.022166492 1.9130647 1.1706351 0.28772256 0.722275 -0.24279003 0.5625047 0.24750988

feature_net.linear_layer_output.weight f4 [15, 32]
00000000: e958 42c0 97c7 a6bf 5a34 873f 90a5 0640
00000010: 441f 99bf 2b54 ad3f 9e0f b1bd ee41 d23f
00000020: d66b c4be 17da 9a3f 7d6a fabd 1ec6 0b40
00000030: b186 0e40 6f89 8bbf 97ff 523f eb1b 3dbf
00000040: b2ca 723f 54f5 51bf 264a 88bd 2326 a4bf
00000050: e55b 3ebf 7488 9abf a20c 1d40 b728 96c0
00000060: 756e 5f40 2004 5fbe 6dfb 8bbe 94de c73f
00000070: 8c05 aabe 7857 273f f4bd 96be ec3a 7f3f
00000080: f3aa 2e40 5954 99bd fb5f cbbf 977c 8bbf
00000090: 77b0 ddbe 3b40 933f 0732 09c0 0d06 eb3f
000000a0: 622d c03b d7bd 28bf 4f22 eebd 57cf c43e
000000b0: b468 36bf 7958 0abf 9917 9040 0ad8 6b3d
000000c0: 2cdb 5ec0 a8fd 433f ff51 7cbf 7bb6 943f
000000d0: 175a b03f 7043 76bf 7622 8ebf a055 12c0
000000e0: de43 4c3f 77e8 0ebf fa09 56bf 25f9 fabd
000000f0: 2316 febd ee24 6fbe 62cd b3bf a56a 09c0
00000100: 530d 81bf 146f f23e 282b 0fbf a4dc 25be
00000110: 0dd1 cf3d eac7 1c40 3d0d 7a3e e860 d6bf
00000120: cc94 85be 122f dd3d ccba 7a40 79b6 30bf
00000130: dddc ca3e c3c8 62bf b40d 1ac0 de1a 21c0
00000140: 9df9 9f3f f6ef aabf 0fe9 0240 f2e0 46c0
00000150: c479 c3bf 3ca5 6a40 4979 9f3f 0faa 963d
00000160: eb43 1040 2236 32bf 38bd 9b3f ecf5 1dbf
00000170: a6d5 09bf 82d5 4fbf 3cc7 6a40 6200 3140
00000180: 46a2 ff3c 7987 ac3e feb9 363f b655 c13e
00000190: be05 513f 2a5c b13f 19e6 773f 32df 923f
000001a0: 7b98 173e fe98 963f 03fa 673f 1b99 8e3f
000001b0: c699 773f 4de4 b73f 871c 503f a894 3e3f
000001c0: 9fdf 2a3f bb47 d03e f2fe 6f3f 545a 6c3f
000001d0: 166f 4e3f f217 5e3e 451c 773e 1b78 6b3f
000001e0: 4bfe 943f a3b9 7ebe d4e5 1b3f 38ad aa3f
000001f0: 0545 363f 6d09 173f a7e8 153f c362 803f
00000200: 6c4d 81bf 1d77 cb3f 8d5d bdbe ee10 f1be
00000210: 7590 9c3f bbfb a13d 0ce2 a7be 68af 0640
00000220: eed4 c13c 939a 9ebe 98d9 3e40 ff2e 383e
00000230: 070a 4d40 a07b ea3f 7f08 8b3f f0cf 43be
00000240: 5824 a13f f7d9 a6be c65d c23f f0f6 7cbd
00000250: 3059 2c3f 9259 0ac0 8dc5 c03f 1874 893e
00000260: ff44 b73f 62d8 a03f 4f9c 2f40 2829 0840
00000270: 5e80 ee3f ee0f 8dc0 8252 8a3e c958 cc3d
00000280: 20e9 93bf c600 09c0 546d 633e 431b cbbf
00000290: 7725 b6bf d0a4 b73f 0d61 1ac0 361f cdbf
000002a0: 07b3 58c0 ce22 323e aed9 1b3f a821 c53e
000002b0: c09d f13f d9e2 f2be b258 893f a963 0ec0
000002c0: d140 cbbf 042b 41bf 1d92 4bbe e1ea 1b40
000002d0: 2115 4ebe 203e aa3f 3f9f 1240 cc4e 4cbf
000002e0: 4759 ad3f a8f2 af3e a32e 593e 0ed8 0cc0
000002f0: 1ab2 e33f c549 283f 1917 90bf c8ca b53d
00000300: 57c1 5bbe a1c2 82be 0cf1 223f 53de 94bf
00000310: 3616 65bd 70fa 2f3f 78a2 1ec0 3fb6 00c0
00000320: 2e25 c33f 6aec 7fc0 5f5a adbd f533 2abe
00000330: 3dd8 9d3e ffcf 24c0 b5ca f03e e851 d93f
00000340: 0738 0cc0 5828 b1bf 9ee1 f73f a5b9 943f
00000350: 5b64 aebe f170 803f 84af 6c3f 7445 1d40
00000360: db12 0a3f 204e df3f cb29 e9bf 29c7 d43e
00000370: fc29 423f 0f52 ed3f 0d55 bdbf c1f6 0040
00000380: 01b6 583f 56e6 22c0 0187 a13e 0388 aa3f
00000390: 5dd1 7ac0 9095 893e 734c 38be 86b9 cf3e
000003a0: c76b 2e40 e45c 04c0 c065 1540 1379 443e
000003b0: 76cc 9c3f 7f99 083f 222f fd3e d571 b6bf
000003c0: 05e0 61bf 18d1 f3bf e0ee cf3f 7039 30bd
000003d0: ba71 1ebf 11cf e23f 02b7 3f40 d30c b4bf
000003e0: 8b06 5540 be39 0140 cc0f a6bf 963c 823f
000003f0: e574 dcbd 564a ecbf 6697 19bf b240 d5bd
-3.0366766 -1.302966 1.0562851 2.1038551 -1.1962667 1.3541311 -0.08645557 1.642637
-0.38363522 1.2097806 -0.12227342 2.183967 2.226971 -1.0901316 0.8242125 -0.73870724
0.9484054 -0.82014966 -0.06654768 -1.2824138 -0.7435897 -1.2072892 2.453896 -4.69247
3.4911168 -0.21778917 -0.2734026 1.56148 -0.33207357 0.6536784 -0.29441798 0.9969928
2.729184 -0.07486791 -1.5888666 -1.0897397 -0.43298694 1.1503977 -2.1436784 1.8361222
0.005864785 -0.6591467 -0.116276376 0.38439438 -0.71253514 -0.5404125 4.5028806 0.057579078
-3.4821272 0.76558924 -0.98562616 1.1618189 1.3777493 -0.9619665 -1.1104267 -2.2864761
0.7979106 -0.55823463 -0.83608973 -0.12254552 -0.12406566 -0.23353931 -1.4047053 -2.147134
-1.0082191 0.4735037 -0.55925226 -0.16197449 0.10147295 2.4497018 0.24419113 -1.6748323
-0.26090086 0.107999936 3.9176512 -0.6902843 0.3962163 -0.8858759 -2.4070864 -2.5172648
1.2498051 -1.335448 2.0454748 -3.1074796 -1.5271535 3.666335 1.2458888 0.07356655
2.2541454 -0.6961385 1.216712 -0.6170337 -0.53841627 -0.8118516 3.6684103 2.7656484
0.031205308 0.33697107 0.7137755 0.37760705 0.81649387 1.3856251 0.96835476 1.1474364
0.1480426 1.176544 0.9061586 1.1140474 0.96719015 1.4366547 0.8129353 0.7444558
0.6674747 0.40679726 0.9374839 0.9232533 0.80638254 0.21688822 0.24131878 0.9198014
1.1640104 -0.24875502 0.60897565 1.3334112 0.71199065 0.5899876 0.58558124 1.003014
-1.0101752 1.5895725 -0.36985436 -0.4708323 1.2231585 0.07909342 -0.32789648 2.104456
0.023661103 -0.30977306 2.9820309 0.17986678 3.203737 1.8318977 1.0861968 -0.1912229
1.2589216 -0.3258817 1.5184867 -0.061758935 0.6732359 -2.161717 1.5060288 0.26846385
1.4317931 1.2566035 2.7439153 2.127512 1.8632925 -4.4081945 0.27016073 0.09977872
-1.1555519 -2.1406722 0.22209674 -1.5867695 -1.4230183 1.4347172 -2.4121735 -1.602515
-3.385927 0.1739609 0.6087903 0.3850224 1.8876266 -0.47438696 1.0730193 -2.2248328
-1.5879155 -0.7545626 -0.19879957 2.4362109 -0.20125248 1.3300209 2.2909696 -0.79807734
1.354287 0.3436482 0.21209197 -2.200687 1.7788727 0.65737563 -1.1257049 0.08876568
-0.21460472 -0.25539115 0.6364906 -1.1630348 -0.055929385 0.6874151 -2.4786663 -2.0111234
1.5245721 -3.9988046 -0.084645025 -0.16621383 0.3082904 -2.575195 0.47029653 1.6978121
-2.1909196 -1.3840437 1.9365728 1.1619154 -0.3406094 1.0034467 0.92455316 2.457364
0.5393502 1.7445717 -1.8215879 0.41558197 0.75845313 1.8540667 -1.479158 2.0150607
0.84652716 -2.5453086 0.31548312 1.3322757 -3.9190285 0.2687192 -0.17997913 0.4057123
2.7253282 -2.0681696 2.3343353 0.19186811 1.2249897 0.53359216 0.49450022 -1.4253489
-0.8823245 -1.9048185 1.6244774 -0.043023527 -0.6189228 1.7719442 2.995545 -1.4066414
3.3285244 2.0191493 -1.2973571 1.0174739 -0.10764483 -1.8460186 -0.5999664 -0.1041273

feature_net.linear_layer_output.bias f4 [15]
00000000: e849 933d ada8 023f 2a79 a13d bf7b 7f3f
00000010: 4eda 103f 9c5e ffbe 6e24 0dbf 0246 6d3f
00000020: 26cc 4f3e d8aa 823d 0439 5a3e 1ede 1ebf
00000030: 3498 843f 7c49 08be 2f46 fcbe
0.07191831 0.5103863 0.07884438 0.99798197 0.56583107 -0.4987687 -0.5513371 0.9268495
0.2029272 0.06380242 0.21310812 -0.62057674 1.0358949 -0.13309282 -0.49272296
