otk/AgileRL-MATD3/simple_reference_v3/result/20240102-0837/MATD3_trained_agent_0050000.pt (torch, 914522 bytes, 224 tensors)

feature_net.linear_layer_0.weight f4 [32, 21]
-0.30616498 -0.20859468 -3.8919213 -7.483249 -3.0377066 5.7161565 3.835146 4.2999053
6.63021 -1.6137034 0.30125093 -1.782 6.2142367 3.280597 0.5137085 3.7210903
-0.608335 3.2896535 2.387238 5.9511023 3.0188198 0.5033895 -0.17027065 6.4737897
7.476068 -4.427008 -0.17583217 -3.3686583 -3.9670238 14.654815 -4.2068863 -7.1540155
3.9745314 1.4185678 4.0382414 3.943065 2.8473794 4.229604 3.7101474 3.3772104
2.4715953 2.154763 0.9555136 -0.37703505 -3.6491294 -6.8415465 3.2615204 5.413677
1.4564681 7.0739565 -3.8981285 5.9769382 10.191801 2.378212 4.6662035 4.462784
3.879597 1.6757796 3.842586 4.823469 4.123516 5.0111523 1.145315 0.19040458
1.3883706 0.8053213 2.842551 2.9334192 -4.0563107 -2.8277478 -0.38907498 19.499277
-7.979058 1.08997 2.9924252 2.9682043 2.525881 3.1079562 3.0843925 2.3603318
2.7990613 4.0442653 2.8543856 2.7363985 -0.6363401 0.49756962 3.6892838 -6.7546644
-8.06544 6.7650895 2.9960282 -4.614471 10.619969 5.5160837 -3.4507647 3.7810671
3.698768 3.303308 2.7115128 3.801713 3.81088 3.6594732 3.7090857 3.5778954
2.6463373 3.1504674 -2.0617476 -6.90523 3.885587 -1.6232613 -3.773668 -6.8174973
3.928841 1.5925416 8.834715 0.77000415 9.188774 0.7273712 1.9469547 4.712236
4.2282786 4.2160625 2.5526958 4.715138 1.0162756 2.1708643 -0.28188607 0.7960021
0.38296774 0.44729313 -4.8481193 -3.0984097 3.421065 0.30604088 -8.554483 16.463009
-4.884063 2.7429638 3.781002 2.6376472 3.2132306 3.19195 2.8982775 1.7115059
2.663791 3.0928354 3.3008206 0.15260935 -0.20339313 2.2683578 2.1901088 0.7607695
2.9639397 -4.793113 -3.5608726 -7.377704 12.684791 -1.6867712 3.9869983 2.4550729
3.1257713 4.2433434 3.7070687 4.078499 1.97276 3.7109728 3.3160439 2.7864156
-0.21104896 0.7496649 -2.500078 -0.757167 -2.5022793 -1.5517359 4.6977277 2.1394246
-8.368656 -11.137 15.792578 2.9295945 2.6420364 2.8435054 3.8150141 3.120406
3.1861975 3.3390486 3.47466 2.6863317 2.95639 -0.7400677 1.6665194 -6.7547054
10.558108 4.8073936 -4.657895 5.3304586 -3.5464008 1.347419 6.2430186 1.0294527
1.6118567 4.001391 3.3119867 1.9717472 3.3580103 2.5454764 4.6505785 1.9666978
3.3453863 2.664733 0.20342484 1.3343217 3.4982996 -7.335396 -0.9951597 -1.4147259
-2.0945983 8.000215 14.1165085 -1.3669555 -8.349817 3.432804 2.0080717 1.2926371
2.5143886 2.734758 3.3987622 2.062253 2.240486 2.0670257 3.2292411 -0.021134323
0.21789125 0.6422005 0.7705899 -0.158665 3.4460704 -1.5413662 -4.142137 -2.50164
-10.118404 14.122965 4.4518456 3.1321745 3.4636893 3.5897927 3.9367986 4.298087
1.1176115 3.6689599 3.0662947 2.639192 -1.9519904 -0.7697055 -1.3866982 2.3290622
00000000: a8c1 9cbe d899 55be 3d15 79c0 c776 efc0
00000010: c969 42c0 c1ea b640 0873 7540 d398 8940
00000020: ae2a d440 d58d cebf 903d 9a3e 9318 e4bf
00000030: 07db c640 4df5 5140 6682 033f 5826 6e40
00000040: d8bb 1bbf af89 5240 82c8 1840 6e6f be40
00000050: 5834 4140 22de 003f 6e5b 2ebe 4929 cf40
00000060: f33b ef40 0daa 8dc0 590d 34be 1998 57c0
00000070: b8e3 7dc0 1f7a 6a41 d09e 86c0 b2ed e4c0
00000080: b95e 7e40 a193 b53f 4639 8140 2d5b 7c40
00000090: 773b 3640 ea58 8740 0e73 6d40 3724 5840
000000a0: 9e2e 1e40 a3e7 0940 8a9c 743f bd0a c1be
000000b0: 568b 69c0 f3ed dac0 c0bc 5040 d83c ad40
000000c0: 8c6d ba3f da5d e240 f07a 79c0 1443 bf40
000000d0: 9e11 2341 a034 1840 8a51 9540 20cf 8e40
000000e0: 514b 7840 f27f d63f eeec 7540 dc59 9a40
000000f0: d8f3 8340 5c5b a040 af99 923f 6bf9 423e
00000100: 21b6 b13f 8929 4e3f 5bec 3540 24bd 3b40
00000110: 4ccd 81c0 d2f9 34c0 d634 c7be 85fe 9b41
00000120: 7154 ffc0 2384 8b3f e583 3f40 0ff7 3d40
00000130: 09a8 2140 c1e8 4640 b066 4540 ad0f 1740
00000140: d223 3340 9f6a 8140 41ae 3640 2721 2f40
00000150: 2fe7 22bf 72c1 fe3e 3a1d 6c40 3626 d8c0
00000160: 0b0c 01c1 9d7b d840 edbe 3f40 bfa9 93c0
00000170: 65eb 2941 c283 b040 54d9 5cc0 01fd 7140
00000180: 9db8 6c40 6669 5340 6d89 2d40 444f 7340
00000190: 75e5 7340 cf34 6a40 a961 6d40 3dfc 6440
000001a0: 975d 2940 42a1 4940 acf3 03c0 a5f7 dcc0
000001b0: 75ad 7840 07c7 cfbf c783 71c0 f028 dac0
000001c0: 2272 7b40 67d8 cb3f fe5a 0d41 fe1e 453f
000001d0: 3805 1341 0035 3a3f d035 f93f a3ca 9640
000001e0: 0f4e 8740 fce9 8640 5e5f 2340 69e2 9640
000001f0: 5215 823f 71ef 0a40 5f53 90be cbc6 4b3f
00000200: 5914 c43e 9b03 e53e cb23 9bc0 584c 46c0
00000210: bbf2 5a40 64b1 9c3e 2adf 08c1 3eb4 8341
00000220: 3e4a 9cc0 b88c 2f40 f0fb 7140 36cf 2840
00000230: 92a5 4d40 e948 4c40 617d 3940 a012 db3f
00000240: 8d7b 2a40 04f1 4540 a540 5340 a045 1c3e
00000250: 4a46 50be c62c 1140 be2a 0c40 cac1 423f
00000260: 30b1 3d40 2f61 99c0 56e5 63c0 2716 ecc0
00000270: e7f4 4a41 1ee8 d7bf fb2a 7f40 ea1f 1d40
00000280: a30c 4840 78c9 8740 9d40 6d40 1083 8240
00000290: 6683 fc3f 9480 6d40 103a 5440 a254 3240
000002a0: 381d 58be 0aea 3f3f 4701 20c0 b2d5 41bf
000002b0: 5825 20c0 489f c6bf c953 9640 55ec 0840
000002c0: 04e6 05c1 2731 32c1 66ae 7c41 7a7e 3b40
000002d0: 2017 2940 fefb 3540 3129 7440 bbb4 4740
000002e0: a9ea 4b40 f9b2 5540 d460 5e40 dcec 2b40
000002f0: 7e35 3d40 1475 3dbf 8250 d53f 8c26 d8c0
00000300: 03ee 2841 2bd6 9940 7a0d 95c0 1e93 aa40
00000310: 3bf8 62c0 3a78 ac3f cfc6 c740 1bc5 833f
00000320: 5251 ce3f 650b 8040 97f7 5340 3662 fc3f
00000330: a4e9 5640 16e9 2240 8ad1 9440 c1bc fb3f
00000340: cf1a 5640 fc8a 2a40 9a4e 503e 0ecb aa3f
00000350: 24e4 5f40 90bb eac0 c9c2 7ebf bd15 b5bf
00000360: e60d 06c0 e100 0041 38dd 6141 66f8 aebf
00000370: da98 05c1 10b3 5b40 3f84 0040 2275 a53f
00000380: beeb 2040 4606 2f40 5285 5940 f4fb 0340
00000390: 1f64 0f40 264a 0440 e3ab 4e40 e321 adbc
000003a0: e21e 5f3e 4167 243f 6145 453f 1479 22be
000003b0: 6b8c 5c40 7d4b c5bf 638c 84c0 df1a 20c0
000003c0: fce4 21c1 aaf7 6141 8575 8e40 8c75 4840
000003d0: 16ad 5d40 2abf 6540 82f4 7b40 ee89 8940
000003e0: e50d 8f3f 3dd0 6a40 2c3e 4440 86e8 2840
000003f0: d2da f9bf 6b0b 45bf 547f b1bf 5b0f 1540

feature_net.linear_layer_0.bias f4 [32]
2.3666685 3.3031435 4.7931995 6.059918 4.513782 4.0042896 2.5194457 2.7738168
2.5145586 3.7744172 3.398621 2.8085277 1.3772571 2.7221713 3.2493827 2.8071733
4.4155464 2.553685 2.793511 2.8492289 3.703598 2.6295638 4.661236 2.7436168
2.0609713 2.5040197 3.9157286 3.1256387 1.2951206 1.663282 1.4064785 4.446692
00000000: 7f77 1740 b466 5340 e461 9940 d9ea c140
00000010: e770 9040 2423 8040 993e 2140 3786 3140
00000020: 87ee 2040 0d90 7140 0283 5940 ebbe 3340
00000030: f649 b03f 0e38 2e40 e3f5 4f40 baa8 3340
00000040: 284c 8d40 936f 2340 e2c8 3240 c459 3640
00000050: c007 6d40 c64a 2840 d828 9540 6b97 2f40
00000060: f4e6 0340 dc41 2040 4c9b 7a40 770a 4840
00000070: 83c6 a53f 6de6 d43f 7d07 b43f 4d4b 8e40

feature_net.layer_norm_0.weight f4 [32]
0.19187663 8.359327 2.8773088 7.9104576 5.1665926 3.2814813 17.118233 7.506571
15.113974 4.3987365 4.389457 9.979548 5.387927 9.554732 3.8230975 11.204025
6.482944 0.28176308 0.20065767 2.378712 2.8632624 2.767451 3.3132043 14.990178
6.1791472 0.23477 8.566054 8.1312065 7.7091594 6.546714 6.822256 3.6162746
00000000: 4f7b 443e cebf 0541 d425 3840 7822 fd40
00000010: ba54 a540 ca03 5240 24f2 8841 d435 f040
00000020: d6d2 7141 73c2 8c40 6f76 8c40 3bac 1f41
00000030: e669 ac40 2fe0 1841 a1ad 7440 b043 3341
00000040: 4774 cf40 4043 903e 3479 4d3e d13c 1840
00000050: b13f 3740 eb1d 3140 8a0b 5440 c5d7 6f41
00000060: 93bb c540 8c67 703e 8f0e 0941 6c19 0241
00000070: 6fb1 f640 ae7e d140 ec4f da40 0b71 6740

feature_net.layer_norm_0.bias f4 [32]
-0.6945478 2.916103 3.7254329 0.5478039 1.0599499 -0.99370056 -0.32886145 1.4142748
1.2794627 2.152252 0.7553933 -0.5879434 2.6071258 1.0423152 2.632417 0.8624303
0.42280135 -0.7684201 -0.8128978 1.3393106 0.38679558 1.8600467 -1.3060521 1.1667703
1.154821 -0.9329777 0.7777756 0.5559444 -0.5244558 1.7760066 -0.70148444 3.9061842
00000000: e2cd 31bf 6ea1 3a40 7e6d 6e40 e03c 0c3f
00000010: 70ac 873f 2963 7ebf 8760 a8be f506 b53f
00000020: 6fc5 a33f 7fbe 0940 7561 413f 7583 16bf
00000030: 26db 2640 966a 853f 8579 2840 3bc8 5c3f
00000040: 6b79 d83e 2eb7 44bf 121a 50bf 886e ab3f
00000050: 120a c63e 0316 ee3f b72c a7bf bb58 953f
00000060: 2dd1 933f a0d7 6ebf 4d1c 473f 5f52 0e3f
00000070: bc42 06bf 2f54 e33f 7c94 33bf ecfe 7940

feature_net.linear_layer_1.weight f4 [32, 32]
1.7689518 -3.038534 -0.18989128 3.9635715 -1.7919179 5.934662 2.6337914 6.269825
-3.1226737 4.973123 7.525115 0.010045828 8.22677 12.589266 2.24288 -4.776113
-6.6940165 0.060756717 -0.5862361 8.68006 2.0463092 5.2074475 -5.953019 4.983226
4.453129 0.6879578 3.9756386 7.5930543 -2.5496438 2.271948 0.88229805 -1.385341
-0.18326691 -6.4089246 2.1583135 -1.9631073 3.4980128 5.7378654 3.2536108 2.3760202
0.93871945 -3.7995691 -2.0142968 -8.079813 -3.98576 3.4813867 -4.3694954 7.012331
-7.0399656 -0.16945173 0.7403427 6.8918324 6.681612 4.8782587 -0.52595866 4.162554
1.9777786 -0.0019404694 5.2717905 -5.829302 -2.2142112 -0.7827416 12.944256 1.4239995
1.6127373 5.949234 3.9041574 3.4467292 12.114647 5.600302 23.681826 6.550176
-2.1919706 17.732204 6.835458 -7.875012 9.514292 15.106439 7.994238 -3.5750225
-6.399557 -0.03422442 -0.89917374 7.735019 1.7033035 10.567462 7.4465814 13.002793
3.7864342 -0.20806374 10.597268 3.56169 6.6058197 5.0071235 7.652593 13.502983
1.7465211 6.071979 3.855961 4.0792665 11.959183 5.943818 23.383924 6.4949794
-2.1839101 17.368347 7.3129463 -7.7054353 9.029268 14.707872 8.078936 -3.6068919
-6.305401 0.13098496 -0.8679081 8.140994 1.7987758 10.498762 7.7349205 13.052866
4.468782 0.30746388 11.035543 3.396274 6.795512 4.9910927 8.2667055 13.826054
0.20728263 2.4116938 2.771057 3.7352295 -2.712828 -6.337157 3.8042283 8.79805
1.9541819 6.502532 -2.0124588 -1.4425119 1.9356949 -0.17729768 12.459182 1.3591729
-0.79111016 1.0631267 0.31706724 -1.1374449 -8.348308 3.3348374 -0.072766565 2.107671
2.2173939 -0.081406675 1.1517805 -1.3806968 4.847577 4.9941697 -9.061405 -1.5961047
4.478684 5.0907607 5.848977 0.99065995 -2.412502 4.5553765 0.09088412 4.2075663
1.6906017 2.5539327 0.837171 -4.4881086 0.8238407 0.64699334 2.1938279 6.303951
5.4212713 0.5068633 0.03362843 -6.9380302 0.8022241 -8.343395 3.8473957 2.3656406
1.6284629 0.26385906 -1.8095917 -0.6297881 17.221922 -3.167179 -3.0624466 15.01684
0.7367323 8.408981 -4.8926773 7.168986 2.116296 0.9877163 3.8984795 -6.233526
-9.451925 1.2719824 3.2015624 -2.9435785 4.999521 -1.9547813 2.3699346 -0.37273565
2.292579 -0.7339826 0.69046354 -3.0212388 2.856296 4.2316103 2.5125887 -5.933986
5.3038297 -0.19560722 -0.8668841 -7.686073 2.6868618 5.185997 -1.2226769 3.3555279
2.6222456 -3.0747335 4.4900837 -8.669213 5.5640197 4.8570457 9.044843 11.57707
-4.793685 -3.708016 -0.009836953 -6.9021745 -1.4366047 2.2387702 2.1170454 -8.827225
-1.8335932 0.061645154 0.30458674 4.902349 1.3757772 0.678501 -3.7236278 9.450128
9.857111 0.3673514 -1.0733745 1.6050732 -1.5773996 -3.0044875 0.9564194 2.1428561
00000000: 036d e23f 5777 42c0 dc72 42be 28ab 7d40
00000010: 915d e5bf c0e8 bd40 0a90 2840 68a2 c840
00000020: e3d9 47c0 d323 9f40 becd f040 4297 243c
00000030: daa0 0341 a26d 4941 598b 0f40 ebd5 98c0
00000040: 6235 d6c0 09dc 783d 9213 16bf 87e1 0a41
00000050: bbf6 0240 69a3 a640 227f bec0 9676 9f40
00000060: 0880 8e40 011e 303f dd70 7e40 4dfa f240
00000070: 5d2d 23c0 9967 1140 49de 613f db52 b1bf
00000080: 52aa 3bbe e915 cdc0 cf21 0a40 1a47 fbbf
00000090: 71df 5f40 989c b740 293b 5040 b710 1840
000000a0: eb4f 703f 242c 73c0 3dea 00c0 ea46 01c1
000000b0: b116 7fc0 0acf 5e40 e8d2 8bc0 0465 e040
000000c0: 6647 e1c0 c184 2dbe 1987 3d3f e489 dc40
000000d0: c4cf d540 b21a 9c40 3aa5 06bf a433 8540
000000e0: d927 fd3f 5957 feba 82b2 a840 a489 bac0
000000f0: a3b5 0dc0 c161 48bf ac1b 4f41 9e45 b63f
00000100: 2d6e ce3f 2060 be40 b7dd 7940 3697 5c40
00000110: 98d5 4141 ad35 b340 6174 bd41 0b9b d140
00000120: 3f49 0cc0 8edb 8d41 12bc da40 1900 fcc0
00000130: 8a3a 1841 f9b3 7141 ccd0 ff40 2bcd 64c0
00000140: 2cc9 ccc0 e82e 0cbd 4030 66bf 4785 f740
00000150: d905 da3f 5314 2941 654a ee40 710b 5041
00000160: f054 7240 a90e 55be 698e 2941 bbf2 6340
00000170: e062 d340 5b3a a040 0be2 f440 380c 5841
00000180: 018e df3f a74d c240 11c8 7640 5a89 8240
00000190: d058 3f41 c233 be40 4712 bb41 dfd6 cf40
000001a0: 2fc5 0bc0 60f2 8a41 a803 ea40 ed92 f6c0
000001b0: e277 1041 7253 6b41 5243 0141 51d7 66c0
000001c0: d8c5 c9c0 ec20 063e 3a2f 5ebf 8341 0241
000001d0: 493e e63f eefa 2741 7884 f740 8ad8 5041
000001e0: 4300 8f40 e86b 9d3e 9691 3041 8e5c 5940
000001f0: d674 d940 08b7 9f40 6d44 0441 8437 5d41
00000200: e641 543e 3159 1a40 ff58 3140 000e 6f40
00000210: f99e 2dc0 fdc9 cac0 7a78 7340 d0c4 0c41
00000220: a222 fa3f be14 d040 20cc 00c0 3ba4 b8bf
00000230: dac4 f73f 868d 35be cf58 4741 61f9 ad3f
00000240: 3286 4abf 8914 883f a356 a23e cb97 91bf
00000250: ab92 05c1 fa6d 5540 a306 95bd 15e4 0640
00000260: c8e9 0d40 8bb8 a6bd 8b6d 933f acba b0bf
00000270: 5a1f 9b40 3dd0 9f40 84fb 10c1 294d ccbf
00000280: 6151 8f40 83e7 a240 d22a bb40 e49b 7d3f
00000290: 6f66 1ac0 a5c5 9140 7421 ba3d 62a4 8640
000002a0: a365 d83f a273 2340 d750 563f 969e 8fc0
000002b0: 39e7 523f 5ba1 253f ad67 0c40 f7b9 c940
000002c0: 0e7b ad40 cbc1 013f f7bd 093d 5804 dec0
000002d0: 8f5e 4d3f 8c7e 05c1 bb3b 7640 a866 1740
000002e0: 7971 d03f 8918 873e b3a0 e7bf cb39 21bf
000002f0: 7fc6 8941 10b3 4ac0 20ff 43c0 fa44 7041
00000300: 7d9a 3c3f 308b 0641 d090 9cc0 5568 e540
00000310: 6571 0740 fada 7c3f b080 7940 0c79 c7c0
00000320: 163b 17c1 52d0 a23f 66e6 4c40 9763 3cc0
00000330: 13fc 9f40 4636 fabf 02ad 1740 35d7 bebe
00000340: 9db9 1240 49e6 3bbf 38c2 303f fa5b 41c0
00000350: 8ecd 3640 5a69 8740 41ce 2040 37e3 bdc0
00000360: f9b8 a940 424d 48be 1eec 5dbf 4ff4 f5c0
00000370: 8bf5 2b40 b0f3 a540 ad80 9cbf f8c0 5640
00000380: dfd2 2740 6fc8 44c0 c4ae 8f40 19b5 0ac1
00000390: 730c b240 eb6c 9b40 adb7 1041 ae3b 3941
000003a0: de65 99c0 2250 6dc0 2c2b 21bc 9dde dcc0
000003b0: aae2 b7bf 0348 0f40 ac7d 0740 503c 0dc1
000003c0: 2fb3 eabf a17f 7c3d cbf2 9b3e 0be0 9c40
000003d0: 7819 b03f 3eb2 2d3f eb4f 6ec0 b933 1741
000003e0: bab6 1d41 7c15 bc3e 5664 89bf 0a73 cd3f
000003f0: 3be8 c9bf 8649 40c0 e7d7 743f 8e24 0940

feature_net.linear_layer_1.bias f4 [32]
4.3896985 1.0306617 11.200243 11.563072 0.2665157 5.340215 2.7130806 1.5510421
2.5660036 0.5552596 3.7888236 2.5656555 4.464383 10.790354 9.755224 1.092005
6.3476334 2.5414424 1.4522209 9.83662 2.624055 3.6522384 0.88875055 4.696699
3.0643501 1.6614797 3.2897692 1.037521 9.848307 6.4228306 3.8516815 2.4996092
00000000: 6978 8c40 b9ec 833f 3234 3341 5802 3941
00000010: bf74 883e 0be3 aa40 1da3 2d40 8c88 c63f
00000020: 6739 2440 7e25 0e3f 167c 7240 b333 2440
00000030: 3adc 8e40 4aa5 2c41 6615 1c41 d2c6 8b3f
00000040: d01f cb40 fea6 2240 60e2 b93f cc62 1d41
00000050: 84f0 2740 46be 6940 2885 633f 5c4b 9640
00000060: 501e 4440 5eab d43f 948b 5240 7dcd 843f
00000070: aa92 1d41 d487 cd40 f381 7640 99f9 1f40

feature_net.layer_norm_1.weight f4 [32]
6.0003915 7.2331185 0.24811324 0.30907333 4.4266343 9.746881 8.4338255 10.379446
3.3754032 13.124294 7.9065623 10.650447 6.3415027 0.26861385 0.3483922 6.6262484
7.2028127 4.308342 9.867647 0.31781447 10.21819 6.778545 3.0270975 7.578001
8.339941 8.726902 14.200956 6.1454964 0.275418 6.697313 6.0602517 6.58238
00000000: 3503 c040 b575 e740 6611 7e3e dc3e 9e3e
00000010: fda6 8d40 39f3 1b41 f3f0 0641 3612 2641
00000020: 9b06 5840 1cfd 5141 8f02 fd40 3b68 2a41
00000030: 97ed ca40 c187 893e 7660 b23e 3a0a d440
00000040: 717d e640 f0dd 8940 e2e1 1d41 94b8 a23e
00000050: b57d 2341 d7e9 d840 f7bb 4140 fc7e f240
00000060: 6670 0541 64a1 0b41 1e37 6341 e8a7 c440
00000070: 9703 8d3e 6350 d640 95ed c140 dba2 d240

feature_net.layer_norm_1.bias f4 [32]
1.5601066 1.6199174 -0.7505241 -0.7722115 3.95797 4.841977 2.5170658 3.325455
4.832902 1.7397448 0.7169595 3.3183932 3.8867831 -0.7092197 -0.7095696 0.78677803
3.2913325 2.4492137 3.632813 -0.6569045 2.4259229 3.6013443 2.5860085 2.2539818
1.7474908 1.8805219 2.8528514 -0.25121644 -0.69525385 3.3238895 1.8085691 2.4747238
00000000: 93b1 c73f 7459 cf3f 5922 40bf a7af 45bf
00000010: 614f 7d40 7af1 9a40 9b17 2140 41d4 5440
00000020: 22a7 9a40 f5af de3f a88a 373f 8e60 5440
00000030: 0ec1 7840 6c8f 35bf 5aa6 35bf 496a 493f
00000040: 31a5 5240 ebbf 1c40 0280 6840 e52a 28bf
00000050: 5242 1b40 6d7c 6640 2a81 2540 3d41 1040
00000060: c7ad df3f f1b4 f03f 1e95 3640 719f 80be
00000070: 28fc 31bf 9bba 5440 317f e73f e061 1e40

feature_net.linear_layer_output.weight f4 [15, 32]
5.8120594 -4.5988755 0.031343017 -0.39737833 -0.5269455 1.1802828 1.97241 -5.5574517
6.107941 -2.782749 -1.8723269 1.469325 3.3557713 0.036196366 0.060706645 0.6981345
0.082581654 2.69413 1.2047589 -0.9341515 6.340083 2.5825303 2.894681 -4.020314
2.7565837 2.320293 0.043557342 18.453838 0.032888785 -3.0732303 -5.9488893 -3.3465378
-4.0607123 -3.2107992 -0.3808581 -0.28802586 11.449438 0.4356142 -1.090572 0.0478934
-2.9510436 5.2368083 -0.027140642 1.7124712 -9.833317 0.04904096 0.0686643 4.01055
-0.027528465 3.6660266 -0.9314641 0.5148187 0.6876921 1.4030178 -0.10883222 1.8263842
-4.825349 -0.3650978 -2.37404 -0.9735713 0.25951138 4.9743805 -6.090458 -3.2612686
1.8336675 5.8228416 -0.33602634 -0.27562425 -7.0126023 0.3404085 5.151909 -0.43850008
-2.1809647 1.4704794 0.68803 -0.27413124 8.51505 0.5439876 0.24112889 -2.9568965
3.3579025 -4.2600923 -2.1498444 -0.32535467 -2.6417847 -0.06363387 -2.3213332 0.8859285
7.9863367 2.8229895 -5.40355 -0.010801438 -0.15681487 -5.5618615 3.7073834 -2.2793777
-3.9299495 -7.3621187 -0.16862886 0.60249865 1.5971742 13.300739 1.2839388 -0.7111382
1.5739176 0.7486635 -0.7104133 1.2004882 1.8130779 0.001612309 0.015526547 -8.567355
-0.11500386 5.88842 0.41727066 -0.4813281 -0.8825267 -0.95296973 -5.2061567 2.1058307
-4.595169 0.29689732 -1.4611231 -4.3958526 0.39181778 -2.0397916 -4.2845984 0.24714914
5.22695 3.6425173 -0.08312601 0.023715055 2.6090746 -10.570146 -0.22725585 0.8280836
2.7048178 2.2160563 7.986721 2.0934997 -0.46770614 0.11882949 -0.18225285 6.6193304
-1.2355921 -6.9443955 3.3562415 -0.86481553 3.4110389 -2.752628 8.639048 -3.610552
4.862782 4.2656813 2.9381204 1.4293686 0.3623419 2.9943576 2.3207963 3.0581636
4.4123025 0.26168 -0.3082312 -0.2982739 -0.14658007 0.0471251 -0.8559906 -4.135333
0.53695357 -5.092757 3.1067016 -2.8744905 0.976444 0.1624898 0.10818643 -0.38684645
3.7572808 -0.5583761 0.7702613 -0.87458956 -7.5207877 2.808919 -3.2680378 2.1339996
-2.2476501 -3.6636255 -1.5514783 1.2236487 -0.1479625 2.9529288 -1.0710757 1.9960191
1.0778253 -0.72944134 0.14668523 -0.0059704743 0.83865297 0.4050584 0.5234444 -1.9920162
-0.097377166 0.3651921 -1.0826913 -0.8196252 -0.96149164 -0.07355757 0.0316327 0.8714166
-0.5096469 1.0275407 -0.17225201 -0.22296713 -0.9567271 -0.13841392 0.5170208 -0.9062226
-0.0008250687 -2.148254 0.695708 2.0651865 -0.18932702 -0.7883041 0.7379905 -0.88461286
2.50818 -0.6332924 -0.16392887 -0.07125551 -1.2063214 -1.0400801 -1.8437788 -5.896155
-1.0197368 -7.401274 2.6213999 1.0448741 0.7009876 0.015762907 0.72918993 2.7113156
1.3289064 1.3538071 -3.6104965 0.032610115 -4.2251906 2.586252 0.7082555 3.4781594
2.0269551 -4.659313 3.6302786 2.0072641 0.27556685 1.8820063 0.7872355 0.8332878
00000000: 64fc b940 fd29 93c0 8961 003d 2c75 cbbe
00000010: e6e5 06bf 8213 973f ee77 fc3f a5d6 b1c0
00000020: 4174 c340 8f18 32c0 68a8 efbf d712 bc3f
00000030: f5c4 5640 a442 143d 88a7 783d f1b8 323f
00000040: 9220 a93d a06c 2c40 8a35 9a3f 8d24 6fbf
00000050: f6e1 ca40 2d48 2540 7442 3940 6aa6 80c0
00000060: de6b 3040 ae7f 1440 2f69 323d 76a1 9341
00000070: 64b6 063d ceaf 44c0 4d5d bec0 ad2d 56c0
00000080: 5bf1 81c0 bc7d 4dc0 d5ff c2be 2078 93be
00000090: e630 3741 d308 df3e dd97 8bbf df2b 443d
000000a0: e6dd 3cc0 ef93 a740 0d56 debc 4232 db3f
000000b0: 4455 1dc1 2cdf 483d de9f 8c3d 6d56 8040
000000c0: 6083 e1bc 2ea0 6a40 6e74 6ebf 29cb 033f
000000d0: 970c 303f 1696 b33f 6de3 debd f5c6 e93f
000000e0: 4269 9ac0 19ee babe 45f0 17c0 f83b 79bf
000000f0: adde 843e 202e 9f40 08e5 c2c0 a0b8 50c0
00000100: 9eb5 ea3f b854 ba40 a50b acbe 9f1e 8dbe
00000110: 3d67 e0c0 064a ae3e 70dc a440 1583 e0be
00000120: ed94 0bc0 ab38 bc3f bc22 303f ee5a 8cbe
00000130: a53d 0841 c542 0b3f 7eea 763e cb3d 3dc0
00000140: e0e7 5640 ad52 88c0 0d97 09c0 e394 a6be
00000150: 0013 29c0 7952 82bd b990 14c0 36cc 623f
00000160: 1290 ff40 dcab 3440 e2e9 acc0 84f8 30bc
00000170: 1494 20be c5fa b1c0 c545 6d40 53e1 11c0
00000180: 4b84 7bc0 7a96 ebc0 0bad 2cbe 5a3d 1a3f
00000190: 3470 cc3f d4cf 5441 1b58 a43f 270d 36bf
000001a0: 2276 c93f 69a8 3f3f a5dd 35bf 99a9 993f
000001b0: f012 e83f 1d54 d33a 0f63 7e3c e313 09c1
000001c0: 2587 ebbd f06d bc40 80a4 d53e a370 f6be
000001d0: 45ed 61bf d3f5 73bf d698 a6c0 eec5 0640
000001e0: a00b 93c0 ed02 983e 1506 bbbf d3aa 8cc0
000001f0: 579c c83e f28b 02c0 6e1b 89c0 aa14 7d3e
00000200: 2d43 a740 011f 6940 f83d aabd 1346 c23c
00000210: 14fb 2640 511f 29c1 c2b5 68be 49fd 533f
00000220: bc1b 2d40 ded3 0d40 3893 ff40 e6fb 0540
00000230: 2e77 efbe e05c f33d 7ea0 3abe 8ed1 d340
00000240: e227 9ebf 7d38 dec0 a9cc 5640 8d64 5dbf
00000250: 764e 5a40 0f2b 30c0 8a39 0a41 4913 67c0
00000260: e99b 9b40 7680 8840 2a0a 3c40 8df5 b63f
00000270: e184 b93e 8ea3 3f40 ed87 1440 f4b8 4340
00000280: 9531 8d40 ecfa 853e 7bd0 9dbe 5bb7 98be
00000290: 1619 16be 4006 413d 3322 5bbf a654 84c0
000002a0: ca75 093f def7 a2c0 33d4 4640 a7f7 37c0
000002b0: 3cf8 793f ba63 263e d990 dd3d bd10 c6be
000002c0: 4a77 7040 bcf1 0ebf d82f 453f 1ae5 5fbf
000002d0: 4baa f0c0 54c5 3340 8827 51c0 7393 0840
000002e0: 80d9 0fc0 d778 6ac0 d796 c6bf 85a0 9c3f
000002f0: 7b83 17be c9fc 3c40 0219 89bf 8e7d ff3f
00000300: 2ef6 893f abbc 3abf a734 163e f8a3 c3bb
00000310: f6b1 563f d163 cf3e 7400 063f 63fa febf
00000320: ae6d c7bd 75fa ba3e a195 8abf f5d2 51bf
00000330: 5124 76bf 5aa5 96bd 4a91 013d 2915 5f3f
00000340: 3878 02bf 7486 833f d562 30be 7f51 64be
00000350: 11ec 74bf 61bc 0dbe 7a5b 043f 34fe 67bf
00000360: 6c49 58ba fe7c 09c0 eb19 323f 042c 0440
00000370: f1de 41be 4cce 49bf f2ec 3c3f fd75 62bf
00000380: 0586 2040 731f 22bf f8dc 27be 69ee 91bd
00000390: bd68 9abf 5821 85bf f200 ecbf 4dad bcc0
000003a0: bc86 82bf 3dd7 ecc0 04c5 2740 6fbe 853f
000003b0: ec73 333f 3621 813c 31ac 3a3f 3286 2d40
000003c0: 9b19 aa3f 8d49 ad3f 6012 67c0 2f92 053d
000003d0: c334 87c0 2785 2540 3c50 353f 2a9a 5e40
000003e0: a2b9 0140 1819 95c0 7c56 6840 0477 0040
000003f0: 1917 8d3e 95e5 f03f 4488 493f 5952 553f

feature_net.linear_layer_output.bias f4 [15]
0.48405313 2.7720733 3.2062552 -0.6981414 0.38451263 -0.8343497 0.17271164 -0.006880695
0.21335657 0.54631484 -1.40722 -0.45687833 0.5125372 1.7728076 0.62938976
00000000: d0d5 f73e a669 3140 4933 4d40 65b9 32bf
00000010: d7de c43e f197 55bf 52db 303e 7477 e1bb
00000020: 257a 5a3e 4adb 0b3f c91f b4bf f5eb e9be
00000030: a335 033f 5ceb e23f b01f 213f

feature_net.linear_layer_0.weight f4 [32, 21]
-0.7257367 5.0169387 3.8693285 -1.8986186 -7.4719963 3.9984925 4.403648 -1.5237916
-1.7888136 15.596613 -5.4181385 4.465625 5.494315 2.580803 7.336479 5.0803375
6.048421 4.0927167 7.222949 5.6948943 6.3040366 -0.3159733 5.019137 2.7610135
0.71104753 3.0241125 2.187523 -6.5767064 -4.0512075 -4.43338 -1.0124553 13.2293215
4.703846 6.625906 3.286432 7.438936 4.7441487 4.458674 6.3779206 5.733344
6.377997 7.1625843 0.5490676 3.2575238 7.7058334 2.4207978 -3.9922779 0.54394805
-0.762579 -0.15160762 18.207453 -4.4144526 -6.731413 5.189329 5.9873075 4.1408353
4.121358 5.9164834 6.122193 6.0611863 4.084296 6.475229 5.7199264 -1.1078373
-5.4010935 0.06014259 12.354341 -1.4951835 7.4817996 -2.0011754 8.701422 12.795332
4.359518 3.5849624 -2.5532496 10.147606 -4.7057223 1.0763811 11.663764 6.5375156
6.1093564 7.2697806 9.877776 7.3784604 -1.1637998 2.1800165 -0.4399394 -3.1142378
0.36834708 7.083567 1.3046428 -1.9734765 -7.10968 16.489548 -6.4591513 5.071124
7.010188 3.6986744 4.6205325 5.715766 5.332728 4.8285246 6.442238 7.4208293
5.6321115 0.23757175 4.0723877 1.3505524 -2.472346 3.6460464 0.050757505 -4.72051
2.9849887 -4.6576085 -6.5543513 16.497627 5.983838 6.8084173 3.3944361 6.0047297
4.853595 5.4666543 4.4600196 5.912103 6.2483516 5.7049456 0.21711403 3.704387
-7.173909 0.7753119 5.6506987 0.48081133 2.2126052 -0.5764786 -8.643147 11.760219
8.1525955 3.943425 7.1386957 2.336989 4.7646303 6.4993834 7.332004 5.799127
6.7373176 6.3920474 5.5221086 -2.8837044 5.4136806 7.3992825 5.6211534 -1.1670735
-1.9298079 -0.93289506 -3.019348 12.065622 -3.505299 -3.746308 4.129241 6.325033
5.6082873 4.415858 4.83272 4.8183103 6.8661175 6.723302 6.763571 4.0117173
-0.11699182 3.7571921 -2.5359855 -7.271806 4.4028525 -1.4731715 6.5936284 3.924637
9.416668 0.8521228 10.562138 4.713546 5.75109 4.6800776 2.1352682 4.006524
2.924866 9.126182 0.9710131 5.808171 3.7955523 0.3260216 2.774372 -1.8422532
3.7497897 0.023612898 2.7375429 2.4250016 -6.1139603 -6.7499404 -5.618247 17.041979
5.934407 6.0974636 4.8195796 5.505406 5.284159 5.598745 4.9418235 5.3399186
6.0981374 5.469901 0.4320282 0.09458231 -0.178521 3.3250928 0.7720378 5.96539
1.8451972 6.51901 2.8353817 6.625848 7.344628 -0.02453799 9.387491 -3.5874667
2.3893251 8.673371 3.8875315 6.4000545 5.9368057 9.255717 6.6983085 -0.04076377
3.344558 -1.0218847 -1.4047128 -1.7216514 -4.7432604 4.9055514 9.683861 8.366123
-11.407936 10.846531 4.0890007 6.830157 4.6392164 3.267277 4.581445 5.2639937
6.786003 5.0951843 7.605522 7.2598443 -0.012015268 5.8523617 -1.0760086 -3.9686685
00000000: e1c9 39bf c38a a040 14a3 7740 ef05 f3bf
00000010: 981a efc0 4de7 7f40 afea 8c40 9a0b c3bf
00000020: d8f7 e4bf ba8b 7941 6461 adc0 66e6 8e40
00000030: 6ed1 af40 e02b 2540 70c4 ea40 2092 a240
00000040: aa8c c140 89f7 8240 6622 e740 933c b640
00000050: abba c940 41c7 a1be c59c a040 72b4 3040
00000060: 3607 363f 0f8b 4140 6000 0c40 6174 d2c0
00000070: 7ea3 81c0 40de 8dc0 2398 81bf 4dab 5341
00000080: e885 9640 6c07 d440 e754 5240 c40b ee40
00000090: 11d0 9740 75ad 8e40 ed17 cc40 8e77 b740
000000a0: 8d18 cc40 e433 e540 b28f 0c3f 457b 5040
000000b0: 3096 f640 5aee 1a40 7b81 7fc0 2e40 0b3f
000000c0: 6138 43bf 073f 1bbe dda8 9141 3243 8dc0
000000d0: bc67 d7c0 fc0e a640 0698 bf40 b981 8440
000000e0: 2ae2 8340 d553 bd40 01e9 c340 3df5 c140
000000f0: 8eb2 8240 1335 cf40 a309 b740 9dcd 8dbf
00000100: c2d5 acc0 1458 763d 61ab 4541 2c62 bfbf
00000110: e76a ef40 4213 00c0 0639 0b41 aeb9 4c41
00000120: 2c81 8b40 0670 6540 7168 23c0 985c 2241
00000130: 4795 96c0 dbc6 893f c79e 3a41 5433 d140
00000140: d97f c340 0ba2 e840 5f0b 1e41 591c ec40
00000150: 64f7 94bf 6485 0b40 bd3f e1be ac4f 47c0
00000160: fd97 bc3e 95ac e240 89fe a63f e19a fcbf
00000170: 8082 e3c0 98ea 8341 5eb1 cec0 a646 a240
00000180: 7653 e040 15b7 6c40 67db 9340 8ee7 b640
00000190: b5a5 aa40 4683 9a40 d026 ce40 6f77 ed40
000001a0: 423a b440 0246 733e 0051 8240 e7de ac3f
000001b0: eb3a 1ec0 d358 6940 1ae7 4f3d 6b0e 97c0
000001c0: 0e0a 3f40 210b 95c0 3fbd d1c0 24fb 8341
000001d0: 9a7b bf40 8ede d940 713e 5940 bf26 c040
000001e0: a650 9b40 d5ee ae40 7bb8 8e40 f32f bd40
000001f0: 7ff2 c740 ea8e b640 2453 5e3e ad14 6d40
00000200: aa90 e5c0 d77a 463f 86d2 b440 e72c f63e
00000210: 539b 0d40 1a94 13bf 554a 0ac1 db29 3c41
00000220: 0871 0241 1361 7c40 3270 e440 3a91 1540
00000230: da77 9840 f3fa cf40 c79f ea40 7392 b940
00000240: 1b98 d740 a78b cc40 1db5 b040 9d8e 38c0
00000250: df3c ad40 ecc6 ec40 7de0 b340 aa62 95bf
00000260: f203 f7bf 36d2 6ebf ff3c 41c0 ca0c 4141
00000270: d256 60c0 83c3 6fc0 be22 8440 ac66 ca40
00000280: 1777 b340 b54e 8d40 a4a5 9a40 992f 9a40
00000290: 3cb7 db40 4a25 d740 2c6f d840 fd5f 8040
000002a0: 6899 efbd d675 7040 964d 22c0 a2b2 e8c0
000002b0: 2be4 8c40 e290 bcbf 01ff d240 412d 7b40
000002c0: acaa 1641 b824 5a3f 84fe 2841 5ed5 9640
000002d0: ee08 b840 32c3 9540 3ca8 0840 7235 8040
000002e0: 0131 3b40 d704 1241 5194 783f 89dc b940
000002f0: 54ea 7240 4eec a63e 508f 3140 f4ce ebbf
00000300: 8efc 6f40 d66f c13c e733 2f40 3a33 1b40
00000310: 90a5 c3c0 83ff d7c0 aec8 b3c0 f955 8841
00000320: aae6 bd40 6c1e c340 ff39 9a40 492c b040
00000330: d517 a940 eb28 b340 6b23 9e40 9de0 aa40
00000340: f123 c340 6e09 af40 cd32 dd3e 5fb4 c13d
00000350: 36ce 36be 52ce 5440 45a4 453f 7ae4 be40
00000360: 6c2f ec3f bb9b d040 e576 3540 f206 d440
00000370: 3107 eb40 e503 c9bc 2a33 1641 0e99 65c0
00000380: b4ea 1840 21c6 0a41 51cd 7840 3fcd cc40
00000390: 50fa bd40 6b17 1441 8b58 d640 e9f7 26bd
000003a0: 3d0d 5640 1ecd 82bf a1cd b3bf 135f dcbf
000003b0: cac8 97c0 47fa 9c40 18f1 1a41 a4db 0541
000003c0: e886 36c1 648b 2d41 18d9 8240 a590 da40
000003d0: 7674 9440 111b 5140 339b 9240 a372 a840
000003e0: f026 d940 c00b a340 7060 f340 a550 e840
000003f0: b0db 44bc 8c46 bb40 a6ba 89bf aafe 7dc0

feature_net.linear_layer_0.bias f4 [32]
4.2248325 3.957975 4.642483 2.9868536 4.8868933 4.6891665 4.648885 2.9714527
9.254142 4.7852225 5.12774 4.3730702 10.068635 7.809505 10.643943 -0.5887428
9.133852 10.465387 3.4668474 9.98885 7.188432 9.907789 7.518684 5.867463
4.537382 9.803789 4.6724176 5.0874214 4.5001106 5.3709955 6.5402737 11.390432
00000000: d431 8740 764f 7d40 398f 9440 9c28 3f40
00000010: 6e61 9c40 a70d 9640 aac3 9440 482c 3e40
00000020: f710 1441 8b20 9940 7216 a440 31f0 8b40
00000030: 2119 2141 77e7 f940 974d 2a41 d9b7 16bf
00000040: 4224 1241 3a72 2741 d4e0 5d40 54d2 1f41
00000050: a307 e640 4e86 1e41 0f99 f040 42c2 bb40
00000060: 3c32 9140 52dc 1c41 7284 9540 28cc a240
00000070: e800 9040 32df ab40 ec49 d140 363f 3641

feature_net.layer_norm_0.weight f4 [32]
13.865576 11.144703 15.298099 12.118382 25.13384 20.164087 11.431838 7.8758345
6.3181267 20.762144 10.333726 11.056244 8.804011 10.174374 8.804168 2.4467227
0.26791418 8.199734 20.731316 0.39324665 9.038559 2.6631026 10.977705 9.386981
21.543493 4.1708083 18.825867 19.925856 14.663171 18.191648 4.152905 5.75869
00000000: 66d9 5d41 b450 3241 03c5 7441 e5e4 4141
00000010: 1b12 c941 0d50 a141 cfe8 3641 d606 fc40
00000020: 182e ca40 df18 a641 f156 2541 60e6 3041
00000030: 3bdd 0c41 3cca 2241 dfdd 0c41 1b97 1c40
00000040: 0c2c 893e 1c32 0341 bcd9 a541 a057 c93e
00000050: f09d 1041 4670 2a40 aea4 2f41 1331 1641
00000060: 1359 ac41 4377 8540 609b 9641 2768 9f41
00000070: 599c 6a41 7f88 9141 99e4 8440 3047 b840

feature_net.layer_norm_0.bias f4 [32]
1.7975267 1.0065943 2.3947701 2.0696893 4.017135 2.1638925 2.440079 -0.1028725
4.388428 3.2988505 1.6800535 5.132625 4.9431024 -0.4315469 2.3694248 -2.992852
-1.0104334 10.208156 2.4844866 -1.2062727 -2.045251 5.6518364 1.9103981 -3.932756
4.059112 4.9849615 1.867586 2.8063185 5.1528606 3.5793674 6.728289 -1.8444319
00000000: 5b15 e63f 15d8 803f ea43 1940 ca75 0440
00000010: 5f8c 8040 377d 0a40 412a 1c40 d1ae d2bd
00000020: 016e 8c40 5e20 5340 fe0b d73f 773e a440
00000030: e52d 9e40 b7f3 dcbe a8a4 1740 e38a 3fc0
00000040: e255 81bf 9b54 2341 d401 1f40 2567 9abf
00000050: 64e5 02c0 d8db b440 ed87 f43f 46b2 7bc0
00000060: 3fe4 8140 ce84 9f40 0f0d ef3f b99a 3340
00000070: 3ce4 a440 5b14 6540 254e d740 5816 ecbf

feature_net.linear_layer_1.weight f4 [32, 32]
-0.8737026 5.024439 12.062051 9.362679 3.4910164 12.254086 6.763103 4.3077345
3.800077 3.731855 3.4382577 4.1352835 4.4690456 2.850279 0.15807691 -2.7051706
0.882625 -4.2615104 2.3859992 -0.34256017 6.2184052 -3.2707558 7.793347 -2.8663974
2.6065526 -1.9044406 4.7591286 7.065168 3.5656595 -1.2337723 5.7786055 4.8396177
7.333021 4.387582 0.61904925 5.491689 13.350458 14.104143 8.190965 -3.6964257
6.8223085 -1.0197294 8.364062 3.0195124 -2.3543181 -3.5508635 6.9785137 3.003074
0.95468646 1.708537 -4.814511 -0.61988664 3.267096 3.2147858 8.41002 10.436353
5.3304095 1.9614528 2.774008 -0.0024532652 0.21752733 -3.179651 -1.6208805 4.762132
5.6567354 -1.5983715 12.483215 4.8745637 -2.2978375 -3.4157996 10.566445 3.1312299
6.476313 7.3379183 5.268301 8.826463 3.072846 -2.747305 6.2778454 -1.8731536
0.1663239 -0.1872525 -9.717162 1.3121954 4.4978957 2.318606 -2.5505934 3.6417282
16.6464 6.343347 -6.6019707 3.1841388 1.9217414 3.2652404 7.0134616 5.1115766
5.8878226 -0.8235691 4.190174 6.051336 4.228093 1.1152481 1.7986861 -3.1051693
1.5142714 3.3589463 9.857401 5.0722947 -1.26438 3.7745008 3.5058587 -6.367313
-0.21963976 1.3753772 4.8454676 -0.9279004 12.179675 0.89006335 -0.9263459 2.2600226
7.1617627 4.48908 -1.7455038 11.817714 9.42177 -3.697971 0.17612626 0.9677918
-2.2846591 2.776709 4.30903 4.6544027 -5.9215226 12.588779 4.304952 6.7417293
3.5459564 -6.782781 4.993832 9.973487 -2.2409775 2.2610457 4.4166293 2.2522514
0.7743865 1.8532898 -2.1491294 1.2460476 3.1632142 3.692351 2.0709503 2.624767
5.641716 3.341291 -11.837712 -5.6116323 4.0242953 10.586964 3.9076877 -0.8964402
5.4121356 3.054841 -11.028 -3.9343693 -9.672435 2.6918724 -2.5739973 -2.4495797
5.2646837 1.1215837 -4.0527143 -7.7255893 9.755022 3.7318869 9.203881 6.5943856
-0.422349 16.310066 -6.9428077 0.54553735 -1.8118474 13.949309 4.729846 1.3482479
-11.502955 6.6651783 1.8199694 -5.3799534 0.31948975 1.8608884 10.909308 2.5375235
4.918543 0.28304598 -5.7616878 2.5118282 6.0579453 12.536762 -0.7814617 4.3546624
7.1856055 -7.5552096 0.81499636 8.957915 6.8344684 7.3576975 10.580199 3.8272796
-0.68796813 12.378759 -9.444256 0.15373725 1.3480021 10.883885 11.489435 0.41340303
-0.084176846 8.25373 3.9235165 -6.496585 4.2670546 8.320728 11.370201 2.306344
8.41282 -0.39776263 5.5947585 10.7965355 12.621432 -0.9966445 5.3571053 7.8244534
-3.0525343 -0.22563426 13.934926 7.117126 -3.439497 4.0115614 -2.170485 -3.8949978
-0.58080983 -2.501158 -0.42892474 1.4710282 9.075251 0.8182937 2.6648824 -0.23532313
7.74299 3.0305223 3.6114552 0.08609764 8.873838 7.9827046 -3.7810588 5.3730955
00000000: f9aa 5fbf 34c8 a040 29fe 4041 88cd 1541
00000010: d06c 5f40 bc10 4441 576b d840 f6d8 8940
00000020: 7634 7340 b6d6 6e40 6a0c 5c40 3e54 8440
00000030: 6c02 8f40 f96a 3640 eade 213e 8421 2dc0
00000040: b6f3 613f 4b5e 88c0 36b4 1840 0c64 afbe
00000050: 2dfd c640 1054 51c0 1963 f940 0e73 37c0
00000060: c2d1 2640 b6c4 f3bf c84a 9840 db15 e240
00000070: c433 6440 40ec 9dbf 56ea b840 26de 9a40
00000080: 1ca8 ea40 1267 8c40 037a 1e3f ebbb af40
00000090: 7a9b 5541 92aa 6141 310e 0341 3d92 6cc0
000000a0: 5a50 da40 7e86 82bf 33d3 0541 b13f 4140
000000b0: 26ad 16c0 5941 63c0 fc4f df40 5d32 4040
000000c0: 5566 743f 57b1 da3f 7910 9ac0 e4b0 1ebf
000000d0: 1a18 5140 0dbf 4d40 718f 0641 4dfb 2641
000000e0: b792 aa40 e310 fb3f 5989 3140 f6c6 20bb
000000f0: 7cbf 5e3e 677f 4bc0 0379 cfbf 6363 9840
00000100: fa03 b540 7097 ccbf 40bb 4741 6dfc 9b40
00000110: c50f 13c0 769c 5ac0 2910 2941 1266 4840
00000120: f53d cf40 3ad0 ea40 ec95 a840 3139 0d41
00000130: 82a9 4440 d8d3 2fc0 1ce4 c840 7fc3 efbf
00000140: d050 2a3e 1fbf 3fbe 7f79 1bc1 05f6 a73f
00000150: c3ee 8f40 0a64 1440 ec3c 23c0 1312 6940
00000160: d42b 8541 b3fc ca40 5843 d3c0 eec8 4b40
00000170: 9ffb f53f b3f9 5040 476e e040 0992 a340
00000180: 0b69 bc40 6dd5 52bf e815 8640 8ba4 c140
00000190: 8a4c 8740 73c0 8e3f 593b e63f 18bb 46c0
000001a0: a5d3 c13f faf8 5640 eab7 1d41 3d50 a240
000001b0: 34d7 a1bf 6c91 7140 fd5f 6040 07c1 cbc0
000001c0: 3fe9 60be 5c0c b03f 120e 9b40 e18a 6dbf
000001d0: f3df 4241 31db 633f 0125 6dbf 36a4 1040
000001e0: 292d e540 8ba6 8f40 ab6c dfbf 5b15 3d41
000001f0: 92bf 1641 8fab 6cc0 715a 343e 34c1 773f
00000200: db37 12c0 9ab5 3140 93e3 8940 def0 9440
00000210: 1d7d bdc0 a46b 4941 2bc2 8940 3fbc d740
00000220: f3f0 6240 8b0c d9c0 79cd 9f40 6793 1f41
00000230: 2d6c 0fc0 f9b4 1040 0755 8d40 e324 1040
00000240: 323e 463f 9a38 ed3f 568b 09c0 7d7e 9f3f
00000250: 1a72 4a40 7b4f 6c40 738a 0440 2ffc 2740
00000260: f088 b440 b6d7 5540 4567 3dc1 7e92 b3c0
00000270: 07c7 8040 3464 2941 8e17 7a40 1b7d 65bf
00000280: 3730 ad40 8482 4340 b072 30c1 b5cc 7bc0
00000290: 4bc2 1ac1 a347 2c40 5fbc 24c0 eac5 1cc0
000002a0: 4a78 a840 0e90 8f3f d6af 81c0 0738 f7c0
000002b0: 9214 1c41 3cd7 6e40 1943 1341 3505 d340
000002c0: 213e d8be 047b 8241 7b2b dec0 56a8 0b3f
000002d0: 9eea e7bf 5f30 5f41 e65a 9740 6393 ac3f
000002e0: 1b0c 38c1 2449 d540 c2f4 e83f 9428 acc0
000002f0: 2994 a33e 9731 ee3f 878c 2e41 c966 2240
00000300: b464 9d40 67eb 903e bf5f b8c0 cbc1 2040
00000310: b0da c140 9496 4841 e00d 48bf 6559 8b40
00000320: 7bf0 e540 47c4 f1c0 9aa3 503f 9f53 0f41
00000330: f7b3 da40 4272 eb40 7f48 2941 26f2 7440
00000340: ae1e 30bf 660f 4641 ac1b 17c1 4c6d 1d3e
00000350: 558b ac3f 6524 2e41 bad4 3741 90a9 d33e
00000360: e964 acbd 470f 0441 e51a 7b40 06e4 cfc0
00000370: b68b 8840 b421 0541 58ec 3541 249b 1340
00000380: e99a 0641 8ba7 cbbe 4308 b340 9cbe 2c41
00000390: 63f1 4941 1824 7fbf 686d ab40 ec61 fa40
000003a0: b95c 43c0 ab0c 67be 75f5 5e41 7fbf e340
000003b0: b820 5cc0 b65e 8040 3ae9 0ac0 a547 79c0
000003c0: f4af 14bf f912 20c0 069c dbbe a74a bc3f
000003d0: 3a34 1141 b27b 513f 6f8d 2a40 8cf8 70be
000003e0: 93c6 f740 14f4 4140 1522 6740 f653 b03d
000003f0: 3efb 0d41 5172 ff40 defc 71c0 66f0 ab40

feature_net.linear_layer_1.bias f4 [32]
-0.8040632 3.5846841 1.5110185 2.979008 2.8967903 15.538827 13.678423 -1.2266483
1.4372697 0.4785913 0.9887305 3.289881 15.34069 1.6360662 18.40795 2.3384657
18.58687 0.6017213 -2.6928632 -0.20721233 2.111339 5.0691323 1.3641506 4.571231
1.3205258 13.719226 9.89931 -3.8541975 8.152242 -7.360959 16.835258 14.339452
00000000: 16d7 4dbf 776b 6540 0e69 c13f 11a8 3e40
00000010: 0365 3940 099f 7841 d2da 5a41 d002 9dbf
00000020: 74f8 b73f eb09 f53e 711d 7d3f 698d 5240
00000030: 7773 7541 9e6a d13f 7b43 9341 6ca9 1540
00000040: e9b1 9441 680a 1a3f df57 2cc0 782f 54be
00000050: 2e20 0740 5536 a240 7d9c ae3f 8647 9240
00000060: fd06 a93f f381 5b41 9363 1e41 2cab 76c0
00000070: 956f 0241 fa8c ebc0 9cae 8641 656e 6541

feature_net.layer_norm_1.weight f4 [32]
7.39894 11.130937 14.453456 10.433881 15.064235 16.011553 14.734708 11.57514
10.209903 13.791145 11.652262 9.474034 4.4502063 11.839141 24.614367 13.853018
23.131165 11.411971 5.6467853 11.055316 6.043285 4.884069 11.503244 2.0277143
18.969156 17.294783 -3.2277107 2.8058043 5.851263 6.1516094 16.899538 4.9680147
00000000: 1ec4 ec40 5118 3241 5b41 6741 2df1 2641
00000010: 1b07 7141 a917 8041 5dc1 6b41 c633 3941
00000020: c35b 2341 88a8 5c41 aa6f 3a41 a595 1741
00000030: 1768 8e40 1f6d 3d41 39ea c441 f6a5 5d41
00000040: a00c b941 6f97 3641 77b2 b440 93e2 3041
00000050: 9762 c140 4b4a 9c40 4a0d 3841 12c6 0140
00000060: d5c0 9741 b75b 8a41 d092 4ec0 4c92 3340
00000070: 8c3d bb40 fcd9 c440 4132 8741 faf9 9e40

feature_net.layer_norm_1.bias f4 [32]
0.6952424 -0.4060387 -2.1781147 0.6585802 3.7168202 20.244791 8.26314 2.1279783
-0.6045514 2.0850494 -0.7283639 -1.2913867 18.198744 -0.7765571 19.82806 3.574254
22.059822 0.8085445 3.196283 -0.11692118 0.5098227 -3.9819639 -0.09565991 -2.4177048
1.6766973 13.155369 16.776108 4.5598373 -3.6738615 -0.73992056 17.902218 -7.786493
00000000: 68fb 313f 4ee4 cfbe 3b66 0bc0 b698 283f
00000010: 62e0 6d40 55f5 a141 d235 0441 cc30 0840
00000020: e1c3 1abf 7371 0540 0e76 3abf 294c a5bf
00000030: 0797 9141 72cc 46bf de9f 9e41 94c0 6440
00000040: 847a b041 c6fc 4e3f e78f 4c40 5f74 efbd
00000050: be83 023f 7fd8 7ec0 58e9 c3bd adbb 1ac0
00000060: 049e d63f 647c 5241 7835 8641 30ea 9140
00000070: 8c20 6bc0 6f6b 3dbf be37 8f41 f32a f9c0

feature_net.linear_layer_output.weight f4 [15, 32]
1.548123 -0.3055124 8.504412 2.9562972 -3.3431637 0.03468632 0.6713599 1.22703
-1.2957962 4.5811296 4.4901924 4.676815 0.32480723 0.15806387 0.30265155 -1.6875182
2.2738986 0.7214726 3.0243123 -3.0061352 -2.8459156 -3.3926125 1.7816983 -0.4953995
0.17601152 0.20589527 0.48928714 6.4145446 2.3314378 0.9074783 -0.7835673 1.4032493
-4.5247364 -0.08816601 4.9719872 -7.371102 0.5879173 -1.5591781 -1.0499583 0.8217515
-3.3583722 -3.2082417 -4.0439525 -3.0611866 -1.8204187 1.6014361 8.500759 2.4537387
-3.0582614 -0.5795097 4.3486924 3.5930245 12.9537735 -3.0087154 2.8521714 -4.7987456
-1.4011828 -2.2425697 -2.2236412 2.4226615 4.1112757 -3.8310995 -3.0928564 -0.8657002
-8.114274 3.4538863 0.43184656 -0.17237191 -1.7641153 0.8490889 -0.87901896 1.11711
-0.85192823 -0.44182387 0.14865921 -3.4093096 -3.319108 1.3683139 -5.2428837 -8.7245865
4.9282303 1.8792468 -6.758227 -2.6412532 -8.963108 7.358999 0.973474 0.042087495
-1.1371703 -2.3859923 -0.89266604 -4.147107 3.3781826 0.5521832 5.2863927 0.642253
0.031205308 0.33697107 0.7137755 0.37760705 0.81649387 1.3856251 0.96835476 1.1474364
0.1480426 1.176544 0.9061586 1.1140474 0.96719015 1.4366547 0.8129353 0.7444558
0.6674747 0.40679726 0.9374839 0.9232533 0.80638254 0.21688822 0.24131878 0.9198014
1.1640104 -0.24875502 0.60897565 1.3334112 0.71199065 0.5899876 0.58558124 1.003014
-20.892593 -13.94182 -19.723398 -27.46802 -21.036858 8.847022 1.2352067 -22.200525
-22.237186 -17.78943 -19.852015 -14.824919 15.677987 -22.664751 6.685354 -19.155237
6.5084977 -21.107985 -11.297355 -25.497326 -22.973724 -19.34501 -26.185015 -3.5354517
-28.37158 2.6089365 8.609403 -8.042062 -13.768746 -21.582691 4.3437467 -3.92277
-3.0421252 3.9300632 -8.991155 -2.1787963 0.9232705 3.342101 1.1888882 1.1050235
-5.557788 1.681588 5.637286 -2.8821273 0.26577634 8.948199 0.42521742 -2.099056
-0.35199985 8.682876 4.5839305 5.443966 9.492858 2.4556668 5.880025 2.7861643
-2.2402134 -2.587364 -1.7383066 -9.002787 1.6271693 1.8529199 -1.3206655 -3.3827662
-0.6118756 -5.1765666 9.240272 -7.9249425 -0.8410576 0.80800754 -2.701158 1.538303
7.1080785 -7.1098294 -7.479434 1.2142866 0.8081466 -5.6111383 -0.2553598 5.5112276
-1.4261589 -4.046554 -1.4571512 -7.3321543 -1.4303955 -0.2554724 4.5463734 0.08530046
1.4316857 1.835181 0.4787519 4.8749566 1.0784882 3.0522757 0.63367754 8.018919
-2.654185 -7.3759484 5.603012 3.6054692 -5.711215 -0.72335744 -4.599211 1.251617
7.177395 -7.6922417 -0.12029537 5.470264 1.2321861 -2.0336006 0.0506037 -8.680356
0.070567876 -5.583371 -1.9466926 -0.5996173 3.486474 11.476908 6.4449863 -4.720297
5.462986 1.9258953 0.19387434 -0.4697816 1.6590993 -0.9686139 1.2499757 4.4885364
00000000: e528 c63f 1f6c 9cbe 1212 0841 f933 3d40
00000010: 65f6 55c0 3e13 0e3d 3ede 2b3f 520f 9d3f
00000020: a6dc a5bf 9d98 9240 a8af 8f40 78a8 9540
00000030: 224d a63e 7fdb 213e 25f5 9a3e 9900 d8bf
00000040: 8e87 1140 6eb2 383f 558e 4140 8564 40c0
00000050: 7b23 36c0 9020 59c0 b10e e43f 01a5 fdbe
00000060: 5d3c 343e 36d6 523e d883 fa3e f343 cd40
00000070: 4736 1540 7f50 683f de97 48bf ac9d b33f
00000080: a4ca 90c0 6290 b4bd 851a 9f40 11e0 ebc0
00000090: c081 163f 2693 c7bf 0965 86bf 4e5e 523f
000000a0: 92ef 56c0 d553 4dc0 0f68 81c0 7bea 43c0
000000b0: 7b03 e9bf dcfb cc3f 1c03 0841 0e0a 1d40
000000c0: 8eba 43c0 bf5a 14bf 7d28 8b40 1df4 6540
000000d0: a842 4f41 cb8e 40c0 fa89 3640 538f 99c0
000000e0: f559 b3bf 4386 0fc0 2350 0ec0 e30c 1b40
000000f0: 928f 8340 bc30 75c0 5cf1 45c0 879e 5dbf
00000100: 11d4 01c1 790c 5d40 fe1a dd3e 4382 30be
00000110: 88ce e1bf e45d 593f 6307 61bf 76fd 8e3f
00000120: f817 5abf bd36 e2be 1f3a 183e 2132 5ac0
00000130: 446c 54c0 e924 af3f b4c5 a7c0 e897 0bc1
00000140: 10b4 9d40 298b f03f 6543 d8c0 4b0a 29c0
00000150: e468 0fc1 eb7c eb40 9835 793f f063 2c3d
00000160: cc8e 91bf 19b4 18c0 c385 64bf 1ab5 84c0
00000170: 2534 5840 e15b 0d3f 212a a940 b16a 243f
00000180: 46a2 ff3c 7987 ac3e feb9 363f b655 c13e
00000190: be05 513f 2a5c b13f 19e6 773f 32df 923f
000001a0: 7b98 173e fe98 963f 03fa 673f 1b99 8e3f
000001b0: c699 773f 4de4 b73f 871c 503f a894 3e3f
000001c0: 9fdf 2a3f bb47 d03e f2fe 6f3f 545a 6c3f
000001d0: 166f 4e3f f217 5e3e 451c 773e 1b78 6b3f
000001e0: 4bfe 943f a3b9 7ebe d4e5 1b3f 38ad aa3f
000001f0: 0545 363f 6d09 173f a7e8 153f c362 803f
00000200: 0824 a7c1 b211 5fc1 85c9 9dc1 81be dbc1
00000210: 7c4b a8c1 678d 0d41 411b 9e3f ad9a b1c1
00000220: c2e5 b1c1 c150 8ec1 edd0 9ec1 de32 6dc1
00000230: 09d9 7a41 6951 b5c1 6cee d540 ed3d 99c1
00000240: 9d45 d040 27dd a8c1 f7c1 34c1 86fa cbc1
00000250: 30ca b7c1 95c2 9ac1 e97a d1c1 d744 62c0
00000260: fff8 e2c1 d1f8 2640 1dc0 0941 49ac 00c1
00000270: c94c 5cc1 5aa9 acc1 f9ff 8a40 aa0e 7bc0
00000280: 2eb2 42c0 2886 7b40 c5db 0fc1 6671 0bc0
00000290: 755b 6c3f fce4 5540 7d2d 983f 6971 8d3f
000002a0: 66d9 b1c0 473e d73f a664 b440 c674 38c0
000002b0: d613 883e d32b 0f41 19b6 d93e ef56 06c0
000002c0: 5339 b4be 0fed 0a41 8faf 9240 f834 ae40
000002d0: bfe2 1741 a529 1d40 2a29 bc40 8450 3240
000002e0: a85f 0fc0 5f97 25c0 d580 debf 6a0b 10c1
000002f0: 1547 d03f 7b2c ed3f 910b a9bf 3e7f 58c0
00000300: e1a3 1cbf 6fa6 a5c0 27d8 1341 2199 fdc0
00000310: 8d4f 57bf 95d9 4e3f c6df 2cc0 1de7 c43f
00000320: 6175 e340 b983 e3c0 8657 efc0 be6d 9b3f
00000330: b2e2 4e3f 728e b3c0 85be 82be fa5b b040
00000340: 608c b6bf 5f7d 81c0 ee83 babf 02a1 eac0
00000350: 3317 b7bf 47cd 82be e47b 9140 02b2 ae3d
00000360: 7a41 b73f 36e7 ea3f f81e f53e a5ff 9b40
00000370: e70b 8a3f 7c58 4340 b138 223f 7e4d 0041
00000380: 2bde 29c0 c507 ecc0 e04b b340 02c0 6640
00000390: 46c2 b6c0 f42d 39bf bd2c 93c0 fc34 a03f
000003a0: 38ad e540 d826 f6c0 6b5d f6bd 670c af40
000003b0: 46b8 9d3f 8326 02c0 d345 4f3d bde2 0ac1
000003c0: e485 903d faaa b2c0 392d f9bf 8580 19bf
000003d0: 6422 5f40 6aa1 3741 543d ce40 ac0c 97c0
000003e0: c8d0 ae40 bd83 f63f ff86 463e 3787 f0be
000003f0: 5e5d d43f 15f7 77bf 34ff 9f3f 17a2 8f40

feature_net.linear_layer_output.bias f4 [15]
0.26439947 0.26715976 -0.7484628 0.99798197 10.294799 0.29514572 -0.23071934 1.0180541
0.44061446 -0.5501959 -0.08712459 -0.9862551 1.0358949 -0.29698983 -0.34970292
00000000: 5e5f 873e 2ac9 883e 429b 3fbf bf7b 7f3f
00000010: 7fb7 2441 571d 973e b141 6cbe 994f 823f
00000020: 3898 e13e a3d9 0cbf 616e b2bd 377b 7cbf
00000030: 3498 843f 0d0f 98be 430c b3be

feature_net.linear_layer_0.weight f4 [32, 21]
-0.3197417 -0.18901332 -3.9129863 -7.6997557 -2.9750502 5.78147 3.9194968 4.2914057
6.6640725 -1.6591613 0.26733935 -1.7517976 6.161266 3.2356489 0.5483121 3.6063206
-0.67070144 3.352206 2.370062 5.928966 2.9970284 0.32944387 -0.23701566 6.4149036
7.3087835 -4.4894075 -0.13163672 -3.2341135 -4.0684085 14.682785 -4.1770673 -7.1070323
4.095063 1.4358579 3.9726498 4.0681424 2.79945 4.2672276 3.8176925 3.439697
2.487259 2.105396 1.0157143 -0.28102994 -3.5661273 -6.9033318 3.2640612 5.4550347
1.5380199 7.115631 -3.9320416 6.0006065 10.215191 2.461186 4.614333 4.4750175
3.9177303 1.6640404 3.820297 4.8947716 4.1364975 5.023577 1.1414963 0.14257595
1.3117548 0.8226861 2.8176525 2.9686017 -4.030014 -2.9045758 -0.40595257 19.490145
-7.935273 1.0803742 2.9489844 2.9771986 2.5369208 3.050089 3.0497358 2.376608
2.7590241 4.029475 2.8066506 2.7531333 -0.6323574 0.6496354 3.8302283 -6.61254
-8.097267 6.734819 2.8727345 -4.6086373 10.526366 5.4761705 -3.5025418 3.6757662
3.6290388 3.2534347 2.6482828 3.7591565 3.6933384 3.629405 3.6462662 3.533845
2.5720751 3.1389766 -2.06976 -6.8887377 4.013188 -1.7026355 -3.8383436 -6.731573
3.9323418 1.6734039 8.812929 0.8413649 9.257699 0.7236059 1.9379475 4.7713757
4.2536554 4.283176 2.611566 4.7634025 1.0540233 2.1717072 -0.29161945 0.9133812
0.43931293 0.4123858 -4.8953876 -3.047302 3.4383163 0.37542748 -8.502541 16.47982
-4.83422 2.8029122 3.8191419 2.6779664 3.284192 3.2371032 2.957227 1.7253047
2.7165952 3.111778 3.2977896 0.11859844 -0.09221315 2.243187 2.1676216 0.9020537
2.8938868 -4.6311436 -3.5193114 -7.50134 12.592757 -1.7800738 3.960406 2.3149576
2.9576256 4.2826495 3.582885 4.006271 1.9319679 3.6188166 3.189485 2.6269593
-0.16565084 0.78596383 -2.5132143 -0.6463499 -2.4754233 -1.4993569 4.6410556 2.04395
-8.374259 -11.145976 15.783745 2.9502835 2.6940925 2.833273 3.775428 3.1992097
3.2379224 3.2823834 3.4777634 2.7034445 2.999808 -0.669168 1.5697851 -6.699747
10.525962 4.873043 -4.622979 5.3611164 -3.6014411 1.3623848 6.340786 0.9811182
1.6132352 4.0636735 3.3075001 2.0036154 3.300503 2.5597231 4.6476636 1.9807783
3.3143427 2.6878574 0.15735115 1.3967333 3.6377828 -7.160626 -0.990417 -1.4028379
-2.0687113 8.103813 14.088618 -1.3482451 -8.319769 3.4271712 1.8886228 1.331771
2.4731705 2.76489 3.3555233 2.0554254 2.216953 2.0744789 3.1695251 -0.019636897
0.13309729 0.6279998 0.8172531 -0.09679839 3.392937 -1.6719936 -4.1015286 -2.5097904
-10.113379 14.107511 4.356253 3.1645827 3.4914944 3.519247 3.9252892 4.292736
1.0822237 3.65395 3.0715075 2.6225932 -1.9728969 -0.8062194 -1.2827995 2.3856642
00000000: 2fb5 a3be b58c 41be 5e6e 7ac0 6664 f6c0
00000010: 3967 3ec0 cd01 b940 09d9 7a40 3253 8940
00000020: 1540 d540 665f d4bf b4e0 883e e73a e0bf
00000030: 1729 c540 df14 4f40 2f5e 0c3f f5cd 6640
00000040: 17b3 2bbf 8b8a 5640 19af 1740 17ba bd40
00000050: 50cf 3f40 deac a83e 3cb4 72be e446 cd40
00000060: 8ee1 e940 3aa9 8fc0 c7cb 06be b7fb 4ec0
00000070: 6730 82c0 b0ec 6a41 89aa 85c0 cf6c e3c0
00000080: c20a 8340 31ca b73f e53f 7e40 392e 8240
00000090: 302a 3340 218d 8840 1355 7440 ff23 5c40
000000a0: 402f 1f40 cfbe 0640 ed02 823f 28e3 8fbe
000000b0: 6e3b 64c0 18e8 dcc0 61e6 5040 a58f ae40
000000c0: d6dd c43f 40b3 e340 92a6 7bc0 f804 c040
000000d0: 6c71 2341 1284 1d40 9ea8 9340 5833 8f40
000000e0: 18bc 7a40 47ff d43f bf7f 7440 f8a1 9c40
000000f0: 305e 8440 25c1 a040 8d1c 923f 6eff 113e
00000100: 95e7 a73f 8e9b 523f 6b54 3440 92fd 3d40
00000110: e0f5 80c0 92e4 39c0 04d9 cfbe d1eb 9b41
00000120: c2ed fdc0 b449 8a3f 29bc 3c40 6c8a 3e40
00000130: e95c 2240 a834 4340 df2e 4340 581a 1840
00000140: da93 3040 76f1 8040 2aa0 3340 5633 3040
00000150: 2de2 21bf 814e 263f 7622 7540 ed99 d3c0
00000160: 688e 01c1 a383 d740 e2da 3740 f579 93c0
00000170: ff6b 2841 ca3c af40 a529 60c0 c13f 6b40
00000180: 2c42 6840 4638 5040 777d 2940 0596 7040
00000190: a85f 6c40 2c48 6840 6d5c 6940 842a 6240
000001a0: e19c 2440 fee4 4840 f376 04c0 8a70 dcc0
000001b0: 096c 8040 f6ef d9bf 6ca7 75c0 0c69 d7c0
000001c0: 7dab 7b40 1932 d63f c201 0d41 b163 573f
000001d0: 891f 1441 3c3e 393f aa0e f83f 1caf 9840
000001e0: f21d 8840 c70f 8940 e623 2740 cb6d 9840
000001f0: 3cea 863f 40fd 0a40 254f 95be 5ad3 693f
00000200: a0ed e03e 3b24 d33e 04a7 9cc0 ff06 43c0
00000210: 600d 5c40 0838 c03e 680a 08c1 acd6 8341
00000220: eeb1 9ac0 ea62 3340 d26c 7440 cd63 2b40
00000230: 3430 5240 b32c 4f40 3543 3d40 c9d6 dc3f
00000240: b2dc 2d40 5f27 4740 fc0e 5340 bde3 f23d
00000250: 3fda bcbd 6090 0f40 50ba 0a40 feec 663f
00000260: 7135 3940 5432 94c0 663c 61c0 fa0a f0c0
00000270: ef7b 4941 75d9 e3bf 4b77 7d40 4428 1440
00000280: bd49 3d40 770b 8940 fd4d 6540 5f33 8040
00000290: b94a f73f b19a 6740 8620 4c40 1a20 2840
000002a0: 60a0 29be ed34 493f 81d8 20c0 3077 25bf
000002b0: 566d 1ec0 edea bfbf 8783 9440 14d0 0240
000002c0: f7fc 05c1 eb55 32c1 388a 7c41 72d1 3c40
000002d0: 036c 2c40 5854 3540 9da0 7140 dabf 4c40
000002e0: 1f3a 4f40 9212 5240 ad93 5e40 3c05 2d40
000002f0: dbfc 3f40 984e 2bbf b8ee c83f 5464 d6c0
00000300: 576a 2841 f8ef 9b40 72ef 93c0 448e ab40
00000310: 037e 66c0 a062 ae3f b8e7 ca40 902a 7b3f
00000320: 7e7e ce3f 9d09 8240 15ae 5340 3c3b 0040
00000330: 713b 5340 81d2 2340 a9b9 9440 258a fd3f
00000340: 311e 5440 db05 2c40 a920 213e 28c8 b23f
00000350: 6fd1 6840 d923 e5c0 f88b 7dbf 3190 b3bf
00000360: c465 04c0 38a9 0141 fb6a 6141 4c93 acbf
00000370: c61d 05c1 c656 5b40 64be f13f 7977 aa3f
00000380: 6d48 1e40 f5f3 3040 e5c0 5640 178c 0340
00000390: 8fe2 0d40 43c4 0440 80d9 4a40 8fdd a0bc
000003a0: a84a 083e 98c4 203f 8037 513f 3c3e c6bd
000003b0: e125 5940 e303 d6bf b93f 83c0 68a0 20c0
000003c0: 66d0 21c1 5db8 6141 6d66 8b40 8688 4a40
000003d0: a574 5f40 583b 6140 f037 7b40 185e 8940
000003e0: 4e86 8a3f 51da 6940 9493 4440 91d8 2740
000003f0: e387 fcbf 6564 4ebf c632 a4bf b9ae 1840
