otk/AgileRL-MATD3/simple_reference_v3/result/20240102-0837/MATD3_trained_agent_0045000.pt (torch, 863450 bytes, 224 tensors)

feature_net.linear_layer_0.weight f4 [32, 21]
0	0xbfb32b5f	-1.3997611
1	0xbec3d0ab	-0.3824514
2	0xbffe1e30	-1.9852962
3	0xc0f5a4a7	-7.676349
4	0xc03ab212	-2.9171185
5	0x4042d823	3.044442
6	0x40614202	3.5196538
7	0x4087a637	4.23904
8	0x40ccf810	6.405281
9	0xc018f1c9	-2.3897574
10	0x3f9c82af	1.2227381
11	0xbfef8147	-1.8711327
12	0x409c4329	4.8831983
13	0x40189661	2.3841784
14	0x3ff2e34b	1.8975614
15	0x3fbc3a77	1.4705342
16	0xbf89ed0c	-1.0775466
17	0x40644e4d	3.567279
18	0x40265ec1	2.5995333
19	0x40a431b2	5.1310663
20	0x402b3d39	2.6756117
21	0xbe3b8e65	-0.18316038
22	0x3ebe0eab	0.37120566
23	0x40ddc8ca	6.9307604
24	0x40c81f73	6.253839
25	0xc09fd040	-4.994171
26	0x3e61ddae	0.2205722
27	0xc0205c78	-2.5056438
28	0xc06c23a5	-3.6896756
29	0x415cdeda	13.804407
30	0xc033ef43	-2.8114784
31	0xc0d50e74	-6.6580143
32	0x40abc620	5.367935
33	0x40264f29	2.5985816
34	0x4051663f	3.2718656
35	0x409bf456	4.873576
36	0x3fef2415	1.8682886
37	0x408410e4	4.127062
38	0x4086fdb4	4.2184696
39	0x40631a83	3.5484931
40	0x4086ed44	4.216463
41	0x3fd1fc99	1.6405212
42	0x3ffe90f0	1.9887981
43	0x3f54e2b7	0.8315844
44	0xbfa83f61	-1.3144342
45	0xc0a22ef8	-5.0682335
46	0x4059f1f7	3.4053934
47	0x407ad830	3.919445
48	0x3e79a1b6	0.24378094
49	0x40e53eec	7.163931
50	0xc0519ea2	-3.2753072
51	0x40cc3302	6.3812265
52	0x411e837b	9.9071
53	0x3fc6bbee	1.5526102
54	0x40677cad	3.6169846
55	0x409bac93	4.864816
56	0x408749de	4.227767
57	0x3f9a5908	1.205842
58	0x404788c9	3.1177237
59	0x40bdc24d	5.9299684
60	0x408a1467	4.3149905
61	0x4082bb15	4.085337
62	0x3f1c4415	0.61041385
63	0xbec725d3	-0.38896045
64	0x3fa30e8f	1.2738818
65	0xbc62669e	-0.013818411
66	0x4004c291	2.0743754
67	0x4029972b	2.6498516
68	0xc04ced67	-3.20199
69	0xc05ea39d	-3.4787362
70	0xbfba146f	-1.4537486
71	0x4194c68a	18.596943
72	0xc0feee19	-7.9665647
73	0x3f75dd05	0.96040374
74	0x406c0683	3.6878974
75	0x406f138f	3.7355688
76	0x402a1dc4	2.6580667
77	0x4022ffc8	2.5468616
78	0x40776cac	3.8660078
79	0x403bb698	2.9330196
80	0x3fff9d3f	1.9969863
81	0x407ea3c4	3.9787455
82	0x404292ea	3.040217
83	0x404ae669	3.1703131
84	0xbf4ac0af	-0.7920026
85	0x3fc2826a	1.5196049
86	0x40a6039f	5.187942
87	0xc04af327	-3.1710908
88	0xc0f760f3	-7.7305846
89	0x40ac5c37	5.3862567
90	0x4046bbcc	3.1052122
91	0xc0ad7b8c	-5.4213314
92	0x4117d791	9.4901285
93	0x4099ddc1	4.8083196
94	0xc0a19cb3	-5.0503783
95	0x4082bee0	4.0858
96	0x4020c3b7	2.5119455
97	0x400ca230	2.1973991
98	0x405495a4	3.3216333
99	0x40734337	3.8009775
100	0x405dba02	3.464478
101	0x405489e0	3.3209152
102	0x403e3fe4	2.9726496
103	0x40213a36	2.519178
104	0x3ea39329	0.31948212
105	0x4094fddf	4.65599
106	0xbfb170d8	-1.3862562
107	0xc0f4b80a	-7.6474657
108	0x40a0b2aa	5.0218096
109	0xc01163fc	-2.2717276
110	0xc04808f6	-3.125547
111	0xc0dbd7a7	-6.8700747
112	0x40367098	2.8506222
113	0x4003e7c8	2.0610218
114	0x4107f8c1	8.498231
115	0xbd9e6c9e	-0.07735561
116	0x40fdfe9d	7.9373307
117	0x400a8a32	2.1646848
118	0x3f87d5ae	1.0612085
119	0x4081045a	4.031781
120	0x4080380a	4.0068407
121	0x409c17eb	4.8779197
122	0x3ff2caef	1.896818
123	0x4090effd	4.5292954
124	0x3ff662ff	1.9248961
125	0x400a1eea	2.1581368
126	0x3f36067a	0.7110363
127	0x3e85ea29	0.26155213
128	0x3ee6535d	0.44985476
129	0x3f58f8e3	0.8475477
130	0xc09ca46b	-4.8950706
131	0xc01499e5	-2.321893
132	0x4082cbd3	4.087381
133	0x3e0f15c2	0.13973144
134	0xc0f8bea8	-7.7732735
135	0x4170c359	15.047692
136	0xc07ea514	-3.9788256
137	0x405cfcbc	3.4529257
138	0x4085d04c	4.181677
139	0x40689076	3.6338172
140	0x404c9273	3.1964386
141	0x4053d3e6	3.3098083
142	0x40480bdf	3.1257246
143	0x40166deb	2.3504589
144	0x403c1be9	2.9392035
145	0x40629cb4	3.5408144
146	0x40785348	3.880083
147	0x3d649551	0.05580646
148	0x3d777e2c	0.06042306
149	0x402a88e5	2.6646054
150	0x3e02ee4d	0.12786217
151	0x3fa1f48a	1.2652752
152	0x408b6336	4.3558607
153	0xc09e4c7d	-4.946837
154	0xc0672166	-3.6114135
155	0xc0d6e362	-6.7152567
156	0x413dc68a	11.860971
157	0xbec007cf	-0.37505957
158	0x4067cea2	3.6219869
159	0x40337d70	2.804531
160	0x404ef2fd	3.2335808
161	0x40685332	3.6300778
162	0x3ff83c81	1.9393464
163	0x40677da5	3.6170437
164	0x404523f6	3.08032
165	0x4062252e	3.5335193
166	0x40398323	2.898629
167	0x4066a81f	3.6040113
168	0xbd8f5ca7	-0.07000094
169	0x3e8cbff0	0.27490187
170	0xc02ba8e6	-2.6821837
171	0xbf0c1cf3	-0.54731673
172	0xc05607dd	-3.34423
173	0xbfb8184b	-1.4382414
174	0x409ca9aa	4.895711
175	0x400bb829	2.1831152
176	0xc0f3eb38	-7.622463
177	0xc12d2df7	-10.823722
178	0x416fd91f	14.990508
179	0x40357df8	2.8358135
180	0x40255b11	2.5836833
181	0x403c70f8	2.944395
182	0x4058a4e4	3.3850641
183	0x40602aaa	3.502604
184	0x403575c4	2.8353128
185	0x403e8d5e	2.9773784
186	0x404f73c6	3.2414412
187	0x40262f48	2.5966358
188	0x40361768	2.8451786
189	0xbfbe25f2	-1.485533
190	0x3fc1d288	1.5142374
191	0xc0e24683	-7.0711074
192	0x4108abb2	8.541918
193	0x40706843	3.7563636
194	0xc0a4bdd9	-5.148175
195	0x40ab7eae	5.359214
196	0xc00cca65	-2.1998532
197	0x3f408f0f	0.7521829
198	0x40d70b97	6.720165
199	0x3fe30a61	1.7737542
200	0x3fe5c68e	1.7951219
201	0x404f9377	3.2433755
202	0x404abc20	3.1677322
203	0x400f273e	2.2367702
204	0x403d2f6f	2.95602
205	0x400dca37	2.2154672
206	0x4080126c	4.002249
207	0x40109195	2.2588856
208	0x407cd182	3.9502873
209	0x405179fb	3.27307
210	0xbf7aae75	-0.9792245
211	0x3f89014b	1.070352
212	0x4063dc95	3.5603383
213	0xc1077ce0	-8.467987
214	0xbef6eda2	-0.48228174
215	0xc03bb5ae	-2.9329638
216	0xc0232e43	-2.5496986
217	0x40d9087b	6.782285
218	0x4156efaa	13.433512
219	0xbf6ea179	-0.9321514
220	0xc0cf11d2	-6.4709253
221	0x403a93dc	2.9152746
222	0x3fe9bf94	1.826159
223	0x400a7dfb	2.1639392
224	0x4054e119	3.3262389
225	0x404e5713	3.2240646
226	0x403c7e00	2.9451904
227	0x404d2f4d	3.206012
228	0x403cbd39	2.9490492
229	0x3ff436c6	1.9079216
230	0x4010d1af	2.262798
231	0xbe32af2f	-0.1744964
232	0x3ea73162	0.32654864
233	0xbf31b223	-0.6941244
234	0x3fb25712	1.3932822
235	0x3f3b5316	0.73173654
236	0x40158539	2.3362563
237	0x3e983803	0.29730234
238	0xc08ad009	-4.337895
239	0xc065dafe	-3.5914912
240	0xc1136721	-9.212678
241	0x41554964	13.330418
242	0x40790782	3.8910832
243	0x405e57d7	3.4741113
244	0x40469f81	3.1034853
245	0x4035f1f8	2.8428936
246	0x404772b8	3.1163769
247	0x407334ce	3.800098
248	0x3f1b56c3	0.6067926
249	0x402c3392	2.6906476
250	0x402cdc43	2.7009437
251	0x401a8ee6	2.4149718
252	0xbec6de7a	-0.3884161
253	0x3e7f8b14	0.24955398
254	0x3ee0e3a2	0.4392367
255	0x401e2e07	2.4715593

feature_net.linear_layer_0.bias f4 [32]
0	0x40150da0	2.3289566
1	0x405a32b1	3.409344
2	0x40a373d6	5.10789
3	0x40ade79f	5.434524
4	0x405343e4	3.3010187
5	0x40630831	3.547375
6	0x40244487	2.5666826
7	0x4049986d	3.1499283
8	0x40152faa	2.3310342
9	0x408002ac	4.000326
10	0x4070ccd1	3.762501
11	0x400da3d6	2.2131248
12	0x3fcf863b	1.6212839
13	0x403991f3	2.899533
14	0x4063e918	3.561102
15	0x4039e05e	2.9043193
16	0x4067896c	3.6177626
17	0x401b5bda	2.4274812
18	0x40260e4b	2.5946224
19	0x4049800e	3.1484408
20	0x4076723f	3.850723
21	0x4005ae3b	2.0887592
22	0x409a370b	4.819219
23	0x401feb45	2.4987347
24	0x40259328	2.5871067
25	0x40175003	2.3642585
26	0x407dab07	3.9635637
27	0x40376206	2.8653579
28	0x4010c154	2.2617998
29	0x3feef1b4	1.8667512
30	0x3fa1ad9e	1.2631109
31	0x4086b7d3	4.2099395

feature_net.layer_norm_0.weight f4 [32]
0	0x3e447b4f	0.19187663
1	0x4106edac	8.433025
2	0x4007c5d7	2.1214502
3	0x40f550d0	7.666115
4	0x40a305d5	5.094462
5	0x407a4c27	3.910898
6	0x4177a643	15.478091
7	0x40f8886f	7.7666545
8	0x41672cf3	14.448474
9	0x40806f54	4.01359
10	0x40afb789	5.491154
11	0x411a2a1e	9.6352825
12	0x40de29a7	6.9425845
13	0x410f8096	8.968893
14	0x40821bab	4.0658774
15	0x413178aa	11.091959
16	0x40c87cdb	6.265241
17	0x3e904340	0.28176308
18	0x3e4d7934	0.20065767
19	0x404cc46c	3.1994886
20	0x40226222	2.5372396
21	0x400179fe	2.0230708
22	0x40a2368c	5.0691586
23	0x41656f0d	14.339612
24	0x40b219ae	5.5656347
25	0x3e70678c	0.23477
26	0x40d9d6d0	6.807472
27	0x4119085c	9.564541
28	0x40b9f059	5.8105893
29	0x4079e770	3.9047508
30	0x40a985c2	5.297578
31	0x4091a8df	4.551864

feature_net.layer_norm_0.bias f4 [32]
0	0xbf31cde2	-0.6945478
1	0x4052ce3b	3.2938373
2	0x403f079a	2.984839
3	0x3f004895	0.5011075
4	0x3efadc9d	0.4899644
5	0xbf569c1a	-0.8383194
6	0x3f84dcaf	1.0379847
7	0x3fd6c3c7	1.6778497
8	0x3fee9b11	1.8641073
9	0x3ffe13ac	1.9849753
10	0x3f3bd109	0.7336584
11	0xbe1ccb7a	-0.15311995
12	0x405cf356	3.452352
13	0x3f485452	0.7825366
14	0x400dc482	2.215119
15	0x3e5976a3	0.21236663
16	0x3f9ad03f	1.2094802
17	0xbf44b72e	-0.7684201
18	0xbf501a12	-0.8128978
19	0x3fb32910	1.3996906
20	0x3f5d80a7	0.8652443
21	0x3fc11669	1.5084964
22	0xbf594623	-0.84872645
23	0x3f4852d6	0.782514
24	0x3f87645c	1.0577502
25	0xbf6ed7a0	-0.9329777
26	0x3fa7dfb0	1.3115139
27	0xbd568166	-0.052369498
28	0x3e7306f0	0.23733115
29	0x3f9de617	1.2335843
30	0xbf024c3c	-0.50897574
31	0x405ecbee	3.4811969

feature_net.linear_layer_1.weight f4 [32, 32]
0	0x3fe26d03	1.7689518
1	0xc0959895	-4.6748757
2	0x3eb11280	0.34584427
3	0x40007529	2.007151
4	0xbe2bd498	-0.16780317
5	0x40afb3b2	5.4906855
6	0x409a5168	4.8224373
7	0x4094937f	4.643005
8	0xbec1b54b	-0.37833628
9	0x40948492	4.641183
10	0x40f6d099	7.7129636
11	0xbdaae2a2	-0.08344008
12	0x40834176	4.101741
13	0x413d9525	11.848912
14	0x3eef293f	0.46711156
15	0xc08c5ba7	-4.386188
16	0xc0d3f083	-6.6231093
17	0x3d78dc09	0.060756717
18	0xbf161392	-0.5862361
19	0x4109befa	8.609125
20	0x40344ddd	2.8172524
21	0x40c54161	6.164231
22	0xc09c06e8	-4.875843
23	0x40b3a265	5.6135736
24	0x409e0abb	4.93881
25	0x3f301e01	0.6879578
26	0x407877e9	3.8823187
27	0x40b61c1f	5.6909328
28	0xc00765a8	-2.1155796
29	0x3f57eb8f	0.8434381
30	0xbe02181c	-0.1270451
31	0xbfc6f6bc	-1.5544047
32	0xbe3baa52	-0.18326691
33	0xc074c9ac	-3.824809
34	0x3f870be2	1.0550501
35	0xbfb5a639	-1.4191352
36	0x4053fc9d	3.3122933
37	0x40b55272	5.666314
38	0x4086b93b	4.210111
39	0x4031547a	2.770781
40	0x3f3e8312	0.7441875
41	0xbff56b55	-1.917338
42	0xbfee6aa1	-1.862629
43	0xc0f59ed0	-7.6756363
44	0xc0ba2bd5	-5.8178506
45	0x401c016b	2.4375865
46	0xc08cfb8b	-4.405706
47	0x40d35392	6.6039515
48	0xc1172747	-9.447089
49	0xbe2d84c1	-0.16945173
50	0x3f3d8719	0.7403427
51	0x40daed7d	6.8414903
52	0x40bc519e	5.884963
53	0x40abfd1b	5.3746467
54	0x3f661ed5	0.89890796
55	0x4080db28	4.0267525
56	0x3f08f417	0.5349745
57	0xbafe5759	-0.0019404694
58	0x40cc672c	6.387594
59	0xc08a025a	-4.312787
60	0xc0070409	-2.1096213
61	0xbfe5f400	-1.7965088
62	0x41293d60	10.577484
63	0x3f8c6435	1.0968081
64	0x3fce6e2d	1.6127373
65	0x40a0701f	5.0136867
66	0x403d3dd3	2.9568985
67	0x4077557a	3.864592
68	0x412cd7f8	10.802727
69	0x40958bd3	4.6733184
70	0x41a5963d	20.698359
71	0x40b51c20	5.659683
72	0xc0790aac	-3.8912764
73	0x414ba3a9	12.727456
74	0x4094e941	4.6534734
75	0xc109def1	-8.616929
76	0x41107ab8	9.029961
77	0x4136195b	11.38119
78	0x40fec48e	7.9614935
79	0xc04bb9ce	-3.1832156
80	0xc0a57e18	-5.1716423
81	0xbd0c2ee8	-0.03422442
82	0xbf663040	-0.89917374
83	0x40eadcae	7.3394384
84	0x3ffbc322	1.9668925
85	0x40ff658a	7.981145
86	0x40a8472c	5.258688
87	0x4148c21b	12.547389
88	0x405975c5	3.397813
89	0xbe550ea9	-0.20806374
90	0x41008369	8.032083
91	0x3fae8b31	1.3636228
92	0x40478106	3.11725
93	0x40e948fd	7.2901597
94	0x40c06f37	6.013576
95	0x4133759e	11.216215
96	0x3fdf8e01	1.7465211
97	0x40a5dd0e	5.183234
98	0x4037585c	2.864768
99	0x408fb5d7	4.4909472
100	0x412a92f1	10.660874
101	0x409fd3cf	4.9946055
102	0x41a36c64	20.427925
103	0x40b5458c	5.6647396
104	0xc079ca97	-3.90299
105	0x4145bbe7	12.358375
106	0x40a241f6	5.070552
107	0xc108e80b	-8.556651
108	0x4109337c	8.575069
109	0x412ef6f9	10.935296
110	0x40ffd758	7.995037
111	0xc04fbf14	-3.2460375
112	0xc09ee576	-4.9655104
113	0x3e0620ec	0.13098496
114	0xbf5e2f3a	-0.8679081
115	0x40f89a3c	7.7688274
116	0x40016b6f	2.0221822
117	0x40fce36a	7.9027605
118	0x40ad3f8b	5.4140067
119	0x4149f102	12.62134
120	0x408451c6	4.134982
121	0x3e9d6be8	0.30746388
122	0x4107cc57	8.487388
123	0x3f94575f	1.1589164
124	0x40543d8a	3.316256
125	0x40e6bfda	7.2109194
126	0x40d57077	6.6699786
127	0x41388e1d	11.534696
128	0x3e5441e6	0.20728263
129	0x4032e782	2.79538
130	0x405aa0ca	3.4160638
131	0x40baf7bd	5.8427415
132	0xbe8a31cb	-0.26991114
133	0xc0f06533	-7.5123534
134	0x40007256	2.0069785
135	0x411696bd	9.411801
136	0x3fc1b432	1.5133116
137	0x4089a133	4.3009276
138	0xbfdaf40d	-1.7105728
139	0xbfaf9e6c	-1.3720222
140	0x4047a389	3.1193564
141	0xc013e491	-2.3108256
142	0x4148baec	12.545635
143	0x400a280d	2.1586945
144	0x3dd1bd8e	0.10241233
145	0x3f881489	1.0631267
146	0x3ea256a3	0.31706724
147	0xbf4dbc1f	-0.80365175
148	0xc0d78450	-6.7349014
149	0x3fff97d4	1.9968209
150	0xbfda587b	-1.7058252
151	0x401bb399	2.4328368
152	0x40671a0c	3.6109648
153	0xbda6b88b	-0.081406675
154	0x3fa52cc4	1.2904286
155	0xbf788fe2	-0.9709455
156	0x3e6febbb	0.23429768
157	0x409ef62a	4.9675493
158	0xc0ebf091	-7.373116
159	0xbf14df4a	-0.5815321
160	0x408f5161	4.478684
161	0x409c24e6	4.879504
162	0x40c74472	6.227105
163	0x3f8037a6	1.0016983
164	0xbf823fd3	-1.0175728
165	0x40b4f685	5.6550927
166	0x3f387236	0.7204927
167	0x40ab04a7	5.344318
168	0x3e28e023	0.16491751
169	0x403fb929	2.9956763
170	0x4004ce29	2.075083
171	0xc0623c45	-3.5349286
172	0x400d6278	2.209135
173	0x3fdde034	1.7334046
174	0x4041de63	3.0291984
175	0x40939b9a	4.6127443
176	0x40a493b2	5.143029
177	0x3f01c1cb	0.5068633
178	0x3d09bdf7	0.03362843
179	0xc0e29d58	-7.081707
180	0x401e926f	2.4776876
181	0xc0e74e02	-7.2282724
182	0x40332d2a	2.7996316
183	0x3fb92829	1.4465381
184	0x400cb5f0	2.1986046
185	0x3e871889	0.26385906
186	0xbfc8b632	-1.5680602
187	0x3ed09741	0.40740398
188	0x415c98d3	13.787311
189	0xc05e9c3e	-3.4782863
190	0x3cc1b20d	0.023644472
191	0x41804068	16.031448
192	0x3f3c9a7d	0.7367323
193	0x410c3e04	8.765141
194	0xc084fb14	-4.155649
195	0x40cf9c56	6.487834
196	0x4063e9e9	3.5611517
197	0x3e1ab7ea	0.1510922
198	0x4092457a	4.570981
199	0xc0829038	-4.080105
200	0xc0ca1d80	-6.316101
201	0x4031ad55	2.7762043
202	0x4083ce8f	4.1189647
203	0x4049ae68	3.15127
204	0x405a4a74	3.4107943
205	0xc005f3a8	-2.0929966
206	0x40088a7f	2.1334531
207	0x3fb93223	1.4468426
208	0x4068830a	3.632998
209	0xbf3be649	-0.7339826
210	0x3f30c238	0.69046354
211	0xbfd9ce1b	-1.7016023
212	0x40547c1d	3.3200753
213	0x409f525d	4.978804
214	0x400baf8f	2.1825902
215	0xc0b8625f	-5.762008
216	0x40d3416f	6.6017375
217	0xbe484d42	-0.19560722
218	0xbf4928e9	-0.7857805
219	0xc0cda4d6	-6.4263716
220	0x409c040f	4.8754954
221	0x3fcda2f9	1.606536
222	0xbe95387a	-0.2914465
223	0x402a49e6	2.6607604
224	0x4027d2df	2.6222456
225	0xbfcc8804	-1.5979009
226	0x4076f822	3.8588948
227	0xc1066320	-8.3992
228	0x40cd9fdb	6.4257636
229	0x4088ba24	4.2727222
230	0x41065f7e	8.3983135
231	0x41351c24	11.31937
232	0xbfe597f6	-1.7937
233	0xc0674f9f	-3.6142347
234	0xbf8a3c34	-1.0799623
235	0xc0bc59c8	-5.8859596
236	0xbf83f653	-1.0309547
237	0x3f3e6a06	0.7438053
238	0x3f65e7e8	0.89806986
239	0xc11ef968	-9.93589
240	0xbebeeef0	-0.3729167
241	0x3d7c7fa1	0.061645154
242	0x3e9bf2cb	0.30458674
243	0x4093cbc4	4.6186237
244	0x3fa04b30	1.2522945
245	0x3ebc003e	0.36718935
246	0xbf615bd6	-0.88030756
247	0x41128560	9.157562
248	0x41158092	9.343889
249	0x3ebc157c	0.3673514
250	0xbfe1297e	-1.7590787
251	0x3f0d833a	0.5527836
252	0x3f9fece4	1.2494168
253	0x3f302bf9	0.68817097
254	0xbefe1e08	-0.49632287
255	0x4003e051	2.0605662

feature_net.linear_layer_1.bias f4 [32]
0	0x407b9a21	3.9312823
1	0x3f73642f	0.95074743
2	0x410b3b49	8.701974
3	0x41108814	9.033222
4	0x3f3e31f6	0.74294984
5	0x40a6cc13	5.2124114
6	0x404d7687	3.2103593
7	0x3ff9c007	1.9511727
8	0x400b994b	2.1812313
9	0x3f5f0d58	0.87129736
10	0x40703395	3.7531483
11	0x4011b0f3	2.2764251
12	0x4086828e	4.203437
13	0x410790b4	8.472828
14	0x40ff32cd	7.9749513
15	0x400297f5	2.0405247
16	0x40b6bb75	5.710383
17	0x401614a5	2.34501
18	0x40051526	2.0794158
19	0x40fba39b	7.8637214
20	0x3fcb69a6	1.5891616
21	0x406e6139	3.724684
22	0x3f86fa5a	1.0545151
23	0x4064200f	3.5644567
24	0x4060b56f	3.5110738
25	0x3fd97b35	1.6990725
26	0x40342b2b	2.8151348
27	0x3e6cb810	0.2311709
28	0x41002ab8	8.010429
29	0x40a2c4a0	5.086502
30	0x4034df6f	2.8261373
31	0x402ade8e	2.6698337

feature_net.layer_norm_1.weight f4 [32]
0	0x408c4c3d	4.3843064
1	0x40df79b8	6.9836082
2	0x3ea13fc9	0.31493977
3	0x3eaee09b	0.34155735
4	0x40c596e5	6.1746697
5	0x410e741f	8.90335
6	0x41140124	9.250278
7	0x412cb25b	10.793544
8	0x4066ce82	3.6063542
9	0x41459077	12.34777
10	0x40ff7ba7	7.9838443
11	0x4125ad73	10.354846
12	0x40eb850e	7.359992
13	0x3e8987c1	0.26861385
14	0x3eb26076	0.3483922
15	0x40e1850e	7.047492
16	0x40eb8f53	7.3612456
17	0x4096ab88	4.708439
18	0x412ca8ba	10.791193
19	0x3ea2b894	0.31781447
20	0x413c3925	11.763951
21	0x41146cf5	9.276601
22	0x4037db33	2.8727539
23	0x40c1a4f0	6.051384
24	0x410806e5	8.501683
25	0x410391d6	8.2231045
26	0x4122315b	10.13705
27	0x40ba2171	5.816582
28	0x3e8d0397	0.275418
29	0x40e8793a	7.264798
30	0x40bd6a8f	5.9192576
31	0x40c3b0b6	6.115321

feature_net.layer_norm_1.bias f4 [32]
0	0x3fe2ff8d	1.7734238
1	0x3fbf0e77	1.4926289
2	0xbf2f219b	-0.6841065
3	0xbf3d4665	-0.7393554
4	0x40775972	3.8648343
5	0x40919bb4	4.5502567
6	0x40115f2b	2.2714336
7	0x40454a9e	3.0826793
8	0x409a2375	4.8168283
9	0x3fde2cdf	1.7357444
10	0x3f028074	0.50977254
11	0x40402ccb	3.002734
12	0x4052d66b	3.294337
13	0xbf358f6c	-0.7092197
14	0xbf35a65a	-0.7095696
15	0x3fe2a3fc	1.7706294
16	0x404334d3	3.0500991
17	0x404aa728	3.1664524
18	0x4080c57f	4.0241084
19	0xbf282ae5	-0.6569045
20	0x3fb0939c	1.3795047
21	0x405f0b65	3.4850705
22	0x405cd630	3.450573
23	0x3fed0ea8	1.8520098
24	0x3fbba165	1.4658629
25	0x3fd35c9f	1.6512641
26	0x40018d6c	2.0242567
27	0xbf8f981f	-1.1218299
28	0xbf31fc28	-0.69525385
29	0x4060abb5	3.5104802
30	0x3fd98613	1.6994041
31	0x3fe542ca	1.7911007

feature_net.linear_layer_output.weight f4 [15, 32]
0	0x3f91b5fa	1.138366
1	0xc018085c	-2.3755102
2	0x3e23883f	0.15969943
3	0xbee22715	-0.44170442
4	0xc060c0f5	-3.5117772
5	0xc0273106	-2.6123672
6	0x40881960	4.2530975
7	0xc0149cf8	-2.3220806
8	0x4089c061	4.3047338
9	0xbf8e42ad	-1.1114098
10	0xbf8b2eff	-1.0873717
11	0x3faece14	1.365664
12	0x408eda86	4.464175
13	0x3d1442a4	0.036196366
14	0x3d78a788	0.060706645
15	0xc00c2716	-2.1898856
16	0xbf295f83	-0.66161364
17	0x3e946577	0.28983662
18	0xc048642d	-3.1311142
19	0xbf6f248d	-0.9341515
20	0x40671766	3.6108031
21	0x4036a357	2.8537195
22	0x40f0cbc2	7.524873
23	0x3f861696	1.0475643
24	0x4104651f	8.274688
25	0x401786d9	2.3676054
26	0xbf92345e	-1.1422231
27	0x41329bf3	11.163074
28	0x3d06b664	0.032888785
29	0xc0bfb78a	-5.9911547
30	0xc07a9f49	-3.915972
31	0xc081da40	-4.057892
32	0xc0a50c1a	-5.1577272
33	0xbff8bad7	-1.9432019
34	0xbe7ce13a	-0.24695292
35	0xbe890cff	-0.26767728
36	0x4122489a	10.142725
37	0xbf2e539a	-0.68096316
38	0x3e197d2e	0.14989159
39	0x3ff52150	1.9150791
40	0xc076011c	-3.8438177
41	0x40356fb7	2.8349435
42	0x3ef678d5	0.48139063
43	0x3f3b9c2b	0.7328517
44	0xc130139d	-11.004788
45	0x3d48df2c	0.04904096
46	0x3d8c9fde	0.0686643
47	0x408b5497	4.354076
48	0xbe9b77b0	-0.30364752
49	0x4026c8a2	2.6059957
50	0xc00b28d6	-2.1743674
51	0x3f03cb29	0.5148187
52	0x3fdcb7eb	1.7243627
53	0x3efe0aee	0.49617714
54	0x3fcbcfa2	1.592274
55	0x403bda1f	2.935188
56	0xc03fbdb5	-2.9959538
57	0x3fea97f3	1.8327621
58	0xbdefbdbf	-0.11706113
59	0xbf889007	-1.0668954
60	0x3e84dead	0.25951138
61	0x40921c35	4.5659432
62	0xc090f819	-4.5302854
63	0xbfdd9ced	-1.7313515
64	0x3fc25d03	1.5184635
65	0x40a41a35	5.128199
66	0xbec06ad5	-0.37581506
67	0xbea993ee	-0.33120674
68	0xc0d0798f	-6.5148387
69	0x3f5ab2a7	0.8542885
70	0x40975b0e	4.729865
71	0xbfc1c884	-1.5139318
72	0xc000ac97	-2.010534
73	0xc02cdba2	-2.7009053
74	0x3f8c4785	1.0959326
75	0xbf3764d7	-0.71638244
76	0x40e8e0e6	7.2774534
77	0x3f0b42c5	0.5439876
78	0x3e76ea7e	0.24112889
79	0xc036cb0b	-2.8561428
80	0x4089aad1	4.3021016
81	0xc0975945	-4.729647
82	0xbff98fc7	-1.9497002
83	0xbea694e3	-0.32535467
84	0xc0438162	-3.054772
85	0xbf8178f1	-1.0115033
86	0xbfcd94d0	-1.6061039
87	0x3f93c06e	1.15431
88	0x40e37aa6	7.1087217
89	0x404c8033	3.1953247
90	0xc09caf21	-4.896378
91	0xc0574d58	-3.3640957
92	0xbe209414	-0.15681487
93	0xc061283c	-3.5180807
94	0x4055c894	3.3403673
95	0xbac61617	-0.0015112784
96	0xc06f01a3	-3.734475
97	0xc0c37bb6	-6.1088514
98	0xbe1065b4	-0.14101297
99	0x3f084ee6	0.5324539
100	0xbdb0f716	-0.08640878
101	0x414bbbc4	12.733341
102	0x3f0b0204	0.5429995
103	0x3ee969c7	0.45588514
104	0x3e83b22d	0.25721875
105	0xbf5865a4	-0.8453009
106	0xbfcde7f8	-1.6086416
107	0xbfbd514e	-1.4790437
108	0x3fe3c3a1	1.7794076
109	0x3ad3541d	0.001612309
110	0x3c7e630f	0.015526547
111	0xc0c2d668	-6.0886726
112	0x3fb46cd8	1.4095716
113	0x40b134ad	5.53768
114	0x3f91a451	1.137827
115	0xbef670a3	-0.4813281
116	0xc069e8e8	-3.6548405
117	0xc03b17b8	-2.9233227
118	0xc083dffe	-4.121093
119	0x40051a89	2.0797446
120	0xc05ba0f7	-3.4316995
121	0x3fe65404	1.799439
122	0x4007cce2	2.12188
123	0xc093a26d	-4.6135774
124	0x3ec89c57	0.39181778
125	0xc011f925	-2.2808316
126	0xc00fdcbf	-2.2478483
127	0x3ea2c7d0	0.3179307
128	0x40a28269	5.078419
129	0x40757528	3.8352757
130	0xbe88aee9	-0.26695946
131	0x3db33f0e	0.08752261
132	0x4042779b	3.0385501
133	0xc11aee6f	-9.683211
134	0xbf42af8c	-0.76049113
135	0x3e4a7f07	0.1977502
136	0x402f1036	2.7353644
137	0x3f5ae200	0.855011
138	0x40dd241e	6.910659
139	0x3f791ea4	0.9731238
140	0xbf799d30	-0.97505474
141	0x3df35ce0	0.11882949
142	0xbe3aa07e	-0.18225285
143	0x40cecf52	6.4628077
144	0xbe9b737f	-0.30361554
145	0xc0fc29f4	-7.880121
146	0x407fef0d	3.9989655
147	0xbf5d648d	-0.86481553
148	0x408024c7	4.0044894
149	0xc0657462	-3.5852284
150	0x41108932	9.033495
151	0xc06d6cf9	-3.7097762
152	0xbf5ad919	-0.85487515
153	0x405653ba	3.3488603
154	0xbd3cac4f	-0.046062764
155	0xbeaddc30	-0.33957052
156	0x3eb984e1	0.3623419
157	0x404319a4	3.04844
158	0x401121b5	2.2676823
159	0x3f012449	0.5044599
160	0x3f68745b	0.90802544
161	0xbeee09b3	-0.46491775
162	0xbeac59fd	-0.33662406
163	0xbe73fb51	-0.23826338
164	0xbfefb4f1	-1.8727094
165	0xbfaeeb6f	-1.3665599
166	0xbf8b4060	-1.0879021
167	0xc09c03ea	-4.875478
168	0x3f22b2b6	0.6355394
169	0xc09b32df	-4.84996
170	0x408e4653	4.4460845
171	0xbfca4bfd	-1.580444
172	0x3ea9adbd	0.33140364
173	0x3e2663ba	0.1624898
174	0x3ddd90d9	0.10818643
175	0xbf8ce85b	-1.1008409
176	0x404691e3	3.1026542
177	0xbd81af4d	-0.06332264
178	0xbf11f71e	-0.57017696
179	0xbf5fe51a	-0.87458956
180	0xc0d0cf37	-6.525295
181	0x4029d8f4	2.6538668
182	0xc05bb204	-3.4327402
183	0x40822a21	4.0676427
184	0x3f88e886	1.069596
185	0xc01fe6cf	-2.4984624
186	0xc08e823e	-4.4533987
187	0x3fd5f4f1	1.6715375
188	0xbe17837b	-0.1479625
189	0x4007e89f	2.123573
190	0xbfbaf716	-1.4606655
191	0x3fb9fd4a	1.4530423
192	0x4009373f	2.143997
193	0x3eeaeb53	0.45882663
194	0x3e1634a7	0.14668523
195	0xbbc39fe1	-0.005969987
196	0x3fb6f0db	1.4292253
197	0x3e84b7ea	0.25921565
198	0x3ff0be40	1.880806
199	0x3f7ec627	0.99521106
200	0x3f56d1b1	0.83913714
201	0x3fc15c66	1.5106323
202	0x3da447b7	0.08021491
203	0x3f0c9b8e	0.5492486
204	0x3ef6a743	0.48174486
205	0xbd96a55a	-0.07355757
206	0x3d01914a	0.0316327
207	0x3ecf6b3a	0.40511495
208	0x3ef76939	0.48322466
209	0x3f750786	0.95714605
210	0x3f5ad43e	0.85480106
211	0xbe64517f	-0.22296713
212	0x3eeb9cf2	0.46018177
213	0x3f5bc8db	0.85853356
214	0x401c0a41	2.4381258
215	0x3dd82cc2	0.10555412
216	0xbdfd3ba5	-0.12364892
217	0x3e8bcc11	0.27304128
218	0x3ee5273e	0.44756502
219	0x3fe9780a	1.8239758
220	0xbe41def1	-0.18932702
221	0x3dec03f7	0.11524194
222	0x3f98eae9	1.1946689
223	0x358bf67e	1.0428046e-06
224	0x3ff84d42	1.9398577
225	0xbf00537a	-0.50127375
226	0xbddb547a	-0.10709472
227	0xbd95dd5f	-0.07317614
228	0xbeca868d	-0.3955578
229	0x3f802ae7	1.0013093
230	0xc015a339	-2.3380873
231	0xc0ab7ebc	-5.3592205
232	0xbf115cbc	-0.56782126
233	0xc0ccc639	-6.399197
234	0x3f27b89d	0.6551607
235	0x3e471b8c	0.19444102
236	0x3faaff9b	1.3359255
237	0x3c812136	0.015762907
238	0x3f3aac31	0.72918993
239	0x40b4ce77	5.650203
240	0x3fb94c9a	1.4476502
241	0x3fabca8b	1.3421186
242	0xc03e9cce	-2.9783206
243	0x3d05922f	0.032610115
244	0xc0bcabc8	-5.8959694
245	0x402a6ef8	2.663023
246	0x3ef9c006	0.48779315
247	0x408d7ae1	4.42125
248	0x404d5951	3.2085764
249	0xc025766d	-2.5853531
250	0x40661b31	3.5954096
251	0x3fdee1c1	1.7412645
252	0x3e8d1719	0.27556685
253	0x401215b4	2.2825747
254	0x4045731a	3.0851502
255	0xbef7468a	-0.48296005

feature_net.linear_layer_output.bias f4 [15]
0	0xbded1f1c	-0.11578199
1	0x3fd24e14	1.6430078
2	0x401eac58	2.479269
3	0xc00bc664	-2.1839838
4	0x3e31792b	0.17331378
5	0xbfcfe34a	-1.6241238
6	0x3fa861c0	1.3154831
7	0x3e8c2a25	0.27375904
8	0x3e74cd9b	0.23906557
9	0x3ff2fc3b	1.8983225
10	0xbefd0b0c	-0.4942249
11	0xbec04518	-0.37552714
12	0x3f063342	0.52421963
13	0x3fe2eb5c	1.7728076
14	0x40423e7e	3.0350642

feature_net.linear_layer_0.weight f4 [32, 21]
0	0x3f25d1e9	0.6477342
1	0x40c2da74	6.0891666
2	0x401b56b9	2.4271681
3	0xc05de2d3	-3.4669693
4	0xc115e044	-9.367252
5	0x4025ce39	2.5907118
6	0x409055ce	4.510474
7	0xc01450ed	-2.3174393
8	0xc0316286	-2.7716384
9	0x41643a0d	14.264173
10	0xc098d1c0	-4.7756042
11	0x40938e40	4.6111145
12	0x40a8fd25	5.2809014
13	0x40a32c12	5.0991297
14	0x40ca7b20	6.32753
15	0x407a4358	3.9103603
16	0x40a5c934	5.180811
17	0x40ad20d3	5.410257
18	0x40a1d4a1	5.0572057
19	0x40b1ff83	5.5624404
20	0x40b0fa5c	5.5305614
21	0xbe8a3282	-0.2699166
22	0x4040dd35	3.0135014
23	0x40c36927	6.106586
24	0x3eedd0b1	0.4644828
25	0x400aef54	2.1708574
26	0x4010e796	2.264135
27	0xc0d36607	-6.6062045
28	0xc06f9460	-3.743431
29	0xc098812a	-4.765767
30	0xbf41c20c	-0.7568672
31	0x4140ccfa	12.050043
32	0x40aa8925	5.3292413
33	0x40ba1b3e	5.8158255
34	0x409605cc	4.6882076
35	0x40eb1418	7.346203
36	0x40829b06	4.0814238
37	0x40819460	4.049362
38	0x40aba290	5.363594
39	0x40b421fa	5.6291475
40	0x40b52198	5.660351
41	0x40cc2dff	6.3806148
42	0x3e017305	0.12641533
43	0x40439628	3.0560398
44	0x40c67ad9	6.202496
45	0x4007b937	2.1206796
46	0xc073acbe	-3.8074183
47	0x3f99ed55	1.2025553
48	0xbfa0d35b	-1.25645
49	0xbf25a5b7	-0.64705986
50	0x418b4d55	17.41276
51	0xc07d3c13	-3.9567916
52	0xc0e09122	-7.0177164
53	0x40834947	4.102695
54	0x40c48931	6.141747
55	0x402df9d0	2.7183723
56	0x407c744f	3.944599
57	0x40a538c2	5.1631784
58	0x40b18f6c	5.5487576
59	0x40c4c2d1	6.1487813
60	0x40880290	4.250313
61	0x40cf21c5	6.4728723
62	0x40c16edc	6.0447826
63	0xbfde8447	-1.7384118
64	0xc0935957	-4.6046557
65	0x3fea4a99	1.8304015
66	0x415af02a	13.683634
67	0xbf939a4f	-1.1531466
68	0x40fef9ab	7.967977
69	0xc0146484	-2.318635
70	0x40eaa41b	7.3325324
71	0x412da334	10.8523445
72	0x408aaba5	4.3334527
73	0x401cc758	2.449667
74	0xc001359e	-2.0188975
75	0x410dbfae	8.859297
76	0xc081b762	-4.0536356
77	0x3fed7418	1.8551054
78	0x413e6c79	11.901483
79	0x40c9cdfc	6.3063946
80	0x408ffd73	4.4996886
81	0x40dc2a59	6.8801694
82	0x4106c73f	8.423644
83	0x40c559bb	6.1672034
84	0xbf4713d5	-0.77764636
85	0x3fc64c15	1.5491968
86	0xbf8e5887	-1.1120766
87	0xc05acc31	-3.4187129
88	0x3f74d721	0.9564076
89	0x40db907c	6.8613873
90	0x3ff4945d	1.9107777
91	0xbfe89936	-1.8171756
92	0xc0e1d4ac	-7.057211
93	0x416e18a9	14.881021
94	0xc0f02567	-7.5045657
95	0x40969006	4.705081
96	0x40b9c4cf	5.8052745
97	0x406a85db	3.66442
98	0x409ba175	4.863459
99	0x40a67bb5	5.202601
100	0x40a42a73	5.130182
101	0x4096b03b	4.7090125
102	0x40ac00fd	5.3751206
103	0x40c6768b	6.2019706
104	0x409c81a2	4.8908243
105	0xbf1419f3	-0.57852095
106	0x406571a4	3.585061
107	0x3fd5acf1	1.6693403
108	0xc0188efc	-2.383727
109	0x408e3e34	4.445093
110	0x3f6407e0	0.89074516
111	0xc068797f	-3.6324155
112	0x400fb46e	2.2453876
113	0xc05de6d7	-3.4672143
114	0xc0d18ad6	-6.5481977
115	0x4177c005	15.48438
116	0x409ba38a	4.8637133
117	0x40c086eb	6.0164695
118	0x404eade8	3.2293644
119	0x40a5fd35	5.187159
120	0x408d99c5	4.4250207
121	0x40b1c3a0	5.55513
122	0x405402e7	3.3126771
123	0x40c97174	6.2950993
124	0x40b885b1	5.7663198
125	0x40989e45	4.76932
126	0x3fa07576	1.2535846
127	0x4089b09e	4.3028097
128	0xc0f63749	-7.6942487
129	0x40034818	2.0512753
130	0x409f2708	4.9735146
131	0x3fdbc47a	1.7169335
132	0xbfb2ceb3	-1.396933
133	0x3f8be45a	1.0929062
134	0xc0f11904	-7.5343037
135	0x412cd26a	10.801371
136	0x40e4a34d	7.144934
137	0x407c8e59	3.9461882
138	0x40bf5273	5.9788146
139	0x406ed51a	3.7317567
140	0x4021254d	2.5179017
141	0x40b5d7bf	5.682586
142	0x40bae1f5	5.8400826
143	0x40d51456	6.6587324
144	0x407728b3	3.861859
145	0x40a74f09	5.228398
146	0x40a56528	5.168598
147	0xc009d7bd	-2.1537926
148	0x406c908d	3.6963227
149	0x40b94db0	5.7907333
150	0x40d26a41	6.5754704
151	0x3f5bc872	0.8585273
152	0xbfef40e9	-1.8691684
153	0x4017a5a3	2.3694847
154	0xc05e96c6	-3.4779525
155	0x413fb854	11.982502
156	0xc00307f1	-2.0473597
157	0xc04d70f1	-3.2100184
158	0x40ad30ea	5.412221
159	0x40c3be4a	6.1169786
160	0x40ac9a4c	5.393835
161	0x40b708cd	5.7198243
162	0x4099d8af	4.8077006
163	0x408c60ff	4.3868403
164	0x40f0fa3a	7.530545
165	0x409548fc	4.665159
166	0x40dbfb19	6.8744016
167	0x40875cbd	4.2300706
168	0xbf277ad8	-0.6542182
169	0x405b2735	3.424268
170	0xc005466d	-2.0824234
171	0xc0d67d30	-6.7027817
172	0x405d3040	3.45607
173	0xbf4107fb	-0.754028
174	0x40d9640e	6.7934637
175	0x4052af9e	3.2919688
176	0x411d54cf	9.833205
177	0x3f929a7b	1.1453394
178	0x412aeb7c	10.682491
179	0x408eeca7	4.466388
180	0x40db460d	6.852301
181	0x409fc0de	4.9922934
182	0x405acab1	3.4186213
183	0x4090bacb	4.522802
184	0x40583022	3.3779378
185	0x4113243a	9.196344
186	0x3fc30cd3	1.5238289
187	0x40da5ce8	6.823841
188	0x4085e8b2	4.184655
189	0xbe561088	-0.20904744
190	0x405c6d2d	3.4441636
191	0xbeac6227	-0.33668634
192	0x404749dd	3.1138833
193	0x3eeaa19d	0.45826426
194	0x405590fe	3.3369746
195	0x40010ab9	2.0162795
196	0xc09f225f	-4.9729457
197	0xc0e3f597	-7.123729
198	0xc0ac875b	-5.391523
199	0x4182c33e	16.345333
200	0x40a141b3	5.03927
201	0x40b06c43	5.5132155
202	0x407fdbe7	3.9977968
203	0x40ab2e33	5.3493896
204	0x40b0590f	5.5108714
205	0x4095b6b9	4.678555
206	0x408575f1	4.170647
207	0x40a8dab5	5.2766976
208	0x40a6c292	5.2112513
209	0x40a09fff	5.019531
210	0x3f727992	0.9471675
211	0x3effa9cc	0.49934232
212	0x3e89d903	0.2692338
213	0x4015a72e	2.3383288
214	0x3eefab1e	0.4681024
215	0x40cbfb01	6.37439
216	0x3f8ceeed	1.1010414
217	0x408c9340	4.392975
218	0x3fa40aca	1.2815793
219	0x40e7311a	7.224744
220	0x40d447ea	6.6337786
221	0xbedd5138	-0.43226027
222	0x410c833e	8.782042
223	0xc06b8b6d	-3.6803849
224	0x3fef4953	1.8694252
225	0x4105ad06	8.354742
226	0x4057592d	3.3648179
227	0x40c0b257	6.02177
228	0x40afd4bf	5.49472
229	0x41030d34	8.190723
230	0x40be1eee	5.9412756
231	0x3ef743f1	0.48294023
232	0x4074cec7	3.8251207
233	0x3e5b0835	0.2138985
234	0xbf122756	-0.5709127
235	0xbe50ca0e	-0.20389578
236	0xc076457d	-3.8479912
237	0x4064c028	3.5742283
238	0x4115202a	9.320353
239	0x40d7caef	6.743522
240	0xc13b7b11	-11.7175455
241	0x41257fb1	10.343675
242	0x403c4d41	2.9422152
243	0x40bb4517	5.852184
244	0x40663440	3.596939
245	0x407afc3e	3.9216456
246	0x409bf530	4.87368
247	0x40754744	3.8324747
248	0x40bd0dfb	5.9079566
249	0x40871622	4.2214518
250	0x40d8ba9d	6.77278
251	0x40b54170	5.664238
252	0xbfa2351a	-1.2672455
253	0x40b90feb	5.783193
254	0xbfc661aa	-1.5498555
255	0xc0474c5a	-3.1140351

feature_net.linear_layer_0.bias f4 [32]
0	0x4066ebda	3.6081452
1	0x405d1c15	3.454839
2	0x40854b8f	4.1654735
3	0x40039909	2.0562155
4	0x406f028a	3.73453
5	0x408ec237	4.461208
6	0x40818fd9	4.0488095
7	0x4059d4e3	3.4036186
8	0x4118c6df	9.5485525
9	0x40871243	4.220979
10	0x4093a5dd	4.613997
11	0x40652b18	3.5807552
12	0x412162ec	10.086651
13	0x4102d521	8.177033
14	0x4113f424	9.247105
15	0x3e18681d	0.14883466
16	0x4103ed0b	8.245372
17	0x41183ac9	9.514352
18	0x4073c710	3.8090248
19	0x41109e37	9.038627
20	0x40f3dfcf	7.6210704
21	0x410db098	8.855614
22	0x40d3a84c	6.614294
23	0x40ab86b4	5.3601933
24	0x406fdf50	3.748005
25	0x412294e5	10.161351
26	0x408b8935	4.360499
27	0x408c33fc	4.3813457
28	0x4086f195	4.21699
29	0x4090b796	4.5224104
30	0x40ceace3	6.4586043
31	0x4131029b	11.063136

feature_net.layer_norm_0.weight f4 [32]
0	0x4151b1b3	13.105884
1	0x41377d8b	11.46815
2	0x41661372	14.379747
3	0x412a33f1	10.637681
4	0x41b98fbc	23.195183
5	0x418d1b90	17.638458
6	0x41304aac	11.01823
7	0x40dba0df	6.8633876
8	0x40e9acf5	7.302363
9	0x419aef75	19.366922
10	0x4106b13a	8.418268
11	0x41239e8a	10.226206
12	0x40fcc9e4	7.899645
13	0x4115a970	9.353867
14	0x40fdec38	7.9350853
15	0x401c971b	2.4467227
16	0x3e892c0c	0.26791418
17	0x410243d6	8.1415615
18	0x41998bb6	19.193218
19	0x3ec957a0	0.39324665
20	0x40f58d2a	7.673482
21	0x404a8393	3.1642807
22	0x4117e0dd	9.492398
23	0x411d0fc3	9.816348
24	0x41925ac6	18.294323
25	0x409f6bc8	4.981907
26	0x4192b846	18.339977
27	0x41920c17	18.255903
28	0x41586560	13.52475
29	0x4176ae68	15.41758
30	0x40809507	4.018192
31	0x408256ff	4.0731196

feature_net.layer_norm_0.bias f4 [32]
0	0x3ff5614c	1.9170318
1	0x3f9433a5	1.1578261
2	0x4014c0b4	2.3242617
3	0x3fb2d6b4	1.3971772
4	0x405fae88	3.4950275
5	0x4036849d	2.851844
6	0x40081682	2.1263738
7	0x3fb2dcb7	1.3973607
8	0x40876e52	4.232217
9	0x4035622c	2.834117
10	0x3f9eab50	1.239603
11	0x40828a09	4.07935
12	0x408b499a	4.3527346
13	0x3f705c7b	0.93891114
14	0x3f93a7cd	1.1535584
15	0xc03f8ae3	-2.992852
16	0xbf8155e2	-1.0104334
17	0x4117b93c	9.482723
18	0x401aceb0	2.4188652
19	0xbf9a6725	-1.2062727
20	0xc00533ca	-2.081286
21	0x40a3fb6b	5.1244407
22	0x3f373150	0.7155962
23	0xc0518dab	-3.2742717
24	0x4050c8e9	3.2622626
25	0x40b8e580	5.778015
26	0x3fd642cf	1.6739138
27	0x40123e97	2.2850702
28	0x409c9359	4.892987
29	0x4041b92a	3.0269265
30	0x40d9fbbd	6.81198
31	0xc04e8e2a	-3.227427

feature_net.linear_layer_1.weight f4 [32, 32]
0	0x3f3cdf5f	0.7377834
1	0x403abb25	2.9176724
2	0x41332e06	11.198736
3	0x411951c5	9.582463
4	0x3ffb8472	1.9649794
5	0x4126b2fe	10.418699
6	0x40ace3fb	5.4028296
7	0x405893e8	3.3840275
8	0x4074f057	3.8271692
9	0x402d6f28	2.7099094
10	0x406f840c	3.7424345
11	0x408a211e	4.3165426
12	0x40865f60	4.1991425
13	0x405e6043	3.4746253
14	0x3da287b4	0.079360396
15	0xc02d2184	-2.7051706
16	0x3f61f3b6	0.882625
17	0xc0833419	-4.1001096
18	0x3f5b3d71	0.8564063
19	0xbeaf640c	-0.34256017
20	0x40849b13	4.14393
21	0xc055c694	-3.3402452
22	0x40bdb7c0	5.9286804
23	0xc0336d75	-2.8035557
24	0x3fecc240	1.849678
25	0xbfb41c6c	-1.4071174
26	0x408c1acb	4.3782706
27	0x40a67115	5.201304
28	0x40d73dbf	6.7262874
29	0xbf9eba7f	-1.2400664
30	0x40609e12	3.5096478
31	0x408f8712	4.485238
32	0x4118710c	9.527599
33	0x402149e0	2.520134
34	0x3fb88fcf	1.4418887
35	0x409199cb	4.5500236
36	0x41684b60	14.518402
37	0x41423108	12.1369705
38	0x40f7f843	7.7490554
39	0xbfa434c0	-1.2828598
40	0x40bf1150	5.9708633
41	0xbfed0f29	-1.8520252
42	0x40e31f5b	7.0975776
43	0x3ff663a3	1.9249157
44	0xc04063e8	-3.0060978
45	0xc0386c37	-2.881605
46	0x40c354ac	6.104086
47	0x4040325d	3.003074
48	0x3f746655	0.95468646
49	0x3fc1b673	1.5133804
50	0xc0551638	-3.3294811
51	0xbf1eb0e4	-0.61988664
52	0x3fcd544e	1.6041353
53	0x4048353b	3.128249
54	0x410d98ac	8.849773
55	0x412e47ad	10.892499
56	0x40aec66d	5.461722
57	0x40305843	2.755387
58	0x40037895	2.0542347
59	0xbf354cd5	-0.7082036
60	0xbf66e616	-0.90194833
61	0xc0290eb4	-2.6415224
62	0xbed9ac0e	-0.4251408
63	0x4074d37a	3.8254075
64	0x408a7d45	4.3277917
65	0xc03cc6fb	-2.9496448
66	0x41438ead	12.222333
67	0x4085d8ef	4.182731
68	0xc08a1df9	-4.316159
69	0xc05784d4	-3.3674822
70	0x410f21b9	8.945733
71	0x406b95b3	3.681012
72	0x40cc7cbd	6.390227
73	0x40c82243	6.2541823
74	0x406b7aaf	3.679363
75	0x41095c75	8.5850725
76	0x4051124a	3.2667413
77	0xc03fefb0	-2.9990044
78	0x40dff2b3	6.9983764
79	0xbfefc37f	-1.8731536
80	0x3e2a50d0	0.1663239
81	0x3ec50155	0.3847758
82	0xc1189beb	-9.538066
83	0x3fa7f605	1.3121954
84	0x40a7716d	5.232596
85	0x4039eea7	2.9051912
86	0xc031db2c	-2.7790022
87	0x40153ce5	2.3318417
88	0x416ae9cc	14.682079
89	0x40c4024a	6.1252794
90	0xc0c604c2	-6.188081
91	0x402ae165	2.670007
92	0x4024384f	2.5659368
93	0x404e8c19	3.227301
94	0x40b29ae8	5.5814095
95	0x40b976e9	5.7957654
96	0x4096e38f	4.715278
97	0xc078f0e4	-3.8897028
98	0x4078333d	3.8781273
99	0x40848e5d	4.1423783
100	0x405f6187	3.4903276
101	0xbea47f73	-0.32128486
102	0x3f8ee1dd	1.1162678
103	0xbe926824	-0.28595078
104	0x3fc2fc00	1.5233154
105	0x4008bba1	2.136452
106	0x410426a8	8.259438
107	0x4085d49b	4.182203
108	0xbf5e31a0	-0.8679447
109	0x402a2e8e	2.6590915
110	0x4063abdf	3.5573652
111	0xc0cbc107	-6.367313
112	0xbe60e93f	-0.21963976
113	0x3fade127	1.3584336
114	0x403327e8	2.7993107
115	0xbf6d8ae1	-0.9279004
116	0x413692c8	11.410835
117	0x3f4437a3	0.76647395
118	0xbf293fc5	-0.6611293
119	0x40207d5f	2.507652
120	0x40d830d6	6.7559614
121	0x407fca70	3.9967308
122	0xbf3c6ab4	-0.73600316
123	0x41307cf0	11.030502
124	0x40e5ba59	7.1789975
125	0xc0b37935	-5.608546
126	0xbf170290	-0.58988285
127	0x3f9e8913	1.2385582
128	0x3fa451cc	1.2837462
129	0x3fbb589c	1.4636416
130	0x408f96d2	4.4871607
131	0x40a18fa2	5.0487833
132	0xc0cfa3c1	-6.4887395
133	0x413a6330	11.649216
134	0x4084dbc3	4.1518264
135	0x407c03d8	3.9377346
136	0x405e0b67	3.469446
137	0xc0c1da04	-6.057863
138	0x40af3438	5.4751244
139	0x41244fc2	10.269472
140	0xc00fadba	-2.2449784
141	0x4017d9da	2.3726716
142	0x40813a87	4.0383945
143	0x401024e3	2.2522514
144	0x3f463e32	0.7743865
145	0x3fc0ca76	1.5061786
146	0xc072ce42	-3.793839
147	0x3f9f7e7d	1.2460476
148	0x40bee577	5.965511
149	0x406c0cb0	3.6882744
150	0x4016e982	2.3580022
151	0x3f0823ee	0.53179824
152	0x409beb09	4.872441
153	0x4049b167	3.1514528
154	0xc1328571	-11.157578
155	0xc09bb7c9	-4.8661847
156	0x40258006	2.585939
157	0x410ba284	8.727177
158	0x40553ae7	3.33172
159	0xbf8c3c33	-1.0955871
160	0x40ad8b07	5.423221
161	0x406d0197	3.703222
162	0xc12325cc	-10.196728
163	0xc04c724b	-3.194476
164	0xc10b4e67	-8.706641
165	0x405a9536	3.415357
166	0xc0197d35	-2.398267
167	0xc06ff6fa	-3.7494493
168	0x4085a32e	4.1761694
169	0xbf06be4b	-0.52634114
170	0xc07f36aa	-3.9877114
171	0xc0e6a0c7	-7.207126
172	0x40e17d42	7.0465403
173	0x406be38d	3.6857636
174	0x40f59616	7.674571
175	0x40d30535	6.5943856
176	0xbed83e21	-0.422349
177	0x416d0003	14.812503
178	0xc04cfe88	-3.2030354
179	0x3f0ba856	0.54553735
180	0xbfa15683	-1.2604526
181	0x413d9d5e	11.85092
182	0x4082d3b2	4.0883417
183	0x408d3f6d	4.4139924
184	0xc12e8f4a	-10.909983
185	0x40c4d7dd	6.1513505
186	0x4018796a	2.3824105
187	0xc02f2871	-2.7368433
188	0x3eba5227	0.36390802
189	0x40071040	2.1103668
190	0x41293725	10.575963
191	0x3e4108a9	0.1885096
192	0x40c1d0f9	6.0567594
193	0xbf94c1dc	-1.1621661
194	0xc0ba789c	-5.827223
195	0x401687df	2.352043
196	0x40cdc5d9	6.4304013
197	0x41382b36	11.51055
198	0xc00dc7b6	-2.2153144
199	0x4020fa8e	2.5152926
200	0x40b04569	5.508473
201	0xc0ec0d20	-7.376602
202	0x3ec2cb28	0.3804562
203	0x41030828	8.189491
204	0x40979685	4.737124
205	0x40ddc725	6.9305596
206	0x4108655d	8.524747
207	0x4074f226	3.8272796
208	0xbf301eae	-0.68796813
209	0x4124ac4a	10.292063
210	0xc0ffe40b	-7.9965873
211	0x3e1d6d4c	0.15373725
212	0x3f948599	1.1603271
213	0x410cc197	8.797263
214	0x412052d3	10.020221
215	0x3fee51e8	1.8618746
216	0x3e508e7b	0.20366852
217	0x40f79d72	7.7379694
218	0x4055b5b2	3.3392148
219	0xc08fa9c7	-4.489475
220	0x40659bac	3.5876265
221	0x40c6568a	6.198064
222	0x41315b79	11.084832
223	0x3e0303ac	0.1279437
224	0x411ba05e	9.726652
225	0x3fb48eb1	1.4106046
226	0x40897434	4.295435
227	0x4117c5f6	9.48583
228	0x41421aa8	12.131508
229	0xbfb11e45	-1.3837363
230	0x40a48038	5.1406517
231	0x41073e5f	8.452727
232	0xc06ee17b	-3.7325122
233	0x3f6ac858	0.9171195
234	0x414c1603	12.755374
235	0x40aadf6c	5.339773
236	0xc03a1d1b	-2.9080265
237	0x402ac1ae	2.6680713
238	0xbfda5d92	-1.7059805
239	0xc07947a5	-3.8949978
240	0xbf14aff4	-0.58080983
241	0xbff1574e	-1.8854768
242	0xbfcede25	-1.6161543
243	0x3fbc4aa7	1.4710282
244	0x4110bc17	9.04592
245	0x3fc824e6	1.563626
246	0x406ed6c4	3.7318583
247	0xbf2a0a65	-0.6642211
248	0x40e8d138	7.2755394
249	0x3fe71e13	1.8056053
250	0x4035d188	2.8409138
251	0xc00e5872	-2.2241483
252	0x4100a839	8.04107
253	0x40b9c5a1	5.8053746
254	0xc04765b0	-3.1155815
255	0x40b26e79	5.5759854

feature_net.linear_layer_1.bias f4 [32]
0	0xbf7f427f	-0.9971084
1	0x405d76a0	3.4603653
2	0x3fe62350	1.7979527
3	0x402e4354	2.7228594
4	0x403ac7f6	2.9184546
5	0x415c57aa	13.771402
6	0x41382f1f	11.511504
7	0xbf4c3035	-0.7976106
8	0x3f88395d	1.0642506
9	0x3e6607c3	0.22463898
10	0x3ee5072c	0.44732034
11	0x403b23b9	2.9240553
12	0x4157447c	13.45422
13	0x3f5bcdbf	0.8586082
14	0x418392e1	16.446718
15	0x3fd991b3	1.6997589
16	0x41813b66	16.154003
17	0x3d2c10d3	0.042008232
18	0xc067e256	-3.6231894
19	0x3f23d2d0	0.6399355
20	0x40092f86	2.1435256
21	0x408602bc	4.187834
22	0x3fa131ba	1.25933
23	0x406ee10a	3.7324853
24	0x3fac05b7	1.3439244
25	0x4139531a	11.582788
26	0x41288f47	10.53498
27	0xc0af1a02	-5.471925
28	0x40d08849	6.5166364
29	0xc0e42664	-7.1296864
30	0x41677652	14.466387
31	0x413d2996	11.822653

feature_net.layer_norm_1.weight f4 [32]
0	0x40d848f1	6.758904
1	0x4130a93b	11.041316
2	0x415efa25	13.93607
3	0x411b8eda	9.722376
4	0x4150a1e2	13.039522
5	0x416b4ae9	14.705789
6	0x41589e47	13.538642
7	0x412ff494	10.997211
8	0x412c5331	10.77031
9	0x416560a7	14.336097
10	0x412ba9bf	10.728942
11	0x4115a671	9.353135
12	0x40a728d4	5.223734
13	0x413d57a4	11.833897
14	0x41b01934	22.012306
15	0x414f1e09	12.944833
16	0x419edccd	19.857813
17	0x411c89ca	9.78364
18	0x40c64691	6.196114
19	0x41340f46	11.253729
20	0x40a88895	5.2666726
21	0x40a4a493	5.1450896
22	0x41322958	11.135094
23	0x4001c612	2.0277143
24	0x4197b6a0	18.964172
25	0x4180af05	16.085459
26	0xbfafc60b	-1.3732313
27	0x4077c31b	3.8712833
28	0x40cd19c1	6.409394
29	0x40bd43bb	5.914518
30	0x416957df	14.583953
31	0x40c86eeb	6.26354

feature_net.layer_norm_1.bias f4 [32]
0	0x3e5fd78e	0.21859571
1	0x3ee1a7c6	0.44073313
2	0xbfe14053	-1.7597755
3	0x3f13411f	0.5752124
4	0x40614876	3.5200477
5	0x41903da2	18.030094
6	0x40f3c165	7.6173577
7	0x401b9c2c	2.431407
8	0xbec1cd22	-0.37851816
9	0x3fe3d370	1.7798901
10	0xbf4b31fa	-0.79373133
11	0xbe43d767	-0.19125138
12	0x41836366	16.423534
13	0xbeda5485	-0.42642608
14	0x418bfa32	17.497166
15	0x40406e22	3.006722
16	0x4198b2ed	19.087366
17	0x3e1970ea	0.1498448
18	0x4015185c	2.3296118
19	0x3f0e6886	0.5562824
20	0x3f5f5153	0.87233466
21	0xc038a43e	-2.8850245
22	0x3dd3279a	0.10310288
23	0xc01abbad	-2.4177048
24	0x40114689	2.2699301
25	0x413a004a	11.625071
26	0x416f8c4b	14.971751
27	0x402ae8d7	2.6704614
28	0xc02820b8	-2.626997
29	0xbfddcf16	-1.7328823
30	0x41744da4	15.268955
31	0xc0c68d0a	-6.2047167

feature_net.linear_layer_output.weight f4 [15, 32]
0	0x3fc628e5	1.548123
1	0xbe9c6c1f	-0.3055124
2	0x41081212	8.504412
3	0x403d33f9	2.9562972
4	0xc055f665	-3.3431637
5	0x3d0e133e	0.03468632
6	0x3f2bde3e	0.6713599
7	0x3f9d0f52	1.22703
8	0xbfa5dca6	-1.2957962
9	0x4092989d	4.5811296
10	0x408fafa8	4.4901924
11	0x4095a878	4.676815
12	0x3ea64d22	0.32480723
13	0x3e21db7f	0.15806387
14	0x3e9af525	0.30265155
15	0xbfd80099	-1.6875182
16	0x4011878e	2.2738986
17	0x3f38b26e	0.7214726
18	0x40418e55	3.0243123
19	0xc0406485	-3.0061352
20	0xc036237b	-2.8459156
21	0xc0592090	-3.3926125
22	0x3fe40eb1	1.7816983
23	0xbefda501	-0.4953995
24	0x3e343c5d	0.17601152
25	0x3e52d636	0.20589527
26	0x3efa83d8	0.48928714
27	0x40cd43f3	6.4145446
28	0x40153647	2.3314378
29	0x3f68507f	0.9074783
30	0xbf4897de	-0.7835673
31	0x3fb39dac	1.4032493
32	0xc01f451c	-2.488593
33	0x3fccc17f	1.599655
34	0x40cd2130	6.410301
35	0xc0ccd69b	-6.401197
36	0x3fa7f587	1.3121804
37	0xbfc2c349	-1.5215846
38	0xbf37a04a	-0.71728957
39	0x401e06b1	2.4691584
40	0xc03eeee1	-2.98333
41	0xc04f6664	-3.2406244
42	0xc0505857	-3.2553918
43	0xc0056a2e	-2.0846057
44	0xbfe8cc50	-1.8187351
45	0x3f9139c7	1.1345757
46	0x4103010b	8.187755
47	0x401dbe54	2.4647417
48	0xc0452e9f	-3.0809705
49	0xbfa2b2b2	-1.2710783
50	0x4013ac96	2.3074088
51	0x4048bef1	3.1366541
52	0x415b3ce1	13.702363
53	0xc03c6e52	-2.9442334
54	0x405c874e	3.4457583
55	0xc0998f53	-4.7987456
56	0xbf80f972	-1.0076125
57	0xc009c996	-2.1529288
58	0xc0116e1e	-2.272346
59	0x3fe1484d	1.760019
60	0x40953231	4.662377
61	0xc08d979b	-4.4247565
62	0xc0421610	-3.0325966
63	0xbf078250	-0.52933216
64	0xc0e531ad	-7.162314
65	0x4084465c	4.133589
66	0x3fb6fd26	1.4296005
67	0x3ef4e341	0.4782963
68	0xc017e806	-2.3735366
69	0x3f207a0f	0.62686247
70	0xbf3fdc86	-0.7494587
71	0x406c228f	3.6896093
72	0x3f8f5ef6	1.1200855
73	0x3f80331b	1.0015596
74	0x3fb36d2d	1.4017693
75	0xc016a0b1	-2.3535578
76	0xc0497a85	-3.148103
77	0xbde033d5	-0.10947386
78	0xc0a098e6	-5.0186644
79	0xc103b5df	-8.231902
80	0x40a05b11	5.0111165
81	0x402de09e	2.7168345
82	0xc0b07a62	-5.5149393
83	0xbf934692	-1.1505911
84	0xc0da908a	-6.830144
85	0x40c19297	6.0491443
86	0x401f3f2a	2.4882302
87	0x3d2c63f0	0.042087495
88	0x3f653e5e	0.8954829
89	0xbfdfa059	-1.7470809
90	0xbf2550f7	-0.6457667
91	0xc0050b95	-2.078832
92	0x403d8972	2.961514
93	0x3f630375	0.8867715
94	0x40ac1b42	5.3783274
95	0x40126abe	2.287765
96	0x3cffa246	0.031205308
97	0x3eac8779	0.33697107
98	0x3f36b9fe	0.7137755
99	0x3ec155b6	0.37760705
100	0x3f5105be	0.81649387
101	0x3fb15c2a	1.3856251
102	0x3f77e619	0.96835476
103	0x3f92df32	1.1474364
104	0x3e17987b	0.1480426
105	0x3f9698fe	1.176544
106	0x3f67fa03	0.9061586
107	0x3f8e991b	1.1140474
108	0x3f7799c6	0.96719015
109	0x3fb7e44d	1.4366547
110	0x3f501c87	0.8129353
111	0x3f3e94a8	0.7444558
112	0x3f2adf9f	0.6674747
113	0x3ed047bb	0.40679726
114	0x3f6ffef2	0.9374839
115	0x3f6c5a54	0.9232533
116	0x3f4e6f16	0.80638254
117	0x3e5e17f2	0.21688822
118	0x3e771c45	0.24131878
119	0x3f6b781b	0.9198014
120	0x3f94fe4b	1.1640104
121	0xbe7eb9a3	-0.24875502
122	0x3f1be5d4	0.60897565
123	0x3faaad38	1.3334112
124	0x3f364505	0.71199065
125	0x3f17096d	0.5899876
126	0x3f15e8a7	0.58558124
127	0x3f8062c3	1.003014
128	0xc197aa35	-18.958109
129	0xc13664af	-11.399581
130	0xc188787f	-17.058836
131	0xc1c12c1f	-24.146544
132	0xc1960245	-18.751108
133	0x410efd1d	8.936795
134	0x3fc22f45	1.5170676
135	0xc19cf32d	-19.618738
136	0xc19e8f87	-19.820082
137	0xc16f3391	-14.950089
138	0xc18897dc	-17.07415
139	0xc1562bc0	-13.385681
140	0x4173a163	15.226901
141	0xc197fa26	-18.997143
142	0x40da720f	6.826423
143	0xc187f0ab	-16.992514
144	0x40d69095	6.705149
145	0xc19780cb	-18.937887
146	0xc1260857	-10.377036
147	0xc1b694d6	-22.822674
148	0xc19cb9ab	-19.590658
149	0xc184cbf3	-16.599585
150	0xc1b986b7	-23.190779
151	0xc06244d7	-3.5354517
152	0xc1cd1aae	-25.638027
153	0x4039ff9a	2.9062257
154	0x410ba16c	8.72691
155	0xc0d83111	-6.7559896
156	0xc12732b9	-10.449883
157	0xc1993b4e	-19.153957
158	0x40914f91	4.5409627
159	0xc046ed27	-3.1082246
160	0xbf86f90b	-1.0544752
161	0x40bc7f1a	5.8905153
162	0xc086294e	-4.192542
163	0xbf38127e	-0.71903217
164	0x3f9cc0ec	1.2246375
165	0x402ff520	2.7493362
166	0x3f874ac4	1.0569692
167	0x3eb08a34	0.3448044
168	0xc08ae0d5	-4.3399453
169	0x4021d069	2.5283453
170	0x40da0356	6.812907
171	0xbfff630e	-1.9952104
172	0x3f9915d1	1.1959783
173	0x4147cdba	12.487726
174	0x3e980094	0.2968794
175	0xc09af076	-4.841853
176	0xbf687aae	-0.90812194
177	0x40c4daa6	6.1516905
178	0x408853a8	4.260212
179	0x40424ac9	3.0358145
180	0x4124b8dc	10.295132
181	0x40767437	3.8508432
182	0x40a64d06	5.1969023
183	0x40325084	2.7861643
184	0xc01da59b	-2.4632328
185	0xbfdf8dfd	-1.7465206
186	0xbfb87641	-1.4411088
187	0xc0c23b5e	-6.069747
188	0x407e2885	3.971223
189	0x4022f3d3	2.5461318
190	0xbf8f4d85	-1.1195532
191	0xc06459ae	-3.5679736
192	0x3eb48568	0.3525803
193	0xc0a202dd	-5.0628495
194	0x411493be	9.28607
195	0xc0ae742a	-5.45168
196	0xbf2ad4da	-0.66731036
197	0x3f63d192	0.88991654
198	0xc030bac3	-2.761399
199	0x3f9635b6	1.1735141
200	0x40ad7170	5.4200974
201	0xc11277b3	-9.154223
202	0xc085add0	-4.1774673
203	0x3fcc926d	1.5982186
204	0x3f33276d	0.69982034
205	0xc0a09f89	-5.0194745
206	0xbf527671	-0.8221198
207	0x404fe529	3.2483618
208	0xbf6233a0	-0.88360023
209	0xc04c2bbb	-3.190169
210	0xbf9132c9	-1.1343623
211	0xc0ca983a	-6.3310823
212	0xbceb00f2	-0.028686974
213	0x401e5778	2.4740887
214	0x40995976	4.7921705
215	0x3daeb202	0.08530046
216	0x3fa5a966	1.2942321
217	0x40107440	2.2570953
218	0x3f6e5c89	0.9310995
219	0x405fd688	3.497469
220	0x3fe2ca27	1.7717942
221	0x4087cf4b	4.2440543
222	0x3fa85fc1	1.3154222
223	0x40d0225c	6.5041943
224	0xbf214ab5	-0.6300462
225	0xc08ba094	-4.363352
226	0x40abb7f0	5.3662033
227	0x3fe12a6e	1.7591074
228	0xc0b34fc4	-5.603487
229	0xbfeb93e6	-1.840451
230	0xc09b30a9	-4.84969
231	0x3fc16359	1.5108443
232	0x410307a7	8.189368
233	0xc10b8bfe	-8.721678
234	0xbf978da5	-1.1840101
235	0x400e0497	2.2190301
236	0x3f36b7ec	0.7137439
237	0xbbd7628e	-0.006573028
238	0x3f938393	1.1524528
239	0xc09c920b	-4.8928275
240	0xbf1089d1	-0.5646029
241	0xc0f53b94	-7.6635227
242	0xbed35863	-0.4127837
243	0xbf888a59	-1.066722
244	0x40719eb7	3.7753122
245	0x411f9c1b	9.975612
246	0x409b0ba7	4.8451724
247	0xc0970cac	-4.720297
248	0x40a96e17	5.2946887
249	0x3fadcd9c	1.3578372
250	0x3e7dd345	0.24787624
251	0xbf759e56	-0.95944726
252	0xbef66bd2	-0.48129135
253	0xc02a97b9	-2.6655104
254	0x3f25855f	0.64656633
255	0x40cc04ca	6.3755846

feature_net.linear_layer_output.bias f4 [15]
0	0x3e875f5e	0.26439947
1	0x3e5cc6a7	0.21560155
2	0xbefa0a33	-0.48835906
3	0x3f7f7bbf	0.99798197
4	0x4124672b	10.2751875
5	0x3f1e1add	0.6175974
6	0x3e4e4c78	0.20146358
7	0x3f74f15e	0.956808
8	0x3e8e2a2e	0.27766556
9	0xbe2f5ed8	-0.17126024
10	0x3e8e1050	0.2774682
11	0xbfa27411	-1.2691671
12	0x3f849834	1.0358949
13	0xbf62db6d	-0.8861607
14	0xbd9030ce	-0.07040559
