otk/AgileRL-MATD3/simple_crypto_v3/result/20240102-0837/MATD3_trained_agent_0015000.pt (torch, 595366 bytes, 336 tensors)

feature_net.linear_layer_0.weight f4 [32, 4]
00000000: 7737 ac40 e5eb 693e 4f44 3240 3621 1440
00000010: 6695 b93d 306e c540 2428 963e 2df8 1340
00000020: 4a55 4340 99ab 0040 67a0 9240 c809 3540
00000030: 1973 c73f 1fa2 8640 6e2d a540 7232 5840
00000040: 62de 9440 228d 7c40 4d62 2e40 f39a b040
00000050: 44a1 4bbe e8f0 af40 7f59 db3f 4ab0 0dbf
00000060: a6cf 0440 71a9 0341 698e 0c40 5c1e 6d40
00000070: 4411 0f40 7397 0141 5663 0940 c7bc 8b40
00000080: fc40 8e40 c5c6 54be 6719 b140 aa8d 9e40
00000090: b1e3 2a40 254c 0541 6cca 1a40 efc8 9b40
000000a0: 271b 0a40 eb44 0341 5821 1040 f71c 6d40
000000b0: fbe8 2540 64a1 0341 1174 0e40 7fce 6f40
000000c0: c4fa e43f 7721 b640 9ab0 8940 a114 af40
000000d0: d62e 8940 1df8 ae40 abc4 ac3f a85d a740
000000e0: 54e0 b73f 96b8 9b40 4df1 8a40 e1a8 8c40
000000f0: d57f a140 eaae b940 7cd8 0a40 832c 9c40
00000100: f63f 8740 4431 5a40 d97d b43f 4f5f 0941
00000110: 2a00 2f40 9c17 ba40 6591 8340 df46 9b40
00000120: 9162 d93f e146 d840 db00 8040 9966 443f
00000130: 5c40 e63f bfab 0041 206f 0a40 1d85 9440
00000140: e3bc 1340 2b43 0241 a500 0b40 4d94 9140
00000150: 8aef 2b40 4f31 0741 6903 2040 782a a240
00000160: 1d32 1040 84ed 0241 aff8 0e40 5f96 7f40
00000170: 833f 1240 105d c540 d641 5a40 56b7 7f40
00000180: 3c38 dd3f 8a33 c23e db0b c940 0677 8c40
00000190: 9cc6 7f40 b1a2 0840 2e2b 1f3f 20f4 6d40
000001a0: 3639 8e40 7d28 2fbd 622d d040 bd64 b53f
000001b0: 2109 0f40 b5f4 0241 1bb9 1640 9da8 8440
000001c0: cfd6 0340 1fbf fb40 8ff2 0a40 daa4 8440
000001d0: 6956 77be 46f0 c340 47fa 5840 391f 903f
000001e0: c22b 1340 9028 0841 0c4f 1d40 e22f 7e40
000001f0: bdb2 9140 13cc 8140 96cd 873e 704c c140
5.3817706 0.22843893 2.7854192 2.314527 0.090616986 6.1697006 0.293275 2.3120224
3.0520806 2.0104735 4.5820804 2.828722 1.5582 4.20729 5.1617956 3.378079
4.6521463 3.946114 2.7247498 5.5189147 -0.19885737 5.4981575 1.7136687 -0.5534712
2.0751739 8.228868 2.196192 3.704978 2.2354288 8.099475 2.146688 4.366794
4.4454327 -0.2077895 5.534351 4.954793 2.6701472 8.33109 2.4186049 4.868278
2.1579072 8.204326 2.2520351 3.7048929 2.592345 8.226902 2.2258341 3.7469785
1.7889028 5.691585 4.302808 5.471268 4.2869673 5.4677873 1.3497518 5.2301826
1.4365335 4.8662825 4.3419557 4.395615 5.0468545 5.802602 2.1694632 4.8804336
4.2265577 3.409257 1.4100906 8.585769 2.734385 5.815382 4.1114984 4.8524013
1.6983205 6.758652 4.0001044 0.7671905 1.7988391 8.04193 2.1630325 4.641249
2.3084037 8.141398 2.1719143 4.549353 2.6864953 8.449538 2.5002081 5.067684
2.2530587 8.182987 2.2339284 3.993553 2.2851264 6.16761 3.4102683 3.995565
1.7282786 0.37929946 6.282697 4.389529 3.9964972 2.13493 0.6217526 3.7180252
4.4444838 -0.042763222 6.50554 1.4171368 2.2349322 8.184743 2.355048 4.1455827
2.0599859 7.86708 2.1710546 4.1451235 -0.24154057 6.1230803 3.3902757 1.1259528
2.2995458 8.509903 2.4579496 3.9716725 4.5530686 4.0561614 0.26524037 6.0405807

feature_net.linear_layer_0.bias f4 [32]
00000000: fc05 af40 49d8 9140 db5b 9640 5bd0 9440
00000010: f06c 3840 6df1 3c40 83b7 fc40 f771 f840
00000020: 9857 3440 581e de40 7e31 fb40 0a2b f240
00000030: 0c92 6140 8b81 1940 227e b440 bf9a 2440
00000040: 261e d340 b851 ac40 aaaa 5840 7109 ff40
00000050: 865d f340 fcb2 d540 cc8a f740 36af a340
00000060: d44d fa40 b463 a040 dfc5 c440 433d f440
00000070: 87ec 0241 86b3 a140 ef55 e840 9f74 d340
5.4694805 4.557652 4.698713 4.650434 2.881649 2.9522355 7.8974013 7.7639117
2.8178463 6.941204 7.8497915 7.567754 3.524539 2.3985317 5.640397 2.571945
6.59743 5.3849754 3.3854165 7.9699025 7.6051664 6.6780987 7.735693 5.115138
7.8220005 5.012171 6.149154 7.632478 8.182746 5.0531645 7.26049 6.607986

feature_net.layer_norm_0.weight f4 [32]
00000000: 76b6 0441 9541 8540 f1ca 0241 7f3d d140
00000010: 69b1 fa40 0364 4540 14de c33e 760b b33e
00000020: ac69 b640 f019 f53e 4b1a 863e 275e 9a3f
00000030: 9a14 8240 4abc a740 c968 6e40 3517 d640
00000040: 9ea1 e240 77be eb3f f4b7 6840 dfc3 243f
00000050: d97b b13e 76ad b83e 784a 053f 3140 a740
00000060: 049c 0641 1b6b c540 f345 2341 2b3d 3a3f
00000070: e9ea 893e 9764 1740 4c0a ef3e fe2a 7840
8.294546 4.1642556 8.174546 6.538757 7.8341565 3.0842292 0.3825537 0.34969682
5.7003994 0.4787135 0.26191935 1.2059983 4.065015 5.2417345 3.7251456 6.690333
7.0822287 1.84175 3.6362276 0.64361376 0.346648 0.3606984 0.52066755 5.226586
8.41309 6.1693244 10.204577 0.72749585 0.26937035 2.3655145 0.46687543 3.877624

feature_net.layer_norm_0.bias f4 [32]
00000000: 3737 2c3f 4cb6 1440 efa3 4ebe ce97 a73f
00000010: 5b47 963f a394 7640 d3cf 35bf 5c93 0dbf
00000020: 7651 1f40 6e69 27bf b496 2abf 2dd3 d1bf
00000030: 5f72 d0be a39f f63f 9721 9d3e 7f4c b53e
00000040: 0202 4f40 d1d9 97bf f358 453e 0c61 71bf
00000050: e225 21bf 6edf 27bf 784f 2ebf db32 50bf
00000060: 95af 7d40 9aad 0d40 dfc4 a73f 3939 6abf
00000070: f49e e1be 8776 c83f 54ac 40bf 3e46 1a40
0.6727175 2.3236265 -0.20179723 1.3093202 1.1740526 3.852822 -0.7102024 -0.5530298
2.489347 -0.6539525 -0.66636205 -1.6392571 -0.40712258 1.9267467 0.3068969 0.35409924
3.2344975 -1.1863347 0.19272213 -0.94288707 -0.6294843 -0.655753 -0.6809001 -0.813276
3.9638417 2.2137208 1.3106955 -0.91493565 -0.44066584 1.5661172 -0.7526295 2.4105372

feature_net.linear_layer_1.weight f4 [32, 32]
00000000: 3f56 3ec0 c138 4440 1ca9 df40 d2d3 4cc0
00000010: 4fbe 0541 dc9e d740 b379 0fbe cbf1 f9be
00000020: 1f9d c7c0 b76a 11bf 5131 a9be d045 983f
00000030: 5111 eabf 8282 b840 592e 0a40 0d38 c240
00000040: b37a 8e40 53cb 473f ab54 f740 2bea 9f3e
00000050: 4549 3cbf 1cd0 2e3e 2025 a0be 5cd1 8e40
00000060: 8e16 db40 89a9 5441 8ebd 0741 6582 f83e
00000070: 3911 d1be fd4f a040 99b8 8abf 94f6 9e40
00000080: 5333 1cc0 1884 cfc0 54a0 8840 b269 13c1
00000090: 4b7b 8fbf 8c15 d5c0 b603 a2bd d81b 763e
000000a0: ba36 cbc0 7c41 203e 3a0c f8be f495 b63e
000000b0: 948a 83c0 f079 afc0 eb7a a8bf 00ca edbe
000000c0: e0ae 0e41 6c13 2dbe 878f 9240 7cd0 a63f
000000d0: cce4 723e ed95 673f 6634 1b3f 3f7b 833f
000000e0: 717f 1c41 5a8c 2b41 eddc 2441 0d1c 92bf
000000f0: a66d 4b3e 1d1a a0bf 9a8f 633f 9c85 0041
00000100: c1a6 f4bf b6a7 b6c0 a917 a540 24ac 0ec1
00000110: 51f8 40bf 9319 c7c0 f1db 863c 8d84 54be
00000120: 6789 d2c0 f701 1d3e b7ff a83e 4be9 dbbd
00000130: 3f58 57c0 5e06 a7c0 ed37 a43c 401f 3a3f
00000140: 0315 1741 e023 14bf e815 8640 9a8f a63f
00000150: 40ff c73d 7ba7 f53e f6dd 4a3f 8c72 c93f
00000160: ffae 1741 92fa 2a41 26d1 2641 10a7 c4be
00000170: cf1d 303e fb0f 28bf 02d5 babc 8b6e 0c41
00000180: e0dd 9dbf 9c11 0041 7662 dd40 8626 97c0
00000190: e987 3b40 59b5 803f e1e4 ecbe b325 d53e
000001a0: 0a2a b640 ddd9 953f d51c 58be 8904 293f
000001b0: 7d2c 48c0 bd92 8140 9d2a 4a3f e655 5d40
000001c0: 2b49 fd40 bba6 a43f 4830 a540 162c 023f
000001d0: 1426 a63e f770 ba3f ca11 8e3f e4b1 5b3f
000001e0: 97a8 0241 fb77 a440 c0a3 0d41 11bd f7be
000001f0: d7a5 ba3e 2d25 6f40 8c88 b33e 0224 0241
00000200: 7b95 d8c0 327a 5740 6229 f740 8ff8 b840
00000210: c097 dfbc d496 3441 c6db ce3e 9343 f13d
00000220: 41b0 50bf d9ba 0dbf 9f62 723e c645 703f
00000230: 139d e640 3869 52c0 12a0 d840 44ad 6bbf
00000240: c69a cd40 e97f ab40 9310 1641 4fc4 d63f
00000250: b0d1 50be 5db8 303e a4a0 dfbc c439 d940
00000260: 71a1 a640 1606 3e41 792b 0041 f33b ae3f
00000270: 3c17 973e b429 f540 e0eb 8b3d afed bc40
00000280: d63d f2bf 5d87 aec0 db80 ad40 89c8 13c1
00000290: ca9b 9dbf 2b6e d7c0 5173 a63d 4962 c03e
000002a0: 1a47 adc0 f234 1bbf 172a e33d 2063 42bd
000002b0: f937 84c0 67fb 9bc0 caab 69bf c8f1 363e
000002c0: bcd8 1841 125c 57be 4c62 a040 72ac 7a3f
000002d0: 0128 bf3e 4218 903d 8ce0 723f b333 4f3f
000002e0: 52e0 1841 8b8c 2b41 6908 2841 2fb6 3fbf
000002f0: 3866 d73e 500d 8dbf 3883 043f 2c8f 0c41
00000300: 5bec 8ac0 97e0 04c0 c7fe ed40 8cc4 b440
00000310: 8ea7 4440 61a5 3d41 b522 8d3e f097 f2ba
00000320: 43c8 a8bf ad15 cc3e d532 65bd 52d4 b83f
00000330: 8c7c c640 a7cd f6bf 7846 fb40 6165 833f
00000340: 71b9 6240 013e 4440 ba42 3041 ccc1 ca3f
00000350: e90b 04be b574 91be 3ae0 5d3f 5792 ea40
00000360: 3228 c240 c501 0041 3518 0341 2f4c c33e
00000370: ac82 eebd 2ee2 2540 7406 373f bd23 4f40
00000380: 93cd e4bf 4ed4 aac0 4dff 9640 5c34 07c1
00000390: 8413 c3bf 5433 d3c0 d05a 7fbe 2742 9d3d
000003a0: 218a bbc0 9ef6 12be 1084 6e3e b44f 8cbe
000003b0: 036d 0dc0 213a a5c0 232e 633e ad69 cf3d
000003c0: de1f 1e41 7179 3fbe 223d 6c40 b4a0 e83f
000003d0: bc3c 0e3e 0d72 013f 61d8 003f 8352 963f
000003e0: 3a8f 1841 d69c 2d41 4c95 2441 6002 4eb8
000003f0: 6c20 9d3c 994e 6abf b05f f93e 24da 0a41
-2.974014 3.065964 6.989393 -3.2004285 8.358962 6.738142 -0.14011268 -0.48817286
-6.23793 -0.5680346 -0.33045438 1.1896305 -1.8286535 5.765931 2.1590788 6.069342
4.452478 0.78044623 7.7290854 0.31233343 -0.735493 0.17071575 -0.31278324 4.4630566
6.8465033 13.29139 8.483778 0.48536983 -0.40833452 5.009764 -1.0837585 4.9676
-2.4406326 -6.4848747 4.2695713 -9.2133045 -1.1209501 -6.65888 -0.07910864 0.24034059
-6.3504305 0.1564998 -0.48446828 0.3566128 -4.1106663 -5.483635 -1.3162512 -0.46443176
8.917694 -0.1690194 4.5800204 1.3032374 0.23720092 0.90463144 0.6062683 1.0271987
9.781114 10.7217655 10.303937 -1.141481 0.19866046 -1.2507969 0.88890994 8.032619
-1.9113389 -5.7079725 5.159138 -8.9170265 -0.753789 -6.221872 0.016462298 -0.20753689
-6.5792727 0.15332781 0.33007595 -0.107378565 -3.364761 -5.2195272 0.020046199 0.72703934
9.44263 -0.5786724 4.190174 1.3012574 0.09765482 0.4797934 0.79244936 1.5738082
9.480224 10.686174 10.426062 -0.3840871 0.17198871 -0.65649384 -0.022806648 8.776988
-1.2333336 8.004299 6.918269 -4.7234526 2.9301703 1.0055343 -0.4626837 0.41630325
5.6926317 1.1707112 -0.21104749 0.66022545 -3.1277153 4.0491624 0.7897127 3.4583678
7.9151816 1.2863382 5.1621437 0.5084852 0.32450926 1.4565724 1.1099179 0.85818315
8.16616 5.139646 8.852478 -0.48386434 0.3645465 3.736644 0.35065114 8.133791
-6.768247 3.3668332 7.7238016 5.7803416 -0.02729404 11.286823 0.4040205 0.11780467
-0.8151894 -0.5536323 0.23670433 0.93856466 7.206674 -3.287672 6.76954 -0.9206126
6.4251432 5.359364 9.379046 1.6778659 -0.2039249 0.17257829 -0.02729828 6.7883015
5.207207 11.876486 8.010613 1.3612045 0.29509914 7.6613407 0.06832099 5.904014
-1.8925121 -5.454024 5.4219794 -9.236459 -1.2313168 -6.732198 0.081274636 0.37574986
-5.4149294 -0.60627663 0.110920124 -0.047457814 -4.1318326 -4.874439 -0.91277754 0.1786567
9.552914 -0.21031216 5.011999 0.9791938 0.37335208 0.07035877 0.9487388 0.8093826
9.554766 10.721812 10.502053 -0.74887365 0.42070174 -1.1019688 0.51762724 8.784954
-4.341352 -2.0762079 7.4373507 5.6489925 3.0727267 11.852876 0.27565542 -0.0018508416
-1.3186115 0.39860287 -0.05595668 1.4439795 6.2027035 -1.928151 7.852352 1.0265313
3.5425684 3.0662844 11.016291 1.5840392 -0.12895168 -0.28409353 0.8667027 7.3303638
6.0674067 8.000432 8.19341 0.3814406 -0.116460174 2.59193 0.7149422 3.2365563
-1.7875236 -5.338416 4.7186646 -8.450283 -1.5240331 -6.6000156 -0.24936986 0.07678633
-5.8606114 -0.1435189 0.23292565 -0.2740456 -2.2097785 -5.163346 0.22185569 0.10127578
9.88278 -0.1869867 3.6912313 1.8174043 0.13890356 0.5056465 0.5033017 1.174393
9.534967 10.85079 10.286449 -4.911644e-05 0.019180499 -0.9152618 0.48705816 8.678257

feature_net.linear_layer_1.bias f4 [32]
00000000: c5a8 b340 32d9 0941 6098 0941 d40f 0541
00000010: 338d dd40 6688 0d41 b8ae a140 0efc 0b41
00000020: 5bdb 0341 f34a 0c41 1567 0641 209b c740
00000030: bbab 1141 0cd3 f040 5d6c 7b40 62ef 0c41
00000040: bf80 0a41 8591 0f41 17ab 0741 0871 0d41
00000050: 649d 0741 4a63 0e41 9ba9 0241 e5f3 0f41
00000060: f6c1 0a41 1d45 0341 3d74 0641 21ef d940
00000070: 38de 0f41 5473 0541 08c1 0041 015f 1a41
5.6143517 8.615526 8.599701 8.316364 6.923486 8.8458 5.052578 8.749037
8.241054 8.768298 8.4001665 6.237686 9.104426 7.5257626 3.928489 8.808443
8.656432 8.973027 8.47927 8.8400955 8.475925 8.8992405 8.166408 8.997045
8.672354 8.204373 8.4033785 6.8104405 8.991753 8.340656 8.047127 9.648194

feature_net.layer_norm_1.weight f4 [32]
00000000: 1619 4e40 64c5 963e f659 883e dd12 0340
00000010: 180e 4440 36f2 b43e 8250 dc3f bc62 983e
00000020: b780 c33e 66a0 a93f ae10 e03e b3f9 b23f
00000030: 1f28 a33e 0780 5840 6d34 ed3f 7317 923e
00000040: 224e b73e a522 793e f9ce ce3e 4289 423e
00000050: f708 b23e 6797 353e 30df 6f3f f829 c23e
00000060: ebd4 bc3e 69e9 0340 b76a eb3d e2dc 0340
00000070: 5012 983e 3254 2540 ef34 9c3f c44d 873f
3.2202811 0.29447472 0.26631135 2.0480263 3.0633602 0.35341042 1.7212069 0.29762828
0.3818414 1.3252075 0.43762726 1.3982452 0.31866547 3.3828142 1.8531624 0.28533515
0.35801798 0.24329622 0.40392283 0.18997672 0.34772465 0.17733537 0.9369993 0.37922645
0.36881194 2.0611212 0.114949636 2.0603566 0.2970147 2.5832639 1.2203654 1.0570607

feature_net.layer_norm_1.bias f4 [32]
00000000: 98a9 833f 600e 22bf 831d 09bf 3487 93be
00000010: 3491 2740 99c5 04bf 4e37 e03f 60ed c4be
00000020: 28ac 23bf 2410 edbf 9c33 26bf a5a3 833f
00000030: d03c 18bf d93c 113e dc61 e63f d9b9 fdbe
00000040: 5e8e 10bf 0ccb 43bf 7f12 0ebf 1c42 1abf
00000050: d948 f6be 2848 47be 4eac 99bf f1aa 06bf
00000060: fa43 6dbf f54c 0fbf 205a c6be 99cc 103e
00000070: 52e3 1bbf 06a9 a4be 47ed 1440 7483 dbbf
1.0286131 -0.63303185 -0.53560656 -0.2881409 2.6182375 -0.5186401 1.7516878 -0.38462353
-0.63934565 -1.8520551 -0.649225 1.0284315 -0.5946779 0.14183368 1.7998614 -0.49555853
-0.56467235 -0.764817 -0.5549697 -0.60257125 -0.48102453 -0.19461119 -1.2005708 -0.52604586
-0.9268185 -0.559768 -0.38740635 0.14140548 -0.6089374 -0.32160205 2.3269823 -1.7149491

feature_net.linear_layer_output.weight f4 [4, 32]
00000000: 5b61 1f40 881c 873d 0188 81bc f001 4f3f
00000010: 5036 b03f da6d 6bbd 7781 c03f 9161 973d
00000020: cc6a 663b 5c1d 7d3f 1944 f6bd 1e82 3b40
00000030: c53f 623d 1fb2 823f 0925 5d40 2164 e5bd
00000040: c875 68bd 1bde fb3b 7772 de3d 714c 3d3c
00000050: 4302 2fbc fee6 ca3d 8a6b 0a3e ceb3 7dbe
00000060: be7a 7ebe fa96 a7bf 6d94 e63e fd40 bcbf
00000070: 0b24 bebd 8d25 833e 101d acbf ad80 ce3e
00000080: 1a11 18c0 767a bd3c a5c9 f43d 55fc 71bf
00000090: 9404 bdbf 7988 c8bd 9d1f 5cc0 5562 e0bc
000000a0: 0ca3 4abc 19ff 7a3f fa0d ec3d dd93 0fc0
000000b0: 30d5 cf3c 5c76 cebf d3aa 74c0 8c0a eebd
000000c0: ba18 393d 630a 00be 53b5 53bd 6ee4 2dbd
000000d0: 8717 06be e042 523d 384a 61be 0849 30bd
000000e0: e292 1bbf 0033 ca3f e986 6dbf ab6c fb3e
000000f0: 0d63 863d 4dab 48bd 2bc8 cb3f 4264 ef3f
00000100: d820 f0ba 0bc3 cc3e 0099 c3c0 0096 8ec0
00000110: b463 4bc0 5e7a 85c0 6b4d 23c0 9ee9 51c0
00000120: e653 14c0 5e03 47c1 600d b23e 6062 1dc0
00000130: 069d f5bf 5ee1 e0c0 c688 f8bf 5d8e 28c0
00000140: 0a11 37c0 cc32 20c0 4b48 a6c0 a675 fdbf
00000150: d537 06c1 f11c b6c0 3c98 23bf be3b 00c1
00000160: f3b3 2cbf 9e74 d8bf 187d 87bf 8228 9fc0
00000170: 0bbf 93c0 debe aac0 9b1f 01bf aea2 a7c0
00000180: fbaa fc3b 4458 d1be 7aee d2c0 470a dfbf
00000190: 4ba2 56c0 ec44 00c0 8af1 dabf f25e 70c0
000001a0: fddb 33bf 7d62 1dc1 2278 d63e e640 f8bf
000001b0: fa39 07c0 3c8e 2cc0 be63 dbbf 45d9 91c0
000001c0: 37c1 34c0 1887 9abf 5f2d b7c0 6c78 25c0
000001d0: 3616 f0c0 2a5b a8c0 44ff 36c0 f3e8 cfc0
000001e0: 1a5f febe 2c75 05c0 7dff 6cbe 2b87 1dc0
000001f0: 4066 a3c0 4bcc d0c0 bb97 2a3e 22c4 6cc0
2.490317 0.06597239 -0.015811922 0.8086233 1.3766575 -0.05747781 1.503951 0.07391656
0.003515887 0.98872924 -0.12024707 2.9298167 0.055236597 1.0210608 3.4553854 -0.11200739
-0.05675295 0.007686389 0.10861676 0.01155387 -0.010681692 0.099073395 0.13517585 -0.24775621
-0.2485151 -1.3092949 0.45035115 -1.4707333 -0.092842184 0.25614586 -1.3446369 0.40332547
-2.3760438 0.023129683 0.11952523 -0.94525653 -1.4767022 -0.09791655 -3.4394295 -0.027390638
-0.012367975 0.980455 0.11526103 -2.2433999 0.02537021 -1.612987 -3.8229263 -0.116231054
0.045189597 -0.12503962 -0.051686596 -0.042454176 -0.13094912 0.05133331 -0.22000968 -0.043038398
-0.60771 1.5796814 -0.9278398 0.49106345 0.06561861 -0.04899149 1.5920461 1.8702471
-0.0018320335 0.39992556 -6.1124268 -4.4558105 -3.1779604 -4.1711874 -2.5516002 -3.2798839
-2.3176208 -12.438322 0.3477583 -2.4591293 -1.9188545 -7.0275106 -1.941674 -2.6336892
-2.860415 -2.5031004 -5.196325 -1.9801528 -8.388631 -5.691033 -0.63904166 -8.0145855
-0.6746208 -1.6910589 -1.058505 -4.973695 -4.6170707 -5.335799 -0.5043885 -5.2386084
0.007710812 -0.40887654 -6.591611 -1.7425011 -3.3536556 -2.0042067 -1.7104962 -3.755795
-0.7025755 -9.836545 0.4188853 -1.9394805 -2.1129136 -2.6961813 -1.7139814 -4.557772
-2.824293 -1.2072477 -5.7242885 -2.585475 -7.5027113 -5.2611284 -2.8593302 -6.497186
-0.49681932 -2.0852766 -0.23144336 -2.461375 -5.1062317 -6.524938 0.16659443 -3.699471

feature_net.linear_layer_output.bias f4 [4]
00000000: 76a2 d13f 9a03 febf f14c acc1 33a4 afc1
1.6377704 -1.9844849 -21.537569 -21.955175

feature_net.linear_layer_0.weight f4 [32, 8]
00000000: a007 3340 ee34 e63a bf5d 8ebe 3099 97be
00000010: 729c 2140 5410 9040 0287 833f 1e31 8f3e
00000020: e952 2040 56c2 7d40 d3a7 063f 57fe bd3e
00000030: 65e8 2c40 b320 a83f e878 0dc0 77ad 6140
00000040: 5611 1240 3752 5a40 8822 b23c e530 9e3e
00000050: 28d2 98bf 1f66 1840 efb1 8f3e 3678 9340
00000060: 8134 5740 2398 5d40 cb69 b4bd 23f9 583e
00000070: f297 fbbe ce5e 8340 e481 c1bf 0d78 0840
00000080: 8201 1f40 a63e 603e 347f e53e 961f d43e
00000090: bdff 8d40 a15c b53e 8ef2 7040 798a 3140
000000a0: af0c 2740 8d78 df3f ac01 7cbe 12a3 bb3d
000000b0: f121 3b40 f01e d03e d491 81be e21e b840
000000c0: da04 7340 dfb6 2640 6bc7 993d 401f 143d
000000d0: 2db7 4540 dc66 5d40 22b1 8b40 ebf5 0540
000000e0: e0bc 6a40 ba1c 0240 6780 0dbf c965 a03c
000000f0: 7010 003f 0ac2 933f 6ffb 6740 65f2 d440
00000100: 020e 7040 23e8 ff3f 80a8 48be 9d37 f33e
00000110: 627e 233f 3eba 803f beaa 7a40 a57f da40
00000120: 046a 2240 400d fb3f 9aec d43d 6177 6ebe
00000130: 6109 8a40 1ddc 8b3f a228 9640 81b2 6d40
00000140: 1252 6740 baf4 0a40 380e f1bd 1b82 55bd
00000150: 79d4 ac3e 0297 9c3f 7ba7 6d40 c8f8 eb40
00000160: db85 6a40 d21c 0040 cab7 4c3e f62f 43bd
00000170: e6c5 0e3f 4ed2 6a3f 50f7 6e40 5c38 d940
00000180: c348 4c40 cbab 993f 565d 003d 3739 debd
00000190: 8e70 b33f c3fe cc3f 0303 6340 3282 0b40
000001a0: 26d9 7340 cbcf 1040 c21c 5c3e 412f 89be
000001b0: 7fe3 963f c4eb 673f 8433 6b40 3843 cb40
000001c0: 7457 7840 8877 0d40 6ded 8e3e 347c 31bd
000001d0: 05a4 603f 1edc 463f eb24 6b40 ac2d da40
000001e0: 2458 f13f 7abf f93f ca19 1d3c 3fdf 073f
000001f0: dd0f 233f b9b2 b43f bb47 9540 45a4 1241
00000200: d160 4f40 54a5 2440 75f9 27be 10c9 833e
00000210: d364 913e a7e1 3a40 551f ab3e b989 4a40
00000220: 0d53 6240 4307 3540 fcc7 a4bd 44d9 aabd
00000230: 2383 6740 c416 b940 2c08 303f d930 df3f
00000240: aee9 3b40 b95c 9040 3cd3 9e3d 2026 3a3e
00000250: 66fd 96be 017c 3140 7fc2 9440 5b63 0441
00000260: 19fa 3c40 38ce 20bd 7aa6 a6be 5c42 af3c
00000270: 0feb 9840 6c09 71be 3961 1240 8cf6 3840
00000280: 5b63 fc3f 22f0 1140 cef4 24be 50b4 bb3e
00000290: bd33 89bf ac10 903f d3ee c53f 30b3 ec40
000002a0: 2357 2940 881c 2640 8871 d73e d7b6 453e
000002b0: 0761 773d d997 6340 79f6 563e 1a86 4040
000002c0: 769a 6340 491f 0040 034c 7ebe 0d8f 863d
000002d0: bb7d be3e d765 973f e989 6840 99df e240
000002e0: ac76 2240 f509 3040 284c f13d dd49 cc3d
000002f0: a505 1fbf 48bb 3e40 20ca 9b3e fbc6 d940
00000300: 8c9c 3140 759c 0d40 b9a6 81bc 1e25 c33e
00000310: 8636 2740 d1ea 093d 8cc5 5b40 a5ae 7440
00000320: 59fb 2a40 046b 3e40 4e4c 033e 4aba 8a3d
00000330: 7792 56be 0c30 5b40 fe71 9f3f 5859 9a40
00000340: ccbc 4f40 8857 fe3f bc7a e53e e8ee 0dbe
00000350: 66cd 1ac0 942d 0840 960d 8640 292a 8d40
00000360: 513e 5b40 cb9b 4540 6ec7 48be 750c 63be
00000370: 70af 9040 2e6d 9ebf aa1a 4a40 e9e0 4d3e
00000380: d691 5b40 a979 3540 23e9 53be b81f c53e
00000390: 2ffb fb3f a635 b6be 51dd 7540 f939 7640
000003a0: 4db5 bf3f 5be5 2840 4bed 0e3e e811 53be
000003b0: 78a3 0640 7346 a340 9ed4 993f 07fa 1040
000003c0: f6d7 6b40 3856 0940 1cc1 953e 0aef 97be
000003d0: 1b44 a83f 4275 c43f 4cd2 5840 2834 b040
000003e0: 136f 6b40 86a0 9f3f e688 c33d 5557 d5bd
000003f0: 51ec 3bbe 63ea 883f 0eab d63f c5cd 0a41
2.7973404 0.0017563382 -0.27805898 -0.2960906 2.5251737 4.501993 1.0275576 0.2796716
2.5050604 3.9649863 0.5259983 0.37108108 2.7016842 1.3134979 -2.2105045 3.5262125
2.282308 3.411268 0.021744981 0.3089668 -1.1939135 2.381233 0.2806544 4.608424
3.3625796 3.4624107 -0.08809241 0.21188788 -0.49139363 4.105323 -1.5117764 2.1323273
2.484467 0.21898898 0.4482361 0.41430348 4.437468 0.35422233 3.7648044 2.7740767
2.6101491 1.7458664 -0.24610013 0.091619626 2.9239466 0.40648603 -0.2530657 5.75377
3.797171 2.6049116 0.07508739 0.036162615 3.0893052 3.459403 4.3653727 2.0931346
3.667778 2.0330033 -0.5527405 0.019579785 0.5002508 1.1543591 3.6247213 6.654589
3.750855 1.9992718 -0.19595528 0.47503367 0.6386472 1.0056837 3.9166713 6.8280816
2.5377207 1.9613419 0.10396691 -0.23287727 4.313645 1.0926548 4.69246 3.71402
3.6143842 2.171187 -0.1177029 -0.05212603 0.33755854 1.2233584 3.7133472 7.374119
3.66442 2.001759 0.19991985 -0.04765316 0.5577072 0.9172715 3.7338448 6.78813
3.191941 1.2005552 0.031339012 -0.108507566 1.4018724 1.6015247 3.5470588 2.1798215
3.8101287 2.2626827 0.21495345 -0.26793864 1.1788176 0.90594125 3.6750193 6.3519554
3.8803377 2.2104206 0.27915516 -0.04333134 0.87750274 0.7767962 3.6741283 6.818075
1.8855023 1.9511559 0.009588668 0.5307502 0.6369608 1.4117042 4.665006 9.165105
3.2402842 2.5725908 -0.16403754 0.25739336 0.28397235 2.9200227 0.33422342 3.164656
3.536319 2.8285682 -0.080459565 -0.083422214 3.617379 5.784029 0.6876247 1.7436782
2.9361377 4.5113187 0.077551335 0.18178606 -0.29490203 2.7731936 4.648742 8.274257
2.9527647 -0.039259166 -0.32548887 0.021393947 4.7786937 -0.2353875 2.287184 2.890048
1.9717821 2.2802815 -0.1610901 0.36661005 -1.0718914 1.1255088 1.5463508 7.3968735
2.6459434 2.5954914 0.42078805 0.19308029 0.060395267 3.556143 0.2099246 3.008185
3.5563025 2.0019095 -0.24833684 0.065702535 0.372053 1.1827954 3.6334174 7.0897946
2.5384932 2.7506077 0.11782104 0.09975026 -0.6211799 2.9801807 0.30427647 6.8055396
2.7751799 2.2126744 -0.01582657 0.38114256 2.6127028 0.033671204 3.4339323 3.8231595
2.671591 2.9752817 0.12822077 0.06773813 -0.2095431 3.4248075 1.2456663 4.823406
3.2458982 1.9870462 0.448202 -0.13860667 -2.4187865 2.1277819 4.1891584 4.4113965
3.4256785 3.0876338 -0.19607326 -0.2217272 4.5214157 -1.2377069 3.1578774 0.20105328
3.4307761 2.8355505 -0.20694403 0.38500762 1.968603 -0.35587806 3.841633 3.8472884
1.4977204 2.6389987 0.13957708 -0.206123 2.1037273 5.1023498 1.2018011 2.2652605
3.6850562 2.1458874 0.29248893 -0.2967456 1.3145784 1.5348284 3.3878355 5.5063667
3.6786544 1.2470863 0.09547596 -0.10417048 -0.18351866 1.0696529 1.6770952 8.675237

feature_net.linear_layer_0.bias f4 [32]
00000000: 7a73 2340 2261 0d40 d89d 7a40 727b de3f
00000010: 8f18 0540 80c8 c43f 931b f13e 6b35 fd40
00000020: 0a92 f740 5b4d a33f d095 f440 c4ad fe40
00000030: 1656 6d40 f1f6 f040 9b93 f440 8998 b240
00000040: 4fd9 4840 b4cb 8e3f 8803 1341 25a5 3740
00000050: 4d94 bf40 dc81 2140 989c fc40 e975 bf40
00000060: f20c b63f 6d3e b540 8a86 6a40 d571 0940
00000070: 51dc 103f 17a2 2240 7962 e640 8cb0 cd40
2.5539231 2.2090535 3.915884 1.7381423 2.079624 1.5373688 0.4709135 7.9127707
7.736577 1.2757982 7.6432877 7.9587116 3.7083793 7.530144 7.6430182 5.58112
3.1382635 1.1155915 9.188362 2.8694546 5.986853 2.523551 7.8941154 5.9831433
1.42227 5.6638703 3.6644616 2.1475728 0.56586176 2.5411432 7.1995206 6.427801

feature_net.layer_norm_0.weight f4 [32]
00000000: aef7 7040 d3f8 ae40 959e 0c40 94b7 2f41
00000010: 9592 1741 2863 d340 fb18 bb40 bcb8 ba3e
00000020: 2327 8c3e 9c3e f340 e0da b53e 47de 9b3e
00000030: b2d3 d63f e11a 8b3e f424 d63e ec3e 2340
00000040: 7bef 4e40 1c83 2b41 f636 1f41 24e5 7940
00000050: 2447 ba40 5baf a740 0222 b13e 6934 d140
00000060: 2f2a 7040 ff56 a340 1d21 8740 4f8a fc40
00000070: eaa7 c840 8ced f540 0176 363f d7e2 8740
3.7651172 5.467874 2.197179 10.982319 9.473287 6.605854 5.8467994 0.36469066
0.2737361 7.6013927 0.3551855 0.30443022 1.6783354 0.27168944 0.41825068 2.5507154
3.2333667 10.719509 9.950918 3.9046106 5.821184 5.2401557 0.34596258 6.5376477
3.7525747 5.1043696 4.222792 7.8918834 6.2704973 7.6852474 0.7127381 4.2464404

feature_net.layer_norm_0.bias f4 [32]
00000000: 67f6 e33f 7f84 ed3f 7f35 4d3f 4002 6b40
00000010: 097d ef3f da54 5140 f6f4 3d3f 4f48 20bf
00000020: 1826 41bf dd99 843f 70b6 3dbf 7e10 30bf
00000030: 2f08 0f40 cd49 f2be 8591 4cbf 1563 3c3f
00000040: 958d cb3f ef13 743f 7e81 eb40 0ca6 c13f
00000050: 6f43 433f acb4 0d40 68bb 2ebf 7c52 a03f
00000060: c2ca 0940 cac3 6ebe b1b3 3240 00d7 f63f
00000070: 0a08 3240 2021 713f faeb 9ebf 774f 1b40
1.7809571 1.855606 0.80159754 3.6720123 1.8710033 3.270804 0.74201906 -0.62610334
-0.7544875 1.0359455 -0.741065 -0.68775165 2.2348745 -0.4732193 -0.79909545 0.7358869
1.5902582 0.95342916 7.359557 1.5128798 0.7627477 2.2141523 -0.6825471 1.2525172
2.1530004 -0.23316875 2.7922175 1.9284363 2.7817407 0.9419117 -1.2415764 2.4267251

feature_net.linear_layer_1.weight f4 [32, 32]
00000000: eeb2 1cbf b8ae f240 8ac0 c540 0760 11c1
00000010: 9376 3bc0 e440 eabf c73e 2d40 82d6 193f
00000020: 83c0 e3be 45bf 8140 c2e6 26bf 8d93 1abf
00000030: 9b73 5840 e169 213e 9bba 4ebf 6c86 e140
00000040: 400d 4ec0 0c05 95c0 e052 0141 4e90 87c0
00000050: fb16 2d41 5cfe 24bf e554 98be 4ffe 1341
00000060: da0a 2b40 7584 1641 fe58 013f 6103 e840
00000070: 4501 7b40 9ea6 4f40 f8d5 3740 7bd6 ee40
00000080: d98e 553f a776 b5bd d2f8 1240 cbf5 23c1
00000090: 2442 0c40 e108 cac0 b849 c2c0 e3b8 9cbd
000000a0: eb2c 11be 4357 f2c0 5b30 4dbe d884 05be
000000b0: 288f 52bf 8d71 0f3f b7b6 fd3d 9804 e340
000000c0: 61a6 9cc0 6897 afbf f5fd 3641 103d e63f
000000d0: 49b4 3741 7a9d 68c0 88fb b93d b745 3041
000000e0: 0b90 a8c0 2cc6 1d41 199b 6dc0 d213 95c0
000000f0: a121 b8c0 e5d6 5840 9c6c 5c40 4a3d 2741
00000100: 1ffd 8840 924b 42bf cf31 a540 fc82 e2c0
00000110: 9cd5 8a3f 0c14 4241 2f3f 9e3f 2552 0e3f
00000120: bd9d 7f3e 0e44 92c0 2666 07bf b0ce 00bf
00000130: d469 f43f 6fe5 893f 800a e8be 7c9a a340
00000140: ba0f 02c0 8c31 84c0 e2c2 d340 3add 2041
00000150: 795f 1141 1793 19c0 ce76 6cbe 15e1 1b41
00000160: 9936 72c0 612b 2941 4602 5d3f d4e6 ab40
00000170: c537 59c0 73d4 0e41 bf26 b040 3b11 e140
00000180: ebf6 79c0 03aa 1241 6b76 ac40 6667 bd40
00000190: 15f9 2741 fa47 f2c0 87bc a440 fcc7 29be
000001a0: 81ce bdbe a838 5a40 55a2 913e f6a7 d4be
000001b0: 516e c740 7ec6 03bf 02db 60be bb56 e240
000001c0: 0741 e540 316a 0341 a396 f540 dc48 e940
000001d0: 4feb f140 6927 e140 a41a 9e3e 8a3d 1841
000001e0: 2d5c a2be 7963 1341 88f3 9240 56e6 4f3e
000001f0: 70c2 8340 94a5 3b41 c193 b840 6ae8 c040
00000200: 796c 4440 acb1 c13e cee4 a040 ad32 dac0
00000210: 9eb9 943f 2877 a0c0 4a4f 28c0 a951 af3e
00000220: 659b fe3d a53c 74c0 259b a63e 9795 c7be
00000230: 3c10 50bf 9f62 123e 507c 813e 4c13 0c41
00000240: 8e71 1dc0 a3b0 2c3f 7e8f 2c41 6545 66be
00000250: 5678 4e41 2d1b 27c0 d1d4 d7be 4208 2e41
00000260: de1b 17c0 edca 2f41 4c49 983f 6be9 0dc0
00000270: 8764 55c0 1497 3c40 b4e2 8240 0106 2041
00000280: cec5 e7bf 352b 0540 1f4d b540 fc32 143e
00000290: 4ccb 4c40 004a d0c0 5078 48bd bfd1 de3d
000002a0: b7fe 33be c255 36c0 e8cf 15bd 50bc 26bf
000002b0: e92d 2a3f 3f5f 14bd 7a91 a0bf 5a8a ee40
000002c0: 8e75 5540 ffcd 1b40 e9d9 0741 1768 5340
000002d0: a3c2 4a41 8442 0140 e0d4 853e 5de3 2c41
000002e0: 024c 7b3e 55fe 1b41 78be a940 7124 473f
000002f0: dd11 743d f3b7 1441 c18e 6d40 2ac8 0441
00000300: acb6 2e40 9259 1441 8e73 2b41 3ba7 8cc0
00000310: 1745 85c0 342e 8f3f 94e4 6340 4481 e4bd
00000320: fa49 d83d ef10 0a41 0f94 433f a9ee 50be
00000330: cfe6 643f ed3f 003f 9458 8fbe 83c8 a140
00000340: 8ef3 2540 b0a0 08c0 2606 9240 045b 96c0
00000350: f1d1 0841 319e 1340 ec27 d43e 53c6 df40
00000360: 79e9 0941 eaea b040 9b25 8440 6a78 1c41
00000370: c3eb 3841 5df6 c73f 8080 1540 ea93 c040
00000380: 5425 983f dc5a 403d bcd7 2040 0323 22c1
00000390: 4852 fa3f 4caa bbc0 e440 9ec0 b02d 8b3e
000003a0: de26 b43e e098 e0c0 8183 81bd fd56 4ebb
000003b0: 2467 563a 36e0 a83e 184d 1b3f ca35 fa40
000003c0: 13d3 a0c0 6414 bdbf 6b80 3641 4bb5 4a3f
000003d0: fbf2 3741 9c09 53c0 9d70 1b3f faae 2c41
000003e0: c814 97c0 1425 2c41 0fb7 6cc0 9029 9bc0
000003f0: 8f2a bbc0 a27f 2740 0fbb 6540 5e36 2341
-0.61210525 7.583828 6.1797533 -9.085944 -2.9291122 -1.8301053 2.7069566 0.6009294
-0.44482812 4.0545983 -0.6519586 -0.60381395 3.382056 0.15763046 -0.8075349 7.047659
-3.2195587 -4.656866 8.082733 -4.2363653 10.81811 -0.6445062 -0.2975227 9.249587
2.6725373 9.407338 0.50526416 7.2504125 3.9219525 3.2445445 2.8724346 7.4636817
0.83421093 -0.08860522 2.2964368 -10.247508 2.191537 -6.313584 -6.071499 -0.07652452
-0.14177291 -7.573152 -0.20037977 -0.13038957 -0.8224969 0.5603264 0.12388366 7.0943108
-4.89531 -1.371808 11.437001 1.7987385 11.481515 -3.6346116 0.09081179 11.01702
-5.2675834 9.860882 -3.7125914 -4.6586695 -5.754105 3.3881161 3.444129 10.452463
4.2808986 -0.7589656 5.16233 -7.0784893 1.0846438 12.129894 1.2363032 0.5559409
0.24962516 -4.5708075 -0.5289024 -0.5031538 1.9094796 1.0773143 -0.4532051 5.112608
-2.0322099 -4.131048 6.6175394 10.05401 9.085809 -2.3996027 -0.23092195 9.742452
-3.7845824 10.573091 0.86331594 5.3719273 -3.394029 8.9268675 5.5047297 7.0333533
-3.9056957 9.166507 5.3894553 5.918872 10.498311 -7.571286 5.1480136 -0.16580194
-0.37071612 3.409708 0.28444162 -0.41534394 6.2322164 -0.5147475 -0.21958545 7.073087
7.164188 8.213426 7.6746383 7.290144 7.559974 7.036061 0.308797 9.515024
-0.3171095 9.211785 4.592228 0.2030271 4.117485 11.727924 5.7680364 6.028371
3.0691206 0.37830865 5.0279303 -6.818686 1.1619146 -5.0145454 -2.6298394 0.3424199
0.12431983 -3.8162014 0.3254024 -0.38981315 -0.8127477 0.14295433 0.25290155 8.754711
-2.4600558 0.67457026 10.785032 -0.2248741 12.904379 -2.6110337 -0.42154554 10.877016
-2.3610759 10.987042 1.1897368 -2.2173717 -3.3342607 2.946721 4.0901737 10.001466
-1.810724 2.0807621 5.665664 0.14472574 3.1999083 -6.509033 -0.048942864 0.1087985
-0.17577635 -2.8489842 -0.036575228 -0.6513109 0.66476303 -0.036223646 -1.2544396 7.4543886
3.3353 2.434448 8.490701 3.3032281 12.672519 2.0196848 0.26138973 10.805509
0.24540713 9.749593 5.3045006 0.7778998 0.05958735 9.2949095 3.711838 8.298868
2.7298994 9.271868 10.715712 -4.395414 -4.164684 1.1185975 3.5608263 -0.11157468
0.10560985 8.629134 0.76397794 -0.20403542 0.89414686 0.50097543 -0.27997267 5.0557265
2.5929904 -2.1348076 4.5632505 -4.6986103 8.551255 2.3065302 0.41436708 6.9929595
8.6195 5.528676 4.1295905 9.779398 11.557559 1.5622059 2.335968 6.018056
1.1886392 0.04696165 2.5131674 -10.133548 1.955636 -5.864538 -4.945421 0.27183294
0.35185903 -7.0186615 -0.063239105 -0.0031484955 0.00081788213 0.3298356 0.6066451 7.819066
-5.025766 -1.4771848 11.406352 0.7918288 11.496821 -3.2974615 0.6071871 10.792719
-4.721287 10.759052 -3.698673 -4.8488235 -5.848945 2.617165 3.5895422 10.200773

feature_net.linear_layer_1.bias f4 [32]
00000000: 5d51 e940 9271 2941 c3fd e140 e219 e440
00000010: 91d8 2941 90ad 0541 dc48 9e40 e05b 2841
00000020: eced 2a41 d901 2b41 18d3 2741 2e2d 3041
00000030: 3272 2b41 d6fd d540 d855 e640 6157 3041
00000040: 42bd 1b41 e7d4 3341 37f4 0e41 4240 2441
00000050: 77b5 2341 8113 0741 acc1 2741 cf3f 2b41
00000060: 5b47 2341 10e8 d640 e954 1f41 d4fe 2b41
00000070: ddd2 aa40 04fd 2941 5c90 d940 39ec aa40
7.291182 10.590227 7.062227 7.1281595 10.615373 8.354874 4.946394 10.52243
10.683086 10.687951 10.489037 11.01103 10.71538 6.687236 7.197979 11.021333
9.7337055 11.239478 8.934623 10.265688 10.231803 8.442262 10.484783 10.703078
10.204921 6.715828 9.95823 10.749714 5.33824 10.624271 6.798872 5.341336

feature_net.layer_norm_1.weight f4 [32]
00000000: 1fcd 5940 96bd c53e 20b0 1340 d54f 0440
00000010: 926b 1d3f 3080 0b40 0bf6 c03f cf48 9e3e
00000020: 92f9 bc3e 4c2e 793e ef8c a13e ed14 ce3e
00000030: 7236 9e3e 3786 2240 78d3 3440 5d11 1c3f
00000040: 8ae2 fe3d 3739 b43d f33e c63f 851e 693e
00000050: 019c 923e 4715 1d40 3c7d e33e 3bd3 eb3e
00000060: 937e 593e 8609 2640 c1c7 123f fe86 e33e
00000070: 9de7 893f 8712 b93e aff9 2240 0688 ab3f
3.4031446 0.38621205 2.3076248 2.0673726 0.61492264 2.179699 1.5075086 0.30914924
0.36909157 0.24334067 0.31552836 0.4025034 0.30900913 2.5394418 2.825407 0.60963994
0.12445553 0.08799975 1.548796 0.22765549 0.28634647 2.4544237 0.44431484 0.46059594
0.2123969 2.5943313 0.5733605 0.44438928 1.0773808 0.36146948 2.5464895 1.3400886

feature_net.layer_norm_1.bias f4 [32]
00000000: 23be f63f c43f 15bf 3d22 2540 fb4b 853f
00000010: 2399 83bf 8c65 94be 77c0 4340 d985 f7be
00000020: 73a3 25bf 6c2a bfbe f5f5 15bf 09b8 06bf
00000030: 86af eabe 82e8 3c40 c3c2 1740 ca7b 47bf
00000040: 137f 3dbf 9896 4fbe 4fbe c5be 1bd4 39bf
00000050: f88e 34bf 8b37 54bf ab92 06bf 676d fabe
00000060: 7e69 30bf 2d71 1740 0d47 85bf 323e 37bf
00000070: cc7f d83f d133 0bbf 28bf e03f a458 1c40
1.9276775 -0.58300424 2.5802147 1.0413812 -1.0281109 -0.28983724 3.0586221 -0.48344305
-0.6470253 -0.37337053 -0.58578426 -0.52624565 -0.4583704 2.9516912 2.3712623 -0.7792326
-0.74022025 -0.2027229 -0.38621756 -0.7258927 -0.70530653 -0.8289725 -0.5256755 -0.48911592
-0.6891097 2.3662827 -1.0412308 -0.7157928 1.6914 -0.5437594 1.7558336 2.4429102

feature_net.linear_layer_output.weight f4 [4, 32]
00000000: c304 39c0 ecab e5bd 8fca b240 b20b 9f3f
00000010: f9f4 d33e 68ea aa3f cfc0 b2c0 9a41 5dbe
00000020: a54b 413d ce84 9b3c 4229 6bbc b831 5ebe
00000030: 8f1b f43d d98d a2c0 7b54 5d40 89c3 863e
00000040: 0efc cbbb 91b1 b03b 9344 38bf 2341 983d
00000050: 2329 003d 519a 9240 63c2 80bc 914e cbbd
00000060: 6253 243d 94b9 683f 2105 ef3d 1c12 1a3d
00000070: 9867 7ac0 0a10 b3bd bbe7 2240 e320 5dc0
00000080: d7b9 4f40 eefc 06bc 9c39 7cc0 d1f7 9fbf
00000090: db70 fd3e 72a0 15c0 b026 c640 02a1 9abd
000000a0: 8e87 a63d b57c 8bbc 6019 d0bd 52de 04be
000000b0: 5fde af3c 20fd 9540 3674 c4c0 c85b ce3e
000000c0: ea79 363e f3d7 edbc c3ac 2040 243a 4abd
000000d0: 65ca 05bb 1944 47c0 f1bb 41be 2fe1 41bd
000000e0: c94e eabb 1c90 e8bf 1d77 293e 661b 423e
000000f0: 9496 9e40 7fe3 513e c749 21c0 1cf2 8040
00000100: ba1b c7c0 dc44 b2c0 896b 7cc0 5945 ebbf
00000110: 89e7 60c0 b402 16bf baff e8bf e0f2 13c1
00000120: fbb4 cec0 0954 66c0 71d3 fbc0 8b46 14c0
00000130: 1bd1 1ac1 5c4b 96c0 edc3 c3bf ca8f e1bf
00000140: 6f92 75bf 6e6b b8c0 9979 aabf 9c42 cdbf
00000150: 0330 68c0 ade7 b6c0 9d53 3bc0 f1ff a0c0
00000160: 82ef 2cc0 3d57 12bf 9fda 98c0 b7cc bc3c
00000170: 1a11 3dc0 3cc2 4dc0 3f2a 2ac0 9da6 34c0
00000180: 46de cbc0 e3e9 a4c0 4c31 90c0 50b0 dabf
00000190: 8fa9 7bc0 833e 2bbf 3e77 ebbf f155 16c1
000001a0: a78c d3c0 20f5 71c0 6a92 f1c0 1a08 56c0
000001b0: 0571 20c1 8fb7 9ec0 077d bdbf a6c9 eebf
000001c0: e9bc dcbf 1a1c bbc0 9984 90bf 7866 efbf
000001d0: 667d 50c0 dba7 b1c0 a30c 3ec0 4abb a7c0
000001e0: eead 25c0 3c4f 67bf 9f6f a2c0 ee3f 9dbe
000001f0: 117e 2ac0 7e3f 53c0 9ad6 14c0 c5c1 51c0
-2.8909156 -0.11214432 5.5872264 1.2425444 0.41397837 1.3352785 -5.586036 -0.21607056
0.04719128 0.018984225 -0.014353098 -0.21698654 0.11919319 -5.0798154 3.4582813 0.26321056
-0.0062251156 0.0053922613 -0.71979636 0.07434299 0.03128923 4.5813375 -0.01571769 -0.09927095
0.040118583 0.9090817 0.116709 0.037614927 -3.9125729 -0.087432936 2.5453937 -3.4551322
3.2457178 -0.008239014 -3.9410162 -1.2497503 0.49500164 -2.3379178 6.1922226 -0.07550241
0.08131324 -0.017027238 -0.1016109 -0.12975433 0.02146834 4.687149 -6.139186 0.403044
0.17819944 -0.029033637 2.5105445 -0.049371853 -0.0020414826 -3.1135314 -0.1891935 -0.047333892
-0.007150505 -1.8168979 0.16549344 0.18955764 4.955881 0.20496939 -2.520128 4.0295544
-6.2221346 -5.5709057 -3.9440634 -1.8380538 -3.5141318 -0.58597875 -1.8203042 -9.246796
-6.4595923 -3.598879 -7.8695607 -2.3168056 -9.676051 -4.696699 -1.5294167 -1.7622006
-0.95926565 -5.763114 -1.3318359 -1.6035953 -3.6279304 -5.7157807 -2.9269783 -5.031243
-2.7021184 -0.57164365 -4.776687 0.023046834 -2.9541688 -3.2149801 -2.6588285 -2.8226693
-6.370883 -5.1535506 -4.5060177 -1.7085056 -3.932224 -0.6689226 -1.8395765 -9.395982
-6.6109195 -3.7805862 -7.549123 -3.3442445 -10.027593 -4.959907 -1.480378 -1.8655288
-1.7245151 -5.8471804 -1.1290466 -1.8703146 -3.2576537 -5.55174 -2.9695213 -5.2416124
-2.5887408 -0.9035528 -5.0761256 -0.30712837 -2.6639445 -3.3007503 -2.3255982 -3.2774518

feature_net.linear_layer_output.bias f4 [4]
00000000: cccc 9fbe f32c b1be 4472 9ac1 f43c a2c1
-0.31210935 -0.34604606 -19.305794 -20.279762

feature_net.linear_layer_0.weight f4 [32, 8]
00000000: 3afd 3340 39e9 f23f 5243 b63b c001 af3c
00000010: 31f3 93bf 3086 ebbf 94c6 883e 9e11 b93e
00000020: 5af4 883f 3ba6 4c40 cf2c 763e f7d6 303e
00000030: 0525 d0bf e466 a2bf 061b b7bc b949 e53d
00000040: e7de febf 06d7 8ac0 b524 32be 2007 603e
00000050: 110d 8a3f 7a04 79c0 9998 b53e eed7 8bbc
00000060: 0cb7 f73e f765 0c3f e4f9 63be 4152 933e
00000070: 776d 003f ca2d fbbf 7efd e0bd 8dbd 573e
00000080: dd73 4340 66f5 0f40 a41e 9d3e e5cf 8ebe
00000090: 060e 74bf 1073 c5bf aa7b ebbd 5608 45be
000000a0: b5b1 3240 9875 fe3f c337 443e 9c96 5e3c
000000b0: a8fb 8dbf fef1 d8bf f534 72bc 0968 be3e
000000c0: 5334 1240 34f6 b53f f3b3 ecbd b52e c53d
000000d0: 6170 ffbe cc35 88bf 7455 ee3d 28d9 f93d
000000e0: f9d9 3b40 c401 0840 ad65 0c3d 02de 823e
000000f0: 799e adbf acdd f8bf 2dc3 9dbc 0800 d63a
00000100: e80f 0b40 0fae f43f 6d13 a7bd 7753 f63d
00000110: e07a 1bbf c105 d7bf 4768 2c3e 27b2 8f3e
00000120: 35e4 3540 7613 0940 77de d8be dde7 8dbe
00000130: 63a1 8bbf 6794 e5bf 13b9 703e 1081 a33e
00000140: d9a8 2b40 6087 0840 f883 9bbd 671a 913e
00000150: 1df6 6fbf 01ef debf b3c2 0abd 6fad 933e
00000160: 9e55 4b40 98cb 1740 3870 ac3e 5655 523d
00000170: a0fc 82bf 254c cebf ec61 103f a3e1 35bd
00000180: f448 3c40 fac3 1340 f245 993e e382 143f
00000190: 75c1 bbbf c868 0ac0 1359 f73e 5a1a 82be
000001a0: 07ae 9b40 bc9a fa3f f4bc 8d3d de43 7ebe
000001b0: 67b1 6ac0 c1c2 fdbe e156 8f3d 34eb 083e
000001c0: 402a 3440 0887 0040 db47 e7bc f4bc 23be
000001d0: cb9c 8ebf 5eb4 d9bf c0ac 3a3e 2174 c23e
000001e0: da1f 2b40 1c43 fc3f 064f aebe 5275 373c
000001f0: 9bcb 80bf 6fca dabf 73b3 843c ba3a cbbe
00000200: 293e 5840 6973 3340 728f ff3d 8ce2 89be
00000210: bf03 6abf e972 d6bf bec0 493e 0b49 803e
00000220: 55c3 3940 2dd5 1840 c6c3 b33e 1a62 fdbe
00000230: 5b4e 82bf 9464 ebbf 9ed6 c63e 3331 743c
00000240: 6cfe ce40 9540 dfc0 a2e6 733d 8bca 713d
00000250: 9f73 a840 1774 12c0 d4bc c1bd 046d a63e
00000260: b1c5 2f40 9ba1 0340 dc3d 7dbe 770d 78be
00000270: bed1 88bf b26d e1bf 1230 033f 325e a13d
00000280: be82 39bf d669 52bf 0e2e 02be d3eb 613e
00000290: 34be f93e 22bd 09c0 6663 9e3e 10d2 92bb
000002a0: 857e 1d40 8632 e43f 4bb3 523e 06fb b2be
000002b0: e9b9 6dbf 5c82 ccbf 4277 8bbe 998e 07bf
000002c0: 410f 5940 5f7c 1540 e35c ba3d 7b04 19be
000002d0: 8da4 b2bf d653 03c0 aa7c fabe 3391 1e3f
000002e0: bd26 2540 da24 ec3f c18d e93d 815e 12be
000002f0: 999b 87bf 044a e0bf 2fd9 9c3e cf88 b23d
00000300: 0a51 8640 1cb3 50bf 9f86 613e efe8 c4bc
00000310: 5801 9fc0 8675 2040 7c83 8dbd f7a4 02be
00000320: bf9f b03f 4ad9 e93f 607f 82be f955 df3d
00000330: 20ea 2240 7e14 9ec0 4924 febd 85ff 5e3d
00000340: 0e91 2f40 4ee1 f03f dd09 fd3e b12e 143d
00000350: 8dce 98bf aaf5 debf 8b10 063d 8398 143b
00000360: 2709 2640 89e2 f43f 059b 4f3e bd9c 99bd
00000370: 5bd6 56bf 10e1 c0bf 5b8d 74be 9ae6 143e
00000380: 8f97 063f 077a 2641 ccde 14bd ea46 753d
00000390: 3a53 c7be 088c 9140 fc30 8abd 3cb6 b13d
000003a0: e00b 4140 9569 0a40 e27e ca3d a0d4 fa3e
000003b0: 2cfc 87bf 75fb cdbf 773e 4cbe f9d6 f33d
000003c0: c542 0040 ca09 97bf 9721 0c3f 1c82 00be
000003d0: 4f08 a540 c011 20c0 4c7d 4e3b f249 783e
000003e0: 3b49 2a40 d29c f63f 3e51 e93e 3627 ee3e
000003f0: 7afe 81bf 0476 dabf 96da 17bd bed9 863d
2.8123307 1.8977424 0.0055622244 0.02136314 -1.1558591 -1.8400326 0.26714003 0.36146253
1.069957 3.197646 0.2404053 0.17269503 -1.6261297 -1.268765 -0.022351753 0.11195702
-1.9911774 -4.338748 -0.17396815 0.21877718 1.0785238 -3.8908982 0.35467985 -0.017070737
0.4838184 0.54843086 -0.22263294 0.28773692 0.5016703 -1.9623349 -0.1098585 0.21068402
3.0539467 2.249353 0.3068744 -0.27892986 -0.953339 -1.5425739 -0.114981964 -0.19241461
2.7920964 1.9879637 0.19161896 0.013585713 -1.1092424 -1.694885 -0.014783134 0.37188748
2.2844436 1.421576 -0.1155776 0.09628049 -0.49890426 -1.0641418 0.11637393 0.121996224
2.935179 2.1251078 0.034276653 0.25560004 -1.3563987 -1.9442649 -0.019258106 0.0016326914
2.1728458 1.9115618 -0.08158002 0.120276384 -0.6073437 -1.6798631 0.16836654 0.28065607
2.8420537 2.1418128 -0.42357227 -0.2771596 -1.0908626 -1.7935914 0.235081 0.31934404
2.6821806 2.1332626 -0.075935304 0.28340456 -0.93734914 -1.7416688 -0.033877086 0.28843257
3.1771007 2.3718014 0.33679366 0.051350914 -1.0233345 -1.6116987 0.56399417 -0.044404637
2.9419527 2.3088365 0.29936177 0.5801222 -1.4668413 -2.1626453 0.48310146 -0.2541073
4.8649936 1.9578471 0.069208056 -0.24830577 -3.6670778 -0.49562648 0.06998993 0.13370973
2.8150787 2.0082417 -0.028232506 -0.15990049 -1.11416 -1.7008169 0.18229961 0.37979224
2.673819 1.970798 -0.34044665 0.011197405 -1.0062135 -1.7093028 0.01619885 -0.39693242
3.378794 2.803919 0.12478532 -0.26930654 -0.91411966 -1.6753818 0.19702432 0.25055727
2.9025471 2.3880112 0.351103 -0.49488908 -1.0180162 -1.8390069 0.38835615 0.014904308
6.4685574 -6.9766335 0.05954612 0.05903105 5.264114 -2.2883356 -0.09459844 0.32505047
2.7464411 2.0567386 -0.24730629 -0.24223886 -1.0689008 -1.7611601 0.51245224 0.078792945
-0.7246512 -0.8219274 -0.12712881 0.22062616 0.48777926 -2.1521688 0.3093521 -0.004480608
2.4608471 1.7827919 0.20576207 -0.3495714 -0.928618 -1.5977283 -0.27239424 -0.5295196
3.391556 2.335716 0.09099748 -0.14943115 -1.3956467 -2.051992 -0.48923236 0.61940306
2.5804894 1.8448746 0.114039905 -0.14293863 -1.059436 -1.7522588 0.30634448 0.087175004
4.1973925 -0.815233 0.2202401 -0.024036853 -4.968914 2.507173 -0.06909844 -0.12758242
1.3798751 1.8269436 -0.25487804 0.1090507 2.5455399 -4.9400015 -0.124092646 0.0544429
2.7432284 1.8818758 0.49421588 0.03617734 -1.1938034 -1.7418721 0.03273062 0.0022673912
2.5943086 1.9131633 0.20273979 -0.075005986 -0.8392083 -1.5068684 -0.23882048 0.14541093
0.5257501 10.404792 -0.03634529 0.059882082 -0.38930684 4.5483437 -0.06747624 0.086773366
3.0163498 2.1626942 0.09887482 0.48990345 -1.0623832 -1.6092364 -0.19945703 0.11906237
2.0040753 -1.1799862 0.54738754 -0.12549633 5.157264 -2.5010834 0.0031507788 0.24246958
2.6607196 1.9266608 0.45569795 0.4651429 -1.0155785 -1.7067266 -0.037073694 0.065845

feature_net.linear_layer_0.bias f4 [32]
00000000: a72d d73e ba21 76bf 692c 2cbe fe91 1abf
00000010: 0dc5 0cbe e0f1 8d3e 6f7f 3d3e d0d3 c53e
00000020: 7af0 b33e 54c0 5b3e f6fb 303e 696d 43be
00000030: 9d7c da3e e15b d2bf 93f6 853e 3e70 993e
00000040: e0db 0abf 734b 013d 9ca6 4540 526a 8b3e
00000050: 6128 873f 0d4c c63e 0ebd 4e3e e30a f13e
00000060: f162 13be 1ca0 f0be 9318 d23e d620 2a3e
00000070: 4a21 1a40 7c82 203b a87d 1cbe 8897 b03e
0.42027017 -0.9614521 -0.16813816 -0.60379016 -0.13747044 0.27723598 0.18505643 0.38638163
0.35144407 0.21460086 0.17283615 -0.19084705 0.42673197 -1.6434289 0.26164684 0.29968446
-0.5424175 0.031566095 3.088294 0.27229553 1.0559198 0.38729897 0.20189306 0.47078618
-0.14393212 -0.46997154 0.41034374 0.16614088 2.4082818 0.0024491837 -0.15282309 0.3449061

feature_net.layer_norm_0.weight f4 [32]
00000000: 15c0 283f 52de 99be 54eb 773f a331 923f
00000010: 7fe2 253f bbca 823e c5d7 353f 1610 363f
00000020: 9be9 123e d3a6 153f c3d2 403f 8f6c 0f3f
00000030: 521c 1d3f 213b f43f ac6b 203f 5e41 053f
00000040: 79cf 743f b3b9 0f3f adcf b840 a629 383f
00000050: 254a 353f 2ab4 0f3f 6f95 a03e 5c69 3e3f
00000060: aa25 2440 c474 ed3f ff4b 2b3f 0197 f93e
00000070: f1c7 9240 69b5 123f b88e 8740 7883 663e
0.65918094 -0.3005243 0.9684346 1.1421398 0.6479873 0.25545296 0.71032363 0.71118295
0.14346926 0.5845768 0.75321597 0.5602502 0.6137134 1.9080545 0.62664294 0.5205287
0.9562908 0.5614273 5.775351 0.7193855 0.7081626 0.56134284 0.3136401 0.74379516
2.5647988 1.8551259 0.66912836 0.4874802 4.586907 0.5730806 4.2361717 0.22511089

feature_net.layer_norm_0.bias f4 [32]
00000000: 4b5d 28bf a8a5 673f 1caa 3b40 cbf1 023e
00000010: 0ffd 0fbf 6eec 0dbe a934 f8be 93b6 adbe
00000020: c514 b3bd f76b d2be c5ca 7fbe d0f3 febe
00000030: 8e55 cdbe 88b3 9abf 8c4c 02bf ac24 ecbe
00000040: 18a8 d4be 9f65 91be ebf7 8e40 7663 b1be
00000050: b3e0 c1bc 3d84 e5be f705 8fbe b857 b4be
00000060: be03 553f 45b6 c53f 9910 20bf 8a7f bebe
00000070: e2de 2c40 d246 14bf c1dc f43f 2224 f4bd
-0.65767354 0.90487146 2.9322577 0.12787549 -0.5624551 -0.13859722 -0.48477677 -0.33928356
-0.08744196 -0.41097996 -0.24979694 -0.4979539 -0.40104336 -1.2086039 -0.5089805 -0.46121728
-0.41534495 -0.28397843 4.4677634 -0.34646195 -0.023666715 -0.44827452 -0.27934238 -0.35223174
0.83208835 1.5446249 -0.62525326 -0.3720668 2.7011037 -0.57920563 1.9129869 -0.11920954

feature_net.linear_layer_1.weight f4 [32, 32]
00000000: af49 863e aad3 0540 b361 3d3f 0278 d83f
00000010: 0233 c83e 042c 983e ea89 fa3f fd60 d73e
00000020: 26ca 9b3f 5ab3 be3d fd3e e23e 0416 eb3f
00000030: cbb5 47be de61 5e40 8f60 c83e 7cc7 fc3d
00000040: 4893 a53f e093 b63f 19c0 d140 360d b43e
00000050: 8b86 2f40 333a f63d 5b8e b13f a412 483f
00000060: fce8 fe3f 38d6 1740 c63b 0d3f 05c8 28bf
00000070: 9d75 9540 ce58 8cbd ebe3 1440 49e9 a83e
00000080: c7b0 a03d 6cfa 3640 2939 b33f 8799 0140
00000090: 2792 5e3e a6dd 3d3e 5e5c e93e ce25 5d3f
000000a0: 8006 0f40 4185 213e 937a c6be eeda a33c
000000b0: c75c a4bf df17 1240 4d5e 0a3f 425e 1f3d
000000c0: 0abd 28c0 4852 91c0 4058 c540 d256 3c3f
000000d0: 1b77 5c40 b2cc bb3d df04 8c3f c7da fe3e
000000e0: 06b2 703f 0c3a 50c0 41dd 07bf f81a 9b3e
000000f0: 12b8 d840 f354 a6be a318 96c0 0539 9b3e
00000100: 6659 503f f06a 0a40 3bca 0640 4887 0040
00000110: 51ea 233e ea88 353f 0dfc b53e fe41 843f
00000120: 09e5 853f 9bd8 183e ec4b 823d 3641 8b3e
00000130: bd7a 523f b5a3 24c0 2995 8f3f 8bca a9bd
00000140: 97a6 293e 0ffd d9be f3c4 c840 373a 883f
00000150: 22f2 9240 73dd 713e 24ea 0cbf 18a3 2c3e
00000160: 6a1e b0be 3559 513f b35e e93d 9e32 48be
00000170: 7b72 6e40 6918 8b3e 32cf 583f cfe6 0e3e
00000180: 6ebb fe3d 5b8e ecbc 920c f23f 2d6a d5be
00000190: 8bd9 b63e 599b f13e aa26 2bbf de74 81be
000001a0: e8e9 2bbf 458b cebe a415 54bf 7967 e6be
000001b0: 8102 413f 6f94 2cc0 e641 0f3f f4a6 8dbd
000001c0: d9a7 e03f 2070 e73f 6ee3 d440 dd09 5b3f
000001d0: 52f6 0740 0881 34bd a80f 83be a7dc 183f
000001e0: 8e37 f8bd b0d3 5b40 8ced 86bd 63a4 37be
000001f0: 0006 0140 4d12 ef3d 8e33 0640 5982 2fbd
00000200: 717f f9bd fac0 f03f cfec 493f 1d75 73bf
00000210: c6ef 88be bc20 5d3e b184 5a3f 543d f43e
00000220: 39b6 0840 2386 a63e cecd fa3e e125 bcbe
00000230: 3cdf 413f b085 9b40 0fed f8be 29b7 c03c
00000240: 6c8f 8b3f d144 1a40 1eaa b940 7baf 9b3c
00000250: a1c0 a23f 782f 12be bb09 c53f e66a 773f
00000260: 813f ad3f da70 2840 fd93 69be 00a6 d0be
00000270: da72 8340 fcd1 583f 7a0a 7c40 d20e 4b3d
00000280: 01af 083f 6895 513f d031 45be cdd1 aabf
00000290: 5a0b 5dbd adc9 d8be 32d4 ddbe 4ea2 6abe
000002a0: 3990 933f 9152 35bf f209 a1bf c7e5 0fbf
000002b0: 0b10 a4bf d0bd b7c0 e4b2 903e fe60 8e3e
000002c0: 21b0 8ebf b6b6 6fc0 44bd d340 e5a4 8dbe
000002d0: 6930 50bf bf5c 9d3e 9047 e5be 28c8 d8bd
000002e0: ed47 b6bf a1e3 abc0 bff5 2b3e e740 00be
000002f0: 269b 5040 bdc4 d23d ddb8 d4c0 3dc9 41bf
00000300: a762 91be 33e7 9840 cb30 1c40 4c52 6f40
00000310: 0a22 22bf 7e3e 973e 96a3 a83f 40e8 243f
00000320: f1cc a940 9254 3c3e a78c 8fbe f5b7 e6bd
00000330: 5470 63bf 05bf 5040 2736 043f 04a3 263c
00000340: 78ae 9cbf d9e0 7fc0 3578 9240 16f8 2a3e
00000350: 0a0c b340 000a cabd 19d6 4a3f 8371 f83e
00000360: 731b 9b3e e2fd 2ac0 e767 57be a470 643e
00000370: 1603 0241 4d6b 98bd 3b01 5bc0 83be 683e
00000380: adf9 a0be c2a6 9a40 711e 1a40 a1bd 5840
00000390: b490 abbd c16c cf3e 3b3d 0c40 249f 83be
000003a0: ef85 8a40 b06a 65bd 1335 58bf a92b 653f
000003b0: 525a c33e 7788 3240 8d61 51bc a073 02bd
000003c0: 71e7 8d3f 58d0 b93f 75b4 8340 e08e 273f
000003d0: 5857 a340 ddd0 3c3e 4713 0240 06d5 74bd
000003e0: f12b b73f 89e0 4340 1103 533b cb2a cebd
000003f0: 51d1 fd40 87b9 01bd 8542 6940 5228 90bd
0.2622809 2.091044 0.739772 1.6911623 0.39101416 0.2972108 1.9573338 0.42066184
1.2171066 0.09311552 0.4418868 1.8366094 -0.19502942 3.4747233 0.39136168 0.12342736
1.2935572 1.4263878 6.5546994 0.3516633 2.7425869 0.12022819 1.3871568 0.78153443
1.9914851 2.3724499 0.5516933 -0.65930206 4.670607 -0.06852876 2.326411 0.32990482
0.078462176 2.8590345 1.4001819 2.0249956 0.2173544 0.18541583 0.45578283 0.8638581
2.2347717 0.15773489 -0.38765392 0.020001855 -1.2840813 2.282707 0.5405014 0.03890825
-2.636538 -4.541294 6.1670227 0.7356998 3.4447696 0.09169902 1.0938987 0.4977629
0.9402164 -3.253543 -0.5307198 0.30294013 6.7724695 -0.32486686 -4.6905074 0.3031694
0.8138641 2.162777 2.1060932 2.008257 0.16007353 0.7091204 0.35543862 1.0332639
1.0460521 0.14926378 0.06362137 0.2719819 0.82218534 -2.572492 1.1217395 -0.08290585
0.16567455 -0.4257588 6.2740417 1.0642766 4.592057 0.23619632 -0.5504477 0.1685909
-0.34398204 0.81776744 0.113950156 -0.19550559 3.7257373 0.2716706 0.84691155 0.13955234
0.12438093 -0.028876474 1.8910086 -0.41682568 0.35712847 0.47188833 -0.6685587 -0.25284475
-0.6715379 -0.4034063 -0.8284552 -0.45000818 0.75394446 -2.6965597 0.5595993 -0.069166094
1.7551223 1.8081093 6.6527624 0.85561925 2.1244092 -0.044068366 -0.25597882 0.5971169
-0.12119971 3.4347954 -0.06588277 -0.17933802 2.0159912 0.116734125 2.0968966 -0.04284892
-0.12182511 1.8808892 0.78876966 -0.95100576 -0.26745433 0.21594518 0.8535872 0.4770304
2.136122 0.32524213 0.48985142 -0.3674765 0.75731254 4.8600693 -0.4861836 0.023524838
1.0903144 2.4104502 5.8020163 0.019004574 1.2715036 -0.1427592 1.5393595 0.9664749
1.3535005 2.631888 -0.2281036 -0.40751648 4.10777 0.8469541 3.9381394 0.04957468
0.53392035 0.818686 -0.19257283 -1.3345276 -0.053965904 -0.42341366 -0.43325955 -0.22913477
1.1528388 -0.7082911 -1.258116 -0.5620999 -1.2817396 -5.7419205 0.28261483 0.27808374
-1.11475 -3.7455268 6.6168537 -0.27664867 -0.8132387 0.30734822 -0.4478116 -0.10585052
-1.42407 -5.3715367 0.16792963 -0.12524758 3.2594695 0.10291431 -6.6475663 -0.7569769
-0.28395578 4.7782226 2.440478 3.739398 -0.6333319 0.29539865 1.3174922 0.64416885
5.3062673 0.18391636 -0.28036997 -0.11265556 -0.88843274 3.261659 0.5164513 0.010170702
-1.2240744 -3.9980986 4.5771737 0.166962 5.5952196 -0.098651886 0.7923294 0.48524103
0.3029438 -2.6717458 -0.2103573 0.22308594 8.125753 -0.07442341 -3.42195 0.22728924
-0.31440488 4.832856 2.408108 3.386574 -0.08377209 0.4051266 2.1912372 -0.25707352
4.3288493 -0.05600995 -0.84455985 0.89519745 0.38154846 2.7895792 -0.012779606 -0.03184855
1.1086255 1.4516706 4.1157784 0.65452385 5.104412 0.1843905 2.0324266 -0.059773467
1.4310285 3.0605795 0.0032197873 -0.10066756 7.9318013 -0.031671073 3.644685 -0.070389405
