otk/AgileRL-MATD3/simple_crypto_v3/result/20240102-0837/MATD3_trained_agent_0045000.pt (torch, 900838 bytes, 336 tensors)

feature_net.linear_layer_0.weight f4 [32, 4]
00000000: 1bf9 d040 366b 54c0 1a81 1440 bacb d940
00000010: 3b11 9540 43db 0241 283b de40 b994 0c41
00000020: 4f50 cf40 0ab4 33bf 03be f840 1859 0641
00000030: baea 9240 1035 c040 ba4d d540 0ce5 bc40
00000040: 19f2 1f41 e504 ae40 2861 4040 fd12 e040
00000050: 09a0 4cbe b0d7 b140 aaaa c640 b250 7d40
00000060: b8e0 ac40 3ecd 2241 89c7 8440 cdad 6140
00000070: c207 b540 5ca2 1f41 7b5a 6f40 f05a 8c40
00000080: 4c07 1341 8ed4 34c0 7948 9040 6e1e 2b40
00000090: 8343 c240 0f2f 2141 070e 7a40 8255 9940
000000a0: ba3e b140 f43c 2241 0892 8040 e8c1 6740
000000b0: 9654 c340 5226 2041 3e2c 6140 632e 7940
000000c0: 14f5 b540 58bf 0f41 0eac 0241 741a 9040
000000d0: daa7 0541 3510 fd40 8f67 7240 efaa 7240
000000e0: a46a 453f 8366 0041 c50c a040 a1e6 a540
000000f0: 5a6d 0c41 2902 3140 c7b7 abbe 5515 d240
00000100: 1ee6 e33e f021 8d40 7b75 b93f 8c9a 3c41
00000110: df1e cf40 17db 0441 9865 be40 858b 9e40
00000120: f778 a840 7af8 cc40 dbe7 2141 730c 083f
00000130: db94 a140 cebe 2241 7bb9 8940 9c24 8840
00000140: 530b b840 4305 2041 9854 6e40 564f 9140
00000150: bfa0 c040 3c19 2241 3612 8440 0fa2 9d40
00000160: 4827 b640 c991 2041 2dc7 7540 c6ca 7e40
00000170: bedd cf40 096d f640 cb6e d140 85df b540
00000180: e132 1140 522c 2d40 ba4f 1e41 37ec ea3f
00000190: 06d1 aa40 e5e3 20c0 9226 1ec0 6dab d340
000001a0: a92f 8240 d466 63c0 8c7d d340 4506 e040
000001b0: a5a1 b140 ddbe 2141 6c43 8340 1c19 8140
000001c0: 7b8e ad40 6794 1e41 dc97 6f40 017e 8340
000001d0: 8f56 9140 b81f 1141 a849 0341 10da 5140
000001e0: ff6e b140 b2f0 2541 e159 9040 e9ee 6340
000001f0: fc52 9440 25db 1941 4ed6 19c0 7f54 9a3f
6.5304084 -3.3190436 2.3203797 6.806119 4.6583533 8.178531 6.944721 8.786309
6.4785533 -0.7019659 7.773195 8.396751 4.591153 6.0064774 6.665738 5.90296
9.996606 5.4380975 3.00593 7.002318 -0.19982924 5.557579 6.208333 3.9580503
5.4024315 10.175108 4.1493573 3.526233 5.657197 9.9771385 3.7398975 4.386101
9.189281 -2.8254733 4.5088468 2.6737323 6.070741 10.073989 3.9071062 4.791688
5.538907 10.139881 4.017826 3.62121 6.1040754 10.009356 3.5183253 3.8934562
5.686167 8.984215 8.167006 4.503229 8.353479 7.9082284 3.7875707 3.791683
0.77115846 8.025027 5.001559 5.184403 8.776697 2.7657568 -0.33538648 6.565104
0.44511503 4.4103928 1.4488977 11.787731 6.4725184 8.303489 5.9499016 4.954531
5.264766 6.4053316 10.119105 0.53143996 5.049421 10.171583 4.3038917 4.254469
5.7513824 10.001285 3.7239132 4.5409346 6.0196223 10.131161 4.127223 4.9260325
5.692295 10.035592 3.8402817 3.9811263 6.495818 7.70081 6.5447745 5.683535
2.2687304 2.70583 9.8944645 1.8353337 5.3380156 -2.5139096 -2.4711041 6.614676
4.068318 -3.5531511 6.6090755 7.0007653 5.550982 10.1090975 4.10198 4.034315
5.4236426 9.911231 3.7436438 4.1091313 4.541816 9.070244 8.2054825 3.2789345
5.5447993 10.3712635 4.5109715 3.561457 4.63513 9.616002 -2.4037051 1.2057036

feature_net.linear_layer_0.bias f4 [32]
00000000: 71ea ad40 01ab 8540 9cd2 0341 85d3 ad40
00000010: 956a 6240 1348 9940 6a5b 0441 991d 0041
00000020: bbfb cd40 5706 e740 88a5 0241 d194 f740
00000030: bf10 a540 7a2c 6a40 0d14 c340 930f a740
00000040: 5d4f 4841 1e38 c840 e0f2 7640 0ee2 0541
00000050: fcfc fa40 64b5 e140 aa5d 0041 2ef9 b240
00000060: 4b92 2041 9908 dd40 3324 b940 2754 ff40
00000070: 0395 0641 49c3 e740 1536 f740 4f03 0541
5.4348683 4.1771245 8.238918 5.4320703 3.5377553 4.790048 8.272318 8.007226
6.436979 7.219524 8.165413 7.736916 5.158294 3.6589646 6.0961976 5.220651
12.519376 6.2568502 3.858574 8.367689 7.843382 7.0533924 8.022867 5.5929174
10.035716 6.9072995 5.785669 7.9790225 8.41138 7.2425885 7.725352 8.313308

feature_net.layer_norm_0.weight f4 [32]
00000000: 3e96 8441 8823 2b41 991e 8840 3ee3 d240
00000010: 5c56 8640 697f cf40 14de c33e 760b b33e
00000020: f665 4640 f019 f53e 4b1a 863e 275e 9a3f
00000030: 0254 dc3f 435a 2fbf 5ea7 d840 960b c040
00000040: 6f5b f741 9911 b83f 1084 1641 dfc3 243f
00000050: d97b b13e 76ad b83e 784a 053f 53c6 3a40
00000060: c418 1a41 41d0 4e41 1b9f 5f41 2b3d 3a3f
00000070: e9ea 893e 505d 813f 4c0a ef3e 2be5 db40
16.57336 10.696175 4.253735 6.5902395 4.198042 6.484303 0.3825537 0.34969682
3.0999732 0.4787135 0.26191935 1.2059983 1.7213137 -0.68497103 6.7704306 6.0014143
30.919645 1.438037 9.407242 0.64361376 0.346648 0.3606984 0.52066755 2.9183547
9.631046 12.925843 13.976344 0.72749585 0.26937035 1.0106602 0.46687543 6.8717246

feature_net.layer_norm_0.bias f4 [32]
00000000: 2e01 fbbe 6e93 1a3f 679e bac0 ea51 9ebf
00000010: 4a84 87c0 f269 2240 d3cf 35bf 5c93 0dbf
00000020: 4109 1040 6e69 27bf b496 2abf 2dd3 d1bf
00000030: 9f9b 2bc0 888a 693f 6a9a 143f d6aa 5dbf
00000040: 9444 a040 c528 ccbf 8d9a 2e3f 0c61 71bf
00000050: e225 21bf 6edf 27bf 784f 2ebf a742 4fc0
00000060: 489e e240 72ad 5840 07f6 1bbe 3939 6abf
00000070: f49e e1be db90 03c0 54ac 40bf 3a2f eb40
-0.49024338 0.6038121 -5.831836 -1.2368748 -4.2348986 2.5377164 -0.7102024 -0.5530298
2.2505648 -0.6539525 -0.66636205 -1.6392571 -2.6813734 0.91227007 0.5804812 -0.865888
5.0083714 -1.5949942 0.68204576 -0.94288707 -0.6294843 -0.655753 -0.6809001 -3.2384431
7.0818214 3.3855863 -0.1523057 -0.91493565 -0.44066584 -2.0557163 -0.7526295 7.349515

feature_net.linear_layer_1.weight f4 [32, 32]
00000000: 2389 1e3e a46b 8540 cf45 2241 5de8 c3be
00000010: b0eb aa40 4e94 6341 b379 0fbe cbf1 f9be
00000020: 0f8e f9be b76a 11bf 5131 a9be d045 983f
00000030: 5ec6 4dc0 b09c 3941 2cc7 d53e e5ba b440
00000040: 2e98 ee40 e2b7 4c3f 9a83 8941 2bea 9f3e
00000050: 4549 3cbf 1cd0 2e3e 2025 a0be 0b22 a440
00000060: 4458 2d41 7502 c241 2dff cd40 6582 f83e
00000070: 3911 d1be b84c 8540 99b8 8abf 0773 fc40
00000080: af21 f5c0 732e e9bf d82f 8340 fe72 7ec0
00000090: f856 7cc0 2f19 2ac1 b603 a2bd d81b 763e
000000a0: d970 bebf 7c41 203e 3a0c f8be f495 b63e
000000b0: 3748 9bc0 b343 0cc0 1141 9140 13d6 ec3f
000000c0: ee2c 8741 38d1 b4bd db78 7f41 7cd0 a63f
000000d0: cce4 723e ed95 673f 6634 1b3f 9017 0740
000000e0: f0bd 7f41 366c 8641 b1cc 0f41 0d1c 92bf
000000f0: a66d 4b3e a5c0 5b40 9a8f 633f 9a57 7641
00000100: 8243 f4c0 e812 d7bf d65c 9340 9504 3dc0
00000110: 466e 62c0 f24a 48c1 f1db 863c 8d84 54be
00000120: 066c e4bf f701 1d3e b7ff a83e 4be9 dbbd
00000130: 0a8a 83c0 bd35 49c0 a427 b740 b334 1040
00000140: d44e 8841 f9ee f8be 9d9e 8041 9a8f a63f
00000150: 40ff c73d 7ba7 f53e f6dd 4a3f 55ef 3040
00000160: 37c4 7d41 12a8 7c41 35e2 1341 10a7 c4be
00000170: cf1d 303e f393 4340 02d5 babc 39f4 7941
00000180: 5801 0ac0 422d 0441 56e8 f640 e761 00c1
00000190: 50c9 aabe 241e b83f e1e4 ecbe b325 d53e
000001a0: 0dd4 25c0 ddd9 953f d51c 58be 8904 293f
000001b0: afed 5cc0 9ed3 0341 b75d 5940 0a66 a53f
000001c0: bd97 cf40 2192 ae3f 0e56 2641 162c 023f
000001d0: 1426 a63e f770 ba3f ca11 8e3f 9044 1abf
000001e0: 8d92 3641 d8dd 7841 1817 7f40 11bd f7be
000001f0: d7a5 ba3e c90d 1e40 8c88 b33e cfe1 1e41
00000200: 0b3f 1040 41f2 4b40 f4af 8c40 ea6a 0041
00000210: a1e5 a3be 53c6 f640 c6db ce3e 9343 f13d
00000220: f908 d340 d9ba 0dbf 9f62 723e c645 703f
00000230: 7e37 a040 704d d3c0 2ab8 3641 f751 2e40
00000240: e5ca 1641 3dc1 ab40 4aed a33d 4fc4 d63f
00000250: b0d1 50be 5db8 303e a4a0 dfbc db1c 7340
00000260: d5fb 3e41 2b1b 8941 ea25 2741 f33b ae3f
00000270: 3c17 973e c496 0341 e0eb 8b3d 2e9b e040
00000280: 0152 05c1 ebdb e9bf 4c7c 9a40 2ed6 5dc0
00000290: 07b0 80c0 9c02 54c1 5173 a63d 4962 c03e
000002a0: b170 83bf f234 1bbf 172a e33d 2063 42bd
000002b0: 0cd2 98c0 cf32 51c0 86a6 9440 9f28 d93f
000002c0: 499f 8841 4756 e2bd 3125 7e41 72ac 7a3f
000002d0: 0128 bf3e 4218 903d 8ce0 723f e783 fe3f
000002e0: 8d23 7641 ccb5 7341 dbb2 0f41 2fb6 3fbf
000002f0: 3866 d73e 63a3 2d40 3883 043f 9014 7d41
00000300: 41f8 e83e d002 c93f 7c46 2741 5adc c040
00000310: 6d23 933e 2869 8a41 b522 8d3e f097 f2ba
00000320: 918f 4f3f ad15 cc3e d532 65bd 52d4 b83f
00000330: 2350 9d40 92c8 1841 6496 d240 2a58 7f40
00000340: 65c7 3e41 6b4c 4540 df88 af41 ccc1 ca3f
00000350: e90b 04be b574 91be 3ae0 5d3f 90a9 0041
00000360: 30df 2541 7b09 ae41 4dcd bf40 2f4c c33e
00000370: ac82 eebd 8f5c 9b3f 7406 373f cd8b 1741
00000380: e830 d1c0 ac5c b6bf cfb1 7b40 0540 9fbf
00000390: b24e 8bc0 d4b8 49c1 d05a 7fbe 2742 9d3d
000003a0: 87c7 7cbf 9ef6 12be 1084 6e3e b44f 8cbe
000003b0: 866b 36c0 ca8f 74c0 ed5d c940 db93 c03f
000003c0: eeca 8941 fe87 c4bd 1517 7941 b4a0 e83f
000003d0: bc3c 0e3e 0d72 013f 61d8 003f d33e 2040
000003e0: e661 7f41 89d2 8341 f53d 0c41 6002 4eb8
000003f0: 6c20 9d3c f3df 3b40 b05f f93e 23df 7541
0.15482001 4.1693897 10.142043 -0.38263217 5.3412704 14.223707 -0.14011268 -0.48817286
-0.48741195 -0.5680346 -0.33045438 1.1896305 -3.2152324 11.600754 0.4175352 5.6478143
7.4560766 0.7996808 17.189259 0.31233343 -0.735493 0.17071575 -0.31278324 5.1291556
10.834049 24.2512 6.4373994 0.48536983 -0.40833452 4.165615 -1.0837585 7.8890414
-7.660362 -1.82173 4.0995903 -3.9757686 -3.9428082 -10.631148 -0.07910864 0.24034059
-1.4878188 0.1564998 -0.48446828 0.3566128 -4.8525653 -2.191632 4.5391927 1.850283
16.896938 -0.08828968 15.967006 1.3032374 0.23720092 0.90463144 0.6062683 2.1108131
15.983871 16.802837 8.9874735 -1.141481 0.19866046 3.433633 0.88890994 15.396387
-7.6332407 -1.6802645 4.6050825 -2.9534047 -3.5379806 -12.518297 0.016462298 -0.20753689
-1.7845466 0.15332781 0.33007595 -0.107378565 -4.1106005 -3.143905 5.723589 2.2532165
17.03849 -0.48619822 16.077448 1.3012574 0.09765482 0.4797934 0.79244936 2.7646077
15.860404 15.791033 9.242726 -0.3840871 0.17198871 3.055905 -0.022806648 15.622125
-2.156332 8.261049 7.7158613 -8.023902 -0.33356714 1.4384198 -0.4626837 0.41630325
-2.5910676 1.1707112 -0.21104749 0.66022545 -3.452007 8.239164 3.396345 1.2921765
6.4872727 1.3638345 10.396009 0.5084852 0.32450926 1.4565724 1.1099179 -0.6026087
11.410779 15.554161 3.9857845 -0.48386434 0.3645465 2.4695914 0.35065114 9.930129
2.2538478 3.186661 4.3964787 8.026102 -0.3201113 7.7117095 0.4040205 0.11780467
6.5948453 -0.5536323 0.23670433 0.93856466 5.006774 -6.603203 11.419962 2.7237527
9.424535 5.3673387 0.08004244 1.6778659 -0.2039249 0.17257829 -0.02729828 3.7986362
11.936482 17.138266 10.446756 1.3612045 0.29509914 8.224308 0.06832099 7.018943
-8.3325205 -1.8270239 4.827673 -3.4661975 -4.0214877 -13.250637 0.081274636 0.37574986
-1.0268766 -0.60627663 0.110920124 -0.047457814 -4.7756405 -3.268726 4.6453276 1.6965522
17.077776 -0.11051612 15.88408 0.9791938 0.37335208 0.07035877 0.9487388 1.9884003
15.383679 15.231884 8.981166 -0.74887365 0.42070174 2.7130973 0.51762724 15.81752
0.45501903 1.5703983 10.454708 6.0268984 0.28737965 17.301346 0.27565542 -0.0018508416
0.8107844 0.39860287 -0.05595668 1.4439795 4.9160323 9.548967 6.580858 3.989756
11.92368 3.0827892 21.941832 1.5840392 -0.12895168 -0.28409353 0.8667027 8.041397
10.366989 21.75463 5.993811 0.3814406 -0.116460174 1.2137622 0.7149422 9.471631
-6.53722 -1.4247031 3.9327276 -1.2441412 -4.3533564 -12.607624 -0.24936986 0.07678633
-0.98741955 -0.1435189 0.23292565 -0.2740456 -2.8503127 -3.8212762 6.2927155 1.5045122
17.224087 -0.09596251 15.568135 1.8174043 0.13890356 0.5056465 0.5033017 2.5038345
15.961401 16.4778 8.765126 -4.911644e-05 0.019180499 2.9355438 0.48705816 15.366977

feature_net.linear_layer_1.bias f4 [32]
00000000: 4b02 9340 f137 5a41 4a53 5541 85e5 5a41
00000010: 1b5f 2941 e4df 5241 8fb4 d840 d167 5541
00000020: da03 5041 5eed 4641 d643 4741 e9e8 ff40
00000030: fbf8 5f41 545e 0541 5adf c3c0 0fc6 4841
00000040: f6d3 5741 dae3 6341 6e55 4d41 3b48 5a41
00000050: a851 4f41 0c42 4e41 8bea 4641 51d9 5141
00000060: 3bdb 3441 8506 4241 d1c6 2b41 2ff6 3241
00000070: afc0 6041 4fdf 3d41 72ed 1741 e2ae 6b41
4.59403 13.638658 13.332834 13.681035 10.585719 13.179661 6.772041 13.337846
13.00094 12.432951 12.4540615 7.9971814 13.998286 8.335529 -6.1210146 12.548354
13.489248 14.243128 12.833357 13.642634 12.957436 12.891125 12.432261 13.115556
11.303523 12.126592 10.736039 11.185103 14.047042 11.867019 9.49547 14.730196

feature_net.layer_norm_1.weight f4 [32]
00000000: a64a a33f 64c5 963e f659 883e 7127 1040
00000010: 0bd2 a93f 36f2 b43e fbcf b33e bc62 983e
00000020: b780 c33e e6a0 683f ae10 e03e e6a4 1140
00000030: 1f28 a33e ab63 1640 d318 a63f 7317 923e
00000040: 224e b73e a522 793e f9ce ce3e 4289 423e
00000050: f708 b23e 6797 353e 9b14 643f f829 c23e
00000060: ebd4 bc3e 7b78 bb40 b76a eb3d 5435 413f
00000070: 5012 983e 1d60 3840 7714 7440 d019 1c3f
1.2757156 0.29447472 0.26631135 2.2524073 1.3267225 0.35341042 0.35119614 0.29762828
0.3818414 0.9087051 0.43762726 2.2756896 0.31866547 2.3498333 1.2976326 0.28533515
0.35801798 0.24329622 0.40392283 0.18997672 0.34772465 0.17733537 0.8909394 0.37922645
0.36881194 5.858457 0.114949636 0.75472 0.2970147 2.8808663 3.813749 0.60976887

feature_net.layer_norm_1.bias f4 [32]
00000000: 052f 17c0 600e 22bf 831d 09bf b4db 193f
00000010: 7cc6 06c0 99c5 04bf 4551 95bf 60ed c4be
00000020: 28ac 23bf b0ca 17c0 9c33 26bf a46f e9bf
00000030: d03c 18bf 060d ddbf 0a39 6f40 d9b9 fdbe
00000040: 5e8e 10bf 0ccb 43bf 7f12 0ebf 1c42 1abf
00000050: d948 f6be 2848 47be a8ea 9fbf f1aa 06bf
00000060: fa43 6dbf 2aac 9b3e 205a c6be 75db 0dc0
00000070: 52e3 1bbf ed62 8b3f 92d5 2d3f 696e 30c0
-2.3622448 -0.63303185 -0.53560656 0.60100865 -2.1058645 -0.5186401 -1.1665426 -0.38462353
-0.63934565 -2.371746 -0.649225 -1.8237195 -0.5946779 -1.72696 3.7378564 -0.49555853
-0.56467235 -0.764817 -0.5549697 -0.60257125 -0.48102453 -0.19461119 -1.2493486 -0.52604586
-0.9268185 0.30404788 -0.38740635 -2.2165196 -0.6089374 1.0889565 0.6790401 -2.756739

feature_net.linear_layer_output.weight f4 [4, 32]
00000000: 4aed f13f 881c 873d 0188 81bc 5ed4 603f
00000010: 0f16 293f da6d 6bbd 449c 42bf 9161 973d
00000020: cc6a 663b 11d1 8b3f 1944 f6bd cb48 7240
00000030: c53f 623d 5053 213f a9a0 75c0 2164 e5bd
00000040: c875 68bd 1bde fb3b 7772 de3d 714c 3d3c
00000050: 4302 2fbc fee6 ca3d 6433 043e ceb3 7dbe
00000060: be7a 7ebe a1b8 bbbf 6d94 e63e cd15 c93d
00000070: 0b24 bebd 53f3 be40 b652 0cc0 3f08 6ac0
00000080: 9544 aa3d 767a bd3c a5c9 f43d 2c2c 6cbf
00000090: 1e38 ea3d 7988 c8bd a151 31bf 5562 e0bc
000000a0: 0ca3 4abc 5855 773f fa0d ec3d 7d98 0ebf
000000b0: 30d5 cf3c 5252 20bc 119b 4b40 8c0a eebd
000000c0: ba18 393d 630a 00be 53b5 53bd 6ee4 2dbd
000000d0: 8717 06be e042 523d a2d6 3bbe 0849 30bd
000000e0: e292 1bbf 71bb ae3f e986 6dbf 89b6 61be
000000f0: 0d63 863d 5354 6ebf 6475 ed3f 38d5 65bf
00000100: 0f99 03bb 0bc3 cc3e 0099 c3c0 0ba7 8ec0
00000110: 8de4 4bc0 5e7a 85c0 6b4d 23c0 9ee9 51c0
00000120: e653 14c0 5e03 47c1 600d b23e 7e81 1dc0
00000130: 069d f5bf 5ee1 e0c0 b489 f8bf 5d8e 28c0
00000140: 0a11 37c0 cc32 20c0 4b48 a6c0 a675 fdbf
00000150: d537 06c1 f11c b6c0 3c98 23bf be3b 00c1
00000160: f3b3 2cbf 3ff2 debf 187d 87bf b529 9fc0
00000170: 0bbf 93c0 efbe aac0 9972 72bf aea2 a7c0
00000180: 5a8c f73b 4458 d1be 7aee d2c0 1da1 e1bf
00000190: fc82 57c0 ec44 00c0 8af1 dabf f25e 70c0
000001a0: fddb 33bf 7d62 1dc1 2278 d63e 0a7d f8bf
000001b0: fa39 07c0 6f98 2cc0 4464 dbbf 45d9 91c0
000001c0: 37c1 34c0 1887 9abf 5f2d b7c0 6c78 25c0
000001d0: 3616 f0c0 2a5b a8c0 44ff 36c0 f3e8 cfc0
000001e0: 1a5f febe ec53 07c0 7dff 6cbe 958e 1dc0
000001f0: 4066 a3c0 83cc d0c0 e37c dabe 01c5 6cc0
1.890054 0.06597239 -0.015811922 0.87824047 0.66049284 -0.05747781 -0.7601969 0.07391656
0.003515887 1.0923177 -0.12024707 3.785693 0.055236597 0.6301775 -3.837931 -0.11200739
-0.05675295 0.007686389 0.10861676 0.01155387 -0.010681692 0.099073395 0.12910229 -0.24775621
-0.2485151 -1.4665719 0.45035115 0.09818611 -0.092842184 5.9672027 -2.1925483 -3.6567533
0.08313862 0.023129683 0.11952523 -0.922549 0.11436485 -0.09791655 -0.6926518 -0.027390638
-0.012367975 0.966146 0.11526103 -0.5570143 0.02537021 -0.009785252 3.1813395 -0.116231054
0.045189597 -0.12503962 -0.051686596 -0.042454176 -0.13094912 0.05133331 -0.18343595 -0.043038398
-0.60771 1.3650953 -0.9278398 -0.22042288 0.06561861 -0.9309742 1.855145 -0.8977847
-0.0020080244 0.39992556 -6.1124268 -4.457891 -3.1858246 -4.1711874 -2.5516002 -3.2798839
-2.3176208 -12.438322 0.3477583 -2.4610286 -1.9188545 -7.0275106 -1.9417024 -2.6336892
-2.860415 -2.5031004 -5.196325 -1.9801528 -8.388631 -5.691033 -0.63904166 -8.0145855
-0.6746208 -1.7417678 -1.058505 -4.973841 -4.6170707 -5.3358073 -0.9470611 -5.2386084
0.007554573 -0.40887654 -6.591611 -1.7627293 -3.3673697 -2.0042067 -1.7104962 -3.755795
-0.7025755 -9.836545 0.4188853 -1.9413159 -2.1129136 -2.6968038 -1.7139974 -4.557772
-2.824293 -1.2072477 -5.7242885 -2.585475 -7.5027113 -5.2611284 -2.8593302 -6.497186
-0.49681932 -2.1144972 -0.23144336 -2.4618275 -5.1062317 -6.524965 -0.42673406 -3.6995242

feature_net.linear_layer_output.bias f4 [4]
00000000: 7f43 ffbd b4fd 833d 1fa3 b3c1 1416 b6c1
-0.12464046 0.064448744 -22.454649 -22.76078

feature_net.linear_layer_0.weight f4 [32, 8]
00000000: 3702 7840 baad b33f bf5d 8ebe 3099 97be
00000010: ab9c 2a40 2724 9340 0154 bc3f e130 a440
00000020: c4fb 9f40 9690 cd40 d3a7 063f 57fe bd3e
00000030: 3a86 8e40 c416 3640 292b 863f 2919 a940
00000040: 5851 dc40 c13a 9640 8822 b23c e530 9e3e
00000050: 6d47 843f df8f 8640 08cb cf3e 1b8a 6041
00000060: 0e2e 7040 346a 1b40 cb69 b4bd 23f9 583e
00000070: 4230 5740 c673 1640 5732 883f 69cf 44bf
00000080: 0648 ad40 77e2 393d 347f e53e 961f d43e
00000090: 7491 b840 8594 c03f 5554 b540 abcc 0241
000000a0: ac4a 0d41 3263 c040 ac01 7cbe 12a3 bb3d
000000b0: e9ab 2e40 ca27 a040 cfdd 3dbf b3a0 0841
000000c0: 5e68 1441 b214 1041 6bc7 993d 401f 143d
000000d0: 5bfe b640 5d64 0841 2101 0f41 8885 1a41
000000e0: 9374 a340 74bd 7140 6780 0dbf c965 a03c
000000f0: d275 403f 79fc 1240 f007 a33f 9203 4141
00000100: 1dc4 a440 c520 7740 80a8 48be 9d37 f33e
00000110: dee5 4b3f 936d 0d40 9a24 b43f 9d7b 4141
00000120: db4d df40 b100 d540 9aec d43d 6177 6ebe
00000130: a0f7 b940 356e 8240 2d5b dc40 2c9b 0a41
00000140: fde8 a540 b170 7840 380e f1bd 1b82 55bd
00000150: 2831 2e3f 1b0d 1d40 a337 ae3f 8ebc 4741
00000160: 5f43 a240 a868 7440 cab7 4c3e f62f 43bd
00000170: e512 453f a5bf 0840 1d9a a83f 5d76 4141
00000180: e8be 0341 506c 7440 565d 003d 3739 debd
00000190: 023e 2840 17d5 473f ebd0 3b40 c47b 3b41
000001a0: ffaa a940 7ae3 7f40 c21c 5c3e 412f 89be
000001b0: ba3b 8b3f 8474 0340 c6a9 9e3f b911 3f41
000001c0: d3c4 a940 2c04 8040 6ded 8e3e 347c 31bd
000001d0: f603 693f 0ad6 0040 223f a23f 6457 4241
000001e0: 3168 8740 b0cc 4d40 ca19 1d3c 3fdf 073f
000001f0: 8d64 1a40 bc26 3440 aa4c 2a40 e529 6741
00000200: 5cd1 bc40 a195 af40 75f9 27be 10c9 833e
00000210: 399c 9940 e294 b53f c85f 74c0 a0ad ec40
00000220: 7db5 8340 97aa 5340 fcc7 a4bd 44d9 aabd
00000230: 97e0 bd40 f8ed 1f41 ca0d 6a40 db02 e740
00000240: 6851 7a40 a6d4 bd40 3cd3 9e3d 2026 3a3e
00000250: 88fa cb3f 9c0a d240 b4e0 9140 853b 5141
00000260: ebd4 8440 0922 e33f 7aa6 a6be 5c42 af3c
00000270: 8b49 9440 3f88 4cbf 0eb2 1c3f 4e0c b140
00000280: a9ad 4c40 8de3 8b40 cef4 24be 50b4 bb3e
00000290: bde1 6840 3ce8 0fbf 15c1 bdbf af23 2641
000002a0: 3589 a940 340a 7640 8871 d73e d7b6 453e
000002b0: 37cc b03f 13f0 e03f 65b6 633f 3b25 0b41
000002c0: d371 a140 3e36 6e40 034c 7ebe 0d8f 863d
000002d0: 71d3 2c3f b195 1840 51b3 a53f 4666 4541
000002e0: 93f0 6140 0e06 7c40 284c f13d dd49 cc3d
000002f0: c638 2d3f 6ba6 a040 49c0 243f 1e91 2541
00000300: 7828 a440 8846 4340 b9a6 81bc 1e25 c33e
00000310: 374b 2040 d7a1 2240 ed1d 4440 6b10 b540
00000320: 0c7c b940 0cf7 8540 4e4c 033e 4aba 8a3d
00000330: 91c1 c33f aa23 9c40 f1fc f63e 8381 3b41
00000340: 8a49 4440 3d29 6940 bc7a e53e e8ee 0dbe
00000350: 56eb 16be a7fb bf40 d26e f340 58c9 3041
00000360: 6d16 ce40 106b 9d40 6ec7 48be 750c 63be
00000370: 0bbb c840 430f 13c0 1783 ad40 901b 9a40
00000380: c965 cd40 c6d3 8740 23e9 53be b81f c53e
00000390: 1e6e 2c40 cfbe 2d40 a587 4a40 446a ca40
000003a0: 5185 9c3f f575 8840 4bed 0e3e e811 53be
000003b0: 7ee7 c340 f166 d740 9135 2f40 360d 9d40
000003c0: dae6 aa40 953f 7d40 1cc1 953e 0aef 97be
000003d0: 008c a03f 3672 1d40 f55b 8b3f 9e67 3b41
000003e0: 67af a740 4f2a 5c40 e688 c33d 5557 d5bd
000003f0: 82e0 f23e d480 c13f d166 b83f 1ffd 6c41
3.8751352 1.4037392 -0.27805898 -0.2960906 2.6658123 4.598163 1.4713136 5.1309667
4.999483 6.4238997 0.5259983 0.37108108 4.453885 2.8451395 1.0481921 5.2843213
6.8849297 4.694672 0.021744981 0.3089668 1.0334297 4.2050624 0.40584588 14.033717
3.752811 2.4283571 -0.08809241 0.21188788 3.3623204 2.3508162 1.0640363 -0.7687898
5.415042 0.04538199 0.4482361 0.41430348 5.7677555 1.5045325 5.6665444 8.174968
8.83073 6.012109 -0.24610013 0.091619626 2.7292426 5.004857 -0.7416658 8.539233
9.27548 9.005053 0.07508739 0.036162615 5.7185493 8.524503 8.937776 9.6576
5.1079803 3.7771883 -0.5527405 0.019579785 0.7517978 2.2966597 1.2736797 12.063372
5.1489396 3.861375 -0.19595528 0.47503367 0.79647624 2.2098129 1.407367 12.092679
6.978254 6.6563344 0.10396691 -0.23287727 5.8114777 4.075953 6.88613 8.662884
5.184691 3.8818781 -0.1177029 -0.05212603 0.68043756 2.453925 1.3610729 12.483534
5.070724 3.8188877 0.19991985 -0.04765316 0.76981956 2.136697 1.3172032 12.091397
8.234108 3.8191109 0.031339012 -0.108507566 2.6287847 0.78059524 2.9346263 11.717716
5.3021235 3.998259 0.21495345 -0.26793864 1.0877602 2.0539865 1.2395561 11.941827
5.3052764 4.0005093 0.27915516 -0.04333134 0.9102167 2.013064 1.2675517 12.146336
4.2314687 3.2156181 0.009588668 0.5307502 2.4123871 2.8148642 2.6609292 14.447728
5.9005566 5.4870152 -0.16403754 0.25739336 4.80032 1.418606 -3.818346 7.3961945
4.1159043 3.307287 -0.080459565 -0.083422214 5.9336658 9.995598 3.6570916 7.2190986
3.9112186 5.932208 0.077551335 0.18178606 1.5935831 6.563795 4.5586796 13.077031
4.150991 1.7744762 -0.32548887 0.021393947 4.6339774 -0.79895395 0.6120919 5.532752
3.1980994 4.371527 -0.1610901 0.36661005 3.638778 -0.56213737 -1.4824549 10.383712
5.297999 3.8443727 0.42078805 0.19308029 1.3812321 1.7573265 0.88950187 8.696589
5.0451446 3.7220607 -0.24833684 0.065702535 0.67510134 2.3841364 1.2945348 12.337469
3.5303085 3.9378695 0.11782104 0.09975026 0.67664754 5.0203147 0.64355904 10.347929
5.12994 3.05118 -0.01582657 0.38114256 2.5045907 2.541128 3.0643265 5.658254
5.7963924 4.186407 0.12822077 0.06773813 1.5293447 4.8793535 0.48239854 11.719119
3.0669885 3.643142 0.448202 -0.13860667 -0.14738211 5.9994693 7.607278 11.049156
6.4402375 4.919319 -0.19607326 -0.2217272 6.2728324 -2.2978065 5.422252 4.8158646
6.418675 4.2446012 -0.20694403 0.38500762 2.694221 2.714771 3.164529 6.325472
1.2228185 4.264399 0.13957708 -0.206123 6.1220083 6.731316 2.7376444 4.9078627
5.34068 3.9570057 0.29248893 -0.2967456 1.2542725 2.460096 1.0887438 11.712797
5.2401614 3.4400823 0.09547596 -0.10417048 0.4743691 1.511744 1.4406377 14.811797

feature_net.linear_layer_0.bias f4 [32]
00000000: f7d6 8f40 7e98 8640 c730 3e41 013d babf
00000010: 319b 9740 b7b6 f140 4df8 b940 934b 5f41
00000020: 5bfd 5c41 0d5a 2140 b860 5c41 82df 5f41
00000030: d3ba 2641 5d13 5941 85d6 5a41 1c62 4041
00000040: a10e c840 3a07 a13f 35df 7a41 9291 ac40
00000050: 1ff4 1b41 26d2 c740 869f 5f41 7105 2241
00000060: 96b0 9140 f5a8 4441 4e3a 4440 47e1 8640
00000070: d990 9a40 2af9 7f40 747e 5641 09ef 3541
4.494991 4.206115 11.886909 -1.4549867 4.7376943 7.553554 5.81156 13.955951
13.811854 2.5211213 13.773613 13.992067 10.420611 13.567227 13.677373 12.0239525
6.2517858 1.258033 15.679494 5.39277 9.7471 6.244403 13.976446 10.126328
4.552806 12.291249 3.0660586 4.2149997 4.8301816 3.9995828 13.405872 11.370858

feature_net.layer_norm_0.weight f4 [32]
00000000: aa0a 5e40 de21 af40 0190 c73d f720 8c40
00000010: 21db 3441 a8a5 e73e 5b54 1e41 bcb8 ba3e
00000020: 2327 8c3e 0a9d 1b41 e0da b53e 47de 9b3e
00000030: 2e1c 9740 e11a 8b3e f424 d63e d3d6 bc3f
00000040: 5b59 7241 e2de 8641 b7b7 9441 c489 9040
00000050: 77e8 fc40 d1d6 a540 0222 b13e 74ce 2c41
00000060: 4517 5840 7188 fb3f 0818 7f40 78e9 2041
00000070: 303f d840 d3f8 1141 0176 363f f049 0c41
3.469401 5.472884 0.097442634 4.379024 11.303498 0.45243573 9.895595 0.36469066
0.2737361 9.72584 0.3551855 0.30443022 4.72219 0.27168944 0.41825068 1.4753059
15.146815 16.85883 18.589705 4.516817 7.903377 5.1824727 0.34596258 10.800404
3.3764203 1.9651014 3.9858418 10.056999 6.7577133 9.123248 0.7127381 8.768051

feature_net.layer_norm_0.bias f4 [32]
00000000: 3c31 3440 338f 8240 4c89 2fbe 3724 1d41
00000010: 611f 0740 7876 df40 5ea9 e840 4f48 20bf
00000020: 1826 41bf 3782 86bf 70b6 3dbf 7e10 30bf
00000030: d239 ad40 cd49 f2be 8591 4cbf 0279 03c0
00000040: a909 0940 38e5 0240 902f 8a41 4591 8640
00000050: 925a 323f 8452 1640 68bb 2ebf 97ab 5a40
00000060: 95d7 1a40 a47c 14c0 a423 4840 9680 1640
00000070: 2584 0440 0e53 ce3f faeb 9ebf 909e 4640
2.815505 4.0799804 -0.17142218 9.8213415 2.1112902 6.9832115 7.2706747 -0.62610334
-0.7544875 -1.0508488 -0.741065 -0.68775165 5.413308 -0.4732193 -0.79909545 -2.0542607
2.1412146 2.0452404 17.273224 4.205233 0.6966945 2.3487864 -0.6825471 3.416723
2.419408 -2.3201075 3.1271753 2.3515983 2.0705655 1.6119096 -1.2415764 3.103428

feature_net.linear_layer_1.weight f4 [32, 32]
00000000: 8bda 8f40 ff4f 4141 498f 7b41 b90c 43c0
00000010: a0fb b7c0 41b4 8741 2816 3041 82d6 193f
00000020: 83c0 e3be 5684 2141 c2e6 26bf 8d93 1abf
00000030: 352f 4d41 e169 213e 9bba 4ebf a819 4d41
00000040: 5c13 e7bf a8b2 91c0 7ed2 8c41 844b 9240
00000050: 4ab8 c241 bd0e b641 e554 98be d511 f041
00000060: 3ecb 4541 c438 5841 1f68 8940 f912 7f41
00000070: 9087 4640 9e8e 3841 f8d5 3740 cb5a e841
00000080: 1a4f f040 de18 01c1 8a86 4b41 91ed 05c1
00000090: 7a4a 1141 6414 8240 a831 b640 e3b8 9cbd
000000a0: eb2c 11be 2bb5 79c0 5b30 4dbe d884 05be
000000b0: d8a5 5b41 8d71 0f3f b7b6 fd3d 48bc 5041
000000c0: 7195 b2c0 a600 0b41 e1c6 d041 efd5 e640
000000d0: e9bd b841 48a6 9740 88fb b93d 78cd e841
000000e0: bcf3 7ac0 632d 8141 a5d9 303f a674 ac40
000000f0: c4b6 17c1 c0bb 0741 9c6c 5c40 7376 dd41
00000100: 4ded 3b41 d9b7 1ac0 674c 8041 2da0 18c0
00000110: bf76 c640 a6a1 ae41 a75e 3441 2552 0e3f
00000120: bd9d 7f3e 7aec 7fc0 2666 07bf b0ce 00bf
00000130: 6ae5 6b41 6fe5 893f 800a e8be 286d 3d41
00000140: 7079 82be 69e5 b640 a26c a141 3005 7541
00000150: cd49 cd41 b7ec 2841 ce76 6cbe 120d 0742
00000160: a250 2240 df0a 8941 e2e1 9b40 5123 4141
00000170: 65bf 923f 455a 1941 bf26 b040 1794 d441
00000180: 1473 1fc0 8bb7 4641 457a 8c41 5084 8240
00000190: 1084 1341 2381 c940 d7d8 2441 fcc7 29be
000001a0: 81ce bdbe 2ea0 1cc0 55a2 913e f6a7 d4be
000001b0: 8725 9c41 7ec6 03bf 02db 60be 8957 a241
000001c0: 61ee b940 8e4b 2341 ff97 ae41 c6fe f140
000001d0: d558 e041 a6a8 6841 a41a 9e3e bafc 1142
000001e0: 263f a840 91ae 8941 e6ca b240 e1dd 223f
000001f0: 070d 5840 ac29 d240 c193 b840 15d7 f241
00000200: a2a7 c240 33e3 d9c0 2f14 7141 9cd3 5cc0
00000210: 7fde e340 806f e740 1530 f240 a951 af3e
00000220: 659b fe3d 7d7d c0bf 259b a63e 9795 c7be
00000230: 413e 5641 9f62 123e 507c 813e 3351 8c41
00000240: 47c4 3fc0 27aa fa40 f0e5 c541 d6c3 7240
00000250: b975 d041 36fe db40 d1d4 d7be 8b31 f641
00000260: a34e c83e fb20 8941 f5bf 6c40 1215 8740
00000270: f58f f1c0 295b a740 b4e2 8240 ce9b e341
00000280: 7e85 4540 8f01 79c0 a2f9 7d41 1a00 0641
00000290: 7a55 5041 175e 2c40 1283 e140 bfd1 de3d
000002a0: b7fe 33be 586e 9340 e8cf 15bd 50bc 26bf
000002b0: e231 2041 3f5f 14bd 7a91 a0bf bfc0 8e41
000002c0: b7f3 fd3f 658f a240 3d5e 8741 a5ac 8041
000002d0: c461 d041 b595 5f41 e0d4 853e f4e1 0342
000002e0: 2225 5c41 31bd 6641 b02a bd40 8d45 6d41
000002f0: b312 4c41 7c77 8341 c18e 6d40 1a02 d141
00000300: 594d 2241 daf3 5a41 abff aa41 4789 483f
00000310: 293c 76bf c260 7e41 4651 f840 4481 e4bd
00000320: fa49 d83d cf3c 4241 0f94 433f a9ee 50be
00000330: b18a fd40 ed3f 003f 9458 8fbe df32 5e41
00000340: 17e0 f23e 8a96 0440 c5b0 4141 077d 16c0
00000350: e2b6 9941 d37e 9e41 ec27 d43e a5ef cd41
00000360: 0ae6 bf41 ee8c 2041 a92c 2f41 cd51 7f41
00000370: 089b 6f41 4b05 ff40 8080 1540 2c6f bc41
00000380: 3fb2 f840 0b39 f8c0 26c4 4c41 8c3c f4c0
00000390: 7af9 0b41 a9ed a240 23c8 c740 b02d 8b3e
000003a0: de26 b43e 245b 79c0 8183 81bd fd56 4ebb
000003b0: 6859 6441 36e0 a83e 184d 1b3f af99 6641
000003c0: e480 9fc0 949d 0d41 3bca cd41 03f9 9c40
000003d0: d6b0 bc41 215d b240 9d70 1b3f 0961 ec41
000003e0: f4e1 76c0 a645 8941 e842 973e c898 7340
000003f0: 91ad 35c1 a9d4 e140 0fbb 6540 ebbd d941
4.4954276 12.08203 15.722482 -3.0476515 -5.749466 16.963015 11.005409 0.6009294
-0.44482812 10.094809 -0.6519586 -0.60381395 12.824025 0.15763046 -0.8075349 12.818764
-1.8052783 -4.5530586 17.60278 4.571718 24.339985 22.757196 -0.2975227 30.008707
12.36212 13.513859 4.29396 15.942132 3.102024 11.534819 2.8724346 29.044333
7.509656 -8.068571 12.720346 -8.3705 9.080683 4.064989 5.6935616 -0.07652452
-0.14177291 -3.9016826 -0.20037977 -0.13038957 13.727989 0.5603264 0.12388366 13.045967
-5.5807424 8.687658 26.097109 7.213615 23.09273 4.739048 0.09081179 29.100327
-3.9211264 16.147161 0.690821 5.3892393 -9.4821205 8.483337 3.444129 27.682837
11.745435 -2.4174712 16.037306 -2.3847764 6.2019954 21.82893 11.2731085 0.5559409
0.24962516 -3.9988084 -0.5289024 -0.5031538 14.743509 1.0773143 -0.4532051 11.839149
-0.25483274 5.715504 20.178043 15.3137665 25.661036 10.557792 -0.23092195 33.762764
2.5361714 17.130308 4.8713236 12.071122 1.1464659 9.584538 5.5047297 26.57231
-2.4913988 12.41981 17.559702 4.0786514 9.219742 6.2970138 10.302939 -0.16580194
-0.37071612 -2.4472766 0.28444162 -0.41534394 19.518324 -0.5147475 -0.21958545 20.292742
5.810349 10.205946 21.824217 7.5623503 28.043375 14.541174 0.308797 36.496803
5.2577085 17.210238 5.587268 0.6361981 3.3757951 6.567587 5.7680364 30.35502
6.082963 -6.8089843 15.067428 -3.4504156 7.12091 7.232361 7.5683694 0.3424199
0.12431983 -1.5038296 0.3254024 -0.38981315 13.390199 0.14295433 0.25290155 17.539648
-2.9963548 7.8332705 24.737274 3.7932029 26.057482 6.8747816 -0.42154554 30.77419
0.39122495 17.141104 3.6992161 4.221322 -7.548823 5.229878 4.0901737 28.451077
3.0862727 -3.8907201 15.8734455 8.375025 13.020868 2.6932428 7.04725 0.1087985
-0.17577635 4.6072197 -0.036575228 -0.6513109 10.012178 -0.036223646 -1.2544396 17.844114
1.9840001 5.080004 16.921015 16.0843 26.047737 13.97405 0.26138973 32.970657
13.759066 14.421189 5.911461 14.82948 12.754565 16.433342 3.711838 26.126026
10.143884 13.684534 21.374838 0.7833447 -0.9618555 15.8986225 7.759921 -0.11157468
0.10560985 12.139846 0.76397794 -0.20403542 7.92318 0.50097543 -0.27997267 13.88742
0.47436592 2.0716882 12.105657 -2.351381 19.214298 19.811926 0.41436708 25.742014
23.987324 10.034407 10.948403 15.957471 14.975349 7.969396 2.335968 23.554283
7.7717586 -7.7569633 12.797888 -7.632391 8.748407 5.0915112 6.2431808 0.27183294
0.35185903 -3.8961878 -0.063239105 -0.0031484955 14.271828 0.3298356 0.6066451 14.41252
-4.9844837 8.850971 25.723745 4.905397 23.586346 5.5738683 0.6071871 29.54738
-3.857541 17.159008 0.29543233 3.8062 -11.354875 7.0572095 3.5895422 27.217733

feature_net.linear_layer_1.bias f4 [32]
00000000: 5b85 8841 81b3 d241 325b a541 e69e b041
00000010: 6ad0 cc41 34f7 8c41 f189 4d41 71ea cf41
00000020: a6c9 d041 941b d141 a28d cf41 7cdc d341
00000030: 44ed d141 4f27 8241 7338 8c41 5651 d441
00000040: 50a8 c941 da9f d541 fb07 b541 6006 cd41
00000050: 2934 cd41 974d b341 5651 cf41 3d43 d141
00000060: 057e cb41 752c a741 9f8c c641 582a d241
00000070: 091e 9041 5c38 d141 a3b9 8141 0684 8a41
17.065115 26.337648 20.669529 22.077587 25.601765 17.620705 12.846177 25.989473
26.098461 26.138466 25.944157 26.482658 26.240852 16.269194 17.527563 26.539715
25.207184 26.703053 22.628897 25.628113 25.650469 22.412886 25.914715 26.157831
25.436533 20.896708 24.818663 26.270676 18.014666 26.15252 16.215643 17.314465

feature_net.layer_norm_1.weight f4 [32]
00000000: 3bbd 9a40 96bd c53e ace1 3440 cb16 d43e
00000010: 926b 1d3f 0fbe e13f cdfc a33f cf48 9e3e
00000020: 92f9 bc3e 4c2e 793e ef8c a13e ed14 ce3e
00000030: 7236 9e3e 2f42 7140 d697 8440 5d11 1c3f
00000040: 8ae2 fe3d 3739 b43d 424d e03f 851e 693e
00000050: 019c 923e 7fd2 683f 3c7d e33e 3bd3 eb3e
00000060: 937e 593e b84d 3e40 e1cc 0d3f fe86 e33e
00000070: f630 3140 8712 b93e 2a63 6c40 4994 c13f
4.8355994 0.38621205 2.826274 0.4142364 0.61492264 1.7636126 1.2811524 0.30914924
0.36909157 0.24334067 0.31552836 0.4025034 0.30900913 3.7696645 4.1435347 0.60963994
0.12445553 0.08799975 1.7523577 0.22765549 0.28634647 0.9094619 0.44431484 0.46059594
0.2123969 2.9734936 0.55390745 0.44438928 2.7686133 0.36146948 3.6935525 1.5123378

feature_net.layer_norm_1.bias f4 [32]
00000000: 1f79 fc3f c43f 15bf b78d 1cbf 93d0 aabf
00000010: 2399 83bf 91f5 5740 2df9 7640 d985 f7be
00000020: 73a3 25bf 6c2a bfbe f5f5 15bf 09b8 06bf
00000030: 86af eabe ce09 2d40 15a6 d83f ca7b 47bf
00000040: 137f 3dbf 9896 4fbe 45f5 22bf 1bd4 39bf
00000050: f88e 34bf 1d29 13c0 ab92 06bf 676d fabe
00000060: 7e69 30bf 161a e13f b4a8 87bf 323e 37bf
00000070: 4cdc 4640 d133 0bbf 82be 963f cf77 4840
1.9724463 -0.58300424 -0.6115374 -1.3344902 -1.0281109 3.3743632 3.8589585 -0.48344305
-0.6470253 -0.37337053 -0.58578426 -0.52624565 -0.4583704 2.7037234 1.6925684 -0.7792326
-0.74022025 -0.2027229 -0.636555 -0.7258927 -0.70530653 -2.2993844 -0.5256755 -0.48911592
-0.6891097 1.7586086 -1.0598359 -0.7157928 3.1071959 -0.5437594 1.1776888 3.1323125

feature_net.linear_layer_output.weight f4 [4, 32]
00000000: 4366 39c0 ecab e5bd 8b9f 56be cdf5 9b3e
00000010: f9f4 d33e a9da 0241 b2ac 68c1 9a41 5dbe
00000020: a54b 413d ce84 9b3c 4229 6bbc b831 5ebe
00000030: 8f1b f43d 0f28 a4c0 d620 4140 89c3 863e
00000040: 0efc cbbb 91b1 b03b 3236 2cbe 2341 983d
00000050: 2329 003d acd6 7140 63c2 80bc 914e cbbd
00000060: 6253 243d d8cd 2640 9af2 d63d 1c12 1a3d
00000070: fd5d adc0 0a10 b3bd 787f 0240 8e07 8dc0
00000080: 3b68 3940 eefc 06bc 7c05 01bf 7fb6 113f
00000090: db70 fd3e e847 03c1 70b3 4141 02a1 9abd
000000a0: 8e87 a63d b57c 8bbc 6019 d0bd 52de 04be
000000b0: 5fde af3c 48d5 8140 8142 50c0 c85b ce3e
000000c0: ea79 363e f3d7 edbc c68c 133f 243a 4abd
000000d0: 65ca 05bb 0b0f 32c0 f1bb 41be 2fe1 41bd
000000e0: c94e eabb 674d 4fc0 8c7e 2a3e 661b 423e
000000f0: 1b06 cb40 7fe3 513e 30f9 0fc0 f0d2 bb40
00000100: 161d c7c0 dc44 b2c0 9923 7dc0 d1e4 ecbf
00000110: 89e7 60c0 c576 16bf 4421 e9bf e0f2 13c1
00000120: fbb4 cec0 0954 66c0 71d3 fbc0 8b46 14c0
00000130: 1bd1 1ac1 c763 96c0 1652 ccbf ca8f e1bf
00000140: 6f92 75bf 6e6b b8c0 3180 adbf 9c42 cdbf
00000150: 0330 68c0 ade7 b6c0 9d53 3bc0 f1ff a0c0
00000160: 82ef 2cc0 c14a 19bf 9fda 98c0 b7cc bc3c
00000170: f147 3dc0 3cc2 4dc0 3ba7 2ac0 a1f9 34c0
00000180: edde cbc0 e3e9 a4c0 715c 90c0 10d2 dbbf
00000190: 8fa9 7bc0 0e86 2bbf 488a ebbf f155 16c1
000001a0: a78c d3c0 20f5 71c0 6a92 f1c0 1a08 56c0
000001b0: 0571 20c1 d7ba 9ec0 72f2 c2bf a6c9 eebf
000001c0: e9bc dcbf 1a1c bbc0 9b17 93bf 7866 efbf
000001d0: 667d 50c0 dba7 b1c0 a30c 3ec0 4abb a7c0
000001e0: eead 25c0 1421 6bbf 9f6f a2c0 ee3f 9dbe
000001f0: 5ea2 2ac0 7e3f 53c0 c73f 15c0 0cee 51c0
-2.8968666 -0.11214432 -0.20959298 0.3046097 0.41397837 8.178384 -14.542162 -0.21607056
0.04719128 0.018984225 -0.014353098 -0.21698654 0.11919319 -5.12989 3.0176291 0.26321056
-0.0062251156 0.0053922613 -0.16817549 0.07434299 0.03128923 3.7787275 -0.01571769 -0.09927095
0.040118583 2.6063137 0.10495491 0.037614927 -5.417723 -0.087432936 2.03903 -4.407172
2.8969867 -0.008239014 -0.50398993 0.5691909 0.49500164 -8.205055 12.106308 -0.07550241
0.08131324 -0.017027238 -0.1016109 -0.12975433 0.02146834 4.0572853 -3.254059 0.403044
0.17819944 -0.029033637 0.5763668 -0.049371853 -0.0020414826 -2.7821681 -0.1891935 -0.047333892
-0.007150505 -3.2390993 0.16649836 0.18955764 6.3444953 0.20496939 -2.2495842 5.869499
-6.2223005 -5.5709057 -3.9552977 -1.8507329 -3.5141318 -0.5877498 -1.8213277 -9.246796
-6.4595923 -3.598879 -7.8695607 -2.3168056 -9.676051 -4.69968 -1.5962551 -1.7622006
-0.95926565 -5.763114 -1.3554746 -1.6035953 -3.6279304 -5.7157807 -2.9269783 -5.031243
-2.7021184 -0.5987969 -4.776687 0.023046834 -2.957516 -3.2149801 -2.666457 -2.8277361
-6.3709626 -5.1535506 -4.5112844 -1.7173481 -3.932224 -0.67001426 -1.8401575 -9.395982
-6.6109195 -3.7805862 -7.549123 -3.3442445 -10.027593 -4.9603076 -1.5230238 -1.8655288
-1.7245151 -5.8471804 -1.1491579 -1.8703146 -3.2576537 -5.55174 -2.9695213 -5.2416124
-2.5887408 -0.9184735 -5.0761256 -0.30712837 -2.66616 -3.3007503 -2.3320177 -3.2801542

feature_net.linear_layer_output.bias f4 [4]
00000000: a43c 98bd 2019 5cbe 925e a8c1 4ca6 acc1
-0.07433441 -0.2149396 -21.046177 -21.5812

feature_net.linear_layer_0.weight f4 [32, 8]
00000000: 2bb4 1ac0 f22e 89c0 5243 b63b c001 af3c
00000010: 4966 cec0 9b7f 02c1 94c6 883e 9e11 b93e
00000020: b5e0 90c0 38a0 bfc0 cf2c 763e f7d6 303e
00000030: 6fcd 0ec1 42f1 88c0 061b b7bc b949 e53d
00000040: 8b58 53c0 3990 0ac1 b524 32be 2007 603e
00000050: c0ef f3c0 1e78 11c1 9998 b53e eed7 8bbc
00000060: 1880 96c0 9393 e1c0 e4f9 63be 4152 933e
00000070: 4fab fbc0 39de 9ac0 7efd e0bd 8dbd 573e
00000080: b928 33c0 821d 97c0 a41e 9d3e e5cf 8ebe
00000090: de0c 08c0 847f f0c0 aa7b ebbd 5608 45be
000000a0: 9f53 3ec0 f0ca 9ac0 c337 443e 9c96 5e3c
000000b0: e3ba 18c0 dc52 f7c0 f534 72bc 0968 be3e
000000c0: a56a 66c0 81e0 12c1 f3b3 ecbd b52e c53d
000000d0: e14e 08c1 36a1 7d3e 7455 ee3d 28d9 f93d
000000e0: 8453 31c0 ba3f 93c0 ad65 0c3d 02de 823e
000000f0: 9485 2ec0 2da0 00c1 2dc3 9dbc 0800 d63a
00000100: 3fa7 2ac0 78b7 f4bf 6d13 a7bd 7753 f63d
00000110: e0ba c640 4b43 2bc1 4768 2c3e 27b2 8f3e
00000120: d1e9 6cc0 0332 6bc0 77de d8be dde7 8dbe
00000130: 7988 a540 9f1a 0dc1 13b9 703e 1081 a33e
00000140: 9342 c9bf 3596 7b41 f883 9bbd 671a 913e
00000150: 741c 25c1 c6f8 0840 b3c2 0abd 6fad 933e
00000160: b722 2bc0 badf 92c0 3870 ac3e 5655 523d
00000170: a43f 0dc0 1eed f2c0 ec61 103f a3e1 35bd
00000180: df4f 4cc0 2dc9 47c0 f245 993e e382 143f
00000190: 98be 9d40 2366 1ac1 1359 f73e 5a1a 82be
000001a0: eb6e e940 bd16 3fc0 f4bc 8d3d de43 7ebe
000001b0: babf 46c1 4bf7 7240 e156 8f3d 34eb 083e
000001c0: 9a48 3bc0 0dec 98c0 db47 e7bc f4bc 23be
000001d0: d440 1bc0 5973 f8c0 c0ac 3a3e 2174 c23e
000001e0: 5210 7ec0 68c3 7bc0 064f aebe 5275 373c
000001f0: 92cf a740 ab40 0ac1 73b3 843c ba3a cbbe
00000200: 53f2 03c0 eb7d 02c0 728f ff3d 8ce2 89be
00000210: b3e1 e440 0e85 1fc1 bec0 493e 0b49 803e
00000220: bc9b 09c0 667a babf c6c3 b33e 1a62 fdbe
00000230: 583b b140 8bc5 2bc1 9ed6 c63e 3331 743c
00000240: 30a3 1f41 d6d1 2fc0 a2e6 733d 8bca 713d
00000250: bc6e d440 aa92 abc0 d4bc c1bd 046d a63e
00000260: 1569 6ec0 8b5a 6cc0 dc3d 7dbe 770d 78be
00000270: 1b45 a640 5476 0dc1 1230 033f 325e a13d
00000280: 8d2e 98c0 527d 02c1 0e2e 02be d3eb 613e
00000290: 2904 f7c0 c58e d7c0 6663 9e3e 10d2 92bb
000002a0: 8b94 85c0 a5a1 84c0 4bb3 523e 06fb b2be
000002b0: 36da a940 b77e 08c1 4277 8bbe 998e 07bf
000002c0: 2547 29c0 f689 04c1 e35c ba3d 7b04 19be
000002d0: ef4d 16c1 6587 3abf aa7c fabe 3391 1e3f
000002e0: 2524 8ac0 2ea5 a4c0 c18d e93d 815e 12be
000002f0: d58b 6e40 d180 c9c0 2fd9 9c3e cf88 b23d
00000300: 357b 7bc0 3c2e 6bc0 9f86 613e efe8 c4bc
00000310: e972 6dc1 6727 7fc0 7c83 8dbd f7a4 02be
00000320: 68e6 1341 8bb8 04c1 607f 82be f955 df3d
00000330: 60c5 5841 08e4 9ec0 4924 febd 85ff 5e3d
00000340: 9efc 47c0 6e47 0bc1 dd09 fd3e b12e 143d
00000350: 0b87 13c1 901d e7be 8b10 063d 8398 143b
00000360: 9f6d 82c0 a5ad 81c0 059b 4f3e bd9c 99bd
00000370: 3149 ac40 fdcf 06c1 5b8d 74be 9ae6 143e
00000380: 94a9 9940 52fd 2941 ccde 14bd ea46 753d
00000390: 6e66 ecc0 1ed4 8140 fc30 8abd 3cb6 b13d
000003a0: 04e3 37c0 67e2 06c1 e27e ca3d a0d4 fa3e
000003b0: 5f51 11c1 d831 a0be 773e 4cbe f9d6 f33d
000003c0: 1107 a340 19ca 20c1 9721 0c3f 1c82 00be
000003d0: fd36 b641 7c35 47c0 4c7d 4e3b f249 783e
000003e0: 5762 8ec0 7192 83c0 3e51 e93e 3627 ee3e
000003f0: d0a0 9040 2898 bdc0 96da 17bd bed9 863d
-2.4172466 -4.2869806 0.0055622244 0.02136314 -6.449986 -8.156154 0.26714003 0.36146253
-4.52743 -5.988308 0.2404053 0.17269503 -8.925155 -4.2794504 -0.022351753 0.11195702
-3.3022792 -8.660211 -0.17396815 0.21877718 -7.6230164 -9.0918255 0.35467985 -0.017070737
-4.7031364 -7.0492644 -0.22263294 0.28773692 -7.8646617 -4.839627 -0.1098585 0.21068402
-2.7993605 -4.722352 0.3068744 -0.27892986 -2.1257854 -7.515566 -0.114981964 -0.19241461
-2.9738538 -4.8372726 0.19161896 0.013585713 -2.3864067 -7.7288647 -0.014783134 0.37188748
-3.600259 -9.179811 -0.1155776 0.09628049 -8.519258 0.24768528 0.11637393 0.121996224
-2.7707224 -4.601529 0.034276653 0.25560004 -2.726903 -8.039105 -0.019258106 0.0016326914
-2.666458 -1.911849 -0.08158002 0.120276384 6.210312 -10.703929 0.16836654 0.28065607
-3.701771 -3.6749275 -0.42357227 -0.2771596 5.1729093 -8.818999 0.235081 0.31934404
-1.5723442 15.724172 -0.075935304 0.28340456 -10.319447 2.140184 -0.033877086 0.28843257
-2.6739938 -4.5898104 0.33679366 0.051350914 -2.2070093 -7.591445 0.56399417 -0.044404637
-3.192375 -3.1216538 0.29936177 0.5801222 4.929516 -9.649936 0.48310146 -0.2541073
7.29479 -2.9857628 0.069208056 -0.24830577 -12.421808 3.7963436 0.06998993 0.13370973
-2.9263062 -4.778815 -0.028232506 -0.15990049 -2.4258318 -7.7640805 0.18229961 0.37979224
-3.969746 -3.9338017 -0.34044665 0.011197405 5.244088 -8.640788 0.01619885 -0.39693242
-2.0616653 -2.0389354 0.12478532 -0.26930654 7.152551 -9.969984 0.19702432 0.25055727
-2.1501303 -1.4568603 0.351103 -0.49488908 5.538494 -10.735728 0.38835615 0.014904308
9.977341 -2.7471824 0.05954612 0.05903105 6.6385174 -5.3616533 -0.09459844 0.32505047
-3.7251637 -3.6930263 -0.24730629 -0.24223886 5.1959357 -8.841389 0.51245224 0.078792945
-4.7556825 -8.155596 -0.12712881 0.22062616 -7.719258 -6.736178 0.3093521 -0.004480608
-4.1743827 -4.144732 0.20576207 -0.3495714 5.307887 -8.530936 -0.27239424 -0.5295196
-2.6449673 -8.283682 0.09099748 -0.14943115 -9.394027 -0.72862846 -0.48923236 0.61940306
-4.316912 -5.1451635 0.114039905 -0.14293863 3.7272847 -6.2969747 0.30634448 0.087175004
-3.929395 -3.674697 0.2202401 -0.024036853 -14.840554 -3.98678 -0.06909844 -0.12758242
9.243752 -8.295054 -0.25487804 0.1090507 13.548187 -4.965336 -0.124092646 0.0544429
-3.1247935 -8.704939 0.49421588 0.03617734 -9.220469 -0.45139742 0.03273062 0.0022673912
-4.0758815 -4.052447 0.20273979 -0.075005986 5.3839345 -8.425778 -0.23882048 0.14541093
4.8019505 10.624346 -0.03634529 0.059882082 -7.3875036 4.057143 -0.06747624 0.086773366
-2.873231 -8.430274 0.09887482 0.48990345 -9.082366 -0.31288028 -0.19945703 0.11906237
5.0946126 -10.04934 0.54738754 -0.12549633 22.77685 -3.1126394 0.0031507788 0.24246958
-4.4495044 -4.111626 0.45569795 0.4651429 4.5196304 -5.9248238 -0.037073694 0.065845

feature_net.linear_layer_0.bias f4 [32]
00000000: 0fcf cfbf 44f3 3dc0 1cc9 a4bf 0bde 0bc0
00000010: 03ef f2bf cb32 bfbf 0a09 a9be 569b b0bf
00000020: cb70 9c3f a2b5 5e3f 8bff 303f 3a13 f9bf
00000030: 4596 963f f194 5ebf c48e c0bf 6b6d 773f
00000040: 259e a53e ce16 4e3f fa48 863e 221f 6b3f
00000050: f66a 7fbf 6584 873f a61f 80be b059 f6bf
00000060: f4de 66c0 8048 0f3f 64dc d8bd 33d4 593f
00000070: be82 bc40 ff2a 05bf 06b9 bd3f 97d6 e2bf
-1.6235064 -2.9679728 -1.2873874 -2.1854274 -1.897919 -1.4937376 -0.3301471 -1.3797405
1.2221922 0.869959 0.6913993 -1.9458992 1.1764609 -0.86946017 -1.5043569 0.96651334
0.32347217 0.8050355 0.26227552 0.9184438 -0.99772584 1.0587279 -0.25024146 -1.924612
-3.607358 0.5597 -0.10588911 0.85089415 5.8909597 -0.5201873 1.482209 -1.7721738

feature_net.layer_norm_0.weight f4 [32]
00000000: 15c0 283f 32d8 7a3e 47e9 2440 634b fd3f
00000010: 7fe2 253f bbca 823e c5d7 353f 1610 363f
00000020: 13df 983d 5f62 fb3e 80d0 0441 8f6c 0f3f
00000030: 6a5a e43e d7ee da40 ac6b 203f a2a4 ec3e
00000040: 4211 0b3f 0f3a b93e aa73 063e f98d 043f
00000050: b79c 463f 357e f73e 6f95 a03e 93bb f83f
00000060: bf72 ee3e 2f90 9b40 ff4b 2b3f f7b6 d73e
00000070: 4873 e240 69b5 123f a428 2240 b42a 7e3f
0.65918094 0.24496534 2.576738 1.9788631 0.6479873 0.25545296 0.71032363 0.71118295
0.07464423 0.4909849 8.300903 0.5602502 0.4460023 6.8416553 0.62664294 0.46219355
0.5432321 0.36177108 0.1313006 0.51779133 0.7758288 0.48338476 0.3136401 1.9432243
0.4657192 4.8613505 0.66912836 0.4213178 7.0765724 0.5730806 2.5337305 0.9928391

feature_net.layer_norm_0.bias f4 [32]
00000000: 4b5d 28bf 277d 32bd cd89 d93f 3904 bbbc
00000010: 0ffd 0fbf 6eec 0dbe a934 f8be 93b6 adbe
00000020: d81c 20be a338 01bf 1fe7 7740 d0f3 febe
00000030: 5a68 12bf 25ee fc3e 8c4c 02bf 3133 05bf
00000040: 9b5f 4ebf e3a9 f7be d5f6 8540 6412 11bf
00000050: bc9d 8c3c db0e 07bf f705 8fbe bd1b 26bf
00000060: 9fde 5bbf 8827 5940 9910 20bf 5fa3 e0be
00000070: 1f5a 9440 d246 14bf afe6 cb40 464c 0fbf
-0.65767354 -0.043576386 1.6995178 -0.022829162 -0.5624551 -0.13859722 -0.48477677 -0.33928356
-0.15636003 -0.50477046 3.8734815 -0.4979539 -0.5719048 0.4940044 -0.5089805 -0.52031237
-0.8061463 -0.483718 4.186381 -0.56668687 0.017165057 -0.5275704 -0.27934238 -0.64886075
-0.8588657 3.3930378 -0.62525326 -0.43874642 4.636001 -0.57920563 6.3719096 -0.5597576

feature_net.linear_layer_1.weight f4 [32, 32]
00000000: af49 863e c91a 343f ccf3 f1be ad9f 9d3f
00000010: 0233 c83e 042c 983e ea89 fa3f fd60 d73e
00000020: 04cf 9b3f ed3e bc3d 4259 0740 0416 eb3f
00000030: 1db9 47be b583 c440 8f60 c83e 74c7 fc3d
00000040: 0d1e f23f 5a9a b63f 9218 9c40 ab04 b43e
00000050: 4289 a53f 671c f63d 5b8e b13f 0543 1e3e
00000060: d3bc 2040 25ba e03f c63b 0d3f 0bdf 28bf
00000070: 9b99 8140 ce58 8cbd 07df ae3e ea73 f93e
00000080: c7b0 a03d 801f 7c40 fc09 2e40 a7b8 0340
00000090: 2792 5e3e a6dd 3d3e 5e5c e93e ce25 5d3f
000000a0: 4d0a 0f40 1259 1f3e 7794 6140 eeda a33c
000000b0: 165d a4bf 5938 8a40 4d5e 0a3f 1d5e 1f3d
000000c0: dd65 04c0 ab4f 91c0 4289 5640 1850 3c3f
000000d0: 2e1e 1a40 a297 bb3d df04 8c3f dbf8 d0be
000000e0: a36c a73f f17a acbf 41dd 07bf 38c9 9a3e
000000f0: 9562 5a41 f354 a6be 6582 7cc0 5adc e43e
00000100: 6659 503f ddd0 803f 7594 853f d840 d93f
00000110: 51ea 233e ea88 353f 0dfc b53e fe41 843f
00000120: 77ec 853f ac07 183e 73d0 913f 3641 8b3e
00000130: 6e7a 523f 8efa d23e 2995 8f3f 8dca a9bd
00000140: f69d 3d3f 4fd4 d9be 870c 9b40 cb38 883f
00000150: fec1 6d40 a3d4 713e 24ea 0cbf 9077 f73b
00000160: 5c42 813e 5632 d23f b35e e93d 166b 48be
00000170: c958 ac3f 6918 8b3e 2721 e6be 7260 033f
00000180: 6ebb fe3d 4d5d adbf 33c0 e73e fd3c 2cbf
00000190: 8bd9 b63e 599b f13e aa26 2bbf de74 81be
000001a0: 06e7 2bbf 8bac cebe 0b66 e3c0 7967 e6be
000001b0: c301 413f 1cdf 25be e641 0f3f f4a6 8dbd
000001c0: 4f61 853f f771 e73f 666d 2941 e007 5b3f
000001d0: 99ea c63f 5191 34bd a80f 83be c7ce 1b3e
000001e0: ed77 1a3f a3ad b040 8ced 86bd dbbb 37be
000001f0: 018b 313f 4d12 ef3d 92a5 3d40 36f6 3bbc
00000200: 717f f9bd c744 af3e af95 fabe 3846 cabf
00000210: c6ef 88be bc20 5d3e b184 5a3f 543d f43e
00000220: eeb5 0840 b1f5 a53e 2717 a5bf e125 bcbe
00000230: 18de 413f f3a1 0d41 0fed f8be f9b6 c03c
00000240: e997 d93f 2a44 1a40 f12c ca40 e124 9b3c
00000250: 1734 51be 663e 12be bb09 c53f cd56 d53d
00000260: 1ab8 f83f ffb9 1840 fd93 69be dad2 d0be
00000270: 2edd a040 fcd1 583f 042c 6340 dee4 2e3e
00000280: 01af 083f b970 7a3e 190b 56bf b34e 65bf
00000290: 5a0b 5dbd adc9 d8be 32d4 ddbe 4ea2 6abe
000002a0: b4a9 933f 444f 35bf 01e1 38c0 c7e5 0fbf
000002b0: 870e a4bf 5c93 15c1 e4b2 903e fe60 8e3e
000002c0: 1695 13bf 3da4 6fc0 ddc0 a540 d0a1 8dbe
000002d0: fa22 a9bd 1660 9d3e 9047 e5be 6047 c13f
000002e0: 8464 47bf 86d7 b5c0 bff5 2b3e 0a22 00be
000002f0: 1317 afbe bdc4 d23d d14e 11c1 6535 5fbe
00000300: a762 91be b8fb a840 0957 8140 e2d8 8140
00000310: 0a22 22bf 7e3e 973e 96a3 a83f 40e8 243f
00000320: c3ce a940 353d 3a3e 9111 6840 f5b7 e6bd
00000330: e670 63bf 18c0 a840 2736 043f 72a2 263c
00000340: 25ed 26bf d3db 7fc0 0ff9 a83f 01df 2a3e
00000350: dd49 9740 463c cabd 19d6 4a3f 82d7 abbe
00000360: 774c 853f c077 c3bf e767 57be 28d5 633e
00000370: 8edb 5941 4d6b 98bd ce6a 71c0 caa8 bf3e
00000380: adf9 a0be 2c11 8340 17c7 3740 eac8 bb3f
00000390: b490 abbd c16c cf3e 3b3d 0c40 249f 83be
000003a0: 6584 8a40 e92a 6dbd d354 d6bf a92b 653f
000003b0: cc56 c33e 674b a040 8d61 51bc c673 02bd
000003c0: 5c7f d93f 13c7 b93f cc80 233e 6488 273f
000003d0: 7092 1540 a1b7 3c3e 4713 0240 ed70 aebf
000003e0: ec39 0d40 f32e 5d40 1103 533b 125c cfbd
000003f0: cf7d 5341 87b9 01bd 99ea 1b40 1c2f edbd
0.2622809 0.7035337 -0.47256315 1.2314354 0.39101416 0.2972108 1.9573338 0.42066184
1.2172551 0.0919169 2.1148229 1.8366094 -0.19504209 6.1410775 0.39136168 0.1234273
1.8915421 1.4265854 4.8779993 0.3515981 1.2932513 0.12017136 1.3871568 0.15455253
2.511525 1.7556807 0.5516933 -0.65965337 4.0500007 -0.06852876 0.3415453 0.48721248
0.078462176 3.9394226 2.7193594 2.0581453 0.2173544 0.18541583 0.45578283 0.8638581
2.2350037 0.15561321 3.5246866 0.020001855 -1.2840908 4.3193784 0.5405014 0.038908113
-2.0687172 -4.540975 3.3521276 0.73559713 2.408092 0.09159781 1.0938987 -0.40814862
1.3080028 -1.3475019 -0.5307198 0.30231643 13.649068 -0.32486686 -3.9454587 0.44699365
0.8138641 1.006374 1.043593 1.6972914 0.16007353 0.7091204 0.35543862 1.0332639
1.0462788 0.14846677 1.1391739 0.2719819 0.8221806 0.41206783 1.1217395 -0.082905866
0.74069154 -0.4254479 4.845279 1.0642332 3.7149653 0.2361627 -0.5504477 0.0075520948
0.2524594 1.6421611 0.113950156 -0.195721 1.3464595 0.2716706 -0.44947168 0.5131904
0.12438093 -1.3544098 0.45263824 -0.6728056 0.35712847 0.47188833 -0.6685587 -0.25284475
-0.6714939 -0.40366015 -7.1062064 -0.45000818 0.75393313 -0.1619839 0.5595993 -0.069166094
1.0420321 1.8081654 10.589209 0.8555889 1.5540344 -0.044083897 -0.25597882 0.15215598
0.6033924 5.521196 -0.06588277 -0.17942755 0.6935273 0.116734125 2.9632306 -0.0114722755
-0.12182511 0.3423216 -0.48942325 -1.5802679 -0.26745433 0.21594518 0.8535872 0.4770304
2.136104 0.3241401 -1.289769 -0.3674765 0.75729513 8.852038 -0.4861836 0.023524748
1.6999484 2.4104104 6.317986 0.018938484 -0.20430027 -0.14281616 1.5393595 0.104169466
1.9431183 2.3863523 -0.2281036 -0.40785867 5.0269995 0.8469541 3.5495615 0.17079493
0.53392035 0.24457063 -0.83610684 -0.8957321 -0.053965904 -0.42341366 -0.43325955 -0.22913477
1.1536164 -0.70824075 -2.8887331 -0.5620999 -1.2816933 -9.348476 0.28261483 0.27808374
-0.5764936 -3.7443993 5.179793 -0.27662516 -0.082586244 0.3073737 -0.4478116 1.5099907
-0.7788775 -5.682559 0.16792963 -0.12512985 -0.34197292 0.10291431 -9.081742 -0.21797712
-0.28395578 5.2807274 4.0418744 4.057725 -0.6333319 0.29539865 1.3174922 0.64416885
5.3064895 0.18187411 3.6260722 -0.11265556 -0.88844144 5.273449 0.5164513 0.010170566
-0.65205604 -3.997792 1.3201007 0.16686632 4.7277665 -0.098747775 0.7923294 -0.33562857
1.041396 -1.527092 -0.2103573 0.22249281 13.616102 -0.07442341 -3.7721438 0.37433463
-0.31440488 4.095846 2.8715265 1.4670689 -0.08377209 0.4051266 2.1912372 -0.25707352
4.3286614 -0.05790225 -1.6744636 0.89519745 0.38152158 5.0092044 -0.012779606 -0.03184869
1.6991992 1.4513878 0.15967101 0.6544249 2.3370628 0.18429424 2.0324266 -1.3628212
2.2066603 3.4559906 0.0032197873 -0.10124983 13.218215 -0.031671073 2.4361937 -0.11581251
