otk/AgileRL-MATD3/simple_v3/result/20240102-0837/MATD3_trained_agent_0080000.pt (torch, 940942 bytes, 112 tensors)

feature_net.linear_layer_0.weight f4 [32, 4]
3.7561455 0.1820356 -6.6153126 -3.515192 3.5596216 1.0557759 -7.755601 -5.531156
3.477456 -5.5761724 -3.313824 14.0768585 1.9694552 -1.1461332 9.62107 -8.913899
3.111711 -0.4928063 -0.5953785 -3.9304261 4.212593 0.55464286 -11.006926 -3.3089254
4.5834503 -0.03054741 -12.197212 -1.5184056 -0.32331917 -2.186502 7.4272876 6.448433
3.5747113 0.99974406 -7.7259126 -5.4059196 2.048884 -3.398928 -12.634562 9.844327
-1.4983264 0.9832882 13.976666 7.5109653 3.57676 0.80427986 -7.283469 -4.879998
5.059011 2.6764429 -18.939974 -9.7182045 -0.05549807 1.9602827 2.7075386 -7.2159133
4.2796717 -0.41081816 -9.226357 -0.9679324 3.5049388 0.9650534 -7.1060724 -5.482569
-0.20415758 -0.5501213 13.665184 3.885479 2.7780216 -1.4124116 3.2622929 -1.9622706
-4.2606277 1.7250261 14.566365 -3.5967684 4.813239 5.1266055 -9.10395 -8.846414
-3.5407605 -2.301928 3.4763281 -10.57266 3.2295463 1.9237347 -7.592774 -9.243504
3.5511186 0.99335843 -7.5536203 -5.3958287 -0.38788453 1.7006855 7.801071 -4.9156733
0.5233578 -0.78401214 13.014354 -1.9715837 1.2475837 0.51763815 8.176764 -7.7156086
-0.3822939 0.2976073 -6.252069 26.559372 -1.884998 -4.816909 1.8466041 12.26836
-0.73484415 -2.6154363 6.1162744 6.1561832 3.627746 -2.3226728 -4.6510572 5.0720143
-2.046805 1.7573696 11.614702 -5.1854577 3.1080623 0.54611033 -2.7574112 -6.1103315
00000000: b064 7040 8a67 3a3e a4b0 d3c0 e8f8 60c0
00000010: d7d0 6340 aa23 873f e22d f8c0 3bff b0c0
00000020: a48e 5e40 0170 b2c0 b115 54c0 d03a 6141
00000030: 1c17 fc3f 7eb4 92bf e7ef 1941 559f 0ec1
00000040: 4626 4740 1b51 fcbe ba6a 18bf 1a8c 7bc0
00000050: 90cd 8640 13fd 0d3f 5e1c 30c1 6fc5 53c0
00000060: a0ab 9240 903e fabc c827 43c1 1d5b c2bf
00000070: 178a a5be a6ef 0bc0 57ac ed40 9059 ce40
00000080: 12c8 6440 3aef 7f3f ad3a f7c0 4bfd acc0
00000090: ea20 0340 0988 59c0 2a27 4ac1 5d82 1d41
000000a0: 29c9 bfbf c7b8 7b3f 6da0 5f41 d459 f040
000000b0: a3e9 6440 49e5 4d3f 2e12 e9c0 f228 9cc0
000000c0: 6be3 a140 d74a 2b40 1185 97c1 c47d 1bc1
000000d0: f251 63bd 8bea fa3f 5048 2d40 c3e8 e6c0
000000e0: 12f3 8840 c256 d2be 299f 13c1 6bca 77bf
000000f0: eb50 6040 bd0d 773f f264 e3c0 3571 afc0
00000100: af0e 51be c0d4 0cbf 98a4 5a41 b0ab 7840
00000110: 1bcb 3140 e7c9 b4bf 68c9 5040 af2b fbbf
00000120: 1057 88c0 a8cd dc3f d50f 6941 7431 66c0
00000130: 0e06 9a40 270d a440 c7a9 11c1 e98a 0dc1
00000140: d29b 62c0 ca52 13c0 297c 5e40 9e29 29c1
00000150: e3b0 4e40 f03c f63f 01f8 f2c0 64e5 13c1
00000160: 8745 6340 bd4c 7e3f 42b7 f1c0 a1aa acc0
00000170: cd98 c6be 10b0 d93f 60a2 f940 324d 9dc0
00000180: c7fa 053f 05b5 48bf cb3a 5041 db5c fcbf
00000190: d3b0 9f3f ef83 043f 06d4 0241 44e6 f6c0
000001a0: 07bc c3be fc5f 983e f310 c8c0 9879 d441
000001b0: 9d47 f1bf 1e24 9ac0 865d ec3f 344b 4441
000001c0: bf1e 3cbf 4f63 27c0 85b8 c340 74ff c440
000001d0: fe2c 6840 aca6 14c0 76d5 94c0 f14d a240
000001e0: dafe 02c0 7df1 e03f d2d5 3941 45ef a5c0
000001f0: 7eea 4640 e3cd 0b3f 6d79 30c0 d687 c3c0

feature_net.linear_layer_0.bias f4 [32]
8.975892 9.20436 6.412396 7.9079947 8.442887 9.35984 9.294606 -2.2388525
9.188241 7.9298306 8.322448 9.1229105 9.940941 0.2663512 9.057617 9.148785
7.678196 8.0289 4.204886 7.4447403 6.755883 -2.4657547 9.177026 -0.85899687
7.4195457 8.147675 9.58803 7.8738937 -2.3246412 -3.453241 9.136667 8.736535
00000000: 419d 0f41 0f45 1341 5932 cd40 4b0e fd40
00000010: 1116 0741 e8c1 1541 b5b6 1441 5c49 0fc0
00000020: 0903 1341 2cc1 fd40 bf28 0541 71f7 1141
00000030: 180e 1f41 2f5f 883e 00ec 1041 6c61 1241
00000040: c8b3 f540 6076 0041 6d8e 8640 503b ee40
00000050: 3230 d840 edce 1dc0 19d5 1241 38e7 5bbf
00000060: eb6c ed40 e05c 0241 9268 1941 f0f6 fb40
00000070: ecc6 14c0 e701 5dc0 ca2f 1241 d9c8 0b41

feature_net.layer_norm_0.weight f4 [32]
0.5671912 0.48841438 6.025534 3.69541 0.4487148 0.7277032 0.121742226 7.471478
0.41232434 4.5400224 0.38959348 0.15726295 -0.15333624 12.674961 1.0898153 0.4049013
0.16422026 0.34861976 2.2202284 4.5487375 3.1456578 8.637953 0.37122843 20.96419
0.4477337 0.4096966 0.36414826 2.0861194 8.373311 9.857328 2.2526782 0.64296323
00000000: 7133 113f 7311 fa3e 2dd1 c040 9981 6c40
00000010: f2bd e53e c24a 3a3f fd53 f93d 5916 ef40
00000020: 2d1c d33e dd47 9140 cc78 c73e 8a09 213e
00000030: 2d04 1dbe a4cc 4a41 117f 8b3f 394f cf3e
00000040: 5b29 283e 4a7e b23e 3918 0e40 428f 9140
00000050: 7552 4940 0e35 0a41 a711 be3e a9b6 a741
00000060: 5a3d e53e c1c3 d13e a471 ba3e fb82 0540
00000070: 15f9 0541 9eb7 1d41 e12b 1040 3d99 243f

feature_net.layer_norm_0.bias f4 [32]
-0.68603164 -0.69369733 4.3516254 -0.7599313 -0.8538871 -0.9590588 -0.24513884 5.8771844
-0.72929054 -1.9260241 -1.0868989 -0.26077715 -0.44922984 3.3122025 -1.2515067 -0.6021612
-0.59103906 -0.52868867 1.6432106 10.941568 3.6538563 5.8094273 -0.58182055 4.864559
-0.9134934 -0.7869544 -1.6995772 1.4324841 3.218324 8.71805 -0.231067 -0.8559863
00000000: c59f 2fbf 2696 31bf 8440 8b40 dc8a 42bf
00000010: 5898 5abf e184 75bf ad05 7bbe e511 bc40
00000020: c9b2 3abf f587 f6bf 811f 8bbf 9584 85be
00000030: 7401 e6be 20fb 5340 5f31 a0bf 3d27 1abf
00000040: 564e 17bf 2458 07bf ba54 d23f aa10 2f41
00000050: c8d8 6940 d4e6 b940 31f2 14bf 78aa 9b40
00000060: b4da 69bf d875 49bf bf8b d9bf a45b b73f
00000070: 05f9 4d40 227d 0b41 d49c 6cbe eb21 5bbf

feature_net.linear_layer_1.weight f4 [32, 32]
-0.107852414 0.78202677 24.70079 16.400331 0.6806298 -0.9253231 6.605899 23.13463
-0.8697716 10.804309 -2.03962 -0.021590274 4.2246118 0.2349057 -3.4585223 0.9996693
1.2383617 1.2305512 11.049732 19.780891 27.155848 9.658507 0.48302892 0.7524003
-1.6044043 2.7037218 9.419499 25.109577 -0.08541259 19.85134 22.894028 2.8836796
0.1280437 0.20780048 26.372108 18.977507 -1.967431 0.6579706 0.2308864 12.121368
0.15711483 13.067649 0.8394912 0.92379946 2.080422 6.345918 0.84521025 0.32793137
1.4143013 1.4796172 19.678503 19.728971 24.730576 15.3494625 0.17404713 -2.7415643
0.66771835 1.7403698 2.2652044 18.387388 14.330252 16.15412 20.414165 -0.9475842
0.12773424 -0.0036286884 24.97794 12.320873 -0.17237222 0.4759768 0.74152654 14.241035
0.42910793 12.227985 -2.1031296 -0.23255564 -0.2323295 11.204838 0.38975343 0.3492539
0.88854665 -0.052440792 17.590385 23.431534 22.69887 11.581515 -0.16841827 2.8781576
-0.6740213 1.5555819 -0.18852727 23.769836 10.391953 8.622315 23.998367 1.045439
0.25573772 0.2965952 23.488148 16.273232 -0.24391432 -0.30327016 4.106067 24.945774
0.4141324 10.743903 -1.172519 0.52783084 3.997093 2.712197 -1.6320518 0.6972317
1.7213289 0.81312925 13.884101 19.747282 25.875586 11.672782 -0.15977305 4.1311874
-1.8275012 2.7795155 6.640604 25.591677 0.53467566 16.931538 23.063755 1.024711
0.55317646 0.41644007 25.905104 10.685761 0.9756801 0.793787 0.62604684 14.674844
0.30526507 11.425122 -2.1429274 0.294138 1.3714895 8.200798 0.45123664 1.4307516
-0.68194455 0.5869054 20.979343 18.72267 25.391634 16.027641 0.39466098 2.4281628
1.4288625 2.1060083 0.60205036 22.659718 16.777962 11.908494 24.178272 1.810269
0.4355042 -0.48168907 9.576917 16.138447 0.29076076 0.51650494 0.3815686 -0.32619485
-0.099132076 7.3034453 -0.12852731 0.3970604 -0.049733777 4.244014 0.92390007 -0.4402575
1.0516592 0.066948734 11.784713 15.399755 13.335462 20.014164 0.2197346 8.758727
0.57353014 1.0008775 1.2646596 5.6957498 -8.884574 -12.203032 7.876193 0.3252768
-0.06330214 0.07346251 14.247557 19.489456 -1.0787735 1.3725755 0.7665562 16.095041
-0.0732851 17.546373 0.3855229 0.074910834 1.0926065 7.349449 0.6821733 0.42573836
1.1253362 2.5902846 14.426498 14.4142 14.693518 15.841146 -0.003517706 3.2033162
2.7356052 1.8853662 -3.7853274 25.990599 9.459776 13.182876 17.833307 -0.60758626
1.1650264 0.42124873 24.1624 10.376495 0.97798735 1.2041352 1.2333715 19.604906
0.20429043 13.144112 -1.2099739 0.14769192 2.237427 4.8535995 -0.17240721 -0.011818833
1.1574178 0.6106712 25.491943 19.421751 25.840849 16.061592 0.16678913 3.0145319
0.43288147 2.400335 -3.676884 21.46406 11.428914 7.4920325 20.110224 0.73302996
00000000: bae1 dcbd e832 483f 389b c541 e133 8341
00000010: c13d 2e3f fae1 6cbf 8663 d340 b913 b941
00000020: 5aa9 5ebf 73de 2c41 2289 02c0 16de b0bc
00000030: 0530 8740 1f8b 703e 6e58 5dc0 54ea 7f3f
00000040: a382 9e3f b482 9d3f b4cb 3041 443f 9e41
00000050: 2d3f d941 3f89 1a41 914f f73e 4e9d 403f
00000060: 1f5d cdbf c709 2d40 45b6 1641 6ae0 c841
00000070: ccec aebd 8bcf 9e41 f826 b741 358e 3840
00000080: e31d 033e a6c9 543e 14fa d241 efd1 9741
00000090: c7d4 fbbf c370 283f 7c6d 6c3e 20f1 4141
000000a0: b6e2 203e 1715 5141 e5e8 563f 1f7e 6c3f
000000b0: a225 0540 c311 cb40 b35f 583f 9fe6 a73e
000000c0: d307 b53f 1964 bd3f 936d 9d41 efd4 9d41
000000d0: 38d8 c541 6697 7541 6939 323e ca75 2fc0
000000e0: 97ef 2a3f 70c4 de3f 1cf9 1040 5f19 9341
000000f0: b648 6541 a33b 8141 3650 a341 e194 72bf
00000100: c4cc 023e 4acf 6dbb d2d2 c741 4c22 4541
00000110: 5882 30be 3bb3 f33e afd4 3d3f 48db 6341
00000120: 09b4 db3e d4a5 4341 ad99 06c0 1123 6ebe
00000130: c9e7 6dbe 0447 3341 c38d c73e 68d1 b23e
00000140: cb77 633f 28cc 56bd 1cb9 8c41 c873 bb41
00000150: 4997 b541 e34d 3941 d775 2cbe bc33 3840
00000160: a98c 2cbf 4f1d c73f 4b0d 41be a028 be41
00000170: 7145 2641 01f5 0941 a8fc bf41 f2d0 853f
00000180: 0ef0 823e 53db 973e bae7 bb41 942f 8241
00000190: adc4 79be 3a46 9bbe e764 8340 f290 c741
000001a0: 2909 d43e 07e7 2b41 1a15 96bf ec1f 073f
000001b0: 5fd0 7f40 a394 2d40 13e7 d0bf c77d 323f
000001c0: 8154 dc3f 3d29 503f 4725 5e41 6ffa 9d41
000001d0: 3301 cf41 b7c3 3a41 8c9b 23be b032 8440
000001e0: 8feb e9bf 95e3 3140 d47f d440 c1bb cc41
000001f0: 81e0 083f ca73 8741 9282 b841 bb29 833f
00000200: f99c 0d3f a237 d53e a73d cf41 e1f8 2a41
00000210: 2cc6 793f a035 4b3f 9b44 203f 29cc 6a41
00000220: b44b 9c3e 4dcd 3641 b925 09c0 4299 963e
00000230: f88c af3f 7836 0341 7d08 e73e de22 b73f
00000240: eb93 2ebf 6f3f 163f b2d5 a741 07c8 9541
00000250: 1122 cb41 9c38 8041 0111 ca3e 0567 1b40
00000260: f7e4 b63f d7c8 0640 f91f 1a3f 1a47 b541
00000270: 4439 8641 3189 3e41 1a6d c141 e5b6 e73f
00000280: 68fa de3e f39f f6be 0d3b 1941 8a1b 8141
00000290: 98de 943e ab39 043f f65c c33e 0303 a7be
000002a0: c205 cbbd d3b5 e940 aa9c 03be 804b cb3e
000002b0: a5b5 4bbd f6ce 8740 b784 6c3f 6e69 e1be
000002c0: c59c 863f 6b1c 893d 2f8e 3c41 6565 7641
000002d0: 0d5e 5541 021d a041 1b02 613e bf23 0c41
000002e0: dfd2 123f c11c 803f 5ee0 a13f 9543 b640
000002f0: 3727 0ec1 9e3f 43c1 c609 fc40 ae8a a63e
00000300: 8da4 81bd 8373 963d fef5 6341 68ea 9b41
00000310: 4015 8abf 8eb0 af3f 073d 443f a5c2 8041
00000320: 8016 96bd f95e 8c41 4263 c53e da6a 993d
00000330: 88da 8b3f b02e eb40 e9a2 2e3f 61fa d93e
00000340: 040b 903f 39c7 2540 f0d2 6641 90a0 6641
00000350: a618 6b41 5675 7d41 5089 66bb 2203 4d40
00000360: 2814 2f40 ae53 f13f ce42 72c0 bfec cf41
00000370: 3e5b 1741 0fed 5241 9daa 8e41 c68a 1bbf
00000380: 961f 953f eaad d73e 984c c141 2006 2641
00000390: 615d 7a3f 1a21 9a3f 1edf 9d3f d9d6 9c41
000003a0: 8331 513e 484e 5241 6de0 9abf 8d3c 173e
000003b0: 0132 0f40 b050 9b40 848b 30be c7a3 41bc
000003c0: 4426 943f f354 1c3f 80ef cb41 bf5f 9b41
000003d0: 0fba ce41 247e 8041 c5ca 2a3e 17ee 4040
000003e0: a4a2 dd3e 179f 1940 1152 6bc0 65b6 ab41
000003f0: d5dc 3641 bbbe ef40 bde1 a041 daa7 3b3f

feature_net.linear_layer_1.bias f4 [32]
21.21796 24.77854 23.791935 22.292835 28.257427 15.997336 20.13352 26.129057
20.90815 22.87249 9.815663 24.699654 17.894157 18.706923 24.56882 23.075277
6.4094276 19.960012 12.000488 14.732172 13.991408 24.314035 23.873026 26.327864
15.69168 16.542797 12.700428 17.905725 13.936559 11.221168 25.28641 25.701777
00000000: 62be a941 733a c641 e255 be41 ba57 b241
00000010: 360f e241 17f5 7f41 7311 a141 4f08 d141
00000020: e443 a741 dcfa b641 f50c 1d41 e498 c541
00000030: 3c27 8f41 c7a7 9541 f28c c441 2b9a b841
00000040: 081a cd40 1bae 9f41 0002 4041 fab6 6b41
00000050: cfdc 5f41 2583 c241 f5fb be41 779f d241
00000060: 1f11 7b41 a657 8441 f434 4b41 ed3e 8f41
00000070: 25fc 5e41 e789 3341 914a ca41 3d9d cd41

feature_net.layer_norm_1.weight f4 [32]
0.1945552 0.5636886 -1.486448 0.2513574 2.9082553 2.5696356 5.0401263 3.016777
0.2266374 0.41311547 2.5880704 3.8394642 3.5849686 5.2063403 0.90925366 0.4545094
1.4078522 9.095822 2.3528728 4.5435247 3.2104354 -0.36746603 0.266199 0.7604958
0.13377261 5.42406 2.8885927 3.9394119 1.0813558 0.8868059 1.6668077 0.8620799
00000000: 7a39 473e e54d 103f ee43 bebf ebb1 803e
00000010: db20 3a40 e974 2440 b748 a140 e012 4140
00000020: a213 683e df83 d33e f2a2 2540 c8b9 7540
00000030: 2070 6540 579a a640 d9c4 683f 75b5 e83e
00000040: 8034 b43f 7d88 1141 7895 1640 8e64 9140
00000050: c677 4d40 8224 bcbe 3c4b 883e daaf 423f
00000060: b0fb 083e e691 ad40 b4de 3840 531f 7c40
00000070: de69 8a3f b605 633f f459 d53f 45b1 5c3f

feature_net.layer_norm_1.bias f4 [32]
-0.85588336 -0.79540044 -0.21653318 -0.57286894 -3.2024899 4.056657 -0.5358082 -3.2885203
-0.8228217 -0.66394585 4.6067605 -2.6814802 4.106653 0.24569397 -1.6044083 -1.037068
2.2629454 1.089063 0.6030706 2.0448306 1.4926594 -0.2684423 -0.72683924 -1.0396668
-0.21721417 0.10018787 2.3091872 1.5633923 0.41035166 0.98427147 -2.17816 -1.5318464
00000000: 2c1b 5bbf 5d9f 4bbf e0ba 5dbe 8aa7 12bf
00000010: 98f5 4cc0 22d0 8140 ba2a 09bf 1e77 52c0
00000020: 71a4 52bf 5bf8 29bf 956a 9340 5f9d 2bc0
00000030: b469 8340 3397 7b3e 405d cdbf a5be 84bf
00000040: 19d4 1040 6b66 8b3f d662 1a3f 81de 0240
00000050: 770f bf3f 4571 89be 2312 3abf cd13 85bf
00000060: 646d 5ebe 4c2f cd3d b9c9 1340 3d1d c83f
00000070: 9d19 d23e 37f9 7b3f f966 0bc0 8b13 c4bf

feature_net.linear_layer_output.weight f4 [5, 32]
-0.3921047 -0.20491238 -0.80794334 -0.1977784 -4.9828463 -0.68375504 2.6181452 0.6170016
0.08840011 3.4838831 1.7284418 -1.0875754 -3.435632 3.6295457 0.0628916 -1.1096193
6.305127 3.6660182 -4.156743 -1.4915023 8.079368 3.2346594 -1.5766872 -1.6866281
-3.905765 1.3281045 -1.5845084 -3.865512 -6.012554 4.55262 -1.470568 -1.5642185
0.17011899 -9.442138 0.72626895 -0.23258598 10.862206 -0.45495796 -1.8095274 1.0480256
0.56090015 33.261906 -4.7884493 1.7632122 -0.32189506 1.435207 5.182757 0.8296783
1.0540143 1.5913823 -41.804104 33.134235 -8.510565 -0.7041142 -0.17276573 0.10395195
-0.18275796 -2.2770379 -1.0300761 3.327361 3.816753 36.417175 -5.3003664 -0.76880383
-0.4302085 13.9670315 0.18946734 -0.5603429 -7.4702506 -0.87882626 2.9132767 0.5712915
0.54395163 -35.227356 4.9502425 3.885377 -0.8260147 -5.4021683 -4.2091985 -1.1348617
-0.20197196 -1.0110933 58.013294 -30.40913 3.6507053 0.673488 0.4623213 -0.28720698
-2.035403 -3.0859103 0.7242061 -0.23210213 2.824048 -51.841595 4.080128 0.16371013
-0.18179274 0.101567745 -1.0353417 0.062956154 6.7842035 -4.1175165 1.1135492 -0.6097812
-0.2209785 4.1439323 0.9565876 -2.7598052 0.46458158 -1.073207 -1.5829115 -0.29219648
42.722157 1.7536542 0.44467807 23.725988 -5.6685925 0.8597646 0.19618466 1.5930037
1.0060537 21.463198 3.5524633 1.5140725 -51.82265 -1.1336813 -17.861557 -1.7081438
0.011139357 0.60193133 -0.10410257 -0.003587917 0.200884 4.186733 1.2194884 -0.44040102
0.08869106 2.7773638 -1.4636635 -0.25104636 -0.4167962 0.646918 -1.3466251 -0.24721396
-59.557392 -0.7226948 1.7458069 -23.51795 1.0708519 0.14076336 0.49638218 0.21316431
1.2002878 -56.091953 0.058360647 0.66686463 70.274376 -1.8261501 8.92829 1.5753317
00000000: f2c1 c8be 8dd4 51be 60d5 4ebf 6c86 4abe
00000010: 7a73 9fc0 920a 2fbf b18f 2740 d1f3 1d3f
00000020: 1e0b b53d f1f7 5e40 953d dd3f ac35 8bbf
00000030: 65e1 5bc0 7a4a 6840 50cd 803d 0108 8ebf
00000040: 9ac3 c940 0ba0 6a40 0a04 85c0 8ce9 bebf
00000050: 1745 0141 a904 4f40 e3d0 c9bf 6ee3 d7bf
00000060: 0ef8 79c0 54ff a93f 2cd1 cabf 8c64 77c0
00000070: d866 c0c0 10af 9140 923b bcbf 5038 c8bf
00000080: ac33 2e3e ff12 17c1 c3ec 393f 052b 6ebe
00000090: 99cb 2d41 40f0 e8be 989e e7bf b425 863f
000000a0: 2797 0f3f 310c 0542 fa3a 99c0 f0b0 e13f
000000b0: 6ecf a4be ddb4 b73f 25d9 a540 cc65 543f
000000c0: f1e9 863f 6ab2 cb3f 6737 27c2 7589 0442
000000d0: 462b 08c1 d440 34bf 80e9 30be c3e4 d43d
000000e0: e724 3bbe fdba 11c0 89d9 83bf 7cf3 5440
000000f0: ae45 7440 30ab 1142 9a9c a9c0 54d0 44bf
00000100: 4a44 dcbe f678 5f41 ba03 423e a272 0fbf
00000110: 4b0c efc0 c2fa 60bf 2073 3a40 2940 123f
00000120: 6a40 0b3f d0e8 0cc2 6368 9e40 04aa 7840
00000130: b375 53bf 90de acc0 c1b1 86c0 2643 91bf
00000140: bdd1 4ebe 816b 81bf 9d0d 6842 e645 f3c1
00000150: 28a5 6940 b669 2c3f 61b5 ec3e cb0c 93be
00000160: 0b44 02c0 8e7f 45c0 9265 393f 2eac 6dbe
00000170: 34bd 3440 cb5d 4fc2 6990 8240 a1a3 273e
00000180: e027 3abe c002 d03d 1486 84bf 28ef 803d
00000190: 3218 d940 b2c2 83c0 c888 8e3f 9f1a 1cbf
000001a0: 3048 62be 189b 8440 ede2 743f a6a0 30c0
000001b0: a3dd ed3e d95e 89bf d89c cabf c79a 95be
000001c0: 7de3 2a42 be77 e03f d8ac e33e d3ce bd41
000001d0: 1c65 b5c0 8819 5c3f a2e4 483e 8ce7 cb3f
000001e0: 5ec6 803f a1b4 ab41 8f5b 6340 21cd c13f
000001f0: 654a 4fc2 781c 91bf 78e4 8ec1 75a4 dabf
00000200: da81 363c 2c18 1a3f ba33 d5bd 4223 6bbb
00000210: 89b4 4d3e b7f9 8540 3218 9c3f 3e7c e1be
00000220: a9a3 b53d 54c0 3140 5359 bbbf 2689 80be
00000230: 5066 d5be 6b9c 253f 365e acbf a825 7dbe
00000240: c53a 6ec2 8702 39bf 9a76 df3f c324 bcc1
00000250: ad11 893f 4524 103e ce25 fe3e bf47 5a3e
00000260: 08a3 993f 295e 60c2 930b 6f3d a4b7 2a3f
00000270: 7b8c 8c42 49bf e9bf 47da 0e41 78a4 c93f

feature_net.linear_layer_output.bias f4 [5]
3.6468961 5.8140574 -3.9546804 2.2492526 -2.8977766
00000000: bf66 6940 c20c ba40 7c19 7dc0 c1f3 0f40
00000010: 2c75 39c0

feature_net.linear_layer_0.weight f4 [32, 4]
3.7900093 0.20191032 -6.593866 -3.5110493 3.6137683 1.0751892 -7.718315 -5.520858
3.4785733 -5.62825 -3.3178444 14.026295 1.9772303 -1.1959764 9.594857 -8.96112
3.0905244 -0.47050646 -0.6277297 -3.9231994 4.281765 0.5740398 -10.951655 -3.3054805
4.6530085 -0.010785479 -12.139307 -1.5206211 -0.3756705 -2.1724937 7.4529743 6.44574
3.6280243 1.019198 -7.6892586 -5.3959827 2.0395455 -3.3920794 -12.705996 9.738714
-1.5852977 0.9646858 13.903196 7.490985 3.6244059 0.8236569 -7.2515993 -4.8716526
5.174744 2.6965334 -18.845108 -9.699306 -0.05622614 2.0157325 2.7340221 -7.191065
4.3257146 -0.39140323 -9.189133 -0.9722851 3.55327 0.98465586 -7.074388 -5.472339
-0.29602116 -0.5539938 13.5807085 3.8743963 2.7195106 -1.3906006 3.1978512 -1.9594179
-4.2844615 1.7470574 14.560165 -3.5736947 4.8062034 5.164031 -9.116798 -8.840755
-3.4291675 -2.3731263 3.5800383 -10.587618 3.2759922 1.9765794 -7.5855756 -9.22076
3.6030896 1.0127805 -7.518296 -5.38592 -0.3916684 1.7035602 7.770705 -4.903468
0.44002855 -0.76934177 12.919569 -1.9676647 1.1865951 0.54044664 8.098924 -7.696454
-0.35265753 0.2648655 -6.2042747 26.521938 -1.8648202 -4.8321557 1.9118934 12.2483015
-0.74316716 -2.6553638 6.0980363 6.1832514 3.6571696 -2.3385932 -4.5795507 5.078419
-2.0894146 1.7674847 11.574978 -5.1813655 3.1164808 0.56770355 -2.7656963 -6.097518
00000000: 838f 7240 94c1 4e3e f300 d3c0 08b5 60c0
00000010: fb47 6740 cd9f 893f 70fc f6c0 deaa b0c0
00000020: f2a0 5e40 a01a b4c0 9057 54c0 b46b 6041
00000030: e215 fd3f c115 99bf 8984 1941 bf60 0fc1
00000040: 27cb 4540 39e6 f0be e5b2 20bf b315 7bc0
00000050: 3804 8940 46f4 123f fb39 2fc1 fe8c 53c0
00000060: 72e5 9440 94b5 30bc 9a3a 42c1 b6a3 c2bf
00000070: e257 c0be 230a 0bc0 c47e ee40 8143 ce40
00000080: 8d31 6840 1475 823f 680e f6c0 e4ab acc0
00000090: ea87 0240 d417 59c0 c24b 4bc1 c6d1 1b41
000000a0: 09eb cabf a6f5 763f 7e73 5e41 26b6 ef40
000000b0: 44f6 6740 2edb 523f 1a0d e8c0 94e4 9bc0
000000c0: 8197 a540 0194 2c40 c8c2 96c1 5b30 1bc1
000000d0: 624d 66bd c301 0140 38fa 2e40 341d e6c0
000000e0: 416c 8a40 0166 c8be b006 13c1 ade7 78bf
000000f0: c768 6340 6812 7c3f 6361 e2c0 671d afc0
00000100: 1690 97be 8ad2 0dbf 954a 5941 1cf6 7740
00000110: 760c 2e40 33ff b1bf 98a9 4c40 35ce fabf
00000120: 4f1a 89c0 949f df3f 70f6 6841 6ab7 64c0
00000130: 6bcc 9940 be3f a540 68de 11c1 bc73 0dc1
00000140: 7b77 5bc0 4de1 17c0 591f 6540 e266 29c1
00000150: dba9 5140 8e00 fd3f 09bd f2c0 3c88 13c1
00000160: 0599 6640 cba2 813f e195 f0c0 7559 acc0
00000170: c388 c8be 430e da3f 9ea9 f840 36e9 9cc0
00000180: 6c4b e13e 95f3 44bf 8eb6 4e41 70dc fbbf
00000190: 59e2 973f b65a 0a3f 3195 0141 5a49 f6c0
000001a0: 878f b4be 739c 873e 6b89 c6c0 ee2c d441
000001b0: 6eb2 eebf 05a1 9ac0 ecb8 f43f 0bf9 4341
000001c0: 3440 3ebf 7bf1 29c0 1d23 c340 32dd c540
000001d0: 110f 6a40 83ab 15c0 ae8b 92c0 6982 a240
000001e0: f8b8 05c0 f03c e23f 1c33 3941 bfcd a5c0
000001f0: 6c74 4740 0555 113f 2b01 31c0 de1e c3c0

feature_net.linear_layer_0.bias f4 [32]
9.014289 9.236593 6.4740868 7.888294 8.497639 9.385082 9.318105 -2.2268894
9.220716 7.9314027 8.4013605 9.157509 9.940594 0.24880001 9.09103 9.183014
7.7625093 8.09599 4.215925 7.4117327 6.717655 -2.476436 9.210059 -0.87468153
7.502496 8.214675 9.624434 7.825055 -2.312238 -3.484381 9.095594 8.781922
00000000: 873a 1041 16c9 1341 b82b cf40 e86c fc40
00000010: 54f6 0741 4c29 1641 f516 1541 5b85 0ec0
00000020: 0e88 1341 0dce fd40 f96b 0641 2885 1241
00000030: ac0c 1f41 6ec5 7e3e dc74 1141 a0ed 1241
00000040: 7a66 f840 2d89 0141 dce8 8640 ea2c ed40
00000050: 08f7 d640 ed7d 1ec0 675c 1341 21eb 5fbf
00000060: 7214 f040 4f6f 0341 affd 1941 da66 fa40
00000070: b5fb 13c0 1900 5fc0 8e87 1141 c182 0c41

feature_net.layer_norm_0.weight f4 [32]
0.56719536 0.4884173 6.023417 3.7068994 0.4487176 0.7277048 0.12174297 7.5153465
0.41232595 4.5045314 0.3895957 0.15726328 -0.15333681 12.786094 1.0898182 0.40490216
0.16422063 0.34862044 2.291007 4.5783725 3.1967647 8.665237 0.37123147 20.788757
0.4477371 0.40969738 0.36415043 2.0505018 8.403878 9.906375 2.2406857 0.64296484
00000000: b733 113f d511 fa3e d5bf c040 d73d 6d40
00000010: 50be e53e dd4a 3a3f 6154 f93d b87d f040
00000020: 631c d33e 1f25 9040 1679 c73e a009 213e
00000030: 5304 1dbe d793 4c41 2a7f 8b3f 564f cf3e
00000040: 7429 283e 617e b23e dc9f 1240 0782 9240
00000050: cb97 4c40 d0a4 0a41 0d12 be3e 604f a641
00000060: cc3d e53e dbc3 d13e ed71 ba3e 6c3b 0340
00000070: 4976 0641 8380 1e41 6567 0f40 5899 243f

feature_net.layer_norm_0.bias f4 [32]
-0.68602926 -0.6936945 4.3813257 -0.78114 -0.8538821 -0.9590546 -0.2451385 5.884402
-0.72929037 -1.9529277 -1.0868977 -0.26077506 -0.44923022 3.3005416 -1.2515022 -0.6021595
-0.5910373 -0.5286848 1.6464083 10.889895 3.62062 5.792139 -0.58181643 4.830712
-0.91349274 -0.78695196 -1.6995745 1.377869 3.234921 8.658597 -0.26008675 -0.8559861
00000000: 9d9f 2fbf f695 31bf d233 8c40 cbf8 47bf
00000010: 0498 5abf 9a84 75bf 9605 7bbe 054d bc40
00000020: c6b2 3abf 89f9 f9bf 771f 8bbf 4f84 85be
00000030: 8101 e6be 133c 5340 3931 a0bf 2027 1abf
00000040: 384e 17bf e357 07bf 82bd d23f 033d 2e41
00000050: 3db8 6740 3459 b940 ecf1 14bf 3195 9a40
00000060: a9da 69bf af75 49bf a88b d9bf 035e b03f
00000070: f208 4f40 9d89 0a41 172a 85be e821 5bbf

feature_net.linear_layer_1.weight f4 [32, 32]
-0.10785284 0.78202266 24.651001 16.52129 0.680635 -0.9253183 6.6059413 23.213783
-0.8697667 10.668229 -2.0396135 -0.021590222 4.224662 0.343081 -3.4585152 0.9996692
1.2383533 1.230545 11.207433 19.730358 27.195566 9.613292 0.48302907 0.9190859
-1.6044095 2.703705 9.419498 25.086842 -0.060567975 19.798792 23.048748 2.8836637
0.12804505 0.20780063 26.317156 19.082832 -1.9674379 0.6579674 0.230887 12.20208
0.15711576 12.934974 0.83949345 0.9238043 2.0804305 6.4258056 0.8452096 0.32793167
1.4143063 1.4796093 19.835405 19.675287 24.759237 15.271272 0.17404649 -2.5770786
0.6677246 1.7403679 2.265229 18.36719 14.367508 16.09903 20.562992 -0.9475807
0.12773363 -0.0036287038 24.927387 12.415344 -0.1723716 0.4759778 0.7415331 14.315351
0.42911062 12.095952 -2.1031282 -0.23255445 -0.23233092 11.236442 0.38975367 0.34925523
0.88854814 -0.052441146 17.722351 23.389889 22.705303 11.490825 -0.1684183 2.9927685
-0.6740248 1.5555815 -0.18852745 23.752977 10.412612 8.560412 24.122786 1.0454367
0.2557355 0.2965945 23.4348 16.378681 -0.24391362 -0.30327022 4.1060724 25.019693
0.414132 10.606542 -1.172514 0.5278324 3.997103 2.7770178 -1.6320542 0.6972349
1.7213302 0.8131244 14.020885 19.691391 25.887037 11.612963 -0.15977265 4.2024946
-1.8275099 2.7794986 6.640608 25.565508 0.5427959 16.87715 23.199299 1.0247062
0.55318224 0.4164387 25.843906 10.784161 0.9756842 0.79378855 0.62604314 14.74038
0.305264 11.287625 -2.1429203 0.2941358 1.3714863 8.237173 0.45123592 1.4307572
-0.6819463 0.5869066 21.116344 18.655176 25.38349 15.929815 0.39466208 2.52901
1.4288737 2.1059892 0.60205215 22.626345 16.794909 11.852158 24.307968 1.8102722
0.43550324 -0.48168796 9.613473 16.153345 0.29076216 0.5165075 0.38156992 -0.28257555
-0.099131934 7.342148 -0.12852637 0.39706117 -0.049733974 4.0603676 0.9239056 -0.44025674
1.0516713 0.06694838 11.844274 15.402623 13.285246 20.075998 0.21973349 8.693596
0.5735313 1.0008733 1.2646627 5.748328 -8.995127 -12.117472 7.937569 0.32527924
-0.06330206 0.073463164 14.102033 19.455414 -1.0787795 1.3725829 0.76656115 16.15896
-0.07328584 17.400858 0.3855247 0.07491082 1.0925959 7.322817 0.68217874 0.42573702
1.1253427 2.590289 14.431217 14.310086 14.621177 15.759851 -0.0035177134 3.2947714
2.7356055 1.8853624 -3.785316 25.905603 9.547937 13.136704 17.846376 -0.6075835
1.1650157 0.42125174 24.099003 10.47226 0.977985 1.2041401 1.2333821 19.676416
0.20428991 13.00392 -1.2099695 0.14769077 2.2374291 4.8892765 -0.17240883 -0.011818914
1.1574101 0.61067694 25.622547 19.353664 25.818817 15.965547 0.16678812 3.0786557
0.4328836 2.4003172 -3.676883 21.429703 11.438985 7.434026 20.23364 0.7330276
00000000: f3e1 dcbd a332 483f 4035 c541 9a2b 8441
00000010: 183e 2e3f a9e1 6cbf df63 d340 d4b5 b941
00000020: 08a9 5ebf 11b1 2a41 0789 02c0 fadd b0bc
00000030: 6e30 8740 50a8 af3e 5058 5dc0 52ea 7f3f
00000040: 5c82 9e3f 8082 9d3f a551 3341 c6d7 9d41
00000050: 8590 d941 0bd0 1941 964f f73e 3749 6b3f
00000060: 4a5d cdbf 8109 2d40 44b6 1641 dab1 c841
00000070: 2016 78bd ed63 9e41 d663 b841 f28d 3840
00000080: 3e1e 033e b0c9 543e 8989 d241 a4a9 9841
00000090: 01d5 fbbf 8d70 283f a46d 6c3e b83b 4341
000000a0: f4e2 203e a7f5 4e41 0be9 563f 707e 6c3f
000000b0: c625 0540 33a0 cd40 a85f 583f a9e6 a73e
000000c0: fd07 b53f d663 bd3f e9ae 9e41 fd66 9d41
000000d0: eb12 c641 2157 7441 3e39 323e dbee 24c0
000000e0: 00f0 2a3f 60c4 de3f 83f9 1040 01f0 9241
000000f0: 50e1 6541 d0ca 8041 0281 a441 a694 72bf
00000100: 9bcc 023e 8ccf 6dbb 4a6b c741 40a5 4641
00000110: 2e82 30be 5db3 f33e 1dd5 3d3f ad0b 6541
00000120: 63b4 db3e 0589 4141 a799 06c0 c122 6ebe
00000130: 28e8 6dbe 77c8 3341 cb8d c73e 95d1 b23e
00000140: e477 633f 87cc 56bd 60c7 8d41 7e1e bb41
00000150: 76a4 b541 6bda 3741 d975 2cbe 8589 3f40
00000160: e48c 2cbf 4b1d c73f 570d 41be 1906 be41
00000170: 0f9a 2641 73f7 0841 77fb c041 dfd0 853f
00000180: c3ef 823e 3cdb 973e 787a bb41 8a07 8341
00000190: 7ec4 79be 3c46 9bbe f264 8340 5528 c841
000001a0: 1c09 d43e 65b4 2941 f014 96bf 0620 073f
000001b0: 89d0 7f40 a9ba 3140 27e7 d0bf fd7d 323f
000001c0: 8c54 dc3f ec28 503f 8c55 6041 f887 9d41
000001d0: a718 cf41 b2ce 3941 719b 23be d67a 8640
000001e0: d8eb e9bf 4ee3 3140 dc7f d440 2986 cc41
000001f0: acf4 0a3f 6704 8741 2a98 b941 9329 833f
00000200: 5a9d 0d3f 7437 d53e 52c0 ce41 ec8b 2c41
00000210: 71c6 793f ba35 4b3f 5d44 203f 99d8 6b41
00000220: 904b 9c3e 1d9a 3441 9b25 09c0 f898 963e
00000230: dd8c af3f 76cb 0341 6508 e73e 0d23 b73f
00000240: 0894 2ebf 833f 163f 46ee a841 cd3d 9541
00000250: 6311 cb41 86e0 7e41 2611 ca3e 4ddb 2140
00000260: 55e5 b63f 87c8 0640 1720 1a3f c102 b541
00000270: f95b 8641 70a2 3d41 b876 c241 00b7 e73f
00000280: 48fa de3e ce9f f6be c9d0 1941 0d3a 8141
00000290: c7de 943e d639 043f 225d c33e bead 90be
000002a0: af05 cbbd e0f2 ea40 6b9c 03be 9a4b cb3e
000002b0: dab5 4bbd 88ee 8140 1485 6c3f 5569 e1be
000002c0: 2a9d 863f 3b1c 893d 2582 3d41 2571 7641
000002d0: 5e90 5441 a59b a041 d101 613e f818 0b41
000002e0: f3d2 123f 9e1c 803f 78e0 a13f 4ef2 b740
000002f0: 0aec 0fc1 2ae1 41c1 9100 fe40 008b a63e
00000300: 83a4 81bd db73 963d eda1 6141 b0a4 9b41
00000310: 7215 8abf ccb0 af3f 5a3d 443f 8d45 8141
00000320: e316 96bd f534 8b41 7e63 c53e d86a 993d
00000330: 2fda 8b3f 8454 ea40 44a3 2e3f 34fa d93e
00000340: 3b0b 903f 4cc7 2540 44e6 6641 1df6 6441
00000350: 57f0 6941 5a28 7c41 7089 66bb 89dd 5240
00000360: 2914 2f40 8e53 f13f 9e42 72c0 ad3e cf41
00000370: 5ac4 1841 f12f 5241 61c5 8e41 988a 1bbf
00000380: 3c1f 953f 4fae d73e c2ca c041 618e 2741
00000390: 3a5d 7a3f 4321 9a3f 77df 9d3f 4d69 9d41
000003a0: 6031 513e 0e10 5041 48e0 9abf 403c 173e
000003b0: 0a32 0f40 f474 9c40 f18b 30be 1ea4 41bc
000003c0: 0426 943f 5355 1c3f fafa cc41 4ed4 9a41
000003d0: f08c ce41 e172 7f41 81ca 2a3e b208 4540
000003e0: eba2 dd3e cc9e 1940 0d52 6bc0 0870 ab41
000003f0: 1506 3741 8ae3 ed40 7fde a141 b2a7 3b3f

feature_net.linear_layer_1.bias f4 [32]
21.196743 24.754707 23.77295 22.265526 28.216038 16.009195 20.038895 26.08744
20.88169 22.822289 9.815355 24.635061 17.814472 18.730776 24.54844 23.041552
6.4135423 19.97159 12.032008 14.715143 13.938558 24.273354 23.83633 26.295279
15.583793 16.516891 12.71989 17.891386 13.95909 11.149267 25.259909 25.665749
00000000: ee92 a941 a409 c641 002f be41 cc1f b241
00000010: 72ba e141 d512 8041 a84f a041 14b3 d041
00000020: b30d a741 0c94 b641 b20b 1d41 9b14 c541
00000030: 0a84 8e41 a1d8 9541 3563 c441 1955 b841
00000040: bd3b cd40 d1c5 9f41 1b83 4041 3a71 6b41
00000050: 5504 5f41 d42f c241 ceb0 be41 bb5c d241
00000060: 3757 7941 9822 8441 ab84 4b41 8f21 8f41
00000070: 6f58 5f41 6663 3241 4b14 ca41 7453 cd41

feature_net.layer_norm_1.weight f4 [32]
0.19455644 0.5636906 -1.4864517 0.25135973 2.9082682 2.5159683 4.9943366 3.0167966
0.22663867 0.4131187 2.5808032 3.807123 3.6689022 5.316483 0.9092548 0.45451117
1.432733 9.102895 2.4623134 4.499692 3.2092662 -0.36746743 0.26620203 0.76049936
0.13377306 5.2662153 2.8999596 4.0101132 1.0805429 0.9314125 1.6668156 0.8620836
00000000: ce39 473e 074e 103f 0d44 bebf 39b2 803e
00000010: 1121 3a40 a005 2140 9bd1 9f40 3213 4140
00000020: f813 683e 4b84 d33e e12b 2540 e7a7 7340
00000030: 4bcf 6a40 a120 aa40 ecc4 683f b0b5 e83e
00000040: cc63 b73f 75a5 1141 8b96 1d40 7afd 8f40
00000050: 9e64 4d40 b124 bcbe a24b 883e 16b0 423f
00000060: cefb 083e d684 a840 f098 3940 d952 8040
00000070: 3b4f 8a3f 0d71 6e3f 375a d53f 83b1 5c3f

feature_net.layer_norm_1.bias f4 [32]
-0.85587883 -0.79539794 -0.2165327 -0.5728638 -3.2024772 4.0797753 -0.58366865 -3.2885227
-0.8228221 -0.66394573 4.6037993 -2.7216163 4.0414987 0.29269585 -1.6044096 -1.0370682
2.2406464 1.0880921 0.694715 2.0898015 1.4610219 -0.26844022 -0.72683465 -1.039667
-0.21721369 0.05182429 2.3428385 1.5714008 0.49202272 1.0047246 -2.1781585 -1.5318469
00000000: e01a 5bbf 339f 4bbf c0ba 5dbe 34a7 12bf
00000010: 63f5 4cc0 858d 8240 4f6b 15bf 2877 52c0
00000020: 78a4 52bf 59f8 29bf 5352 9340 f62e 2ec0
00000030: f553 8140 3bdc 953e 4b5d cdbf a7be 84bf
00000040: c066 0f40 9a46 8b3f d8d8 313f 4fbf 0540
00000050: c402 bb3f ff70 89be d611 3abf cf13 85bf
00000060: 446d 5ebe b545 543d 11f1 1540 a923 c93f
00000070: 67ea fb3e d19a 803f f366 0bc0 8f13 c4bf

feature_net.linear_layer_output.weight f4 [5, 32]
-0.39210802 -0.20491277 -0.80794466 -0.19777957 -4.982881 -0.6611103 2.626195 0.61700696
0.08840011 3.4839065 1.5634015 -1.1663711 -3.356002 3.735846 0.06289209 -1.1096308
6.2925153 3.754005 -4.372111 -1.4812375 7.8611436 3.23464 -1.5766933 -1.6866401
-3.9057887 1.2451166 -1.5914834 -3.9355376 -5.9840307 4.6424265 -1.4705731 -1.564224
0.17011853 -9.442195 0.7262743 -0.23258574 10.862123 -0.4077936 -1.6610494 1.0480236
0.56089514 33.261715 -4.711952 1.8211725 -0.3712121 1.5431329 5.1827245 0.8296766
1.2122492 1.6272111 -41.738255 33.226303 -8.481978 -0.70411927 -0.17276646 0.10395246
-0.18275918 -2.106388 -1.0697018 3.394897 3.9472451 36.067905 -5.3004074 -0.76880825
-0.43021032 13.967003 0.1894677 -0.5603408 -7.4703045 -0.7382855 2.8968868 0.57129616
0.54394954 -35.227425 5.0208297 3.9344332 -0.75901294 -5.402071 -4.209165 -1.1348557
-0.111790694 -1.0913478 57.986725 -30.290981 3.6951125 0.67349434 0.46232235 -0.28720972
-2.0353935 -3.0375118 0.7557504 -0.22431818 2.931989 -51.576584 4.0801325 0.16370954
-0.18179211 0.10156754 -1.0353515 0.062956534 6.7842307 -4.141964 1.1196356 -0.6097829
-0.22097921 4.143981 0.7359194 -2.7629278 0.56444484 -1.0292718 -1.582916 -0.29219863
42.743664 1.6182495 0.122675486 23.646736 -5.9668374 0.85977095 0.19618367 1.593013
1.006047 21.425491 3.6901855 1.4372267 -51.916695 -1.1657906 -17.861479 -1.7081337
0.01113942 0.60192704 -0.10410296 -0.003587912 0.20088497 4.1669025 1.2256961 -0.4403998
0.08869142 2.7773528 -1.5484574 -0.2050533 -0.44232243 0.49088085 -1.346631 -0.24721274
-59.578976 -0.5317898 1.6399971 -23.486258 1.0129904 0.1407647 0.4963805 0.21316355
1.2002896 -56.02192 0.021482198 0.5993639 70.20183 -1.9726355 8.92826 1.5753343
00000000: 62c2 c8be a7d4 51be 76d5 4ebf ba86 4abe
00000010: c373 9fc0 863e 29bf 9413 2840 2bf4 1d3f
00000020: 1e0b b53d 53f8 5e40 8a1d c83f a64b 95bf
00000030: bdc8 56c0 1a18 6f40 91cd 803d 6208 8ebf
00000040: 495c c940 9e41 7040 55e8 8bc0 3199 bdbf
00000050: 7d8e fb40 5704 4f40 16d1 c9bf d3e3 d7bf
00000060: 71f8 79c0 fb5f 9f3f bab5 cbbf d9df 7bc0
00000070: 2e7d bfc0 c28e 9440 bd3b bcbf 7e38 c8bf
00000080: 8d33 2e3e 3b13 17c1 1ded 393f f52a 6ebe
00000090: 41cb 2d41 53ca d0be 449d d4bf a325 863f
000000a0: d396 0f3f ff0b 0542 50c8 96c0 2e1c e93f
000000b0: 830f bebe 6185 c53f e1d8 a540 b065 543f
000000c0: fb2a 9b3f 7448 d03f f9f3 26c2 bce7 0442
000000d0: 2fb6 07c1 2941 34bf b1e9 30be 07e5 d43d
000000e0: 3925 3bbe 10cf 06c0 fdeb 88bf fe45 5940
000000f0: aa9f 7c40 8945 1042 f09c a9c0 9ed0 44bf
00000100: 8744 dcbe d878 5f41 d203 423e 7f72 0fbf
00000110: bc0c efc0 4700 3dbf 9866 3940 7740 123f
00000120: 4740 0b3f e2e8 0cc2 a3aa a040 c1cd 7b40
00000130: ac4e 42bf c4dd acc0 7bb1 86c0 f442 91bf
00000140: 85f2 e4bd 49b1 8bbf 68f2 6742 ee53 f2c1
00000150: b97c 6c40 206a 2c3f 84b5 ec3e 270d 93be
00000160: e343 02c0 9866 42c0 dc78 413f aab3 65be
00000170: b5a5 3b40 6c4e 4ec2 7290 8240 79a3 273e
00000180: b627 3abe a402 d03d 6686 84bf 5bef 803d
00000190: 6b18 d940 f88a 84c0 3850 8f3f bb1a 1cbf
000001a0: 6048 62be 7e9b 8440 3765 3c3f cfd3 30c0
000001b0: 757f 103f 2ebf 83bf fe9c cabf 0f9b 95be
000001c0: 83f9 2a42 cd22 cf3f 493d fb3d 842c bd41
000001d0: 55f0 bec0 f319 5c3f 5fe4 483e dae7 cb3f
000001e0: 26c6 803f 6867 ab41 002c 6c40 0bf7 b73f
000001f0: b2aa 4fc2 a038 95bf 4fe4 8ec1 20a4 dabf
00000200: 1d82 363c e417 1a3f ef33 d5bd 2d23 6bbb
00000210: cab4 4d3e 4457 8540 9ce3 9c3f 157c e1be
00000220: d9a3 b53d 26c0 3140 da33 c6bf 7ef9 51be
00000230: 1678 e2be bc54 fb3e 685e acbf 5625 7dbe
00000240: df50 6ec2 6023 08bf 6deb d13f dbe3 bbc1
00000250: aba9 813f 9f24 103e 9625 fe3e 8c47 5a3e
00000260: 17a3 993f 7216 60c2 6ffb af3c ea6f 193f
00000270: 5667 8c42 527f fcbf 27da 0e41 8ea4 c93f

feature_net.linear_layer_output.bias f4 [5]
3.6365962 5.8759584 -3.8340433 2.1545107 -2.923291
00000000: febd 6840 da07 bc40 f760 75c0 81e3 0940
00000010: 3317 3bc0

feature_net.linear_layer_0.weight f4 [32, 9]
-2.5193737 2.231271 9.00875 -10.775591 2.3571582 1.7451491 1.7071968 2.5187259
1.0917037 1.1342847 2.0382345 -12.842429 -7.4910026 2.1840699 2.5339997 0.97956324
3.5357342 1.9778419 -4.322869 2.393689 7.340713 -3.589321 1.9810246 0.046777003
3.060918 3.0951407 0.45150095 0.62794816 -0.5320629 -2.896048 3.9358563 1.126937
2.6144898 0.8925386 1.8367847 2.6564956 1.1878356 3.0076802 -9.965355 -8.512853
1.538227 2.4175909 0.7791427 3.3511615 0.35446307 -1.1409419 -0.018852511 -0.030339262
1.4907635 2.1404014 1.9177204 1.5883614 1.93112 1.9948988 -5.473066 -2.107684
10.603866 8.163129 2.900386 0.48122805 4.7713213 1.783136 4.056532 0.3647473
-1.8619936 -10.141084 11.833095 2.207683 2.5013938 0.9514956 1.0668653 1.7837785
-0.9944383 -0.7197548 -0.37709263 4.247057 2.5071378 2.1027436 1.914988 0.9648316
2.2039576 0.3983028 -2.096133 -9.350483 11.727024 2.0825117 2.7385802 1.1178647
0.86657435 1.9016538 -4.537971 2.6917036 7.8362517 -5.0042653 2.7752187 0.1616715
3.1505423 3.4850082 0.8931887 -0.33354664 0.72658485 -1.3162268 1.6969447 2.3152633
1.8571211 0.8388165 2.513995 1.5798287 -0.88360703 -3.4578345 -2.3305073 10.582592
2.1270292 2.039189 1.8238485 0.3936191 4.0092473 -4.148683 2.018391 9.587633
-5.669572 1.9620898 0.58627737 2.56839 2.2442327 0.5793468 -0.631017 0.54258823
-0.6539145 2.0028932 2.1036901 2.257124 1.583069 2.2774777 1.8084513 0.4560927
-2.2913423 -8.170912 11.134472 2.5184605 2.4751625 0.70940834 0.8432375 2.4242806
0.33791208 -0.9546559 -4.0314503 5.0184174 2.5169752 2.4167862 1.0283469 1.6198468
2.3935318 -3.8940144 2.6421294 6.1161137 -2.9399455 1.5563477 0.44834235 3.2365468
3.395214 0.32855847 -2.5611522 -0.7640793 5.441481 5.9175005 1.857394 1.3522811
2.147673 1.6154851 2.2505658 -2.7985065 0.92430663 12.013147 -9.135255 1.8411534
1.5846364 1.7847441 1.6799392 1.6172726 -3.3937411 -3.222945 7.827124 12.158052
1.5503504 0.23562422 1.62134 0.75436586 3.3634968 -0.5446624 0.8154776 3.7902994
4.4274673 2.2288575 2.3949246 1.1519573 2.6744533 1.5068737 -3.394107 1.5489638
2.5283906 -1.705016 2.2268517 0.4845944 3.0693846 3.017327 1.0747523 -1.2326461
0.70394766 0.49329194 1.2458602 2.6470163 0.81635535 0.8271741 2.3939912 1.2623531
-2.926923 -1.1308151 4.982055 5.435417 2.2013068 1.006376 2.609117 1.3557518
2.5211825 0.8407006 -2.297732 -5.921491 8.75432 2.1256754 3.0115957 0.80754524
0.65411186 3.0281043 0.046208173 1.981127 -5.3996143 -5.624849 1.9008535 2.3607805
0.99108094 2.5013673 1.084823 -1.689676 1.1221642 9.523714 -12.431272 2.5220306
2.2343333 1.6033299 1.8525205 1.7275556 -2.2056653 1.3095093 4.070992 -2.6122572
00000000: 6b3d 21c0 25cd 0e40 d723 1041 d268 2cc1
00000010: aedb 1640 0c61 df3f 6d85 da3f ce32 2140
00000020: f2bc 8b3f 3e30 913f 6f72 0240 977a 4dc1
00000030: 4bb6 efc0 cdc7 0b40 0d2d 2240 a8c4 7a3f
00000040: 7849 6240 ec29 fd3f f154 8ac0 3332 1940
00000050: 1fe7 ea40 6fb7 65c0 3792 fd3f 3e99 3f3d
00000060: 15e6 4340 c916 4640 222b e73e 36c1 203f
00000070: 4635 08bf da58 39c0 12e5 7b40 793f 903f
00000080: cd53 2740 697d 643f c31b eb3f 0604 2a40
00000090: ff0a 983f d57d 4040 1872 1fc1 a534 08c1
000000a0: 9fe4 c43f cfb9 1a40 e575 473f 6e79 5640
000000b0: 2f7c b53e 620a 92bf 9570 9abc 0b8a f8bc
000000c0: 57d1 be3f 56fc 0840 dd77 f53f 6d4f cb3f
000000d0: f12e f73f d858 ff3f 5b23 afc0 4be4 06c0
000000e0: 6fa9 2941 2d9c 0241 ed9f 3940 8663 f63e
000000f0: aaae 9840 cd3d e43f 1ccf 8140 28c0 ba3e
00000100: ce55 eebf e141 22c1 5b54 3d41 ae4a 0d40
00000110: d616 2040 3795 733f 0b8f 883f db52 e43f
00000120: 8293 7ebf da41 38bf 4912 c1be e4e7 8740
00000130: f274 2040 5a93 0640 541e f53f 34ff 763f
00000140: a40d 0d40 58ee cb3e 0b27 06c0 949b 15c1
00000150: e4a1 3b41 df47 0540 e644 2f40 3116 8f3f
00000160: d1d7 5d3f 6469 f33f 0f37 91c0 df44 2c40
00000170: 93c2 fa40 f122 a0c0 2f9d 3140 378d 253e
00000180: 7ca2 4940 600a 5f40 04a8 643f a0c6 aabe
00000190: 7701 3a3f 1f7a a8bf 7c35 d93f 462d 1440
000001a0: 25b6 ed3f aebc 563f 4be5 2040 d437 ca3f
000001b0: 1234 62bf 294d 5dc0 0827 15c0 4c52 2941
000001c0: 3f21 0840 1382 0240 de73 e93f 7188 c93e
000001d0: c14b 8040 03c2 84c0 512d 0140 f266 1941
000001e0: 226d b5c0 c225 fb3f 4616 163f 8060 2440
000001f0: 82a1 0f40 1250 143f 558a 21bf 10e7 0a3f
00000200: f166 27bf 672f 0040 dca2 0640 b874 1040
00000210: 01a2 ca3f 32c2 1140 557b e73f fb84 e93e
00000220: 5aa5 12c0 0ebc 02c1 cc26 3241 752e 2140
00000230: 1069 1e40 c99b 353f 6ade 573f 6a27 1b40
00000240: d002 ad3e 5464 74bf a401 81c0 e096 a040
00000250: 1f16 2140 a0ac 1a40 dfa0 833f 2457 cf3f
00000260: a02f 1940 8837 79c0 a618 2940 34b7 c340
00000270: 1128 3cc0 6736 c73f 218d e53e 9523 4f40
00000280: 304b 5940 d138 a83e ebe9 23c0 b39a 43bf
00000290: 9d20 ae40 2a5c bd40 16bf ed3f 8c17 ad3f
000002a0: 7973 0940 37c8 ce3f 4509 1040 bb1a 33c0
000002b0: 5c9f 6c3f da35 4041 012a 12c1 eaaa eb3f
000002c0: 5ed5 ca3f 7f72 e43f 3f08 d73f ca02 cf3f
000002d0: 0e33 59c0 bb44 4ec0 cd77 fa40 6287 4241
000002e0: e271 c63f 7a47 713e 1288 cf3f 1f1e 413f
000002f0: 8843 5740 ff6e 0bbf 24c3 503f 4494 7240
00000300: d0ad 8d40 9aa5 0e40 7246 1940 5673 933f
00000310: 3e2a 2b40 3de1 c03f 0d39 59c0 7244 c63f
00000320: 27d1 2140 f73d dabf bd84 0e40 c21c f83e
00000330: cc70 4440 e31b 4140 7c91 893f 59c7 9dbf
00000340: ea35 343f c390 fc3e 5978 9f3f b768 2940
00000350: aafc 503f afc1 533f 2737 1940 c994 a13f
00000360: b552 3bc0 8dbe 90bf ff6c 9f40 f0ee ad40
00000370: 36e2 0c40 eed0 803f c6fb 2640 4689 ad3f
00000380: 0e5b 2140 2838 573f 0b0e 13c0 db7c bdc0
00000390: b211 0c41 110b 0840 fcbd 4040 49bb 4e3f
000003a0: e073 273f 76cc 4140 c844 3d3d 9295 fd3f
000003b0: a4c9 acc0 c3fe b3c0 2b4f f33f 0717 1740
000003c0: 7bb7 7d3f 6716 2040 7bdb 8a3f 4e47 d8bf
000003d0: 14a3 8f3f 2261 1841 7de6 46c1 f368 2140
000003e0: 51ff 0e40 ea39 cd3f 641f ed3f 8b20 dd3f
000003f0: 9f29 0dc0 009e a73f 9145 8240 392f 27c0

feature_net.linear_layer_0.bias f4 [32]
-0.524362 -1.1531775 -1.8332676 -2.509624 -1.1486034 15.810384 -1.9456009 0.5345955
-2.5028462 0.5090732 -2.1806157 -2.8339937 -0.42835456 -0.6719922 -3.2985957 0.4178561
-7.770896 -2.5661476 -7.9847093 0.123046234 0.58918905 -0.053258613 -2.604953 -2.3445954
-8.014697 -0.4243808 -7.2480264 -0.07519642 -7.438311 -4.131235 -2.1887252 0.7893176
00000000: 973c 06bf 529b 93bf 83a8 eabf ae9d 20c0
00000010: 7005 93bf 55f7 7c41 7309 f9bf 40db 083f
00000020: a22e 20c0 9f52 023f 358f 0bc0 2760 35c0
00000030: 4a51 dbbe ae07 2cbf 311c 53c0 3cf1 d53e
00000040: 2eab f8c0 c33b 24c0 bd82 ffc0 aaff fb3d
00000050: 18d5 163f b425 5abd 8db7 26c0 da0d 16c0
00000060: 333c 00c1 7148 d9be d5ef e7c0 9500 9abd
00000070: a506 eec0 1433 84c0 1314 0cc0 b810 4a3f

feature_net.layer_norm_0.weight f4 [32]
0.33528814 0.67257005 0.51501876 0.2426344 0.10988266 6.001262 0.97239023 0.13695893
0.32774508 0.19962953 0.67341197 0.38984585 0.3374313 0.3980668 0.4385036 0.29903257
2.3617077 0.3325702 2.3659306 0.12501758 0.1733085 2.3843682 2.8569195 0.636999
3.3068132 0.20150077 2.3145487 0.37111902 1.9897965 2.1644063 3.2334387 0.055712454
00000000: e3aa ab3e 8d2d 2c3f 45d8 033f 2775 783e
00000010: 290a e13d 570a c040 91ee 783f f63e 0c3e
00000020: 34ce a73e af6b 4c3e ba64 2c3f e099 c73e
00000030: ccc3 ac3e 69cf cb3e 8b83 e03e cc1a 993e
00000040: 3826 1740 a446 aa3e 686b 1740 9c04 003e
00000050: c977 313e 7d99 1840 c5d7 3640 5e12 233f
00000060: d4a2 5340 3856 4e3e 9121 1440 5003 be3e
00000070: a7b1 fe3f a285 0a40 a9f0 4e40 be32 643d

feature_net.layer_norm_0.bias f4 [32]
-0.7448101 -1.8547409 -0.60246044 -0.39767924 -0.26879236 -4.3690886 -2.2907243 -0.64583033
-0.59054166 -0.71888626 -1.2157257 -0.52382874 -0.6572457 -0.62628317 -0.5724517 -0.6744675
1.1297561 -0.6863073 1.4574717 -0.6896124 -0.69151556 -0.7461261 -0.70159906 -0.6965781
1.0150477 -0.30156115 0.9450766 -1.0773721 0.8252493 -0.13574387 -0.35244548 -0.33536264
00000000: e0ab 3ebf 2668 edbf d93a 1abf 9d9c cbbe
00000010: 279f 89be 93cf 8bc0 3a9b 12c0 2355 25bf
00000020: bd2d 17bf ee08 38bf e69c 9bbf a419 06bf
00000030: 4141 28bf 1854 20bf 328c 12bf e7a9 2cbf
00000040: d99b 903f d6b1 2fbf 6f8e ba3f 708a 30bf
00000050: 2a07 31bf 1f02 3fbf ff9b 33bf f152 32bf
00000060: 15ed 813f 3966 9abe 8af0 713f 54e7 89bf
00000070: 8a43 533f 7100 0bbe bc73 b4be a7b4 abbe

feature_net.linear_layer_1.weight f4 [32, 32]
-0.24922872 -0.17767029 -0.22065686 -0.17325333 0.080244265 8.151916 -0.14940389 -0.029364008
-0.2912035 0.20783828 -2.2741325 0.1181005 -0.34776008 0.051927697 -0.20756646 0.40909997
0.62389296 0.08352222 0.22575419 -0.2263159 0.02430974 0.5017233 -4.1515274 0.75289494
-0.24247517 -0.10832617 -2.338986 -0.527925 1.2421484 -1.8332821 -1.0115889 0.18291476
0.016255887 2.3125322 -0.7034106 -1.2654877 0.021070106 -2.8809748 0.3792003 0.41590592
0.20610926 0.19290163 2.7757561 -0.24434462 -0.23071904 -0.028876813 -0.35330358 -0.041938048
-0.015274624 0.45673025 5.093359 -0.2169599 -0.3100641 -0.49761295 -0.08468588 -0.5949093
3.8449216 -0.22784851 1.3698786 -1.2656558 -7.7508564 3.6181552 3.3931544 0.015501173
-0.5403457 0.8754998 -0.7527719 -0.24454391 -0.0050670113 -5.3216043 1.256119 0.077429354
-0.34042305 -0.32082823 -1.1598761 -0.57055056 0.534794 0.45178673 0.17333953 0.3075999
-1.1539736 0.24559237 5.490856 -0.08631549 -0.32537735 -0.54630095 -3.9539096 -0.6596762
4.657378 0.08032632 -2.793044 -0.6686076 -2.6594992 0.8491579 6.622235 0.60842466
-0.2545618 -0.9517117 0.110953756 -0.5895382 -0.12406526 9.561559 -0.27345368 0.27494368
-0.15155895 0.40205318 -1.3832928 -0.23719966 -0.74670565 0.1581539 0.31875008 -0.14218692
-0.70243675 0.13545497 -1.2420222 -0.09048411 -0.23766075 0.91806906 -3.341538 0.45812696
-0.2654609 -0.2792749 -2.4043698 -0.4748004 0.81406826 -2.27816 -2.6642616 0.15670735
0.0013230266 -2.4668555 -0.17128561 -0.30019116 -1.4469376 7.9385576 -0.26464474 0.10321884
-0.35982072 -0.10050287 -0.9073758 0.2069215 -0.50483006 -0.2572706 0.05296893 0.232776
0.8549721 -0.05825846 0.2731219 0.543039 0.0040658885 -0.3896358 -1.5055485 1.3782549
-0.3519166 0.019116 -3.3939931 -1.2124596 0.5606633 -1.1519332 -1.0801461 -0.50308615
-0.13267761 0.43960986 -0.057980075 -0.14530319 0.08473167 7.406492 0.10946544 0.1117474
0.1853016 0.09828425 -2.1186018 -0.24591227 0.12849696 -0.006585601 0.0671893 -0.4384675
0.22212195 0.048637398 0.3228561 -0.46980494 -0.53772944 0.6686677 -4.2882695 0.38294634
-0.1436312 0.0036736554 -2.0028005 0.64832145 1.0568287 -1.5307378 -1.391774 -0.13710128
0.23224576 0.1242856 -0.020161008 0.08823466 -0.35215572 8.791345 0.050033618 -0.19525251
0.020471571 0.8835539 -2.5969887 -0.117619686 -0.11382992 0.010641072 -0.22836585 -0.08645655
-0.57788986 0.44524166 -0.792526 -0.31021258 -0.33033916 0.86661786 -4.801363 0.41524023
0.07826569 0.17077275 -2.2690578 0.22240187 1.043277 -1.8765235 -1.4874277 0.17058906
-0.13095422 0.026321255 -0.22091247 0.6941766 -0.34629208 -7.76718 0.0718352 -0.13335253
0.16466887 0.31524923 1.1717008 -0.011080289 -0.40662336 0.22227429 0.21662614 -0.16424663
3.8405464 -0.069667384 -5.8461175 0.19934136 -0.05532641 1.4242116 -0.5996702 1.7701784
0.047422685 0.27279064 -15.439602 -0.40390784 0.30437076 -5.7916164 -0.43482438 -0.28621307
00000000: d035 7fbe 33ef 35be dff3 61be 5269 31be
00000010: 1b57 a43d 3f6e 0241 55fd 18be ca8c f0bc
00000020: a018 95be 8fd3 543e 638b 11c0 adde f13d
00000030: 9c0d b2be 23b2 543d 4d8c 54be 8d75 d13e
00000040: 73b7 1f3f b30d ab3d 1b2c 673e 5bbf 67be
00000050: 3825 c73c f070 003f 50d9 84c0 b9bd 403f
00000060: 694b 78be 1cda ddbd f2b1 15c0 1826 07bf
00000070: b8fe 9e3f fda8 eabf bf7b 81bf 024e 3b3e
00000080: 112b 853c 8700 1440 b812 34bf 80fb a1bf
00000090: 379b ac3c e461 38c0 8b26 c23e 9ff1 d43e
000000a0: 4e0e 533e 0188 453e fda5 3140 7a35 7abe
000000b0: 9d41 6cbe 118f ecbc 35e4 b4be 3bc7 2bbd
000000c0: 6b42 7abc 8cd8 e93e ccfc a240 bc2a 5ebe
000000d0: b9c0 9ebe 20c7 febe ca6f adbd fa4b 18bf
000000e0: 3213 7640 1f51 69be 2f58 af3f 0201 a2bf
000000f0: 0407 f8c0 db8f 6740 7129 5940 a2f8 7d3c
00000100: 1954 0abf c120 603f a9b5 40bf b869 7abe
00000110: 2c09 a6bb 954a aac0 82c8 a03f 4893 9e3d
00000120: ee4b aebe 9943 a4be d276 94bf 9a0f 12bf
00000130: 42e8 083f 9750 e73e eb7f 313e bc7d 9d3e
00000140: 68b5 93bf 917c 7b3e 18b5 af40 2dc6 b0bd
00000150: dc97 a6be 61da 0bbf db0c 7dc0 8ae0 28bf
00000160: 3e09 9540 2082 a43d 3cc1 32c0 de29 2bbf
00000170: 3c35 2ac0 6a62 593f 59e9 d340 b8c1 1b3f
00000180: ed55 82be 61a3 73bf b93b e33d faeb 16bf
00000190: ed15 febd 25fc 1841 1f02 8cbe 6bc5 8c3e
000001a0: 4532 1bbe ead9 cd3e bd0f b1bf 78e4 72be
000001b0: 1a28 3fbf 19f3 213e 3633 a33e 7399 11be
000001c0: e5d2 33bf b5b4 0a3e 95fa 9ebf bc4f b9bd
000001d0: 575d 73be 9306 6b3f c2db 55c0 9e8f ea3e
000001e0: 7eea 87be 1ffd 8ebe 32e1 19c0 0a19 f3be
000001f0: c766 503f 60cd 11c0 4383 2ac0 e477 203e
00000200: 6869 ad3a f6e0 1dc0 7f65 2fbe a8b2 99be
00000210: 4035 b9bf aa08 fe40 847f 87be 6664 d33d
00000220: 6c3a b8be 73d4 cdbd c849 68bf 3be3 533e
00000230: 8b3c 01bf f9b8 83be f3f5 583d d55c 6e3e
00000240: 74df 5a3f 6ca0 6ebd a2d6 8b3e 9b04 0b3f
00000250: 253b 853b 587e c7be d0b5 c0bf a86a b03f
00000260: 6a2e b4be 2899 9c3c 2f37 59c0 e031 9bbf
00000270: a187 0f3f 8c72 93bf 3a42 8abf 41ca 00bf
00000280: a4dc 07be 8b14 e13e 847c 6dbd 5cca 14be
00000290: cc87 ad3d fc01 ed40 6b2f e03d d2db e43d
000002a0: b4bf 3d3e 4149 c93d 2c97 07c0 6dd0 7bbe
000002b0: b594 033e 06cc d7bb 8b9a 893d d07e e0be
000002c0: f073 633e 0238 473d 654d a53e 468a f0be
000002d0: a3a8 09bf ce2d 2b3f 8139 89c0 8b11 c43e
000002e0: 0f14 13be b6c1 703b e22d 00c0 65f8 253f
000002f0: 2a46 873f 37ef c3bf a725 b2bf 4764 0cbe
00000300: d5d1 6d3e 7389 fe3d b328 a5bc 60b4 b43d
00000310: c14d b4be 59a9 0c41 0df0 4c3d 46f0 47be
00000320: ffb3 a73c 9730 623f 1035 26c0 97e2 f0bd
00000330: a91f e9bd e457 2e3c bdd8 69be 2210 b1bd
00000340: 97f0 13bf b7f6 e33e fce2 4abf 2fd4 9ebe
00000350: 3722 a9be abda 5d3f c4a4 99c0 5e9a d43e
00000360: c349 a03d 0ddf 2e3e 3e38 11c0 51bd 633e
00000370: 1a8a 853f ec31 f0bf 0864 bebf e6ae 2e3e
00000380: dd18 06be ac9f d73c e136 62be 8fb5 313f
00000390: 324d b1be bd8c f8c0 551e 933d 918d 08be
000003a0: f59e 283e 5968 a13e 4bfa 953f 1a8a 35bc
000003b0: f030 d0be df9b 633e 3ed3 5d3e 4530 28be
000003c0: 83cb 7540 c6ad 8ebd 6513 bbc0 2420 4c3e
000003d0: f29d 62bd 914c b63f fc83 19bf 3595 e23f
000003e0: 4a3e 423d 37ab 8b3e 9c08 77c1 02cd cebe
000003f0: 7cd6 9b3e ec54 b9c0 4da1 debe 858a 92be

feature_net.linear_layer_1.bias f4 [32]
-5.4963684 -22.488342 -23.206764 -3.9715192 -3.9460502 -7.208408 -5.5967083 -4.798231
-22.750242 -4.102203 -3.939599 -3.7868187 -23.241787 -9.937701 -4.4453382 -21.934038
-8.993816 -5.2457857 -6.197062 -3.3926377 -5.8220744 -0.60251397 -25.74322 -21.216692
-23.170622 16.17018 -21.322996 -4.524402 -3.493427 -22.598219 -3.5898955 -19.378326
00000000: 40e2 afc0 20e8 b3c1 74a7 b9c1 5f2d 7ec0
00000010: 168c 7cc0 47ab e6c0 3c18 b3c0 1c8b 99c0
00000020: 7f00 b6c1 3f45 83c0 6422 7cc0 3d5b 72c0
00000030: 2eef b9c1 d300 1fc1 3640 8ec0 e978 afc1
00000040: ace6 0fc1 7add a7c0 554e c6c0 fa20 59c0
00000050: 6f4e bac0 5b3e 1abf 1df2 cdc1 c9bb a9c1
00000060: 6f5d b9c1 875c 8141 7f95 aac1 e7c7 90c0
00000070: 4f94 5fc0 27c9 b4c1 d9c0 65c0 d006 9bc1

feature_net.layer_norm_1.weight f4 [32]
0.3381593 3.2769134 4.390346 0.3786364 0.28618327 0.4776323 0.13074668 4.250053
2.741197 0.4399321 0.26230395 0.27652267 2.4167917 0.5228731 0.38096195 2.2283823
0.5321647 0.46071607 0.18745591 0.37554756 0.41625416 3.2347925 0.5480745 3.619999
0.30631012 5.879856 4.4556565 0.10409124 0.4484958 1.1140447 0.32536253 3.1742473
00000000: 3723 ad3e f3b8 5140 b77d 8c40 a1dc c13e
00000010: 9d86 923e 398c f43e 75e2 053e 6f00 8840
00000020: c66f 2f40 c83e e13e b44c 863e 6194 8d3e
00000030: b7ac 1a40 03db 053f 720d c33e d19d 0e40
00000040: f23b 083f fae2 eb3e 71f4 3f3e c547 c03e
00000050: 441f d53e d706 4f40 9c4e 0c3f 10ae 6740
00000060: aed4 9c3e c827 bc40 bd94 8e40 ca2d d53d
00000070: 3ea1 e53e 0499 8e3f eb95 a63e de26 4b40
