otk/AgileRL-MATD3/simple_v3/result/20240102-0837/MATD3_trained_agent_0020000.pt (torch, 328718 bytes, 112 tensors)

feature_net.linear_layer_0.weight f4 [32, 4]
0	0xbdcb556a	-0.09928401
1	0x3f17df02	0.5932466
2	0xbfe768c5	-1.8078848
3	0xc00db0f1	-2.2139246
4	0xbc95ef18	-0.018302485
5	0x3f45b5c3	0.7723047
6	0xbff92f50	-1.9467564
7	0xc02b1242	-2.6729894
8	0x3f76eec6	0.9645809
9	0xbfff7b82	-1.9959567
10	0xc08ac061	-4.3359838
11	0x408fd925	4.495257
12	0xc00893cc	-2.1340208
13	0xbf68b21f	-0.9089679
14	0xbf66b02e	-0.9011258
15	0x3f74d26b	0.9563357
16	0xbe8ebcf9	-0.2787855
17	0x3ef59138	0.47962356
18	0xbf928e9e	-1.1449773
19	0xc00b9c02	-2.181397
20	0x3bc551c8	0.006021712
21	0x3f2366e9	0.63828903
22	0xc01a1835	-2.4077275
23	0xc00d825f	-2.2110822
24	0xbde0d587	-0.10978227
25	0x3edd4817	0.43219063
26	0xc0213b66	-2.5192504
27	0xbfe5bffc	-1.7949214
28	0xbf95d413	-1.1705345
29	0xbf9f13ca	-1.2427914
30	0x40b81f57	5.7538257
31	0x40b68aa0	5.704422
32	0x3c95adc6	0.018271338
33	0x3f4b7748	0.79478884
34	0xbffb02d9	-1.9610244
35	0xc0291a12	-2.6422162
36	0x3f668324	0.90043855
37	0xbddfa5a8	-0.10920268
38	0xc0e7053e	-7.21939
39	0x40b31ecd	5.59751
40	0x3f9946fc	1.1974788
41	0x3ff54073	1.9160293
42	0x3f442d2d	0.7663143
43	0xbf87c862	-1.0608027
44	0xbc02bc6a	-0.007979492
45	0x3f409fde	0.7524394
46	0xbff28bd2	-1.894892
47	0xc0221d69	-2.533045
48	0xbfb9d120	-1.4516945
49	0xbe50f2ea	-0.20405164
50	0xc08a05cf	-4.313209
51	0xc08aa0f6	-4.3321486
52	0xbf7ead43	-0.99483126
53	0x3fca697f	1.5813445
54	0x404ec5e8	3.2308292
55	0xc07eb633	-3.9798706
56	0xbe1dcb06	-0.15409479
57	0x3ecfbcf2	0.4057384
58	0xc0074411	-2.1135294
59	0xbfdc70a0	-1.722187
60	0xbd0216c9	-0.03176001
61	0x3f43b2a4	0.7644446
62	0xbfee41b9	-1.8613807
63	0xc02b3d06	-2.6755996
64	0x3fdf31fa	1.7437127
65	0x401b8469	2.4299567
66	0x3f177824	0.59167695
67	0xbfb2701e	-1.3940465
68	0x3e8ff528	0.28116727
69	0x3f70d22b	0.9407069
70	0xbf54dfd7	-0.8315405
71	0xbfed18bc	-1.8523173
72	0xc0100b49	-2.2506888
73	0x402cf0eb	2.7022045
74	0x4066139b	3.5949466
75	0xc052e24e	-3.2950625
76	0x402a7e53	2.6639602
77	0x401033d0	2.2531624
78	0xc0617ecd	-3.5233643
79	0xc08e11b8	-4.439663
80	0xbf4b5190	-0.7942133
81	0x3f03f590	0.51546574
82	0x40191817	2.3920953
83	0xbf96be3f	-1.1776809
84	0x3fab8c1f	1.3402137
85	0x3fc0fa23	1.5076336
86	0xc0b3a7f9	-5.6142545
87	0xc0b6b69c	-5.709791
88	0xbcd38262	-0.025819007
89	0x3f4141ff	0.7549133
90	0xbff7589e	-1.9323919
91	0xc0281992	-2.6265607
92	0xbfc71d31	-1.5555784
93	0x3cec29b7	0.028828485
94	0x40c266b7	6.0750384
95	0xc0376b2e	-2.8659167
96	0x3edf0c80	0.43564224
97	0x3fa987d5	1.3244578
98	0x3ef93452	0.4867273
99	0xbfe5d2ba	-1.7954934
100	0xbd96792d	-0.07347331
101	0x3f69d4b7	0.913402
102	0xbdf1f9b6	-0.11815207
103	0xc029e40e	-2.6545444
104	0x400141a7	2.019632
105	0x3f8c56be	1.0963972
106	0xc01d186a	-2.454615
107	0x40ad064f	5.40702
108	0xbf283501	-0.6570588
109	0xbebc5026	-0.36779898
110	0x3fd98e92	1.6996634
111	0x403f7b4b	2.9919002
112	0xbf9d1a3d	-1.2273632
113	0xbf3c2be5	-0.7350448
114	0x4080dc98	4.026928
115	0x405455b2	3.3177304
116	0x40096234	2.1466188
117	0xbfd362ab	-1.6514486
118	0xc09020c1	-4.5039983
119	0x405c7713	3.4447677
120	0xbf0ace6c	-0.54221225
121	0x3edbdab3	0.42940292
122	0x3f8a2984	1.079392
123	0xbfef0953	-1.867472
124	0xbbe5ed2a	-0.0070167976
125	0x3f571b92	0.84026444
126	0xbfb5ff48	-1.4218531
127	0xc02f601a	-2.7402406

feature_net.linear_layer_0.bias f4 [32]
0	0x402966ff	2.6469114
1	0x402afa22	2.671517
2	0x408672e2	4.201524
3	0x407c33de	3.9406657
4	0x402851c5	2.6299908
5	0x402b812a	2.6797585
6	0x4029f2f9	2.6554549
7	0xbf959aa6	-1.168782
8	0x402a845f	2.6643293
9	0x3f3b1225	0.7307456
10	0x40135c43	2.3025062
11	0x402a6a40	2.662735
12	0x4032bb84	2.792695
13	0xc015ead4	-2.3424578
14	0x402795c9	2.6185172
15	0x402acafb	2.668639
16	0x40165184	2.3487253
17	0x401fe357	2.4982507
18	0x4020f527	2.514963
19	0x40666b68	3.6003056
20	0x40b0d99d	5.526564
21	0xbfb022e2	-1.3760645
22	0x402acb7b	2.6686695
23	0xbf2b677f	-0.669548
24	0x401853a0	2.380104
25	0x40279bc8	2.6188831
26	0x3f470215	0.7773755
27	0x40859979	4.1749845
28	0xc000eb29	-2.014353
29	0xbf169789	-0.58824974
30	0x4020c4bb	2.5120075
31	0x402ac69c	2.6683722

feature_net.layer_norm_0.weight f4 [32]
0	0x3f113371	0.5671912
1	0x3efa1173	0.48841438
2	0x405b11da	3.4229646
3	0x40219898	2.5249386
4	0x3ee5bdf2	0.4487148
5	0x3f3a4ac2	0.7277032
6	0x3df953fd	0.121742226
7	0x40e7baf2	7.2415705
8	0x3ed31c2d	0.41232434
9	0x409067e4	4.512682
10	0x3ed9f0b9	0.4256647
11	0x3e21098a	0.15726295
12	0xbe1d042d	-0.15333624
13	0x40efc938	7.493313
14	0x3f8b7f11	1.0898153
15	0x3ecf4f39	0.4049013
16	0x3e28295b	0.16422026
17	0x3eb27e4a	0.34861976
18	0x3ff21f58	1.8915815
19	0x4052bc3b	3.2927387
20	0x407574b2	3.8352475
21	0x40b79703	5.737184
22	0x3ebe11a7	0.37122843
23	0x40842c60	4.130417
24	0x3effa7de	0.4993276
25	0x3ed1c3c1	0.4096966
26	0x3f0c2722	0.5474721
27	0x4037f8e2	2.8745656
28	0x41316610	11.087418
29	0x40b2ebd7	5.591289
30	0x3f5fe762	0.8746244
31	0x3f24993d	0.64296323

feature_net.layer_norm_0.bias f4 [32]
0	0xbf2f9fc5	-0.68603164
1	0xbf319626	-0.69369733
2	0x3fd0f07d	1.6323391
3	0x3f991b2f	1.1961421
4	0xbf5a9858	-0.8538871
5	0xbf7584e1	-0.9590588
6	0xbe7b05ad	-0.24513884
7	0x40595c51	3.3962595
8	0xbf3ab2c9	-0.72929054
9	0x4070d747	3.7631395
10	0xbf7d5e5f	-0.98972124
11	0xbe858495	-0.26077715
12	0xbee60174	-0.44922984
13	0x3f819005	1.0122076
14	0xbfa0315f	-1.2515067
15	0xbf1a273d	-0.6021612
16	0xbf174e56	-0.59103906
17	0xbf075824	-0.52868867
18	0x400bcdd1	2.184437
19	0x3f5650c2	0.83716977
20	0x3ea76984	0.3269769
21	0x402569fd	2.584594
22	0xbf14f231	-0.58182055
23	0x401b6119	2.4278014
24	0xbf5c8fa6	-0.8615669
25	0xbf4975d8	-0.7869544
26	0xbfc21dff	-1.5165404
27	0x3da847d9	0.08216829
28	0x3f900b56	1.125346
29	0x40340dfe	2.813354
30	0xbf53d0a3	-0.8274023
31	0xbf5b21eb	-0.8559863

feature_net.linear_layer_1.weight f4 [32, 32]
0	0xbddce1ba	-0.107852414
1	0x3f4832e8	0.78202677
2	0x417b6ddb	15.71432
3	0x416f387d	14.951291
4	0x3f2e3dc1	0.6806298
5	0xbf6ce1fa	-0.9253231
6	0x40d36386	6.605899
7	0x412f9cd2	10.975786
8	0xbf5ea95a	-0.8697716
9	0x40c6cc63	6.2124496
10	0xbfe71de3	-1.8055996
11	0xbcb0de16	-0.021590274
12	0x40873005	4.2246118
13	0xbfeebe70	-1.8651867
14	0xc05d586e	-3.4585223
15	0x3f7fea54	0.9996693
16	0x3f9e82a3	1.2383617
17	0x3f9d82b4	1.2305512
18	0x4026da14	2.6070604
19	0x4152d839	13.177789
20	0x418a3397	17.27519
21	0x3f70f621	0.9412556
22	0x3ef74f91	0.48302892
23	0xbfb35717	-1.4010953
24	0xbfcd64f8	-1.6046438
25	0x402d09c7	2.7037218
26	0x41168f02	9.409914
27	0x41962d86	18.772228
28	0xbf8d21ad	-1.1025902
29	0x40b8571f	5.760635
30	0x4163f913	14.248309
31	0x40388e35	2.8836796
32	0x3e031de3	0.1280437
33	0x3e54c9a6	0.20780048
34	0x40bba53e	5.863921
35	0x40572ab2	3.361981
36	0xbffbd4c7	-1.967431
37	0x3f2870c3	0.6579706
38	0x3e6c6d7c	0.2308864
39	0x3e402b25	0.18766458
40	0x3e20e2b6	0.15711483
41	0x401ccbd0	2.4499397
42	0x3f74a60e	0.9556588
43	0x3f6c7e1f	0.92379946
44	0x400525a2	2.080422
45	0xbe65f929	-0.22458328
46	0x3f585fb3	0.84521025
47	0x3ea7e69f	0.32793137
48	0x3fb507d3	1.4143013
49	0x3fbd6419	1.4796172
50	0x40045fb0	2.0683403
51	0x3fba7fc9	1.4570247
52	0x3fba9c5f	1.4578971
53	0xbf7fec57	-0.9997
54	0x3e323969	0.17404713
55	0xc0559ab6	-3.3375678
56	0x3f2b51f0	0.669219
57	0x3fdec470	1.7403698
58	0x401082f8	2.2579937
59	0xc06bc8fe	-3.6841426
60	0x40dc8a7b	6.8919044
61	0x40955179	4.6661954
62	0x4074f84f	3.8276556
63	0xbf7294e1	-0.9475842
64	0x3e02ccc4	0.12773424
65	0xbb6dcf4a	-0.0036286884
66	0x400863ee	2.1310992
67	0xc0180433	-2.3752563
68	0xbe308258	-0.17237222
69	0x3ef3b33b	0.4759768
70	0x3f3dd4af	0.74152654
71	0xbf035617	-0.5130324
72	0x3edbb409	0.42910793
73	0xbfd467dc	-1.6594195
74	0xbff5960a	-1.9186413
75	0xbe6e2311	-0.23255564
76	0xbe6de7c9	-0.2323295
77	0x3fdb5e2f	1.7138118
78	0x3ec78dc3	0.38975343
79	0x3eb2d168	0.3492539
80	0x3f6377cb	0.88854665
81	0xbd56cc28	-0.052440792
82	0xbea1c7e2	-0.3159781
83	0x40f39cce	7.612891
84	0x4028cb52	2.6374097
85	0x401ce566	2.4515014
86	0xbe2c75d7	-0.16841827
87	0xc031816b	-2.773524
88	0xbf2d9000	-0.6779785
89	0x3fc71d4f	1.5555819
90	0xbe0ee5d5	-0.13954861
91	0x3eafb91e	0.3432092
92	0xc0af6f4d	-5.4823365
93	0xbff4b926	-1.9119003
94	0x4071e780	3.7797546
95	0x3f85d0f2	1.045439
96	0x3e82f00e	0.25573772
97	0x3e97db53	0.2965952
98	0x41528dcd	13.159619
99	0x415e19e6	13.881323
100	0xbe79c4ad	-0.24391432
101	0xbe9b463a	-0.30327016
102	0x408364e7	4.106067
103	0x41336a2d	11.213422
104	0x3ed40929	0.4141324
105	0x40b96f1c	5.794813
106	0xbf57e2bb	-0.8433034
107	0x3f071fec	0.52783084
108	0x407fd05f	3.997093
109	0xbf8476f0	-1.0348797
110	0xbfd0e713	-1.6320518
111	0x3f327dc7	0.6972317
112	0x3fdc5481	1.7213289
113	0x3f50293d	0.81312925
114	0x4079819a	3.8985353
115	0x413da0c2	11.8517475
116	0x41759d6c	15.350933
117	0x400ec658	2.230856
118	0xbe239b8c	-0.15977305
119	0x3ea61395	0.32436815
120	0xbfe9f140	-1.8276749
121	0x4031e395	2.7795155
122	0x40d44ca2	6.6343546
123	0x4180c3cd	16.095606
124	0xbfd635ff	-1.6735228
125	0x4053af5e	3.3075786
126	0x41401aca	12.00654
127	0x3f8329bb	1.024711
128	0x3f0d9cf9	0.55317646
129	0x3ed537a2	0.41644007
130	0xbf5d8f70	-0.86546993
131	0xbf542111	-0.82862955
132	0x3f79c62c	0.9756801
133	0x3f4b35a0	0.793787
134	0x3f20449b	0.62604684
135	0x4034a884	2.8227854
136	0x3e9c4bb4	0.30526507
137	0xbf1d978e	-0.6155938
138	0xc000358a	-2.0032678
139	0x3e969942	0.294138
140	0x3faf8cf8	1.3714895
141	0x40261146	2.5948043
142	0x3ee7087d	0.45123664
143	0x3fb722de	1.4307516
144	0xbf2e93eb	-0.68194455
145	0x3f163f6f	0.5869054
146	0x3fabee1d	1.3432041
147	0xc08b8480	-4.3599243
148	0xbfb19486	-1.3873451
149	0x400094a8	2.0090733
150	0x3eca1101	0.39466098
151	0x3ff7d7b7	1.9362706
152	0x3fb715dc	1.4303546
153	0x4006c8d7	2.1060083
154	0x3f219453	0.6311695
155	0xbfd586e7	-1.6681794
156	0x409d8002	4.921876
157	0x3e1fa516	0.15590319
158	0xbed92b4e	-0.4241585
159	0x3fe7b6e5	1.810269
160	0x3edefa68	0.4355042
161	0xbef69ff3	-0.48168907
162	0xbeef14d5	-0.4669558
163	0x400524cb	2.0803707
164	0x3e94de98	0.29076076
165	0x3f0439ab	0.51650494
166	0x3ec35cf6	0.3815686
167	0xc102c334	-8.172657
168	0xbdcb05c2	-0.099132076
169	0x4037e31e	2.8732371
170	0x3ed8049b	0.42191014
171	0x3ecb4b80	0.3970604
172	0xbd4bb5a5	-0.049733777
173	0xbff733fb	-1.9312738
174	0x3f6c84b7	0.92390007
175	0xbee1696e	-0.4402575
176	0x3f869cc5	1.0516592
177	0x3d891c6b	0.066948734
178	0x3fd0a7ec	1.6301246
179	0x40638e29	3.5555518
180	0x403c9f37	2.9472177
181	0x40b2e1b5	5.590052
182	0x3e61021b	0.2197346
183	0x4057b50c	3.3704252
184	0x3f173da0	0.5907841
185	0x3f801cc1	1.0008775
186	0x3fa5dfe0	1.2958946
187	0xc081c744	-4.0555744
188	0xc026ce5e	-2.6063457
189	0xc063778d	-3.5541718
190	0x3e9424d7	0.28934357
191	0x3ea68aae	0.3252768
192	0xbd81a48d	-0.06330214
193	0x3d967383	0.07346251
194	0x3ede3620	0.4340067
195	0x4073bf7c	3.8085623
196	0xbf8a1540	-1.0787735
197	0x3fafb08e	1.3725755
198	0x3f443d07	0.7665562
199	0xbf8fc610	-1.1232319
200	0xbd961680	-0.0732851
201	0xc128e7d0	-10.556595
202	0x3fc1d154	1.5142007
203	0x3d996ada	0.074910834
204	0x3f8bda88	1.0926065
205	0x405bfbb6	3.4372382
206	0x3f2ea2e9	0.6821733
207	0x3ed9fa61	0.42573836
208	0x3f900b04	1.1253362
209	0x4025c739	2.5902846
210	0x40142e54	2.3153276
211	0x40032c04	2.0495615
212	0x40663dc1	3.5975192
213	0xbd80c429	-0.062874146
214	0xbb668950	-0.003517706
215	0xbd0bd6c5	-0.034140367
216	0x402ebeb7	2.7303903
217	0x3ff153ae	1.8853662
218	0xc0706020	-3.755867
219	0x4083a997	4.114452
220	0xbf2c70dc	-0.6735971
221	0x4026f99a	2.6089845
222	0x401f6249	2.4903738
223	0xbf1b8ac6	-0.60758626
224	0x3f951f96	1.1650264
225	0x3ed7adea	0.42124873
226	0x3ebd8aa4	0.37019837
227	0x3fd4fda5	1.6639906
228	0x3f7a5d61	0.97798735
229	0x3f9a211a	1.2041352
230	0x3f9ddf1e	1.2333715
231	0x4017457e	2.3636165
232	0x3e513183	0.20429043
233	0x3eb955f8	0.361984
234	0xbf7accea	-0.97968924
235	0x3e173c8d	0.14769192
236	0x400f3201	2.237427
237	0x3f58c5f2	0.8467704
238	0xbe308b84	-0.17240721
239	0xbc41a3c7	-0.011818833
240	0x3f942644	1.1574178
241	0x3f1c54f3	0.6106712
242	0x40ad7782	5.4208384
243	0x3f816ed3	1.0111946
244	0x3d11dc7b	0.035610657
245	0xc004ffc5	-2.078111
246	0x3e2acac5	0.16678913
247	0x401e18cd	2.4702637
248	0x3ede534d	0.43422928
249	0x40199f17	2.400335
250	0xc0698e44	-3.6493082
251	0xc093d859	-4.6201596
252	0x3e9b4b26	0.3033077
253	0xc0460829	-3.094248
254	0xbf2b36f4	-0.66880727
255	0x3f3ba7da	0.73302996

feature_net.linear_layer_1.bias f4 [32]
0	0x413729ed	11.447736
1	0x3f35650f	0.7085733
2	0x402fdc9b	2.7478397
3	0x41230dc6	10.190863
4	0x3f9e4335	1.236426
5	0x409a542e	4.822776
6	0x4036e46c	2.8576918
7	0x3fc55b24	1.5418439
8	0x41288380	10.5321045
9	0x3ece8242	0.40333754
10	0x3d84f6d6	0.06492393
11	0xbe5e7b3f	-0.21726702
12	0x3fcb6e5d	1.5893055
13	0x3e8d47dd	0.2759389
14	0x4040010b	3.0000637
15	0x410a1e4b	8.632396
16	0xbeb3ce5b	-0.35118374
17	0x3f6eb9bd	0.93252164
18	0xbf019415	-0.5061658
19	0x3efa40fa	0.48877698
20	0xbe065dd0	-0.13121724
21	0x40b87e3f	5.765411
22	0x411a63f2	9.649401
23	0x4090420a	4.5080614
24	0x406a3012	3.659184
25	0xc005da6c	-2.0914564
26	0xc01c980b	-2.44678
27	0x3fa90ca3	1.3206981
28	0x4081520f	4.041267
29	0x3fb68c8b	1.426164
30	0x3f6b6548	0.9195142
31	0x40b57777	5.670833

feature_net.layer_norm_1.weight f4 [32]
0	0x3e47397a	0.1945552
1	0x4003b4b9	2.0579054
2	0x4037f67e	2.8744197
3	0x3e80b1eb	0.2513574
4	0x408655a8	4.197956
5	0x404824d2	3.1272473
6	0x40801737	4.002834
7	0x4060500a	3.5048852
8	0x3e6813a2	0.2266374
9	0x404e3cae	3.2224536
10	0x405d0521	3.453438
11	0x40a5b114	5.177866
12	0x40727c78	3.788847
13	0x4083e94a	4.1222277
14	0x3fa96b7f	1.323593
15	0x3ee8b575	0.4545094
16	0x40a0ecbe	5.028899
17	0x40ce1005	6.4394555
18	0x40404ac3	3.004563
19	0x40bdec5f	5.935104
20	0x407afe67	3.9217775
21	0xbebc2482	-0.36746603
22	0x3e884b3c	0.266199
23	0x3f5192f7	0.81864876
24	0x40a08310	5.015999
25	0x400088c5	2.0083477
26	0x4017715a	2.3662934
27	0x408376c2	4.108247
28	0x3fb76334	1.4327149
29	0x4082eaf7	4.091182
30	0x40948c01	4.6420903
31	0x3f5cb145	0.8620799

feature_net.layer_norm_1.bias f4 [32]
0	0xbf5b1b2c	-0.85588336
1	0x3f34c691	0.7061549
2	0x3fbcdde4	1.4755216
3	0xbf12a78a	-0.57286894
4	0x3f483c45	0.78216964
5	0x3feca49d	1.8487736
6	0x4020a000	2.5097656
7	0xbf77e0e1	-0.9682751
8	0xbf52a471	-0.8228217
9	0x3f476512	0.77888596
10	0x3fb6ecf9	1.4291068
11	0x3f2d617d	0.6772688
12	0x3fa5a967	1.2942322
13	0x3fd57094	1.6674981
14	0xbf82032c	-1.0157218
15	0xbf84bea5	-1.037068
16	0x401b03c9	2.422106
17	0xbddc734d	-0.107641794
18	0x3f54f980	0.83193207
19	0x3eed639f	0.46365067
20	0x3f98f1f8	1.1948843
21	0xbe897145	-0.2684423
22	0xbf3a1223	-0.72683924
23	0xbf7b2ecd	-0.9811829
24	0x3f91400e	1.1347673
25	0x3f51308f	0.8171472
26	0x3fd39c6d	1.6532112
27	0xbe005793	-0.12533407
28	0x3efd2a21	0.49446204
29	0x3fc75719	1.5573455
30	0x3f7e32b5	0.9929612
31	0xbfc4138b	-1.5318464

feature_net.linear_layer_output.weight f4 [5, 32]
0	0xbec8c1f2	-0.3921047
1	0x4015b122	2.3389363
2	0xbefff2fb	-0.49990067
3	0xbe4a866c	-0.1977784
4	0xc02ce16c	-2.7012587
5	0xbd0de24b	-0.034639638
6	0x3e7beb65	0.24601515
7	0x3e065552	0.13118485
8	0x3db50b1e	0.08840011
9	0x3e9504ea	0.29105312
10	0x3f462ba2	0.7741033
11	0xc049d915	-3.1538746
12	0x3e2749bb	0.1633672
13	0x3f3b88bc	0.73255515
14	0xbda3e5f5	-0.08002845
15	0xbf8e0801	-1.1096193
16	0x4024f7e3	2.5776298
17	0x3d945188	0.07242113
18	0xc09d8ee4	-4.9236927
19	0x3fabe0a7	1.3427933
20	0x3fc14a7c	1.5100856
21	0x404f04a9	3.2346594
22	0xbfc9d0e3	-1.5766872
23	0xbfd97e67	-1.69917
24	0x40204ea5	2.5048
25	0xc03bb4a3	-2.9329002
26	0xbee6e9b6	-0.45100182
27	0x3fc231e5	1.5171477
28	0xbfbf263a	-1.4933541
29	0x3f603b8a	0.8759085
30	0xc003fb83	-2.062226
31	0xbfc83850	-1.5642185
32	0x3e2e33ac	0.17011899
33	0x3f1be727	0.60899585
34	0xbf2f0931	-0.683734
35	0xbe6e2b05	-0.23258598
36	0x411cdc6e	9.803816
37	0xc018736a	-2.3820443
38	0x405eb6b5	3.4799016
39	0x3fef239e	1.8682745
40	0x3f0f9727	0.56090015
41	0x3fdc0082	1.7187655
42	0xbfa08912	-1.254183
43	0x40bfbd53	5.991861
44	0x407f1664	3.9857416
45	0x4043052d	3.047191
46	0x406c7cda	3.6951203
47	0x3f5465cc	0.8296783
48	0x3f033ff2	0.5126945
49	0xc0934421	-4.6020665
50	0xc0165df0	-2.3494835
51	0x40183ed7	2.3788354
52	0xc03456f4	-2.8178072
53	0xbf3440d4	-0.7041142
54	0xbe30e980	-0.17276573
55	0x3dd4e4c3	0.10395195
56	0xbfe251d3	-1.7681221
57	0x3f32e2ac	0.69877124
58	0xbfc992fa	-1.5747979
59	0xbf3a319a	-0.72731936
60	0x3f7ef4b5	0.99592143
61	0x4099843f	4.7973933
62	0xc08549a8	-4.1652412
63	0xbf44d054	-0.76880383
64	0xbedc444a	-0.4302085
65	0x3fe08dea	1.7543309
66	0x400430d2	2.0654798
67	0xbf0f72a2	-0.5603429
68	0xc0a0cbdd	-5.0248857
69	0x3f0a5b2a	0.54045355
70	0xbe5aa1c5	-0.21350773
71	0xc0846dfe	-4.138427
72	0x3f0b406a	0.54395163
73	0xc0e15cde	-7.0425863
74	0x40353288	2.8312092
75	0xbf8e26ea	-1.1105626
76	0xbf15b02d	-0.5847195
77	0x40622a4d	3.5338318
78	0xbf795221	-0.97390944
79	0xbf914326	-1.1348617
80	0xbfa6bcfd	-1.3026425
81	0x3ffdd27a	1.9829857
82	0x40e3697a	7.1066256
83	0x4057c017	3.3710992
84	0x40d28fbb	6.580045
85	0x3f2c69b6	0.673488
86	0x3eecb561	0.4623213
87	0xbe930ccb	-0.28720698
88	0xc0719eab	-3.7753093
89	0xbf563872	-0.8367988
90	0xbe47e71e	-0.19521758
91	0x3fc2b7df	1.5212363
92	0x3f3df3a7	0.7419991
93	0xc10d6571	-8.837266
94	0x408f51be	4.4787283
95	0x3e27a3a1	0.16371013
96	0xbe3a27e0	-0.18179274
97	0x3e6bf0e9	0.23041119
98	0xbf6b33f6	-0.9187616
99	0x3d80ef28	0.062956154
100	0x40d221a3	6.566606
101	0xc03375f1	-2.8040736
102	0xbf475788	-0.7786794
103	0x3fda343b	1.704719
104	0xbe624830	-0.2209785
105	0x3f9f6915	1.2453943
106	0x3d8301d3	0.06396832
107	0xc053db05	-3.310243
108	0xbf4546f7	-0.7706141
109	0xc03dfbbd	-2.96849
110	0x3cc058c5	0.023479829
111	0xbe959ac7	-0.29219648
112	0x3f5e6adb	0.868818
113	0x3e1aebf2	0.15129068
114	0x3f9f89d0	1.2463932
115	0x405d65b7	3.4593332
116	0xc098c8ef	-4.774528
117	0x3f5c1988	0.8597646
118	0x3e48e4a2	0.19618466
119	0x3fd5383c	1.6657786
120	0xc03e25b3	-2.971051
121	0x4069911d	3.649482
122	0x406110fa	3.5166612
123	0x3fe5484a	1.7912686
124	0xc00e2019	-2.220709
125	0x3dbd2284	0.09235099
126	0xc1462204	-12.383305
127	0xbfdaa475	-1.7081438
128	0x3c3681da	0.011139357
129	0xbcdd41be	-0.027008887
130	0x3f848f51	1.0356237
131	0xbb6b2342	-0.003587917
132	0x3d2220b9	0.039581988
133	0x406a0eb3	3.6571472
134	0x40182830	2.3774529
135	0x3f521218	0.8205886
136	0x3db5a3a9	0.08869106
137	0x3f628fa4	0.8850043
138	0xbe7bea75	-0.24601157
139	0x409a4f01	4.822144
140	0xbfe2637d	-1.7686611
141	0x40065268	2.0987797
142	0x3ee5d80e	0.448914
143	0xbe7d25a8	-0.24721396
144	0xc004e84f	-2.076679
145	0xbf82010c	-1.015657
146	0x3ceaf2c6	0.028680217
147	0xbfda7807	-1.706788
148	0xbe368ea6	-0.17827854
149	0x3e102445	0.14076336
150	0x3efe25ce	0.49638218
151	0x3e1917b9	0.14950456
152	0x3ef993a6	0.4874546
153	0xc04792f9	-3.1183455
154	0xc037ef29	-2.8739722
155	0x3e405783	0.18783383
156	0x40482d53	3.1277664
157	0x402a1f37	2.6581552
158	0x405b85c2	3.430039
159	0x3fc9a478	1.5753317

feature_net.linear_layer_output.bias f4 [5]
0	0x3fae5c14	1.362185
1	0x3f0af904	0.5428622
2	0xbf9d8ebf	-1.2309188
3	0x3fb881f5	1.441466
4	0x3ecbf79e	0.39837354

feature_net.linear_layer_0.weight f4 [32, 4]
0	0xbe0f70d2	-0.14007881
1	0x3f08c737	0.5342898
2	0xbfebc28a	-1.8418744
3	0xc00ec6a2	-2.2308736
4	0xbd771505	-0.06032278
5	0x3f361a22	0.71133626
6	0xbffde020	-1.9834023
7	0xc02c7aba	-2.6949906
8	0x3f83f4fb	1.0309137
9	0xc0015dee	-2.021358
10	0xc089c46d	-4.3052278
11	0x40903a7e	4.50714
12	0xc008a4c0	-2.1350555
13	0xbf71f8c8	-0.94520235
14	0xbf6221f8	-0.8833308
15	0x3f6c402a	0.92285407
16	0xbea186ce	-0.3154816
17	0x3ed56413	0.41677913
18	0xbf9633c7	-1.1734551
19	0xc00cbf2e	-2.1991687
20	0xbd17e071	-0.03707928
21	0x3f155b0d	0.5834206
22	0xc01c84a0	-2.4455948
23	0xc00e8506	-2.226869
24	0xbe1ab993	-0.15109853
25	0x3ec357a9	0.38152817
26	0xc0238bf3	-2.5554168
27	0xbfe71e81	-1.8056184
28	0xbf943953	-1.1579994
29	0xbfa0c468	-1.2559938
30	0x40bacb08	5.837284
31	0x40b55762	5.666917
32	0xbcc95e9e	-0.02458125
33	0x3f3be1e0	0.7339153
34	0xbfffc1f9	-1.9981071
35	0xc02a7c36	-2.6638312
36	0x3f6fbf1e	0.93650997
37	0xbdb3ac09	-0.087730475
38	0xc0e51ffe	-7.1601553
39	0x40b366ed	5.606314
40	0x3f91dcc3	1.1395496
41	0x3fec1897	1.8445004
42	0x3f3c449c	0.7354219
43	0xbf892af2	-1.0716231
44	0xbd4eb77a	-0.050467946
45	0x3f311fbb	0.6918904
46	0xbff72f35	-1.9311281
47	0xc0236c46	-2.5534835
48	0xbfbb0df4	-1.4613633
49	0xbe72f620	-0.23726702
50	0xc08b06d7	-4.344585
51	0xc08bc273	-4.3674865
52	0xbf790b71	-0.97283083
53	0x3fc7d362	1.5611384
54	0x404c13f3	3.1887176
55	0xc07f2edd	-3.9872353
56	0xbe475c65	-0.1946884
57	0x3eb47ca1	0.35251334
58	0xc0096f6c	-2.1474257
59	0xbfddcef8	-1.7328787
60	0xbd963f68	-0.073363125
61	0x3f33eb37	0.70280784
62	0xbff2de2c	-1.8974051
63	0xc02ca9b2	-2.6978574
64	0x3fd76d50	1.6830235
65	0x4016ac7b	2.3542774
66	0x3f0ecf07	0.5578465
67	0xbfb45e3a	-1.4091256
68	0x3e6ec9c6	0.23319158
69	0x3f60573d	0.87633115
70	0xbf5d3842	-0.8641397
71	0xbfeefcfd	-1.8670956
72	0xc00e3ea5	-2.2225735
73	0x402e8709	2.726992
74	0x406574fa	3.5852647
75	0xc052bf91	-3.2929423
76	0x402502f5	2.5783055
77	0x4014485f	2.3169172
78	0xc06716e6	-3.6107726
79	0xc08b7d96	-4.3590803
80	0xbf4166c4	-0.7554743
81	0x3f13a2da	0.57670367
82	0x401bc53e	2.4339137
83	0xbf997429	-1.1988574
84	0x3fa9d371	1.3267652
85	0x3fc62d8b	1.5482649
86	0xc0b42de3	-5.6306014
87	0xc0b61d17	-5.691051
88	0xbd8ab889	-0.067734785
89	0x3f31b37f	0.69414514
90	0xbffc00f4	-1.9687791
91	0xc0297984	-2.6480417
92	0xbfc73556	-1.5563152
93	0xbcaadd2f	-0.020857422
94	0x40c2dc90	6.089424
95	0xc03c85ad	-2.945659
96	0x3ec513f1	0.38491777
97	0x3fa0bb07	1.2557076
98	0x3eea9639	0.45817736
99	0xbfe7b1e7	-1.8101166
100	0xbde9a44d	-0.11408291
101	0x3f573fbd	0.8408163
102	0xbe146cef	-0.1449468
103	0xc02b7777	-2.6791666
104	0x3ff95a80	1.9480743
105	0x3f854a80	1.041336
106	0xc01fd943	-2.4976356
107	0x40ad3728	5.412983
108	0xbf3e20ff	-0.742691
109	0xbeec77a2	-0.46185023
110	0x3fd452a1	1.6587716
111	0x403d37e4	2.9565363
112	0xbf99af7b	-1.2006677
113	0xbf32a93c	-0.6978948
114	0x40812d7d	4.036803
115	0x4056d133	3.3565185
116	0x400b31f9	2.174925
117	0xbfd09263	-1.6294674
118	0xc08fdb89	-4.4955487
119	0x4060c164	3.5118036
120	0xbf132985	-0.5748523
121	0x3eb60485	0.35550323
122	0x3f8839df	1.0642661
123	0xbff135c2	-1.884453
124	0xbd47ea80	-0.04880762
125	0x3f46604d	0.77490693
126	0xbfba5a9f	-1.4558905
127	0xc030e782	-2.76413

feature_net.linear_layer_0.bias f4 [32]
0	0x4023b90e	2.5581698
1	0x40255407	2.5832536
2	0x40843299	4.1311765
3	0x4076e112	3.8574872
4	0x40222a12	2.5338178
5	0x4025d5cb	2.591174
6	0x402415f7	2.5638406
7	0xbf8dc295	-1.1075007
8	0x4024f0e6	2.5772033
9	0x3f3b858d	0.7325066
10	0x401149e2	2.2701344
11	0x4024d76e	2.5756488
12	0x402b66d2	2.6781507
13	0xc018c99d	-2.3873055
14	0x4021c63c	2.5277243
15	0x4025250a	2.5803857
16	0x4014f6a1	2.327553
17	0x401b2b5d	2.4245217
18	0x40230437	2.5471323
19	0x4063925e	3.5558085
20	0x40b03efc	5.5076885
21	0xbfb0b231	-1.380438
22	0x402524c1	2.5803683
23	0xbf1a9633	-0.60385436
24	0x4014a8be	2.3227992
25	0x4022668b	2.5375087
26	0x3f3f245e	0.74664867
27	0x40854519	4.164685
28	0xc00007c2	-2.0004735
29	0xbf104e31	-0.5636931
30	0x401b3a00	2.425415
31	0x402502fd	2.5783074

feature_net.layer_norm_0.weight f4 [32]
0	0x3f1133b7	0.56719536
1	0x3efa11d5	0.4884173
2	0x4057f5a7	3.3743684
3	0x401eb5ba	2.4798417
4	0x3ee5be50	0.4487176
5	0x3f3a4add	0.7277048
6	0x3df95461	0.12174297
7	0x40e3af8f	7.1151805
8	0x3ed31c63	0.41232595
9	0x408ecc18	4.462414
10	0x3ed9f0d3	0.42566547
11	0x3e2109a0	0.15726328
12	0xbe1d0453	-0.15333681
13	0x40edc214	7.429941
14	0x3f8b7f2a	1.0898182
15	0x3ecf4f56	0.40490216
16	0x3e282974	0.16422063
17	0x3eb27e61	0.34862044
18	0x3ff25118	1.8930998
19	0x404ef394	3.2336168
20	0x40756204	3.8341074
21	0x40b7a7a4	5.739214
22	0x3ebe120d	0.37123147
23	0x4084e685	4.1531396
24	0x3effa84d	0.4993309
25	0x3ed1c3db	0.40969738
26	0x3f0c2786	0.5474781
27	0x4036ab75	2.854215
28	0x41310b4a	11.065256
29	0x40b8e14e	5.777503
30	0x3f5fe7c7	0.8746304
31	0x3f249958	0.64296484

feature_net.layer_norm_0.bias f4 [32]
0	0xbf2f9f9d	-0.68602926
1	0xbf3195f6	-0.6936945
2	0x3fc81862	1.5632441
3	0x3f8d29f9	1.1028434
4	0xbf5a9804	-0.8538821
5	0xbf75849a	-0.9590546
6	0xbe7b0596	-0.2451385
7	0x405aca11	3.4185832
8	0xbf3ab2c6	-0.72929037
9	0x407235b4	3.7845278
10	0xbf7d5e5e	-0.9897212
11	0xbe85844f	-0.26077506
12	0xbee60181	-0.44923022
13	0x3f7de218	0.99173117
14	0xbfa03139	-1.2515022
15	0xbf1a2720	-0.6021595
16	0xbf174e38	-0.5910373
17	0xbf0757e3	-0.5286848
18	0x400d0af0	2.2037926
19	0x3f4eee31	0.808322
20	0x3e8f1168	0.27942967
21	0x40251483	2.579377
22	0xbf14f1ec	-0.58181643
23	0x40204d2d	2.5047104
24	0xbf5c8f88	-0.8615651
25	0xbf4975af	-0.78695196
26	0xbfc21dff	-1.5165404
27	0x3dc1aa78	0.094563425
28	0x3f92d377	1.1470784
29	0x40382bf5	2.877683
30	0xbf53d078	-0.82739973
31	0xbf5b21e8	-0.8559861

feature_net.linear_layer_1.weight f4 [32, 32]
0	0xbddce1f3	-0.10785284
1	0x3f4832a3	0.78202266
2	0x4178c5a9	15.548257
3	0x416da754	14.853352
4	0x3f2e3e18	0.680635
5	0xbf6ce1a9	-0.9253183
6	0x40d363df	6.6059413
7	0x412f3629	10.950723
8	0xbf5ea908	-0.8697667
9	0x40c21ec1	6.066254
10	0xbfe71de1	-1.8055993
11	0xbcb0ddfa	-0.021590222
12	0x4087306e	4.224662
13	0xbfed0f48	-1.8520288
14	0xc05d5850	-3.4585152
15	0x3f7fea52	0.9996692
16	0x3f9e825c	1.2383533
17	0x3f9d8280	1.230545
18	0x4021f903	2.5308235
19	0x41515729	13.083779
20	0x418930c2	17.148808
21	0x3f732948	0.94984865
22	0x3ef74f96	0.48302907
23	0xbfb69aad	-1.4265953
24	0xbfcd64b7	-1.6046361
25	0x402d0981	2.703705
26	0x41168ed0	9.409866
27	0x4194ff13	18.624548
28	0xbf855130	-1.0415401
29	0x40b631f6	5.6935987
30	0x4163f930	14.248337
31	0x40388df2	2.8836637
32	0x3e031e3e	0.12804505
33	0x3e54c9b0	0.20780063
34	0x40b6f15d	5.7169633
35	0x40507497	3.257116
36	0xbffbd501	-1.9674379
37	0x3f28708d	0.6579674
38	0x3e6c6da4	0.230887
39	0x3e369945	0.17831905
40	0x3e20e2f4	0.15711576
41	0x40118fd3	2.2744033
42	0x3f74a655	0.955663
43	0x3f6c7e70	0.9238043
44	0x400525c6	2.0804305
45	0xbe384e8f	-0.17998718
46	0x3f585fa8	0.8452096
47	0x3ea7e6a9	0.32793167
48	0x3fb507fd	1.4143063
49	0x3fbd63d6	1.4796093
50	0x40004852	2.004414
51	0x3fac6ff8	1.347167
52	0x3fb194e6	1.3873565
53	0xbf88e26c	-1.0694098
54	0x3e32393e	0.17404649
55	0xc056c5a2	-3.3558125
56	0x3f2b51a9	0.6692148
57	0x3fdec460	1.7403679
58	0x40108327	2.258005
59	0xc0701ef2	-3.7518888
60	0x40dd35aa	6.912801
61	0x4090872b	4.5165
62	0x4074f7fa	3.8276353
63	0xbf7294a6	-0.9475807
64	0x3e02cc9b	0.12773363
65	0xbb6dcf8c	-0.0036287038
66	0x4004e8c3	2.0767066
67	0xc01c052d	-2.437816
68	0xbe30822e	-0.1723716
69	0x3ef3b35d	0.4759778
70	0x3f3dd51d	0.7415331
71	0xbf09fbe0	-0.53899956
72	0x3edbb463	0.42911062
73	0xbfdc8bff	-1.7230223
74	0xbff5962d	-1.9186455
75	0xbe6e22c1	-0.23255445
76	0xbe6de828	-0.23233092
77	0x3fd1d0d4	1.6391854
78	0x3ec78dcb	0.38975367
79	0x3eb2d195	0.34925523
80	0x3f6377e4	0.88854814
81	0xbd56cc87	-0.052441146
82	0xbeba3b52	-0.36373383
83	0x40f2391b	7.569471
84	0x4025c0cf	2.589893
85	0x4019215d	2.3926613
86	0xbe2c75d9	-0.1684183
87	0xc0350ebf	-2.829025
88	0xbf2d9044	-0.67798257
89	0x3fc71d4b	1.5555815
90	0xbe0ee5de	-0.13954875
91	0x3ea035a1	0.31290916
92	0xc0b11bcc	-5.534643
93	0xbffce2b9	-1.975669
94	0x4071e736	3.779737
95	0x3f85d0df	1.0454367
96	0x3e82efc3	0.2557355
97	0x3e97db3c	0.2965945
98	0x414f9341	12.973451
99	0x415c0c4b	13.753001
100	0xbe79c47e	-0.24391362
101	0xbe9b463c	-0.30327022
102	0x408364f2	4.1060724
103	0x41325a13	11.146991
104	0x3ed4091c	0.414132
105	0x40b4c593	5.649118
106	0xbf57e2a8	-0.84330225
107	0x3f072006	0.5278324
108	0x407fd089	3.997103
109	0xbf830e55	-1.0238749
110	0xbfd0e727	-1.6320542
111	0x3f327dfd	0.6972349
112	0x3fdc548c	1.7213302
113	0x3f5028ec	0.8131244
114	0x40739777	3.8061197
115	0x413c305a	11.761805
116	0x4173219f	15.195708
117	0x400f2fb7	2.2372873
118	0xbe239b71	-0.15977265
119	0x3e9506e7	0.2910683
120	0xbfe9f0ed	-1.827665
121	0x4031e34e	2.7794986
122	0x40d44c4c	6.6343136
123	0x417eb6b0	15.919601
124	0xbfd11d8e	-1.6337144
125	0x404f0853	3.234883
126	0x41401b26	12.006628
127	0x3f832993	1.0247062
128	0x3f0d9d5a	0.55318224
129	0x3ed53774	0.4164387
130	0xbf65f5fc	-0.8982847
131	0xbf5f8923	-0.8731863
132	0x3f79c671	0.9756842
133	0x3f4b35ba	0.79378855
134	0x3f20445d	0.62604314
135	0x4032e040	2.7949371
136	0x3e9c4b90	0.305264
137	0xbf1eb470	-0.61994076
138	0xc000356c	-2.0032606
139	0x3e9698f8	0.2941358
140	0x3faf8cdd	1.3714863
141	0x40287570	2.6321678
142	0x3ee70865	0.45123592
143	0x3fb7230d	1.4307572
144	0xbf2e9408	-0.6819463
145	0x3f163f83	0.5869066
146	0x3faa2857	1.3293561
147	0xc08c11cd	-4.377173
148	0xbfb5281d	-1.4152867
149	0x4002b598	2.0423336
150	0x3eca1126	0.39466208
151	0x3ff70875	1.9299456
152	0x3fb715c6	1.430352
153	0x4006c887	2.1059892
154	0x3f21944d	0.63116914
155	0xbfda1c28	-1.7039843
156	0x409d0056	4.906291
157	0x3e249b5f	0.16074894
158	0xbed92b8f	-0.42416045
159	0x3fe7b700	1.8102722
160	0x3edefa48	0.43550324
161	0xbef69fce	-0.48168796
162	0xbedd497e	-0.43220133
163	0x40090425	2.140878
164	0x3e94dec7	0.29076216
165	0x3f0439d6	0.5165075
166	0x3ec35d22	0.38156992
167	0xc104d089	-8.300912
168	0xbdcb05af	-0.099131934
169	0x403b007d	2.9219048
170	0x3ed80507	0.42191336
171	0x3ecb4b9a	0.39706117
172	0xbd4bb5da	-0.049733974
173	0xbffed99d	-1.991016
174	0x3f6c8514	0.9239056
175	0xbee16955	-0.44025674
176	0x3f869d2a	1.0516713
177	0x3d891c3b	0.06694838
178	0x3fd9d457	1.7017926
179	0x4066029d	3.5939095
180	0x403e67b1	2.9750788
181	0x40b3add7	5.6149707
182	0x3e6101d1	0.21973349
183	0x40579a38	3.3687878
184	0x3f173d6c	0.590781
185	0x3f801c9e	1.0008733
186	0x3fa5dfe9	1.2958957
187	0xc081029a	-4.0315676
188	0xc02abbdc	-2.667716
189	0xc064c5e0	-3.5745773
190	0x3e9424d8	0.2893436
191	0x3ea68b00	0.32527924
192	0xbd81a483	-0.06330206
193	0x3d9673db	0.073463164
194	0x3edcd0ed	0.43128148
195	0x40703840	3.7534332
196	0xbf8a1572	-1.0787795
197	0x3fafb0cc	1.3725829
198	0x3f443d5a	0.76656115
199	0xbf990cd1	-1.1957036
200	0xbd9616e3	-0.07328584
201	0xc1282625	-10.509313
202	0x3fc1d10b	1.514192
203	0x3d996ad8	0.07491082
204	0x3f8bda2f	1.0925959
205	0x405c9f6c	3.4472303
206	0x3f2ea344	0.68217874
207	0x3ed9fa34	0.42573702
208	0x3f900b3b	1.1253427
209	0x4025c74c	2.590289
210	0x4010c2d8	2.2618923
211	0x4001d4ac	2.0286055
212	0x40635408	3.5520039
213	0xbdff92f2	-0.124791995
214	0xbb668970	-0.0035177134
215	0xbd98cb17	-0.07460611
216	0x402ebf00	2.7304077
217	0x3ff1538e	1.8853624
218	0xc0706031	-3.755871
219	0x4082c25a	4.0862246
220	0xbf3748a2	-0.71595204
221	0x4020e332	2.513867
222	0x401f6293	2.4903915
223	0xbf1b8a98	-0.6075835
224	0x3f951f3c	1.1650157
225	0x3ed7ae4f	0.42125174
226	0x3e38facb	0.1806442
227	0x3fc2b136	1.521033
228	0x3f7a5d3a	0.977985
229	0x3f9a2143	1.2041401
230	0x3f9ddf77	1.2333821
231	0x400d1ea2	2.2049947
232	0x3e513160	0.20428991
233	0x3e84eb77	0.25960895
234	0xbf7accf2	-0.9796897
235	0x3e173c40	0.14769077
236	0x400f320a	2.2374291
237	0x3f623ba4	0.88372254
238	0xbe308bf1	-0.17240883
239	0xbc41a41e	-0.011818914
240	0x3f942604	1.1574101
241	0x3f1c5553	0.61067694
242	0x40abf62f	5.3738017
243	0x3f812bda	1.0091507
244	0xbd793e06	-0.060850166
245	0xc002d80b	-2.0444362
246	0x3e2aca81	0.16678812
247	0x401ea789	2.4789755
248	0x3ede5318	0.4342277
249	0x40199ecc	2.4003172
250	0xc0698e7c	-3.6493216
251	0xc099ad78	-4.8024254
252	0x3e809932	0.2511688
253	0xc04b4c03	-3.1765144
254	0xbf2b3718	-0.6688094
255	0x3f3ba7b2	0.7330276

feature_net.linear_layer_1.bias f4 [32]
0	0x41358f1a	11.347437
1	0x3f143a22	0.57901204
2	0x402c384d	2.6909363
3	0x41212cfe	10.073484
4	0x3f9aaf5a	1.2084763
5	0x409be191	4.871285
6	0x4033d13c	2.8096457
7	0x3fbbc692	1.4669974
8	0x4126b5d6	10.419394
9	0x3ee01ad9	0.43770483
10	0x3d6abd94	0.057309702
11	0xbe0d871a	-0.13821068
12	0x3fcb35b5	1.5875765
13	0x3e84c5cf	0.25932166
14	0x403aa3ba	2.916243
15	0x41081139	8.504205
16	0xbee5e1b5	-0.44898763
17	0x3f5c5804	0.860718
18	0xbefb3517	-0.49063942
19	0x3ed56bc4	0.4168378
20	0xbc93d673	-0.018046593
21	0x40b57fc2	5.6718454
22	0x41183122	9.511995
23	0x408d80e5	4.421984
24	0x4071374d	3.7690003
25	0xbfff073a	-1.992408
26	0xc01ca5d1	-2.4476206
27	0x3f9fc790	1.2482777
28	0x4080bcca	4.0230455
29	0x3fb5dbf9	1.4207755
30	0x3f417fa3	0.75585383
31	0x40b2636c	5.5746365

feature_net.layer_norm_1.weight f4 [32]
0	0x3e4739ce	0.19455644
1	0x40018bb6	2.0241523
2	0x4038e282	2.888825
3	0x3e80b239	0.25135973
4	0x4087d53f	4.244781
5	0x40490f57	3.1415613
6	0x407e4271	3.9728053
7	0x40605078	3.5049114
8	0x3e6813f8	0.22663867
9	0x404a0b2a	3.1569314
10	0x4060fd5c	3.5154638
11	0x40a4c6d2	5.14927
12	0x406fc8e5	3.7466366
13	0x408151af	4.041221
14	0x3fa96bb8	1.3235998
15	0x3ee8b5b0	0.45451117
16	0x40a1919a	5.0490236
17	0x40cdab9b	6.427198
18	0x40464f67	3.0985963
19	0x40bdeb85	5.935
20	0x406f1bb3	3.7360656
21	0xbebc24b1	-0.36746743
22	0x3e884ba2	0.26620203
23	0x3f519307	0.8186497
24	0x409fdf78	4.996029
25	0x3ff899fd	1.9421993
26	0x401853b0	2.3801079
27	0x408376ea	4.108266
28	0x3faca999	1.3489257
29	0x40833958	4.10075
30	0x409138d6	4.538188
31	0x3f5cb183	0.8620836

feature_net.layer_norm_1.bias f4 [32]
0	0xbf5b1ae0	-0.85587883
1	0x3f26b338	0.65117216
2	0x3fb89313	1.4419883
3	0xbf12a734	-0.5728638
4	0x3f42bddf	0.7607097
5	0x3ff33e39	1.9003364
6	0x401ed2df	2.4816206
7	0xbf77e0e6	-0.9682754
8	0xbf52a478	-0.8228221
9	0x3f4bd277	0.7961802
10	0x3fb5de1d	1.4208409
11	0x3f44b7a9	0.76842743
12	0x3fabc975	1.3420855
13	0x3fd5e54a	1.6710598
14	0xbf82030b	-1.0157179
15	0xbf84bea7	-1.0370682
16	0x40151ad3	2.3297622
17	0xbdf78abf	-0.120870106
18	0x3f5fa362	0.8735868
19	0x3eed736c	0.46377122
20	0x3faa4bc0	1.3304367
21	0xbe8970ff	-0.26844022
22	0xbf3a11d6	-0.72683465
23	0xbf7b2e9a	-0.98117983
24	0x3fa016f3	1.2507004
25	0x3f70be4c	0.9404037
26	0x3fd54346	1.6661155
27	0xbe0056ec	-0.12533158
28	0x3f09b9aa	0.53798926
29	0x3fc45070	1.5337048
30	0x3f5703a2	0.8398992
31	0xbfc4138f	-1.5318469

feature_net.linear_layer_output.weight f4 [5, 32]
0	0xbec8c262	-0.39210802
1	0x3ffe0045	1.9843832
2	0xbeca62e0	-0.3952856
3	0xbe4a86ba	-0.19777957
4	0xc0352c82	-2.8308415
5	0x3d577185	0.052598495
6	0x3ea5b0fb	0.32361588
7	0x3e06554b	0.13118474
8	0x3db50b1e	0.08840011
9	0x3ed85e16	0.42259282
10	0x3f17da5a	0.59317553
11	0xc03f8608	-2.9925556
12	0xbe1600a2	-0.14648679
13	0x3f6a416c	0.91506076
14	0xbda3e5a9	-0.080027886
15	0xbf8e0862	-1.1096308
16	0x400faf31	2.2450678
17	0x3d7ca54c	0.061681077
18	0xc0a8823a	-5.265897
19	0x3fabe488	1.3429117
20	0x3fac3ea0	1.3456612
21	0x404f0457	3.23464
22	0xbfc9d116	-1.5766933
23	0xbfd97ec3	-1.699181
24	0x402c5a4c	2.6930113
25	0xc04fba69	-3.2457526
26	0xbf489032	-0.78345025
27	0x3fc2324e	1.5171602
28	0xbfbc146b	-1.4693731
29	0x3f3dbb90	0.7411432
30	0xbfea4650	-1.8302708
31	0xbfc8387e	-1.564224
32	0x3e2e338d	0.17011853
33	0x3f1c8206	0.611359
34	0xbf3eec04	-0.7457888
35	0xbe6e2af5	-0.23258574
36	0x411c67ad	9.775311
37	0xc01ce6b2	-2.4515805
38	0x405bf5b4	3.4368715
39	0x3fef2365	1.8682677
40	0x3f0f96d3	0.56089514
41	0x3fdc718a	1.7222149
42	0xbf9b45e8	-1.2130709
43	0x40c081da	6.015851
44	0x40812814	4.0361423
45	0x404560c4	3.084031
46	0x406c7ce1	3.695122
47	0x3f5465b0	0.8296766
48	0x3f135694	0.5755398
49	0xc093436c	-4.60198
50	0xc0175ce4	-2.3650446
51	0x40183ed8	2.3788357
52	0xc03ea170	-2.9786034
53	0xbf344129	-0.70411927
54	0xbe30e9b1	-0.17276646
55	0x3dd4e507	0.10395246
56	0xbfdf3336	-1.7437503
57	0x3f434b8b	0.76287144
58	0xbfbdee35	-1.483832
59	0xbf3a317a	-0.72731745
60	0x3f73f455	0.95294696
61	0x409959f4	4.7922306
62	0xc085b128	-4.1778755
63	0xbf44d09e	-0.76880825
64	0xbedc4487	-0.43021032
65	0x3fe87569	1.8160831
66	0x40006e8c	2.0067472
67	0xbf0f727f	-0.5603408
68	0xc0a00c98	-5.0015373
69	0x3ef91319	0.48647383
70	0xbe891056	-0.26770276
71	0xc0846dcb	-4.1384025
72	0x3f0b4047	0.54394954
73	0xc0dfb4c2	-6.990815
74	0x4037a007	2.8691423
75	0xbf927cdb	-1.1444353
76	0xbf135354	-0.57549024
77	0x4060ad75	3.510587
78	0xbf79520a	-0.97390807
79	0xbf9142f4	-1.1348557
80	0xbf9b4111	-1.2129232
81	0x3ffdd2c5	1.9829947
82	0x40e4a946	7.1456633
83	0x4057bfe4	3.371087
84	0x40d39859	6.612347
85	0x3f2c6a20	0.67349434
86	0x3eecb584	0.46232235
87	0xbe930d27	-0.28720972
88	0xc0735c4d	-3.8025086
89	0xbf46a0ec	-0.775893
90	0xbe17ad35	-0.14812167
91	0x3fc2b7e7	1.5212373
92	0x3f2fd339	0.68681675
93	0xc10e00cd	-8.8751955
94	0x408ebb2a	4.460347
95	0x3e27a379	0.16370954
96	0xbe3a27b6	-0.18179211
97	0x3e54f567	0.20796739
98	0xbf854f88	-1.0414896
99	0x3d80ef5b	0.062956534
100	0x40d307e6	6.594714
101	0xc0333247	-2.7999437
102	0xbf4191cb	-0.7561309
103	0x3fda3467	1.7047242
104	0xbe624860	-0.22097921
105	0x3fa47838	1.2849188
106	0x3d1d85cc	0.038457677
107	0xc053db04	-3.3102427
108	0xbf40bc22	-0.7528707
109	0xc03d4a1e	-2.9576488
110	0x3cc058de	0.023479875
111	0xbe959b0f	-0.29219863
112	0x3f5834e1	0.84455687
113	0x3e1aebff	0.15129088
114	0x3f9f5e2c	1.2450614
115	0x405d65fb	3.4593494
116	0xc097a5f6	-4.739009
117	0x3f5c19f3	0.85977095
118	0x3e48e45f	0.19618367
119	0x3fd5389f	1.6657904
120	0xc03caf4c	-2.9481993
121	0x406b401f	3.6757886
122	0x4060a53e	3.5100856
123	0x3fe548bc	1.7912822
124	0xc009e428	-2.1545506
125	0x3db0ff73	0.08642473
126	0xc1452149	-12.320626
127	0xbfdaa420	-1.7081337
128	0x3c36821d	0.01113942
129	0xbc28ba01	-0.010298253
130	0x3f833124	1.0249372
131	0xbb6b232d	-0.003587912
132	0xbd2fd0ae	-0.04292362
133	0x406d5458	3.708273
134	0x40132789	2.299288
135	0x3f5211fc	0.8205869
136	0x3db5a3d9	0.08869142
137	0x3f49ed66	0.78877866
138	0xbe85649f	-0.2605333
139	0x409a4ef8	4.8221397
140	0xbfdd1646	-1.7272422
141	0x3ffff1e5	1.9995695
142	0x3ee5d819	0.44891432
143	0xbe7d2556	-0.24721274
144	0xc00c2782	-2.1899114
145	0xbf820116	-1.0156581
146	0x3d6bc3fe	0.05755996
147	0xbfda785f	-1.7067984
148	0xbea90ef0	-0.3301921
149	0x3e10249f	0.1407647
150	0x3efe2596	0.4963805
151	0x3e191807	0.14950572
152	0x3ee421d0	0.44557047
153	0xc04b0f54	-3.1728106
154	0xc03a2bf5	-2.908933
155	0x3e40574f	0.18783306
156	0x40512984	3.268159
157	0x40269bc2	2.6032567
158	0x4058ff17	3.3905694
159	0x3fc9a48e	1.5753343

feature_net.linear_layer_output.bias f4 [5]
0	0x3f8d80d9	1.1054946
1	0x3f155cf0	0.58344936
2	0xbf9efb2c	-1.2420402
3	0x3fb8bf1e	1.4433324
4	0x3ec868fc	0.39142597

feature_net.linear_layer_0.weight f4 [32, 9]
0	0xbfb47ed3	-1.4101204
1	0x3fa2d1e1	1.27203
2	0x408217f1	4.0654225
3	0xc0bfe7b0	-5.997032
4	0x3f99b502	1.2008364
5	0x3f8534ce	1.040674
6	0x3f9d5050	1.2290134
7	0x3fd2ed71	1.6478711
8	0x3f66e2d2	0.9018985
9	0x3e9ec97c	0.31013095
10	0x3eaf14f2	0.34195668
11	0xc0526e63	-3.2879875
12	0xbfea85b1	-1.8322049
13	0x3fed1012	1.8520529
14	0x3fd7ebb1	1.6868802
15	0x3e79d386	0.24397096
16	0x40312fc7	2.768541
17	0x3f93461a	1.1505768
18	0xbfd7725b	-1.6831774
19	0x3fa7209e	1.3056829
20	0x40480a36	3.1256232
21	0xc015847c	-2.3362112
22	0x3fa1062f	1.2580012
23	0x3f1d7f2b	0.6152217
24	0x3fb72a63	1.430981
25	0x40080967	2.1255739
26	0x3ef527e3	0.47881994
27	0xbe82506d	-0.25451985
28	0xbefc0e3a	-0.49229604
29	0xbefa617f	-0.4890251
30	0x3ffc8ba2	1.9730113
31	0x3f89ad7b	1.0756067
32	0x3fb12a3b	1.3841013
33	0x3f7bfb38	0.98430204
34	0x3f96bade	1.1775777
35	0x40062a3e	2.0963283
36	0x3f1aef93	0.6052181
37	0x3ff2a43d	1.8956372
38	0xbf540b27	-0.8282952
39	0xc042ee9f	-3.0458143
40	0x3f84ae03	1.0365604
41	0x3f48bc6a	0.784125
42	0x3ebfe5b1	0.37479928
43	0x4014355d	2.315757
44	0x3e13e2ef	0.14442037
45	0xbefe2f6f	-0.49645564
46	0xbe7082e4	-0.23487431
47	0xbf737d4c	-0.9511306
48	0x3faded86	1.3588111
49	0x3fa194b0	1.2623501
50	0x3fb85546	1.4401023
51	0x3f6e4c63	0.93085307
52	0x3fb3cbc2	1.4046557
53	0x3fa2da7f	1.272293
54	0xc00f9488	-2.2434406
55	0xbf1ea741	-0.6197396
56	0x409b648d	4.8560243
57	0x404426fb	3.0648792
58	0x3fa0d52d	1.2565056
59	0x3f07aabb	0.5299489
60	0x3fce9f1e	1.6142309
61	0x3f894f2f	1.072729
62	0x3fa8fcaf	1.3202113
63	0xbe5aaa19	-0.2135395
64	0xbf88a986	-1.0676734
65	0xc0822260	-4.066696
66	0x40d687f6	6.704097
67	0x3fac909f	1.3481635
68	0x3f8961ec	1.0733008
69	0x3f90167c	1.1256862
70	0x3f67cf4b	0.9055068
71	0x3fd2bb86	1.6463478
72	0xbf92fab0	-1.1482754
73	0xbf623eea	-0.8837725
74	0x3e1149a9	0.14188255
75	0x3fedd852	1.8581641
76	0x3fb2cd58	1.3968916
77	0x3fea19d7	1.8289136
78	0x3f8331dc	1.0249591
79	0x3f36ddc5	0.71432143
80	0x3fbde1e7	1.4834565
81	0xbe8b4703	-0.27202615
82	0xbf8f39b2	-1.1189482
83	0xc0678f5e	-3.6181254
84	0x40d1893d	6.5480027
85	0x3f925f1d	1.1435276
86	0x3fa21545	1.2662741
87	0x3fa4e9d0	1.2883854
88	0x3f399e05	0.72506744
89	0x3fe260c6	1.7685783
90	0xbff8595e	-1.9402273
91	0x3fb02136	1.3760135
92	0x40512b16	3.2682548
93	0xc03d18f6	-2.9546485
94	0x4006abe8	2.1042423
95	0x3e9c5c77	0.30539295
96	0x3ffa21d9	1.954158
97	0x4014e4f6	2.3264747
98	0x3f99ff89	1.2031108
99	0xbf2ca101	-0.6743317
100	0xbe358b98	-0.17729032
101	0x3dde854a	0.108652666
102	0x3f4faab3	0.8111984
103	0x3faaddf6	1.3348987
104	0x3f6c29b7	0.9225115
105	0x3f0f9262	0.5608274
106	0x3fda4171	1.7051221
107	0x3fbeb7d9	1.4899856
108	0xbf13f479	-0.5779491
109	0xbfa77520	-1.3082619
110	0xbf578deb	-0.84200925
111	0x40a15258	5.0413017
112	0x3f7252ba	0.9465748
113	0x3fb3bad0	1.4041386
114	0x3f9075c3	1.1285938
115	0x3f38a2b1	0.7212325
116	0x40080c26	2.1257415
117	0xbfc26fe9	-1.5190402
118	0x3fad42ee	1.353605
119	0x408274aa	4.076741
120	0xc0528f1b	-3.2899845
121	0x3f8efcc9	1.1170894
122	0x3f8689a6	1.0510757
123	0x3f919f6a	1.1376774
124	0x3ffe18d1	1.9851323
125	0x3f05a4fb	0.52204865
126	0xbf15c2d8	-0.5850043
127	0xbe5868fd	-0.211338
128	0x3ddf9142	0.109163776
129	0x3f8ed196	1.115771
130	0x3f8bb863	1.0915645
131	0x3f8eb2c0	1.11483
132	0x3f5cbdf4	0.86227345
133	0x3fc48e3f	1.535591
134	0x3fd7f13d	1.6870495
135	0xbe1425f3	-0.14467601
136	0xbf9bd316	-1.2173793
137	0xc042ad39	-3.0418227
138	0x40c3d935	6.1202645
139	0x3fade577	1.3585652
140	0x3f9b4071	1.2129041
141	0x3f568b3c	0.83806205
142	0x3f7e804f	0.99414533
143	0x3fe5195b	1.7898363
144	0xbd786dee	-0.060651712
145	0xbed844c9	-0.4223998
146	0xc0742e3a	-3.8153214
147	0x407e48a6	3.973184
148	0x3f976660	1.1828117
149	0x3fd82bc4	1.6888356
150	0x3f42a3c5	0.7603114
151	0x3fac26f0	1.3449383
152	0x3fa312a0	1.2740059
153	0xbfd83b4b	-1.6893095
154	0x3f971127	1.180211
155	0x4030bc08	2.7614765
156	0xc001a107	-2.0254533
157	0x3fa672eb	1.300382
158	0x3f28b205	0.65896636
159	0x3fb74814	1.4318871
160	0x4001ef72	2.0302396
161	0x3ea362d2	0.3191133
162	0xbff9e816	-1.9523952
163	0xbf913c23	-1.1346477
164	0x40a581b1	5.1720815
165	0x4090d80f	4.5263743
166	0x3f9fa620	1.2472572
167	0x3f7d8f56	0.9904684
168	0x3fc1da96	1.5144832
169	0x3f8dd161	1.1079522
170	0x3fbb9646	1.4655235
171	0xbfac2a0e	-1.3450334
172	0x3facd6e7	1.3503083
173	0x40aa573e	5.3231497
174	0xc0a94ace	-5.2903814
175	0x3f853901	1.0408021
176	0x3fb5ff9c	1.4218631
177	0x3f7bb0ee	0.9831685
178	0x3fd921b6	1.6963413
179	0x3f366307	0.71244854
180	0xbf5bb0d4	-0.85816693
181	0xbf092451	-0.5357104
182	0x3ff40451	1.9063817
183	0x409f1845	4.9717126
184	0x3fbcf01b	1.4760774
185	0x3fbfbe88	1.498002
186	0x3c27c990	0.010240927
187	0x3fc24d7c	1.5179896
188	0x3e4e5515	0.20149644
189	0xbf51386f	-0.81726736
190	0x3dc893ec	0.09793839
191	0x3fa44cce	1.2835939
192	0x3ebe114b	0.37122568
193	0x3fa53c09	1.2908946
194	0x3f8d0b9c	1.1019168
195	0x3f71a914	0.9439862
196	0x3fbca691	1.4738332
197	0x3f89464a	1.0724576
198	0xc04c7d76	-3.1951575
199	0x3f92db27	1.147313
200	0x3fe51627	1.7897385
201	0x3da5f288	0.081029
202	0x3fa74132	1.3066771
203	0xbdfe3ac8	-0.124135554
204	0x401b8a5a	2.4303193
205	0x3ff187b4	1.8869538
206	0x3ecb5714	0.39714873
207	0xbf269744	-0.65074563
208	0x3edc4ea9	0.43028763
209	0x3f17a491	0.59235483
210	0x3ea3b1aa	0.31971484
211	0x3f2972f8	0.66191053
212	0x3ec22c5b	0.37924466
213	0x3f309efc	0.6899259
214	0x3f931c1f	1.1492957
215	0x3f25478d	0.645623
216	0xc00584a4	-2.0862207
217	0xbf3451e4	-0.70437455
218	0x40950700	4.6571045
219	0x404abb51	3.167683
220	0x3f9b3a77	1.2127217
221	0x3f032fb2	0.5124465
222	0x3fca5869	1.5808231
223	0x3fa88658	1.3165998
224	0x3fcba685	1.5910193
225	0xbdde093b	-0.10841604
226	0xbfc0fbfb	-1.5076898
227	0xc00420df	-2.0645063
228	0x408bfa73	4.3743224
229	0x3fa62a3e	1.2981641
230	0x3fea2800	1.8293457
231	0x3f1e00fb	0.61720246
232	0x3f33fae6	0.70304716
233	0x3ff6ddc1	1.9286424
234	0x3dd195e0	0.102336645
235	0x3f539e6f	0.82663625
236	0xc07d8677	-3.961332
237	0xc05ca4cb	-3.4475582
238	0x3f97b3d3	1.1851753
239	0x3fc5c58e	1.5450914
240	0x3f43644c	0.76324916
241	0x3fccbfcc	1.5996032
242	0x3f5defd8	0.866941
243	0xbfcf90ad	-1.6216027
244	0x3f36b194	0.7136471
245	0x408ada68	4.339161
246	0xc0e2c1b3	-7.086145
247	0x3f9d962b	1.2311453
248	0x3fa71326	1.3052719
249	0x3fa2d059	1.2719833
250	0x3fa01a9c	1.250812
251	0x3f9b3b53	1.2127479
252	0xbfad0890	-1.3518238
253	0x3f29fd50	0.6640215
254	0x404df1d9	3.2178862
255	0xc067523b	-3.614394

feature_net.linear_layer_0.bias f4 [32]
0	0x400b0151	2.1719553
1	0x3f332b0d	0.69987565
2	0x3fd70f37	1.6801518
3	0x3f6c2847	0.9224896
4	0x3ff7496f	1.9319285
5	0x410e508b	8.894664
6	0xc01c8c07	-2.4460466
7	0x3fbbfc38	1.4686346
8	0x3f8f9bc8	1.1219416
9	0x3fc0ae9d	1.5053288
10	0x3f4c14b2	0.7971908
11	0x3f879c40	1.0594559
12	0x3fb63a7e	1.42366
13	0x4005eb86	2.0925002
14	0x3f85380f	1.0407733
15	0x3fb2fdb7	1.3983678
16	0xc03fc5a9	-2.9964392
17	0x3fd33547	1.6500634
18	0xc026df4b	-2.6073787
19	0x401014b5	2.2512639
20	0x3ff141f1	1.8848249
21	0x40e0f57c	7.0299664
22	0x3f7abc4e	0.9794358
23	0x400c162f	2.188854
24	0xc040a5f4	-3.010129
25	0x3fa9e99c	1.3274417
26	0xc020d204	-2.5128183
27	0x4009954c	2.1497374
28	0xc01bbf85	-2.4335644
29	0xc020d7fc	-2.5131826
30	0xc00dbdb2	-2.214703
31	0x3ff89405	1.9420172

feature_net.layer_norm_0.weight f4 [32]
0	0x3eabaae3	0.33528814
1	0x3f821c3a	1.0164864
2	0x3f03d845	0.51501876
3	0x3e787527	0.2426344
4	0x3de10a29	0.10988266
5	0x4099e892	4.80964
6	0x40212a14	2.5181932
7	0x3e0c3ef6	0.13695893
8	0x3ea7ce34	0.32774508
9	0x3ea25011	0.3170171
10	0x3f2c64ba	0.67341197
11	0x3ec799e0	0.38984585
12	0x3ec684f5	0.38773313
13	0x3ecbcf69	0.3980668
14	0x3ee0838b	0.4385036
15	0x3e991acc	0.29903257
16	0x3fe76f5d	1.808086
17	0x3eaa46a4	0.3325702
18	0x3fcd5a14	1.6043115
19	0x3e7b3d29	0.2453505
20	0x3e3177c9	0.1733085
21	0x401d0561	2.4534533
22	0x40109d49	2.2596
23	0x3f23125e	0.636999
24	0x400b56f7	2.177183
25	0x3e4e5638	0.20150077
26	0x4002db4a	2.0446343
27	0x3ebe0350	0.37111902
28	0x402287ca	2.539538
29	0x403eb5a2	2.979836
30	0x402126fe	2.518005
31	0x3d6432be	0.055712454

feature_net.layer_norm_0.bias f4 [32]
0	0xbf3eabe0	-0.7448101
1	0xbfc0c3e2	-1.5059779
2	0xbf1a3ad9	-0.60246044
3	0xbecb9c9d	-0.39767924
4	0xbe899f27	-0.26879236
5	0xbfa9de44	-1.3270955
6	0xbf053c20	-0.5204487
7	0xbf255523	-0.64583033
8	0xbf172dbd	-0.59054166
9	0xbf19fe23	-0.60153407
10	0xbf9b9ce6	-1.2157257
11	0xbf0619a4	-0.52382874
12	0xbf1a5589	-0.60286766
13	0xbf205418	-0.62628317
14	0xbf128c32	-0.5724517
15	0xbf2ca9e7	-0.6744675
16	0x4002c6db	2.0433872
17	0xbf2fb1d6	-0.6863073
18	0x3f57dd04	0.8432162
19	0xbf11bdac	-0.5693004
20	0xbf31072a	-0.69151556
21	0xbf0d0ebf	-0.55100626
22	0xbfb81641	-1.4381791
23	0xbf3252f1	-0.6965781
24	0x3f2e6b19	0.6813217
25	0xbe9a6639	-0.30156115
26	0x3f453a6d	0.77042276
27	0xbf89e754	-1.0773721
28	0xbe15f0c1	-0.14642622
29	0x3f8cb9af	1.0994166
30	0x3f918b57	1.1370648
31	0xbeabb4a7	-0.33536264
