otk/AgileRL-MATD3/simple_v3/result/20240102-0837/MATD3_trained_agent_0015000.pt (torch, 277710 bytes, 112 tensors)

feature_net.linear_layer_0.weight f4 [32, 4]
-0.21243688 0.5377645 -1.2849435 -2.3944473 0.015946874 0.79534227 -1.402483 -2.8521702
1.6092237 -0.80891794 -4.734574 3.6134143 -2.245684 -1.0603944 -0.7847555 0.004447623
-0.39555943 0.48288444 -0.6310066 -2.2842364 -0.12512542 0.45058218 -1.890747 -2.4614587
-0.37850326 0.10996741 -2.030318 -2.025248 -1.3569986 -0.98979735 5.2669125 5.3551393
0.08134655 0.81155616 -1.4072384 -2.838392 1.1329402 -0.3379543 -6.43476 5.050573
1.4364897 2.2043147 1.5241371 -1.4441303 0.027297854 0.75887525 -1.3458506 -2.7302094
-1.5953311 -0.5918108 -3.6757092 -4.0167665 -0.6761821 1.045637 3.3791866 -3.5064836
-0.44762456 0.16702674 -1.6169311 -1.9136633 0.0122259585 0.7923865 -1.3145127 -2.8497362
2.0989566 2.6870298 1.3297788 -1.9795067 0.487568 1.1876866 -0.1728786 -2.0204377
-2.8323193 3.0187201 2.9449635 -2.5779574 2.329016 2.0859077 -2.1182795 -2.6878483
-0.38160533 0.31791732 1.0102974 -1.0097635 1.1665905 1.45075 -4.635061 -4.8804073
-0.0041640704 0.7692047 -1.3903828 -2.784788 -0.8427748 0.3519839 5.277246 -2.665285
0.69337416 1.7422589 1.3091382 -1.911543 0.077074975 1.3712941 0.52604455 -2.6273746
1.7558274 0.31483173 -1.8308392 4.3089433 1.1288093 0.13433447 1.7954528 2.168653
-0.8659368 -0.20501083 3.0013943 2.9305658 1.1707482 -1.3756937 -4.1360235 2.8628218
-1.1245244 1.0308813 1.5719354 -1.3824989 0.13760968 1.0103822 -0.82845867 -2.832335
00000000: 0e89 59be efaa 093f 0779 a4bf a03e 19c0
00000010: 05a3 823c 8d9b 4b3f 9084 b3bf f589 36c0
00000020: 0bfb cd3f 3f15 4fbf a181 97c0 2e42 6740
00000030: 49b9 0fc0 01bb 87bf bde5 48bf 5ebd 913b
00000040: c486 cabe a13c f73e a689 21bf ee30 12c0
00000050: e120 00be b5b2 e63e ff03 f2bf 8a88 1dc0
00000060: 2ecb c1be 9836 e13d bbf0 01c0 aa9d 01c0
00000070: 21b2 adbf 5c63 7dbf 8c8a a840 4d5d ab40
00000080: 0599 a63d 25c2 4f3f 6320 b4bf 37a8 35c0
00000090: 2f04 913f 5908 adbe 8ee9 cdc0 4b9e a140
000000a0: e5de b73f 7e13 0d40 ed16 c33f 43d9 b8bf
000000b0: c09f df3c a645 423f d544 acbf c0bb 2ec0
000000c0: cf33 ccbf ea80 17bf d23e 6bc0 5a89 80c0
000000d0: 451a 2dbf 6fd7 853f 9844 5840 3a6a 60c0
000000e0: 0c2f e5be 0f09 2b3e 99f7 cebf ebf2 f4bf
000000f0: 634f 483c d7d9 4a3f f441 a8bf 1462 36c0
00000100: 4e55 0640 4cf8 2b40 3136 aa3f 7a60 fdbf
00000110: 83a2 f93e 1d06 983f 1607 31be da4e 01c0
00000120: b844 35c0 b632 4140 487a 3c40 41fd 24c0
00000130: 990e 1540 837f 0540 e491 07c0 b505 2cc0
00000140: c661 c3be 0fc6 a23e 6d51 813f ee3f 81bf
00000150: d652 953f 2db2 b93f 6b52 94c0 4c2c 9cc0
00000160: c172 88bb 99ea 443f 10f8 b1bf f739 32c0
00000170: 17c0 57bf 3c37 b43e 33df a840 0894 2ac0
00000180: f880 313f 5702 df3f d791 a73f 71ad f4bf
00000190: 7cd9 9d3d 9186 af3f dbaa 063f e826 28c0
000001a0: f4be e03f a031 a13e f058 eabf dde2 8940
000001b0: d37c 903f fa8e 093e 66d1 e53f 36cb 0a40
000001c0: 09ae 5dbf 5cee 51be d816 4040 648e 3b40
000001d0: 14db 953f bb16 b0bf 4e5a 84c0 7938 3740
000001e0: 6af0 8fbf ebf3 833f 2e35 c93f b9f5 b0bf
000001f0: 8de9 0c3e 3454 813f de15 54bf fa44 35c0

feature_net.linear_layer_0.bias f4 [32]
1.8679037 1.9023241 3.5674274 3.1847148 1.7699414 1.9208483 1.8855872 -0.47490856
1.9076525 0.81596994 1.6511303 1.8963304 1.9337391 -2.2550173 1.8241922 1.8956844
1.8261061 1.7456108 1.3848872 3.6640844 4.5002985 -1.1905996 1.901025 -0.5609677
1.6841997 1.8924285 0.1476587 3.142246 -2.207477 -1.1826408 2.3770928 1.8786592
00000000: 7817 ef3f 5b7f f33f bb50 6440 5ed2 4b40
00000010: 718d e23f 5bde f53f ec5a f13f 3727 f3be
00000020: f52d f43f 68e3 503f 3d58 d33f f4ba f23f
00000030: c384 f73f 3452 10c0 217f e93f c9a5 f23f
00000040: d8bd e93f 2d70 df3f fc43 b13f 5c80 6a40
00000050: 7202 9040 9165 98bf ca54 f33f 949b 0fbf
00000060: db93 d73f 193b f23f d833 173e 8f1a 4940
00000070: 4e47 0dc0 c660 97bf 4a22 1840 e877 f03f

feature_net.layer_norm_0.weight f4 [32]
0.5671912 0.48841438 2.830947 2.1737301 0.4487148 0.7277032 0.121742226 6.514003
0.41232434 4.699753 0.4256647 0.15726295 -0.16388488 8.186148 1.0898153 0.4049013
0.16422026 0.34861976 2.6140957 2.3356202 2.9722686 5.553569 0.37122843 2.8261313
0.4993276 0.4096966 0.6821873 2.6984718 9.500053 5.7380953 0.98655254 0.64296323
00000000: 7133 113f 7311 fa3e 3c2e 3540 651e 0b40
00000010: f2bd e53e c24a 3a3f fd53 f93d b672 d040
00000020: 2d1c d33e 6064 9640 b9f0 d93e 8a09 213e
00000030: 70d1 27be 76fa 0241 117f 8b3f 394f cf3e
00000040: 5b29 283e 4a7e b23e 584d 2740 cd7a 1540
00000050: a639 3e40 d6b6 b140 a711 be3e 56df 3440
00000060: dea7 ff3e c1c3 d13e d4a3 2e3f c3b3 2c40
00000070: 3800 1841 7a9e b740 b58e 7c3f 3d99 243f

feature_net.layer_norm_0.bias f4 [32]
-0.68603164 -0.69369733 1.6648221 0.09817436 -0.8538871 -0.9590588 -0.24513884 3.0782511
-0.72929054 3.6033762 -0.98972124 -0.26077715 -0.43392166 0.7393737 -1.2515067 -0.6021612
-0.59103906 -0.52868867 1.0487576 0.77445996 -0.25431153 2.6769576 -0.58182055 2.1871865
-0.8615669 -0.7869544 -1.3591843 -0.20733875 0.6162048 2.3115978 -0.6604198 -0.8559863
00000000: c59f 2fbf 2696 31bf e418 d53f a40f c93d
00000010: 5898 5abf e184 75bf ad05 7bbe 1102 4540
00000020: c9b2 3abf b79d 6640 5f5e 7dbf 9584 85be
00000030: fb2a debe 9847 3d3f 5f31 a0bf 3d27 1abf
00000040: 564e 17bf 2458 07bf b03d 863f 0243 463f
00000050: 1f35 82be 4653 2b40 31f2 14bf ddfa 0b40
00000060: a68f 5cbf d875 49bf c0f9 adbf 9c50 54be
00000070: 99bf 1d3f 38f1 1340 4611 29bf eb21 5bbf

feature_net.linear_layer_1.weight f4 [32, 32]
-0.107852414 0.78202677 12.935682 13.698357 0.6806298 -0.9253231 6.605899 6.9310637
-0.8697716 6.0486455 -1.8055996 -0.021590274 4.233697 0.6329271 -3.4585223 0.9996693
1.2383617 1.2305512 3.3208613 10.527989 14.214057 -0.8702253 0.48302892 -2.4680316
-1.6046438 2.7037218 9.293095 14.490618 -1.1766125 4.3359256 14.491008 2.8836796
0.1280437 0.20780048 6.178421 4.191421 -1.967431 0.6579706 0.2308864 -1.3131216
0.15711483 1.4811262 0.9556588 0.92379946 2.1445417 1.6133517 0.84521025 0.32793137
1.4143013 1.4796172 2.808446 0.9873332 2.2391582 -3.165655 0.17404713 -3.6892247
0.669219 1.7403698 2.3891025 -0.58026624 3.728497 1.1570324 3.083883 -0.9475842
0.12773424 -0.0036286884 2.5505137 -1.6028594 -0.17237222 0.4759768 0.74152654 -2.3582327
0.42910793 -1.3623832 -1.9186413 -0.23255564 -0.24271508 0.96427596 0.38975343 0.3492539
0.88854665 -0.052440792 0.12684764 6.4612684 2.8863285 3.2805092 -0.16841827 -2.0501716
-0.6779785 1.5555819 -0.076145545 0.48661777 -6.058741 -1.6646382 4.0440836 1.045439
0.25573772 0.2965952 10.261943 11.971898 -0.24391432 -0.30327016 4.106067 7.01409
0.4141324 5.3522177 -0.8433034 0.52783084 4.0089464 1.1143723 -1.6320518 0.6972317
1.7213289 0.81312925 4.6083364 9.324015 12.196504 0.40005356 -0.15977305 -0.85340047
-1.8276749 2.7795155 6.5267453 11.775027 -1.3996869 2.265581 12.118621 1.024711
0.55317646 0.41644007 0.3166649 -0.9092961 0.9756801 0.793787 0.62604684 2.5907679
0.30526507 0.86314344 -2.0032678 0.294138 1.3596121 2.1216815 0.45123664 1.4307516
-0.68194455 0.5869054 1.0905279 -4.3370485 -1.4764235 0.40099034 0.39466098 1.2067723
1.4303546 2.1060083 0.6362511 -1.5360403 5.35261 1.5506766 -0.3142774 1.810269
0.4355042 -0.48168907 -0.58282596 1.0928899 0.29076076 0.51650494 0.3815686 -3.9400988
-0.099132076 2.1339502 0.42191014 0.3970604 -0.09696622 -0.71135235 0.92390007 -0.4402575
1.0516592 0.066948734 1.0124367 2.3048682 2.421671 5.6654873 0.2197346 3.2843008
0.5907841 1.0008775 1.4301453 -2.5961716 -1.0602982 -1.6073927 0.5219402 0.3252768
-0.06330214 0.07346251 1.6672382 2.8984532 -1.0787735 1.3725755 0.7665562 -0.929614
-0.0732851 -9.988293 1.5142007 0.074910834 1.0442011 3.914574 0.6821733 0.42573836
1.1253362 2.5902846 1.4705805 3.654913 4.159294 -1.1380342 -0.003517706 -0.17844865
2.7303903 1.8853662 -3.7287774 3.7070272 -0.5928892 1.1056105 2.3835633 -0.60758626
1.1650264 0.42124873 -0.9952134 0.29853383 0.97798735 1.2041352 1.2333715 0.21975172
0.20429043 -0.06622263 -0.97968924 0.14769192 2.2705467 2.0365918 -0.17240721 -0.011818833
1.1574178 0.6106712 7.0910616 1.0854393 -0.22357365 -2.6081877 0.16678913 3.1781092
0.43422928 2.400335 -3.636966 -5.6963606 1.7361913 -2.8208919 -0.8597065 0.73302996
00000000: bae1 dcbd e832 483f 8ef8 4e41 782c 5b41
00000010: c13d 2e3f fae1 6cbf 8663 d340 46cb dd40
00000020: 5aa9 5ebf 818e c140 e31d e7bf 16de b0bc
00000030: 727a 8740 8307 223f 6e58 5dc0 54ea 7f3f
00000040: a382 9e3f b482 9d3f fe88 5440 a572 2841
00000050: c76c 6341 16c7 5ebf 914f f73e 3bf4 1dc0
00000060: f864 cdbf c709 2d40 84b0 1441 92d9 6741
00000070: 3d9b 96bf e7bf 8a40 2bdb 6741 358e 3840
00000080: e31d 033e a6c9 543e a0b5 c540 1f20 8640
00000090: c7d4 fbbf c370 283f 7c6d 6c3e 5e14 a8bf
000000a0: b6e2 203e 8b95 bd3f 0ea6 743f 1f7e 6c3f
000000b0: 2c40 0940 4f82 ce3f b35f 583f 9fe6 a73e
000000c0: d307 b53f 1964 bd3f 94bd 3340 dec1 7c3f
000000d0: 5e4e 0f40 179a 4ac0 6939 323e 421c 6cc0
000000e0: f051 2b3f 70c4 de3f 0ee7 1840 548c 14bf
000000f0: b29f 6e40 a319 943f 575e 4540 e194 72bf
00000100: c4cc 023e 4acf 6dbb 9e3b 2340 7f2a cdbf
00000110: 5882 30be 3bb3 f33e afd4 3d3f 49ed 16c0
00000120: 09b4 db3e 9362 aebf 0a96 f5bf 1123 6ebe
00000130: 4d8a 78be cada 763f c38d c73e 68d1 b23e
00000140: cb77 633f 28cc 56bd 59e4 013e b6c2 ce40
00000150: 9bb9 3840 ddf3 5140 d775 2cbe 0336 03c0
00000160: 0090 2dbf 4f1d c73f 32f2 9bbd f725 f93e
00000170: 35e1 c1c0 dd12 d5bf 2269 8140 f2d0 853f
00000180: 0ef0 823e 53db 973e eb30 2441 e58c 3f41
00000190: adc4 79be 3a46 9bbe e764 8340 6d73 e040
000001a0: 2909 d43e 5e45 ab40 bbe2 57bf ec1f 073f
000001b0: 4a49 8040 c0a3 8e3f 13e7 d0bf c77d 323f
000001c0: 8154 dc3f 3d29 503f 7e77 9340 2a2f 1541
000001d0: e124 4341 d2d3 cc3e 8c9b 23be 7478 5abf
000001e0: 40f1 e9bf 95e3 3140 19db d040 8366 3c41
000001f0: f128 b3bf 47ff 1040 dfe5 4141 bb29 833f
00000200: f99c 0d3f a237 d53e e721 a23e a1c7 68bf
00000210: 2cc6 793f a035 4b3f 9b44 203f 24cf 2540
00000220: b44b 9c3e f8f6 5c3f 8a35 00c0 4299 963e
00000230: c507 ae3f a1c9 0740 7d08 e73e de22 b73f
00000240: eb93 2ebf 6f3f 163f 6b96 8b3f 1ac9 8ac0
00000250: 72fb bcbf 9b4e cd3e 0111 ca3e 8477 9a3f
00000260: dc15 b73f d7c8 0640 5ae1 223f f89c c4bf
00000270: 9548 ab40 927c c63f f8e8 a0be e5b6 e73f
00000280: 68fa de3e f39f f6be 1534 15bf d1e3 8b3f
00000290: 98de 943e ab39 043f f65c c33e 942a 7cc0
000002a0: c205 cbbd a492 0840 9b04 d83e 804b cb3e
000002b0: 3a96 c6bd 301b 36bf b784 6c3f 6e69 e1be
000002c0: c59c 863f 6b1c 893d 8797 813f f682 1340
000002d0: a8fc 1a40 ac4b b540 1b02 613e fc31 5240
000002e0: a03d 173f c11c 803f 000f b73f ad27 26c0
000002f0: dab7 87bf 0bbf cdbf df9d 053f ae8a a63e
00000300: 8da4 81bd 8373 963d 1068 d53f 4280 3940
00000310: 4015 8abf 8eb0 af3f 073d 443f 2ffb 6dbf
00000320: 8016 96bd 0cd0 1fc1 54d1 c13f da6a 993d
00000330: 62a8 853f 6188 7a40 e9a2 2e3f 61fa d93e
00000340: 040b 903f 39c7 2540 fb3b bc3f 18ea 6940
00000350: f018 8540 1bab 91bf 5089 66bb 3ebb 36be
00000360: b7be 2e40 ae53 f13f 4aa4 6ec0 ef3f 6d40
00000370: 96c7 17bf a584 8d3f 4d8c 1840 c68a 1bbf
00000380: 961f 953f eaad d73e 4ec6 7ebf 6dd9 983e
00000390: 615d 7a3f 1a21 9a3f 1edf 9d3f 9806 613e
000003a0: 8331 513e bb9f 87bd eacc 7abf 8d3c 173e
000003b0: a350 1140 8557 0240 848b 30be c7a3 41bc
000003c0: 4426 943f f354 1c3f fae9 e240 adef 8a3f
000003d0: 7ef0 64be 8cec 26c0 c5ca 2a3e 2466 4b40
000003e0: 4d53 de3e 179f 1940 0dc4 68c0 9648 b6c0
000003f0: 843b de3f 7e89 34c0 ba15 5cbf daa7 3b3f

feature_net.linear_layer_1.bias f4 [32]
9.337382 0.5611361 2.9267938 7.898284 1.2563957 4.009985 2.705031 1.3723712
8.335054 0.18368168 0.51954836 -0.046361912 1.4649687 0.08601264 2.0823014 6.5578046
0.40692133 0.55407363 -0.7626403 0.47704366 0.1809735 4.9187527 7.4398427 3.4958305
2.9581404 -1.1097884 -2.416592 0.9434098 3.253796 1.3010616 0.30982038 4.661802
00000000: eb65 1541 9ea6 0f3f 9750 3b40 bebe fc40
00000010: 93d1 a03f cc51 8040 3a1f 2d40 dca9 af3f
00000020: 625c 0541 0d17 3c3e 1f01 053f fde5 3dbd
00000030: 1884 bb3f 6527 b03d 6d44 0540 89d9 d140
00000040: fe57 d03e c5d7 0d3f 653c 43bf 113f f43e
00000050: 1e51 393e 6c66 9d40 3113 ee40 b0bb 5f40
00000060: 2c52 3d40 8c0d 8ebf 71a9 1ac0 4e83 713f
00000070: 323e 5040 3089 a63f c7a0 9e3e 7b2d 9540

feature_net.layer_norm_1.weight f4 [32]
0.1945552 1.24812 2.9110923 0.2513574 6.6243963 3.5012689 4.544269 3.7250648
0.2266374 2.3941407 2.7524536 5.257431 3.2200797 4.144054 1.4017835 0.4545094
5.7557197 6.304508 3.1742685 5.455183 4.631038 -0.36746603 0.266199 0.81864876
4.287927 2.5707407 1.8279241 3.8263342 2.215633 3.0741932 3.4981914 0.8620799
00000000: 7a39 473e 65c2 9f3f 564f 3a40 ebb1 803e
00000010: 0efb d340 ca14 6040 a76a 9140 7667 6e40
00000020: a213 683e 9a39 1940 3328 3040 e03c a840
00000030: c915 4e40 179c 8440 a46d b33f 75b5 e83e
00000040: db2e b840 88be c940 3727 4b40 dc90 ae40
00000050: 7731 9440 8224 bcbe 3c4b 883e f792 513f
00000060: b336 8940 0487 2440 6bf9 e93f a9e2 7440
00000070: eecc 0d40 95bf 4440 5ee2 5f40 45b1 5c3f

feature_net.layer_norm_1.bias f4 [32]
-0.85588336 0.7948215 1.9599578 -0.57286894 0.44097018 1.6851814 2.7300627 -0.95483404
-0.8228217 1.1753783 1.3078098 0.48895308 1.1697099 1.9571604 -0.9347194 -1.037068
2.10462 0.38211706 0.5985369 0.74089265 1.4812078 -0.2684423 -0.72683924 -0.9811829
0.8826311 1.1376196 1.2959266 0.21613467 0.82356596 1.1506042 -0.27264908 -1.5318464
00000000: 2c1b 5bbf 6c79 4b3f e6df fa3f 8aa7 12bf
00000010: d8c6 e13e 06b4 d73f 59b9 2e40 0170 74bf
00000020: 71a4 52bf cc72 963f 5066 a73f 0f58 fa3e
00000030: 0eb9 953f 3b84 fa3f c549 6fbf a5be 84bf
00000040: 18b2 0640 d9a4 c33e b739 193f 24ab 3d3f
00000050: 3898 bd3f 4571 89be 2312 3abf cd2e 7bbf
00000060: 1df4 613f 859d 913f ece0 a53f 6852 5d3e
00000070: 38d5 523f 0047 933f a998 8bbe 8b13 c4bf

feature_net.linear_layer_output.weight f4 [5, 32]
-0.3921047 3.1042163 -2.0933187 -0.1977784 -2.080876 -0.9851139 -0.08882541 0.69963056
0.08840011 1.8000144 2.2243507 -0.36733967 -0.105454855 1.0128701 0.0090522375 -1.1096193
1.7675052 -0.13091365 -3.6864092 1.6438948 -1.8523579 3.2346594 -1.5766872 -1.69917
0.6743841 -0.9025225 1.2637146 1.633709 -1.2345364 -0.25861377 -0.9865551 -1.5642185
0.17011899 0.94501156 -1.8818136 -0.23258598 8.305361 -2.192282 3.8717139 0.031491358
0.56090015 -2.0884972 -0.63419056 5.2294893 2.723805 2.2600229 3.6948836 0.8296783
0.39776808 -3.8839319 -1.1028191 1.6863431 -4.2540636 -0.7041142 -0.17276573 0.10395195
-1.1770673 0.17890489 -1.1716857 -0.8320101 0.25160775 3.2376592 0.583993 -0.76880383
-0.4302085 1.1979933 1.0101948 -0.5603429 -3.1165073 -0.7330428 -0.93767 -3.776178
0.54395163 -3.0824382 2.810613 -0.025121568 0.11766687 2.8183339 -0.97390944 -1.1348617
-1.1806747 2.0277374 5.5011907 3.3533583 3.3476613 0.673488 0.4623213 -0.28720698
-3.0608032 -0.9234286 0.26344466 1.5173526 0.3021903 -5.9122477 4.139074 0.16371013
-0.18179274 1.4282293 -1.7251549 0.062956154 3.6742542 -2.1768343 -1.6975815 1.7241223
-0.2209785 2.312741 0.53744453 -3.179332 -2.6043444 -2.976975 0.023479829 -0.29219648
1.36169 0.1512919 1.4062234 3.7160244 -3.33932 0.8597646 0.19618466 1.6657786
-2.414961 3.5097268 3.9120438 1.7912686 -4.3657336 -1.4099938 -1.4435527 -1.7081438
0.011139357 -0.083538264 1.2298573 -0.003587917 0.22312252 4.3069243 3.6238613 0.80465204
0.08869106 1.785341 0.3587064 4.821693 -3.3705175 1.9398769 0.448914 -0.24721396
-1.6467446 -1.0159395 0.18856779 -2.1402988 -3.3097453 0.14076336 0.49638218 0.14950456
0.66157293 -2.3594966 -2.4874806 0.18783383 1.0465742 3.2069 0.5595232 1.5753317
00000000: f2c1 c8be 7bab 4640 eff8 05c0 6c86 4abe
00000010: 132d 05c0 6d30 7cbf 19ea b5bd fd1a 333f
00000020: 1e0b b53d df66 e63f c35b 0e40 f213 bcbe
00000030: b7f8 d7bd baa5 813f d64f 143c 0108 8ebf
00000040: 9c3d e23f 3a0e 06be 21ee 6bc0 256b d23f
00000050: 101a edbf a904 4f40 e3d0 c9bf 677e d9bf
00000060: 70a4 2c3f b70b 67bf 66c1 a13f 601d d13f
00000070: 4a05 9ebf 0669 84be e08e 7cbf 5038 c8bf
00000080: ac33 2e3e 47ec 713f 45df f0bf 052b 6ebe
00000090: c2e2 0441 594e 0cc0 29ca 7740 15fd 003d
000000a0: 2797 0f3f f0a9 05c0 505a 22bf fa57 a740
000000b0: d252 2e40 37a4 1040 f978 6c40 cc65 543f
000000c0: 42a8 cb3e 5792 78c0 2d29 8dbf 17da d73f
000000d0: 4a21 88c0 d440 34bf 80e9 30be c3e4 d43d
000000e0: 24aa 96bf d832 373e ccf9 95bf 9dfe 54bf
000000f0: bbd2 803e cf35 4f40 9180 153f 54d0 44bf
00000100: 4a44 dcbe d857 993f 104e 813f a272 0fbf
00000110: db74 47c0 b1a8 3bbf 240b 70bf e6ac 71c0
00000120: 6a40 0b3f ab46 45c0 15e1 3340 bfcb cdbc
00000130: 54fb f03d 955f 3440 2152 79bf 2643 91bf
00000140: 5920 97bf 73c6 0140 c109 b040 6c9d 5640
00000150: 1540 5640 b669 2c3f 61b5 ec3e cb0c 93be
00000160: 33e4 43c0 d165 6cbf 38e2 863e 9c38 c23f
00000170: b0b8 9a3e 2231 bdc0 4b73 8440 a1a3 273e
00000180: e027 3abe 38d0 b63f e0d1 dcbf 28ef 803d
00000190: fb26 6b40 4151 0bc0 5a4a d9bf 0ab0 dc3f
000001a0: 3048 62be f303 1440 f795 093f 2d7a 4bc0
000001b0: 94ad 26c0 c286 3ec0 c558 c03c c79a 95be
000001c0: dc4b ae3f 44ec 1a3e 21ff b33f 58d3 6d40
000001d0: 6bb7 55c0 8819 5c3f a2e4 483e 3c38 d53f
000001e0: b98e 1ac0 5d9f 6040 ed5e 7a40 4a48 e53f
000001f0: 17b4 8bc0 ad7a b4bf 56c6 b8bf 75a4 dabf
00000200: da81 363c 1c16 abbd f76b 9d3f 4223 6bbb
00000210: 3b7a 643e 53d2 8940 58ed 6740 adfd 4d3f
00000220: a9a3 b53d 0e86 e43f 5ea8 b73e 4f4b 9a40
00000230: 8fb6 57c0 e34d f83f 0ed8 e53e a825 7dbe
00000240: 87c8 d2bf 4e0a 82bf ea17 413e a8fa 08c0
00000250: ded2 53c0 4524 103e ce25 fe3e b917 193e
00000260: d85c 293f fe01 17c0 e232 1fc0 8357 403e
00000270: 25f6 853f d93d 4d40 ea3c 0f3f 78a4 c93f

feature_net.linear_layer_output.bias f4 [5]
1.3728955 0.36588815 -0.91837347 1.1654625 -0.16950245
00000000: 0abb af3f b155 bb3e 861a 6bbf e02d 953f
00000010: 0d92 2dbe

feature_net.linear_layer_0.weight f4 [32, 4]
-0.27546087 0.54174644 -1.40429 -2.4113932 -0.040594902 0.80330116 -1.5168226 -2.870811
1.5701202 -0.7474946 -4.7538433 3.6144667 -2.32374 -1.0444257 -0.842084 0.013462733
-0.45685223 0.48484522 -0.7523991 -2.301202 -0.19228095 0.45399913 -2.0094218 -2.4782825
-0.4546472 0.10825566 -2.1536815 -2.0403767 -1.3081305 -1.0235041 5.298376 5.304944
0.026846329 0.81948006 -1.5202439 -2.8573458 1.1512396 -0.3080082 -6.417298 5.069249
1.4405763 2.1964197 1.4501209 -1.4728402 -0.028365713 0.7659369 -1.4599702 -2.7487664
-1.6821233 -0.60398895 -3.789084 -4.0349994 -0.6627583 1.0575416 3.3873427 -3.4927473
-0.5219176 0.16558677 -1.7417005 -1.9287645 -0.04334468 0.8000469 -1.4286535 -2.8685303
2.104403 2.678415 1.2666984 -2.0113032 0.45876175 1.19038 -0.27250722 -2.0423734
-2.8947148 2.9683824 2.8482516 -2.4662611 2.375032 2.0742738 -2.0694342 -2.6815076
-0.39221358 0.2546519 1.037442 -1.0404372 1.1562587 1.5047 -4.609707 -4.8721232
-0.061293148 0.77677155 -1.5051985 -2.80319 -0.82523197 0.28175464 5.2389016 -2.629012
0.680823 1.7399957 1.2219278 -1.9369109 0.046757556 1.3797686 0.423037 -2.648903
1.7178776 0.29557234 -1.9191011 4.288406 1.112622 0.09224319 1.7277918 2.1388884
-0.8461407 -0.20692888 3.0754528 2.916229 1.2802154 -1.4400222 -4.096853 2.8663232
-1.1716373 0.9984495 1.5041492 -1.470322 0.09198886 1.01937 -0.93780595 -2.8521764
00000000: 3509 8dbe e5af 0a3f c6bf b3bf 4454 1ac0
00000010: d746 26bd 25a5 4d3f 3e27 c2bf 5ebb 37c0
00000020: b3f9 c83f ce5b 3fbf 7c1f 98c0 6c53 6740
00000030: 28b8 14c0 beaf 85bf d192 57bf cb92 5c3c
00000040: 89e8 e9be a23d f83e 3a9d 40bf e546 13c0
00000050: 4ce5 44be 9372 e83e 5e9a 00c0 2e9c 1ec0
00000060: 85c7 e8be 25b5 dd3d ebd5 09c0 8895 02c0
00000070: d270 a7bf 2f02 83bf 4c8c a940 1ac2 a940
00000080: d5ec db3c 72c9 513f 5a97 c2bf c1de 36c0
00000090: d25b 933f 40b3 9dbe 815a cdc0 4a37 a240
000000a0: ce64 b83f 2492 0c40 909d b93f 0786 bcbf
000000b0: 365f e8bc 7114 443f 4ee0 babf caeb 2fc0
000000c0: d14f d7bf 059f 1abf 5a80 72c0 b71e 81c0
000000d0: 87aa 29bf 865d 873f 39ca 5840 2c89 5fc0
000000e0: 649c 05bf 948f 293e 0bf0 debf c1e1 f6bf
000000f0: 318a 31bd e0cf 4c3f 1ede b6bf 0096 37c0
00000100: 8aae 0640 276b 2b40 2c23 a23f 31b9 00c0
00000110: d2e2 ea3e 5f5e 983f 1186 8bbe 3fb6 02c0
00000120: 0243 39c0 faf9 3d40 c149 3640 39d7 1dc0
00000130: 8600 1840 e7c0 0440 9c71 04c0 d29d 2bc0
00000140: 38d0 c8be bc61 823e e6ca 843f 0c2d 85bf
00000150: 4900 943f 029a c03f b882 93c0 6fe8 9bc0
00000160: 860e 7bbd 80da 463f 58aa c0bf 7767 33c0
00000170: 6742 53bf 2542 903e 15a5 a740 bc41 28c0
00000180: 6b4a 2e3f 2eb8 de3f 2168 9c3f b2ec f7bf
00000190: da84 3f3d 429c b03f 4e98 d83e a087 29c0
000001a0: 6ae3 db3f 4255 973e 1ba5 f5bf 9f3a 8940
000001b0: 666a 8e3f ffe9 bc3d 4828 dd3f 8ce3 0840
000001c0: ad9c 58bf 2ae5 53be 38d4 4440 7fa3 3a40
000001d0: 19de a33f a652 b8bf 6b19 83c0 d771 3740
000001e0: 36f8 95bf 639a 7f3f f687 c03f 8333 bcbf
000001f0: a864 bc3d b77a 823f 0d14 70bf 0f8a 36c0

feature_net.linear_layer_0.bias f4 [32]
1.8427064 1.8837538 3.519538 3.1259031 1.7489111 1.888282 1.8482757 -0.47453785
1.8906776 0.8689912 1.6906857 1.8785034 1.8672026 -2.2505305 1.7910167 1.8782504
1.873267 1.7545923 1.3286973 3.6673303 4.492652 -1.1793053 1.8819635 -0.51261616
1.7139759 1.9064153 0.13914761 3.115439 -2.1621373 -1.2390532 2.4262228 1.8726159
00000000: cedd eb3f d81e f13f 1c40 6140 cc0e 4840
00000010: 52dc df3f 39b3 f13f 4c94 ec3f a0f6 f2be
00000020: b901 f23f 3576 5e3f 6468 d83f cd72 f03f
00000030: 7f00 ef3f b108 10c0 0940 e53f 826a f03f
00000040: 37c7 ef3f 7b96 e03f c112 aa3f 8ab5 6a40
00000050: cec3 8f40 7af3 96bf 2ee4 f03f d03a 03bf
00000060: 9063 db3f 6b05 f43f b67c 0e3e 5a63 4740
00000070: 7560 0ac0 4c99 9ebf 3c47 1b40 e1b1 ef3f

feature_net.layer_norm_0.weight f4 [32]
0.56719536 0.4884173 2.8052623 2.177358 0.4487176 0.7277048 0.12174297 6.5237794
0.41232595 4.6993294 0.42566547 0.15726328 -0.16388535 8.137141 1.0898182 0.40490216
0.16422063 0.34862044 2.4498594 2.3476818 2.9816926 5.531572 0.37123147 2.780762
0.4993309 0.40969738 0.68219066 2.6583235 9.488488 5.8766527 1.0138868 0.64296484
00000000: b733 113f d511 fa3e 6b89 3340 d559 0b40
00000010: 50be e53e dd4a 3a3f 6154 f93d cdc2 d040
00000020: 631c d33e e860 9640 d3f0 d93e a009 213e
00000030: 90d1 27be bb31 0241 2a7f 8b3f 564f cf3e
00000040: 7429 283e 617e b23e 7fca 1c40 6b40 1640
00000050: 0dd4 3e40 a302 b140 0d12 be3e 01f8 3140
00000060: 4da8 ff3e dbc3 d13e 0ca4 2e3f f921 2a40
00000070: d9d0 1741 8a0d bc40 0bc7 813f 5899 243f

feature_net.layer_norm_0.bias f4 [32]
-0.68602926 -0.6936945 1.6358165 0.07397503 -0.8538821 -0.9590546 -0.2451385 3.0540695
-0.72929037 3.6600807 -0.9897212 -0.26077506 -0.43392074 0.7418427 -1.2515022 -0.6021595
-0.5910373 -0.5286848 1.0001593 0.78355914 -0.2546273 2.6836874 -0.58181643 2.1722624
-0.8615651 -0.78695196 -1.3591839 -0.23390874 0.657681 2.2679043 -0.6296441 -0.8559861
00000000: 9d9f 2fbf f695 31bf 6f62 d13f 3880 973d
00000010: 0498 5abf 9a84 75bf 9605 7bbe e075 4340
00000020: c6b2 3abf c33e 6a40 5e5e 7dbf 4f84 85be
00000030: dc2a debe 67e9 3d3f 3931 a0bf 2027 1abf
00000040: 384e 17bf e357 07bf 3805 803f 5597 483f
00000050: 825e 82be 89c1 2b40 ecf1 14bf 5906 0b40
00000060: 888f 5cbf af75 49bf bdf9 adbf c685 6fbe
00000070: c85d 283f 5825 1140 5b30 21bf e821 5bbf

feature_net.linear_layer_1.weight f4 [32, 32]
-0.10785284 0.78202266 12.920771 13.612725 0.680635 -0.9253183 6.6059413 6.912095
-0.8697667 6.064643 -1.8055993 -0.021590222 4.2337217 0.70348865 -3.4585152 0.9996692
1.2383533 1.230545 3.311905 10.514429 14.12463 -0.7985292 0.48302907 -2.4727454
-1.6046361 2.703705 9.293136 14.443253 -1.1680254 4.349136 14.466864 2.8836637
0.12804505 0.20780063 6.1150675 4.167746 -1.9674379 0.6579674 0.230887 -1.3133751
0.15711576 1.4631231 0.955663 0.9238043 2.144565 1.6200088 0.8452096 0.32793167
1.4143063 1.4796093 2.8959575 0.95050204 2.1234581 -3.1163492 0.17404649 -3.6992302
0.6692148 1.7403679 2.3891113 -0.6933868 3.7397847 1.1090347 3.0083983 -0.9475807
0.12773363 -0.0036287038 2.5764763 -1.6336497 -0.1723716 0.4759778 0.7415331 -2.3365757
0.42911062 -1.3698555 -1.9186455 -0.23255445 -0.24271555 1.062459 0.38975367 0.34925523
0.88854814 -0.052441146 0.1743649 6.5332456 2.9614873 3.2636793 -0.1684183 -1.9738553
-0.67798257 1.5555815 -0.07614538 0.5477732 -6.0318723 -1.6518412 4.121167 1.0454367
0.2557355 0.2965945 10.241244 11.888643 -0.24391362 -0.30327022 4.1060724 6.993918
0.414132 5.3660116 -0.84330225 0.5278324 4.0089765 1.1880995 -1.6320542 0.6972349
1.7213302 0.8131244 4.608133 9.305718 12.092898 0.47864175 -0.15977265 -0.8583
-1.827665 2.7794986 6.5267863 11.713457 -1.392926 2.2853796 12.078681 1.0247062
0.55318224 0.4164387 0.29865935 -0.93570703 0.9756842 0.79378855 0.62604314 2.5769665
0.305264 0.8477242 -2.0032606 0.2941358 1.3596131 2.2313383 0.45123592 1.4307572
-0.6819463 0.5869066 1.2013146 -4.3008575 -1.4656422 0.49018127 0.39466208 1.287429
1.430352 2.1059892 0.63625336 -1.5510361 5.336148 1.5240527 -0.27256247 1.8102722
0.43550324 -0.48168796 -0.5911796 1.0682575 0.29076216 0.5165075 0.38156992 -3.9076104
-0.099131934 2.1141071 0.42191336 0.39706117 -0.09696679 -0.6331569 0.9239056 -0.44025674
1.0516713 0.06694838 1.0322782 2.3508193 2.4890473 5.6501403 0.21973349 3.3358676
0.590781 1.0008733 1.4301492 -2.3888798 -1.0510747 -1.6542703 0.5514794 0.32527924
-0.06330206 0.073463164 1.6464064 2.9980474 -1.0787795 1.3725829 0.76656115 -0.9943673
-0.07328584 -9.986398 1.514192 0.07491082 1.044197 3.8733523 0.68217874 0.42573702
1.1253427 2.590289 1.4326087 3.5835474 4.129752 -1.1563797 -0.0035177134 -0.22407939
2.7304077 1.8853624 -3.7287629 3.6393523 -0.6946547 1.0837326 2.4529536 -0.6075835
1.1650157 0.42125174 -1.0145117 0.26519114 0.977985 1.2041401 1.2333821 0.19770499
0.20428991 -0.05130032 -0.9796897 0.14769077 2.270546 1.9727665 -0.17240883 -0.011818914
1.1574101 0.61067694 7.0381775 1.059765 -0.32746565 -2.5257635 0.16678812 3.112457
0.4342277 2.4003172 -3.6369479 -5.780612 1.7417796 -2.771495 -0.98505676 0.7330276
00000000: f3e1 dcbd a332 483f 7abb 4e41 b9cd 5941
00000010: 183e 2e3f a9e1 6cbf df63 d340 e22f dd40
00000020: 08a9 5ebf 8e11 c240 e11d e7bf fadd b0bc
00000030: a67a 8740 d517 343f 5058 5dc0 52ea 7f3f
00000040: 5c82 9e3f 8082 9d3f 40f6 5340 1a3b 2841
00000050: 7cfe 6141 696c 4cbf 964f f73e 7641 1ec0
00000060: b764 cdbf 8109 2d40 afb0 1441 9017 6741
00000070: db81 95bf 1f2c 8b40 4678 6741 f28d 3840
00000080: 3e1e 033e b0c9 543e a2ae c340 2d5e 8540
00000090: 01d5 fbbf 8d70 283f a46d 6c3e ad1c a8bf
000000a0: f4e2 203e 9e47 bb3f 55a6 743f 707e 6c3f
000000b0: 8e40 0940 735c cf3f a85f 583f a9e6 a73e
000000c0: fd07 b53f d663 bd3f 5e57 3940 1a54 733f
000000d0: bde6 0740 4472 47c0 3e39 323e 30c0 6cc0
000000e0: a951 2b3f 60c4 de3f 33e7 1840 cc81 31bf
000000f0: a258 6f40 d9f4 8d3f 9989 4040 a694 72bf
00000100: 9bcc 023e 8ccf 6dbb fde4 2440 6f1b d1bf
00000110: 2e82 30be 5db3 f33e 1dd5 3d3f 758a 15c0
00000120: 63b4 db3e 6d57 afbf 2d96 f5bf c122 6ebe
00000130: 6d8a 78be a8fe 873f cb8d c73e 95d1 b23e
00000140: e477 633f 87cc 56bd b68c 323e 5910 d140
00000150: 0289 3d40 1fe0 5040 d975 2cbe 4aa7 fcbf
00000160: 4490 2dbf 4b1d c73f 1cf2 9bbd dd3a 0c3f
00000170: 1905 c1c0 886f d3bf 9ae0 8340 dfd0 853f
00000180: c3ef 823e 3cdb 973e 23dc 2341 e237 3e41
00000190: 7ec4 79be 3c46 9bbe f264 8340 2dce df40
000001a0: 1c09 d43e 5eb6 ab40 a8e2 57bf 0620 073f
000001b0: 8949 8040 a513 983f 27e7 d0bf fd7d 323f
000001c0: 8c54 dc3f ec28 503f d375 9340 39e4 1441
000001d0: 837c 4141 8810 f53e 719b 23be 8cb9 5bbf
000001e0: edf0 e9bf 4ee3 3140 6fdb d040 526a 3b41
000001f0: 664b b2bf a943 1240 4742 4141 9329 833f
00000200: 5a9d 0d3f 7437 d53e e1e9 983e 7f8a 6fbf
00000210: 71c6 793f ba35 4b3f 5d44 203f 05ed 2440
00000220: 904b 9c3e 7404 593f 6c35 00c0 f898 963e
00000230: cd07 ae3f 3fce 0e40 6508 e73e 0d23 b73f
00000240: 0894 2ebf 833f 163f adc4 993f a0a0 89c0
00000250: 2a9a bbbf 0af9 fa3e 2611 ca3e 79ca a43f
00000260: c615 b73f 87c8 0640 80e1 223f 5a88 c6bf
00000270: b9c1 aa40 2914 c33f 4f8d 8bbe 00b7 e73f
00000280: 48fa de3e ce9f f6be 8c57 17bf a9bc 883f
00000290: c7de 943e d639 043f 225d c33e 4a16 7ac0
000002a0: af05 cbbd 884d 0740 0705 d83e 9a4b cb3e
000002b0: 8696 c6bd 9216 22bf 1485 6c3f 5569 e1be
000002c0: 2a9d 863f 3b1c 893d b121 843f d373 1640
000002d0: 8d4c 1f40 f3cd b440 d101 613e db7e 5540
000002e0: 6c3d 173f 9e1c 803f 210f b73f 68e3 18c0
000002f0: 9e89 86bf 21bf d3bf c12d 0d3f 008b a63e
00000300: 83a4 81bd db73 963d 72bd d23f 02e0 3f40
00000310: 7215 8abf ccb0 af3f 5a3d 443f db8e 7ebf
00000320: e316 96bd 49c8 1fc1 0bd1 c13f d86a 993d
00000330: 3fa8 853f 01e5 7740 44a3 2e3f 34fa d93e
00000340: 3b0b 903f 4cc7 2540 b95f b73f d758 6540
00000350: ee26 8440 4004 94bf 7089 66bb 1175 65be
00000360: 00bf 2e40 8e53 f13f 0da4 6ec0 26eb 6840
00000370: e4d4 31bf c0b7 8a3f 31fd 1c40 988a 1bbf
00000380: 3c1f 953f 4fae d73e 85db 81bf 22c7 873e
00000390: 3a5d 7a3f 4321 9a3f 77df 9d3f 2d73 4a3e
000003a0: 6031 513e 4920 52bd f2cc 7abf 403c 173e
000003b0: a050 1140 9d83 fc3f f18b 30be 1ea4 41bc
000003c0: 0426 943f 5355 1c3f c038 e140 61a6 873f
000003d0: 94a9 a7be 1ca6 21c0 81ca 2a3e 7f32 4740
000003e0: 1853 de3e cc9e 1940 c1c3 68c0 c6fa b8c0
000003f0: a2f2 de3f 2d60 31c0 ae2c 7cbf b2a7 3b3f

feature_net.linear_layer_1.bias f4 [32]
9.334173 0.54780847 2.970783 7.8936186 1.2650555 4.032173 2.666889 1.3466607
8.328557 0.07626331 0.48877108 -0.03163703 1.5364624 0.089251935 2.1039946 6.5574174
0.38846466 0.57306117 -0.75328845 0.3553236 0.19440854 4.9204726 7.4309793 3.5120394
2.9697366 -1.0432329 -2.4267597 0.9624349 3.2685857 1.2934325 0.38265458 4.670046
00000000: c658 1541 2d3d 0c3f 4f21 3e40 8698 fc40
00000010: 57ed a13f 9007 8140 4fae 2a40 615f ac3f
00000020: c541 0541 f02f 9c3d 3440 fa3e d595 01bd
00000030: cdaa c43f b8c9 b63d d9a7 0640 5dd6 d140
00000040: d7e4 c63e 23b4 123f 83d7 40bf faec b53e
00000050: 0813 473e 8374 9d40 95ca ed40 41c5 6040
00000060: 2a10 3e40 a888 85bf 0850 1bc0 2262 763f
00000070: 8230 5140 328f a53f 4deb c33e 0471 9540

feature_net.layer_norm_1.weight f4 [32]
0.19455644 1.1905003 2.9146872 0.25135973 6.5948563 3.4702582 4.559306 3.622335
0.22663867 2.52385 2.7262254 5.2204704 3.1599574 4.076352 1.4017893 0.46259457
5.8219247 6.3214355 3.2900367 5.4051204 4.8329487 -0.36746743 0.26620203 0.8186497
4.2906656 2.517034 1.8215326 3.826324 2.195033 3.0832217 3.5273588 0.8620836
00000000: ce39 473e 5062 983f 3c8a 3a40 39b2 803e
00000010: 1009 d340 b618 5e40 d6e5 9140 56d4 6740
00000020: f813 683e c286 2140 7a7a 2e40 180e a740
00000030: be3c 4a40 7a71 8240 d56d b33f 32d9 ec3e
00000040: 354d ba40 3349 ca40 f68f 5240 bff6 ac40
00000050: 84a7 9a40 b124 bcbe a24b 883e 0793 513f
00000060: 224d 8940 1617 2140 fb27 e93f 7ee2 7440
00000070: 6c7b 0c40 8153 4540 3fc0 6140 83b1 5c3f

feature_net.layer_norm_1.bias f4 [32]
-0.85587883 0.75490147 2.015651 -0.5728638 0.42452884 1.7047784 2.6790507 -1.0532005
-0.8228221 1.0809029 1.2472434 0.47016054 1.195526 1.9787741 -0.93471795 -1.0289911
2.0667355 0.40374684 0.6393424 0.625475 1.486262 -0.26844022 -0.72683465 -0.98117983
0.88441396 1.2095363 1.2665244 0.21613632 0.84486973 1.1461297 -0.21409255 -1.5318469
00000000: e01a 5bbf 3941 413f 6d00 0140 34a7 12bf
00000010: d85b d93e 2e36 da3f 9175 2b40 46cf 86bf
00000020: 78a4 52bf 075b 8a3f aca5 9f3f e2b8 f03e
00000030: ff06 993f 7848 fd3f ad49 6fbf fbb5 83bf
00000040: 6545 0440 e8b7 ce3e f2ab 233f 211f 203f
00000050: d53d be3f ff70 89be d611 3abf 9a2e 7bbf
00000060: f468 623f 16d2 9a3f 791d a23f d752 5d3e
00000070: 6249 583f 61b4 923f 143b 5bbe 8f13 c4bf

feature_net.linear_layer_output.weight f4 [5, 32]
-0.39210802 2.9444852 -2.1867266 -0.19777957 -2.0631475 -0.96174484 -0.2446338 0.59647554
0.08840011 1.6131908 2.1644175 -0.46664414 -0.35761377 0.9699121 0.009052324 -1.1096308
1.7155514 -0.15332186 -3.8119009 1.5059122 -1.8852713 3.23464 -1.5766933 -1.699181
0.5741344 -1.0984074 1.1136216 1.6337112 -1.4120569 -0.35740128 -0.7976058 -1.564224
0.17011853 1.0497988 -1.9331354 -0.23258574 8.262557 -2.2333825 3.8403726 0.013225507
0.56089514 -2.1167154 -0.56336516 5.2192984 2.7568512 2.2391825 3.6948836 0.8283292
0.37926942 -3.9117565 -0.9779711 1.6543312 -4.28343 -0.70411927 -0.17276646 0.10395246
-1.2105742 0.1975997 -1.1399175 -0.8320131 0.2868038 3.1888204 0.60881066 -0.76880825
-0.43021032 1.2425624 1.0377129 -0.5603408 -2.9913561 -0.71324795 -1.0148861 -3.775985
0.54394954 -2.9827218 2.845038 -0.03863798 0.16083175 2.819279 -0.97390807 -1.1348534
-1.187148 2.0240834 5.466256 3.3711236 3.4352486 0.67349434 0.46232235 -0.28720972
-3.0316813 -0.94590944 0.2578442 1.5173628 0.28321275 -6.0371594 4.1754856 0.16370954
-0.18179211 1.5030214 -1.7184196 0.062956534 3.718729 -2.2084618 -1.6813278 1.7241315
-0.22097921 2.3705616 0.5409438 -3.1793504 -2.5265172 -2.923023 0.023479875 -0.29942763
1.3733832 0.15129237 1.3840028 3.792641 -3.3191233 0.85977095 0.19618367 1.6657904
-2.4110494 3.5350518 3.910887 1.7912822 -4.274648 -1.4632659 -1.4434491 -1.7081337
0.01113942 -0.04870896 1.1982113 -0.003587912 0.15954024 4.2695527 3.582549 0.8046486
0.08869142 1.7398616 0.3634127 4.821663 -3.3432229 1.893351 0.44891432 -0.2444402
-1.715568 -1.0159442 0.16869885 -2.1451633 -3.4272676 0.1407647 0.4963805 0.14950572
0.6838294 -2.348595 -2.4941192 0.18783306 1.0820509 3.2300892 0.5595183 1.5753343
00000000: 62c2 c8be 7272 3c40 54f3 0bc0 ba86 4abe
00000010: 9c0a 04c0 e934 76bf 4881 7abe 9fb2 183f
00000020: 1e0b b53d 097d ce3f d185 0a40 fbeb eebe
00000030: 2719 b7be 294c 783f 3350 143c 6208 8ebf
00000040: 3097 db3f 6800 1dbe 2ff6 73c0 bbc1 c03f
00000050: 9250 f1bf 5704 4f40 16d1 c9bf c37e d9bf
00000060: 79fa 123f 9d98 8cbf 278b 8e3f 731d d13f
00000070: 48be b4bf 4dfd b6be e52f 4cbf 7e38 c8bf
00000080: 8d33 2e3e cf5f 863f fb70 f7bf f52a 6ebe
00000090: 6f33 0441 bdef 0ec0 aac8 7540 ccaf 583c
000000a0: d396 0f3f 4478 07c0 b338 10bf 7e04 a740
000000b0: 4070 3040 c44e 0f40 f978 6c40 620d 543f
000000c0: 9a2f c23e 385a 7ac0 505c 7abf 20c1 d33f
000000d0: dc11 89c0 2941 34bf b1e9 30be 07e5 d43d
000000e0: 18f4 9abf 9357 4a3e d1e8 91bf cffe 54bf
000000f0: f3d7 923e a215 4c40 04db 1b3f 9ed0 44bf
00000100: 8744 dcbe 490c 9f3f c7d3 843f 7f72 0fbf
00000110: 6172 3fc0 6b97 36bf cae7 81bf bda9 71c0
00000120: 4740 0b3f eae4 3ec0 1a15 3640 dc42 1ebd
00000130: 14b1 243e 116f 3440 0a52 79bf e042 91bf
00000140: 77f4 97bf 958a 0140 92eb ae40 7dc0 5740
00000150: 1ddb 5b40 206a 2c3f 84b5 ec3e 270d 93be
00000160: 1107 42c0 1f27 72bf 2804 843e f238 c23f
00000170: 4301 913e 6930 c1c0 949d 8540 79a3 273e
00000180: b627 3abe 0163 c03f 2cf5 dbbf 5bef 803d
00000190: a8ff 6d40 7057 0dc0 c035 d7bf 57b0 dc3f
000001a0: 6048 62be 48b7 1740 4b7b 0a3f 7a7a 4bc0
000001b0: 75b2 21c0 cf12 3bc0 de58 c03c 944e 99be
000001c0: 05cb af3f 63ec 1a3e 0127 b13f a1ba 7240
000001d0: 846c 54c0 f319 5c3f 5fe4 483e 9f38 d53f
000001e0: a24e 1ac0 4a3e 6240 f94b 7a40 bc48 e53f
000001f0: ebc9 88c0 4c4c bbbf f1c2 b8bf 20a4 dabf
00000200: 1d82 363c 0c83 47bd fd5e 993f 2d23 6bbb
00000210: 845e 233e 2da0 8840 7c48 6540 73fd 4d3f
00000220: d9a3 b53d c9b3 de3f 3b11 ba3e 104b 9a40
00000230: 5df7 55c0 5359 f23f 19d8 e53e 884e 7abe
00000240: bb97 dbbf 760a 82bf 64bf 2c3e 5b4a 09c0
00000250: 5a58 5bc0 9f24 103e 9625 fe3e 0718 193e
00000260: 720f 2f3f 614f 16c0 a69f 1fc0 4f57 403e
00000270: a580 8a3f c8b9 4e40 973c 0f3f 8ea4 c93f

feature_net.linear_layer_output.bias f4 [5]
1.236028 0.38763326 -0.8937123 1.207552 -0.17592078
00000000: 2a36 9e3f de77 c63e 54ca 64bf 1091 9a3f
00000010: 9424 34be

feature_net.linear_layer_0.weight f4 [32, 9]
-1.5253115 0.870403 3.1333916 -5.251843 0.913676 0.76632416 1.153318 1.3505394
1.1233529 -0.22503906 0.33078137 -1.8890388 -1.2243996 1.8317152 1.510439 0.68368775
2.1501827 0.7101138 -1.1104105 1.0246471 2.2477748 -2.2463503 1.1268767 0.9387441
0.9607405 1.7360692 0.5036289 -0.5622488 -0.22411545 0.09288892 1.3172016 1.0316839
0.7797906 0.5846635 1.126345 1.3267539 -0.118678465 1.2353634 -0.42753965 -2.4945235
1.306622 0.67922205 0.5874467 1.4705219 0.4954219 -0.5299244 -0.15982908 -1.0001537
1.383794 1.1048574 1.361405 0.8147416 1.3715453 1.1651547 -2.08239 -0.5148196
4.424621 2.735429 1.1827661 0.51165205 1.4984643 1.1963254 1.4297887 -0.44564593
-1.2096807 -3.0650795 5.697934 0.9279273 0.3472189 0.9569524 0.8959093 1.062153
-1.4064448 -0.839949 0.6047434 1.3669504 1.0125118 1.1950734 0.38289893 1.2304926
0.52172846 -0.6195834 -1.2893897 -2.7165475 5.5042243 0.73559624 0.32789147 1.1190814
0.7157091 1.2955157 -1.487452 0.8305111 2.159436 -2.7116702 1.8797823 0.3198392
1.9748209 1.7450595 1.127121 -0.62186027 0.10698555 0.38287228 0.3267042 1.2924469
0.74963146 0.5664348 1.4409245 0.91758233 -0.46421704 -0.9647846 -0.55226344 4.0183043
0.618025 0.80342203 0.7030629 0.88424927 1.6957037 -1.0142808 1.2120097 3.0971067
-3.0039072 0.9763356 1.2873898 0.74435234 1.6695144 0.66349965 -0.5998652 0.04267691
0.33752054 0.6758189 1.0641003 0.712333 0.64629024 1.3785679 1.1480702 -0.26257718
-1.066698 -2.1571605 5.1431036 0.96423966 0.5893792 0.69004244 1.0328472 1.2628112
-0.20389105 -0.46074 -3.604609 4.143141 1.1135336 1.6708626 0.77525765 1.3563508
1.3749709 -1.1351744 0.90725124 1.9738641 -1.9477415 1.1615747 0.99615675 0.8933018
1.6948242 0.34786358 -1.6193743 -0.9633558 4.362793 4.633703 1.0048089 0.8713292
1.2836745 1.0527722 1.3324206 -1.0647546 1.155476 4.1616144 -4.675036 0.9902898
1.4503378 0.8139171 1.4507426 0.86691856 -0.20134582 -0.19602317 1.1511846 3.6669712
1.6209333 1.712828 -0.2865064 1.524217 0.02552005 -0.75029135 -0.16458875 1.2413687
0.26454157 1.1259985 1.2036184 0.72947484 1.4148383 1.1057534 -1.7330874 0.49522212
1.598021 -0.36739028 1.4749273 1.1674392 2.5032516 2.135728 1.0274757 -1.127684
1.0361454 0.34384295 0.029337984 0.5036722 -0.21729384 0.8048591 1.5288363 0.11604989
-1.9488499 -0.4548543 4.542805 2.2357275 1.0343766 0.516552 1.448484 1.2813169
1.1582426 -0.37118173 -1.0440377 -1.0850122 3.704764 0.952521 1.1142298 0.34184182
0.9835347 1.1454822 0.079801425 0.5945075 -3.6813753 -2.5774715 1.1324121 1.417957
0.6648708 1.4565493 0.77410233 -1.8589191 0.44206205 3.4705944 -6.1734624 0.9182454
0.8356219 1.1797816 1.0829706 1.3577878 -1.1930932 0.7876601 2.6209815 -3.6377375
00000000: 683d c3bf bbd2 5e3f 7d89 4840 190f a8c0
00000010: ace6 693f d22d 443f ed9f 933f 7ade ac3f
00000020: 07ca 8f3f a470 66be 2d5c a93e 06cc f1bf
00000030: 20b9 9cbf a575 ea3f 1156 c13f 2906 2f3f
00000040: 989c 0940 05ca 353f ee21 8ebf a327 833f
00000050: 8bdb 0f40 34c4 0fc0 7f3d 903f 8951 703f
00000060: 17f3 753f 8437 de3f d3ed 003f 8aef 0fbf
00000070: 857e 65be 8c3c be3d 109a a83f 380e 843f
00000080: 5ba0 473f 82ac 153f 132c 903f 12d3 a93f
00000090: b20d f3bd 6320 9e3f 7ae6 dabe 46a6 1fc0
000000a0: 643f a73f 7fe1 2d3f e862 163f 103a bc3f
000000b0: f0a7 fd3e 20a9 07bf 3caa 23be 0905 80bf
000000c0: 2920 b13f f86b 8d3f 8542 ae3f e892 503f
000000d0: cc8e af3f ca23 953f e145 05c0 38cb 03bf
000000e0: 7f96 8d40 4511 2f40 e164 973f a1fb 023f
000000f0: aecd bf3f 3121 993f 5103 b73f b42b e4be
00000100: d1d6 9abf 432a 44c0 7a55 b640 a58c 6d3f
00000110: adc6 b13e d5fa 743f 505a 653f a1f4 873f
00000120: 6206 b4bf e606 57bf 77d0 1a3f 3bf8 ae3f
00000130: fd99 813f 2af8 983f 540b c43e c880 9d3f
00000140: ff8f 053f 059d 1ebf b90a a5bf eadb 2dc0
00000150: 9b22 b040 0950 3c3f 64e1 a73e 0f3e 8f3f
00000160: b638 373f 75d3 a53f d464 bebf 609c 543f
00000170: 3334 0a40 018c 2dc0 b59c f03f f7c1 a33e
00000180: eec6 fc3f 1c5e df3f 8045 903f 3c32 1fbf
00000190: 3d1b db3d d607 c43e c645 a73e e66e a53f
000001a0: d9e7 3f3f df01 113f 3770 b83f ade6 6a3f
000001b0: dbad edbe 20fc 76bf 2361 0dbf f395 8040
000001c0: e336 1e3f 11ad 4d3f eefb 333f 295e 623f
000001d0: d20c d93f f4d3 81bf 2223 9b3f ff36 4640
000001e0: 0440 40c0 21f1 793f 30c9 a43f e08d 3e3f
000001f0: a6b2 d53f 1ddb 293f c490 19bf fccd 2e3d
00000200: 7ecf ac3e 7802 2d3f 7034 883f 755b 363f
00000210: 4773 253f ea74 b03f f7f3 923f 8470 86be
00000220: 8f89 88bf eb0e 0ac0 4e94 a440 69d8 763f
00000230: 8ee1 163f 9fa6 303f 5634 843f cca3 a13f
00000240: d1c8 50be 1de6 ebbe eab1 66c0 9c94 8440
00000250: 4588 8e3f d3de d53f 4977 463f e79c ad3f
00000260: 0cff af3f 654d 91bf 9e41 683f 94a7 fc3f
00000270: 984f f9bf 7bae 943f 2104 7f3f 6daf 643f
00000280: 00f0 d83f 2d1b b23e a847 cfbf 7c9e 76bf
00000290: 009c 8b40 4c47 9440 949d 803f 6e0f 5f3f
000002a0: 724f a43f 3dc1 863f c28c aa3f e149 88bf
000002b0: a3e6 933f f22b 8540 e599 95c0 a283 7d3f
000002c0: aba4 b93f df5c 503f efb1 b93f 60ee 5d3f
000002d0: 992d 4ebe 4cba 48be 045a 933f a8af 6a40
000002e0: be7a cf3f f33d db3f f8b0 92be 8b19 c33f
000002f0: 6d0f d13c 1813 40bf f489 28be 2be5 9e3f
00000300: fe71 873e b820 903f 2b10 9a3f ddbe 3a3f
00000310: 6c19 b53f 5489 8d3f cfd5 ddbf c18d fd3e
00000320: f48b cc3f 941a bcbe 6bca bc3f a66e 953f
00000330: 4635 2040 c4af 0840 5384 833f f357 90bf
00000340: 6aa0 843f 2f0c b03e 3656 f03c a9f0 003f
00000350: 4782 5ebe 3f0b 4e3f e8b0 c33f 91ab ed3d
00000360: ea73 f9bf aae2 e8be a95e 9140 2916 0f40
00000370: 7466 843f c03c 043f ec67 b93f 3102 a43f
00000380: 4b41 943f 880b bebe 07a3 85bf aee1 8abf
00000390: da1a 6d40 6bd8 733f 159f 8e3f e405 af3e
000003a0: eec8 7b3f 299f 923f ee6e a33d a531 183f
000003b0: a79b 6bc0 4bf5 24c0 e1f2 903f 9d7f b53f
000003c0: f934 2a3f 3570 ba3f 922b 463f 10f1 edbf
000003d0: f555 e23e 381e 5e40 018d c5c0 2112 6b3f
000003e0: 51eb 553f 1503 973f c89e 8a3f fecb ad3f
000003f0: 47b7 98bf 18a4 493f 29be 2740 b1d0 68c0

feature_net.linear_layer_0.bias f4 [32]
2.5215898 0.47852373 2.1958601 1.5681216 2.4417286 7.78424 -2.576255 1.2370286
1.8384442 1.2671324 0.7982384 1.7204071 1.5407138 2.4995797 1.6897099 1.2173529
-2.4036667 2.2024589 -2.197861 2.569871 1.9988067 6.617695 -0.5851407 3.6267169
-2.3806145 1.5407418 -2.0841582 2.39837 -2.2224278 -2.169208 -1.9908402 2.2579176
00000000: ba61 2140 1001 f53e f988 0c40 35b8 c83f
00000010: 4845 1c40 7e18 f940 5de1 24c0 f456 9e3f
00000020: 2452 eb3f 6531 a23f 5a59 4c3f 4d36 dc3f
00000030: 1c36 c53f 1df9 1f40 6a48 d83f 38d2 9b3f
00000040: add5 19c0 16f5 0c40 c1a9 0cc0 c478 2440
00000050: e6d8 ff3f 28c4 d340 c8cb 15bf 211c 6840
00000060: fd5b 18c0 0737 c53f d962 05c0 e57e 1940
00000070: 423c 0ec0 4ed4 0ac0 dad3 febf b981 1040

feature_net.layer_norm_0.weight f4 [32]
0.33528814 1.0769082 0.51501876 0.2426344 0.10988266 4.503809 2.4433346 0.13695893
0.32774508 0.32510266 0.67341197 0.38984585 0.38773313 0.3980668 0.4385036 0.29903257
1.8389263 0.3325702 1.3301998 0.2453505 0.1733085 2.7533727 1.6122714 1.1229934
1.7434465 0.20150077 2.1136417 0.37111902 2.2413614 2.4306307 2.6999056 0.055712454
00000000: e3aa ab3e 21d8 893f 45d8 033f 2775 783e
00000010: 290a e13d 341f 9040 985f 1c40 f63e 0c3e
00000020: 34ce a73e db73 a63e ba64 2c3f e099 c73e
00000030: f584 c63e 69cf cb3e 8b83 e03e cc1a 993e
00000040: f061 eb3f a446 aa3e fd43 aa3f 293d 7b3e
00000050: c977 313e 4237 3040 e95e ce3f 3fbe 8f3f
00000060: 4129 df3f 3856 4e3e e845 0740 5003 be3e
00000070: 7772 0f40 748f 1b40 41cb 2c40 be32 643d

feature_net.layer_norm_0.bias f4 [32]
-0.7448101 -1.4455581 -0.60246044 -0.39767924 -0.26879236 -0.63850296 -0.18254742 -0.64583033
-0.59054166 -0.5800899 -1.2157257 -0.52382874 -0.60286766 -0.62628317 -0.5724517 -0.6744675
2.07374 -0.6863073 0.7783414 -0.5693004 -0.69151556 0.026254086 -1.313286 -0.2584385
0.8282987 -0.30156115 0.8833641 -1.0773721 0.29558948 0.964298 0.92900795 -0.33536264
00000000: e0ab 3ebf 0c08 b9bf d93a 1abf 9d9c cbbe
00000010: 279f 89be ee74 23bf b6ed 3abe 2355 25bf
00000020: bd2d 17bf c680 14bf e69c 9bbf a419 06bf
00000030: 8955 1abf 1854 20bf 328c 12bf e7a9 2cbf
00000040: 28b8 0440 d6b1 2fbf 6241 473f acbd 11bf
00000050: 2a07 31bf cf12 d73c c119 a8bf 0d52 84be
00000060: 620b 543f 3966 9abe 2624 623f 54e7 89bf
00000070: 8157 973e 3cdc 763f 77d3 6d3f a7b4 abbe

feature_net.linear_layer_1.weight f4 [32, 32]
-0.24922872 -0.41938388 -0.22065686 -0.17325333 0.080244265 4.104468 -1.4436328 -0.029364008
-0.2912035 0.24388207 -2.2741325 0.1181005 -0.22320029 0.051927697 -0.20756646 0.40909997
-0.73465335 0.08352222 0.040853146 -0.22275601 0.02430974 3.4987352 -2.8557608 0.6768161
-0.5844639 -0.10832617 -1.1027802 -0.527925 -0.1794919 -0.9738799 -2.227783 0.18291476
0.016255887 2.2702827 -0.7034106 -1.2654877 0.021070106 -1.3169715 2.0988529 0.41590592
0.20610926 0.16582727 2.7757561 -0.24434462 -0.11898369 -0.028876813 -0.35330358 -0.041938048
1.5231224 0.45673025 2.754911 -0.21253243 -0.3100641 -1.6654954 0.72634184 -0.5214041
3.511074 -0.22784851 2.0228214 -1.2656558 0.3953836 1.6385642 3.503638 0.015501173
-0.5403457 1.0070417 -0.7527719 -0.24454391 -0.0050670113 -2.3517036 2.8835206 0.077429354
-0.34042305 -0.4566019 -1.1598761 -0.57055056 0.38744667 0.45178673 0.17333953 0.3075999
1.5928379 0.24559237 2.4932597 -0.08170147 -0.32537735 -1.7722828 -2.8200893 -0.5957406
4.752007 0.08032632 1.6596111 -0.6686076 -0.715833 3.1452148 4.446445 0.60842466
-0.2545618 -1.1912284 0.110953756 -0.5895382 -0.12406526 4.724555 -1.6844677 0.27494368
-0.15155895 0.42650583 -1.3832928 -0.23719966 -0.62102664 0.1581539 0.31875008 -0.14218692
-1.8498526 0.13545497 -1.0032094 -0.087020315 -0.23766075 3.4279494 -1.5262886 0.37054667
-0.7484777 -0.2792749 -1.8337445 -0.4748004 -0.085680254 -2.13164 -3.2862828 0.15670735
0.0013230266 -2.7031252 -0.17128561 -0.30019116 -1.4469376 3.5852475 -1.5095555 0.10321884
-0.35982072 -0.089318946 -0.9073758 0.2069215 -0.38071585 -0.2572706 0.05296893 0.232776
-1.2385528 -0.05825846 0.24866861 0.54661983 0.0040658885 2.53071 0.11866943 1.3425654
-0.5770101 0.019116 -2.9909291 -1.2124596 -0.8191571 -1.4170182 -2.7082877 -0.50308615
-0.13267761 0.19969715 -0.057980075 -0.14530319 0.08473167 3.657822 -1.0971514 0.1117474
0.1853016 0.12805331 -2.1186018 -0.24591227 0.25225946 -0.006585601 0.0671893 -0.4384675
-0.74481523 0.048637398 0.35449228 -0.46617037 -0.53772944 3.2326086 -3.3569794 0.3176457
-0.63275546 0.0036736554 -0.85536754 0.64832145 -0.006938113 -0.78466225 -2.1424575 -0.13710128
0.23224576 -0.11899371 -0.020161008 0.08823466 -0.35215572 4.5452323 -1.2820171 -0.19525251
0.020471571 0.92151666 -2.5969887 -0.117619686 0.011225275 0.010641072 -0.22836585 -0.08645655
-1.3379943 0.44524166 -0.862132 -0.3066876 -0.33033916 3.6140614 -3.4976113 0.3223179
-0.4423354 0.17077275 -0.89172506 0.22240187 -0.25758493 -0.83451164 -1.9537468 0.17058906
-0.13095422 0.41957286 -0.22091247 0.6941766 -0.34629208 -4.612511 -0.06943417 -0.13335253
0.16466887 0.19287777 1.1717008 -0.011080289 -0.56769 0.22227429 0.21662614 -0.16424663
1.930248 -0.069667384 1.1799209 0.18548976 -0.05532641 -0.6443447 1.0735091 1.9520745
0.74730724 0.27279064 -3.4390273 -0.40390784 2.4103475 1.9953722 -0.8125678 -0.28621307
00000000: d035 7fbe 7cb9 d6be dff3 61be 5269 31be
00000010: 1b57 a43d cd57 8340 f6c8 b8bf ca8c f0bc
00000020: a018 95be 39bc 793e 638b 11c0 adde f13d
00000030: 9e8e 64be 23b2 543d 4d8c 54be 8d75 d13e
00000040: 3e12 3cbf b30d ab3d a155 273d 271a 64be
00000050: 3825 c73c 47eb 5f40 c9c4 36c0 d243 2d3f
00000060: 6d9f 15bf 1cda ddbd e727 8dbf 1826 07bf
00000070: bacc 37be 3150 79bf ff93 0ec0 024e 3b3e
00000080: 112b 853c 504c 1140 b812 34bf 80fb a1bf
00000090: 379b ac3c 8692 a8bf 9b53 0640 9ff1 d43e
000000a0: 4e0e 533e a0ce 293e fda5 3140 7a35 7abe
000000b0: b9ad f3bd 118f ecbc 35e4 b4be 3bc7 2bbd
000000c0: adf5 c23f 8cd8 e93e 7650 3040 1aa2 59be
000000d0: b9c0 9ebe f42e d5bf 8af1 393f bd7a 05bf
000000e0: 70b5 6040 1f51 69be e875 0140 0201 a2bf
000000f0: b86f ca3e 79bc d13f 9b3b 6040 a2f8 7d3c
00000100: 1954 0abf bee6 803f a9b5 40bf b869 7abe
00000110: 2c09 a6bb 5082 16c0 9a8b 3840 4893 9e3d
00000120: ee4b aebe b9c7 e9be d276 94bf 9a0f 12bf
00000130: 695f c63e 9750 e73e eb7f 313e bc7d 9d3e
00000140: 1de2 cb3f 917c 7b3e 9191 1f40 1a53 a7bd
00000150: dc97 a6be 2ada e2bf 587c 34c0 7582 18bf
00000160: 7110 9840 2082 a43d 236e d43f de29 2bbf
00000170: d540 37bf 334b 4940 4749 8e40 b8c1 1b3f
00000180: ed55 82be 2c7a 98bf b93b e33d faeb 16bf
00000190: ed15 febd 8e2f 9740 a39c d7bf 6bc5 8c3e
000001a0: 4532 1bbe f95e da3e bd0f b1bf 78e4 72be
000001b0: 9afb 1ebf 19f3 213e 3633 a33e 7399 11be
000001c0: f8c7 ecbf b5b4 0a3e 2a69 80bf b537 b2bd
000001d0: 575d 73be 8663 5b40 6d5d c3bf 4bb8 bd3e
000001e0: 3c9c 3fbf 1ffd 8ebe 24b8 eabf 0a19 f3be
000001f0: 2179 afbd ca6c 08c0 7552 52c0 e477 203e
00000200: 6869 ad3a 0100 2dc0 7f65 2fbe a8b2 99be
00000210: 4035 b9bf b274 6540 1d39 c1bf 6664 d33d
00000220: 6c3a b8be daec b6bd c849 68bf 3be3 533e
00000230: 30ed c2be f9b8 83be f3f5 583d d55c 6e3e
00000240: e688 9ebf 6ca0 6ebd fca2 7e3e 47ef 0b3f
00000250: 253b 853b 27f7 2140 f508 f33d 2fd9 ab3f
00000260: efb6 13bf 2899 9c3c 626b 3fc0 e031 9bbf
00000270: 48b4 51bf da60 b5bf 9654 2dc0 41ca 00bf
00000280: a4dc 07be 697d 4c3e 847c 6dbd 5cca 14be
00000290: cc87 ad3d c119 6a40 756f 8cbf d2db e43d
000002a0: b4bf 3d3e 6820 033e 2c97 07c0 6dd0 7bbe
000002b0: 2728 813e 06cc d7bb 8b9a 893d d07e e0be
000002c0: 36ac 3ebf 0238 473d 0380 b53e e2ad eebe
000002d0: a3a8 09bf 0fe3 4e40 c0d8 56c0 75a2 a23e
000002e0: 43fc 21bf b6c1 703b 5ef9 5abf 65f8 253f
000002f0: 1c59 e3bb a0df 48bf 061e 09c0 4764 0cbe
00000300: d5d1 6d3e f9b2 f3bd b328 a5bc 60b4 b43d
00000310: c14d b4be 8b72 9140 2319 a4bf 46f0 47be
00000320: ffb3 a73c 84e8 6b3f 1035 26c0 97e2 f0bd
00000330: 37ea 373c e457 2e3c bdd8 69be 2210 b1bd
00000340: 6643 abbf b7f6 e33e afb4 5cbf 2806 9dbe
00000350: 3722 a9be c84c 6740 ddd8 5fc0 da06 a53e
00000360: c979 e2be 0ddf 2e3e 1848 64bf 51bd 633e
00000370: 2ce2 83be 8ea2 55bf 6014 fabf e6ae 2e3e
00000380: dd18 06be 41d2 d63e e136 62be 8fb5 313f
00000390: 324d b1be b199 93c0 8133 8ebd 918d 08be
000003a0: f59e 283e c081 453e 4bfa 953f 1a8a 35bc
000003b0: 2254 11bf df9b 633e 3ed3 5d3e 4530 28be
000003c0: 5e12 f73f c6ad 8ebd a607 973f 07f1 3d3e
000003d0: f29d 62bd c6f3 24bf bf68 893f 94dd f93f
000003e0: 874f 3f3f 37ab 8b3e 0619 5cc0 02cd cebe
000003f0: 2243 1a40 5b68 ff3f 7104 50bf 858a 92be

feature_net.linear_layer_1.bias f4 [32]
-2.2358074 -6.584998 -7.7566395 -0.9373667 -0.84337324 -2.979853 -2.2220168 2.0253947
-5.950331 -1.1180061 -0.60451466 -1.1621673 -6.07406 -4.4707627 -0.70524055 -7.1304827
-3.0860765 -1.8151139 -2.7859232 -0.49629697 -1.7895211 1.0622399 -8.259065 -6.1654434
-7.2461505 7.304969 -4.8433433 -0.57069474 -0.50077254 -6.4104557 -0.31443682 -6.300961
00000000: 7817 0fc0 4eb8 d2c0 6436 f8c0 44f7 6fbf
00000010: 4fe7 57bf e9b5 3ec0 8635 0ec0 11a0 0140
00000020: 1d69 bec0 d31a 8fbf 79c1 1abf e6c1 94bf
00000030: b35e c2c0 7d10 8fc0 a58a 34bf ea2c e4c0
00000040: 4782 45c0 a755 e8bf 914c 32c0 a31a febe
00000050: 070f e5bf 7af7 873f 2125 04c1 504b c5c0
00000060: 77e0 e7c0 4ec2 e940 abfc 9ac0 0d19 12bf
00000070: a132 00bf 7422 cdc0 ddfd a0be 79a1 c9c0

feature_net.layer_norm_1.weight f4 [32]
0.3381593 3.0140743 4.4349318 0.3786364 0.28618327 0.4776323 0.13074668 3.0875185
4.6258893 0.4399321 0.26230395 0.27652267 3.4526427 0.5228731 0.38096195 2.3129406
0.5321647 0.46071607 0.18745591 0.37554756 0.41625416 2.785397 0.5480745 3.522812
0.64261055 4.337311 2.5882099 0.10409124 0.4484958 1.1140447 0.32536253 3.115866
00000000: 3723 ad3e 98e6 4040 f6ea 8d40 a1dc c13e
00000010: 9d86 923e 398c f43e 75e2 053e e799 4540
00000020: 4907 9440 c83e e13e b44c 863e 6194 8d3e
00000030: 19f8 5c40 03db 053f 720d c33e 3807 1440
00000040: f23b 083f fae2 eb3e 71f4 3f3e c547 c03e
00000050: 441f d53e f243 3240 9c4e 0c3f c075 6140
00000060: 2082 243f 40cb 8a40 3ba5 2540 ca2d d53d
00000070: 3ea1 e53e 0499 8e3f eb95 a63e 596a 4740
