otk/AgileRL-MATD3/simple_v3/result/20240102-0837/MATD3_trained_agent_0075000.pt (torch, 889934 bytes, 112 tensors)

feature_net.linear_layer_0.weight f4 [32, 4]
00000000: aade 7e40 9197 c53e f868 c6c0 e832 58c0
00000010: 7545 7740 4083 993f 5f33 eec0 26dd a6c0
00000020: 1f3b 5540 8c5e 9fc0 177a 50c0 492a 5d41
00000030: 1d0f 8b3f 1b29 63bf a252 0d41 6beb 02c1
00000040: b472 5f40 d287 c0be acf9 7fbf f1ef 57c0
00000050: 8cb5 8b40 21b6 533f 9c2e 23c1 2249 62c0
00000060: aef1 9440 f687 a33e e9b9 31c1 453b 04c0
00000070: 86e8 fcbe 2624 1ac0 0e69 fd40 752f dc40
00000080: e0fc 7740 9dd7 923f e7f6 ecc0 1230 a3c0
00000090: 483f db3f 90de 4bc0 8071 48c1 efa5 1041
000000a0: f3bd a1bf 1472 9f3f 02d9 4941 7dfb fd40
000000b0: c4a2 7640 5cd4 7a3f baac dec0 1588 93c0
000000c0: 6e78 9f40 4185 3240 a623 90c1 07f3 19c1
000000d0: 7703 c5bd 44e0 0c40 0775 5f40 0002 eac0
000000e0: 055a 8d40 dce0 bdbc f86e 05c1 b5bb aebf
000000f0: b1db 7340 692e 8d3f 0e6e dcc0 d53b a4c0
00000100: 9087 a73e 2448 35bf 49d2 4541 0cc3 9240
00000110: 36f5 4640 1d47 abbf 1962 2140 9aa1 a9bf
00000120: 905a 49c0 1ce4 4340 ca52 5641 b291 62c0
00000130: 6ad4 a640 78b4 9b40 b38e 05c1 e17a 02c1
00000140: 5772 4fc0 1361 25c0 a3d6 4340 a7a4 1bc1
00000150: 194a 5840 eab8 0440 24bf f7c0 bc30 16c1
00000160: 73e4 7540 00a9 923f 52f8 e7c0 ab1d a2c0
00000170: c57b 1ebf fbfd 0b40 79da 0041 01cf a3c0
00000180: 551a 6f3f b13d 80bf cc28 3441 bd97 24bf
00000190: a935 e83f e5b2 a53e 38ea c740 422c c9c0
000001a0: 8290 99bf 54dd a53f 4d26 a1c0 260e c841
000001b0: 782e 0ac0 ffaa 9ec0 c321 4340 79a2 3841
000001c0: 11cc e3be dab5 1ec0 bd08 b340 c672 cb40
000001d0: b9da 7740 51d1 0bc0 3153 91c0 ce0e a540
000001e0: 97fb e5bf c00e aa3f 7583 3641 aca8 95c0
000001f0: 9ff3 6040 c9ab 243f 823c 45c0 aa12 aec0
3.9823403 0.38592198 -6.2003136 -3.378107 3.8636143 1.1993179 -7.443771 -5.2144957
3.3317335 -4.9802914 -3.2574518 13.822824 1.0863987 -0.88734597 8.832674 -8.182475
3.491376 -0.37603623 -0.99990344 -3.3740199 4.3659115 0.8269978 -10.198879 -3.5357137
4.654502 0.31939667 -11.107888 -2.0661175 -0.4939615 -2.4084563 7.919074 6.880793
3.8748093 1.147205 -7.4051394 -5.099618 1.7128687 -3.1854591 -12.52771 9.040511
-1.2636093 1.2456689 12.61548 7.9369493 3.8536844 0.97980285 -6.958585 -4.6103616
4.983451 2.7893832 -18.017406 -9.621833 -0.096198015 2.201188 3.4915178 -7.312744
4.4172387 -0.02317851 -8.339592 -1.3651034 3.810284 1.1029788 -6.8884344 -5.1323037
0.32720613 -0.708132 12.363839 4.5863094 3.1087165 -1.3381077 2.5216124 -1.3252442
-3.1461525 3.0607977 13.395212 -3.5401425 5.2134295 4.86578 -8.347339 -8.155
-3.2413538 -2.58405 3.0599754 -9.727698 3.3795226 2.0737863 -7.7420826 -9.386898
3.8420684 1.1457825 -7.2490625 -5.0661216 -0.6190761 2.1873767 8.053338 -5.119019
0.93399554 -1.0018827 11.25996 -0.64294034 1.8141376 0.32363048 6.247341 -6.2866526
-1.1997225 1.2958169 -5.0359254 25.006908 -2.1590862 -4.9583735 3.0489357 11.539666
-0.44491628 -2.4798493 5.5948167 6.3577604 3.8727248 -2.1846507 -4.541405 5.158057
-1.7967404 1.3285751 11.407094 -4.67684 3.5148695 0.64324623 -3.081818 -5.4397783

feature_net.linear_layer_0.bias f4 [32]
00000000: cbde 0e41 8df0 1041 8afe d340 9f3c f140
00000010: eff4 0841 4354 1341 2924 1341 d5ee d4bf
00000020: b5bf 1041 6248 e940 3633 0541 6a34 1041
00000030: 18a6 1541 2a9d 8e3e eb1f 1141 df76 1041
00000040: 0109 ff40 4572 0441 5dfc 9d40 0011 d940
00000050: a870 be40 bcbc 13c0 e0a7 1041 17df 37bf
00000060: 417c f840 5ae4 0241 c383 1041 a71a e040
00000070: dc06 0fc0 1f70 54c0 1460 0841 6baf 0b41
8.929393 9.058728 6.6248217 7.53865 8.559798 9.208072 9.196328 -1.6635386
9.046803 7.290086 8.325003 9.012796 9.35305 0.27854282 9.070292 9.029021
7.969849 8.277898 4.937056 6.783325 5.951252 -2.3083944 9.040985 -0.71824783
7.7651677 8.18075 9.032168 7.0032535 -2.2347937 -3.3193433 8.523457 8.730327

feature_net.layer_norm_0.weight f4 [32]
00000000: 7133 113f 7311 fa3e 4098 d740 7cfd 5040
00000010: f2bd e53e c24a 3a3f fd53 f93d c470 fe40
00000020: 2d1c d33e 923c 8d40 cc78 c73e 8a09 213e
00000030: 2d04 1dbe 9484 6041 117f 8b3f 394f cf3e
00000040: 5b29 283e 4a7e b23e 3502 0740 5a49 7e40
00000050: f043 3b40 6535 0d41 a711 be3e a27f 9941
00000060: 5a3d e53e c1c3 d13e a471 ba3e 82b0 0d40
00000070: bf0c 0241 cdb5 1b41 fb63 2840 3d99 243f
0.5671912 0.48841438 6.737335 3.2654715 0.4487148 0.7277032 0.121742226 7.9512653
0.41232434 4.413644 0.38959348 0.15726295 -0.15333624 14.032368 1.0898153 0.4049013
0.16422026 0.34861976 2.1095097 3.973227 2.9260216 8.825536 0.37122843 19.18732
0.4477337 0.4096966 0.36414826 2.2138982 8.128112 9.731885 2.6311023 0.64296323

feature_net.layer_norm_0.bias f4 [32]
00000000: c59f 2fbf 2696 31bf b7ab 8440 06a0 b0be
00000010: 5898 5abf e184 75bf ad05 7bbe 4e95 aa40
00000020: c9b2 3abf ea3a e2bf 811f 8bbf 9584 85be
00000030: 7401 e6be 3785 4940 5f31 a0bf 3d27 1abf
00000040: 564e 17bf 2458 07bf d6b2 b23f 4001 1841
00000050: 75d8 5540 2f3e bb40 31f2 14bf e958 9840
00000060: b4da 69bf d875 49bf bf8b d9bf 7e73 9d3f
00000070: 71d3 5140 494f 1041 4a00 49bd eb21 5bbf
-0.68603164 -0.69369733 4.1459613 -0.34497088 -0.8538871 -0.9590588 -0.24513884 5.3307257
-0.72929054 -1.7674229 -1.0868989 -0.26077715 -0.44922984 3.1487558 -1.2515067 -0.6021612
-0.59103906 -0.52868867 1.3960826 9.500305 3.3413365 5.851341 -0.58182055 4.7608533
-0.9134934 -0.7869544 -1.6995772 1.230087 3.2785304 9.019357 -0.04907254 -0.8559863

feature_net.linear_layer_1.weight f4 [32, 32]
00000000: bae1 dcbd e832 483f 48db bd41 b113 8341
00000010: c13d 2e3f fae1 6cbf 8663 d340 ca28 b141
00000020: 5aa9 5ebf 54d2 1841 2289 02c0 16de b0bc
00000030: 0530 8740 a1cf 8fbf 6e58 5dc0 54ea 7f3f
00000040: a382 9e3f b482 9d3f 512c 2c41 9566 9741
00000050: 84bb ce41 9712 0e41 914f f73e 7879 393f
00000060: 1f5d cdbf c709 2d40 45b6 1641 9f4f c141
00000070: b2e6 20bf d8ba 9141 50e4 ac41 358e 3840
00000080: e31d 033e a6c9 543e 2377 ca41 1a84 8c41
00000090: c7d4 fbbf c370 283f 7c6d 6c3e afb9 3a41
000000a0: b6e2 203e 6d31 4141 e5e8 563f 1f7e 6c3f
000000b0: a225 0540 784c 7b40 b35f 583f 9fe6 a73e
000000c0: d307 b53f 1964 bd3f 9493 9e41 fe1d 9541
000000d0: 84f2 b141 c8ea 6e41 6939 323e 4957 fabf
000000e0: 97ef 2a3f 70c4 de3f 1cf9 1040 3104 8a41
000000f0: df2b 5441 0001 6c41 08d3 9741 e194 72bf
00000100: c4cc 023e 4acf 6dbb 71db bf41 9f14 4341
00000110: 5882 30be 3bb3 f33e afd4 3d3f 697d 4d41
00000120: 09b4 db3e b1ba 3541 ad99 06c0 1123 6ebe
00000130: c9e7 6dbe 7f0e 1541 c38d c73e 68d1 b23e
00000140: cb77 633f 28cc 56bd 8eae 8c41 738e b541
00000150: b9a3 a641 ad2e 2941 d775 2cbe 8cb1 6040
00000160: a98c 2cbf 4f1d c73f 4b0d 41be c596 b641
00000170: 3f25 0c41 414f e140 67e1 b541 f2d0 853f
00000180: 0ef0 823e 53db 973e c643 b341 98ee 8441
00000190: adc4 79be 3a46 9bbe e764 8340 4a46 bc41
000001a0: 2909 d43e 3d40 1841 1a15 96bf ec1f 073f
000001b0: 5fd0 7f40 9a6a c43f 13e7 d0bf c77d 323f
000001c0: 8154 dc3f 3d29 503f d098 5a41 ca7f 9641
000001d0: 5d2b c341 cc8b 2d41 8c9b 23be 6f11 7f40
000001e0: 8feb e9bf 95e3 3140 d47f d440 e7d8 c241
000001f0: ef63 dcbe c8a3 7541 df81 ae41 bb29 833f
00000200: f99c 0d3f a237 d53e 2855 c841 dc20 2e41
00000210: 2cc6 793f a035 4b3f 9b44 203f 6f4e 5741
00000220: b44b 9c3e 40b0 2641 b925 09c0 4299 963e
00000230: f88c af3f 5911 c640 7d08 e73e de22 b73f
00000240: eb93 2ebf 6f3f 163f 1e69 a541 cee4 8d41
00000250: 5296 b641 bf32 7441 0111 ca3e 639c 3240
00000260: f7e4 b63f d7c8 0640 f91f 1a3f b2e2 a841
00000270: 5705 7741 84c4 2741 4058 b241 e5b6 e73f
00000280: 68fa de3e f39f f6be 4101 0641 e84f 6c41
00000290: 98de 943e ab39 043f f65c c33e 5097 78bf
000002a0: c205 cbbd 8920 e440 aa9c 03be 804b cb3e
000002b0: a5b5 4bbd 15e3 2440 b784 6c3f 6e69 e1be
000002c0: c59c 863f 6b1c 893d 1154 2641 722f 6941
000002d0: 2438 4c41 d45d 9441 1b02 613e 19e1 ea40
000002e0: dfd2 123f c11c 803f 5ee0 a13f 50c1 b640
000002f0: 50f2 0bc1 911a 3fc1 3b88 cd40 ae8a a63e
00000300: 8da4 81bd 8373 963d 2e38 4a41 3901 9741
00000310: 4015 8abf 8eb0 af3f 073d 443f 02be 5a41
00000320: 8016 96bd 32b1 8141 4263 c53e da6a 993d
00000330: 88da 8b3f def3 b440 e9a2 2e3f 61fa d93e
00000340: 040b 903f 39c7 2540 779d 4c41 1bd6 4341
00000350: 6e71 4441 63a3 6741 5089 66bb e040 4940
00000360: 2814 2f40 ae53 f13f ce42 72c0 007d b141
00000370: 237d fe40 4fdd 3f41 2f9a 7d41 c68a 1bbf
00000380: 961f 953f eaad d73e 5551 b941 0225 3141
00000390: 615d 7a3f 1a21 9a3f 1edf 9d3f 92e1 8f41
000003a0: 8331 513e 2530 4141 6de0 9abf 8d3c 173e
000003b0: 0132 0f40 ac3a 4840 848b 30be c7a3 41bc
000003c0: 4426 943f f354 1c3f 218c c941 2125 9341
000003d0: 8573 b941 749f 7241 c5ca 2a3e dc1b 3c40
000003e0: a4a2 dd3e 179f 1940 1152 6bc0 ad78 9e41
000003f0: 1e3f 1d41 aba5 c240 eca8 9341 daa7 3b3f
-0.107852414 0.78202677 23.73207 16.384615 0.6806298 -0.9253231 6.605899 22.144917
-0.8697716 9.55135 -2.03962 -0.021590274 4.2246118 -1.1235238 -3.4585223 0.9996693
1.2383617 1.2305512 10.760819 18.925089 25.84156 8.879539 0.48302892 0.7245097
-1.6044043 2.7037218 9.419499 24.163877 -0.62852013 18.216232 21.61148 2.8836796
0.1280437 0.20780048 25.308172 17.564503 -1.967431 0.6579706 0.2308864 11.670333
0.15711483 12.074567 0.8394912 0.92379946 2.080422 3.9265423 0.84521025 0.32793137
1.4143013 1.4796172 19.82206 18.639645 22.243416 14.93232 0.17404713 -1.9557887
0.66771835 1.7403698 2.2652044 17.252047 13.260711 14.750244 18.978043 -0.9475842
0.12773424 -0.0036286884 23.98215 12.192534 -0.17237222 0.4759768 0.74152654 12.843118
0.42910793 11.358079 -2.1031296 -0.23255564 -0.2323295 9.316039 0.38975343 0.3492539
0.88854665 -0.052440792 17.585232 22.694555 20.829943 10.573895 -0.16841827 3.5108366
-0.6740213 1.5555819 -0.18852727 22.823618 8.759093 7.0409245 22.73506 1.045439
0.25573772 0.2965952 22.408092 16.6165 -0.24391432 -0.30327016 4.106067 23.53432
0.4141324 9.515683 -1.172519 0.52783084 3.997093 1.5345032 -1.6320518 0.6972317
1.7213289 0.81312925 13.662308 18.812397 24.396173 10.84663 -0.15977305 3.985439
-1.8275012 2.7795155 6.640604 24.35591 -0.43044993 15.352486 21.813414 1.024711
0.55317646 0.41644007 25.04158 10.883022 0.9756801 0.793787 0.62604684 13.456649
0.30526507 10.41803 -2.1429274 0.294138 1.3714895 6.1896176 0.45123664 1.4307516
-0.68194455 0.5869054 20.676327 17.736721 22.823399 15.262389 0.39466098 2.790795
1.4288625 2.1060083 0.60205036 21.110691 15.438804 10.485477 22.29309 1.810269
0.4355042 -0.48168907 8.375306 14.769508 0.29076076 0.51650494 0.3815686 -0.97105885
-0.099132076 7.1289716 -0.12852731 0.3970604 -0.049733777 2.57636 0.92390007 -0.4402575
1.0516592 0.066948734 10.395524 14.574083 12.763706 18.545815 0.2197346 7.3399777
0.57353014 1.0008775 1.2646596 5.7110977 -8.746658 -11.943986 6.4228797 0.3252768
-0.06330214 0.07346251 12.638716 18.875597 -1.0787735 1.3725755 0.7665562 13.671389
-0.0732851 16.211521 0.3855229 0.074910834 1.0926065 5.654769 0.6821733 0.42573836
1.1253362 2.5902846 12.788444 12.239772 12.277693 14.477389 -0.003517706 3.1445847
2.7356052 1.8853662 -3.7853274 22.186035 7.9527755 11.99153 15.8501425 -0.60758626
1.1650264 0.42124873 23.164713 11.071535 0.97798735 1.2041352 1.2333715 17.985142
0.20429043 12.074254 -1.2099739 0.14769192 2.237427 3.128581 -0.17240721 -0.011818833
1.1574178 0.6106712 25.193422 18.39313 23.181406 15.163929 0.16678913 2.9392004
0.43288147 2.400335 -3.676884 19.808924 9.827909 6.082723 18.457481 0.73302996

feature_net.linear_layer_1.bias f4 [32]
00000000: 7550 a141 c94d bb41 c947 b741 2d24 a941
00000010: 35eb d741 d033 7341 8c9c 8d41 0e60 c641
00000020: 7dfc 9d41 534a a641 150f 0d41 4bb1 bb41
00000030: 6f04 7a41 d63c 8941 c9f8 b941 5871 af41
00000040: 99bd 8b40 0584 9641 ae86 3341 bcdf 5841
00000050: f5e2 4941 fef3 b841 de39 b541 9bca c841
00000060: eb27 4941 df17 7941 743f 1d41 9290 8941
00000070: 38f2 4e41 9283 2441 5a89 c141 744c c441
20.164286 23.412981 22.910051 21.142664 26.989847 15.20015 17.701439 24.796902
19.748285 20.786291 8.816182 23.461569 15.626082 17.154705 23.246477 21.930344
4.3668942 18.814463 11.220381 13.554623 12.617909 23.119137 22.653255 25.098928
12.572246 15.568328 9.8279915 17.195591 12.934135 10.282122 24.192066 24.53733

feature_net.layer_norm_1.weight f4 [32]
00000000: 7a39 473e e54d 103f ee43 bebf ebb1 803e
00000010: db20 3a40 61c7 1a40 9d18 af40 e012 4140
00000020: a213 683e 3d81 e23e 0c2f 2440 d370 5b40
00000030: 70cf 4840 54d7 b740 d9c4 683f 75b5 e83e
00000040: 8915 f33f c5f8 f940 4dd4 d93f e2d8 a440
00000050: 5a4c 2940 8224 bcbe 3c4b 883e daaf 423f
00000060: e510 693f dc2a 8440 f35e 1d40 cf39 8640
00000070: c31e 633f 7f17 a23f f459 d53f 45b1 5c3f
0.1945552 0.5636886 -1.486448 0.2513574 2.9082553 2.4184191 5.4717546 3.016777
0.2266374 0.44239226 2.5653715 3.4287612 3.137661 5.745035 0.90925366 0.4545094
1.8990947 7.8116174 1.7017914 5.151475 2.6452851 -0.36746603 0.266199 0.7604958
0.91041404 4.130232 2.4589202 4.1945567 0.88718814 1.266342 1.6668077 0.8620799

feature_net.layer_norm_1.bias f4 [32]
00000000: 2c1b 5bbf 5d9f 4bbf e0ba 5dbe 8aa7 12bf
00000010: 98f5 4cc0 3555 7840 ebbf bf3e 1e77 52c0
00000020: 71a4 52bf b779 22bf 4c7b 8a40 3f81 3ac0
00000030: 5b5b 9040 b540 2f3e 405d cdbf a5be 84bf
00000040: 91b7 fb3f b207 973e b7ce cf3e d54a d83f
00000050: 3601 a13f 4571 89be 2312 3abf cd13 85bf
00000060: dfe7 493f 3aff 8fbe 6191 2040 7a5e a63f
00000070: d332 813e b00e f13f f966 0bc0 8b13 c4bf
-0.85588336 -0.79540044 -0.21653318 -0.57286894 -3.2024899 3.8802006 0.3745111 -3.2885203
-0.8228217 -0.6346697 4.327551 -2.9141386 4.511152 0.17114528 -1.6044083 -1.037068
1.9665395 0.2949806 0.40587398 1.6897837 1.2578495 -0.2684423 -0.72683924 -1.0396668
0.7886943 -0.2812441 2.5088732 1.2997582 0.25234088 1.8832607 -2.17816 -1.5318464

feature_net.linear_layer_output.weight f4 [5, 32]
00000000: f2c1 c8be 8dd4 51be 60d5 4ebf 6c86 4abe
00000010: 7a73 9fc0 ef39 553f f132 9540 d1f3 1d3f
00000020: 1e0b b53d 5099 6040 1514 a23f 75fe 0141
00000030: b362 44c0 9924 9140 50cd 803d 0108 8ebf
00000040: fe11 b140 e097 bc3f 2e6c a4c0 69b8 71c0
00000050: 6854 ec40 a904 4f40 e3d0 c9bf 6ee3 d7bf
00000060: c0ce 84c0 b4f6 433e a826 78be 7bf6 42c0
00000070: c23c a0c0 5c7e 9d40 923b bcbf 5038 c8bf
00000080: ac33 2e3e ff12 17c1 c3ec 393f 052b 6ebe
00000090: 99cb 2d41 f55d 50bf 0d39 1cc0 b425 863f
000000a0: 2797 0f3f 310c 0542 2c1a 89c0 2144 1c40
000000b0: d7a7 2fbf db12 343e 25d9 a540 cc65 543f
000000c0: bc80 ac3e 8ff9 b13f ceb7 11c2 6ab7 fc41
000000d0: 3c09 11c1 d440 34bf 80e9 30be c3e4 d43d
000000e0: 6bdb 10bf b7a4 4ec0 ca9a b8bf 77e7 5740
000000f0: 75d9 6140 9ac0 b641 9a9c a9c0 54d0 44bf
00000100: 4a44 dcbe f678 5f41 ba03 423e a272 0fbf
00000110: 4b0c efc0 b4dc 89bf 94a4 07bd 2940 123f
00000120: 6a40 0b3f d0e8 0cc2 9f5a 9c40 1d92 8640
00000130: 207a cbbe c6e6 d7bf c1b1 86c0 2643 91bf
00000140: 5b77 02bf e0cb a6bf d620 5642 d5ec d4c1
00000150: 136e 8040 b669 2c3f 61b5 ec3e cb0c 93be
00000160: 6d8e 2abd 70b4 47c0 949b 2fbf 30ad c7bc
00000170: 40dd d43f 3a5a 16c2 6990 8240 a1a3 273e
00000180: e027 3abe c002 d03d 1486 84bf 28ef 803d
00000190: 3218 d940 6d22 77c0 01d2 b53e 9f1a 1cbf
000001a0: 3048 62be 189b 8440 0c88 363e 0ba1 eabf
000001b0: 511c e03d 79b7 a0bf d89c cabf c79a 95be
000001c0: b220 2742 041a 2540 cad9 4a3e e11c 9841
000001d0: 6713 87c0 8819 5c3f a2e4 483e 8ce7 cb3f
000001e0: 16c3 793f 1a77 8f41 bce9 d63f 3eb4 063f
000001f0: 34d9 4dc2 5e22 9b3e 78e4 8ec1 75a4 dabf
00000200: da81 363c 2c18 1a3f ba33 d5bd 4223 6bbb
00000210: 89b4 4d3e 43aa 5140 76c2 0440 3e7c e1be
00000220: a9a3 b53d 54c0 3140 5434 c2bf 1d65 15bf
00000230: 10a7 14bf 81c3 a7bf 365e acbf a825 7dbe
00000240: 5502 67c2 96a7 3abf 97c2 0140 7afa 86c1
00000250: 06e4 de3f 4524 103e ce25 fe3e bf47 5a3e
00000260: af06 cb3f be40 41c2 99aa fabe 8bb3 6d3e
00000270: 739b 7f42 c6b5 bbbd 47da 0e41 78a4 c93f
-0.3921047 -0.20491238 -0.80794334 -0.1977784 -4.9828463 0.83291525 4.6624684 0.6170016
0.08840011 3.5093575 1.2662379 8.124623 -3.0685241 4.5357175 0.0628916 -1.1096193
5.5334463 1.4733849 -5.1382055 -3.7768805 7.3853035 3.2346594 -1.5766872 -1.6866281
-4.150238 0.19137079 -0.24233496 -3.046294 -5.0074167 4.9216747 -1.470568 -1.5642185
0.17011899 -9.442138 0.72626895 -0.23258598 10.862206 -0.8139337 -2.440982 1.0480256
0.56090015 33.261906 -4.284445 2.4416583 -0.6861548 0.17585318 5.182757 0.8296783
0.33691967 1.3904284 -36.429497 31.589558 -9.0647545 -0.7041142 -0.17276573 0.10395195
-0.56584805 -3.2288034 -1.4422238 3.3735025 3.5288975 22.844044 -5.3003664 -0.76880383
-0.4302085 13.9670315 0.18946734 -0.5603429 -7.4702506 -1.0770478 -0.03311594 0.5712915
0.54395163 -35.227356 4.886062 4.205336 -0.3974161 -1.6867301 -4.2091985 -1.1348617
-0.5096337 -1.3030968 53.532066 -26.61564 4.013437 0.673488 0.4623213 -0.28720698
-0.041639734 -3.120388 -0.6859677 -0.024374574 1.663002 -37.58811 4.080128 0.16371013
-0.18179274 0.101567745 -1.0353417 0.062956154 6.7842035 -3.8614762 0.35511783 -0.6097812
-0.2209785 4.1439323 0.17825335 -1.8330396 0.10942901 -1.2555991 -1.5829115 -0.29219648
41.78193 2.5797129 0.19809642 19.014101 -4.2211185 0.8597646 0.19618466 1.5930037
0.975633 17.933155 1.679008 0.5261878 -51.462112 0.30299658 -17.861557 -1.7081438
0.011139357 0.60193133 -0.10410257 -0.003587917 0.200884 3.276017 2.074369 -0.44040102
0.08869106 2.7773638 -1.5172219 -0.5835741 -0.5806742 -1.3106538 -1.3466251 -0.24721396
-57.752277 -0.72911966 2.0275018 -16.872303 1.7413337 0.14076336 0.49638218 0.21316431
1.5861415 -48.313225 -0.4895828 0.23213021 63.901806 -0.0916553 8.92829 1.5753317

feature_net.linear_layer_output.bias f4 [5]
00000000: 6ea8 6c40 53ac bc40 d69a 51c0 3705 2340
00000010: 839d 03c0
3.6977801 5.8960357 -3.2750754 2.5471933 -2.0564888

feature_net.linear_layer_0.weight f4 [32, 4]
00000000: bc0d 8440 4eb3 c93e d230 c1c0 5425 5ec0
00000010: 63ca 8040 27b9 9b3f 51d9 e8c0 4191 a9c0
00000020: 610b 5240 85e3 a2c0 d07f 54c0 6856 5a41
00000030: d3e5 943f 4b32 49bf b737 0f41 58dc 00c1
00000040: cb8f 6640 7e8a d0be 9762 59bf c5fc 5ec0
00000050: 60b0 9040 8c59 5d3f 69a7 20c1 28ef 66c0
00000060: b1ae 9940 3e3e ba3e 704a 2fc1 2182 08c0
00000070: 5b49 1fbf 659b 13c0 5433 f940 b24e e240
00000080: 8320 8140 8206 953f e39d e7c0 9fe4 a5c0
00000090: 872b d23f 793e 45c0 4a52 49c1 4ebb 1041
000000a0: db4c adbf a5fb 973f fc35 4a41 3467 fb40
000000b0: 5f48 8040 ec7c 7e3f 015e d9c0 c345 96c0
000000c0: 8f8e a540 a48a 3740 a5fa 8ec1 ddc4 1ac1
000000d0: 385e a4bd 0c5d 0940 8f3c 5e40 1dce eac0
000000e0: f0b1 9140 48c1 753a fff0 02c1 39a6 b8bf
000000f0: 5608 7e40 fde9 8e3f bd11 d7c0 cb00 a7c0
00000100: 50f3 903e b211 4abf 259d 4641 cde6 8e40
00000110: 0371 4b40 0c93 b1bf bd45 2940 b8a8 b8bf
00000120: 2f9b 4ac0 455b 4440 1069 5641 ccf6 5ec0
00000130: 96ee a740 16b8 9b40 b510 04c1 9dcf 03c1
00000140: 6d7b 46c0 7ae6 23c0 02f2 4e40 d77a 1cc1
00000150: 11af 5940 3570 0940 30f1 f7c0 0e2a 15c1
00000160: 400c 8040 a9bc 943f 80a0 e2c0 78d5 a4c0
00000170: 469b 34bf 3dfc 0a40 d020 0041 5307 a6c0
00000180: 9f4f 713f 47a1 8abf 0063 3541 e4a7 45bf
00000190: d0a8 f13f fe0f 873e 9ea6 cb40 0e11 cdc0
000001a0: 6a04 a3bf d035 aa3f a58d a1c0 2946 c841
000001b0: 1914 0ec0 6efa a0c0 af8a 3b40 c2af 3741
000001c0: 7a53 dbbe a8d8 1fc0 920a b440 e110 cc40
000001d0: 585e 7940 dea0 10c0 62ff 90c0 e3a8 a240
000001e0: 3604 e1bf 6564 a33f 40ac 3641 d446 95c0
000001f0: 69f5 6940 7f04 203f 7c9a 3ac0 866d b1c0
4.1266766 0.3939461 -6.0372095 -3.4710283 4.0247054 1.2165879 -7.276528 -5.298981
3.2819445 -5.0902734 -3.320301 13.646095 1.1632637 -0.78592366 8.951102 -8.053795
3.6025264 -0.4073066 -0.8491606 -3.4841778 4.52153 0.8646476 -10.040872 -3.608347
4.8025746 0.36375612 -10.955673 -2.1329424 -0.62221307 -2.3063595 7.7875156 7.0721064
4.0352187 1.1642611 -7.2380233 -5.184158 1.6419533 -3.081938 -12.58259 9.045729
-1.353908 1.1873671 12.63818 7.856348 4.0088344 0.99409366 -6.792725 -4.696016
5.173652 2.867837 -17.872385 -9.673062 -0.08025783 2.1463041 3.4724462 -7.3376603
4.552971 0.00093748095 -8.183837 -1.4425727 3.9692588 1.1165158 -6.7209153 -5.218847
0.28310633 -0.7893325 12.413365 4.465674 3.1787727 -1.3873 2.6448815 -1.4426489
-3.1657217 3.0680707 13.40065 -3.4838133 5.2478743 4.8662214 -8.254079 -8.238187
-3.1012833 -2.5609422 3.233521 -9.77999 3.4013102 2.1474736 -7.748192 -9.322767
4.0014954 1.1620075 -7.0820923 -5.151058 -0.7054943 2.1716454 8.008011 -5.188394
0.9426212 -1.0830468 11.33667 -0.77209306 1.8879642 0.2637939 6.364089 -6.408332
-1.2735722 1.3297672 -5.0485406 25.034258 -2.2199767 -5.03057 2.9303396 11.48041
-0.42837125 -2.4975986 5.6262903 6.3770604 3.8963833 -2.2598186 -4.5311747 5.083116
-1.757941 1.2765013 11.417053 -4.664896 3.6556036 0.6250686 -2.915679 -5.5446196

feature_net.linear_layer_0.bias f4 [32]
00000000: 4d15 0d41 e235 0f41 1218 d240 4ddb f340
00000010: c223 0741 58ae 1141 8588 1141 431f c9bf
00000020: b004 0f41 3e97 ec40 cde5 0241 7972 0e41
00000030: 8a8c 1441 1da6 963e 995d 0f41 ffb7 0e41
00000040: ea97 fa40 1d98 0241 5a90 a040 3a7d d640
00000050: dc7e c040 645f 14c0 beea 0e41 0d2c 46bf
00000060: c9a1 f440 7423 0141 f00e 0f41 fa3b e240
00000070: 236f 0dc0 79d8 58c0 959e 0841 7de8 0941
8.8177 8.950655 6.5654383 7.62052 8.44623 9.105064 9.09583 -1.5712665
8.938644 7.393462 8.181104 8.902947 9.284311 0.2942361 8.960351 8.919921
7.831044 8.162137 5.017621 6.7027864 6.015486 -2.3183222 8.93231 -0.77410966
7.644749 8.071156 8.941147 7.0698214 -2.2099082 -3.3882124 8.538716 8.61926

feature_net.layer_norm_0.weight f4 [32]
00000000: b733 113f d511 fa3e 40ae d240 adf2 5040
00000010: 50be e53e dd4a 3a3f 6154 f93d 7147 fd40
00000020: 631c d33e dca5 8e40 1679 c73e a009 213e
00000030: 5304 1dbe 22b6 5e41 2a7f 8b3f 564f cf3e
00000040: 7429 283e 617e b23e b819 fa3f 5b34 8040
00000050: 126f 3b40 778f 0d41 0d12 be3e a049 9a41
00000060: cc3d e53e dbc3 d13e ed71 ba3e ee05 0e40
00000070: 9e1e 0241 aff3 1c41 a2f3 2440 5899 243f
0.56719536 0.4884173 6.5837708 3.2648118 0.4487176 0.7277048 0.12174297 7.914971
0.41232595 4.4577465 0.3895957 0.15726328 -0.15333681 13.919466 1.0898182 0.40490216
0.16422063 0.34862044 1.9539099 4.006391 2.9286542 8.847526 0.37123147 19.28595
0.4477371 0.40969738 0.36415043 2.219112 8.132475 9.809493 2.5773702 0.64296484

feature_net.layer_norm_0.bias f4 [32]
00000000: 9d9f 2fbf f695 31bf 1831 8340 1eb8 96be
00000010: 0498 5abf 9a84 75bf 9605 7bbe 1ec5 ae40
00000020: c6b2 3abf 08f0 d8bf 771f 8bbf 4f84 85be
00000030: 8101 e6be b3d0 4940 3931 a0bf 2027 1abf
00000040: 384e 17bf e357 07bf 78a8 b93f 1b32 1741
00000050: 7fdf 5940 2ba3 bb40 ecf1 14bf ad50 9740
00000060: a9da 69bf af75 49bf a88b d9bf 59af a43f
00000070: aac1 5340 097b 0f41 63d4 83bd e821 5bbf
-0.68602926 -0.6936945 4.099743 -0.29437345 -0.8538821 -0.9590546 -0.2451385 5.461562
-0.72929037 -1.6948252 -1.0868977 -0.26077506 -0.44923022 3.153363 -1.2515022 -0.6021595
-0.5910373 -0.5286848 1.4504538 9.449733 3.404266 5.863668 -0.58181643 4.728598
-0.91349274 -0.78695196 -1.6995745 1.2866012 3.3086953 8.967538 -0.06436994 -0.8559861

feature_net.linear_layer_1.weight f4 [32, 32]
00000000: f3e1 dcbd a332 483f e693 bd41 9a9d 8341
00000010: 183e 2e3f a9e1 6cbf df63 d340 cb0e b141
00000020: 08a9 5ebf 632b 1841 0789 02c0 fadd b0bc
00000030: 6e30 8740 91e5 9abf 5058 5dc0 52ea 7f3f
00000040: 5c82 9e3f 8082 9d3f 1275 2b41 e208 9741
00000050: ec2a ce41 e098 0d41 964f f73e d799 253f
00000060: 4a5d cdbf 8109 2d40 44b6 1641 23cf c041
00000070: 5014 26bf d3ff 9141 a9cb ac41 f28d 3840
00000080: 3e1e 033e b0c9 543e d42d ca41 d720 8d41
00000090: 01d5 fbbf 8d70 283f a46d 6c3e e971 3a41
000000a0: f4e2 203e ef9f 4041 0be9 563f 707e 6c3f
000000b0: c625 0540 8c50 7840 a85f 583f a9e6 a73e
000000c0: fd07 b53f d663 bd3f e359 9e41 9aca 9441
000000d0: 1866 b141 8c15 6f41 3e39 323e ab2a 01c0
000000e0: 00f0 2a3f 60c4 de3f 83f9 1040 b784 8941
000000f0: 1d85 5341 a63a 6c41 bfd2 9741 a694 72bf
00000100: 9bcc 023e 8ccf 6dbb 0875 bf41 4080 4441
00000110: 2e82 30be 5db3 f33e 1dd5 3d3f 4dfb 4c41
00000120: 63b4 db3e d7ec 3441 a799 06c0 c122 6ebe
00000130: 28e8 6dbe 86ea 1441 cb8d c73e 95d1 b23e
00000140: e477 633f 87cc 56bd da6f 8c41 252c b541
00000150: 0325 a641 398c 2941 d975 2cbe 017d 5e40
00000160: e48c 2cbf 4b1d c73f 570d 41be 2ff3 b541
00000170: 1672 0b41 b454 e140 9fe8 b541 dfd0 853f
00000180: c3ef 823e 3cdb 973e b4f5 b241 a587 8541
00000190: 7ec4 79be 3c46 9bbe f264 8340 f326 bc41
000001a0: 1c09 d43e 65a7 1741 f014 96bf 0620 073f
000001b0: 89d0 7f40 2ed7 be3f 27e7 d0bf fd7d 323f
000001c0: 8c54 dc3f ec28 503f 5207 5a41 ff2b 9641
000001d0: 58b9 c241 e27a 2d41 719b 23be 5e34 7c40
000001e0: d8eb e9bf 4ee3 3140 dc7f d440 1255 c241
000001f0: 6c34 e5be 200b 7641 a578 ae41 9329 833f
00000200: 5a9d 0d3f 7437 d53e f706 c841 5173 2f41
00000210: 71c6 793f ba35 4b3f 5d44 203f c40f 5741
00000220: 904b 9c3e 3723 2641 9b25 09c0 f898 963e
00000230: dd8c af3f cc54 c540 6508 e73e 0d23 b73f
00000240: 0894 2ebf 833f 163f aa2b a541 9c89 8d41
00000250: 390c b641 8579 7441 2611 ca3e daf2 3040
00000260: 55e5 b63f 87c8 0640 1720 1a3f 9b5e a841
00000270: de96 7641 1dff 2741 6250 b241 00b7 e73f
00000280: 48fa de3e ce9f f6be 6c34 0641 5b80 6c41
00000290: c7de 943e d639 043f 225d c33e 0bd7 80bf
000002a0: af05 cbbd 1a19 e240 6b9c 03be 9a4b cb3e
000002b0: dab5 4bbd c2f1 1e40 1485 6c3f 5569 e1be
000002c0: 2a9d 863f 3b1c 893d 8018 2741 89a1 6841
000002d0: 3486 4a41 286f 9341 d101 613e af20 ea40
000002e0: f3d2 123f 9e1c 803f 78e0 a13f 8b53 b640
000002f0: 74a9 0bc1 7fac 40c1 ff4d cf40 008b a63e
00000300: 83a4 81bd db73 963d fea1 4a41 c719 9741
00000310: 7215 8abf ccb0 af3f 5a3d 443f 475f 5c41
00000320: e316 96bd 0d2d 8241 7e63 c53e d86a 993d
00000330: 2fda 8b3f 70aa b440 44a3 2e3f 34fa d93e
00000340: 3b0b 903f 4cc7 2540 321f 4d41 4a8b 4341
00000350: 6769 4441 851f 6741 7089 66bb ff21 4d40
00000360: 2914 2f40 8e53 f13f 9e42 72c0 972a b241
00000370: a16c 0041 40a3 3f41 f635 7e41 988a 1bbf
00000380: 3c1f 953f 4fae d73e 74ef b841 db77 3241
00000390: 3a5d 7a3f 4321 9a3f 77df 9d3f 7ba3 8f41
000003a0: 6031 513e bf92 4041 48e0 9abf 403c 173e
000003b0: 0a32 0f40 5687 4640 f18b 30be 1ea4 41bc
000003c0: 0426 943f 5355 1c3f 4f41 c941 05c2 9241
000003d0: c9e9 b841 29ea 7241 81ca 2a3e 30d8 3940
000003e0: eba2 dd3e cc9e 1940 0d52 6bc0 c4de 9d41
000003f0: 8d9e 1c41 32a8 c240 9e9b 9341 b2a7 3b3f
-0.10785284 0.78202266 23.697216 16.451954 0.680635 -0.9253183 6.6059413 22.132223
-0.8697667 9.510592 -2.0396135 -0.021590222 4.224662 -1.2101308 -3.4585152 0.9996692
1.2383533 1.230545 10.716082 18.879337 25.770958 8.849823 0.48302907 0.64687866
-1.6044095 2.703705 9.419498 24.101141 -0.64874744 18.249914 21.599443 2.8836637
0.12804505 0.20780063 25.272377 17.641035 -1.9674379 0.6579674 0.230887 11.65281
0.15711576 12.039046 0.83949345 0.9238043 2.0804305 3.8799162 0.8452096 0.32793167
1.4143063 1.4796093 19.79389 18.598927 22.17485 14.94276 0.17404649 -2.0182292
0.6677246 1.7403679 2.265229 17.189802 13.219998 14.764318 18.977903 -0.9475807
0.12773363 -0.0036287038 23.932144 12.281311 -0.1723716 0.4759778 0.7415331 12.811353
0.42911062 11.307822 -2.1031282 -0.23255445 -0.23233092 9.307257 0.38975367 0.34925523
0.88854814 -0.052441146 17.554615 22.646555 20.768072 10.596734 -0.1684183 3.4763796
-0.6740248 1.5555815 -0.18852745 22.743742 8.715353 7.0415897 22.738585 1.0454367
0.2557355 0.2965945 22.369972 16.691233 -0.24391362 -0.30327022 4.1060724 23.519018
0.414132 9.478368 -1.172514 0.5278324 3.997103 1.4909418 -1.6320542 0.6972349
1.7213302 0.8131244 13.626787 18.771482 24.3405 10.842501 -0.15977265 3.9406962
-1.8275099 2.7794986 6.640608 24.291538 -0.44766557 15.377716 21.808908 1.0247062
0.55318224 0.4164387 25.0034 10.965653 0.9756842 0.79378855 0.62604314 13.441349
0.305264 10.383597 -2.1429203 0.2941358 1.3714863 6.166601 0.45123592 1.4307572
-0.6819463 0.5869066 20.64632 17.692192 22.755968 15.279668 0.39466208 2.7648225
1.4288737 2.1059892 0.60205215 21.046194 15.411833 10.4997835 22.28925 1.8102722
0.43550324 -0.48168796 8.387798 14.781337 0.29076216 0.5165075 0.38156992 -1.0065626
-0.099131934 7.065564 -0.12852637 0.39706117 -0.049733974 2.4835057 0.9239056 -0.44025674
1.0516713 0.06694838 10.443481 14.539437 12.657764 18.429276 0.21973349 7.3164897
0.5735313 1.0008733 1.2646627 5.697698 -8.72887 -12.042113 6.478271 0.32527924
-0.06330206 0.073463164 12.664549 18.887587 -1.0787795 1.3725829 0.76656115 13.773261
-0.07328584 16.271997 0.3855247 0.07491082 1.0925959 5.6458054 0.68217874 0.42573702
1.1253427 2.590289 12.820116 12.221506 12.275733 14.445195 -0.0035177134 3.2052
2.7356055 1.8853624 -3.785316 22.270796 8.026521 11.977356 15.888174 -0.6075835
1.1650157 0.42125174 23.11692 11.154262 0.977985 1.2041401 1.2333821 17.954824
0.20428991 12.035827 -1.2099695 0.14769077 2.2374291 3.1020103 -0.17240883 -0.011818914
1.1574101 0.61067694 25.156889 18.344736 23.114153 15.182168 0.16678812 2.90382
0.4328836 2.4003172 -3.676883 19.733772 9.788709 6.0830317 18.450985 0.7330276

feature_net.linear_layer_1.bias f4 [32]
00000000: eaf3 a041 43fc ba41 e0e1 b641 49d0 a841
00000010: 0792 d741 70e0 7241 659b 8d41 ebfa c541
00000020: e6a8 9d41 5bec a541 7d23 0d41 5c8c bc41
00000030: de45 7741 cb5b 8841 08be b941 6816 af41
00000040: c470 8e40 a1e8 9641 4efb 3141 fae0 5941
00000050: eb07 4b41 cf8a b841 f5fa b441 d86a c841
00000060: d8b5 4941 0630 7a41 8221 1e41 ee01 8841
00000070: c26b 4e41 914f 2441 941b c141 d5e8 c341
20.119099 23.373175 22.86029 21.101702 26.946302 15.179794 17.700876 24.747519
19.70747 20.740408 8.821164 23.568535 15.454557 17.04482 23.217789 21.88594
4.4512653 18.863588 11.123854 13.617426 12.689433 23.067778 22.622538 25.05217
12.606895 15.636724 9.883181 17.000942 12.901308 10.269425 24.138466 24.488688

feature_net.layer_norm_1.weight f4 [32]
00000000: ce39 473e 074e 103f 0d44 bebf 39b2 803e
00000010: 1121 3a40 3a82 1a40 1c13 b040 3213 4140
00000020: f813 683e 6881 e23e cedd 2340 716b 6240
00000030: 145b 5140 7768 b440 ecc4 683f b0b5 e83e
00000040: 3c93 e03f 3854 fa40 fc09 d63f 90cb a240
00000050: 2853 2340 b124 bcbe a24b 883e 16b0 423f
00000060: 80d3 793f d21c 8640 000f 1840 4ff2 8240
00000070: 9645 823f 2d20 a23f 375a d53f 83b1 5c3f
0.19455644 0.5636906 -1.4864517 0.25135973 2.9082682 2.4141984 5.5023327 3.0167966
0.22663867 0.44239354 2.560413 3.5378077 3.271184 5.637752 0.9092548 0.45451117
1.7544932 7.8227806 1.6721797 5.087349 2.5519505 -0.36746743 0.26620203 0.76049936
0.9758835 4.191018 2.3759155 4.0920787 1.0177486 1.2666069 1.6668156 0.8620836

feature_net.layer_norm_1.bias f4 [32]
00000000: e01a 5bbf 339f 4bbf c0ba 5dbe 34a7 12bf
00000010: 63f5 4cc0 75cd 7640 f400 cc3e 2877 52c0
00000020: 78a4 52bf 9979 22bf 3515 8b40 3def 32c0
00000030: 595f 8c40 e0ca 853d 4b5d cdbf a7be 84bf
00000040: afa8 0640 6d5c b43e 8faa a13e 5693 e13f
00000050: ab2b ab3f ff70 89be d611 3abf cf13 85bf
00000060: 1c6b 663f f9fb 60be 0de2 2440 2970 953f
00000070: df26 783e 9b3d ef3f f366 0bc0 8f13 c4bf
-0.85587883 -0.79539794 -0.2165327 -0.5728638 -3.2024772 3.85629 0.39844477 -3.2885227
-0.8228221 -0.63466793 4.3463387 -2.795852 4.386639 0.06532836 -1.6044096 -1.0370682
2.1040456 0.35226765 0.31575438 1.7623088 1.3372701 -0.26844022 -0.72683465 -1.039667
0.90007186 -0.2197112 2.576297 1.1674854 0.24233578 1.8690675 -2.1781585 -1.5318469

feature_net.linear_layer_output.weight f4 [5, 32]
00000000: 62c2 c8be a7d4 51be 76d5 4ebf ba86 4abe
00000010: c373 9fc0 f3c7 5e3f a3fc 9240 2bf4 1d3f
00000020: 1e0b b53d 8499 6040 ea8d bb3f cb3d 0441
00000030: 0a5d 3ac0 31b3 8e40 91cd 803d 6208 8ebf
00000040: cbb3 b540 4eb9 db3f 937c a1c0 beb9 76c0
00000050: 0e85 ee40 5704 4f40 16d1 c9bf d3e3 d7bf
00000060: 55a7 88c0 f523 df3e 5c69 e4bd 8481 36c0
00000070: ac6f a3c0 497f 9940 bd3b bcbf 7e38 c8bf
00000080: 8d33 2e3e 3b13 17c1 1ded 393f f52a 6ebe
00000090: 41cb 2d41 9813 3dbf 0844 1bc0 a325 863f
000000a0: d396 0f3f ff0b 0542 8fa7 87c0 9cbd 1b40
000000b0: aeb1 33bf 0f7f 353e e1d8 a540 b065 543f
000000c0: 70ee a43e 4b6e b63f 7e37 12c2 398c fd41
000000d0: 10f6 10c1 2941 34bf b1e9 30be 07e5 d43d
000000e0: 74c7 12bf 0b8a 4ec0 5800 b2bf 1ec0 5740
000000f0: b39d 6440 381c b741 f09c a9c0 9ed0 44bf
00000100: 8744 dcbe d878 5f41 d203 423e 7f72 0fbf
00000110: bc0c efc0 2e41 7fbf 825d 393e 7740 123f
00000120: 4740 0b3f e2e8 0cc2 9e7f 9c40 7daa 8740
00000130: 697c fcbe c167 c8bf 7bb1 86c0 f442 91bf
00000140: 6739 d2be 7471 aebf 37b7 5542 7b05 d5c1
00000150: edba 8340 206a 2c3f 84b5 ec3e 270d 93be
00000160: e734 0c3d e55d 45c0 ab6c 31bf cd39 c9bd
00000170: fae8 ea3f 1a5d 16c2 7290 8240 79a3 273e
00000180: b627 3abe a402 d03d 6686 84bf 5bef 803d
00000190: 6b18 d940 8f7e 74c0 9141 b23e bb1a 1cbf
000001a0: 6048 62be 7e9b 8440 8a77 b93e 8c23 d8bf
000001b0: 741a 2d3e fef0 a6bf fe9c cabf 0f9b 95be
000001c0: eecf 2642 97a8 2040 a225 d23e 1b17 9741
000001d0: 51e0 82c0 f319 5c3f 5fe4 483e dae7 cb3f
000001e0: e6d3 6f3f 693c 9041 98d4 e13f 268d 093f
000001f0: 78da 4cc2 c98e 923e 4fe4 8ec1 20a4 dabf
00000200: 1d82 363c e417 1a3f ef33 d5bd 2d23 6bbb
00000210: cab4 4d3e d441 5040 faca 0540 157c e1be
00000220: d9a3 b53d 26c0 3140 24ee bebf ee27 fdbe
00000230: 13f9 26bf e390 85bf 685e acbf 5625 7dbe
00000240: 95a7 66c2 da68 22bf 9137 0740 4e26 86c1
00000250: 22cc d73f 9f24 103e 9625 fe3e 8c47 5a3e
00000260: 6df5 d53f e4e2 40c2 e71f ddbe 28ab 593e
00000270: a042 7e42 7782 51bc 27da 0e41 8ea4 c93f
-0.39210802 -0.20491277 -0.80794466 -0.19777957 -4.982881 0.8702385 4.5933394 0.61700696
0.08840011 3.5093699 1.4652684 8.265086 -2.9119287 4.459374 0.06289209 -1.1096308
5.6781974 1.7165926 -5.046457 -3.8550868 7.453742 3.23464 -1.5766933 -1.6866401
-4.2704263 0.4358212 -0.11152908 -2.851655 -5.107382 4.7967877 -1.4705731 -1.564224
0.17011853 -9.442195 0.7262743 -0.23258574 10.862123 -0.7385802 -2.4260273 1.0480236
0.56089514 33.261715 -4.239204 2.4334478 -0.7019299 0.1772425 5.1827245 0.8296766
0.32213163 1.4252409 -36.55419 31.693468 -9.060074 -0.70411927 -0.17276646 0.10395246
-0.5733559 -3.2271755 -1.3906355 3.371101 3.5721252 22.888779 -5.3004074 -0.76880825
-0.43021032 13.967003 0.1894677 -0.5603408 -7.4703045 -0.9970883 0.18102077 0.57129616
0.54394954 -35.227425 4.8905783 4.2395616 -0.49313667 -1.5656663 -4.209165 -1.1348557
-0.4105942 -1.3628373 53.42892 -26.627676 4.116568 0.67349434 0.46232235 -0.28720972
0.03423014 -3.0838559 -0.6930644 -0.09825478 1.8352349 -37.59092 4.0801325 0.16370954
-0.18179211 0.10156754 -1.0353515 0.062956534 6.7842307 -3.8202245 0.34815648 -0.6097829
-0.22097921 4.143981 0.36224014 -1.6885848 0.16904622 -1.3042295 -1.582916 -0.29219863
41.703056 2.51029 0.41044337 18.886282 -4.0898824 0.85977095 0.19618367 1.593013
0.93682706 18.029497 1.7643003 0.53731 -51.21335 0.2862456 -17.861479 -1.7081337
0.01113942 0.60192704 -0.10410296 -0.003587912 0.20088497 3.2540178 2.0905137 -0.4403998
0.08869142 2.7773528 -1.4916425 -0.49444526 -0.6522381 -1.0434841 -1.346631 -0.24721274
-57.663654 -0.6344124 2.1127665 -16.768703 1.6859171 0.1407647 0.4963805 0.21316355
1.6715523 -48.221573 -0.43188402 0.21256697 63.565063 -0.012787453 8.92826 1.5753343

feature_net.linear_layer_output.bias f4 [5]
00000000: c51b 7540 42c9 be40 0394 51c0 1e85 2740
00000010: f55f 01c0
3.82982 5.9620676 -3.274659 2.6174998 -2.0214818

feature_net.linear_layer_0.weight f4 [32, 9]
00000000: e8fc 1cc0 0de1 0940 abdf 0d41 d6c5 24c1
00000010: 2213 0640 7072 d13f 1f6b cc3f c07f 1f40
00000020: 7b8b 923f 025e 983f 5290 f83f 0f22 46c1
00000030: cd39 e6c0 b95f 1540 5106 2940 cab0 553f
00000040: 1976 6540 098b f03f 825e 8dc0 5626 2040
00000050: 161e ed40 1a59 51c0 7c28 f73f dc9f 09bd
00000060: 894d 4240 9094 4440 fc89 143f 1e76 083f
00000070: 395d d6be c271 39c0 f910 7a40 235b bf3f
00000080: 1d56 3f40 b10a 5f3f f4ab e43f bd1a 0f40
00000090: 880e 8c3f aeeb 3340 2dd4 19c1 107f 03c1
000000a0: 7366 ce3f 9436 2d40 8d83 413f ca9e 5f40
000000b0: 74fc ad3e 6cf1 8cbf 419c 903c 5544 813b
000000c0: 814c c23f d41f 0940 c278 ed3f f9af c23f
000000d0: 6e05 f93f 7036 fa3f 59d2 a2c0 5b0a 02c0
000000e0: ad15 2741 a793 f840 00d9 3540 0e17 ca3e
000000f0: 4f36 9540 5e7c ef3f 9d7e 8340 1a1c f73e
00000100: 1551 ecbf 1827 1ec1 733c 3c41 fede 0b40
00000110: c1b5 1540 cfa9 523f 780f 853f c423 da3f
00000120: 025c 67bf d8bd 2ebf 85b3 9cbe 5077 8040
00000130: a905 2940 8c4f 0740 dc89 f53f a6cb 8d3f
00000140: 8301 1840 679c e33e b636 04c0 12cd 11c1
00000150: e7a3 3a41 c39c fd3f 690f 2440 88a5 773f
00000160: 490f 623f e508 e83f 0b43 91c0 3104 2940
00000170: ea0b fc40 592b 95c0 4330 2040 e824 d4bc
00000180: 8315 4140 a190 5440 6217 7c3f 322d 0fbe
00000190: 3f02 563f 03ac a3bf 3fbc a93f e95a 2440
000001a0: c5bb fd3f a7f3 433f 000f 2040 4b7b cc3f
000001b0: d559 a4bf 5e39 4ac0 8d35 15c0 193b 2841
000001c0: 1a38 0840 287b fb3f dcac db3f 0c99 ef3e
000001d0: d015 7e40 4401 82c0 03da 0340 4516 1941
000001e0: abb9 a6c0 8faf e63f 2e3a 0f3f 6b29 1740
000001f0: 11e1 0940 f2f8 343f e674 b4be cd8a 1a3f
00000200: a3d8 2dbf 1b19 d73f b80d 0e40 fc82 1740
00000210: dabd b63f 6d38 1740 f183 e53f e1ec c13e
00000220: d535 10c0 6798 ffc0 8c95 3141 3638 1940
00000230: 237e 1440 9e0e 133f 2a3c 5f3f 9e96 1340
00000240: 8e03 063f 5608 4dbf 6654 83c0 1aca 9e40
00000250: dac5 0a40 013e 1d40 8609 3c3f d70f df3f
00000260: 71b7 1540 c6a5 7cc0 922b 3740 ea00 c840
00000270: e311 2bc0 ff3a c43f 1fc2 ad3e 1d43 4c40
00000280: b217 5a40 2bd1 b33e f4a7 27c0 622f 58bf
00000290: b197 ab40 323a bd40 0e62 0040 86b5 b53f
000002a0: 145c 0740 1c9e d83f db40 0a40 7343 33c0
000002b0: 1c1e 613f 1cdb 3c41 5fd1 0ac1 d3c3 e03f
000002c0: 0921 c93f f54c cb3f ca79 db3f 2198 cf3f
000002d0: 1386 3cc0 93a5 41c0 adf0 f540 cb53 3c41
000002e0: 97ad e53f 31c8 c73e a971 ca3f 9269 4b3f
000002f0: a5c5 5340 a403 33bf aa15 393f 6620 6940
00000300: 2053 8740 cee7 0740 693a 1b40 cc64 8d3f
00000310: 2ddc 2340 fd27 bd3f dd9f 4ac0 4f21 b13f
00000320: 1139 1440 7502 c2bf 040d 0e40 fa34 4a3f
00000330: 4407 5940 cc32 3f40 8da1 823f 7c11 70bf
00000340: fc73 523f fa28 a53e b6e1 823f 3b65 4140
00000350: 9dae 853f c644 4c3f c68f 1840 948c a93f
00000360: a0d7 3ec0 0f4b 98bf be2c 9b40 af26 b340
00000370: a2ae 0a40 3f28 813f 890b 1a40 7dd4 bf3f
00000380: 579c 2240 9450 0b3f cc13 0fc0 4fc1 bbc0
00000390: b5eb 0a41 00a5 0940 e0ac 3340 6853 353f
000003a0: ed40 323f 2b60 2e40 e530 aa3d a97b 0240
000003b0: ea07 a8c0 13a6 adc0 a6e7 0740 9244 1040
000003c0: 000a 7d3f 9da5 2d40 515d 953f 8a6d d2bf
000003d0: 9b6b 853f a49a 1541 d772 3fc1 fe4b 1240
000003e0: ed42 0740 7919 c03f 0f9d ec3f d776 de3f
000003f0: a06e 01c0 75f4 b53f 4f9a 6940 5447 1ac0
-2.4529362 2.154361 8.867106 -10.2983 2.0949178 1.6363049 1.5970191 2.4921722
1.1448816 1.1903689 1.9419043 -12.383315 -7.1945558 2.3339674 2.6410105 0.83472884
3.585333 1.879243 -4.4177866 2.5023398 7.4099226 -3.2710633 1.930923 -0.03359972
3.0359824 3.0715675 0.5802305 0.5330523 -0.41867998 -2.8975682 3.907286 1.4949688
2.989631 0.8712569 1.7864976 2.236007 1.0941935 2.8112597 -9.614301 -8.218521
1.6125015 2.7064562 0.75591356 3.4940667 0.3398167 -1.1011176 0.017652633 0.0039449134
1.5179597 2.1425676 1.8552477 1.5209953 1.9454782 1.9547863 -5.088177 -2.031882
10.442792 7.768024 2.8413696 0.39470714 4.6628795 1.8709829 4.1092057 0.48263627
-1.8462244 -9.884544 11.764758 2.1854854 2.3392184 0.8229036 1.0395346 1.7042165
-0.9037477 -0.6825843 -0.30605713 4.0145645 2.6409705 2.1142302 1.9182696 1.1077774
2.3750923 0.44455263 -2.0658393 -9.112566 11.665015 1.9813465 2.5634406 0.96736956
0.88304573 1.8127714 -4.539434 2.6408808 7.8764544 -4.6615415 2.5029457 -0.025896505
3.016938 3.3213274 0.9847318 -0.13982084 0.8359718 -1.2786869 1.3260573 2.5680487
1.9822928 0.7654366 2.5009155 1.5975126 -1.2839915 -3.1597514 -2.3313935 10.514428
2.1284242 1.9646959 1.7162127 0.46796453 3.9700813 -4.0626545 2.0601814 9.567937
-5.2101645 1.8022326 0.5594815 2.361903 2.154362 0.7069236 -0.35245436 0.60368043
-0.67908686 1.6804537 2.2195873 2.3673697 1.4276688 2.362819 1.793089 0.37876037
-2.2532856 -7.987354 11.09901 2.3940558 2.3201988 0.5744418 0.8720118 2.306068
0.52349174 -0.80090845 -4.1040525 4.9621706 2.168326 2.4569094 0.7345203 1.7426709
2.3393214 -3.947618 2.8620343 6.2501116 -2.6729667 1.5330504 0.33937165 3.1915963
3.4076962 0.3512052 -2.619626 -0.844473 5.362267 5.913354 2.0059848 1.4196022
2.114995 1.6923251 2.1602085 -2.8009918 0.8793657 11.8034935 -8.676116 1.7559761
1.5713207 1.588286 1.7146542 1.6218301 -2.9456832 -3.0257308 7.6856294 11.770457
1.79436 0.3901992 1.5815936 0.7945796 3.3089383 -0.6992743 0.7229868 3.6426024
4.228897 2.1235232 2.42544 1.1046386 2.5603135 1.4777828 -3.1660073 1.383829
2.315983 -1.5157 2.2195444 0.78987086 3.3910685 2.9874754 1.0205551 -0.9377668
0.8220823 0.32257825 1.0225132 3.0218036 1.0443913 0.7979244 2.3837752 1.3246026
-2.9819107 -1.1897906 4.8492117 5.598472 2.1669087 1.0090407 2.406954 1.4986721
2.5407922 0.5441983 -2.2355833 -5.8673472 8.682546 2.1506958 2.8074265 0.7083039
0.6963032 2.7246196 0.08310107 2.0387976 -5.250966 -5.4265227 2.1235137 2.2541852
0.98843384 2.7132332 1.1669103 -1.6439679 1.0423464 9.350254 -11.965537 2.2858882
2.1134598 1.5007774 1.848543 1.7380017 -2.022377 1.4215227 3.6500432 -2.4106035

feature_net.linear_layer_0.bias f4 [32]
00000000: 261d c5be c8de 6abf 9fcf cabf dd21 18c0
00000010: c546 47bf 2c17 7741 4862 ecbf 823a 153f
00000020: c98b 07c0 de15 0f3f a153 07c0 a5b1 22c0
00000030: 6d6d 8fbe de3b f4be 2e51 3bc0 b358 e63e
00000040: c328 ebc0 c007 12c0 1eb9 f2c0 f3fa 6a3e
00000050: b24d 393f 4128 4a3e c7c7 1ec0 2710 f4bf
00000060: b57e f5c0 4f29 cabe b89a d9c0 bbff 623d
00000070: 69d9 e5c0 3cbf 80c0 3800 0fc0 1e18 8d3f
-0.384988 -0.9174619 -1.5844611 -2.3770669 -0.7784236 15.443157 -1.8467493 0.582924
-2.1179068 0.5589274 -2.1144793 -2.5420926 -0.28013173 -0.47701925 -2.9268298 0.44989547
-7.348726 -2.281723 -7.5850973 0.22947292 0.7238418 0.19741918 -2.4809434 -1.9067429
-7.671717 -0.3948464 -6.8001366 0.055419665 -7.1827893 -4.023344 -2.2343884 1.1022985

feature_net.layer_norm_0.weight f4 [32]
00000000: e3aa ab3e 8d2d 2c3f 45d8 033f 2775 783e
00000010: 290a e13d f8e2 bd40 91ee 783f f63e 0c3e
00000020: 34ce a73e af6b 4c3e ba64 2c3f e099 c73e
00000030: ccc3 ac3e 69cf cb3e 8b83 e03e cc1a 993e
00000040: 2f68 0340 a446 aa3e 2f71 1e40 9c04 003e
00000050: c977 313e 12d5 1e40 b19b 2740 5e12 233f
00000060: a050 6340 3856 4e3e 777f 1940 5003 be3e
00000070: 2800 f53f c494 1240 c705 5440 be32 643d
0.33528814 0.67257005 0.51501876 0.2426344 0.10988266 5.933956 0.97239023 0.13695893
0.32774508 0.19962953 0.67341197 0.38984585 0.3374313 0.3980668 0.4385036 0.29903257
2.0532339 0.3325702 2.4756582 0.12501758 0.1733085 2.4817548 2.6188776 0.636999
3.551796 0.20150077 2.3984048 0.37111902 1.9140673 2.29033 3.3128526 0.055712454

feature_net.layer_norm_0.bias f4 [32]
00000000: e0ab 3ebf 2668 edbf d93a 1abf 9d9c cbbe
00000010: 279f 89be eb04 87c0 3a9b 12c0 2355 25bf
00000020: bd2d 17bf ee08 38bf e69c 9bbf a419 06bf
00000030: 4141 28bf 1854 20bf 328c 12bf e7a9 2cbf
00000040: 3c1c 8c3f d6b1 2fbf e48e ca3f 708a 30bf
00000050: 2a07 31bf 00ae 4bbf fdca 5fbf f152 32bf
00000060: 4b8b 833f 3966 9abe a916 703f 54e7 89bf
00000070: e595 783f 981e 94bd fbf2 52be a7b4 abbe
-0.7448101 -1.8547409 -0.60246044 -0.39767924 -0.26879236 -4.2193503 -2.2907243 -0.64583033
-0.59054166 -0.71888626 -1.2157257 -0.52382874 -0.6572457 -0.62628317 -0.5724517 -0.6744675
1.0946116 -0.6863073 1.5824857 -0.6896124 -0.69151556 -0.7956238 -0.8741911 -0.6965781
1.0276884 -0.30156115 0.93784577 -1.0773721 0.9710372 -0.07232398 -0.20600502 -0.33536264

feature_net.linear_layer_1.weight f4 [32, 32]
00000000: d035 7fbe 33ef 35be dff3 61be 5269 31be
00000010: 1b57 a43d f6b2 fc40 55fd 18be ca8c f0bc
00000020: a018 95be 8fd3 543e 638b 11c0 adde f13d
00000030: 9c0d b2be 23b2 543d 4d8c 54be 8d75 d13e
00000040: 66e5 e03e b30d ab3d d929 aa3e 5bbf 67be
00000050: 3825 c73c c5d9 1f3f d789 7ac0 b9bd 403f
00000060: a609 54be 1cda ddbd 8299 04c0 1826 07bf
00000070: 44a5 8e3f c51a cdbf d714 92bf 024e 3b3e
00000080: 112b 853c 8700 1440 b812 34bf 80fb a1bf
00000090: 379b ac3c 2c8e 2ac0 8b26 c23e 9ff1 d43e
000000a0: 4e0e 533e 0188 453e fda5 3140 7a35 7abe
000000b0: 9d41 6cbe 118f ecbc 35e4 b4be 3bc7 2bbd
000000c0: 0228 2c3d 8cd8 e93e bac4 a140 bc2a 5ebe
000000d0: b9c0 9ebe 06b5 3bbf 4036 a1be fa4b 18bf
000000e0: 3229 6340 1f51 69be 60ef 9e3f 0201 a2bf
000000f0: 5bc7 d9c0 8d4c 4940 67c1 5c40 a2f8 7d3c
00000100: 1954 0abf c120 603f a9b5 40bf b869 7abe
00000110: 2c09 a6bb 2699 a6c0 82c8 a03f 4893 9e3d
00000120: ee4b aebe 9943 a4be d276 94bf 9a0f 12bf
00000130: 42e8 083f 9750 e73e eb7f 313e bc7d 9d3e
00000140: f0c4 8fbf 917c 7b3e 1473 af40 2dc6 b0bd
00000150: dc97 a6be 6714 3fbf 3666 85c0 8ae0 28bf
00000160: 819a 9840 2082 a43d 00e2 0fc0 de29 2bbf
00000170: 3a62 1fc0 ed59 cd3f b45a d540 b8c1 1b3f
00000180: ed55 82be 61a3 73bf b93b e33d faeb 16bf
00000190: ed15 febd 4a28 1441 1f02 8cbe 6bc5 8c3e
000001a0: 4532 1bbe ead9 cd3e bd0f b1bf 78e4 72be
000001b0: 1a28 3fbf 19f3 213e 3633 a33e 7399 11be
000001c0: 6e24 51bf b5b4 0a3e a371 8dbf bc4f b9bd
000001d0: 575d 73be 403d 7e3f 6baa 47c0 9e8f ea3e
000001e0: 5e40 72be 1ffd 8ebe 1c7a 07c0 0a19 f3be
000001f0: 498b 2e3f 7e50 06c0 9b7d 2fc0 e477 203e
00000200: 6869 ad3a f6e0 1dc0 7f65 2fbe a8b2 99be
00000210: 4035 b9bf 1591 f540 847f 87be 6664 d33d
00000220: 6c3a b8be 73d4 cdbd c849 68bf 3be3 533e
00000230: 8b3c 01bf f9b8 83be f3f5 583d d55c 6e3e
00000240: e39c 233f 6ca0 6ebd 7c66 b83e 9b04 0b3f
00000250: 253b 853b 1cf3 84be 9ea7 a1bf a86a b03f
00000260: adcb a4be 2899 9c3c a9cc 47c0 e031 9bbf
00000270: 9e51 ca3e dae3 66bf 27d5 9cbf 41ca 00bf
00000280: a4dc 07be 8b14 e13e 847c 6dbd 5cca 14be
00000290: cc87 ad3d 2248 e640 6b2f e03d d2db e43d
000002a0: b4bf 3d3e 4149 c93d 2c97 07c0 6dd0 7bbe
000002b0: b594 033e 06cc d7bb 8b9a 893d d07e e0be
000002c0: cfa8 9a3d 0238 473d 9225 e03e 468a f0be
000002d0: a3a8 09bf 913b 3d3f e6ba 82c0 8b11 c43e
000002e0: 6519 eebd b6c1 703b 2687 debf 65f8 253f
000002f0: b7a6 6d3f 598b a9bf 5bbc bebf 4764 0cbe
00000300: d5d1 6d3e 7389 fe3d b328 a5bc 60b4 b43d
00000310: c14d b4be 363b 0841 0df0 4c3d 46f0 47be
00000320: ffb3 a73c 9730 623f 1035 26c0 97e2 f0bd
00000330: a91f e9bd e457 2e3c bdd8 69be 2210 b1bd
00000340: 20e0 34bf b7f6 e33e ee78 2abf 2fd4 9ebe
00000350: 3722 a9be cdce 713f 69e3 92c0 5e9a d43e
00000360: 6926 d13d 0ddf 2e3e 18db fdbf 51bd 633e
00000370: b43d 683f 729c d5bf c22a c8bf e6ae 2e3e
00000380: dd18 06be ac9f d73c e136 62be 8fb5 313f
00000390: 324d b1be f8e4 fec0 551e 933d 918d 08be
000003a0: f59e 283e 5968 a13e 4bfa 953f 1a8a 35bc
000003b0: f030 d0be df9b 633e 3ed3 5d3e 4530 28be
000003c0: 25d2 8b40 c6ad 8ebd d008 9dc0 2420 4c3e
000003d0: f29d 62bd c97c ac3f 54ec 77bf 3595 e23f
000003e0: 2744 093f 37ab 8b3e 16a5 52c1 02cd cebe
000003f0: 8741 403d 2d65 90c0 99ad 043f 858a 92be
-0.24922872 -0.17767029 -0.22065686 -0.17325333 0.080244265 7.896846 -0.14940389 -0.029364008
-0.2912035 0.20783828 -2.2741325 0.1181005 -0.34776008 0.051927697 -0.20756646 0.40909997
0.43925017 0.08352222 0.33235052 -0.2263159 0.02430974 0.62441665 -3.914663 0.75289494
-0.20706806 -0.10832617 -2.0718694 -0.527925 1.1144185 -1.6023794 -1.141261 0.18291476
0.016255887 2.3125322 -0.7034106 -1.2654877 0.021070106 -2.6649275 0.3792003 0.41590592
0.20610926 0.19290163 2.7757561 -0.24434462 -0.23071904 -0.028876813 -0.35330358 -0.041938048
0.042030342 0.45673025 5.0552645 -0.2169599 -0.3100641 -0.73323095 -0.31486702 -0.5949093
3.5493894 -0.22784851 1.2416801 -1.2656558 -6.8055854 3.1452973 3.4493043 0.015501173
-0.5403457 0.8754998 -0.7527719 -0.24454391 -0.0050670113 -5.206195 1.256119 0.077429354
-0.34042305 -0.32082823 -1.1598761 -0.57055056 0.534794 0.45178673 0.17333953 0.3075999
-1.1231976 0.24559237 5.4827976 -0.08631549 -0.32537735 -0.74640507 -4.168727 -0.6596762
4.7688603 0.08032632 -2.248169 -0.6686076 -2.4903703 1.6043068 6.667322 0.60842466
-0.2545618 -0.9517117 0.110953756 -0.5895382 -0.12406526 9.259836 -0.27345368 0.27494368
-0.15155895 0.40205318 -1.3832928 -0.23719966 -0.74670565 0.1581539 0.31875008 -0.14218692
-0.8169621 0.13545497 -1.1050304 -0.09048411 -0.23766075 0.9931221 -3.1197765 0.45812696
-0.23657367 -0.2792749 -2.116828 -0.4748004 0.6818128 -2.0986629 -2.7420413 0.15670735
0.0013230266 -2.4668555 -0.17128561 -0.30019116 -1.4469376 7.67396 -0.26464474 0.10321884
-0.35982072 -0.10050287 -0.9073758 0.2069215 -0.50483006 -0.2572706 0.05296893 0.232776
0.63911265 -0.05825846 0.3601569 0.543039 0.0040658885 -0.25966728 -1.2629278 1.3782549
-0.32186642 0.019116 -3.1218665 -1.2124596 0.39515394 -0.90191424 -1.2252549 -0.50308615
-0.13267761 0.43960986 -0.057980075 -0.14530319 0.08473167 7.1963053 0.10946544 0.1117474
0.1853016 0.09828425 -2.1186018 -0.24591227 0.12849696 -0.006585601 0.0671893 -0.4384675
0.07551729 0.048637398 0.43778664 -0.46980494 -0.53772944 0.73919016 -4.0853148 0.38294634
-0.11625937 0.0036736554 -1.7384994 0.64832145 0.9283251 -1.324565 -1.4901232 -0.13710128
0.23224576 0.1242856 -0.020161008 0.08823466 -0.35215572 8.514456 0.050033618 -0.19525251
0.020471571 0.8835539 -2.5969887 -0.117619686 -0.11382992 0.010641072 -0.22836585 -0.08645655
-0.7065449 0.44524166 -0.66590774 -0.31021258 -0.33033916 0.9445618 -4.59026 0.41524023
0.10212404 0.17077275 -1.9832487 0.22240187 0.9071915 -1.6688368 -1.5638049 0.17058906
-0.13095422 0.026321255 -0.22091247 0.6941766 -0.34629208 -7.9654503 0.0718352 -0.13335253
0.16466887 0.31524923 1.1717008 -0.011080289 -0.40662336 0.22227429 0.21662614 -0.16424663
4.3694024 -0.069667384 -4.9073257 0.19934136 -0.05532641 1.3475581 -0.96844983 1.7701784
0.5361962 0.27279064 -13.165304 -0.40390784 0.04693749 -4.5123506 0.5182739 -0.28621307

feature_net.linear_layer_1.bias f4 [32]
00000000: 0410 abc0 ed6b acc1 33dc b5c1 11f9 72c0
00000010: 6f53 75c0 5db4 e0c0 1b74 adc0 78c8 8bc0
00000020: a04f afc1 1e90 7cc0 3b42 71c0 f3eb 67c0
00000030: 17e9 b2c1 fdc3 1ac1 04d4 87c0 1219 acc1
00000040: c32a 0bc1 f04c a2c0 d82c c2c0 cb38 4ec0
00000050: 7134 b6c0 d215 04bf 6de4 c2c1 099b a0c1
00000060: 7a26 b0c1 c918 7c41 4ce6 a3c1 964d 8ac0
00000070: 48f6 55c0 9934 adc1 443a 5bc0 c6ba 96c1
-5.345705 -21.552698 -22.73252 -3.7964518 -3.8332174 -7.022017 -5.420423 -4.3682213
-21.91388 -3.9462962 -3.7696674 -3.6237762 -22.363813 -9.672849 -4.244631 -21.512241
-8.69794 -5.071892 -6.067974 -3.2222164 -5.6939015 -0.51595795 -24.361536 -20.0757
-22.018787 15.756051 -20.48745 -4.321971 -3.3431568 -21.650682 -3.4254313 -18.841198

feature_net.layer_norm_1.weight f4 [32]
00000000: 3723 ad3e f3b8 5140 b77d 8c40 a1dc c13e
00000010: 9d86 923e 398c f43e 75e2 053e 1002 8540
00000020: a847 5140 c83e e13e b44c 863e 6194 8d3e
00000030: b7ac 1a40 03db 053f 720d c33e a759 2540
00000040: f23b 083f fae2 eb3e 71f4 3f3e c547 c03e
00000050: 441f d53e b8ff 3f40 9c4e 0c3f 10ae 6740
00000060: aed4 9c3e d665 b540 b58f 8940 ca2d d53d
00000070: 3ea1 e53e 0499 8e3f eb95 a63e de26 4b40
0.3381593 3.2769134 4.390346 0.3786364 0.28618327 0.4776323 0.13074668 4.156502
3.2699986 0.4399321 0.26230395 0.27652267 2.4167917 0.5228731 0.38096195 2.583597
0.5321647 0.46071607 0.18745591 0.37554756 0.41625416 2.9999828 0.5480745 3.619999
0.30631012 5.668681 4.2987924 0.10409124 0.4484958 1.1140447 0.32536253 3.1742473
