otk/AgileRL-MATD3/simple_v3/result/20240102-0837/MATD3_trained_agent_0040000.pt (torch, 532750 bytes, 112 tensors)

feature_net.linear_layer_0.weight f4 [32, 4]
0	0x3fff8d5e	1.9965017
1	0x3f93afed	1.1538063
2	0xc0623eb3	-3.5350769
3	0xc010d9de	-2.2632976
4	0x40001c15	2.001714
5	0x3f9e53e7	1.2369355
6	0xc08a1430	-4.3149643
7	0xc061668d	-3.5218842
8	0x3fd5d7b9	1.6706458
9	0xc00220ad	-2.0332444
10	0xc08a41ed	-4.3205476
11	0x40f210fc	7.5645733
12	0x3fed8ee3	1.855923
13	0xc026c06c	-2.6054945
14	0x40ae806e	5.4531775
15	0x3f297a44	0.6620219
16	0x3fefd92d	1.8738152
17	0x3f69909c	0.9123628
18	0xbf8fc78c	-1.1232772
19	0xbff3c572	-1.904463
20	0x400a2a9f	2.1588514
21	0x3fa850e3	1.3149685
22	0xc0b66111	-5.699349
23	0xc029710d	-2.647525
24	0x400e2e9f	2.2215955
25	0x3fae1eae	1.3603113
26	0xc0c322f6	-6.0980177
27	0xbfe1a798	-1.762927
28	0xbe989304	-0.29799664
29	0xbfd48886	-1.6604164
30	0x409ed1ee	4.963126
31	0x40e080c7	7.01572
32	0x3fff82f2	1.9961836
33	0x3f9e91d1	1.238825
34	0xc0893deb	-4.2888083
35	0xc05be432	-3.435803
36	0x4030f003	2.7646492
37	0x3f3aab7c	0.72917914
38	0xc11cead8	-9.807335
39	0x40caf92c	6.3429165
40	0x3fb93222	1.4468424
41	0xbc51dcba	-0.012808973
42	0x40f2db4f	7.589271
43	0x404d152b	3.204417
44	0x3ffdf3fa	1.9840081
45	0x3f9a736b	1.2066473
46	0xc07f9327	-3.9933565
47	0xc0465de3	-3.0994804
48	0x400766a0	2.1156387
49	0x3fcced2f	1.6009883
50	0xc13b14fd	-11.692624
51	0xc0f7d6f0	-7.7449875
52	0xbf39f024	-0.7263205
53	0x3ff9579a	1.9479859
54	0x404f3832	3.237805
55	0xc09a4263	-4.820604
56	0x4009343b	2.143813
57	0x3f9b8d3d	1.2152478
58	0xc08dc77f	-4.4306026
59	0xbf97e604	-1.186707
60	0x3ffcbc02	1.9744875
61	0x3f9aff08	1.2109079
62	0xc080d129	-4.0255322
63	0xc05d798b	-3.4605434
64	0x3fc0fe29	1.5077564
65	0x3d8af0f9	0.06784243
66	0x40e538df	7.1631923
67	0x40129313	2.2902267
68	0x3fe9de02	1.8270876
69	0x3f44640f	0.7671518
70	0x3f57417c	0.84084296
71	0xbe9ed603	-0.31022653
72	0xbfbb2404	-1.4620366
73	0x40278820	2.6176834
74	0x40c8628f	6.262031
75	0xc084357c	-4.131529
76	0x4048b2cb	3.1359127
77	0x405317cd	3.2983277
78	0xc0a2fac9	-5.0931134
79	0xc0de72cc	-6.9515133
80	0xc010e95b	-2.264243
81	0xbe3be694	-0.18349677
82	0x40d32c62	6.599168
83	0xc05099e4	-3.2593927
84	0x404e8d61	3.227379
85	0x40161b35	2.3454106
86	0xc0e068f5	-7.012812
87	0xc0ec00dc	-7.375105
88	0x3ffeb2e7	1.9898347
89	0x3f9d23b3	1.227652
90	0xc0867cd0	-4.202736
91	0xc05a2588	-3.4085407
92	0xbf1ed6e1	-0.6204663
93	0x3ffa496c	1.9553657
94	0x40dbe5ae	6.871787
95	0xc05dde97	-3.4667108
96	0x3fd0bc5a	1.630748
97	0x3e0fcee2	0.14043763
98	0x40c53aaf	6.1634135
99	0x3f3a1b56	0.7269796
100	0x3fedb73c	1.8571544
101	0x3ef8db28	0.48604703
102	0x403413a1	2.813698
103	0xc038bc1e	-2.8864818
104	0x400e98c8	2.228075
105	0x40003f99	2.0038817
106	0xbfadbe52	-1.3573706
107	0x41766e35	15.401906
108	0xbf0f3af4	-0.5594933
109	0xbffc7108	-1.9721994
110	0x409c6117	4.886852
111	0x40e298d9	7.081158
112	0xbf7a5813	-0.9779064
113	0xbfadc2a2	-1.3575022
114	0x409cc697	4.899242
115	0x40a71d2d	5.2223115
116	0x4014d762	2.325646
117	0xbf89f9de	-1.0779378
118	0xc07e421a	-3.9727845
119	0x408b2d9f	4.349319
120	0xbf82358d	-1.0172592
121	0x3f9cc924	1.2248883
122	0x40eb8f67	7.361255
123	0xc051a0f8	-3.2754498
124	0x3ff03157	1.8765057
125	0x3f837f2d	1.0273186
126	0xc014c6fc	-2.324645
127	0xc05b200c	-3.423831

feature_net.linear_layer_0.bias f4 [32]
0	0x40c26126	6.074359
1	0x40c3c8e1	6.1182714
2	0x40cd6844	6.4189777
3	0x405d7a77	3.4605997
4	0x40c781a8	6.234577
5	0x40c02588	6.0045815
6	0x40bd4e50	5.9158096
7	0xbfe244bf	-1.767723
8	0x40c39f38	6.113186
9	0x3f9a1b5b	1.2039598
10	0x40c9ac50	6.3022842
11	0x40c362e8	6.1058235
12	0x40b926fc	5.786009
13	0x3ed46bac	0.41488397
14	0x40bf8528	5.9850044
15	0x40c43e58	6.1326103
16	0x40ca265b	6.317182
17	0x40c9764a	6.2956896
18	0x40094a8c	2.145175
19	0x40d82d91	6.7555623
20	0x40a4404f	5.13285
21	0xbff060b8	-1.8779516
22	0x40c3c3f6	6.117671
23	0xbf5a25b7	-0.852138
24	0x40ce2e79	6.443173
25	0x40cfc503	6.4927993
26	0x406ce3fe	3.7014155
27	0x40b2e178	5.590023
28	0xbfe1c850	-1.7639256
29	0xc02896dd	-2.634208
30	0x40a9b818	5.3037224
31	0x40c676db	6.2020087

feature_net.layer_norm_0.weight f4 [32]
0	0x3f113371	0.5671912
1	0x3efa1173	0.48841438
2	0x40b3859f	5.610061
3	0x3ff61ab5	1.92269
4	0x3ee5bdf2	0.4487148
5	0x3f3a4ac2	0.7277032
6	0x3df953fd	0.121742226
7	0x40de247f	6.941955
8	0x3ed31c2d	0.41232434
9	0x402c2035	2.6894658
10	0x3ed9f0b9	0.4256647
11	0x3e21098a	0.15726295
12	0xbe1d042d	-0.15333624
13	0x4118bf12	9.546648
14	0x3f8b7f11	1.0898153
15	0x3ecf4f39	0.4049013
16	0x3e28295b	0.16422026
17	0x3eb27e4a	0.34861976
18	0x3ff32b5b	1.8997606
19	0x4089d2c4	4.306978
20	0x40779402	3.8684087
21	0x40a12430	5.0356674
22	0x3ebe11a7	0.37122843
23	0x4101098b	8.06483
24	0x3ee53d5a	0.4477337
25	0x3ed1c3c1	0.4096966
26	0x3eba71a4	0.36414826
27	0x408935d0	4.287819
28	0x4154da62	13.303316
29	0x40eea7d8	7.4579887
30	0x408ad51d	4.338515
31	0x3f24993d	0.64296323

feature_net.layer_norm_0.bias f4 [32]
0	0xbf2f9fc5	-0.68603164
1	0xbf319626	-0.69369733
2	0x404e0d7e	3.2195735
3	0xbe2816b3	-0.16414909
4	0xbf5a9858	-0.8538871
5	0xbf7584e1	-0.9590588
6	0xbe7b05ad	-0.24513884
7	0x40a27798	5.077099
8	0xbf3ab2c9	-0.72929054
9	0x3f03f4b1	0.51545244
10	0xbf7d5e5f	-0.98972124
11	0xbe858495	-0.26077715
12	0xbee60174	-0.44922984
13	0x3f8956e8	1.0729647
14	0xbfa0315f	-1.2515067
15	0xbf1a273d	-0.6021612
16	0xbf174e56	-0.59103906
17	0xbf075824	-0.52868867
18	0x40217898	2.5229855
19	0x40188dee	2.3836627
20	0x400f6db2	2.2410703
21	0x40332030	2.7988396
22	0xbf14f231	-0.58182055
23	0x3fdafcdb	1.7108415
24	0xbf69dab4	-0.9134934
25	0xbf4975d8	-0.7869544
26	0xbfd98bbf	-1.6995772
27	0x3fe06758	1.7531538
28	0x40427fb0	3.0390434
29	0x40cb67e0	6.35643
30	0x3ea41a59	0.32051352
31	0xbf5b21eb	-0.8559863

feature_net.linear_layer_1.weight f4 [32, 32]
0	0xbddce1ba	-0.107852414
1	0x3f4832e8	0.78202677
2	0x419212fd	18.259272
3	0x412b3c6b	10.7022505
4	0x3f2e3dc1	0.6806298
5	0xbf6ce1fa	-0.9253231
6	0x40d36386	6.605899
7	0x415c8f6f	13.785018
8	0xbf5ea95a	-0.8697716
9	0x40b88879	5.7666593
10	0xbfe71de3	-1.8055996
11	0xbcb0de16	-0.021590274
12	0x40873005	4.2246118
13	0x400c84c1	2.1956027
14	0xc05d586e	-3.4585223
15	0x3f7fea54	0.9996693
16	0x3f9e82a3	1.2383617
17	0x3f9d82b4	1.2305512
18	0x40b434fe	5.631469
19	0x4173ba1f	15.23294
20	0x419da2d1	19.7045
21	0x3f1ebdf2	0.62008584
22	0x3ef74f91	0.48302892
23	0xbf62dca8	-0.88617945
24	0xbfcd5d1f	-1.6044043
25	0x402d09c7	2.7037218
26	0x4116b645	9.419499
27	0x41bd705d	23.679865
28	0xc06b0600	-3.6722412
29	0x4134bcc7	11.296088
30	0x418c0ea5	17.50715
31	0x40388e35	2.8836796
32	0x3e031de3	0.1280437
33	0x3e54c9a6	0.20780048
34	0x41045252	8.270098
35	0x40a3198d	5.096869
36	0xbffbd4c7	-1.967431
37	0x3f2870c3	0.6579706
38	0x3e6c6d7c	0.2308864
39	0x400c1c0d	2.189212
40	0x3e20e2b6	0.15711483
41	0x40c78b74	6.235773
42	0x3f74a60e	0.9556588
43	0x3f6c7e1f	0.92379946
44	0x400525a2	2.080422
45	0xc098ab25	-4.7708917
46	0x3f585fb3	0.84521025
47	0x3ea7e69f	0.32793137
48	0x3fb507d3	1.4143013
49	0x3fbd6419	1.4796172
50	0x406e6d7d	3.7254326
51	0x409f3b72	4.9760065
52	0x3ffb316d	1.9624459
53	0x40a47ce5	5.140246
54	0x3e323969	0.17404713
55	0xc064bfb4	-3.5742006
56	0x3f2aef97	0.66771835
57	0x3fdec470	1.7403698
58	0x4010f91c	2.2652044
59	0xc0409f70	-3.0097313
60	0x3fd36d8c	1.6517806
61	0x41164532	9.391893
62	0x3fc19c70	1.5125866
63	0xbf7294e1	-0.9475842
64	0x3e02ccc4	0.12773424
65	0xbb6dcf4a	-0.0036286884
66	0x4156180d	13.380872
67	0x40ed94a3	7.424394
68	0xbe308258	-0.17237222
69	0x3ef3b33b	0.4759768
70	0x3f3dd4af	0.74152654
71	0x3f9599e3	1.1687587
72	0x3edbb409	0.42910793
73	0x40ad5ff2	5.417962
74	0xbff5960a	-1.9186413
75	0xbe6e2311	-0.23255564
76	0xbe6de7c9	-0.2323295
77	0x40af46a4	5.477373
78	0x3ec78dc3	0.38975343
79	0x3eb2d168	0.3492539
80	0x3f6377cb	0.88854665
81	0xbd56cc28	-0.052440792
82	0x40d0349e	6.506423
83	0x41693899	14.576318
84	0x4115385c	9.32626
85	0x3dee9efd	0.11651418
86	0xbe2c75d7	-0.16841827
87	0xbfd4c157	-1.6621503
88	0xbf2c8ca9	-0.6740213
89	0x3fc71d4f	1.5555819
90	0xbe410d4b	-0.18852727
91	0x415d37a4	13.826084
92	0x3f0ff427	0.5623192
93	0x3d296eca	0.041365422
94	0x415a1714	13.630634
95	0x3f85d0f2	1.045439
96	0x3e82f00e	0.25573772
97	0x3e97db53	0.2965952
98	0x418360e9	16.42232
99	0x4130fc14	11.0615425
100	0xbe79c4ad	-0.24391432
101	0xbe9b463a	-0.30327016
102	0x408364e7	4.106067
103	0x4166c6e0	14.423553
104	0x3ed40929	0.4141324
105	0x40ba9e03	5.8317885
106	0xbf57e2bb	-0.8433034
107	0x3f071fec	0.52783084
108	0x407fd05f	3.997093
109	0x406e8c7d	3.7273247
110	0xbfd0e713	-1.6320518
111	0x3f327dc7	0.6972317
112	0x3fdc5481	1.7213289
113	0x3f50293d	0.81312925
114	0x410151a7	8.082435
115	0x41688566	14.532568
116	0x419cfa97	19.622358
117	0x40268a1b	2.6021793
118	0xbe239b8c	-0.15977305
119	0x3fdda0f9	1.731475
120	0xbfe9eb8f	-1.8275012
121	0x4031e395	2.7795155
122	0x40d47fd4	6.640604
123	0x41b4ee9c	22.616508
124	0xc0603688	-3.5033283
125	0x410e1e99	8.88247
126	0x418e4aa5	17.786448
127	0x3f8329bb	1.024711
128	0x3f0d9cf9	0.55317646
129	0x3ed537a2	0.41644007
130	0x411c502b	9.769572
131	0x40267dce	2.6014285
132	0x3f79c62c	0.9756801
133	0x3f4b35a0	0.793787
134	0x3f20449b	0.62604684
135	0x404aed65	3.1707394
136	0x3e9c4bb4	0.30526507
137	0x4011a902	2.2759404
138	0xc000358a	-2.0032678
139	0x3e969942	0.294138
140	0x3faf8cf8	1.3714895
141	0xbfb14462	-1.3848994
142	0x3ee7087d	0.45123664
143	0x3fb722de	1.4307516
144	0xbf2e93eb	-0.68194455
145	0x3f163f6f	0.5869054
146	0x40d56a66	6.669238
147	0x4086dcfa	4.2144747
148	0x40ad6e4c	5.419714
149	0x40a8cbcd	5.274878
150	0x3eca1101	0.39466098
151	0x3f450942	0.7696725
152	0x3fb6e4f7	1.4288625
153	0x4006c8d7	2.1060083
154	0x3f1a1ff9	0.60205036
155	0x407f5441	3.9895175
156	0x40cf3844	6.4756184
157	0x40821011	4.064461
158	0x40d391c6	6.6115446
159	0x3fe7b6e5	1.810269
160	0x3edefa68	0.4355042
161	0xbef69ff3	-0.48168907
162	0x40241033	2.5634887
163	0x4104dd46	8.304022
164	0x3e94de98	0.29076076
165	0x3f0439ab	0.51650494
166	0x3ec35cf6	0.3815686
167	0xc106cc3f	-8.424865
168	0xbdcb05c2	-0.099132076
169	0x40a85425	5.2602715
170	0x3ed8049b	0.42191014
171	0x3ecb4b80	0.3970604
172	0xbd4bb5a5	-0.049733777
173	0xc088d6be	-4.2762136
174	0x3f6c84b7	0.92390007
175	0xbee1696e	-0.4402575
176	0x3f869cc5	1.0516592
177	0x3d891c6b	0.066948734
178	0x408256f8	4.0731163
179	0x40faacc7	7.833591
180	0x41009331	8.035935
181	0x40d0f6d8	6.5301323
182	0x3e61021b	0.2197346
183	0xc0b2d339	-5.588284
184	0x3f12d2df	0.57353014
185	0x3f801cc1	1.0008775
186	0x3fa1e05e	1.2646596
187	0xbefb1c39	-0.4904497
188	0xbffd3df2	-1.9784529
189	0xc1048826	-8.283239
190	0x4006be75	2.1053746
191	0x3ea68aae	0.3252768
192	0xbd81a48d	-0.06330214
193	0x3d967383	0.07346251
194	0xbf555bde	-0.83343303
195	0x4124359e	10.26309
196	0xbf8a1540	-1.0787735
197	0x3fafb08e	1.3725755
198	0x3f443d07	0.7665562
199	0x4015c17f	2.339935
200	0xbd961680	-0.0732851
201	0xbea297f5	-0.3175656
202	0x3fc1d154	1.5142007
203	0x3d996ada	0.074910834
204	0x3f8bda88	1.0926065
205	0x403bfdfb	2.9373767
206	0x3f2ea2e9	0.6821733
207	0x3ed9fa61	0.42573836
208	0x3f900b04	1.1253362
209	0x4025c739	2.5902846
210	0x40583e75	3.378812
211	0x3f33ccfd	0.7023466
212	0x409e568a	4.948064
213	0x3fe8da0c	1.8191543
214	0xbb668950	-0.003517706
215	0x401df681	2.4681704
216	0x402f1428	2.7356052
217	0x3ff153ae	1.8853662
218	0xc07242ce	-3.7853274
219	0x40aa77af	5.32711
220	0x406a20ec	3.6582594
221	0x40eb8639	7.3601346
222	0x40b7bd28	5.7418404
223	0xbf1b8ac6	-0.60758626
224	0x3f951f96	1.1650264
225	0x3ed7adea	0.42124873
226	0x412835ac	10.5131035
227	0x404c1601	3.188843
228	0x3f7a5d61	0.97798735
229	0x3f9a211a	1.2041352
230	0x3f9ddf1e	1.2333715
231	0x40af2a0c	5.4738827
232	0x3e513183	0.20429043
233	0x4081c48c	4.0552425
234	0xbf7accea	-0.97968924
235	0x3e173c8d	0.14769192
236	0x400f3201	2.237427
237	0xbff143f2	-1.884886
238	0xbe308b84	-0.17240721
239	0xbc41a3c7	-0.011818833
240	0x3f942644	1.1574178
241	0x3f1c54f3	0.6106712
242	0x4130b4e0	11.044159
243	0x40d5eb1b	6.6849494
244	0x40f2435b	7.570722
245	0xbe99ec55	-0.3006312
246	0x3e2acac5	0.16678913
247	0x3fff7095	1.9956232
248	0x3edda2a4	0.43288147
249	0x40199f17	2.400335
250	0xc06b5211	-3.676884
251	0x40be9ee6	5.956897
252	0x3fca6f2a	1.5815175
253	0x3f619fec	0.88134646
254	0x4097c393	4.742624
255	0x3f3ba7da	0.73302996

feature_net.linear_layer_1.bias f4 [32]
0	0x41686d5b	14.526698
1	0x407e0912	3.9693036
2	0x413a523b	11.645076
3	0x416d1260	14.816986
4	0x411f16c0	9.943054
5	0x410b4c2c	8.706097
6	0x4087fb35	4.249415
7	0x41146280	9.274048
8	0x41630874	14.189564
9	0x3f00f563	0.5037443
10	0x404a654f	3.1624334
11	0x41172dd0	9.448685
12	0x40851707	4.159061
13	0x40719745	3.7748578
14	0x41218232	10.094286
15	0x416c02da	14.750696
16	0x3e271e69	0.16320194
17	0x411ce162	9.805025
18	0x400d596b	2.2085826
19	0x40df1b6e	6.9720984
20	0x4023bb78	2.5583172
21	0x41688b09	14.533944
22	0x417f34eb	15.950419
23	0x4171b613	15.106952
24	0x40beef54	5.966715
25	0x40b78170	5.7345505
26	0xbf1d7674	-0.6150887
27	0x412baaaf	10.729171
28	0x40b8f45f	5.7798305
29	0x4081abbd	4.052214
30	0x411c57bd	9.7714205
31	0x4173006f	15.187606

feature_net.layer_norm_1.weight f4 [32]
0	0x3e47397a	0.1945552
1	0x3fdcf9a6	1.7263687
2	0xbfbe43ee	-1.486448
3	0x3e80b1eb	0.2513574
4	0x40b0407d	5.507872
5	0x401977a6	2.3979278
6	0x404c03bd	3.1877282
7	0x40b63da2	5.6950235
8	0x3e6813a2	0.2266374
9	0x3f876dfb	1.0580438
10	0x40609e16	3.5096488
11	0x409455d2	4.635476
12	0x405e09cc	3.469348
13	0x40718279	3.7735884
14	0x3fa62714	1.2980676
15	0x3ee8b575	0.4545094
16	0x4044536a	3.0675912
17	0x40925ea8	4.5740547
18	0x3f7ef443	0.99591464
19	0x40b55cc3	5.6675735
20	0x40125aea	2.286799
21	0xbebc2482	-0.36746603
22	0x3e884b3c	0.266199
23	0x3f42afda	0.7604958
24	0x40271bc2	2.6110692
25	0x40286170	2.630947
26	0x402463d1	2.5685923
27	0x4045b8be	3.0894008
28	0x3fc77616	1.5582912
29	0x40640e0d	3.5633576
30	0x401d1fde	2.45507
31	0x3f5cb145	0.8620799

feature_net.layer_norm_1.bias f4 [32]
0	0xbf5b1b2c	-0.85588336
1	0x3f74f461	0.9568539
2	0xbe5dbae0	-0.21653318
3	0xbf12a78a	-0.57286894
4	0xbe61c4ce	-0.22047731
5	0x401945e8	2.3948917
6	0x401bf55e	2.436851
7	0xbf2f9e32	-0.6860076
8	0xbf52a471	-0.8228217
9	0x3f39ad3e	0.7252997
10	0x402047e1	2.5043871
11	0xbf5dece4	-0.8668959
12	0x4024c4dd	2.5745156
13	0x4005cd7c	2.0906668
14	0xbf9fceae	-1.2484949
15	0xbf84bea5	-1.037068
16	0x404037da	3.003409
17	0xbfe28feb	-1.770017
18	0x3f20776d	0.6268223
19	0x3f124901	0.57142645
20	0x3fa1497b	1.260055
21	0xbe897145	-0.2684423
22	0xbf3a1223	-0.72683924
23	0xbf8513cd	-1.0396668
24	0x3fc83760	1.5641899
25	0xbf2fa5c9	-0.68612343
26	0x4034d24f	2.8253362
27	0xbf8b9538	-1.0904913
28	0x3eb5bc1d	0.35495082
29	0x404af567	3.1712282
30	0xbfb06f09	-1.3783885
31	0xbfc4138b	-1.5318464

feature_net.linear_layer_output.weight f4 [5, 32]
0	0xbec8c1f2	-0.3921047
1	0x3f572b89	0.84050804
2	0xbf4ed560	-0.80794334
3	0xbe4a866c	-0.1977784
4	0xc06a8ab6	-3.6647162
5	0xc01739f4	-2.3629122
6	0x3fceafef	1.6147441
7	0xbf49d8c3	-0.7884638
8	0x3db50b1e	0.08840011
9	0xbf5d5854	-0.86462903
10	0x3eca7ddd	0.3954915
11	0xbf61e53a	-0.88240397
12	0x3f39edd9	0.7262855
13	0x4074d1d4	3.825307
14	0x3e0b9fbf	0.13635157
15	0xbf8e0801	-1.1096193
16	0x3fd1971d	1.6374241
17	0xbfb44476	-1.4083393
18	0xbf655803	-0.8958742
19	0x4093ad8d	4.6149354
20	0xbfcf275e	-1.6183889
21	0x404f04a9	3.2346594
22	0xbfc9d0e3	-1.5766872
23	0xbfd7e36e	-1.6866281
24	0xc0065685	-2.0990307
25	0xc0222f44	-2.5341349
26	0xbe7f487e	-0.24929997
27	0xbf4ff085	-0.8122638
28	0xc0392777	-2.8930337
29	0xbfd9f1e6	-1.7026947
30	0xbfcf1b07	-1.6180123
31	0xbfc83850	-1.5642185
32	0x3e2e33ac	0.17011899
33	0xc1142120	-9.258087
34	0x3f39ecc3	0.72626895
35	0xbe6e2b05	-0.23258598
36	0x4147da93	12.490863
37	0xbf1a91c2	-0.6037866
38	0x3fa7d705	1.3112494
39	0x404ba085	3.1816723
40	0x3f0f9727	0.56090015
41	0x41995dbf	19.170774
42	0xc039140a	-2.891848
43	0x40d5a2c2	6.676118
44	0xbeddee46	-0.4334585
45	0xbf5da17d	-0.86574537
46	0x4090cdbd	4.5251145
47	0x3f5465cc	0.8296783
48	0x3ff53432	1.9156554
49	0xc001f403	-2.0305183
50	0xc1aaa0e8	-21.328568
51	0x3f597fc4	0.8496058
52	0xc15da1b0	-13.8519745
53	0xbf3440d4	-0.7041142
54	0xbe30e980	-0.17276573
55	0x3dd4e4c3	0.10395195
56	0xbffa4fe1	-1.9555627
57	0xbfb2c9e0	-1.3967857
58	0xbf762650	-0.9615221
59	0xc0190601	-2.3909914
60	0x3e5e76ef	0.21725057
61	0x40f65edb	7.699079
62	0xc0b3fe92	-5.6248255
63	0xbf44d054	-0.76880383
64	0xbedc444a	-0.4302085
65	0x413452dc	11.270229
66	0x3e4203ba	0.18946734
67	0xbf0f72a2	-0.5603429
68	0xc1056a90	-8.338516
69	0x3fd4e9fd	1.6633908
70	0xbf5c79c7	-0.8612332
71	0xc04dae06	-3.2137465
72	0x3f0b406a	0.54395163
73	0xc1cc158b	-25.510519
74	0x407731f8	3.8624249
75	0xbfbc73c6	-1.4722831
76	0x3e58ddcc	0.21178359
77	0x3fcfa1cd	1.6221253
78	0xc03a501c	-2.9111395
79	0xbf914326	-1.1348617
80	0xbfdf9697	-1.7467831
81	0x3e925a55	0.28584543
82	0x419d5655	19.667154
83	0x3eadded4	0.33959067
84	0x403641fa	2.847777
85	0x3f2c69b6	0.673488
86	0x3eecb561	0.4623213
87	0xbe930ccb	-0.28720698
88	0xc0b0eb77	-5.5287433
89	0xbe9c4bc4	-0.30526555
90	0x3f93f311	1.1558553
91	0xbec49e60	-0.3840208
92	0xbeff9864	-0.49920952
93	0xc0f20356	-7.562907
94	0x408c147a	4.3774996
95	0x3e27a3a1	0.16371013
96	0xbe3a27e0	-0.18179274
97	0xbe5cd792	-0.21566609
98	0xbf848614	-1.0353417
99	0x3d80ef28	0.062956154
100	0x4107aefa	8.480219
101	0xc068e064	-3.6386957
102	0xc025bf71	-2.5898097
103	0xbfbdac14	-1.4818139
104	0xbe624830	-0.2209785
105	0x3fb4c362	1.4122126
106	0x3f7a2f8d	0.97728807
107	0xc06681a1	-3.601662
108	0xbf026ac7	-0.5094418
109	0xbf7a26d3	-0.9771549
110	0xbf93b4ef	-1.1539592
111	0xbe959ac7	-0.29219648
112	0x40ef056f	7.4694133
113	0xbed3de9f	-0.41380784
114	0x3e3e16e6	0.18563423
115	0x3f9177d1	1.136469
116	0xc0cb5d49	-6.3551373
117	0x3f5c1988	0.8597646
118	0x3e48e4a2	0.19618466
119	0x3fcbe78c	1.5930037
120	0xc05089d4	-3.2584124
121	0x41211bcb	10.069285
122	0x403f5a55	2.9898884
123	0xbfa51c16	-1.2899196
124	0xc2065ddb	-33.591656
125	0x3e48b14c	0.19598883
126	0xc18ea85e	-17.83221
127	0xbfdaa475	-1.7081438
128	0x3c3681da	0.011139357
129	0x40025419	2.036383
130	0xbdd533ba	-0.10410257
131	0xbb6b2342	-0.003587917
132	0xbfe74db6	-1.807059
133	0x400398bc	2.0561972
134	0xbf94247c	-1.1573634
135	0x3f0e940d	0.5569466
136	0x3db5a3a9	0.08869106
137	0x3ea4b974	0.3217274
138	0xbebb75d7	-0.36613342
139	0x409c27b7	4.879848
140	0xc07198a9	-3.7749426
141	0x3fc2b6ef	1.5212077
142	0xbfa5ac46	-1.2943199
143	0xbe7d25a8	-0.24721396
144	0xc0c127c7	-6.0361056
145	0xbe1984f1	-0.1499212
146	0x3f3c1b0c	0.7347877
147	0xbc8c5c27	-0.017133785
148	0x4040f46b	3.014918
149	0x3e102445	0.14076336
150	0x3efe25ce	0.49638218
151	0x3e5a47bf	0.21316431
152	0x3fe437f2	1.7829573
153	0xc159034a	-13.563303
154	0xc02ba402	-2.6818852
155	0x3fbec633	1.4904236
156	0x41f670fd	30.80517
157	0xbeaca48f	-0.33719298
158	0x410de238	8.867729
159	0x3fc9a478	1.5753317

feature_net.linear_layer_output.bias f4 [5]
0	0x3ff60112	1.9219077
1	0x402f27ad	2.7367966
2	0xc06f56ca	-3.7396722
3	0x3f409f5f	0.7524318
4	0x3f48958d	0.78353196

feature_net.linear_layer_0.weight f4 [32, 4]
0	0x4002ad83	2.0418403
1	0x3f78484c	0.96985316
2	0xc0600031	-3.5000117
3	0xc016bb76	-2.3551917
4	0x4002cfc6	2.0439315
5	0x3f8814d8	1.0631361
6	0xc088bdf9	-4.27319
7	0xc0672591	-3.6116679
8	0x3fd5e348	1.6709986
9	0xc0022baf	-2.0339162
10	0xc08a0176	-4.3126783
11	0x40f14d69	7.5406995
12	0x3fec7255	1.8472391
13	0xc02826b9	-2.6273634
14	0x40aced94	5.404001
15	0x3f2b3c58	0.6688895
16	0x3ff2afd9	1.8959914
17	0x3f3b984e	0.73279274
18	0xbf8f8ed1	-1.1215459
19	0xbffeef7f	-1.9916838
20	0x400daad3	2.2135513
21	0x3f9092be	1.1294782
22	0xc0b493e0	-5.643051
23	0xc02f7743	-2.7416542
24	0x40122df1	2.284054
25	0x3f957528	1.1676378
26	0xc0c12afb	-6.0364966
27	0xbfee0978	-1.859664
28	0xbe872bc2	-0.26400572
29	0xbfcc9514	-1.5982995
30	0x409f138c	4.971136
31	0x40e188eb	7.0479636
32	0x40027cb1	2.0388606
33	0x3f88337a	1.0640709
34	0xc087e7f7	-4.247066
35	0xc061a7fd	-3.5258782
36	0x403492d2	2.8214612
37	0x3f24a040	0.6430702
38	0xc11d1634	-9.817921
39	0x40c8e87c	6.2783794
40	0x3fb751e8	1.4321871
41	0xbe0907bf	-0.13381861
42	0x40efdf5a	7.4960146
43	0x4049b559	3.1516936
44	0x4001ba1d	2.0269845
45	0x3f83bd39	1.0292121
46	0xc07d11e4	-3.954217
47	0xc04c2a19	-3.1900694
48	0x4009e3be	2.1545253
49	0x3fbadae1	1.4598047
50	0xc139e7aa	-11.619059
51	0xc0fa9a94	-7.8313694
52	0xbf4f310c	-0.80934215
53	0x40035c14	2.052495
54	0x404c5f4e	3.193317
55	0xc09a1127	-4.814594
56	0x400ce081	2.2012026
57	0x3f82d0fd	1.0220028
58	0xc08c4519	-4.383435
59	0xbfa402e3	-1.2813381
60	0x4000fac9	2.0153067
61	0x3f84c216	1.037173
62	0xc07f2650	-3.9867134
63	0xc06333aa	-3.5500283
64	0x3fbece90	1.4906788
65	0xbd6ba685	-0.057531852
66	0x40e23f28	7.0702095
67	0x400ec4ef	2.2307699
68	0x3feae7af	1.8351954
69	0x3f16a440	0.58844376
70	0x3f50d805	0.8157962
71	0xbec944a1	-0.39310172
72	0xbfb6502b	-1.4243215
73	0x4022895f	2.5396345
74	0x40c9a1ba	6.300992
75	0xc085b0c8	-4.1778297
76	0x404680f5	3.101621
77	0x4054d940	3.32576
78	0xc0a35447	-5.104038
79	0xc0dc9cb2	-6.894128
80	0xc015ab85	-2.3385937
81	0xbe5c1356	-0.21491751
82	0x40d0c84a	6.5244493
83	0xc04e74c2	-3.2258763
84	0x4048d3f5	3.1379368
85	0x401d6e9c	2.459876
86	0xc0e285a1	-7.078812
87	0xc0ea8dec	-7.3298244
88	0x40020e12	2.0321088
89	0x3f86c3fb	1.0528558
90	0xc0852e23	-4.161882
91	0xc05fe7c6	-3.4985213
92	0xbf1c2ce8	-0.6100602
93	0x3ffa2bdf	1.9544638
94	0x40dcf38a	6.904729
95	0xc061409d	-3.5195687
96	0x3fcdf0a0	1.6089058
97	0x3bc90a8b	0.00613529
98	0x40c24f46	6.072177
99	0x3f28f380	0.6599655
100	0x3fea51ca	1.830621
101	0x3eb00173	0.34376106
102	0x402fbbc1	2.7458346
103	0xc03d820b	-2.9610622
104	0x401320a9	2.2988684
105	0x3ff4915e	1.9106863
106	0xbfa846a0	-1.3146553
107	0x4175fdcb	15.374461
108	0xbf087e21	-0.5331746
109	0xbffa69a2	-1.9563487
110	0x409cf45b	4.9048285
111	0x40e28c93	7.07966
112	0xbf839895	-1.0280939
113	0xbfac6107	-1.346711
114	0x409993b5	4.7992806
115	0x40a54ebf	5.1658626
116	0x401761e4	2.3653498
117	0xbf92f11d	-1.1479832
118	0xc0795ff6	-3.896482
119	0x408c5180	4.3849487
120	0xbf6dcfbc	-0.928951
121	0x3f992046	1.1962974
122	0x40ef0dc4	7.4704304
123	0xc0516d5c	-3.2722998
124	0x3ff328e4	1.8996854
125	0x3f5c19c2	0.85976803
126	0xc013afd5	-2.307607
127	0xc060a83a	-3.5102677

feature_net.linear_layer_0.bias f4 [32]
0	0x40c25c93	6.0738006
1	0x40c32773	6.0985656
2	0x40ccac2e	6.396018
3	0x405fa689	3.4945395
4	0x40c7d1b0	6.2443466
5	0x40bfdaff	5.995483
6	0x40bd6cf1	5.9195485
7	0xbfdf0f87	-1.7426614
8	0x40c3076c	6.094656
9	0x3f96970d	1.1764847
10	0x40ccafde	6.396468
11	0x40c2f2e3	6.0921493
12	0x40b73f52	5.7264795
13	0x3ebd387c	0.36957157
14	0x40c00d1b	6.0016
15	0x40c3a5f5	6.1140084
16	0x40ccb85f	6.397506
17	0x40cabed5	6.335795
18	0x400a0a84	2.1568918
19	0x40d92041	6.7851872
20	0x40a258fd	5.073363
21	0xbff002a6	-1.8750808
22	0x40c32fc2	6.09958
23	0xbf43b23b	-0.76443833
24	0x40cff131	6.4981923
25	0x40cf76f9	6.483273
26	0x4075433a	3.8322282
27	0x40b21d29	5.5660596
28	0xbfea763c	-1.8317332
29	0xc0274d44	-2.614091
30	0x40aab914	5.3350925
31	0x40c5ee59	6.185345

feature_net.layer_norm_0.weight f4 [32]
0	0x3f1133b7	0.56719536
1	0x3efa11d5	0.4884173
2	0x40b27280	5.576477
3	0x3ff300c5	1.898461
4	0x3ee5be50	0.4487176
5	0x3f3a4add	0.7277048
6	0x3df95461	0.12174297
7	0x40dd7777	6.920833
8	0x3ed31c63	0.41232595
9	0x4032a78c	2.7914762
10	0x3ed9f0d3	0.42566547
11	0x3e2109a0	0.15726328
12	0xbe1d0453	-0.15333681
13	0x411aeff1	9.683579
14	0x3f8b7f2a	1.0898182
15	0x3ecf4f56	0.40490216
16	0x3e282974	0.16422063
17	0x3eb27e61	0.34862044
18	0x3ff290f7	1.895049
19	0x4089283f	4.286163
20	0x4076dbb0	3.8571587
21	0x40a19ea1	5.050614
22	0x3ebe120d	0.37123147
23	0x4100cf9c	8.050686
24	0x3ee53dcc	0.4477371
25	0x3ed1c3db	0.40969738
26	0x3eba71ed	0.36415043
27	0x4088c35f	4.273849
28	0x415378d5	13.217
29	0x40ef1a4f	7.4719615
30	0x408d86db	4.422712
31	0x3f249958	0.64296484

feature_net.layer_norm_0.bias f4 [32]
0	0xbf2f9f9d	-0.68602926
1	0xbf3195f6	-0.6936945
2	0x404abb44	3.1676798
3	0xbe0e4304	-0.13892752
4	0xbf5a9804	-0.8538821
5	0xbf75849a	-0.9590546
6	0xbe7b0596	-0.2451385
7	0x40a31786	5.0966215
8	0xbf3ab2c6	-0.72929037
9	0x3f0951d5	0.5364049
10	0xbf7d5e5e	-0.9897212
11	0xbe85844f	-0.26077506
12	0xbee60181	-0.44923022
13	0x3f87c437	1.0606755
14	0xbfa03139	-1.2515022
15	0xbf1a2720	-0.6021595
16	0xbf174e38	-0.5910373
17	0xbf0757e3	-0.5286848
18	0x40232ba4	2.5495386
19	0x4018d7ac	2.3881636
20	0x400a06b1	2.1566584
21	0x40330e2d	2.7977402
22	0xbf14f1ec	-0.58181643
23	0x3fe84b35	1.8147951
24	0xbf69daa9	-0.91349274
25	0xbf4975af	-0.78695196
26	0xbfd98ba8	-1.6995745
27	0x3fdaacc7	1.7083977
28	0x403dcfff	2.96582
29	0x40cb4f11	6.3534017
30	0x3ec56c2e	0.38559097
31	0xbf5b21e8	-0.8559861

feature_net.linear_layer_1.weight f4 [32, 32]
0	0xbddce1f3	-0.10785284
1	0x3f4832a3	0.78202266
2	0x41927e2b	18.311605
3	0x412ac49f	10.673003
4	0x3f2e3e18	0.680635
5	0xbf6ce1a9	-0.9253183
6	0x40d363df	6.6059413
7	0x415b3a14	13.701679
8	0xbf5ea908	-0.8697667
9	0x40ba91f2	5.8303156
10	0xbfe71de1	-1.8055993
11	0xbcb0ddfa	-0.021590222
12	0x4087306e	4.224662
13	0x400e7730	2.2260246
14	0xc05d5850	-3.4585152
15	0x3f7fea52	0.9996692
16	0x3f9e825c	1.2383533
17	0x3f9d8280	1.230545
18	0x40b2a6ce	5.582862
19	0x417436e0	15.263397
20	0x419d3a2f	19.65341
21	0x3f2f4500	0.6846466
22	0x3ef74f96	0.48302907
23	0xbf664a9b	-0.8995759
24	0xbfcd5d4a	-1.6044095
25	0x402d0981	2.703705
26	0x4116b644	9.419498
27	0x41bd1dcf	23.639555
28	0xc06b5488	-3.6770344
29	0x4135e79e	11.369047
30	0x418b54fc	17.416496
31	0x40388df2	2.8836637
32	0x3e031e3e	0.12804505
33	0x3e54c9b0	0.20780063
34	0x4103b4b3	8.231616
35	0x40a3065a	5.0945253
36	0xbffbd501	-1.9674379
37	0x3f28708d	0.6579674
38	0x3e6c6da4	0.230887
39	0x400d2ae3	2.2057426
40	0x3e20e2f4	0.15711576
41	0x40c53689	6.162907
42	0x3f74a655	0.955663
43	0x3f6c7e70	0.9238043
44	0x400525c6	2.0804305
45	0xc098d2e6	-4.7757444
46	0x3f585fa8	0.8452096
47	0x3ea7e6a9	0.32793167
48	0x3fb507fd	1.4143063
49	0x3fbd63d6	1.4796093
50	0x40702ec5	3.7528546
51	0x409d96c5	4.9246545
52	0x40015a19	2.0211241
53	0x40a1d0a9	5.056721
54	0x3e32393e	0.17404649
55	0xc063841b	-3.554938
56	0x3f2af000	0.6677246
57	0x3fdec460	1.7403679
58	0x4010f983	2.265229
59	0xc040117a	-3.0010667
60	0x3fd5c6de	1.6701314
61	0x4114c887	9.298957
62	0x3fc228fe	1.516876
63	0xbf7294a6	-0.9475807
64	0x3e02cc9b	0.12773363
65	0xbb6dcf8c	-0.0036287038
66	0x4155b665	13.35703
67	0x40ec795a	7.3898134
68	0xbe30822e	-0.1723716
69	0x3ef3b35d	0.4759778
70	0x3f3dd51d	0.7415331
71	0x3f923383	1.142197
72	0x3edbb463	0.42911062
73	0x40ad1082	5.408265
74	0xbff5962d	-1.9186455
75	0xbe6e22c1	-0.23255445
76	0xbe6de828	-0.23233092
77	0x40af720c	5.4826717
78	0x3ec78dcb	0.38975367
79	0x3eb2d195	0.34925523
80	0x3f6377e4	0.88854814
81	0xbd56cc87	-0.052441146
82	0x40ce967e	6.4558706
83	0x4168c188	14.547249
84	0x4114f827	9.310584
85	0x3e263638	0.1623162
86	0xbe2c75d9	-0.1684183
87	0xbfd04d05	-1.6273504
88	0xbf2c8ce4	-0.6740248
89	0x3fc71d4b	1.5555815
90	0xbe410d57	-0.18852745
91	0x415ca659	13.790612
92	0x3f0c64cb	0.548413
93	0x3d8792f6	0.066198274
94	0x4159311e	13.5744915
95	0x3f85d0df	1.0454367
96	0x3e82efc3	0.2557355
97	0x3e97db3c	0.2965945
98	0x4183ba85	16.466074
99	0x41306024	11.023472
100	0xbe79c47e	-0.24391362
101	0xbe9b463c	-0.30327022
102	0x408364f2	4.1060724
103	0x41659c5c	14.350674
104	0x3ed4091c	0.414132
105	0x40bc5102	5.8848886
106	0xbf57e2a8	-0.84330225
107	0x3f072006	0.5278324
108	0x407fd089	3.997103
109	0x4070c50a	3.7620263
110	0xbfd0e727	-1.6320542
111	0x3f327dfd	0.6972349
112	0x3fdc548c	1.7213302
113	0x3f5028ec	0.8131244
114	0x410091fe	8.035643
115	0x4168eb18	14.557396
116	0x419c9492	19.572544
117	0x402a6ed0	2.6630135
118	0xbe239b71	-0.15977265
119	0x3fdc657e	1.7218473
120	0xbfe9ebd8	-1.8275099
121	0x4031e34e	2.7794986
122	0x40d47fdc	6.640608
123	0x41b491ca	22.571186
124	0xc0602bf2	-3.5026822
125	0x410f264f	8.946853
126	0x418d9855	17.69938
127	0x3f832993	1.0247062
128	0x3f0d9d5a	0.55318224
129	0x3ed53774	0.4164387
130	0x411b7c01	9.717774
131	0x4023ca1f	2.5592115
132	0x3f79c671	0.9756842
133	0x3f4b35ba	0.79378855
134	0x3f20445d	0.62604314
135	0x404b16ad	3.173259
136	0x3e9c4b90	0.305264
137	0x400d58a1	2.2085345
138	0xc000356c	-2.0032606
139	0x3e9698f8	0.2941358
140	0x3faf8cdd	1.3714863
141	0xbfb4b2fb	-1.411712
142	0x3ee70865	0.45123592
143	0x3fb7230d	1.4307572
144	0xbf2e9408	-0.6819463
145	0x3f163f83	0.5869066
146	0x40d40718	6.625866
147	0x4084ab9b	4.145948
148	0x40ad482b	5.4150596
149	0x40a82f69	5.2557874
150	0x3eca1126	0.39466208
151	0x3f4c1b25	0.7972892
152	0x3fb6e555	1.4288737
153	0x4006c887	2.1059892
154	0x3f1a2017	0.60205215
155	0x407d760c	3.96033
156	0x40cee588	6.465519
157	0x40816992	4.044137
158	0x40d27417	6.576671
159	0x3fe7b700	1.8102722
160	0x3edefa48	0.43550324
161	0xbef69fce	-0.48168796
162	0x402cb364	2.6984491
163	0x41036daf	8.214278
164	0x3e94dec7	0.29076216
165	0x3f0439d6	0.5165075
166	0x3ec35d22	0.38156992
167	0xc1077124	-8.465122
168	0xbdcb05af	-0.099131934
169	0x40adaffa	5.4277315
170	0x3ed80507	0.42191336
171	0x3ecb4b9a	0.39706117
172	0xbd4bb5da	-0.049733974
173	0xc08ce92b	-4.403463
174	0x3f6c8514	0.9239056
175	0xbee16955	-0.44025674
176	0x3f869d2a	1.0516713
177	0x3d891c3b	0.06694838
178	0x407e04d8	3.9690456
179	0x40fbf986	7.8742094
180	0x40fc7127	7.8888125
181	0x40d178ed	6.5460114
182	0x3e6101d1	0.21973349
183	0xc0b62d97	-5.693065
184	0x3f12d2f3	0.5735313
185	0x3f801c9e	1.0008733
186	0x3fa1e078	1.2646627
187	0xbef5a915	-0.47980562
188	0xc0003329	-2.0031226
189	0xc102af91	-8.167863
190	0x3fff7334	1.9957032
191	0x3ea68b00	0.32527924
192	0xbd81a483	-0.06330206
193	0x3d9673db	0.073463164
194	0xbf677c8e	-0.9042443
195	0x41225663	10.1460905
196	0xbf8a1572	-1.0787795
197	0x3fafb0cc	1.3725829
198	0x3f443d5a	0.76656115
199	0x400c735b	2.1945407
200	0xbd9616e3	-0.07328584
201	0xbed11e16	-0.40843266
202	0x3fc1d10b	1.514192
203	0x3d996ad8	0.07491082
204	0x3f8bda2f	1.0925959
205	0x40406b35	3.0065434
206	0x3f2ea344	0.68217874
207	0x3ed9fa34	0.42573702
208	0x3f900b3b	1.1253427
209	0x4025c74c	2.590289
210	0x4052d007	3.293947
211	0x3f385a27	0.7201256
212	0x409cb672	4.897271
213	0x3ff2d55b	1.8971361
214	0xbb668970	-0.0035177134
215	0x40173203	2.3624275
216	0x402f1429	2.7356055
217	0x3ff1538e	1.8853624
218	0xc072429e	-3.785316
219	0x40a624e7	5.1920047
220	0x4061b757	3.5268152
221	0x40ea072a	7.3133745
222	0x40b4722e	5.638938
223	0xbf1b8a98	-0.6075835
224	0x3f951f3c	1.1650157
225	0x3ed7ae4f	0.42125174
226	0x41276a92	10.463518
227	0x40492e55	3.143453
228	0x3f7a5d3a	0.977985
229	0x3f9a2143	1.2041401
230	0x3f9ddf77	1.2333821
231	0x40aee1c7	5.4650607
232	0x3e513160	0.20428991
233	0x407f52ba	3.9894242
234	0xbf7accf2	-0.9796897
235	0x3e173c40	0.14769077
236	0x400f320a	2.2374291
237	0xbff4cc84	-1.9124913
238	0xbe308bf1	-0.17240883
239	0xbc41a41e	-0.011818914
240	0x3f942604	1.1574101
241	0x3f1c5553	0.61067694
242	0x412fe8bc	10.99432
243	0x40d3d26f	6.6194377
244	0x40f1c69a	7.5554934
245	0xbea4cf83	-0.3218957
246	0x3e2aca81	0.16678812
247	0x400148d6	2.0200706
248	0x3edda2eb	0.4328836
249	0x40199ecc	2.4003172
250	0xc06b520d	-3.676883
251	0x40bd937d	5.924254
252	0x3fc885d9	1.5665847
253	0x3f5b3324	0.8562491
254	0x4096618e	4.6994085
255	0x3f3ba7b2	0.7330276

feature_net.linear_layer_1.bias f4 [32]
0	0x4168804b	14.531322
1	0x407c65d9	3.9437163
2	0x4139d303	11.614017
3	0x416d0b80	14.815308
4	0x411e5a66	9.89707
5	0x410bb3fc	8.7314415
6	0x4085b193	4.1779265
7	0x4113a349	9.227365
8	0x4163218f	14.195693
9	0x3ee555be	0.4479198
10	0x404682b4	3.1017275
11	0x4115cc07	9.362311
12	0x4083ce1e	4.118911
13	0x40733f79	3.800749
14	0x412085f4	10.032703
15	0x416bd2f2	14.739
16	0x3dbcb32f	0.09213864
17	0x411c1765	9.755712
18	0x400c5b35	2.1930668
19	0x40dd6eaa	6.919759
20	0x4027a0cf	2.61919
21	0x41688ce1	14.534394
22	0x417f27d0	15.94722
23	0x41713b19	15.076928
24	0x40be4265	5.945605
25	0x40b5fd05	5.687136
26	0xbf11fe32	-0.57028496
27	0x412d62a2	10.83658
28	0x40b85de1	5.76146
29	0x408160a7	4.0430484
30	0x411b8f46	9.722479
31	0x4172a83d	15.166074

feature_net.layer_norm_1.weight f4 [32]
0	0x3e4739ce	0.19455644
1	0x3fd6334c	1.6734405
2	0xbfbe440d	-1.4864517
3	0x3e80b239	0.25135973
4	0x40b0528f	5.510078
5	0x4014ad11	2.3230631
6	0x4053a968	3.3072147
7	0x40b7f436	5.748561
8	0x3e6813f8	0.22663867
9	0x3f89ba9a	1.0760071
10	0x40627b21	3.5387652
11	0x4093047e	4.5942984
12	0x405fdaaf	3.4977224
13	0x406fede7	3.7488954
14	0x3fa62764	1.2980771
15	0x3ee8b5b0	0.45451117
16	0x40474abf	3.1139371
17	0x40935bd3	4.604959
18	0x3f8250e1	1.0180932
19	0x40b53e5a	5.6638613
20	0x400d556a	2.2083383
21	0xbebc24b1	-0.36746743
22	0x3e884ba2	0.26620203
23	0x3f44e72c	0.7691524
24	0x4024992b	2.5718486
25	0x402861b4	2.6309633
26	0x4021a89e	2.5259166
27	0x404d7e05	3.2108166
28	0x3fc172d2	1.5113165
29	0x40648fb6	3.5712714
30	0x401d206b	2.4551036
31	0x3f5cb183	0.8620836

feature_net.layer_norm_1.bias f4 [32]
0	0xbf5b1ae0	-0.85587883
1	0x3f6f8e00	0.9357605
2	0xbe5dbac0	-0.2165327
3	0xbf12a734	-0.5728638
4	0xbe5f92ff	-0.21833418
5	0x401b3b97	2.425512
6	0x4013b53d	2.307937
7	0xbf208086	-0.6269611
8	0xbf52a478	-0.8228221
9	0x3f37993c	0.7171819
10	0x401de4fa	2.4671006
11	0xbf688262	-0.9082395
12	0x4022bd21	2.5427935
13	0x4008c250	2.13686
14	0xbf9fce64	-1.248486
15	0xbf84bea7	-1.0370682
16	0x403bb57b	2.9329517
17	0xbfde91d5	-1.7388254
18	0x3f1f0bed	0.6212757
19	0x3f1343d5	0.5752538
20	0x3fa9f21c	1.3277011
21	0xbe8970ff	-0.26844022
22	0xbf3a11d6	-0.72683465
23	0xbf83f6e9	-1.0309726
24	0x3fc9fc24	1.5780072
25	0xbf2fa579	-0.68611866
26	0x4038c9c3	2.8873146
27	0xbf79c0a1	-0.97559553
28	0x3eb6a135	0.35669866
29	0x404a8039	3.164076
30	0xbfb06e05	-1.3783575
31	0xbfc4138f	-1.5318469

feature_net.linear_layer_output.weight f4 [5, 32]
0	0xbec8c262	-0.39210802
1	0x3f3491d5	0.7053502
2	0xbf4ed576	-0.80794466
3	0xbe4a86ba	-0.19777957
4	0xc06ab1c8	-3.667101
5	0xc01b4bd2	-2.4265027
6	0x3fbdc812	1.4826682
7	0xbf4e97e7	-0.80700535
8	0x3db50b1e	0.08840011
9	0xbf629af6	-0.885177
10	0x3e3babdd	0.1832728
11	0xbf585457	-0.8450369
12	0x3eda087f	0.42584607
13	0x407b0079	3.9219038
14	0x3e0b9f77	0.1363505
15	0xbf8e0862	-1.1096308
16	0x3fac7d70	1.347578
17	0xbfb5d7b0	-1.4206448
18	0xbf894d2c	-1.0726676
19	0x4093c60a	4.6179247
20	0xbfe003fb	-1.7501215
21	0x404f0457	3.23464
22	0xbfc9d116	-1.5766933
23	0xbfd81e7d	-1.6884304
24	0xc008c3ca	-2.13695
25	0xc0222f60	-2.5341415
26	0xbf1aa4d2	-0.60407746
27	0xbf431c95	-0.7621549
28	0xc032efcb	-2.7958858
29	0xbfdf68be	-1.745384
30	0xbfcf1b62	-1.6180232
31	0xbfc8387e	-1.564224
32	0x3e2e338d	0.17011853
33	0xc113a36c	-9.227398
34	0x3f39ed1d	0.7262743
35	0xbe6e2af5	-0.23258574
36	0x4147cab6	12.48699
37	0xbf363444	-0.711735
38	0x3fafb7ed	1.3728005
39	0x404ba360	3.1818466
40	0x3f0f96d3	0.56089514
41	0x41981c07	19.013685
42	0xc03dc99d	-2.9654305
43	0x40d5a9d6	6.676982
44	0xbef6637e	-0.48122782
45	0xbf58539a	-0.84502566
46	0x4090cdc4	4.525118
47	0x3f5465b0	0.8296766
48	0x3fed61ed	1.854551
49	0xc001f7ce	-2.0307498
50	0xc1a9fdfc	-21.249016
51	0x3f597fef	0.84960836
52	0xc15dabf5	-13.854482
53	0xbf344129	-0.70411927
54	0xbe30e9b1	-0.17276646
55	0x3dd4e507	0.10395246
56	0xbff1b37e	-1.8882902
57	0xbfb2c9c6	-1.3967826
58	0xbf81a06d	-1.0127083
59	0xc021580e	-2.5209994
60	0x3e0a98b3	0.13534813
61	0x40f2200c	7.566412
62	0xc0b3fec1	-5.624848
63	0xbf44d09e	-0.76880825
64	0xbedc4487	-0.43021032
65	0x41352e73	11.32384
66	0x3e4203d2	0.1894677
67	0xbf0f727f	-0.5603408
68	0xc1056a87	-8.338508
69	0x3fc32add	1.5247456
70	0xbf875eb5	-1.0575777
71	0xc04db07e	-3.2138972
72	0x3f0b4047	0.54394954
73	0xc1ca8c41	-25.318483
74	0x4070e8b6	3.7642035
75	0xbfbc828f	-1.4727343
76	0x3e3a9169	0.18219532
77	0x3fc7df96	1.5615108
78	0xc03a4ff2	-2.9111295
79	0xbf9142f4	-1.1348557
80	0xbfe0c590	-1.7560291
81	0x3e925a40	0.2858448
82	0x419c8961	19.56708
83	0x3eaddf2c	0.3395933
84	0x403c41ee	2.941524
85	0x3f2c6a20	0.67349434
86	0x3eecb584	0.46232235
87	0xbe930d27	-0.28720972
88	0xc0b36635	-5.6062264
89	0xbe9c4bf3	-0.30526695
90	0x3f8ef8e0	1.1169701
91	0xbec33423	-0.38125715
92	0xbf193284	-0.59842706
93	0xc0f209b0	-7.5636826
94	0x408c14c6	4.377536
95	0x3e27a379	0.16370954
96	0xbe3a27b6	-0.18179211
97	0xbe8d92cc	-0.2765106
98	0xbf848666	-1.0353515
99	0x3d80ef5b	0.062956534
100	0x4107aeff	8.480224
101	0xc06930c6	-3.643602
102	0xc01cf637	-2.4525278
103	0xbfbeaf7e	-1.4897306
104	0xbe624860	-0.22097921
105	0x3fc60531	1.5470334
106	0x3f72c289	0.9482809
107	0xc06681a1	-3.601662
108	0xbebe2f62	-0.37145525
109	0xbf7ad6c1	-0.9798394
110	0xbf93b51f	-1.1539649
111	0xbe959b0f	-0.29219863
112	0x40f367ec	7.606436
113	0xbed3df3f	-0.4138126
114	0x3e1473b7	0.14497267
115	0x3f9177a5	1.1364638
116	0xc0ca8a47	-6.3293796
117	0x3f5c19f3	0.85977095
118	0x3e48e45f	0.19618367
119	0x3fcd3f45	1.6034933
120	0xc04960f1	-3.1465418
121	0x41211b99	10.069238
122	0x403f9415	2.9934132
123	0xbf9dc1de	-1.2324789
124	0xc2066226	-33.595848
125	0x3eb6ebe2	0.3572684
126	0xc18ea88a	-17.832294
127	0xbfdaa420	-1.7081337
128	0x3c36821d	0.01113942
129	0x3ffd0c74	1.9769425
130	0xbdd533ef	-0.10410296
131	0xbb6b232d	-0.003587912
132	0xbfe74da8	-1.8070574
133	0x4000c8d0	2.0122566
134	0xbf86a341	-1.0518571
135	0x3f10b9bf	0.56533426
136	0x3db5a3d9	0.08869142
137	0x3eda7384	0.42666256
138	0xbed43ad5	-0.41451135
139	0x409c27a0	4.879837
140	0xc0740cc2	-3.8132787
141	0x3fbeebc1	1.4915696
142	0xbfa5ac58	-1.294322
143	0xbe7d2556	-0.24721274
144	0xc0bde16e	-5.9337683
145	0xbe1984a0	-0.14991999
146	0x3f2bf440	0.6716957
147	0xbc8c5bdf	-0.017133651
148	0x40393fef	2.8945272
149	0x3e10249f	0.1407647
150	0x3efe2596	0.4963805
151	0x3e50e606	0.20400247
152	0x3ff567d8	1.9172316
153	0xc1590354	-13.563313
154	0xc02d51e2	-2.7081227
155	0x3fce244f	1.610483
156	0x41f6798c	30.80935
157	0xbe2602dc	-0.16212028
158	0x410de27e	8.867796
159	0x3fc9a48e	1.5753343

feature_net.linear_layer_output.bias f4 [5]
0	0x3fcbe5c2	1.5929492
1	0x40279b70	2.6188622
2	0xc077c92d	-3.8716538
3	0x3f5e442e	0.86822784
4	0x3f57f4b7	0.8435778

feature_net.linear_layer_0.weight f4 [32, 9]
0	0xbff3a81b	-1.9035677
1	0x3fcd347f	1.6031646
2	0x40ca188b	6.315496
3	0xc0f6d8a1	-7.713944
4	0x3fddc752	1.7326453
5	0x3fb3a280	1.4033966
6	0x3fb99357	1.449809
7	0x400d590a	2.2085595
8	0x3f8bcb68	1.092145
9	0x3f4f9cfa	0.810989
10	0x3fc78328	1.5586901
11	0xc1091005	-8.566411
12	0xc097e752	-4.7469873
13	0x3fe470a8	1.784688
14	0x4012f469	2.2961676
15	0x3f26c196	0.6513914
16	0x40505421	3.2551348
17	0x3fbfe74f	1.4992465
18	0xc045a5f1	-3.0882533
19	0x3fb808f9	1.4377738
20	0x40af737a	5.4828463
21	0xc01690a1	-2.3525774
22	0x3faaeb57	1.335307
23	0x3f761922	0.961321
24	0x4004daf0	2.075863
25	0x4007fa5b	2.1246555
26	0x3f2cf88e	0.67566764
27	0xbf13c9c8	-0.5772977
28	0xbeb6bbbf	-0.35690114
29	0xbfcf3827	-1.6189011
30	0x4035d5eb	2.8411815
31	0x3f8a3163	1.0796322
32	0x3fd5ce0d	1.6703507
33	0x3f9c69df	1.2219809
34	0x400847ba	2.1293778
35	0x401cbdd5	2.4490864
36	0x3f073405	0.5281375
37	0x401fcaf6	2.4967628
38	0xc0c07c21	-6.0151525
39	0xc0b37f61	-5.609299
40	0x3fab48cf	1.3381594
41	0x400f6f6a	2.2411752
42	0x3f2ee267	0.6831421
43	0x4042204c	3.0332212
44	0xbdedb951	-0.11607612
45	0xbf5f2fa7	-0.87182087
46	0xbd9a04d7	-0.075204544
47	0xbec8b504	-0.39200604
48	0x3fa27ebc	1.2694926
49	0x3fc954ae	1.5728967
50	0x3fd36f6b	1.6518377
51	0x3f9d919b	1.231006
52	0x3fc7106e	1.5551889
53	0x3fbee2ab	1.4912924
54	0xc056e03b	-3.357436
55	0xbefcfc35	-0.4941117
56	0x40efcf8d	7.494086
57	0x40a4eeb7	5.15414
58	0x40091c1c	2.1423407
59	0x3f94b423	1.1617473
60	0x40558573	3.33627
61	0x3fe9329f	1.8218573
62	0x4012f4d4	2.2961931
63	0x3f15f3e5	0.5857528
64	0xbfa7ec97	-1.3119076
65	0xc0e6a7ee	-7.207999
66	0x41114328	9.078896
67	0x3fdba4e8	1.71597
68	0x401a4177	2.4102457
69	0x3f3fba32	0.74893486
70	0x3f80a962	1.0051692
71	0x3fcc7fa8	1.5976458
72	0xbfacc168	-1.3496523
73	0xbee1eb4d	-0.44124833
74	0x3e8c1d0e	0.27365917
75	0x404203d8	3.0314846
76	0x3fb2ad87	1.3959206
77	0x3fa657fd	1.2995602
78	0x3fd8fc99	1.6952087
79	0x3f93ad73	1.1537308
80	0x3fc2f029	1.5229541
81	0x3f0ca82d	0.54944116
82	0xbfb1952c	-1.3873649
83	0xc0d2d6c0	-6.5887146
84	0x410f97fb	8.974605
85	0x3fc4eab5	1.5384127
86	0x4024bc77	2.574003
87	0x3f74efa5	0.9567817
88	0x3f5976fd	0.84947187
89	0x3fc96342	1.5733416
90	0xc03b38e4	-2.9253473
91	0x3fd0d418	1.6314726
92	0x40b9b322	5.803117
93	0xc05e6ea1	-3.4755023
94	0x400a122d	2.1573594
95	0x3f609fcf	0.8774385
96	0x3ff51592	1.9147208
97	0x4032275e	2.7836528
98	0x3fad843f	1.3555983
99	0xbf96b512	-1.1774008
100	0x3ed3fba5	0.41402927
101	0xbf4f4793	-0.8096859
102	0x3f86b4a0	1.0523872
103	0x3fde5319	1.7369109
104	0x3f61ac59	0.88153607
105	0x3f585cef	0.84516805
106	0x40201bee	2.5017047
107	0x3ff2c842	1.8967364
108	0xbef4b4b0	-0.47794104
109	0xc00903ec	-2.1408644
110	0xbf846ee9	-1.0346347
111	0x40f6a2f5	7.707392
112	0x3f98c53e	1.1935194
113	0x3fd3255f	1.649578
114	0x3f9b8e7c	1.2152858
115	0x3f46d601	0.77670294
116	0x4033f85f	2.8120344
117	0xc0287385	-2.6320508
118	0x3f89970f	1.0749224
119	0x40e61872	7.190484
120	0xc06cb06d	-3.6982682
121	0x3fb87b4b	1.4412626
122	0x3fa80aa6	1.312825
123	0x3feb3d62	1.8378108
124	0x3feba15b	1.8408617
125	0x3f614102	0.8798982
126	0xbfa1765e	-1.2614248
127	0x3e3df747	0.1855136
128	0xbec54eb8	-0.3853662
129	0x3fbf8193	1.4961418
130	0x3fa1dfa7	1.2646378
131	0x3f9b9713	1.2155479
132	0x3fb23b77	1.3924397
133	0x40137a73	2.3043487
134	0x3ff1ee80	1.890091
135	0x3eeb52e0	0.45961666
136	0xbfcf69e6	-1.6204193
137	0xc0b5e441	-5.684113
138	0x41077f8c	8.468639
139	0x3feebe24	1.8651776
140	0x4009eff4	2.1552706
141	0x3f0f71a5	0.5603278
142	0x3f7dbb8b	0.9911429
143	0x400923c8	2.142809
144	0x3d9f534d	0.0777956
145	0xbf594e4a	-0.84885085
146	0xc049d3ae	-3.153545
147	0x40658e4b	3.5868099
148	0x3fc79fd9	1.5595657
149	0x3fed51cf	1.8540591
150	0x3f39c0dd	0.7255991
151	0x3f8de558	1.1085615
152	0x3feaa125	1.8330427
153	0xc04a8c77	-3.1648233
154	0x3fcb5ba6	1.5887344
155	0x409281c0	4.5783386
156	0xbff8171e	-1.9382055
157	0x3fa35d25	1.27628
158	0x3f72d8a2	0.94861805
159	0x40178576	2.3675208
160	0x400532b8	2.0812206
161	0x3ee8003b	0.45312676
162	0xc01659fe	-2.3492427
163	0xbf85c4b1	-1.045065
164	0x40985327	4.7601504
165	0x40aebaf8	5.4603233
166	0x3fc6c2c3	1.5528187
167	0x3f645b61	0.89201933
168	0x3ff22a8f	1.8919238
169	0x3fa06f39	1.2533942
170	0x3fdd97e0	1.7311974
171	0xc00521b7	-2.0801828
172	0x3f74ac5b	0.95575494
173	0x410e5e77	8.898063
174	0xc0cc99ef	-6.3937907
175	0x3fc29ec3	1.52047
176	0x3fda17f6	1.7038562
177	0x3fd7e06b	1.6865362
178	0x3fed1446	1.8521812
179	0x3fa3d17b	1.2798303
180	0xbfd56619	-1.6671783
181	0xbfc967ca	-1.5734799
182	0x40a2e184	5.090029
183	0x4105017a	8.3128605
184	0x3fbb9640	1.4655228
185	0x3f92f38d	1.1480576
186	0x3f8ecfd2	1.1157172
187	0x3f91d60f	1.139345
188	0x3fac70bb	1.3471903
189	0x3e844d69	0.2584031
190	0x3f4ed37b	0.80791444
191	0x3e323991	0.17404772
192	0x3fe5c1e2	1.7949793
193	0x3f98641e	1.1905553
194	0x3f99580a	1.1979992
195	0xbd81d454	-0.063393265
196	0x3fa9e08f	1.3271655
197	0x3e61775a	0.22018185
198	0xc0206d4f	-2.5066717
199	0x3fa619d9	1.2976638
200	0x3f8525e9	1.0402194
201	0xbe243495	-0.16035683
202	0x3fd5259a	1.66521
203	0x3f163397	0.5867247
204	0x40037718	2.054144
205	0x400bd092	2.1846051
206	0x3f10b76c	0.5652988
207	0xbfd14e77	-1.635207
208	0x3eb1f00a	0.34753448
209	0x3e55e8e8	0.20889628
210	0x3fa126a8	1.2589922
211	0x3fe4e210	1.7881489
212	0x3e63ad90	0.22234178
213	0x3f3d25e1	0.73885924
214	0x3fbdb432	1.4820616
215	0x3f791d40	0.97310257
216	0xc035e92d	-2.842357
217	0xbfbbdd56	-1.4676921
218	0x40911d01	4.5347905
219	0x409cae20	4.8962555
220	0x3fbb8339	1.4649421
221	0x3ec49bf0	0.3840022
222	0x4003669d	2.053138
223	0x3f50c147	0.8154492
224	0x400824a6	2.1272368
225	0x3e4dda85	0.2010289
226	0xbfce9b91	-1.6141225
227	0xc0799f39	-3.9003432
228	0x40ce4bd7	6.446758
229	0x3fcee879	1.6164695
230	0x40042c01	2.0651858
231	0x3f2ec794	0.6827328
232	0x3f883cfb	1.064361
233	0x402787a9	2.617655
234	0x3ea28e05	0.31748977
235	0x3fb6b234	1.4273133
236	0xc0a68673	-5.2039123
237	0xc0858076	-4.1719313
238	0x3fc3a963	1.5286068
239	0x3ffbfd24	1.9686627
240	0x3f28cc16	0.6593641
241	0x3ff70ec4	1.9301381
242	0x3f63037b	0.88677186
243	0xbfcbbc7b	-1.5916895
244	0x3f796a88	0.9742818
245	0x40d10ce6	6.5328245
246	0xc11256a2	-9.146151
247	0x3fecc681	1.8498079
248	0x3fce8a7f	1.6136016
249	0x3fbbd916	1.4675624
250	0x3fcd5da2	1.60442
251	0x3fc2806e	1.5195444
252	0xbfc09e29	-1.5048267
253	0x3f833987	1.0251931
254	0x4060db1a	3.513373
255	0xc003a1e5	-2.0567563

feature_net.linear_layer_0.bias f4 [32]
0	0x3eaf89ab	0.3428472
1	0xbf08fe44	-0.5351298
2	0x3ce61a12	0.028088603
3	0xbf18be92	-0.5966579
4	0xbe3a3e28	-0.18187773
5	0x413b2708	11.697029
6	0xbf8722d0	-1.0557499
7	0x3fb90f38	1.4457769
8	0xbe519996	-0.20468745
9	0x3fbd49d8	1.478816
10	0xbf3c0f65	-0.7346099
11	0xbf4d2e27	-0.8014855
12	0x3f944700	1.1584167
13	0x3f1f7853	0.62292975
14	0xbf53c115	-0.82716495
15	0x3fa81fb6	1.3134677
16	0xc0a8a9ad	-5.2707124
17	0xbe892afa	-0.267906
18	0xc0afac30	-5.489769
19	0x3f6210db	0.8830697
20	0x3ffe5401	1.9869386
21	0x40c078db	6.014753
22	0xbf95ca0d	-1.1702286
23	0x3e804830	0.25055075
24	0xc09e1ca6	-4.940997
25	0x3f4054d0	0.75129414
26	0xc09c8f78	-4.8925133
27	0x3f25a76c	0.6470859
28	0xc089615e	-4.2931356
29	0xc08ca867	-4.395557
30	0xbfefbc44	-1.8729329
31	0x3f92c631	1.1466733

feature_net.layer_norm_0.weight f4 [32]
0	0x3eabaae3	0.33528814
1	0x3f4b2157	0.7934775
2	0x3f03d845	0.51501876
3	0x3e787527	0.2426344
4	0x3de10a29	0.10988266
5	0x40a60dba	5.1891756
6	0x3f9354ca	1.151025
7	0x3e0c3ef6	0.13695893
8	0x3ea7ce34	0.32774508
9	0x3e4c6baf	0.19962953
10	0x3f2c64ba	0.67341197
11	0x3ec799e0	0.38984585
12	0x3eacc3cc	0.3374313
13	0x3ecbcf69	0.3980668
14	0x3ee0838b	0.4385036
15	0x3e991acc	0.29903257
16	0x400ff912	2.249577
17	0x3eaa46a4	0.3325702
18	0x3ff01dba	1.8759072
19	0x3e00049c	0.12501758
20	0x3e3177c9	0.1733085
21	0x3fae0add	1.3597065
22	0x400e8798	2.227026
23	0x3f23125e	0.636999
24	0x400b40e3	2.1758354
25	0x3e4e5638	0.20150077
26	0x3fffba73	1.9978775
27	0x3ebe0350	0.37111902
28	0x3fe6878f	1.8010119
29	0x402f1208	2.7354755
30	0x40383bfa	2.8786607
31	0x3d6432be	0.055712454

feature_net.layer_norm_0.bias f4 [32]
0	0xbf3eabe0	-0.7448101
1	0xbfdd4c1b	-1.728885
2	0xbf1a3ad9	-0.60246044
3	0xbecb9c9d	-0.39767924
4	0xbe899f27	-0.26879236
5	0xc03cc902	-2.9497685
6	0xc006fccf	-2.1091802
7	0xbf255523	-0.64583033
8	0xbf172dbd	-0.59054166
9	0xbf3808ee	-0.71888626
10	0xbf9b9ce6	-1.2157257
11	0xbf0619a4	-0.52382874
12	0xbf284141	-0.6572457
13	0xbf205418	-0.62628317
14	0xbf128c32	-0.5724517
15	0xbf2ca9e7	-0.6744675
16	0x3fb84f6a	1.4399235
17	0xbf2fb1d6	-0.6863073
18	0x3f97d674	1.1862321
19	0xbf308a70	-0.6896124
20	0xbf31072a	-0.69151556
21	0xbf015f6c	-0.5053623
22	0xbed65039	-0.4185808
23	0xbf3252f1	-0.6965781
24	0x3f35995b	0.70937127
25	0xbe9a6639	-0.30156115
26	0x3f74b980	0.9559555
27	0xbf89e754	-1.0773721
28	0x3f05adc6	0.5221828
29	0x3f772b36	0.9655031
30	0x3c7d3758	0.0154550895
31	0xbeabb4a7	-0.33536264
