otk/AgileRL-MATD3/simple_tag_v3/result/20231223-0716/models/MATD3/MATD3_trained_agent.pt (torch, 272986 bytes, 224 tensors)

feature_net.linear_layer_0.weight f4 [32, 3]
0.5592243 -0.19405062 0.090862624 -0.2106255 -0.34770182 -0.46896824 0.03738655 0.05623081
0.023940355 -0.36829758 0.109639555 0.24660492 -0.036211018 -0.35561147 0.009138021 0.13701187
0.34640986 -0.031075535 -0.60207564 0.40627915 -0.15062861 0.20423815 0.3316902 0.012101734
-0.20122923 -0.22100812 0.10204458 0.2972843 0.13092788 -0.31087315 0.17771672 -0.099259794
0.60776514 0.046136383 0.3166588 -0.39232755 -0.42313045 -0.25254473 0.20655179 0.25881657
0.14292292 0.027002053 -0.3911688 -0.7786231 -0.022968274 0.162254 -0.14657253 0.13265058
-0.08831911 0.28497124 0.041840132 -0.12742828 -0.09580191 -0.41714174 -0.0090936925 -0.63691473
-0.08522838 -0.058499247 0.41319332 0.38703594 -0.08150831 -0.12128658 -0.35589346 -0.14863405
0.0276252 0.16942017 0.086729795 0.13835672 -0.12966429 -0.5640511 -0.34493995 -0.45726687
-0.19994184 -0.16611426 -0.39865562 0.085867874 -0.11100224 -0.055376746 0.3292281 -0.23286615
-0.29676637 0.28383228 0.07340898 0.5334151 -0.5083444 -0.18069778 -0.28211963 -0.13692388
-0.08947197 0.041648515 -0.3472802 0.046233 0.45092362 -0.38970482 -0.21806 -0.06574525
00000000: 5329 0f3f 35b5 46be 2f16 ba3d 36ae 57be
00000010: f905 b2be 9b1c f0be a422 193d 4752 663d
00000020: 901e c43c 8091 bcbe b48a e03d 0086 7c3e
00000030: 0152 14bd b512 b6be a3b7 153c d74c 0c3e
00000040: a25c b13e 1f92 febc a121 1abf d203 d03e
00000050: 633e 1abe ce23 513e 4cd3 a93e 5a46 463c
00000060: 090f 4ebe f44f 62be c0fc d03d a635 983e
00000070: f511 063e c42a 9fbe 5ffb 353e b848 cbbd
00000080: 7f96 1b3f 81f9 3c3d 1a21 a23e 28df c8be
00000090: 8ea4 d8be 8b4d 81be 5082 533e 9b83 843e
000000a0: 635a 123e 6933 dd3c 4747 c8be d853 47bf
000000b0: f627 bcbc ea25 263e 1c17 16be 8ed5 073e
000000c0: a6e0 b4bd c0e7 913e 8f60 2b3d 8f7c 02be
000000d0: cb33 c4bd 9a93 d5be b6fd 14bc d80c 23bf
000000e0: 388c aebd e89c 6fbd 138e d33e 9329 c63e
000000f0: d4ed a6bd 1965 f8bd ab37 b6be 8633 18be
00000100: 3e4e e23c 7b7c 2d3e 649f b13d 62ad 0d3e
00000110: b7c6 04be a765 10bf f89b b0be e21e eabe
00000120: 8ebd 4cbe db19 2abe 971c ccbe 7fdb af3d
00000130: 2455 e3bd bad2 62bd 9690 a83e 7774 6ebe
00000140: c3f1 97be 7752 913e 7357 963d e48d 083f
00000150: dc22 02bf d708 39be fc71 90be c635 0cbe
00000160: 153d b7bd a297 2a3d b6ce b1be d05e 3d3d
00000170: 76df e63e 6487 c7be 1f4b 5fbe 72a5 86bd

feature_net.linear_layer_0.bias f4 [32]
0.14700498 -0.12147549 -0.098162636 -0.011739371 -0.08938209 -0.08445821 -0.05797854 -0.09749303
-0.12661335 0.11908186 0.0618304 0.105284736 -0.036461804 0.008069538 -0.1216678 0.117897935
-0.038915083 -0.12113036 -0.11541369 0.10379097 -0.12135416 -0.0052763564 -0.052586865 -0.12024437
-0.12105296 -0.008600513 -0.088220835 0.1000098 -0.11999551 -0.085229814 -0.0071771084 -0.12042917
00000000: 7988 163e 24c8 f8bd 7e09 c9bd 7e56 40bc
00000010: f50d b7bd 6df8 acbd e87a 6dbd 6daa c7bd
00000020: eea6 01be 31e1 f33d e041 7d3d 869f d73d
00000030: f958 15bd 1836 043c f82c f9bd 7974 f13d
00000040: 6c65 1fbd 3213 f8bd 035e ecbd 5c90 d43d
00000050: 8888 f8bd 49e5 acbb 5365 57bd ae42 f6bd
00000060: 9dea f7bd 2be9 0cbc 20ad b4bd f0d1 cc3d
00000070: 35c0 f5bd f88c aebd f32d ebbb 92a3 f6bd

feature_net.layer_norm_0.weight f4 [32]
1.1356684 1.0 0.89736176 1.0466324 0.9187453 0.91323423 0.94934684 0.90725845
0.88692987 1.1394907 1.0496525 1.0954164 1.1078918 0.9743706 1.0 1.1113741
0.93791264 1.0 0.94701725 1.0831231 1.0 0.9436945 0.946658 1.0
1.0 1.01691 0.91304326 1.1006523 1.0 0.92646533 1.0130926 1.0
00000000: 955d 913f 0000 803f 80b9 653f 0df8 853f
00000010: e432 6b3f b8c9 693f 6508 733f 1742 683f
00000020: d60d 633f d5da 913f 035b 863f 9b36 8c3f
00000030: 66cf 8d3f 5a70 793f 0000 803f 8241 8e3f
00000040: 0b1b 703f 0000 803f b96f 723f c7a3 8a3f
00000050: 0000 803f f695 713f 2e58 723f 0000 803f
00000060: 0000 803f 1b2a 823f 34bd 693f 2de2 8c3f
00000070: 0000 803f d52c 6d3f 05ad 813f 0000 803f

feature_net.layer_norm_0.bias f4 [32]
0.14985654 0.0 -0.09733291 0.048992828 -0.08667181 -0.07912861 -0.029269744 -0.09725321
-0.12144593 0.12349163 0.06955884 0.109898075 0.121281736 0.03471719 0.0 0.12342379
-0.036381546 0.0 -0.053031888 0.10548897 0.0 -0.0022781729 -0.03977502 0.0
0.0 0.004276306 -0.08378225 0.10130431 0.0 -0.07756396 0.043152444 0.0
00000000: fe73 193e 0000 0000 7a56 c7bd b4ac 483d
00000010: fd80 b1bd 2e0e a2bd 1ac7 efbc b12c c7bd
00000020: a5b8 f8bd 2ee9 fc3d dd74 8e3d 3e12 e13d
00000030: 8f62 f83d 9d33 0e3d 0000 0000 9dc5 fc3d
00000040: d104 15bd 0000 0000 f737 59bd 9a0a d83d
00000050: 0000 0000 664d 15bb 22eb 22bd 0000 0000
00000060: 0000 0000 4120 8c3b 0796 abbd a278 cf3d
00000070: 0000 0000 dad9 9ebd 9ec0 303d 0000 0000

feature_net.linear_layer_1.weight f4 [32, 32]
0.13284746 -0.07739625 0.29913396 -0.5159533 -0.025857076 -0.01613785 0.042898808 -0.4006245
0.29512104 -0.15797564 0.07714467 -0.1696698 -0.45970207 -0.5320928 -0.0076515204 -0.12061882
0.012961248 0.40753853 -0.30193904 0.038144734 -0.22374706 -0.22844549 0.34945518 -0.0322384
0.3162294 -0.3617182 0.07840923 -0.12574184 0.39638647 0.0920336 0.23626918 0.13055484
0.28115714 -0.1660193 -0.25443107 0.023886241 0.19798169 0.24760132 0.04427628 0.4282155
-0.077786095 0.029439133 -0.4351768 -0.13492475 0.35612878 -0.541493 0.09401887 -0.31099096
-0.09135163 0.1615933 -0.3359698 -0.23724152 0.08646933 0.32237354 -0.03220682 -0.03293568
0.1753605 -0.38974622 0.16974272 -0.36881378 -0.3193001 -0.20031147 0.14743523 -0.2806525
0.02397949 -0.0041188044 0.044167954 0.28916663 -0.25405544 0.43177384 -0.40572068 -0.12714592
0.10838303 0.19880453 -0.09140689 -0.19054456 0.3243289 -0.34877306 -0.22653481 -0.29323736
-0.3879229 -0.38871536 -0.22515899 -0.0048698443 0.21217996 -0.20993383 -0.021625148 -0.13442107
-0.1528001 0.30034482 -0.24147306 -0.04811488 0.41255748 0.28557077 0.33444458 0.07740138
0.23394583 -0.112621985 -0.07217524 0.18447365 -0.23747317 0.1285302 0.6089945 -0.2394007
-0.3036728 0.25682855 0.01936358 0.4077105 -0.29988825 0.11835884 -0.0699328 0.12457292
-0.28914043 0.34756312 -0.1357676 0.11189363 -0.13506548 0.34029958 -0.22310822 -0.048379216
-0.027713351 0.41998413 0.31979644 -0.010782711 0.16660812 0.5792868 -0.15653878 -0.33566025
-0.20238666 -0.11202338 0.16839442 0.032334946 -0.08860218 -0.08880604 0.21911007 0.1741149
-0.031038865 0.35146427 -0.22758357 0.40077713 -0.05535741 -0.119385526 0.05049333 -0.11512227
0.29194185 -0.046342567 0.25032765 -0.33716246 -0.45487538 -0.045257635 0.20718336 -0.39867777
-0.2355393 0.30706254 0.19276439 -0.030950993 -0.22868283 0.112483054 0.32523578 0.59490305
0.025662709 -0.10798671 0.09060791 -0.038380757 0.116468124 -0.1918251 0.007884227 -0.06125847
0.024157405 -0.14926152 -0.19984443 -0.08535496 0.2870872 -0.0599013 0.32694492 0.12137311
-0.38449565 0.3936201 -0.09329767 -0.19138886 0.20522675 -0.1705602 -0.30167127 0.40957433
-0.2774838 0.3810179 0.39222267 -0.10138202 0.062158313 -0.099476025 0.5382376 0.2711095
-0.15102221 0.6486054 0.040172767 -0.22897917 0.24562284 -0.009502667 -0.1112078 -0.12549849
0.14725736 -0.15836778 -0.044691395 0.042125773 0.5775916 0.21161716 0.26455972 -0.21715608
-0.055657472 0.20916755 0.19010326 0.053294282 0.018299 -0.32412398 0.16913871 -0.53279066
0.04215377 0.038434453 0.1393294 -0.4386572 0.07304784 0.228252 -0.023505824 -0.47721404
0.3008441 0.022522917 -0.23263904 0.22932753 0.23011991 0.32975596 -0.121202834 0.16766252
0.0023466751 0.32790717 0.29082957 -0.2696812 0.006841488 0.1632972 -0.13530065 0.15656547
0.2254944 0.21838813 -0.11227561 0.1515907 -0.3914834 -0.57491326 -0.22403486 -0.042845555
-0.40797356 -0.3563148 -0.058934372 0.17164768 -0.30177888 0.5173078 0.1537243 -0.013032511
00000000: 2a09 083e ed81 9ebd 1628 993e 8415 04bf
00000010: 38d2 d3bc 8633 84bc a9b6 2f3d a81e cdbe
00000020: 1b1a 973e 5ec4 21be 06fe 9d3d ecbd 2dbe
00000030: 125e ebbe 3c37 08bf 9bb9 fabb 0007 f7bd
00000040: 6a5b 543c e4a8 d03e c197 9abe a73d 1c3d
00000050: f31d 65be 9ded 69be caeb b23e 6a0c 04bd
00000060: d2e8 a13e 2133 b9be 0595 a03d 78c2 00be
00000070: 2bf3 ca3e 1d7c bc3d 8cf0 713e 2bb0 053e
00000080: d4f3 8f3e f700 2abe ca44 82be 14ad c33c
00000090: b6bb 4a3e 338b 7d3e 0b5b 353d 103f db3e
000000a0: 514e 9fbd 562a f13c 7ecf debe b729 0abe
000000b0: 8356 b63e 499f 0abf f78c c03d 353a 9fbe
000000c0: 9016 bbbd b778 253e 3c04 acbe 71ef 72be
000000d0: d516 b13d 250e a53e 4ceb 03bd 90e7 06bd
000000e0: b491 333e d18c c7be 09d1 2d3e 29d5 bcbe
000000f0: 4d7b a3be 731e 4dbe 43f9 163e afb1 8fbe
00000100: a370 c43c 09f7 86bb 75e9 343d a60d 943e
00000110: 8e13 82be 7611 dd3e 9fba cfbe 8a32 02be
00000120: ecf7 dd3d 6a93 4b3e 8933 bbbd 1d1e 43be
00000130: 700e a63e 6292 b2be bef8 67be 3523 96be
00000140: d59d c6be b305 c7be 1490 66be 3793 9fbb
00000150: b445 593e e5f8 56be 3927 b1bc ada5 09be
00000160: a177 1cbe ccc6 993e b744 77be 1c14 45bd
00000170: bc3a d33e 5536 923e 523c ab3e 9d84 9e3d
00000180: 7f8f 6f3e 5ba6 e6bd 9dd0 93bd a9e6 3c3e
00000190: 2b2c 73be 6c9d 033e 10e7 1b3f 7525 75be
000001a0: 007b 9bbe 087f 833e 5fa0 9e3c 6ebf d03e
000001b0: f48a 99be 1f66 f23d ee38 8fbd 1620 ff3d
000001c0: 370a 94be cbf3 b13e a906 0bbe 7d28 e53d
000001d0: 9b4e 0abe bf3b ae3e 7b76 64be 4929 46bd
000001e0: 1c07 e3bc 2908 d73e 5cbc a33e f8a9 30bc
000001f0: 529b 2a3e 244c 143f b44b 20be a9db abbe
00000200: 733e 4fbe 846c e5bd 966f 2c3e a671 043d
00000210: 0f75 b5bd f1df b5bd 645e 603e 2d4b 323e
00000220: 3845 febc 20f3 b33e ab0b 69be a932 cd3e
00000230: 74be 62bd 6680 f4bd 18d2 4e3d 3ac5 ebbd
00000240: 6779 953e b4d1 3dbd f22a 803e 8fa0 acbe
00000250: 6de5 e8be 1260 39bd e027 543e 7e1f ccbe
00000260: 3731 71be 4d37 9d3e 0764 453e f08c fdbc
00000270: d52b 6abe 845d e63d 4e85 a63e 914b 183f
00000280: 9a3a d23c 2328 ddbd a490 b93d 2435 1dbd
00000290: d786 ee3d cd6d 44be d82c 013c 29ea 7abd
000002a0: c0e5 c53c 03d8 18be 05a4 4cbe 95ce aebd
000002b0: 18fd 923e 115b 75bd 5365 a73e 7792 f83d
000002c0: 9ddc c4be 9388 c93e d912 bfbd 71fb 43be
000002d0: f626 523e 55a7 2ebe a874 9abe bab3 d13e
000002e0: 5b12 8ebe c714 c33e 69d1 c83e 60a1 cfbd
000002f0: b799 7e3d 16ba cbbd f0c9 093f ddce 8a3e
00000300: 91a5 1abe 010b 263f 338c 243d 8479 6abe
00000310: 8e84 7b3e 13b1 1bbc eac0 e3bd ad82 00be
00000320: a2ca 163e 2a2b 22be 530e 37bd 138c 2c3d
00000330: 0bdd 133f 2bb2 583e 5f74 873e 2a5e 5ebe
00000340: 17f9 63bd 0530 563e 6eaa 423e 1b4b 5a3d
00000350: c9e7 953c 94f3 a5be b332 2d3e f864 08bf
00000360: 6ea9 2c3d 726d 1d3d 5eac 0e3e ad97 e0be
00000370: 1b9a 953d e4ba 693e 498f c0bc 6655 f4be
00000380: 3d08 9a3e fb81 b83c ee38 6ebe d6d4 6a3e
00000390: 8ea4 6b3e c6d5 a83e 3139 f8bd b9af 2b3e
000003a0: adca 193b 73e3 a73e 9de7 943e a713 8abe
000003b0: 902e e03b 6237 273e 418c 0abe b352 203e
000003c0: 01e8 663e 23a1 5f3e c1f0 e5bd 983a 1b3e
000003d0: 8370 c8be 842d 13bf 6569 65be d27e 2fbd
000003e0: e9e1 d0be e56e b6be 2b65 71bd 69c4 2f3e
000003f0: c382 9abe 496e 043f e769 1d3e 5086 55bc

feature_net.linear_layer_1.bias f4 [32]
-0.09072173 -0.09163273 -0.043765057 0.14080383 0.015953219 -0.0711733 -0.08617378 0.09734241
-0.085768014 0.032209903 0.11757901 -0.06426293 -0.083722964 -0.10991527 -0.10911661 0.09168994
0.045599453 -0.05188166 0.06943059 -0.09098388 0.07847554 -0.0909206 0.103239946 0.018974239
-0.081901886 -0.05846757 -0.053428516 0.0054830387 -0.08709537 0.056224298 0.04565861 0.12571381
00000000: 50cc b9bd f1a9 bbbd fd42 33bd e12e 103e
00000010: 53b0 823c 4fc3 91bd e17b b0bd 755b c73d
00000020: 24a7 afbd 88ee 033d 44cd f03d 489c 83bd
00000030: f276 abbd 421b e1bd 8778 dfbd efc7 bb3d
00000040: 7ec6 3a3d dd81 54bd a031 8e3d c255 babd
00000050: c9b7 a03d 9434 babd 776f d33d dd6f 9b3c
00000060: 2dbc a7bd b17b 6fbd dcd7 5abd 10ab b33b
00000070: 0f5f b2bd 734b 663d 8604 3b3d 1fbb 003e

feature_net.layer_norm_1.weight f4 [32]
0.92065054 0.9151589 0.94113123 1.1163065 0.9822687 0.9194141 0.9199654 1.1536305
0.9232104 0.9980243 1.16263 0.9203701 0.9849715 0.9335389 0.8955277 1.0
1.0 1.1657977 1.0977821 0.9260051 1.0072213 1.0327295 1.1489229 0.9528191
0.93235415 1.0 1.0687578 1.0 1.0082339 1.0830288 1.1491218 1.1664308
00000000: c1af 6b3f db47 6a3f faed 703f 22e3 8e3f
00000010: f675 7b3f b95e 6b3f da82 6b3f 2aaa 933f
00000020: 8457 6c3f 857e 7f3f 0fd1 943f 609d 6b3f
00000030: 1827 7c3f 68fc 6e3f 4e41 653f 0000 803f
00000040: 0000 803f dc38 953f 2084 8c3f ac0e 6d3f
00000050: a1ec 803f 7b30 843f e80f 933f f4eb 733f
00000060: c3ae 6e3f 0000 803f 0ecd 883f 0000 803f
00000070: cf0d 813f b0a0 8a3f 6c16 933f 9b4d 953f

feature_net.layer_norm_1.bias f4 [32]
-0.09132547 -0.09073582 -0.05664142 0.1148739 0.049881347 -0.089795254 -0.08331363 0.14555956
-0.08008963 0.032306056 0.13940325 -0.09058924 0.022796454 -0.053227965 -0.07646547 0.0
0.0 0.1677396 0.08315638 -0.0792203 0.046754457 0.024988404 0.13337688 -0.05267032
-0.0073847123 0.0 0.0768974 0.0 0.032936543 0.087613516 0.15635455 0.14962232
00000000: d908 bbbd b4d3 b9bd d500 68bd 0243 eb3d
00000010: 6250 4c3d 93e6 b7bd 56a0 aabd 910d 153e
00000020: 0806 a4bd 5b53 043d babf 0e3e da86 b9bd
00000030: a1bf ba3c 9105 5abd ee99 9cbd 0000 0000
00000040: 0000 0000 eec3 2b3e e44d aa3d 413e a2bd
00000050: 9a81 3f3d 7bb4 cc3c f393 083e d5bc 57bd
00000060: 75fb f1bb 0000 0000 627c 9d3d 0000 0000
00000070: 78e8 063d b76e b33d 681b 203e 9836 193e

feature_net.linear_layer_output.weight f4 [3, 32]
0.0029055509 0.30355018 -0.007633199 0.19822498 0.17154664 -0.18237084 -0.42987052 0.2528591
0.09828728 -0.13436708 0.018432207 -0.36713976 -0.21501559 -0.049897138 0.086793706 0.2980415
0.30845055 0.1237108 0.010409569 0.19545408 0.060756505 -0.05369148 0.6071395 0.43946272
-0.13138258 -0.19344269 0.4523604 0.32481447 -0.044318244 0.40923682 0.4345636 0.46063936
0.5039156 0.18934096 0.13380435 -0.61302537 -0.24277392 0.1057648 -0.22284877 -0.58237815
-0.31212357 0.23512124 -0.30414343 0.1822123 -0.16426608 -0.15660655 0.20875683 0.40237302
0.35968456 -0.21724491 -0.1646831 -0.015534668 0.15091163 -0.38457423 -0.2528463 0.24564697
-0.23842078 -0.05664858 -0.014862967 -0.28690267 -0.037333928 -0.19141532 -0.19228947 -0.3605865
-0.15319279 -0.3459267 -0.08892887 0.5225709 -0.10312426 0.019930782 -0.31604132 -0.23497738
-0.26882505 0.39273176 0.58794034 0.23679638 0.35894993 0.067892194 0.42079505 -0.14013743
-0.23675935 0.05996716 -0.0421108 0.3417379 0.2593213 -0.0021088861 0.44671333 0.106281474
0.010548128 -0.2380905 0.04137969 0.06500051 0.34175768 0.057413537 -0.053474914 0.40385535
00000000: 0e6b 3e3b ee6a 9b3e ea1f fabb 7dfb 4a3e
00000010: eca9 2f3e 6cbf 3abe fd17 dcbe bf76 813e
00000020: d74a c93d 8697 09be 24ff 963c bef9 bbbe
00000030: 0c2d 5cbe f160 4cbd e6c0 b13d e598 983e
00000040: 3bed 9d3e 175c fd3d e68c 2a3c 1d25 483e
00000050: d0db 783d 99eb 5bbd 7f6d 1b3f 4201 e13e
00000060: 2889 06be d715 46be c89b e73e 154e a63e
00000070: 0c87 35bd 7d87 d13e 1f7f de3e ecd8 eb3e
00000080: 9d00 013f 99e2 413e 0204 093e 3bef 1cbf
00000090: ba99 78be 379b d83d 7832 64be bc16 15bf
000000a0: a9ce 9fbe 9fc3 703e b0b8 9bbe dc95 3a3e
000000b0: 5e35 28be 785d 20be 5ac4 553e d603 ce3e
000000c0: 9328 b83e 7375 5ebe b0a2 28be 1f85 7ebc
000000d0: 9488 1a3e eae6 c4be 1275 81be e18a 7b3e
000000e0: 9424 74be 5708 68bd cd83 73bc e8e4 92be
000000f0: 76eb 18bd 6102 44be 88e7 44be cb9e b8be
00000100: 92de 1cbe 4e1d b1be 5720 b6bd 35c7 053f
00000110: d032 d3bd e145 a33c 2bd0 a1be e99d 70be
00000120: 70a3 89be 2314 c93e 4283 163f c07a 723e
00000130: 49c8 b73e 100b 8b3d 7372 d73e 3080 0fbe
00000140: 0b71 72be 20a0 753d 607c 2cbd 45f8 ae3e
00000150: c3c5 843e 3d35 0abb 9cb7 e43e 1aaa d93d
00000160: 0ed2 2c3c ffcd 73be c07d 293d fd1e 853d
00000170: ddfa ae3e 752a 6b3d 8308 5bbd 21c6 ce3e

feature_net.linear_layer_output.bias f4 [3]
0.11838071 -0.15787087 0.113690175
00000000: 9671 f23d e7a8 21be 65d6 e83d

feature_net.linear_layer_0.weight f4 [32, 11]
0.04609303 -0.011339115 -0.12201099 0.12157583 -0.029527463 0.4916967 -0.28101462 -0.106924385
0.26437283 -0.09110209 -0.05739635 -0.0602249 0.3640419 -0.23727341 0.34762323 0.33606327
-0.023335155 -0.46954474 0.28173137 -0.06735078 -0.19778913 -0.26649123 -0.7194114 0.20911299
-0.07652826 -0.043195646 0.37739378 -0.19842082 -0.077939354 -0.31517515 -0.074482486 0.17706285
0.037246805 0.2201634 0.052435752 0.25766256 -0.14536801 -0.042249106 0.2933882 0.050495744
-0.097036965 0.33555508 -0.4870333 0.24901696 -0.051651984 0.0049047135 -0.017122792 0.0043925233
-0.35083514 0.22237659 0.05850044 -0.1658573 0.13088058 -0.1562377 -0.8375744 0.048071753
-0.2565428 0.13160896 0.117708094 0.29591954 0.15410459 0.3550562 -0.12886198 -0.124437556
0.4338505 -0.1991996 0.1900796 0.26431027 0.06341871 -0.063631766 0.27154908 -0.25826213
0.06627333 0.019796988 0.72273535 0.46589434 -0.077370785 -0.27339154 0.6749114 0.25138828
-0.30925667 -0.2964434 0.48521456 0.17294607 0.07117389 0.08805637 0.18266179 0.12140949
0.14777035 0.09593358 -0.2555563 -0.39370945 0.37569135 0.07853441 0.19939482 0.11886008
0.25420693 0.27444687 -0.29862472 0.13229969 0.23207627 0.23760706 0.22936736 0.0987154
-0.26931393 -0.0040213144 0.24187401 0.01673113 0.0939438 -0.0026815801 -0.036667943 -0.28861502
-0.38247842 0.028503325 -0.20780252 0.3757634 0.16627952 -0.087402195 -0.09387352 0.5302561
0.06802056 0.048485834 -0.023857443 0.34264392 0.25508982 -0.03244196 0.33198813 -0.22106576
-0.1725698 -0.32092464 -0.100141056 -0.4298819 -0.013844394 -0.0227213 0.09723906 -0.2629894
0.0259308 0.15748309 -0.19175711 -0.009075153 -0.36041892 -0.03648256 -0.23886268 0.030917564
0.104830876 0.11520555 0.10092407 0.12449796 -0.040845845 0.040275995 0.23502514 -0.028220886
-0.23693855 0.057790205 -0.33949843 -0.66937447 0.06585372 -0.20919335 0.25064954 0.427048
-0.17084837 0.256294 0.33520958 0.23354743 0.1808758 -0.08296486 0.25585917 -0.07148719
0.22222029 -0.044764575 -0.23853236 -0.0076740365 -0.21052207 -0.08566496 0.1234298 -0.033849657
-0.16619013 -0.14032954 0.3675666 -0.04788581 -0.30500376 -0.20352721 -0.059228476 0.1724337
0.19498545 0.00094950094 -0.2065105 0.07157645 -0.3107594 -0.2678719 0.36096185 -0.48019323
-0.037908643 -0.47432172 0.31753808 0.25434473 0.3871473 0.20939676 0.0060495026 -0.010697136
0.015243076 -0.27471915 -0.682943 -0.082350716 0.51773643 0.0069507505 -0.00946428 -0.06016335
0.028240446 0.35159802 0.19125605 -0.32514045 0.41757885 0.119638175 0.41851935 0.0010610246
0.107513875 -0.12858677 -0.124019265 0.039459657 -0.066871375 0.058491983 0.35278818 -0.1296089
-0.27847987 -0.022807151 -0.5611709 -0.087997705 0.126287 0.26458317 0.0010985492 -0.24542037
-0.16990523 -0.29711714 0.25563473 -0.5349511 -0.09466818 -0.0993901 0.34399095 0.3455654
-0.27102047 -0.20920373 -0.18115446 -0.3293082 -0.10842938 0.14050683 0.12992905 0.114679836
0.012930238 -0.22120655 -0.08912905 -0.101310804 0.36826578 -0.08615033 0.29728156 -0.2071975
00000000: 0ccc 3c3d b2c7 39bc e6e0 f9bd c0fc f83d
00000010: 94e3 f1bc abbf fb3e 26e1 8fbe 2cfb dabd
00000020: e05b 873e bc93 babd 6f18 6bbd 62ae 76bd
00000030: b363 ba3e cdf7 72be acfb b13e 7c10 ac3e
00000040: 5e29 bfbc 2b68 f0be 183f 903e 35ef 89bd
00000050: 3c89 4abe 8a71 88be 582b 38bf b721 563e
00000060: d9ba 9cbd ebed 30bd c239 c13e d42e 4bbe
00000070: ab9e 9fbd a35e a1be 468a 98bd f74f 353e
00000080: 1b90 183d 8472 613e dfc6 563d 59ec 833e
00000090: 5adb 14be 660d 2dbd fa36 963e a0d4 4e3d
000000a0: 51bb c6bd e0cd ab3e 6e5c f9be 4dfe 7e3e
000000b0: 0891 53bd b8b7 a03b 1945 8cbc 28ef 8f3b
000000c0: aaa0 b3be b0b6 633e 289e 6f3d 7fd6 29be
000000d0: 8f05 063e c7fc 1fbe 476b 56bf e3e6 443d
000000e0: 9459 83be 80c4 063e f110 f13d c482 973e
000000f0: 98cd 1d3e edc9 b53e 65f4 03be 1ed9 febd
00000100: a721 de3e fbfa 4bbe 3aa4 423e ad53 873e
00000110: abe1 813d 5f51 82bd 7b08 8b3e ef3a 84be
00000120: 50ba 873d 4b2d a23c 2f05 393f b489 ee3e
00000130: 9374 9ebd faf9 8bbe fec6 2c3f f7b5 803e
00000140: e456 9ebe 6ec7 97be 0b6e f83e c618 313e
00000150: 9ec3 913d e656 b43d b10b 3b3e 8aa5 f83d
00000160: 1c51 173e d378 c43d 46d8 82be 4994 c9be
00000170: 9e5a c03e a6d6 a03d 282e 4c3e ea6c f33d
00000180: 6927 823e 4d84 8c3e 57e5 98be 9279 073e
00000190: 67a5 6d3e 444f 733e 47df 6a3e 4d2b ca3d
000001a0: 84e3 89be 3bc5 83bb d2ad 773e b90f 893c
000001b0: 9b65 c03d 73bd 2fbb 2031 16bd 59c5 93be
000001c0: 36d4 c3be ce7f e93c 2fca 54be 0f64 c03e
000001d0: 2e45 2a3e ecff b2bd c340 c0bd ddbe 073f
000001e0: 5d4e 8b3d 1599 463d af70 c3bc 066f af3e
000001f0: 229b 823e dce1 04bd 59fa a93e 105f 62be
00000200: 23b6 30be 3c50 a4be c116 cdbd 7b19 dcbe
00000210: 99d3 62bc 0522 babc 4625 c73d 8ca6 86be
00000220: d46c d43c 3f43 213e fa5b 44be f3af 14bc
00000230: d488 b8be bd6e 15bd 6b98 74be d546 fd3c
00000240: 92b1 d63d e3f0 eb3d 47b1 ce3d c9f8 fe3d
00000250: f94d 27bd 71f8 243d 6eaa 703e 7d2f e7bc
00000260: 05a0 72be 6cb5 6c3d bdd2 adbe 205c 2bbf
00000270: 51de 863d c836 56be 2355 803e 09a6 da3e
00000280: e0f2 2ebe f838 833e 97a0 ab3e 0f27 6f3e
00000290: 8137 393e 7be9 a9bd f9ff 823e e067 92bd
000002a0: b78d 633e 0f5b 37bd d441 74be 7c76 fbbb
000002b0: 1993 57be 1c71 afbd c3c8 fc3d f0a5 0abd
000002c0: bf2d 2abe 8cb2 0fbe b031 bc3e e923 44bd
000002d0: 7429 9cbe 7069 50be 8f99 72bd 7692 303e
000002e0: 44aa 473e eee7 783a 7d77 53be ac96 923d
000002f0: db1b 9fbe 8126 89be fecf b83e e3db f5be
00000300: 1846 1bbd 4cda f2be 5a94 a23e 7939 823e
00000310: 2c38 c63e 1b6c 563e e83a c63b 0a43 2fbc
00000320: 18be 793c fda7 8cbe 5ad5 2ebf 7ea7 a8bd
00000330: 608a 043f 1fc3 e33b 1110 1bbc d86d 76bd
00000340: 8258 e73c a804 b43e a0d8 433e cf78 a6be
00000350: e5cc d53e dc04 f53d 2b48 d63e 1412 8b3a
00000360: 3c30 dc3d 40ac 03be d0fd fdbd 73a0 213d
00000370: dcf3 88bd 4a95 6f3d a7a0 b43e 32b8 04be
00000380: ea94 8ebe 10d6 babc e5a8 0fbf 2438 b4bd
00000390: 6151 013e 7277 873e 32fd 8f3a 7a4f 7bbe
000003a0: a3fb 2dbe bd1f 98be 8ee2 823e 8ef2 08bf
000003b0: 64e1 c1bd 098d cbbd 951f b03e f3ed b03e
000003c0: 32c3 8abe 8139 56be 8e80 39be 169b a8be
000003d0: 3910 debd 06e1 0f3e 1f0c 053e 43dd ea3d
000003e0: 59d9 533c f883 62be 4b89 b6bd 0a7c cfbd
000003f0: 558d bc3e 966f b0bd 4a35 983e 952b 54be

feature_net.linear_layer_0.bias f4 [32]
-0.046422705 0.08593253 -0.055993244 -0.11080752 -0.006209966 0.07228471 0.045938235 -0.11652748
0.07039301 -0.07537924 0.06499459 -0.08265038 -0.1039479 -0.042601727 0.11135612 -0.113863416
0.03094214 0.11750993 0.09794572 0.03392708 0.08924392 -0.028046513 0.007904871 0.08663118
0.11384006 -0.09243954 0.09080403 0.011580521 0.06972668 -0.0832335 -0.06352007 0.11320827
00000000: bc25 3ebd 65fd af3d 2c59 65bd 0eef e2bd
00000010: f87c cbbb 020a 943d bb29 3c3d f6a5 eebd
00000020: 362a 903d 6e60 9abd e21b 853d 9a44 a9bd
00000030: a3e2 d4bd 267f 2ebd ad0e e43d 3931 e9bd
00000040: 5f7a fd3c 0ca9 f03d c497 c83d 1ff7 0a3d
00000050: 84c5 b63d cdc1 e5bc 6f83 013c b06b b13d
00000060: fa24 e93d f150 bdbd 77f7 b93d 3abc 3d3c
00000070: ddcc 8e3d 5376 aabd cf16 82bd bdd9 e73d

feature_net.layer_norm_0.weight f4 [32]
0.9769028 1.082514 0.9675258 0.8880096 0.96948946 1.0497248 1.0537081 0.88214266
1.0260404 0.9214131 1.0158356 0.9629393 0.90271705 0.93319744 0.9698221 0.88313353
1.0218897 1.1027137 1.145332 0.92708975 1.0820147 0.93940127 0.93894005 1.0734042
1.1058342 0.9429806 1.0321144 1.1091995 1.0565739 0.91569465 0.9351198 1.0794061
00000000: 4d16 7a3f d28f 8a3f c5af 773f 9954 633f
00000010: 7630 783f 625d 863f e8df 863f 1ad4 613f
00000020: 4b55 833f bbe1 6b3f e706 823f 3183 763f
00000030: 7718 673f 07e6 6e3f 4346 783f 0a15 623f
00000040: 48cd 823f b925 8d3f 3d9a 923f c155 6d3f
00000050: 757f 8a3f 9a7c 703f 605e 703f 4f65 893f
00000060: fa8b 8d3f 2d67 713f 531c 843f 40fa 8d3f
00000070: d03d 873f f76a 6a3f 0364 6f3f fb29 8a3f

feature_net.layer_norm_0.bias f4 [32]
-0.059307404 0.05816608 -0.08569799 -0.11070476 -0.05394913 0.0031781949 0.011950679 -0.11789981
0.05464038 -0.09078117 0.07040635 -0.076617435 -0.11258805 -0.059923105 0.08178476 -0.11703225
0.021565566 0.121608146 0.0800747 -0.04349038 0.08471881 -0.07692038 -0.057621084 0.087037854
0.11009964 -0.1058017 0.06746552 -0.049586453 0.05824908 -0.09386455 -0.07086102 0.10942401
00000000: 52ec 72bd 8e3f 6e3d 6e82 afbd 2db9 e2bd
00000010: c3f9 5cbd 4349 503b c8cc 433c 7575 f1bd
00000020: 97ce 5f3d 7aeb b9bd 3431 903d 9ae9 9cbd
00000030: 9094 e6bd ee71 75bd c57e a73d 9bae efbd
00000040: 45aa b03c b10d f93d 34fe a33d f822 32bd
00000050: 0e81 ad3d 6f88 9dbd 1604 6cbd e740 b23d
00000060: ec7b e13d 90ae d8bd 5d2b 8a3d 2a1b 4bbd
00000070: 9696 6e3d 0f3c c0bd 951f 91bd b219 e03d

feature_net.linear_layer_1.weight f4 [32, 32]
0.07656915 0.15039645 0.1092833 0.5883751 -0.045334827 -0.080221675 0.019697798 -0.10174417
0.29745993 0.28465813 0.4599676 0.07022359 -0.05148267 0.4349432 0.26940012 -0.34212917
-0.3328924 0.35870653 -0.3155013 0.20564897 0.38511205 0.24489379 0.2217775 0.33107203
0.5105087 0.08248609 -0.20439382 -0.43249717 -0.21287318 0.3421322 0.011080575 0.2082877
0.59203786 -0.02216669 -0.47973508 0.57906 0.09886186 0.083916195 -0.04332449 -0.22512123
-0.13749294 0.12567686 -0.14841077 0.20081522 -0.14531446 -0.016653413 0.029074216 0.20215222
-0.27427968 0.0055349506 0.44897965 0.017700065 0.024110878 0.012578979 0.30339926 0.17866775
0.21690132 -0.12838969 0.13664424 -0.15607807 0.34887066 0.11277827 -0.3583461 -0.27193168
-0.029929869 -0.1547252 0.058225203 -0.053397827 0.21134004 0.5930983 -0.42955887 -0.30621082
0.4878224 0.14319065 -0.0015445123 0.042636782 0.013199336 0.33389786 -0.41871 -0.5288708
0.2834795 -0.045325346 0.47429448 -0.17970608 0.1727628 -0.085792825 -0.18296705 -0.1500025
0.06677516 0.111825146 0.024914527 0.16300239 0.114562154 -0.30092856 0.256389 -0.22772214
-0.31071046 0.05421869 -0.39186677 -0.15818004 -0.24283205 0.49233592 0.022368204 0.053134732
-0.047882494 -0.46783996 -0.24982482 -0.24543498 0.28913894 0.14716116 -0.2452388 -0.10061621
-0.3299679 -0.00093584834 -0.4354854 -0.02711955 0.014980591 -0.31733298 -0.22351304 0.0077024335
0.3464615 0.27871284 -0.32468992 -0.04597992 0.062141094 -0.08873239 -0.08624669 -0.30637312
-0.361057 0.23766826 0.06755492 -0.22125918 0.43030205 -0.09911735 0.14322616 -0.386398
0.13001971 0.23120286 0.10437334 0.39928165 -0.4452587 0.20280553 0.18966506 0.021989362
-0.18826255 -0.07987006 -0.1196566 -0.0030153804 -0.17215888 0.51210994 -0.14502151 0.081834584
-0.011656159 0.16182017 -0.23606665 -0.25175557 0.029922318 0.19669415 0.17248595 -0.53128266
0.19070223 -0.07269832 -0.29572424 -0.13599572 0.18420993 0.105681315 0.10053359 -0.31305376
0.058090508 0.24101529 0.44498524 -0.3231359 0.069999166 -0.16888477 0.3292353 -0.22981559
-0.020906478 0.55344176 -0.2947777 0.23220065 -0.20042792 0.206272 -0.057877112 -0.21043849
-0.20768654 -0.19167414 -0.006731914 0.35220224 0.39474106 -0.28867802 -0.3309654 0.015713926
0.27648705 0.28555426 0.16100541 -0.27436367 -0.11728274 0.40182796 -0.21000284 -0.22055455
0.32751733 -0.118764356 0.123081796 0.6818936 -0.086889446 0.22098601 0.33900395 0.1768577
-0.09901241 0.13477531 -0.56829995 0.31319967 0.21981247 -0.12316679 0.4934523 -0.09947802
-0.00041456101 -0.0672125 0.421954 -0.17860928 0.4851704 0.31824136 0.1953072 0.3152239
-0.38127348 -0.33160192 -0.48729816 0.00272266 0.48539558 0.3556403 0.07445533 0.19433147
0.49718973 0.40179884 0.16249399 -0.0574444 0.0820472 0.014577504 0.16606784 0.41030797
-0.1803289 -0.06979076 -0.012328062 0.15453996 -0.1196894 -0.065700635 -0.013313219 0.40003547
-0.044147857 0.27515274 0.36759478 -0.15341382 0.07233851 0.3171228 0.25898594 0.5453952
00000000: 49d0 9c3d 8701 1a3e eccf df3d c09f 163f
00000010: 03b1 39bd 434b a4bd 475d a13c 3f5f d0bd
00000020: ab4c 983e b6be 913e e080 eb3e 63d1 8f3d
00000030: 7edf 52bd e0b0 de3e d0ee 893e 8e2b afbe
00000040: df70 aabe 62a8 b73e 6389 a1be a595 523e
00000050: 682d c53e 70c5 7a3e a419 633e 4682 a93e
00000060: b3b0 023f 78ee a83d 9d4c 51be 4570 ddbe
00000070: 6dfb 59be f42b af3e 4d8b 353c 5f49 553e
00000080: cb8f 173f eb96 b5bc d69f f5be 473d 143f
00000090: 1678 ca3d 41dc ab3d 0575 31bd 2e86 66be
000000a0: f3ca 0cbe 6fb1 003e fef8 17be 81a2 4d3e
000000b0: 50cd 14be bd6c 88bc 0d2d ee3c fe00 4f3e
000000c0: 636e 8cbe 885e b53b a9e0 e53e baff 903c
000000d0: 2d84 c53c 1018 4e3c 2657 9b3e aef4 363e
000000e0: 611b 5e3e 9678 03be 78ec 0b3e eed2 1fbe
000000f0: 2d9f b23e 4bf8 e63d 2479 b7be a13a 8bbe
00000100: 7c2f f5bc 4870 1ebe 8d7d 6e3d aeb7 5abd
00000110: 8669 583e 4ad5 173f 24ef dbbe aac7 9cbe
00000120: dcc3 f93e 92a0 123e 3c71 caba e8a3 2e3d
00000130: 0742 583c a9f4 aa3e 2861 d6be 1464 07bf
00000140: 3a24 913e 12a7 39bd bad6 f23e df04 38be
00000150: bbe8 303e 26b4 afbd b75b 3bbe 419a 19be
00000160: 6ac1 883d 9504 e53d 8d19 cc3c 19ea 263e
00000170: 909f ea3d 4f13 9abe 6b45 833e fe2f 69be
00000180: 7115 9fbe 6b14 5e3d c3a2 c8be f3f9 21be
00000190: f7a8 78be 7413 fc3e 863d b73c cea3 593d
000001a0: 6f20 44bd b888 efbe 14d2 7fbe 4f53 7bbe
000001b0: 050a 943e 6ab1 163e e11f 7bbe df0f cebd
000001c0: 8df1 a8be b853 75ba f1f7 debe d229 debc
000001d0: 2771 753c 7879 a2be 9ae0 64be b264 fc3b
000001e0: 6763 b13e 73b3 8e3e c23d a6be 7155 3cbd
000001f0: a987 7e3d 54b9 b5bd 1ba2 b0bd f0dc 9cbe
00000200: 77dc b8be 4f5f 733e 3c5a 8a3d c491 62be
00000210: 8d50 dc3e 0afe cabd e1a9 123e f5d5 c5be
00000220: e323 053e 71c0 6c3e b1c1 d53d a56e cc3e
00000230: f3f8 e3be 41ac 4f3e 8f37 423e 0923 b43c
00000240: e6c7 40be ea92 a3bd 850e f5bd b09d 45bb
00000250: 6b4a 30be a319 033f 8580 14be e498 a73d
00000260: 79f9 3ebc 30b4 253e 75bb 71be 1be6 80be
00000270: a61f f53c 316a 493e 28a0 303e 2402 08bf
00000280: 7247 433e dbe2 94bd 2b69 97be 7642 0bbe
00000290: 87a1 3c3e 726f d83d 8ee4 cd3d 9548 a0be
000002a0: 50f0 6d3d b6cc 763e 1bd5 e33e 1272 a5be
000002b0: b95b 8f3d 21f0 2cbe 8791 a83e c754 6bbe
000002c0: 1044 abbc 5cae 0d3f 1aed 96be 02c6 6d3e
000002d0: fa3c 4dbe f838 533e 8d10 6dbd 307d 57be
000002e0: c8ab 54be 3a46 44be 6397 dcbb da53 b43e
000002f0: 801b ca3e 9bcd 93be 4c74 a9be 7eba 803c
00000300: b68f 8d3e 2b34 923e 9ade 243e 6579 8cbe
00000310: ef31 f0bd 65bc cd3e fc0a 57be 0dd9 61be
00000320: 5ab0 a73e ba3a f3bd 4f12 fc3d 9490 2e3f
00000330: 18f3 b1bd 284a 623e ed91 ad3e 2f1a 353e
00000340: 05c7 cabd 8a02 0a3e 1b7c 11bf b55b a03e
00000350: 8516 613e df3e fcbd c8a5 fc3e 22bb cbbd
00000360: 7059 d9b9 b5a6 89bd 5b0a d83e 5ae5 36be
00000370: 4168 f83e 88f0 a23e 9cfe 473e 0765 a13e
00000380: 4736 c3be bac7 a9be 257f f9be a86e 323b
00000390: c585 f83e 7c16 b63e 097c 983d d4fe 463e
000003a0: a78f fe3e 94b8 cd3e d364 263e d24a 6bbd
000003b0: 5d08 a83d 7cd6 6e3c b00d 2a3e e313 d23e
000003c0: 24a8 38be 75ee 8ebd a4fb 49bc b93f 1e3e
000003d0: b71f f5bd 0e8e 86bd b01f 5abc 73d1 cc3e
000003e0: 62d4 34bd d2e0 8c3e 6235 bc3e 8318 1dbe
000003f0: 3626 943d eb5d a23e ce99 843e 059f 0b3f

feature_net.linear_layer_1.bias f4 [32]
0.12474829 0.087890334 -0.030730927 -0.078020275 0.10979104 0.12162278 0.10829672 0.09327111
-0.0044236626 -0.14969817 -0.09070402 0.114327386 0.13890158 -0.082406186 -0.11523567 -0.09533948
-0.1159925 -0.109816656 -0.10873646 -0.069488525 0.03536339 -0.05541041 0.10411612 0.09815882
-0.057541993 -0.080458514 0.11301685 0.117078245 -0.11537771 0.039872315 -0.10983594 0.107426286
00000000: 087c ff3d d9ff b33d 6dbf fbbc 18c9 9fbd
00000010: 20da e03d 5d15 f93d acca dd3d ec04 bf3d
00000020: 5ff4 90bb 7a4a 19be 07c3 b9bd 7a24 ea3d
00000030: 373c 0e3e 93c4 a8bd ae00 ecbd 5841 c3bd
00000040: 7a8d edbd 8ee7 e0bd 39b1 debd 0050 8ebd
00000050: 34d9 103d 07f6 62bd d53a d53d 7e07 c93d
00000060: 27b1 6bbd 6fc7 a4bd 6175 e73d b8c6 ef3d
00000070: 264b ecbd 2751 233d aaf1 e0bd 5002 dc3d

feature_net.layer_norm_1.weight f4 [32]
1.1625621 1.1259652 1.086588 0.94426745 1.0973122 1.1353804 1.1438057 1.1379025
0.9373958 1.0142361 0.8993142 1.1494586 1.177621 1.0193934 0.8956036 0.91641843
0.89989936 0.951741 0.9951133 0.9293831 1.1094377 0.9400601 1.1036898 1.1379336
0.9666222 0.92983025 1.1326442 1.1454839 0.89805895 1.1174744 0.9043894 1.1369299
00000000: d6ce 943f a11f 903f 5115 8b3f 83bb 713f
00000010: ba74 8c3f 2554 913f 3a68 923f caa6 913f
00000020: 2cf9 6f3f 7dd2 813f 7539 663f 7621 933f
00000030: 49bc 963f 7c7b 823f 4746 653f 669a 6a3f
00000040: ce5f 663f 4ca5 733f bfbf 7e3f 0dec 6d3f
00000050: 0e02 8e3f c7a7 703f b545 8d3f cfa7 913f
00000060: 8d74 773f 5b09 6e3f 7cfa 903f 379f 923f
00000070: 31e7 653f 6709 8f3f 1086 673f eb86 913f

feature_net.layer_norm_1.bias f4 [32]
0.14732797 0.11686953 0.13544008 -0.055659555 0.12771061 0.13945171 0.13341717 0.12491498
-0.056766495 -0.037097782 -0.106877275 0.12813796 0.14621243 0.048150845 -0.11075483 -0.08830071
-0.10759938 -0.0648609 -0.10248657 -0.013378121 0.09667783 -0.07124439 0.10423468 0.13153096
-0.06674577 -0.07486526 0.15752831 0.14188391 -0.1107238 0.082134455 -0.1052526 0.13219519
00000000: 25dd 163e 4b59 ef3d ceb0 0a3e 46fb 63bd
00000010: 92c6 023e 6ecc 0e3e 839e 083e 6dd3 ff3d
00000020: fc83 68bd d8f3 17bd 79e2 dabd 9936 033e
00000030: b6b8 153e d239 453d 6ed3 e2bd 01d7 b4bd
00000040: 105d dcbd cbd5 84bd 7be4 d1bd e82f 5bbc
00000050: 07ff c53d 94e8 91bd fe78 d53d 0db0 063e
00000060: 02b2 88bd f552 99bd 1a4f 213e 044a 113e
00000070: 29c3 e2bd 1c36 a83d ad8e d7bd 2d5e 073e

feature_net.linear_layer_output.weight f4 [5, 32]
-0.16086692 -0.2428497 8.004904e-05 -0.18781418 -0.26234102 -0.10208986 0.08857595 0.28495273
-0.26499042 0.1479418 0.010799315 0.28937283 0.3062066 0.08961657 0.23633848 -0.031551287
0.20276679 0.066127695 -0.2538519 -0.100905165 0.014200686 0.07283913 0.73273027 0.2917228
-0.17299113 -0.42171237 -0.2818138 0.2827325 -0.22362307 0.6223048 0.15171185 0.3286693
0.4874253 0.6324447 0.23374932 0.08005725 0.083099976 0.7219613 0.07057175 0.27266148
0.058983695 0.21051548 0.25045043 0.05335086 0.19919163 0.32283163 -0.017879575 -0.18676929
0.04799742 -0.13812515 -0.17580853 -0.25624946 0.196015 -0.3059416 0.15448622 0.37769493
-0.1093643 0.04799026 0.1670885 0.32271746 -0.33559904 -0.23182857 0.08658908 0.49970895
-0.14578332 -0.02270251 0.23750696 0.30071983 -0.49927726 0.015398089 -0.5484601 -0.29787916
-0.043514792 -0.022316799 -0.4846909 -0.5330446 -0.21008039 0.027520306 0.5004638 -0.058547072
0.2701555 -0.25173137 0.38203672 -0.095497474 -0.30801797 -0.027363682 0.14546198 0.037174184
-0.15503809 0.15206249 -0.42963418 -0.04192707 -0.13546059 -0.29327264 0.035675693 0.094233416
-0.19326642 0.12355124 -0.14604919 0.1960604 0.11235329 0.035436057 -0.23605503 -0.1265516
-0.09211251 -0.15345825 0.077693515 -0.24779435 -0.3688354 -0.11097957 0.2993319 0.07763448
0.09842427 -0.28439265 -0.7252117 -0.30208936 0.16430089 0.3293152 -0.35982537 -0.7176506
-0.40044 -0.06569873 -0.47158647 -0.47466883 -0.057349004 0.007028134 -0.09663411 -0.29724464
-0.24373628 0.11236048 -0.44511032 -0.33144525 -0.26682267 -0.51535875 -0.25778443 -0.15933745
0.0036567857 0.23353922 0.007542191 -0.32740116 -0.5655691 0.12842874 -0.28735 0.16060235
-0.071764976 0.28740585 -0.23245259 -0.6444169 -0.40197548 0.20414813 -0.06370433 0.26401758
-0.07967203 0.406517 -0.19836557 -0.30500007 -0.107041374 -0.16207013 0.041693065 -0.07440515
00000000: 4cba 24be 97ad 78be 00e0 a738 5c52 40be
00000010: 9051 86be 7d14 d1bd 4f67 b53d 53e5 913e
00000020: d3ac 87be 0e7e 173e 9cef 303c ad28 943e
00000030: 1dc7 9c3e e488 b73d b702 723e ec3b 01bd
00000040: 19a2 4f3e f56d 873d e0f8 81be 5ea7 cebd
00000050: fea9 683c af2c 953d 3694 3b3f b15c 953e
00000060: 9624 31be afea d7be e649 90be 50c2 903e
00000070: 72fd 64be 5e4f 1f3f 5a5a 1b3e 5847 a83e
00000080: cf8f f93e e5e7 213f fb5b 6f3e 0ef5 a33d
00000090: 5230 aa3d 75d2 383f ec87 903d 499a 8b3e
000000a0: e398 713d 5f91 573e 0a3b 803e 6e86 5a3d
000000b0: e4f8 4b3e 304a a53e 3078 92bc 7340 3fbe
000000c0: f198 443d ae70 0dbe 2707 34be 2133 83be
000000d0: 28b8 483e 61a4 9cbe a331 1e3e 3b61 c13e
000000e0: 64fa dfbd 6f91 443d 3f19 2b3e 393b a53e
000000f0: a3d3 abbe 7864 6dbe 9e55 b13d dad9 ff3e
00000100: 3948 15be 9dfa b9bc 0635 733e f3f7 993e
00000110: 45a1 ffbe 4448 7c3c e267 0cbf 9e83 98be
00000120: 913c 32bd b8d1 b6bc 6829 f8be 9c75 08bf
00000130: 501f 57be 4472 e13c 651e 003f 0ecf 6fbd
00000140: d251 8a3e efe2 80be 519a c33e 2e94 c3bd
00000150: 88b4 9dbe cd29 e0bc fcf3 143e f543 183d
00000160: 4ec2 1ebe 45b6 1b3e 03f9 dbbe b8bb 2bbd
00000170: 2eb6 0abe d527 96be ad20 123d 73fd c03d
00000180: a2e7 45be 6f08 fd3d eb8d 15be 0fc4 483e
00000190: 7b19 e63d 6625 113d 69b8 71be be96 01be
000001a0: 7ca5 bcbd 2924 1dbe c71d 9f3d cdbd 7dbe
000001b0: fed7 bcbe 4249 e3bd 0842 993e d4fe 9e3d
000001c0: aa92 c93d ea9b 91be 79a7 39bf 75ab 9abe
000001d0: 7e3e 283e 009c a83e 083b b8be f3b7 37bf
000001e0: 7906 cdbe 0e8d 86bd c873 f1be cb07 f3be
000001f0: cae6 6abd 434c e63b 1be8 c5bd 7330 98be
00000200: 0196 79be 401d e63d 80e5 e3be 31b3 a9be
00000210: fb9c 88be 8dee 03bf 52fc 83be 5b29 23be
00000220: afa6 6f3b e824 6f3e 7c24 f73b 20a1 a7be
00000230: 23c9 10bf d382 033e 8a1f 93be f174 243e
00000240: 84f9 92bd dc26 933e 0d08 6ebe 82f8 24bf
00000250: bbcf cdbe 350c 513e 6a77 82bd 502d 873e
00000260: 172b a3bd ff22 d03e 5820 4bbe f828 9cbe
00000270: 8238 dbbd b6f5 25be 59c6 2a3d ba61 98bd

feature_net.linear_layer_output.bias f4 [5]
0.101716675 0.12895401 -0.112205885 -0.13668531 -0.15264735
00000000: d550 d03d 850c 043e 33cc e5bd 3cf7 0bbe
00000010: 964f 1cbe

feature_net.linear_layer_0.weight f4 [32, 3]
0.43976563 -0.3118934 -0.03697966 -0.12635686 -0.2259953 -0.36789975 0.1511094 0.10778295
0.0757898 -0.33323497 0.13654214 0.17107578 0.03960459 -0.27042028 0.0871646 0.21267915
0.41964728 0.02934559 -0.54769003 0.4518957 -0.100190446 0.2908324 0.38135725 0.101810254
-0.105744064 -0.099512115 0.20948452 0.20617498 0.020268947 -0.41850537 0.1447711 -0.15986878
0.5607639 -0.05227858 0.2398676 -0.4852472 -0.36102995 -0.13549761 0.1159409 0.2888412
0.15942365 -0.06378027 -0.3055669 -0.65707827 0.078650355 0.07251083 -0.2502877 0.024814121
-0.084251136 0.3466691 0.08496737 -0.044665564 0.025961874 -0.31716326 0.0680613 -0.51545405
0.013091386 -0.15089329 0.32794815 0.29826665 0.0010030858 0.00059099356 -0.2559676 -0.1513436
0.02317879 0.23872156 0.09627524 0.19576877 -0.0812409 -0.47884628 -0.22388493 -0.3563176
-0.11657491 -0.044440478 -0.2984158 0.06729402 -0.067077495 -0.027831167 0.403722 -0.14872225
-0.22023228 0.20310837 -0.020236207 0.44404328 -0.42404485 -0.059561655 -0.18205489 -0.064350784
-0.016632477 0.11962581 -0.31094173 0.041358784 0.45311 -0.30600154 -0.09663991 0.033988886
00000000: f628 e13e 7eb0 9fbe fc77 17bd b163 01be
00000010: 506b 67be 5b5d bcbe 6cbc 1a3e 4fbd dc3d
00000020: af37 9b3d c69d aabe b4d1 0b3e 7d2e 2f3e
00000030: 6c38 223d 8774 8abe 5b83 b23d 90c8 593e
00000040: 02dc d63e 2a66 f03c 6a35 0cbf e05e e73e
00000050: a630 cdbd fce7 943e 4241 c33e e581 d03d
00000060: 5890 d8bd 02cd cbbd 1c83 563e 891f 533e
00000070: 100b a63c 5646 d6be e03e 143e a4b4 23be
00000080: 398e 0f3f 1022 56bd da9f 753e 5272 f8be
00000090: ebd8 b8be e3bf 0abe 6c72 ed3d fee2 933e
000000a0: f43f 233e 3b9f 82bd 4473 9cbe 4836 28bf
000000b0: 7013 a13d 8f80 943d b625 80be fc46 cb3c
000000c0: dc8b acbd 9d7e b13e 5f03 ae3d 3df3 36bd
000000d0: ffad d43c 3963 a2be b963 8b3d ccf4 03bf
000000e0: 417d 563c c583 1abe d2e8 a73e 68b6 983e
000000f0: f979 833a e8ec 1a3a 2f0e 83be d1f9 1abe
00000100: 72e1 bd3c 6d73 743e f42b c53d 9c77 483e
00000110: a161 a6bd 572b f5be 1742 65be 436f b6be
00000120: d4be eebd 3807 36bd f5c9 98be 72d1 893d
00000130: ed5f 89bd 30fe e3bc a6b4 ce3e a54a 18be
00000140: 9284 61be a4fb 4f3e 67c6 a5bc a459 e33e
00000150: 681c d9be ecf6 73bd 996c 3abe 58ca 83bd
00000160: d540 88bc 60fe f43d c133 9fbe d467 293d
00000170: 09fe e73e 3cac 9cbe 25eb c5bd ee37 0b3d

feature_net.linear_layer_0.bias f4 [32]
0.016533794 -0.01430985 -0.009072312 -0.0026550093 -0.011579538 -0.011564215 -0.009659454 -0.012168587
-0.015073614 0.013908 0.0063062566 0.012932 -0.0029217894 0.0014465413 -0.014311015 0.014066021
-0.0002545696 -0.014291105 -0.013838126 0.01300477 -0.014309854 0.0027737955 -0.0071974252 -0.014200085
-0.014281269 -0.0009933552 -0.011666878 0.012695351 -0.014187388 -0.010989563 -0.0016805503 -0.0142260045
00000000: e171 873c dc73 6abc 09a4 14bc aaff 2dbb
00000010: 1ab8 3dbc d577 3dbc b042 1ebc c15e 47bc
00000020: 52f7 76bc 61de 633c b7a4 ce3b bde0 533c
00000030: 7e7b 3fbb df99 bd3a bf78 6abc 2b75 663c
00000040: c177 85b9 3d25 6abc 4fb9 62bc f511 553c
00000050: e173 6abc 91c8 353b 61d8 ebbb 79a7 68bc
00000060: fcfb 69bc 7833 82ba 6f26 3fbc 2900 503c
00000070: 3872 68bc 910d 34bc e945 dcba 3014 69bc

feature_net.layer_norm_0.weight f4 [32]
1.0158099 1.0 0.99009234 1.0059454 0.98927176 0.988234 0.990974 0.98830396
0.9860384 1.0158796 1.00833 1.0118191 1.0142943 0.9971928 1.0 1.0140374
0.99698734 1.0 0.9927676 1.0088156 1.0 0.9971169 0.9925862 1.0
1.0 1.0010144 0.98845404 1.0127037 1.0 0.99031925 1.0027074 1.0
00000000: 0f06 823f 0000 803f b176 7d3f d2c2 803f
00000010: ea40 7d3f e7fc 7c3f 79b0 7d3f 7d01 7d3f
00000020: 036d 7c3f 5808 823f f510 813f 4a83 813f
00000030: 65d4 813f 0748 7f3f 0000 803f facb 813f
00000040: 903a 7f3f 0000 803f 0426 7e3f df20 813f
00000050: 0000 803f 0e43 7f3f 211a 7e3f 0000 803f
00000060: 0000 803f 3d21 803f 530b 7d3f 46a0 813f
00000070: 0000 803f 9085 7d3f b758 803f 0000 803f

feature_net.layer_norm_0.bias f4 [32]
0.0168027 0.0 -0.008734175 0.005546466 -0.011336638 -0.011181219 -0.0075427904 -0.01208771
-0.014721384 0.014327257 0.007304695 0.0132518085 0.015312184 0.004296095 0.0 0.0145866
0.00020489097 0.0 -0.0072384505 0.013124334 0.0 0.0030823771 -0.0057255947 0.0
0.0 0.00036654592 -0.011334887 0.012808085 0.0 -0.010214047 0.0048196153 0.0
00000000: d1a5 893c 0000 0000 c919 0fbc 21bf b53b
00000010: 4ebd 39bc 6e31 37bc 8329 f7bb 880b 46bc
00000020: f631 71bc dfbc 6a3c 395c ef3b 1d1e 593c
00000030: f4df 7a3c 42c6 8c3b 0000 0000 a2fc 6e3c
00000040: 00d8 5639 0000 0000 8630 edbb 7207 573c
00000050: 0000 0000 b501 4a3b c59d bbbb 0000 0000
00000060: 0000 0000 f62c c039 f6b5 39bc 01d9 513c
00000070: 0000 0000 d158 27bc dded 9d3b 0000 0000

feature_net.linear_layer_1.weight f4 [32, 32]
0.14193766 -0.07739625 0.36787903 -0.41209397 0.01941546 0.020007554 0.061010286 -0.34000763
0.35197327 -0.118152566 0.14695513 -0.123776145 -0.3835156 -0.5055692 -0.0076515204 -0.096144915
0.06694324 0.40753853 -0.25663435 0.13595161 -0.22374706 -0.13207775 0.3608564 -0.0322384
0.3162294 -0.3338496 0.07455068 -0.044764355 0.39638647 0.14752854 0.31707516 0.13055484
0.35394478 -0.1660193 -0.17501877 0.10702526 0.26812008 0.3282981 0.12781878 0.5084757
-0.15525587 0.10540192 -0.3612667 -0.046599198 0.22013454 -0.46303865 0.09401887 -0.24626988
-0.0073933736 0.1615933 -0.2901829 -0.15377313 0.08646933 0.4079808 0.048081007 -0.03293568
0.1753605 -0.31454384 0.24568276 -0.29137734 -0.3193001 -0.14893623 0.22595257 -0.2806525
-0.01029611 -0.0041188044 0.05898385 0.36627752 -0.2777633 0.4722076 -0.34185106 -0.09249953
0.07577326 0.20613496 -0.10074693 -0.080797255 0.3508193 -0.32574716 -0.22653481 -0.30130318
-0.32344842 -0.38871536 -0.17992046 0.07458385 0.21218008 -0.14744766 0.025605742 -0.13442107
-0.1528001 0.26484546 -0.30050078 -0.027680466 0.41255748 0.30980006 0.39739397 0.07740138
0.11553702 -0.112621985 -0.18399005 0.10494778 -0.29522398 0.011404369 0.5299014 -0.35982275
-0.23044784 0.13408531 -0.08658644 0.30432525 -0.27074957 -0.0075881216 -0.0699328 0.0055154134
-0.39044562 0.34756312 -0.1809263 0.002409412 -0.13506548 0.25145984 -0.34785536 -0.048379216
-0.027713351 0.31627747 0.21671702 -0.13640751 0.16660812 0.5611787 -0.23079261 -0.33566025
-0.25529623 -0.11202338 0.15787348 0.01956916 -0.099766016 -0.08745852 0.23060401 0.17120734
-0.09096561 0.27612823 -0.3261719 0.3733497 -0.15966968 -0.13667846 0.05049333 -0.17420399
0.278039 -0.046342567 0.29586026 -0.35750446 -0.45487538 -0.07760035 0.20915103 -0.39867777
-0.2355393 0.24253005 0.15053767 -0.071253955 -0.22868283 0.16581716 0.28497183 0.59490305
0.10337861 -0.10798671 0.15911557 -0.18561119 0.18572235 -0.13059509 -0.12300175 0.0033693851
-0.026083656 -0.0861763 -0.1259396 -0.23872866 0.2616894 0.007792684 0.32694522 0.1922849
-0.40632996 0.3936201 -0.04751105 -0.30105263 0.20522675 -0.29521206 -0.24202386 0.40957433
-0.2774838 0.4598086 0.472043 -0.0369275 0.062158313 -0.06305383 0.39092797 0.2711095
-0.09249954 0.6486054 0.11378953 -0.14868675 0.30893487 0.06622284 -0.031015987 -0.050493706
0.070683815 -0.09113197 0.0160275 0.12962504 0.44549215 0.2838923 0.26455995 -0.16691385
0.026186798 0.20916755 0.23588781 0.13584037 0.018299 -0.23662208 0.24424009 -0.53279066
0.04215377 0.10032711 0.20082274 -0.36757016 0.07304784 0.278069 0.05371591 -0.47721404
0.26031613 0.022522917 -0.3093523 0.104499966 0.17704475 0.269401 -0.13236174 0.0995922
-0.092668645 0.26347795 0.18193161 -0.2975064 -0.10317794 0.10443369 -0.13530065 0.10674062
0.15654193 0.21838813 -0.15806094 0.04822384 -0.3914834 -0.6993508 -0.2714485 -0.042845555
-0.40797356 -0.41039592 -0.08648696 0.06679152 -0.30177888 0.42836466 0.022602016 -0.013032522
00000000: 1b58 113e ed81 9ebd a45a bc3e fbfd d2be
00000010: 2c0d 9f3c e2e6 a33c ece5 793d 7b15 aebe
00000020: d735 b43e f9f9 f1bd 687b 163e 597e fdbd
00000030: 285c c4be fc6c 01bf 9bb9 fabb a0e7 c4bd
00000040: 8a19 893d e4a8 d03e 9465 83be e636 0b3e
00000050: f31d 65be 643f 07be 2cc2 b83e 6a0c 04bd
00000060: d2e8 a13e 56ee aabe 07ae 983d d45a 37bd
00000070: 2bf3 ca3e b911 173e ad57 a23e 2bb0 053e
00000080: 4038 b53e f700 2abe 1f38 33be 0f30 db3d
00000090: 0947 893e b016 a83e ede2 023e 772b 023f
000000a0: 65fb 1ebe f6dc d73d f3f7 b8be cdde 3ebd
000000b0: f36a 613e 6713 edbe f78c c03d 2c2e 7cbe
000000c0: 1d44 f2bb b778 253e da92 94be b476 1dbe
000000d0: d516 b13d dce2 d03e 97f0 443d 90e7 06bd
000000e0: b491 333e e40b a1be 4394 7b3e 692f 95be
000000f0: 4d7b a3be bd82 18be 1c60 673e afb1 8fbe
00000100: 04b1 28bc 09f7 86bb 0d99 713d ba88 bb3e
00000110: fe36 8ebe 32c5 f13e 1a07 afbe 6570 bdbd
00000120: 032f 9b3d 0b15 533e 6854 cebd 0879 a5bd
00000130: 969e b33e 55c8 a6be bef8 67be 6944 9abe
00000140: 089b a5be b305 c7be 123d 38be 6bbf 983d
00000150: bc45 593e 85fc 16be 22c3 d13c ada5 09be
00000160: a177 1cbe d399 873e 3ddb 99be 25c2 e2bc
00000170: bc3a d33e 1d9e 9e3e 3977 cb3e 9d84 9e3d
00000180: ac9e ec3d 5ba6 e6bd e367 3cbe ddee d63d
00000190: 9927 97be 64d9 3a3c 9ea7 073f b03a b8be
000001a0: 85fa 6bbe a94d 093e 3b54 b1bd 85d0 9b3e
000001b0: b09f 8abe c7a5 f8bb ee38 8fbd a4ba b43b
000001c0: 7de8 c7be cbf3 b13e be44 39be 3ae7 1d3b
000001d0: 9b4e 0abe 58bf 803e 191a b2be 4929 46bd
000001e0: 1c07 e3bc 1fef a13e 11eb 5d3e 69ae 0bbe
000001f0: 529b 2a3e 68a9 0f3f e654 6cbe a9db abbe
00000200: 30b6 82be 846c e5bd 96a9 213e 814f a03c
00000210: 2052 ccbd 741d b3bd 7523 6c3e fa50 2f3e
00000220: 2e4c babd ae60 8d3e 0100 a7be b127 bf3e
00000230: 7380 23be 70f5 0bbe 18d2 4e3d 8862 32be
00000240: 215b 8e3e b4d1 3dbd ff7a 973e d30a b7be
00000250: 6de5 e8be efec 9ebd b02b 563e 7e1f ccbe
00000260: 3731 71be cc59 783e 8c26 1a3e 98ed 91bd
00000270: d52b 6abe f9cb 293e d4e7 913e 914b 183f
00000280: 2ab8 d33d 2328 ddbd 31ef 223e dc10 3ebe
00000290: 002e 3e3e b8ba 05be 57e8 fbbd e7d0 5c3b
000002a0: 64ad d5bc 337d b0bd 4ff6 00be 4975 74be
000002b0: 27fc 853e c559 ff3b 5d65 a73e 55e6 443e
000002c0: 7b0a d0be 9388 c93e f29a 42bd 9223 9abe
000002d0: f626 523e 0926 97be 1ad5 77be bab3 d13e
000002e0: 5b12 8ebe 086c eb3e 9faf f13e 4a41 17bd
000002f0: b799 7e3d 5e22 81bd b627 c83e ddce 8a3e
00000300: 6670 bdbd 010b 263f 7c0a e93d 5741 18be
00000310: b62c 9e3e d79f 873d 3d15 febc 7dd2 4ebd
00000320: adc2 903d 66a3 babd 1b4c 833c 6dbc 043e
00000330: 8c17 e43e 555a 913e 6774 873e 77eb 2abe
00000340: b285 d63c 0530 563e 938c 713e bd19 0b3e
00000350: c9e7 953c 0f4d 72be 131a 7a3e f864 08bf
00000360: 6ea9 2c3d 4d78 cd3d 7aa4 4d3e 2832 bcbe
00000370: 1b9a 953d 0f5f 8e3e 3705 5c3d 6655 f4be
00000380: 2848 853e fb81 b83c 6d63 9ebe 1404 d63d
00000390: 384b 353e eeee 893e d689 07be fff6 cb3d
000003a0: 0fc9 bdbd 95e6 863e 484c 3a3e c252 98be
000003b0: f54e d3bd 55e1 d53d 418c 0abe d49a da3d
000003c0: 874c 203e 23a1 5f3e bada 21be 5c86 453d
000003d0: 8370 c8be a708 33bf 4cfb 8abe d27e 2fbd
000003e0: e9e1 d0be 6a1f d2be 1320 b1bd fec9 883d
000003f0: c382 9abe 9d52 db3e dd27 b93c 5c86 55bc

feature_net.linear_layer_1.bias f4 [32]
-0.010331005 -0.011894463 -0.0041711503 0.013642539 -0.001374912 -0.010208953 -0.011269906 0.010578316
-0.011242803 0.0043431455 0.014006713 -0.008350945 -0.010173614 -0.0139680095 -0.011075652 0.012325971
0.008565503 -0.005609852 0.011196764 -0.00787936 0.01132985 -0.0074326578 0.013058612 0.005431493
-0.011109557 -0.0035844825 -0.002535675 0.001296094 -0.008726162 0.008924275 0.0057516047 0.015083
00000000: 6043 29bc fee0 42bc 25ae 88bb f584 5f3c
00000010: 6436 b4ba 7443 27bc 69a5 38bc ac50 2d3c
00000020: bc33 38bc f250 8e3b 6a7c 653c 67d2 08bc
00000030: 3baf 26bc 14da 64bc a776 35bc dff2 493c
00000040: 5356 0c3c d9d2 b7bb a272 373c 6e18 01bc
00000050: d6a0 393c a78d f3bb caf3 553c aafa b13b
00000060: dc04 36bc a3e9 6abb 912d 26bb b3e1 a93a
00000070: 2df8 0ebc 1f37 123c f577 bc3b b01e 773c

feature_net.layer_norm_1.weight f4 [32]
0.98961973 0.98889714 0.9920267 1.0075175 0.9947974 0.9893513 0.9894151 1.0161964
0.9898766 0.9991895 1.0172104 0.98955154 0.99529856 0.99092364 0.98869777 1.0
1.0 1.0180402 1.0078081 0.99027264 0.9993299 0.99907607 1.0165097 0.9952609
0.990314 1.0 1.0099554 1.0 1.0010116 1.0062387 1.0167696 1.0176513
00000000: b857 7d3f 5d28 7d3f 76f5 7d3f 55f6 803f
00000010: 0bab 7e3f 2046 7d3f 4f4a 7d3f b912 823f
00000020: 8e68 7d3f e2ca 7f3f f333 823f 4053 7d3f
00000030: e3cb 7e3f 2cad 7d3f 4c1b 7d3f 0000 803f
00000040: 0000 803f 244f 823f dbff 803f 8282 7d3f
00000050: 16d4 7f3f 73c3 7f3f fd1c 823f 6bc9 7e3f
00000060: 3885 7d3f 0000 803f 3846 813f 0000 803f
00000070: 2621 803f 6ecc 803f 8225 823f 6642 823f

feature_net.layer_norm_1.bias f4 [32]
-0.011621399 -0.011752047 -0.0076928656 0.007970324 0.0012219049 -0.011723107 -0.010938153 0.015869059
-0.010497627 0.0035052202 0.0155835925 -0.011659086 -0.0010466871 -0.0076699206 -0.007408859 0.0
0.0 0.018023027 0.007291616 -0.01020786 0.002052037 -0.0017122317 0.015326689 -0.005257109
-0.0045336825 0.0 0.010548694 0.0 0.0033774804 0.0068957624 0.01698949 0.016617132
00000000: ae67 3ebc a88b 40bc 6f14 fcbb f695 023c
00000010: 5328 a03a 4612 40bc f035 33bc d4ff 813c
00000020: 3dfe 2bbc d6b7 653b 5352 7f3c c005 3fbc
00000030: fe30 89ba f553 fbbb 04c6 f2bb 0000 0000
00000040: 0000 0000 07a5 933c 82ee ee3b de3e 27bc
00000050: 787b 063b f66c e0ba cb1c 7b3c d443 acbb
00000060: 498f 94bb 0000 0000 6ed4 2c3c 0000 0000
00000070: b858 5d3b d9f5 e13b 8b2d 8b3c a720 883c
