otk/AgileRL-MATD3/simple_push_v3/result/20240102-0837/MATD3_trained_agent_0015000.pt (torch, 467162 bytes, 224 tensors)

feature_net.linear_layer_0.weight f4 [32, 8]
00000000: fbb6 82bf 037e 6abf eb80 a5be e484 dd3f
00000010: 7020 2cc0 f722 1840 3e6b b540 5d5c 28bf
00000020: 814e 27c0 b233 7c3d 1015 5040 c2b1 babe
00000030: 649b 8840 99a9 553f acae 3ebf 26f9 29bf
00000040: d522 b63f 3d1f c5bf e68f c0c0 98db 8140
00000050: 1ea3 94bc 88a9 6f3e 6d56 cfbf 45f9 833f
00000060: e4f3 1b3f 6391 e6be cb51 60bf f71d b6bf
00000070: 60b1 1d40 03f0 8a3f 055f 90c0 3c9b 9bbf
00000080: 889a b3bf 7963 933f 5813 b73e 76a6 49c0
00000090: 3022 a3bd 055e b83e 09be 4440 52f5 72c0
000000a0: 392d 37bf a093 5dbf 01b9 09bf 0d8f 1bbe
000000b0: c123 17c0 f3a9 4d40 c884 9f40 1353 0740
000000c0: 4575 e33f 88fb 28bf 404d 2ec0 f027 0bc0
000000d0: 2dab 0ac0 b6cc 3dbf eb56 1ec0 0aa5 263f
000000e0: 3362 10bf 4365 d83f 23e7 cb3c c6d1 a23c
000000f0: 26ff ab3f 0301 fec0 c0c0 bcbd 6f9e 033f
00000100: 2441 903f e2b3 48bf 1e15 5cbf 566e 2b40
00000110: a1f6 bebf 3414 b2bf 7802 f93c 1d43 c73f
00000120: bf7d 753d dfb3 0dbd 4e0f c13e a02c 0dbe
00000130: cfa9 c2c0 49f6 cabe 25ea a440 36fe b3be
00000140: 2674 373e 5b9b 9e3e eec8 b43e 83c3 b43e
00000150: f53a aebe 679a 5540 500f b8bf c98f 8a40
00000160: debb 53bf 5a91 5fbf 3143 41be c346 3e3f
00000170: 7973 813e 11b9 383e 7faa 9d40 1272 6840
00000180: 6fe7 3b3f 41f3 9d3f f3dd f9bf 7534 3e3e
00000190: 62b1 fcbf 24ef c43e 7d98 63c0 6675 7bc0
000001a0: 114a 5a3f eaa5 aabe 7ea7 38c0 6558 2240
000001b0: 6252 9c3e 1cf1 b5bf 3045 94bf 15ff dd3e
000001c0: 9e54 963e db6e db3f b3e2 24c0 945c 9cc0
000001d0: e79e d6be 43b7 c0bf 611b 9fbe bd4b 51bf
000001e0: fb58 303f ee2e 80c0 f525 003f bfab 7a3f
000001f0: d53a 22bf a877 8840 ef1e c1bf a2cb 4340
00000200: 178e ab3c aff6 2abe b1f6 99be 59a3 8ebe
00000210: c8b3 8b40 e924 083f 05cc a4c0 b000 f9be
00000220: 04b6 ac3f d423 37bd d6a1 9abe 0499 a7bf
00000230: 7186 133f 28f3 633f aa9f acc0 5713 00bf
00000240: 6d9b 96be 5de8 3dbe 0ee7 a8c0 3e0e c53d
00000250: 8de9 c1be 7b35 403e 7a83 b840 101f ffbe
00000260: 7f40 f73f 83f6 0bbe 1e81 bebc 3d5c 6dbe
00000270: 0743 acc0 6ade c33f cd2f 3cc0 8112 0b40
00000280: 4bf0 b9be 8c56 cb3f eab1 dabf 2d56 39c0
00000290: 7942 42c0 cc67 c0bf e044 3d40 29d2 943e
000002a0: e7d6 12bd 23c0 8abf 1985 80bc d5fb 89c0
000002b0: ae9f 33bf 6e8d b43e 3faf 45bf 0c81 ce40
000002c0: 34ef e83c 0310 8bbf b06e 083e de06 2b3e
000002d0: ab53 a53e feff 85c0 6427 71bf 2889 e240
000002e0: 6691 833e ba68 f73f 90e9 a83f fd2d c8bf
000002f0: 52ad a1be 59f4 8abe e05b c53f 40c9 17c0
00000300: 0f1a 0fbe 9f8b 31be 5209 9abd 7fb4 e4be
00000310: 4cc9 16bf 81fe b740 3566 ed3c 01ae b3c0
00000320: 0983 393e 7628 c0be b53f a83f 9a97 41c0
00000330: a3a7 49c0 4a1f 5d40 e1bc f43d 4169 b7bf
00000340: 1ca8 53bf 2144 aebd ebd5 ab3f 05cf 3cc0
00000350: 2ae8 913f 5c94 0fbf f219 9a40 3b9c 253f
00000360: f711 37be a812 26be 0d0d 67be b2c7 ac40
00000370: 5033 92be 2aeb 0c3e 6b54 113f 9a7b b3c0
00000380: 5e94 23bf a7c7 b2be 5a95 9d3f 2ea5 d63e
00000390: 4791 eebf 7be4 0f3f f255 5ec0 ba33 54c0
000003a0: 4465 f2bf 5c19 a9bf 26c9 a640 09dc 3240
000003b0: 1e2f 743e fc1b 023e c987 ad3e 02bd 403e
000003c0: 2f6d a1bf 5741 a33e 8f22 09bf 732a 5abe
000003d0: ccbd a940 0b51 84bf ce32 d63f 6080 a0bf
000003e0: 4573 533d 902d 64be c20e 9c40 4ecd 9fbe
000003f0: c7c5 e0be a45a 6b3e bb2d afc0 9eda 943e
-1.0212091 -0.9159853 -0.3232492 1.730618 -2.6894798 2.377134 5.669341 -0.65765935
-2.6141665 0.061572738 3.2512856 -0.36463743 4.2689686 0.8346191 -0.7448528 -0.66395795
1.422938 -1.5400158 -6.0175657 4.058056 -0.018144187 0.23404515 -1.619825 1.0310446
0.6091902 -0.45032796 -0.87624806 -1.4227895 2.463951 1.0854496 -4.511599 -1.2156749
-1.4031534 1.1514732 0.35756946 -3.150785 -0.07965505 0.3600923 3.0740988 -3.7962232
-0.7155338 -0.8655338 -0.5379792 -0.15191288 -2.3615572 3.2134979 4.9849586 2.1144454
1.7770163 -0.66008806 -2.723465 -2.1743126 -2.1666977 -0.7414049 -2.474055 0.6509558
-0.5639984 1.6905903 0.024890488 0.019875418 1.343724 -7.9376235 -0.09216452 0.51413625
1.1269879 -0.7839948 -0.8596972 2.6786094 -1.4919015 -1.3912416 0.030396685 1.5567356
0.059934374 -0.034595367 0.3770699 -0.13786554 -6.0832286 -0.39641026 5.153582 -0.35154885
0.17915401 0.30977902 0.35309547 0.35305414 -0.34029356 3.337549 -1.4379673 4.330052
-0.8270854 -0.87331164 -0.18873288 0.74326724 0.2528341 0.18039347 4.9270625 3.6319623
0.73400015 1.233986 -1.9520859 0.18574698 -1.9741633 0.384637 -3.5561821 -3.9290404
0.85269266 -0.33329707 -2.885223 2.5366452 0.30531603 -1.4214206 -1.1583614 0.43358675
0.29361433 1.7143205 -2.5763366 -4.886301 -0.41918108 -1.5055927 -0.31075576 -0.8175619
0.68885773 -4.0057287 0.5005792 0.97918314 -0.6337102 4.2646065 -1.5087565 3.0593038
0.020941777 -0.16695665 -0.30071023 -0.27859 4.365696 0.5318132 -5.1499047 -0.48633337
1.3493047 -0.044711903 -0.30201596 -1.3093572 0.57627016 0.890429 -5.3944902 -0.5002951
-0.29415455 -0.18545671 -5.278205 0.09621857 -0.37873498 0.18770401 5.7660494 -0.49828386
1.9316558 -0.13668256 -0.023254927 -0.23179717 -5.383182 1.530225 -2.9404175 2.1730044
-0.3631614 1.5885787 -1.7085545 -2.8958848 -3.0353072 -1.5031676 2.9573288 0.2906659
-0.035849478 -1.0839885 -0.015688466 -4.311991 -0.70165527 0.35264152 -0.7722053 6.453253
0.028434373 -1.0864261 0.13323474 0.16701838 0.32290396 -4.187499 -0.9420073 7.0792427
0.25696868 1.9328835 1.3196278 -1.5639035 -0.31577545 -0.27139547 1.5418663 -2.3716583
-0.13974784 -0.17338417 -0.07521309 -0.44668958 -0.58900905 5.7498174 0.0289794 -5.6149907
0.18116392 -0.3753087 1.3144442 -3.024878 -3.1508567 3.4550347 0.11950088 -1.4328996
-0.8267839 -0.08509088 1.3424658 -2.9501355 1.1398976 -0.56085753 4.815667 0.64691514
-0.17877947 -0.16218054 -0.22563572 5.399377 -0.28554773 0.13761583 0.56769437 -5.608838
-0.63898265 -0.34917948 1.2311203 0.41922897 -1.8638085 0.5620801 -3.4739957 -3.3156571
-1.8937154 -1.3210864 5.2120543 2.7946799 0.23846099 0.12705988 0.33892658 0.18822101
-1.2611445 0.31885788 -0.5356836 -0.21305256 5.3044186 -1.0337232 1.6734254 -1.2539177
0.0516236 -0.22283006 4.8768015 -0.31211323 -0.43900892 0.22983795 -5.4743323 0.29073042

feature_net.linear_layer_0.bias f4 [32]
00000000: ea31 1d3f 92c6 dd3f 5ad2 ab3f 4390 f23f
00000010: 843d a4bf 7260 3940 bba8 0bbf fa90 9b3f
00000020: d51c 4440 05fb 1c3f 009c 0dbf fb1f b0bf
00000030: 991c 72bf 16d1 50bf d9bb df3f 8f55 673f
00000040: 08d8 e73e 7052 c7bf 53bf be3e bdb0 f43f
00000050: 9310 d73d 9f20 fc3e 3ef8 103f d791 0bbf
00000060: 9c49 683e 43ed 0140 1bb9 e93f 5d3d 253f
00000070: 3e89 8e3f c064 843f 0db4 223e 1821 e83e
0.6140429 1.7326224 1.3423569 1.8950275 -1.2831273 2.8965116 -0.5455434 1.2153618
3.0642598 0.61320525 -0.5531616 -1.375976 -0.94574887 -0.8156904 1.7479202 0.9036493
0.45282006 -1.5572033 0.37255344 1.9116436 0.10501208 0.49243638 0.5662879 -0.5451941
0.2268433 2.0301063 1.8259615 0.6454676 1.1135633 1.0343246 0.15888996 0.4533775

feature_net.layer_norm_0.weight f4 [32]
00000000: b0f9 5a40 cb38 3c40 5845 4240 dfde a53f
00000010: 1064 0f40 95bc 0b40 9121 c23f 6149 2840
00000020: 8282 a13f 7ca0 9740 d76c fc3f a747 bf40
00000030: bdb4 7840 b497 2540 ba70 1f40 276a ca3f
00000040: 0c0e 5c40 137f 8240 e942 a140 8d8e c53f
00000050: 24d1 0740 85dd 8640 06b3 7740 cacb 2640
00000060: 8e3d 8f40 5a81 d53f dfad ec3f 8d54 9140
00000070: 9975 a93f e454 0540 12cf 1240 5836 5d40
3.4214897 2.9409664 3.0354824 1.295864 2.2404823 2.1833851 1.5166494 2.6294787
1.2617953 4.7383404 1.9720715 5.9774966 3.8860314 2.5873842 2.4912553 1.5813645
3.4383574 4.078012 5.0394177 1.5434128 2.12214 4.214541 3.8703017 2.6061883
4.476264 1.66801 1.8490561 4.541571 1.3239013 2.0833063 2.2938886 3.4564419

feature_net.layer_norm_0.bias f4 [32]
00000000: 7c90 e5bf bf40 423f 287d 9d3f c210 a1bf
00000010: a406 8d3f 0f79 16bd 15b0 97bf de80 743f
00000020: e8e7 e7bf 2056 933f 6598 12be 5d3e 783f
00000030: 46b8 21bf a0d1 a7bf 68e6 d93f 286f a8be
00000040: 4ae0 033e 262a dabe f2d0 db3d 6682 0abe
00000050: f7be 9abf aa92 63be 0da7 c9be 825a fcbe
00000060: d850 173e 9e6d 84bf 0f84 cebe 7c46 383e
00000070: 2331 a4bf e05f 8e3f 659f 5b3f 133f 923e
-1.7934718 0.75880045 1.230382 -1.2583239 1.1017652 -0.036736544 -1.1850611 0.95509136
-1.8117647 1.1510658 -0.14315946 0.9697016 -0.63171804 -1.3110847 1.702344 -0.32897305
0.12878528 -0.42610282 0.107332125 -0.13526306 -1.2089528 -0.22223917 -0.39385262 -0.49287802
0.14776933 -1.0345953 -0.40335128 0.17995638 -1.2827495 1.1123009 0.8579009 0.28563747

feature_net.linear_layer_1.weight f4 [32, 32]
00000000: d839 4640 3572 2240 4513 a0c0 9ee0 b1c0
00000010: b711 8040 94a8 4f3e c004 bf40 8c06 943f
00000020: 3d4f 6b3e d946 4240 7be6 923f 5570 6840
00000030: 487a 703f 881c f73f 1beb 6bc0 e461 8a3e
00000040: 2cf1 453e 7d02 d03f 227e 72bf 402f 1d3f
00000050: dcdf 4b40 5aa5 33bf 57f6 3e40 7020 0240
00000060: 6f3b 0e40 b005 00bf 073a 2f3e 346b 98bf
00000070: 91ff b73f 37f8 1540 7198 d93f cfd8 1ec0
00000080: f45c dfbf 75fe 0940 b1cd e13f bbb7 afbc
00000090: 123e 5dbf 94ff 1440 6709 f1bf bb75 aa3f
000000a0: 51a2 0340 99b5 90c0 2652 b73f e793 3fbf
000000b0: 8b29 1840 b0a2 a13e 9193 903f fb46 923f
000000c0: d6e0 e6bf 9a19 0040 0d16 4940 dc08 78c0
000000d0: daa6 aabf 2ed4 4940 aa4b 09c0 5608 ce3f
000000e0: a8b7 c4c0 46a8 cebf af6e be3f f8a3 0a40
000000f0: 5673 a63e 0780 7a3f 41c7 4740 1258 853f
00000100: fd50 2d40 dea8 8b3f 29b0 3940 2744 d33f
00000110: 0f01 9bbd c850 4540 3ed6 8fbf 8fab e0bf
00000120: edcb d73f 8bc5 2040 323c 283f 099a e23f
00000130: 89fa 0940 0e30 c8bf ce72 82c0 bdfa 4240
00000140: a930 6840 af72 5940 a813 083e 9da1 0140
00000150: d36d bdbf 44ed 96bf 9833 a13f 56ed 58bf
00000160: b6fa 1340 d7e3 21c0 a0d7 de3e 28cb be3f
00000170: e65e 19c0 6091 173e 3f7e 6e3f ca34 a9be
00000180: 7735 d3bd 7af2 643f df2b c63f a2d2 c2be
00000190: 5085 b23f 1ae0 8f3e e295 d8bf 2347 8840
000001a0: d39d 3040 aae0 fabe 36bc f03f 9ad0 45bf
000001b0: 01ad f63e 5822 8c3f e578 123f 0de9 6040
000001c0: 5a7a 71c0 6e1d 3a40 dfa4 da3f 1a74 1040
000001d0: d93a a93e 8ff7 ac3f a29f 8ec0 6a9b 4e3f
000001e0: b60f c2c0 7fb3 0240 9876 c23e 0bd7 1040
000001f0: 4760 823f 2fec 6e3f 8991 743f d08c 2b40
00000200: 898a 4dc0 735f f53f 4ecb 6f40 c758 313f
00000210: 5541 243f 0202 8dc0 527b 1340 ab0f 0c40
00000220: a176 6b40 f313 1fbf 8568 d53f e54e bdbf
00000230: eb90 a2bf b3d5 eb3f 10c1 0b40 3ae6 3fbf
00000240: 0f7d 023e f881 55c0 1371 d2bf f27f 823f
00000250: 9f29 a0bf e454 33be 16ff a63f 5f9c 703f
00000260: e3c6 a13f d8be ed40 cf05 3dc0 a7a6 4a3e
00000270: b53a 8240 a1fa 3f3f f6f8 1140 a5ae 393f
00000280: 5d44 cdbe 3b68 873e 9f37 2540 426f b13f
00000290: 67f8 ae3f 6b17 87bf 63aa 9940 9df5 1c3f
000002a0: f259 0b40 8925 2a3f 251b aabd 632e 9bbf
000002b0: af10 6140 a963 8240 d3f0 0740 6cd9 373e
000002c0: 6371 2e40 ae7e c9bf f275 63bf 4369 3640
000002d0: 1c0a 28bf d08f 2ebf 776f 5240 8c31 3040
000002e0: 96ee 3d40 cbfb 3740 bc1c 3bc0 0458 10c0
000002f0: e1ef 8e40 b425 99c0 58f2 0240 13e3 c0c0
00000300: af04 4b40 d085 2240 acea 20bf 7743 873f
00000310: 2ac8 1b40 ee82 2240 df9f 72c0 7a12 0f3f
00000320: 87d5 f63f cac5 c5c0 28e6 7c40 9c0b af40
00000330: b259 70bf 796f 973f 2b83 593f cda4 a93f
00000340: 89c9 6a3f 3b8a 4140 d578 2240 5d8b b5bf
00000350: dfe0 1abf 7949 2640 24e3 a8bf 6765 c8bf
00000360: 9d71 fcbf 96be 04c0 6e66 2140 9198 5940
00000370: 6b27 b0c0 fa38 c13f 3daf 0d40 f1ec ca3f
00000380: b07a 9540 f53a 55bf 279c 923e 316b 5140
00000390: 276b df3e d110 5240 9494 14c0 edee 3040
000003a0: 47d0 34c0 8333 6540 35e2 2340 b515 ef3f
000003b0: dff4 743f 56ff 62c0 9af8 0f40 434a 06bf
000003c0: e091 833f 2cea eabf b6b7 843f a965 09bf
000003d0: 9eb8 3e40 b668 a93f 5024 8340 e2c5 7abf
000003e0: fb2a c63f e5e3 f63f 5347 0040 f334 853f
000003f0: 7a25 f1be 32c4 20c0 0734 163f 3c8d bebf
3.0972805 2.5382206 -5.002352 -5.558669 4.0021625 0.20279151 5.96933 1.1564498
0.22979446 3.0355742 1.1476587 3.6318562 0.93936586 1.9305582 -3.6862247 0.2702781
0.19330281 1.6250759 -0.94723713 0.6140022 3.1855383 -0.7017418 2.9837854 2.0332298
2.2223775 -0.5000868 0.1711198 -1.1907716 1.4374868 2.3432748 1.6999646 -2.481983
-1.7450242 2.1561558 1.7640897 -0.021449914 -0.86422837 2.3280993 -1.8830994 1.3317178
2.056782 -4.5221677 1.4321945 -0.74835056 2.3775356 0.31569433 1.1295034 1.1427912
-1.8037364 2.0015626 3.1419709 -3.8755407 -1.3332169 3.1535754 -2.1452432 1.6096294
-6.147419 -1.6145103 1.4877528 2.1662579 0.3250987 0.97851604 3.1215365 1.0417502
2.7080681 1.0910909 2.901377 1.6505173 -0.07568561 3.0830555 -1.1237257 -1.7552356
1.6859108 2.512057 0.6571685 1.7703258 2.1559165 -1.5639665 -4.0765142 3.0465539
3.62797 3.3976247 0.13288748 2.025489 -1.4799141 -1.1791158 1.259387 -0.84737146
2.3121772 -2.5295312 0.43523884 1.4905748 -2.3964171 0.1480155 0.93161386 -0.33048087
-0.10312932 0.8943249 1.5482138 -0.38051325 1.3946934 0.28100663 -1.6920741 4.2586837
2.7596328 -0.4899953 1.8807437 -0.77271426 0.48178867 1.0947981 0.5721572 3.5142243
-3.7730927 2.9080462 1.7081565 2.2570863 0.3305271 1.3513049 -4.4569864 0.80705893
-6.064418 2.0422056 0.37981105 2.2631252 1.0185632 0.9332914 0.9553457 2.6804695
-3.2115805 1.9169754 3.7467837 0.6927609 0.6416219 -4.406495 2.3044019 2.1884563
3.6791155 -0.62139815 1.6672522 -1.4789702 -1.2700475 1.8424591 2.1836586 -0.7496067
0.12743019 -3.3360577 -1.6440758 1.0195296 -1.2512702 -0.17512852 1.3046596 0.93988603
1.263882 7.4295464 -2.9534795 0.19790135 4.0696664 0.74991804 2.2808204 0.7253211
-0.4009122 0.2644671 2.5815198 1.3862078 1.3669556 -1.0554022 4.802049 0.61312276
2.1773648 0.66463524 -0.08305959 -1.2123531 3.5166433 4.0746655 2.1240737 0.17954034
2.7256706 -1.5741785 -0.88851845 2.8501747 -0.65640426 -0.6818819 3.2880533 2.753024
2.9676871 2.8747432 -2.9236288 -2.255372 4.466782 -4.7858524 2.0460415 -6.027719
3.1721609 2.5394173 -0.6285808 1.0567464 2.434092 2.5392413 -3.7910078 0.5588757
1.9283913 -6.180394 3.9515476 5.470167 -0.93886864 1.1830894 0.8496577 1.3253418
0.9171377 3.024062 2.538625 -1.4183155 -0.60499376 2.5982344 -1.3194318 -1.5655946
-1.9722172 -2.0741324 2.5218768 3.399937 -5.504812 1.5095513 2.2138207 1.5853559
4.6712265 -0.83293086 0.2863476 3.2721674 0.43636438 3.2822764 -2.3215685 2.7645829
-2.8252122 3.581269 2.5606816 1.86785 0.95686144 -3.5468345 2.2495484 -0.52457064
1.0278893 -1.8352714 1.0368564 -0.53670746 2.9800181 1.323508 4.0981827 -0.97958195
1.5481867 1.9288298 2.0043533 1.0406784 -0.47098905 -2.5119748 0.5867314 -1.4886851

feature_net.linear_layer_1.bias f4 [32]
00000000: df4d 783f da77 e63e 9add 1c40 c322 98bd
00000010: 46d1 0b40 d2bf 5e3f c546 4f3f 7cc9 0140
00000020: fc69 2641 0c7c 2040 a115 a43f 2510 823f
00000030: 72b9 483f 02b2 0c3f c104 65be 7ca0 433f
00000040: 5aea 2840 3dab 2640 4d33 ba3f 304b 2b40
00000050: 48f4 1140 3c78 1040 a5b8 9b3c e062 1241
00000060: 4d1a 313f 2e96 b13e 7162 4c3f 1418 f63f
00000070: 67c9 403f eded 423f 7054 6740 31e2 4f3f
0.9699382 0.45013314 2.4510255 -0.07428505 2.184648 0.87011445 0.8096736 2.0279226
10.400875 2.5075712 1.2819101 1.0161177 0.7840797 0.5495912 -0.22365095 0.76416755
2.6393037 2.6042016 1.4546906 2.676464 2.2805347 2.2573385 0.019008944 9.149139
0.69180757 0.3468489 0.7983771 1.9226098 0.75307316 0.76144296 3.6145287 0.81204516

feature_net.layer_norm_1.weight f4 [32]
00000000: d590 8940 5214 9740 f66c 2e40 e7db 8f40
00000010: 9c5b 1740 61c3 8340 6e96 4440 e8f8 3840
00000020: ff83 963e 453c df3f ea32 2840 034b a040
00000030: 880a 7940 a58c 2740 599b 8a40 0264 5a40
00000040: ac3c 2440 196d 3840 dc65 7840 6a5e d53f
00000050: 3dfb c340 05e1 6740 c486 8d40 1f95 013f
00000060: 1ad0 a040 1916 4e40 6d42 3d40 14e8 6640
00000070: 5b15 a040 e394 8340 8ff3 2f40 b885 8c40
4.2989297 4.7212305 2.7254004 4.4955935 2.3649664 4.1176 3.0716815 2.890192
0.2939758 1.7440268 2.6281075 5.0091567 3.8912678 2.6179593 4.3314633 3.412354
2.566203 2.8816588 3.881217 1.6669438 6.1244187 3.623109 4.422701 0.50618166
5.025403 3.2200987 2.9571793 3.607915 5.002607 4.1119246 2.7492406 4.391323

feature_net.layer_norm_1.bias f4 [32]
00000000: 6344 5d3f 2ca0 61bd d8ad 763f 2f42 eebd
00000010: fde8 0c3e b0a4 cd3e 799e 613e d1d2 46be
00000020: 7b72 bbbf 4a1c 3bbf 8ce1 dcbd 19f6 953e
00000030: 05d4 dbbe c355 4cbf 7186 97bf 445e 1bbc
00000040: 7988 94bf 2041 373f 2a28 a8be 519e c83e
00000050: 3876 cf3e deda 2fbd 5c4f 77bf 38de e6bf
00000060: ead5 45bf 4801 5c3e e19a 9abd fd5f 5c3e
00000070: 6709 7ebf ae28 d13e a2a5 e2be c3a9 b2be
0.86432475 -0.055084392 0.96359015 -0.11633717 0.13760753 0.4016471 0.22033109 -0.19416358
-1.4644312 -0.7309004 -0.10785207 0.2928932 -0.42935196 -0.7981836 -1.1837903 -0.009482924
-1.1604148 0.7158375 -0.32843143 0.39183286 0.4051988 -0.042933337 -0.9660547 -1.8036566
-0.7727953 0.21484864 -0.07549072 0.21520992 -0.99233097 0.4085135 -0.44266993 -0.34895143

feature_net.linear_layer_output.weight f4 [5, 32]
00000000: e1bf 9dbe fe1a 5f40 9f92 01c0 0914 8f3f
00000010: 8e3f 0441 3949 52be aa5e cabf cf1b 853f
00000020: 1e7d 03c0 4711 2f3f f928 2f3f 2c6c 8dc0
00000030: b2fd b93f eef3 2b3e e865 0bc0 e063 0340
00000040: 8156 6f40 47b1 1b40 2097 363e f8ea 63bf
00000050: 5d9d b4be e409 5a3f 96ba 08bf d479 0d3f
00000060: b11a 1740 4916 e63e f711 2740 7564 54c0
00000070: 2cd2 7d3f d4a7 483f 89a6 e8c0 9cf8 26c0
00000080: 998e 8140 9330 4e40 829d b4be e26a 1bc0
00000090: 41d0 8b3f 2c55 85c0 65f3 0a40 ea48 41c0
000000a0: 2d92 35bf 633f 98bf 7c28 0b40 5fb8 a6bf
000000b0: ef47 4e40 1b4e 43c0 406e bdc0 71d9 ecbf
000000c0: 34ff adbf 455a dc3e dcba e1bf 0361 98bf
000000d0: 7d85 10bf 4aad ccbf cbcc 8d3f 6313 fc3e
000000e0: 54b1 9b3f 9d0a 063e 6874 2a3e 4651 c0bf
000000f0: 5e3b 9040 f8da 0c40 5c7e d8be 165b a3c0
00000100: 0147 41c0 6f4c 89c0 5447 24be c687 693f
00000110: 82e4 ef3f 4fd6 5840 9ff7 3cc0 ca1c 3e3f
00000120: fa28 6cbe 433a 04be 222e e9bf 229f 4e3f
00000130: dccf 1fbf 0bfa f13f f1fd 8940 7404 2440
00000140: 2677 ec3e deb1 a0be 1fc3 1f40 8c29 c83f
00000150: 2b57 c43f 50c0 0840 c470 1ec0 08db b93d
00000160: df5d d1bf e2d0 a2be f68f 19bf efd4 fb3f
00000170: 51f6 8ac0 2ace 3ec0 a20b 47bf 3a1f 4d40
00000180: 9e20 3f3f 25fa 0ac0 f69a 0940 da38 76c0
00000190: 1a9e 463f 3b02 50bf 7704 acbe 5e9c 5abf
000001a0: 3745 363e 84db f13f 32f1 f7be 8aac 6640
000001b0: ea2c f63f d752 24c0 1d3f 0940 0c01 35be
000001c0: efb5 d53f 9287 a63e 29b4 24bf 209c 433f
000001d0: 7b63 4240 2e8b 9a3f 7616 6540 e4b8 af3e
000001e0: f679 aabf 26cd fbbf f0e7 45c0 c850 5340
000001f0: cf9b 2dbf 373c febf 3401 79bf 270b 04c0
00000200: bead a5be 67a4 613f 83b7 f3bf df0a 6740
00000210: 42d1 c43e b4e3 6abc 82ef 7b3e 6d91 9cbd
00000220: 1b09 743c 95f7 df3f dd36 423e c4ae 38c0
00000230: cf67 d1bf 965d 123f f435 0540 0d5b bcbe
00000240: 0ac4 26c0 26a3 15c0 5251 4e3f 2247 893e
00000250: 6d0b 9bbf 3e3b 0f3f bed0 52c0 a8ad 783f
00000260: 2db4 b13f 6711 e83f ce88 923f 4a28 09c0
00000270: 874a c0bd f1f7 883f 83ff 35bf aa0f 8740
-0.30810454 3.4860225 -2.024574 1.1177989 8.265516 -0.20535745 -1.5810139 1.0399112
-2.0545115 0.6838574 0.68421894 -4.4194546 1.4530547 0.1679227 -2.1780949 2.052971
3.7396548 2.4326952 0.17831087 -0.8903041 -0.3527631 0.8517134 -0.5340971 0.5526402
2.361004 0.44938877 2.6104715 -3.3186314 0.9914882 0.78381085 -7.270329 -2.608924
4.048657 3.2217147 -0.3527642 -2.4283986 1.0922929 -4.166647 2.1711056 -3.0200753
-0.7092617 -1.1894344 2.174346 -1.3025016 3.2231405 -3.0516422 -5.9197083 -1.8503858
-1.3593507 0.4303762 -1.763515 -1.1904606 -0.56453687 -1.5990384 1.1078123 0.4923354
1.2163491 0.13089986 0.16645968 -1.5024803 4.507247 2.2008648 -0.42283905 -5.104869
-3.0199587 -4.2905803 -0.16042835 0.912228 1.874161 3.3880804 -2.9526136 0.7426268
-0.23062506 -0.1291285 -1.8217204 0.8071157 -0.62426543 1.8904432 4.3122487 2.5627718
0.46184653 -0.31385702 2.4962842 1.5637679 1.5339102 2.1367378 -2.4756327 0.0907498
-1.6356772 -0.3179999 -0.5998529 1.9674357 -4.342568 -2.9813333 -0.77752125 3.205031
0.74659145 -2.1715176 2.150083 -3.84722 0.77584994 -0.81253403 -0.33597156 -0.8539485
0.17799841 1.8895116 -0.48426205 3.604281 1.9232457 -2.5675561 2.1444771 -0.1767618
1.6696147 0.32525307 -0.643374 0.764101 3.0373218 1.2073724 3.579496 0.34320748
-1.331847 -1.9671981 -3.0922813 3.3018055 -0.6781587 -1.9862126 -0.9726746 -2.0631807
-0.32359117 0.88141483 -1.9040378 3.6100385 0.384409 -0.014336515 0.24603084 -0.07644925
0.014894749 1.7497431 0.18966241 -2.8856668 -1.6359805 0.5717405 2.081418 -0.36788216
-2.6057153 -2.3380828 0.80592835 0.26812083 -1.2112862 0.5594977 -3.2939906 0.9713998
1.388311 1.8130311 1.1448 -2.143084 -0.09389215 1.0700666 -0.71093005 4.220662

feature_net.linear_layer_output.bias f4 [5]
00000000: 3983 8b3d f0e0 8bbe 1810 fc3e a7a3 8fbd
00000010: ade6 763f
0.06812138 -0.2732005 0.4923103 -0.07013636 0.96445733

feature_net.linear_layer_0.weight f4 [32, 19]
00000000: 2bc1 1e3f 3f80 afbf 2582 01c1 6e5d 7a3f
00000010: f5b9 a63f 9019 6c3f a289 443f b72f 533e
00000020: bc5a 20be 482a 833e 8f71 1cbf 298b 9b3f
00000030: 0cd2 2b3f d359 313f 7f09 b03f b934 aa3f
00000040: 0efb cb3f d469 27bd 79a1 d2be 0e75 a0bc
00000050: c7e4 7e40 2495 86c0 246a b7c1 bf29 673f
00000060: 84fc c23e 54f6 af3e 6068 4ebe 2290 81be
00000070: de4b 023d 3f19 28bf 8a5e 893e 6e3f ec3d
00000080: 09d6 033f cacf 99bb 04ca af3e bbfd 203f
00000090: f0ee 3fbd 6e5b c73b cc7b b3bf 94d2 1ec0
000000a0: 2865 9840 d5ef 3741 f29c 3dbe f9ff 16bf
000000b0: 6bd5 eabe 6693 6bbe 4fb0 05be 75be 57be
000000c0: c1c3 90be 5da0 163e b67d 24be c82f 65be
000000d0: 1844 31be cc98 30be 3dcc 11bf 5cd0 203d
000000e0: bb1a 9ebe 133a 30c0 bc2d 33c0 6361 1fc1
000000f0: 6785 a2c0 7244 f03d 256c b43e 80d0 673f
00000100: f26c d6bd e0ff 80be a283 373e 3f97 b4be
00000110: 1c9d 493f 9233 b03e c622 4f3f c404 2e3f
00000120: b2c4 1e3f a8d2 2c3f 0bdb f4bc ef46 7cbe
00000130: 551f 1dbf a92c 97c0 ff77 9040 eeec 0c40
00000140: e8a6 313e 1650 98bd 3d7c a6be fd2f 4abe
00000150: cab3 ddbe 000d d6bc 3f08 2abf 97e5 97be
00000160: 37d4 483e 040a a1be d502 99bd 4067 8d3e
00000170: 07ed 9a3d 119a 68bd f45e b53c 901a 88c0
00000180: 768b 95bf aefb 13c1 a00f 0141 db4d 4a3f
00000190: 6d17 593f bb1b 753f a045 d3be c7d8 6dbe
000001a0: 25cb 55be 12c4 09bf ef50 533f 9726 113f
000001b0: 8de3 6f3f 0fd4 133f 2884 043f 8809 873f
000001c0: 07f9 8f3e e4a2 19be 2545 0640 e5c6 23c0
000001d0: c027 f0c0 e26c a940 bc5f 20bf c3f6 10be
000001e0: 577d efbd 9151 13be fcb3 80be bf67 823d
000001f0: adb3 13bf 2d08 99bf 3faf 42bf f280 8bbe
00000200: b5aa d3be 7d1d 2ebe 52bf c7be a042 ccbd
00000210: 9559 203e bd9d 773d 5706 9fc0 59d2 f3bf
00000220: 785a a641 9676 893f 0ad1 a03f dbdb 9f3f
00000230: f361 0cbe 361f b1bc 3121 2dbe 7e83 f6bb
00000240: e217 8f3f 2808 923f b8ff a93f 204a bf3f
00000250: b534 823f 0a5d c23f 3ead 95bd 391c 66be
00000260: 5045 54bf 6646 bd40 52e9 f03f 36cd 9dc1
00000270: 1a95 023f 0f82 393f a43b 273f dac8 56bd
00000280: 96c9 18bd 418d ca3d 1c6d 97be d862 8b3f
00000290: b681 c13e ea4c 883f f073 8a3f 729b 8d3f
000002a0: 04a2 a33f 3540 e3bd 0597 33be 0e35 493e
000002b0: 860c 47bf 3fd2 18c1 2639 a840 a17f 563f
000002c0: a16c 463f 5d2c 2d3f 5435 4b3f a36d 6cbf
000002d0: d98c 863e db0f 25bf a90d 443f 0e33 843f
000002e0: ab1e 6b3f 5b10 0e3f c10f 8f3f 0b75 8b3f
000002f0: 4077 8c3f 4703 6bbf e1f6 2bc0 9d83 823f
00000300: 5dcb 8a40 ab45 c0c0 9099 643e 31be dd3d
00000310: d0da 033f a8ff b5be b1cc e7be 1ad1 adbd
00000320: 875a 13bf 0c29 da3d 38c1 20be 1678 f73e
00000330: 254f bbbc beea 8f3e e5c6 9cbd 040d 2d3d
00000340: 1780 3fbc cef8 3ac0 01aa 943f b3b1 aa40
00000350: 091e 60c0 46b9 cfbc 8429 7fbe 5ac8 c13d
00000360: d599 65bd a308 6abd 447f b2be 857d 45bd
00000370: d879 88be 6dbc b8be 409c afbe e467 b3be
00000380: 9afb 8fbe 85dc bdbe 9283 89bd 24be d4be
00000390: 229a 86bf e745 a23d 55fc 34c1 62ff f440
000003a0: ad90 ea3e 21f6 bb3e 21e9 c43e 0111 adbe
000003b0: 277f 59bd c894 8cbe f4a9 01be 14bf a83e
000003c0: 0bb2 df3e fc72 183f e82e b83e 95b9 fd3e
000003d0: 1f75 8a3e d497 303e 910c c5be eb46 543e
000003e0: e872 b0be 70b8 ccc0 cb4b bec0 0bb8 c53f
000003f0: 108c 9e3f de71 a93f d021 3dbf 56ad 97be
0.620135 -1.3711013 -8.094274 0.9779881 1.30255 0.92226505 0.7677251 0.2062367
-0.15659612 0.25618196 -0.61110777 1.2151843 0.6711738 0.69277686 1.3752898 1.329734
1.5935991 -0.04087241 -0.4113882 -0.019587066 3.9827135 -4.2057056 -22.926826 0.90298074
0.3808328 0.3436762 -0.20157003 -0.25305277 0.031810634 -0.6566352 0.2682994 0.11535536
0.51498467 -0.00469396 0.34333813 0.6288716 -0.046858728 0.0060838973 -1.4022155 -2.4816027
4.762348 11.496053 -0.18516901 -0.58984333 -0.4586595 -0.23005447 -0.13055538 -0.21068747
-0.28274348 0.14709611 -0.1606358 -0.22381508 -0.17311132 -0.17245787 -0.5695227 0.039261207
-0.3087977 -2.7535446 -2.7996664 -9.961276 -5.0787845 0.11731805 0.35238758 0.9055252
-0.104699984 -0.25195217 0.17921308 -0.35271642 0.78755355 0.34414345 0.80912435 0.6797602
0.62018883 0.67508936 -0.029889604 -0.24636434 -0.61375934 -4.7242017 4.514648 2.201961
0.17348826 -0.0743715 -0.3251666 -0.19744869 -0.4330123 -0.026129246 -0.6641883 -0.2966735
0.19612204 -0.31452954 -0.07471243 0.27617836 0.07564741 -0.056787554 0.022140004 -4.2532425
-1.1683185 -9.248945 8.066315 0.7902505 0.8480137 0.9574544 -0.41264057 -0.23227225
-0.20878275 -0.53814805 0.8254537 0.5669951 0.9370659 0.5774545 0.51764154 1.0549784
0.2811968 -0.15003544 2.0979702 -2.5590146 -7.5048523 5.2945414 -0.6264608 -0.14156632
-0.116938286 -0.14386584 -0.25137317 0.06367444 -0.5769604 -1.195562 -0.76048654 -0.27246815
-0.41341177 -0.17003436 -0.39013153 -0.09973645 0.15659173 0.060453165 -4.969524 -1.9048568
20.794174 1.0739315 1.2563794 1.248897 -0.1370924 -0.021621328 -0.16907193 -0.0075229993
1.1179163 1.1408739 1.3281164 1.4944496 1.0172335 1.5184643 -0.07308434 -0.22471704
-0.8291826 5.9148436 1.8821204 -19.7252 0.5100876 0.7246408 0.6532538 -0.05243764
-0.037301622 0.09890223 -0.2957543 1.088954 0.37794274 1.0648472 1.0816631 1.1063063
1.2783818 -0.11096231 -0.17538078 0.19649145 -0.77753484 -9.55133 5.256976 0.83788496
0.77509505 0.6764582 0.7937825 -0.9235479 0.26279333 -0.6447732 0.76583344 1.0328081
0.9184367 0.55493706 1.1176683 1.0895094 1.0973892 -0.91801876 -2.6869433 1.0196415
4.3373246 -6.0085044 0.22324204 0.10827292 0.51505756 -0.35546613 -0.45273355 -0.084871486
-0.5756001 0.1065236 -0.15698707 0.48333806 -0.022864887 0.28108782 -0.076551236 0.04224874
-0.011688254 -2.9214358 1.1614381 5.334192 -3.5018332 -0.0253569 -0.2491818 0.09462042
-0.05605491 -0.057137143 -0.3486272 -0.048215408 -0.2665546 -0.36081257 -0.34298897 -0.350402
-0.28121644 -0.37082306 -0.06714548 -0.41551316 -1.0515788 0.07923489 -11.3116045 7.6561747
0.45813504 0.3671122 0.38459113 -0.33802035 -0.053099778 -0.2745726 -0.12662488 0.3295828
0.43690524 0.5955045 0.35973287 0.4955565 0.2704248 0.17245418 -0.3848615 0.20730178
-0.34462667 -6.3975143 -5.946752 1.544679 1.2386494 1.3237875 -0.7387972 -0.29624432

feature_net.linear_layer_0.bias f4 [32]
00000000: 7124 973f 0954 f73e 559f 70be 25ff f33e
00000010: 371a 98be 55ae 2f3f 5c12 04bf 0c72 a43f
00000020: 9cfc 623f 0f25 7c3f f97f 8b3e 3bb6 0fbe
00000030: b358 ca3e bb57 a63f db0d b03f b21b 9c3f
00000040: 7a13 473d 4a16 8f3f f3f9 0dbf 0b07 8f3e
00000050: 0052 a83f bb81 4ebe c4e5 033f 951b a93f
00000060: 790e 993f 0c28 3e3f 4ab9 9d3f c473 8c3f
00000070: daef 0a3f 1a80 853f 8be1 9f3f 2ada 9a3f
1.1807996 0.483063 -0.2349828 0.47655597 -0.297075 0.68625385 -0.51590514 1.2847304
0.886667 0.98494047 0.27246073 -0.14034359 0.39520797 1.2995523 1.3754228 1.2195952
0.04860256 1.1178677 -0.5545952 0.2793506 1.3150024 -0.20166676 0.5152247 1.3211542
1.1957542 0.74279857 1.2322171 1.0972829 0.54272234 1.0429718 1.2490705 1.2097828

feature_net.layer_norm_0.weight f4 [32]
00000000: 071f b93f 65a1 4a40 d625 3040 d0d1 d13f
00000010: e370 1740 d4bb 0e40 9f1b d240 6f32 1140
00000020: 7968 6540 1965 8f3e d3e2 a940 a511 9040
00000030: b517 1240 dbdd bf3e 4ff9 ed3d d170 8640
00000040: a7b7 c240 d46a 2340 dcdd 1341 62e3 2e40
00000050: eea8 953e ce24 7b40 d813 1a40 685a a93e
00000060: 1888 9c3e 4d86 7240 d09d a53e 5854 993e
00000070: b6a2 4340 7f38 6740 fdd9 293f 357e 703f
1.4462594 3.1661007 2.7523093 1.6392155 2.366265 2.230214 6.5658717 2.2687032
3.5845015 0.2800682 5.3089385 4.502154 2.282697 0.3747395 0.116198175 4.2012715
6.0849185 2.5533953 9.241665 2.7326283 0.29230446 3.9241214 2.4074612 0.33076787
0.3057258 3.789447 0.32346964 0.29947162 3.056806 3.6128232 0.6634825 0.93942577

feature_net.layer_norm_0.bias f4 [32]
00000000: dc23 e6bf a4ee a63f 2c8b 3c40 c65d 20bf
00000010: 3736 193e 8cdd 47bf 4e99 7c40 95c2 853f
00000020: 87a0 0240 9dd4 66bf 63cc 943f cf1b 1440
00000030: 508c b3bf 8f9c 7cbf c3cd 02bf f1b6 1140
00000040: 785e 5f3f 104e dfbe ca35 3940 dda8 b33d
00000050: a1c1 5bbf da2b 0c40 4363 a3bf b2cf 62bf
00000060: 224c 35bf 8876 2240 6f82 5abf 54cc 2bbf
00000070: 7ea9 41bf fc6a 0fbf a697 bdbf 3a58 d7bf
-1.7979693 1.3041577 2.9459944 -0.62643087 0.14962088 -0.7807243 3.946857 1.0450007
2.0410478 -0.9016817 1.1624874 2.3141973 -1.4027195 -0.9867639 -0.5109522 2.2767909
0.8725352 -0.43614244 2.893908 0.087724425 -0.8584233 2.1901765 -1.2764667 -0.8859817
-0.70819294 2.5384846 -0.85355276 -0.67108655 -0.7564925 -0.5602262 -1.4811904 -1.68238

feature_net.linear_layer_1.weight f4 [32, 32]
00000000: 222b ee3f e955 8f40 5d07 5cc0 8b0d 1e40
00000010: d92e 713f c08b 3f40 ee3f 84c0 ca6c 94c0
00000020: 9c5a 9240 54e2 9bbf d524 4040 afa9 ca40
00000030: 9e40 6140 ae77 be3f 89b1 7dbe d2ee 9f3f
00000040: fcb8 89be c4a9 5a40 cd7f 7340 5eee 4340
00000050: 9238 e5be 8f68 863f 05a2 8840 0f5a 0e3f
00000060: 2823 0c3f 2adc 9b3f 0e7b 81bd 20ff bebe
00000070: b87c 1740 6e81 74c0 e372 1cbe 1e11 fe3d
00000080: 76e2 b0c0 bac6 91bf ac44 3041 f75c f63f
00000090: 9cbc 8240 0d1b ad3f 6b39 eebf b5ee 9540
000000a0: bcc2 03c0 7973 a8be c2a7 f33f 1277 8b3e
000000b0: 312d 4fbf c4ca 993f 3b79 ff3e 85fc 1640
000000c0: 757d 84bf 707a 2940 7461 0fbf d052 7440
000000d0: 26fd 6fbf fd06 383f 06c1 4940 86b4 993f
000000e0: 7cf4 e4be b852 0740 e608 cc3f 8e4f 983d
000000f0: 798e 0940 daaa 9540 a9ce 5d3f 716d 24bf
00000100: dea6 58bf b673 5940 1817 193f 9863 1140
00000110: 34bd 0040 3045 d33f 9da2 633f 7e25 fe3f
00000120: 88d5 3b40 8ad6 cd3f 38e7 a13f acca efbf
00000130: 5ca0 1f40 c19f d63e 9080 cb3c c71c 9a40
00000140: 76db 8840 0083 1b40 75dd dd40 6be8 a53f
00000150: 3e38 4abe 5f6f eb3f 3a41 0d40 0b83 093f
00000160: df17 ae3e 7da3 67c0 43e5 873e ce80 e63a
00000170: f65a e03f 40b4 89bf 893c 8e3f ec5e 3140
00000180: 14d4 0540 3d76 8740 27e8 793f 6dec 8740
00000190: a1f9 813d 5c4b c740 01ef a1c0 3d68 eabf
000001a0: 47b7 7640 6182 7440 5a8e 2d40 f543 433f
000001b0: ee00 f340 f516 cb3f d7f6 7bbf c7ef 693f
000001c0: bd44 93c0 c0d9 1840 1cb9 5b3f 14f0 2d40
000001d0: b5d9 33c0 df25 1ac0 1c03 9340 6dfc 4c3d
000001e0: 8368 363f fab7 9a3f dedb 3b3f 593a 1e3f
000001f0: 3f08 7140 7cf5 13c0 6315 5c3f 6675 8240
00000200: 0087 96bf b717 a7bf f719 8940 fa94 3740
00000210: b684 c540 148a 4240 1f51 2e40 1a93 8e40
00000220: 1906 af3e 4adf 5dbf 85a7 9b40 8e2d 0040
00000230: 1083 b1be 5267 b3bf affa 5d3f b04a f63f
00000240: 4505 00c0 0ed4 873f 4026 973f bb5c 9a3f
00000250: 3451 be3e c404 923f b6d3 293f bd4f 2c3f
00000260: 0e2a d5bc 4012 89be 7ec2 93be 0b73 f33e
00000270: d078 2340 37c7 8040 5498 e9be e790 16bf
00000280: c33b 4740 4104 3140 27f1 2e40 396b 1d40
00000290: bae4 773e 82c5 ca3f d3ab a240 16de 88bf
000002a0: 7b0f 333f 3a43 5040 15fa f1bf c70e 4bc0
000002b0: 72d8 ef3f 63d1 813f d3c5 83be 49ee 7e40
000002c0: 3b12 1940 51fe 1840 d9de c7bf 3053 2e3f
000002d0: c7de f4bf 0fdb 3d40 304f 1640 9914 e4bf
000002e0: 1123 c5bd 19b3 afbf de86 26c0 ce9f a9be
000002f0: bbbd 6540 3f53 2fc0 f891 99bf e24b 2b3f
00000300: 6e80 b73f 6864 2741 e69d 0941 3aad 4b41
00000310: 0127 9f40 1ed9 2641 e42d 8340 8844 2241
00000320: b5b2 2641 0790 8740 13d4 ee40 55cc 8c3f
00000330: a58c 0541 e8d6 4040 2a53 0cbf 29ca 3541
00000340: acdf f8be 3fab f540 6d9f dabf a282 e340
00000350: 2355 5540 0ec7 b640 5e83 3141 1596 9a3f
00000360: 0bdc 423f 9a15 b840 37a4 3a40 5c94 9ebf
00000370: 0dc2 1541 cc35 e740 64c6 233f c496 863f
00000380: ef98 6e40 f8b3 0441 9179 6540 7636 f740
00000390: a60c 6c40 e3d1 0441 19e7 9440 52a8 fc40
000003a0: 166a 0741 0193 5b40 70cd a940 d453 83bf
000003b0: cfed eb40 b4ac 2f40 a6e0 25bf 355d ec40
000003c0: e0e4 d2bf 62a3 e140 6404 0e3f b5ef 9340
000003d0: 7807 5d40 9361 8240 6d92 0641 595c 8cbc
000003e0: 47b3 8f3f 08a3 9740 143e 4cbe bd5f 9fbe
000003f0: 3c0c f940 d089 a440 c6ef 3bbf de0b 9cbe
1.8606913 4.479237 -3.4379494 2.4695766 0.9421211 2.9929047 -4.132804 -4.63828
4.5735607 -1.2178445 3.002248 6.3332133 3.519569 1.4880273 -0.24774756 1.2494757
-0.26898944 3.4166117 3.8046753 3.0614238 -0.44769722 1.0500659 4.269778 0.5560617
0.54741144 1.2176564 -0.06322299 -0.3730402 2.3669872 -3.8203998 -0.15278201 0.124056086
-5.527644 -1.1388772 11.016766 1.9247121 4.0855236 1.352388 -1.8611273 4.685389
-2.0587606 -0.329006 1.9035571 0.2723928 -0.8092833 1.2015004 0.4989718 2.3591626
-1.0350786 2.648098 -0.56008077 3.8175545 -0.9374565 0.71885663 3.1524062 1.2008216
-0.44717777 2.1144238 1.5940216 0.07437049 2.1493208 4.677106 0.86643463 -0.64229494
-0.8462962 3.3976874 0.59800863 2.2717037 2.011548 1.6505489 0.88920003 1.9855192
2.934908 1.6081097 1.2648687 -1.8733726 2.4941626 0.41918758 0.024841577 4.816013
4.2767897 2.4298706 6.9332833 1.2961553 -0.19748017 1.8393363 2.207106 0.5371558
0.34002587 -3.6193535 0.265421 0.0017585994 1.7527759 -1.0758133 1.1112224 2.7714186
2.0910692 4.2331834 0.9761986 4.2476106 0.06346441 6.227949 -5.0604253 -1.8313061
3.8549364 3.8204577 2.7118134 0.7627557 7.5938635 1.5866381 -0.9842352 0.91381496
-4.602141 2.3882904 0.8582933 2.7177782 -2.8101628 -2.4085615 4.5941296 0.05004542
0.7125322 1.2087395 0.73382366 0.6180778 3.7661283 -2.3118582 0.85970134 4.076831
-1.1759949 -1.3054112 4.2844195 2.8684678 6.17245 3.0396776 2.7237012 4.4554567
0.3418434 -0.8666884 4.864199 2.0027804 -0.34670305 -1.4015906 0.8671064 1.9241543
-2.0003216 1.0611589 1.1808548 1.2059549 0.37171328 1.1407704 0.6633867 0.6730917
-0.02602103 -0.26771736 -0.28859323 0.47548708 2.5542488 4.024318 -0.4562403 -0.58814853
3.1130226 2.7658846 2.7334688 2.4596694 0.24208346 1.5841525 5.0834746 -1.0692775
0.69945496 3.2541032 -1.8904444 -3.172777 1.8737929 1.0142025 -0.25736865 3.9832938
2.3917377 2.3905222 -1.5614883 0.68095684 -1.9130486 2.9664953 2.3485832 -1.7818786
-0.09625829 -1.3726531 -2.6019816 -0.33129734 3.5897052 -2.739456 -1.1997671 0.66912663
1.4336069 10.462013 8.601049 12.729792 4.973511 10.428007 4.099352 10.141731
10.41863 4.2363315 7.463388 1.0999857 8.346837 3.0131168 -0.548144 11.3618555
-0.48608148 7.677154 -1.7079903 7.1096964 3.3333213 5.7117987 11.094572 1.2077051
0.7611701 5.752637 2.9162729 -1.2389026 9.359876 7.225317 0.63974595 1.051476
3.7280843 8.293938 3.5855448 7.725398 3.688272 8.301242 4.65321 7.895547
8.4634 3.4308474 5.306328 -1.0259957 7.3727794 2.744916 -0.6479591 7.386378
-1.6476097 7.051194 0.5547545 4.623011 3.4535809 4.074411 8.4107485 -0.017133879
1.1226586 4.7386513 -0.19945556 -0.3112773 7.7827435 5.141823 -0.7341274 -0.30477804

feature_net.linear_layer_1.bias f4 [32]
00000000: 9dde d43f f67b 0e40 94f1 923f cc14 4040
00000010: e033 c53f 403d de3f 513b 6441 aa0e 3f41
00000020: 2e0c 0540 db92 3040 3996 0b40 85b4 5640
00000030: 4e0c 2340 668e ed3f 65d9 d140 ca88 2340
00000040: cd03 4440 403f 7840 32af 7540 5485 0840
00000050: e7a4 cc40 307a 8f40 b90d 2f41 005a 933f
00000060: 07ef 2d41 6024 8c41 47b2 b73f 427c 1d40
00000070: 5e81 2540 c58e 2d40 5846 6540 efa6 e8bd
1.6630436 2.226316 1.1479974 3.0012693 1.5406456 1.7362442 14.264482 11.94108
2.0788684 2.7589633 2.1810439 3.354768 2.547626 1.8559082 6.5577874 2.555224
3.062732 3.8788605 3.838818 2.1331377 6.3951297 4.4836655 10.94085 1.1511841
10.870856 17.517761 1.4351281 2.460709 2.586021 2.711839 3.5824184 -0.11359965

feature_net.layer_norm_1.weight f4 [32]
00000000: 08fa 5640 2eb5 6140 3c4a 5140 6700 3340
00000010: bb7e c140 07f1 5640 6270 ff3e cb92 5f3f
00000020: 143a 6440 4c6e e03f aca8 fb3f 9b54 b040
00000030: 3fcb 6e40 42dc 8440 23ad 4440 f34e 3f40
00000040: eed2 1040 acf7 5340 3a73 9440 a306 4940
00000050: 559b 623f f390 0640 c35e 5b3f ef66 3440
00000060: f2bb fb3e ccd3 123e 9dd5 7940 7234 3940
00000070: 7405 0440 5430 8a40 f147 c440 1ed3 3840
3.3590107 3.5266833 3.270156 2.7968996 6.04672 3.3584611 0.4989043 0.87333363
3.5660448 1.753366 1.966085 5.510328 3.7311552 4.151887 3.0730674 2.9891937
2.2628741 3.3119917 4.6390657 3.14103 0.8851827 2.102597 0.8569147 2.8187826
0.49166828 0.14338607 3.903663 2.893826 2.0628328 4.3183994 6.133782 2.8878856

feature_net.layer_norm_1.bias f4 [32]
00000000: 54ef 7b3f 6bac 9e3f b679 003f 67cd 6b3f
00000010: 9c25 0b3f a505 453f b9bd c7bf 8fcb cabf
00000020: 82c8 de3f 3bd1 803f 1c57 a83f fae1 4abe
00000030: 841f 913f a578 3d3f d8c4 d1bf 3c74 243f
00000040: 0b26 a03f bce9 3dbf d631 ae3e 2c91 c73f
00000050: 2ad6 36bf 2946 223f e257 cebf 5a74 9a3f
00000060: d92a 7abf a4cc 5dbf 0741 823f 787f 243f
00000070: 177e d83f cdf8 c23f c76d 783e 877d 003f
0.9841206 1.2396368 0.50185716 0.92110294 0.5435426 0.7696174 -1.5604774 -1.5843371
1.740494 1.0063852 1.3151584 -0.19812766 1.1337743 0.74012214 -1.6388197 0.6423986
1.251161 -0.74184775 0.34022397 1.5591178 -0.7142054 0.63388306 -1.612057 1.2066758
-0.9772163 -0.8664038 1.0176095 0.64257 1.691348 1.5232178 0.24260627 0.5019154

feature_net.linear_layer_output.weight f4 [5, 32]
00000000: 0106 2d40 d853 f7bd 4901 4140 3265 0c41
00000010: fd10 3ac0 0968 a53f 6391 63bf 809c 003e
00000020: c5ca aa40 2547 c9c0 3cc5 e63e adb8 0e40
00000030: 1f23 773e cf4a 48c0 89c6 843f c343 3d3f
00000040: fcfd 3ebf 3726 3140 d890 2f41 71cd 6f3f
00000050: 8d3b 9b40 110c 02c0 62ca 00bc f523 6fc0
00000060: a646 1d40 7a8f 383d 5157 5a40 2caf cd40
00000070: 78ad e0be ce5b e340 aa6e 25be 17a8 aa3e
00000080: ae21 853e 4898 1d3e 8dc1 61c1 7697 6abe
00000090: 92a2 b33e 24ef 89c1 6a98 babf 0356 8d3f
000000a0: ab96 dc3f 25aa 703f cd13 b13f 86db 81bf
000000b0: 321d 2f41 6ab6 9840 fd70 0fc0 d7be f8bf
000000c0: 4a82 6c3e 5524 0dc0 767d 72be 889f a3bf
000000d0: 741e d5be e012 a63f a7c2 09c0 d044 c2bf
000000e0: 0976 f8bb 0e74 57be a562 1840 522a aa3f
000000f0: 9dd8 79bf 03e1 c9bf e416 173f 71eb e940
00000100: 7299 1ec0 d4cb ebbe c514 c341 1345 3cbf
00000110: 5dee dcbd 74b6 8241 dbb2 dbbd 22c6 84bf
00000120: 758b 49bf 3b1a 21bf 2651 24bf 1678 253f
00000130: 2884 2bc1 5760 10c0 81b9 1cc0 d078 7fc0
00000140: 8f84 ef3f de22 44c0 c59d 2abe 446f ca3f
00000150: a97c 57be c452 623f 6e66 f13f e7e5 4440
00000160: e2c9 a73e 8924 adbd 1a90 3ec0 3a7c 673f
00000170: e48b 1c3f f44c a0be 9b8c 5e40 604a 53c1
00000180: a365 69c1 7c9d fa3f af64 73bf 6920 a6bf
00000190: e2f5 1241 81ba a43f f8b5 323f d3f9 66bf
000001a0: 4daa a93e 0c85 553f 31cc 02bf 945a aac0
000001b0: d68a 1fc0 8749 2f3f 9930 d2c0 3752 afbe
000001c0: 34a9 f53f a0fc d33f e580 223f 9fe9 b6bf
000001d0: b27f 82bf aead 1dbc 1f07 47bf 4292 9a3e
000001e0: 0408 17bd ea6f 013d 2abf 8f40 7dde a33f
000001f0: 841d b8bf e534 c33f 5b63 3dbf 928a 70c0
00000200: b555 a141 1538 1ec0 0a9f 59bf 8da8 5540
00000210: 6a11 04c1 c151 0fc0 82a2 913e 9b0b 4cbe
00000220: 5595 313f 66a9 d1bd 91f3 3a3f cb38 52c0
00000230: 989a 51bf 09a2 483f 86cd 1040 dced 7dbf
00000240: 6deb 0b3f 9a82 923e 9cf5 a33b d729 1f40
00000250: 6fd6 46bf f7bf a93f a20d 0340 6ffa 6bbf
00000260: 4d00 363e 200e 76bc 6248 bebf 130f abbe
00000270: b6ef 2740 649c a0bf 0d68 6a40 8a12 ac40
2.7034914 -0.12076539 3.0157034 8.774706 -2.907287 1.2922374 -0.8889372 0.125597
5.337252 -6.2899346 0.45072353 2.2300217 0.24134491 -3.129566 1.0373088 0.7393152
-0.746063 2.7679574 10.972862 0.93672854 4.8510194 -2.0319865 -0.007860752 -3.7365696
2.457437 0.045058705 3.4115794 6.4276333 -0.43882346 7.1049566 -0.16155496 0.33331367
0.26002258 0.15390122 -14.109754 -0.2290934 0.3508497 -17.241768 -1.4577763 1.1041874
1.723348 0.9400962 1.3834168 -1.0145118 10.944628 4.7722673 -2.2412713 -1.943324
0.23096576 -2.2053425 -0.23680672 -1.278306 -0.41624796 1.297451 -2.1525056 -1.517725
-0.0075824303 -0.21040365 2.3810208 1.3294165 -0.9759615 -1.5771793 0.59019303 7.3099904
-2.4781156 -0.46053946 24.385141 -0.735429 -0.10787652 16.339088 -0.10727473 -1.0372965
-0.7872842 -0.6293065 -0.6418632 0.6463636 -10.719765 -2.25588 -2.4488223 -3.9917488
1.8712329 -3.0646281 -0.16661747 1.5815206 -0.21043648 0.8840754 1.8859384 3.0765321
0.32771212 -0.08454234 -2.9775453 0.9042393 0.61150956 -0.3130871 3.4773319 -13.205658
-14.587314 1.957931 -0.95075506 -1.2978641 9.18503 1.2869416 0.6980891 -0.9022495
0.33137742 0.8340614 -0.5109282 -5.323557 -2.4928489 0.6847157 -6.5684323 -0.34242412
1.9192262 1.656147 0.6347793 -1.4290045 -1.019522 -0.009623928 -0.7774524 0.3018971
-0.03687288 0.03160087 4.4920855 1.2802273 -1.4384007 1.5250517 -0.7397973 -3.7584577
20.16685 -2.472173 -0.850083 3.3384125 -8.2542515 -2.2393649 0.28444296 -0.19926302
0.6936849 -0.10237388 0.730279 -3.2847164 -0.81876516 0.78372246 2.2625442 -0.9919107
0.54656106 0.28615266 0.005003644 2.4869287 -0.7767095 1.3261708 2.047707 -0.92179006
0.17773552 -0.015018016 -1.486584 -0.33409938 2.6240058 -1.2547727 3.6626008 5.377263

feature_net.linear_layer_output.bias f4 [5]
00000000: d179 b9be 8485 ce3f d829 d83d ea00 4a3f
00000010: 804a 0740
-0.3622575 1.6134496 0.10554856 0.78907645 2.113922

feature_net.linear_layer_0.weight f4 [32, 8]
00000000: 434a 8abf 55f8 71bf 81d9 c6be 9be8 d83f
00000010: 7348 24c0 e114 1540 471b b640 e5a5 3cbf
00000020: eac5 26c0 4771 1ebd 214d 4940 f767 c6be
00000030: cf27 8a40 944e 403f ca81 47bf f84b 30bf
00000040: 5887 b53f bc9b c1bf f0ea c0c0 427f 8140
00000050: 3ce0 32bd d9a8 823e 2b58 cbbf c13c 873f
00000060: e7b1 2c3f 64f7 e4be a821 5fbf c56d a9bf
00000070: 54ca 1f40 15b3 8f3f d485 91c0 df8b 9cbf
00000080: b8d7 b0bf 5eee 8e3f bd89 d93e 1e6c 47c0
00000090: 37be f4bd 4bb1 773e 8191 4540 39b0 77c0
000000a0: d763 42bf 1ad5 53bf 9519 01bf 1cb2 92bd
000000b0: cca2 14c0 d4af 4940 7264 9e40 2160 0a40
000000c0: 25ad d43f cac3 22bf 24c0 30c0 cf57 07c0
000000d0: c68d 11c0 75a2 4abf bc33 22c0 dbbe 213f
000000e0: df32 18bf 8920 d83f c333 643d db89 3b3c
000000f0: 0161 b23f 220c fec0 a1f6 21bc 1b41 063f
00000100: 4054 8c3f 76cd 66bf 72f8 5dbf 39e7 2f40
00000110: 4dc0 c5bf 5dc7 bcbf 0162 793d 4643 d63f
00000120: 0096 0f3c a751 2e3c 0e70 c83e 58d8 f4bd
00000130: 680d c0c0 438e e5be abb9 a640 bcc0 77be
00000140: cb85 e63d a3e8 843e 471c 963e 8e57 853e
00000150: cec6 a4be 4a6e 5540 2b18 b0bf b0f0 8840
00000160: 7db6 60bf 3fe4 46bf ee77 70be da77 473f
00000170: 67a2 703e f174 4f3e f051 9a40 f843 6840
00000180: 2f9c 5a3f b6f5 a13f cbe7 fcbf a132 683e
00000190: 93b8 fcbf f619 d83e bc06 64c0 9e8e 7dc0
000001a0: 7292 563f a252 bfbe ee7a 39c0 a91d 2340
000001b0: 214a a93e a999 b9bf 84b5 9dbf 7e71 da3e
000001c0: decf c13e 7b96 e33f 314f 23c0 1aec 9bc0
000001d0: c659 d8be 1c87 bfbf 8eee 8bbe 1b6a 58bf
000001e0: 8633 3d3f 5d14 7ec0 1c64 013f 3e29 8a3f
000001f0: 1537 10bf cc37 8540 2a7a b8bf 2e2a 4740
00000200: 6a16 4d3c 846d 08be 4a98 a4be 7809 77be
00000210: 6515 8b40 0010 0d3f aedd a3c0 e532 f3be
00000220: 8635 b13f 081f a0bd 3626 b6be 2631 aebf
00000230: 8915 0d3f 2f7e 503f 3581 acc0 6a65 01bf
00000240: 33b0 a7be 9941 4dbe 4812 a9c0 9316 8d3d
00000250: a397 c4be 506b 7b3e 4ecf b540 6a67 1ebf
00000260: 2d60 f83f ae01 e3bd 0587 bbbd e9d2 2cbe
00000270: a4a8 aac0 cbda be3f 2562 3fc0 7af7 0c40
00000280: 6929 e5be 50d7 c13f f67e e8bf b21e 3fc0
00000290: 28ef 43c0 6cfb cabf 31af 3d40 3450 863e
000002a0: f1cf 6c3d 0343 8abf 1c33 403d 93de 8ac0
000002b0: 549f 31bf 83fe e63e 21de 47bf 9348 cd40
000002c0: 9ec8 93bc 1893 8ebf 5941 fa3d 315c f23d
000002d0: 6c43 b63e 000a 86c0 c7df 61bf b6b8 e040
000002e0: c56d b03e 234e ec3f 3b84 b43f c912 cebf
000002f0: d8c9 54be a030 b2be 0f3c cf3f a6ff 16c0
00000300: 2e4b 54be d08f 31be eecb f4bd 8c49 d8be
00000310: 7ba4 14bf c9eb b840 ed17 8cbd 5ad6 b1c0
00000320: 135a 723e 9566 d4be b57a a53f d876 43c0
00000330: 2c88 4cc0 1632 5740 6749 3f3e 048a bfbf
00000340: 72b6 54bf 83b6 25bd 3b34 a93f e9fd 3fc0
00000350: cba9 8e3f 623c 22bf 0841 9740 de9b 1c3f
00000360: c916 62be 1fe5 11be 7afb 37be 2f06 ad40
00000370: 1d7f cbbe 2f25 8a3e 1846 0d3f aa84 b2c0
00000380: d015 1dbf ce1a a8be 02a3 973f 7c15 bb3e
00000390: 8194 f0bf 5f38 073f 1438 61c0 980a 54c0
000003a0: 90cb fbbf 4951 a8bf a092 a440 8960 3640
000003b0: f1fa 8b3e dc1e be3d 82d6 843e 8f94 9f3e
000003c0: 37ea 9dbf 5c7c 493e 131a e6be 2215 88be
000003d0: 356a a940 f519 91bf 6f70 de3f 8758 9fbf
000003e0: 9a0b a73d 63f5 6cbe af13 9d40 6899 a6be
000003f0: e710 f1be ab48 693e 4fe0 acc0 c8d9 ac3e
-1.0803913 -0.9451955 -0.38837817 1.6945986 -2.566922 2.3293993 5.6908298 -0.73690635
-2.6058297 -0.03868225 3.1453326 -0.38751194 4.3173594 0.751199 -0.7793242 -0.6886592
1.4181929 -1.5125651 -6.028679 4.0467844 -0.043670878 0.25519446 -1.5886282 1.0565416
0.6745896 -0.44719994 -0.8716073 -1.3236624 2.4967241 1.1226526 -4.5475864 -1.2230185
-1.3815832 1.1166494 0.42487898 -3.115974 -0.11950343 0.24188726 3.0870059 -3.8701308
-0.75933594 -0.8274704 -0.5042966 -0.07162878 -2.3224363 3.1513567 4.9497614 2.1621172
1.661534 -0.6358 -2.7617273 -2.1147344 -2.2742782 -0.7915414 -2.5344076 0.6318185
-0.59452623 1.6884929 0.055713426 0.0114464415 1.3935853 -7.938981 -0.009885461 0.52443093
1.0963211 -0.9015726 -0.8670722 2.7484877 -1.544931 -1.4748341 0.06088448 1.673928
0.00876379 0.010639585 0.3914799 -0.11955327 -6.0016365 -0.448351 5.2101645 -0.24194616
0.11255988 0.25958738 0.2931845 0.2604336 -0.32182926 3.3348565 -1.3757375 4.279381
-0.87778455 -0.77692026 -0.2348325 0.77917254 0.23499452 0.20259453 4.822502 3.6291485
0.8539457 1.265311 -1.9758238 0.22675563 -1.9743828 0.42207307 -3.562911 -3.9618297
0.8381721 -0.3736773 -2.898128 2.5486853 0.33064368 -1.4500018 -1.2321019 0.42664713
0.37853903 1.7780298 -2.5517085 -4.872571 -0.42255992 -1.4963107 -0.2733044 -0.84536904
0.73906744 -3.9699929 0.5054338 1.0793836 -0.5633405 4.163061 -1.4412282 3.1119494
0.012517551 -0.13323027 -0.32147437 -0.24124706 4.3463616 0.5510254 -5.1208105 -0.47499767
1.3844459 -0.07818419 -0.35576028 -1.3608749 0.55110985 0.8144254 -5.3907723 -0.5054537
-0.32751617 -0.20044555 -5.2834816 0.06889071 -0.3839694 0.24552655 5.6815557 -0.6187655
1.940435 -0.11084305 -0.09156612 -0.16877331 -5.333086 1.491052 -2.9903653 2.2026048
-0.44758156 1.5143833 -1.8163745 -2.9862485 -3.061472 -1.5857978 2.9638178 0.26233065
0.057815496 -1.08017 0.04692374 -4.3396697 -0.6938374 0.45116052 -0.78073317 6.415109
-0.018039998 -1.113864 0.12219495 0.1183399 0.35598314 -4.1887207 -0.8823208 7.0225477
0.34458748 1.8461345 1.4102854 -1.6099483 -0.20780122 -0.34802723 1.6190203 -2.3593535
-0.20731804 -0.17340016 -0.11952959 -0.42243612 -0.5806348 5.7787824 -0.06840501 -5.557416
0.23667173 -0.41484514 1.2928072 -3.0541286 -3.1958113 3.362432 0.18680345 -1.4963994
-0.8309089 -0.04045726 1.3219064 -2.9998724 1.1145567 -0.63373387 4.7266884 0.61175334
-0.22079004 -0.14247559 -0.17967024 5.407005 -0.39745417 0.26981494 0.5518508 -5.5786943
-0.6136141 -0.3283295 1.1846621 0.3653983 -1.879532 0.5282039 -3.5190477 -3.3131466
-1.9671497 -1.3149806 5.1428986 2.849642 0.2733989 0.0928323 0.25944906 0.3116803
-1.2337102 0.19676346 -0.44941768 -0.26578623 5.2942147 -1.1336046 1.7378062 -1.2448891
0.0815651 -0.23140483 4.908653 -0.32538915 -0.47083208 0.22781627 -5.4023814 0.33759904

feature_net.linear_layer_0.bias f4 [32]
00000000: ef5f 1d3f 938e e73f 78b4 ae3f 9695 f33f
00000010: de94 99bf 6a9c 3a40 d15c 1abf afa6 a03f
00000020: d96c 4340 9b6c 173f 6f3c 22bf 6e2a b2bf
00000030: 14b8 6dbf 5e60 51bf a0e0 df3f bdc1 533f
00000040: 735a eb3e ee0a c9bf 5be2 c43e e89a f53f
00000050: dcf7 6c3e 4bea f53e 7cc8 0d3f 31f5 09bf
00000060: 6eb3 663e 86e2 f93f e9e3 f33f 3c76 163f
00000070: d981 873f 9a83 843f 1ae7 e53d de48 d73e
0.6147451 1.8090385 1.3648825 1.9030025 -1.1998556 2.9157968 -0.60297877 1.2550868
3.0535185 0.59150094 -0.63373464 -1.3919199 -0.92859006 -0.8178767 1.7490425 0.82717496
0.45967445 -1.570646 0.38453946 1.9187899 0.23141426 0.48030314 0.5538404 -0.5388976
0.22529384 1.9522254 1.9053928 0.5877416 1.0586501 1.0352662 0.1122572 0.4204778

feature_net.layer_norm_0.weight f4 [32]
00000000: 419b 5940 a140 3c40 d240 4240 466f aa3f
00000010: c88e 0d40 5455 0b40 8b52 c23f 3392 2940
00000020: 0da2 a93f b7f9 9640 0040 fa3f f15e bb40
00000030: 377b 7d40 a219 2640 dd31 2240 5f75 c43f
00000040: 8124 5940 994c 8240 19d8 9f40 5ec6 c53f
00000050: 451a 0e40 15e7 8640 5934 7540 b45c 2b40
00000060: c334 8f40 c243 d63f 1d3d f03f 1ee8 9040
00000070: bfd0 aa3f fbc9 0540 226f 1240 7e72 5c40
3.400101 2.9414446 3.0352063 1.3315208 2.2118397 2.177083 1.518144 2.6495483
1.3252579 4.717983 1.9550781 5.8553395 3.9606454 2.5953145 2.5342934 1.5348319
3.392853 4.0718503 4.995129 1.5451162 2.2203534 4.2157083 3.83132 2.6775331
4.4751906 1.6739428 1.876865 4.5283346 1.3344954 2.090453 2.288033 3.444488

feature_net.layer_norm_0.bias f4 [32]
00000000: eeca e4bf adaa 573f 223a a33f d1c5 9cbf
00000010: b7e5 963f db15 00bd ac2a 9abf 1f3f 7b3f
00000020: 1530 e0bf 936d 893f 9fa9 53be b6b0 6d3f
00000030: 326a 12bf 99cd a6bf 1d8e db3f fd4d c2be
00000040: e28f 033e 094e ccbe 40ff db3d bcce e6bd
00000050: a681 88bf 8d56 70be a856 d1be a4a1 ddbe
00000060: 3c96 203e c39f 87bf 4be0 acbe d781 2d3e
00000070: 8620 a3bf 808d 8f3f 339e 563f f635 813e
-1.7874429 0.84244806 1.2752116 -1.2247869 1.1788853 -0.031270843 -1.2044272 0.9814319
-1.7514673 1.0736564 -0.20670174 0.92847764 -0.5719329 -1.3031493 1.7152745 -0.37950125
0.12847856 -0.39903286 0.107420444 -0.112699 -1.0664566 -0.23470517 -0.40886426 -0.43287385
0.1568231 -1.059563 -0.33764872 0.16944061 -1.27443 1.1215057 0.8383514 0.2523648
