otk/AgileRL-MATD3/simple_speaker_listener_v4/result/20240102-0837/MATD3_trained_agent_0015000.pt (torch, 428762 bytes, 224 tensors)

feature_net.linear_layer_0.weight f4 [32, 3]
00000000: edf7 1f3e a68f 6dbe d988 9abd 118f d9be
00000010: 58e6 3f3d 37ec 083e a6bf 24bf 1374 613e
00000020: cbde 293d 9087 c03e ff9d 123e 618e 493e
00000030: 6737 733e da52 843e cbae 983e e161 c83e
00000040: fd3b bdbd 47e5 96be 63d8 073e b0f4 693e
00000050: c3e6 793e 098a 1abf 03e0 92be 7f03 823e
00000060: aa44 17bf 9334 273e d0fd 133e 8469 243e
00000070: 77c1 d1bd 9db9 8d3e 6c12 01bf 9e72 d63d
00000080: c721 1a3e dcec b3bd 498e e2be cbcc c53d
00000090: 8d21 b1bb 67dc d9bd 61de 7a3e a3a8 ecbd
000000a0: 95c9 97be cb01 1f3e 2d53 31be 9a55 f2bd
000000b0: c066 053e d802 0ebf 5c3b 39be 358a 833e
000000c0: 5f0f 623d 01d8 bcbe 2574 78be 2d05 193f
000000d0: 22f8 5a3e 1a2a 2f3f a45b 2bbb 8a61 1bbe
000000e0: 1776 c5bd 6881 883a fd0d 8bbd 0042 723e
000000f0: 401d e93e 044a 013e d3ce 133f 2942 e83e
00000100: f88d 043f e51b 983e a88b 9dbe 1cf1 203f
00000110: 850f 37bf f5a6 053e 0494 363e ea0b 9b3e
00000120: 1d6a b0bd d625 85bc 5b85 19be dcdc 043e
00000130: 1d0b 963e c537 aebd 64bb 9f3d 55b1 263e
00000140: 512d 943c a84f 1c3d 2560 7cbe badb 0a3d
00000150: 378f 3fbd 1240 8bbe 8863 913d 8aa4 7fbe
00000160: d585 3b3e e0d3 633d 6933 45bd f3e5 733e
00000170: a3ff 48bd da1d 35be c965 7b3d 239a 5cbd
0.1562192 -0.23199329 -0.07545633 -0.42491964 0.046850532 0.13371359 -0.6435493 0.22016935
0.041472238 0.37603426 0.14318083 0.1968322 0.23751603 0.2584446 0.29820856 0.39137176
-0.092399575 -0.294718 0.13266139 0.22847247 0.24404435 -0.60366875 -0.28686532 0.25393292
-0.5908915 0.16328649 0.1445229 0.16055876 -0.102419786 0.27680674 -0.50418735 0.1047108
0.15051948 -0.08785412 -0.4424918 0.09658202 -0.005405611 -0.106377415 0.24498893 -0.115556024
-0.29645982 0.15528028 -0.17316885 -0.118327335 0.13027477 -0.5547309 -0.1808905 0.2569138
0.05519044 -0.36883548 -0.24263056 0.5977352 0.21383718 0.68423617 -0.0026147151 -0.15173927
-0.096416645 0.0010414543 -0.067897774 0.2365799 0.45530128 0.12625891 0.57737464 0.45362976
0.5177913 0.29708782 -0.30770612 0.62867904 -0.71508056 0.1305197 0.17829901 0.30282527
-0.086139895 -0.016253393 -0.14992277 0.12974876 0.29305354 -0.08506731 0.07799414 0.16278584
0.018088015 0.038161904 -0.24646051 0.033900954 -0.04676744 -0.2719732 0.07099062 -0.2496511
0.18312772 0.05562198 -0.04814473 0.23818187 -0.04907192 -0.17687169 0.061376367 -0.053857934

feature_net.linear_layer_0.bias f4 [32]
00000000: 2f7a 51be 68b8 27bd b989 c3bd 41f8 063f
00000010: d69c 3ebd ceab 423e db5d 06bd ba61 c4bd
00000020: 8555 bebd fa3f 753d 5656 1a3d f28c 7fbd
00000030: 9e4c 7b3d 9b34 1ebe c159 8fbd 64a5 2e3d
00000040: 1843 e0bd 1e31 9b3e 0f55 cabd eb81 2abe
00000050: 8b65 4f3e 8b40 253f a1e5 6dbe 4325 d53e
00000060: 8842 6fbd fc16 c4bd 7720 13bd 8973 18be
00000070: 4989 efbd 576f 2dbe ebe8 e2bd 4fba 6bbd
-0.20456766 -0.040947348 -0.09547753 0.52722555 -0.04653629 0.19010851 -0.03280435 -0.09588952
-0.09293655 0.059875466 0.037679993 -0.062390275 0.061352365 -0.15449755 -0.06999541 0.042638198
-0.10950297 0.3031091 -0.09879505 -0.16651122 0.2025358 0.6455161 -0.23232128 0.4162999
-0.05841306 -0.095746964 -0.035919633 -0.14887823 -0.11696107 -0.16937004 -0.11079582 -0.057550725

feature_net.layer_norm_0.weight f4 [32]
00000000: 40f6 493f e4e7 4d3f a94d 573f b86d c83f
00000010: 17c6 733f de00 9f3f 267c 793f acfb 6b3f
00000020: 53f3 683f 8a7e 723f 263e 683f c127 643f
00000030: 8542 893f a466 643f aa6a 603f 8b7f 853f
00000040: 906f 693f bad5 a93f 064d 723f 8328 4f3f
00000050: 36b5 8e3f 8f94 bd3f b865 453f e743 973f
00000060: 9657 713f fdf4 403f 9d06 4b3f 8556 623f
00000070: 5342 663f 325a 513f 455e 513f edc4 6d3f
0.7889137 0.8043196 0.84102875 1.5658484 0.95224136 1.242214 0.9745506 0.92180896
0.90996283 0.94724333 0.9071983 0.8912316 1.0723425 0.8921912 0.87662756 1.0429548
0.91185856 1.3268349 0.9464878 0.8092119 1.1149051 1.4810961 0.77108335 1.1817597
0.9427427 0.7537382 0.79306966 0.8841327 0.8994495 0.8177825 0.8178447 0.9287861

feature_net.layer_norm_0.bias f4 [32]
00000000: 2f44 6bbe 87bb 02be 3755 dfbd aeff e73e
00000010: d11b 06bd 30b3 9f3d 22f8 65bb c352 a8bd
00000020: 4afd ccbd 46f9 7bbd 65a7 fdbd ba78 e2bd
00000030: 7e86 c03d d6d9 03be 2ba9 f7bd ff59 1ebe
00000040: 0320 bfbd fbd3 8b3e f131 cfbd d612 4ebe
00000050: 3332 353e 8d1b db3e 6c7c a3be 93bd 7c3e
00000060: c99a 97bd a637 2ebe 54eb 04be 317a ffbd
00000070: 77d3 c5bd 5763 33be d312 43be 963d afbd
-0.22975229 -0.12766849 -0.10904925 0.45312256 -0.03274137 0.07797849 -0.0035090526 -0.082189105
-0.100092486 -0.061517023 -0.123854436 -0.11058183 0.09400652 -0.12876067 -0.12092813 -0.15464018
-0.093322776 0.27310166 -0.101169474 -0.20124373 0.1769493 0.42794457 -0.31930864 0.24681692
-0.0740257 -0.17013416 -0.12980396 -0.12474478 -0.09659474 -0.17518364 -0.1905015 -0.085566685

feature_net.linear_layer_1.weight f4 [32, 32]
00000000: 6371 f7bd 5280 3abe 0cc4 0c3e dd11 c2be
00000010: 4f9d 67be 40bc 24bf 8311 bfbc e620 273e
00000020: 646a cdbc 9be9 11bf 446a bbbe f897 163e
00000030: 1140 c6be fa8f 163f 8169 9dbd 4641 e5be
00000040: 9361 5a3e 7894 bebe acad e4be 406e 88bd
00000050: c7d6 47be de03 76be 0d7a 62bd 5d47 61bd
00000060: c65b b73d 0ac1 393d cce1 703e ee6c 4abd
00000070: 3c05 52be ee86 b3be 7b0a 993e cf59 60be
00000080: a73f 8bbe 4bd3 763e 8621 cb3b f190 bfbe
00000090: aa91 a1be 3230 9e3e eb64 383e a219 ae3e
000000a0: e69f 633d 3807 49be fce8 b23e 1679 813e
000000b0: efb1 c3be a237 7e3e 2cda b0bd 7002 3dbe
000000c0: e2b7 b0bd 3659 a93e abaf 0b3e 4fb2 00be
000000d0: ff99 9b3e f255 96bd c414 50be 241a 993d
000000e0: 59de 9d3d 7c73 2abe 559b 07be 30a7 dcbc
000000f0: c395 593e 69c3 80be ffbf ea3d 93b0 a73d
00000100: ce14 a9be e688 8e3b b3b4 bdbd c765 8cbe
00000110: c32d 213d bde2 a53e 0f50 c23e 3650 5ebe
00000120: 6230 913e 51b3 8dbe 558c 6cbe 3166 2e3e
00000130: e6f6 96be 84f1 3abe c2aa f5bd fbcc ff3c
00000140: 088b ba3e 2143 e7be b997 fbbd 3712 3c3e
00000150: 4a61 0e3e 98fb 17bf 918d f13d 090b 183e
00000160: 9767 843e 67c1 f9bc 8737 ecbd a946 963c
00000170: 61b4 00be 40db 893e 8ce0 333e a3be cd3e
00000180: a2ae e93c ec28 4c3d 49d6 aa3e 3533 3c3f
00000190: 1e41 f43e fa9b 913e 0894 8ebc 36bf 8c3e
000001a0: 5607 303e 00d0 353f 1b9b c0be 9fd0 94be
000001b0: 1a51 7d3d eea4 37be 11da 91bd 1b9d be3b
000001c0: 6889 8b3e 283a da3e a00c e1be 4782 dfbe
000001d0: f159 373f b2e3 6e3f 99a9 843d 4936 433f
000001e0: 75b1 9dbe f13d bc3e 90ac a9bb 00b4 fc3d
000001f0: ca00 8a3d 3407 553e dc7d 0ebe cb0b 493e
00000200: 43c9 e03e 2b8b 223e 360e 58be 4801 10bf
00000210: cb0a 07be 4489 c8be 3f76 37be af85 4fbe
00000220: d60f fb3e 284c 71bd 8297 0e3f 1848 d4bd
00000230: 62ca 963b e4ac 5d3d 7a4f 783e 2689 59be
00000240: d90d c13c 99c5 e4be 7792 5ebe 186a 85bd
00000250: 1b51 783d 64f4 95be d7f7 03bf 6a8b 4e3e
00000260: e521 373e a47a 4fbe f13c e7bd a420 6e3e
00000270: eee1 0a3e 8cc6 a3be dd6d a1be 433a e53d
00000280: 98d5 6e3e b919 23bf e6db c5be d90a 953d
00000290: e4e6 8bbe 9aab ac3d ad50 463e a970 29be
000002a0: 6bc4 1abe cbd4 b4be e242 7c3d eef7 253e
000002b0: 2303 2abf 1c69 9abc 9c85 8abe d033 fbbd
000002c0: f248 413e bf5a 8fbe 897f fdbe be5a 02bf
000002d0: 239a 88be 2854 14bf d66a b7be 58b7 a2bd
000002e0: a178 4ebc c500 ecbb 8fbf 03bf 8bc5 d9bc
000002f0: 4423 143e 9bef 063e e3bf 94be 0c17 10bf
00000300: ec41 303d 9233 9c3e f3ce af3e a554 0bbf
00000310: 1bed 26bd db8f 14bf 875c d13c 8001 a6be
00000320: 68d0 81be 37dc 2abe 25a6 a3be bd24 9a3e
00000330: 9945 e4be f795 ce3e 67ca 993e 1405 183e
00000340: 6a22 203d fd9f 81be 91e6 8a3e dfb0 aabe
00000350: 758f 59bd c00d 92be fa7f 72bd 7397 343e
00000360: cbc3 22be daaa 933e 314b a2bd f4c2 393e
00000370: ec9e e53d b7a5 07bd c1e6 1bbf 1e98 41be
00000380: f281 1dbe ab9a f1b8 86cf c83e 2b92 48be
00000390: 6500 a2be 1dfb 6fbf e3af 4e3e 81f5 b1be
000003a0: 7872 c63e f65f 63bc fb08 db3b 0def 5ebe
000003b0: 51ae 1ebe 2c39 8f3e 2d06 6cbe ab2d c43e
000003c0: d042 3ebe 2af6 47bd ffce cdbe 6303 0ebd
000003d0: c5f1 b4be 8293 0fbf 7441 adbe 201b ebbc
000003e0: ac38 09bd f89a 8e3a ebfb f6be f55b 013e
000003f0: c874 a6be c86e 68bd fd02 a03d d234 963e
-0.12082174 -0.18213013 0.13746661 -0.37904254 -0.22618602 -0.64349747 -0.02332378 0.16321144
-0.025075145 -0.5699708 -0.36604512 0.14706409 -0.38720754 0.5881344 -0.07686139 -0.44776362
0.21326284 -0.37222648 -0.4466375 -0.066616535 -0.19515525 -0.24024913 -0.055292178 -0.054999698
0.08953051 0.045350112 0.23523635 -0.04942029 -0.2050981 -0.3506388 0.29890808 -0.2190926
-0.27197 0.2410404 0.0061990647 -0.3741527 -0.31556445 0.30896145 0.18007247 0.3400393
0.055572413 -0.1963166 0.34943378 0.25287694 -0.3822169 0.2482591 -0.08635363 -0.18457961
-0.08628823 0.33075875 0.13641231 -0.1256802 0.30390927 -0.073406115 -0.20320421 0.07475689
0.07708425 -0.16645616 -0.13242848 -0.02693519 0.21248536 -0.25149086 0.114624016 0.08187976
-0.33023685 0.0043498157 -0.09262981 -0.274214 0.039350282 0.3239955 0.37951705 -0.21710286
0.28357226 -0.2767587 -0.23100407 0.1703117 -0.29485244 -0.18256193 -0.1199546 0.031225672
0.36434197 -0.45168403 -0.12284798 0.18366323 0.139043 -0.59368277 0.1179458 0.1484796
0.25860283 -0.03048773 -0.115340285 0.01834424 -0.12568809 0.26925087 0.17566127 0.40184507
0.028525654 0.049843714 0.33366612 0.73515636 0.4770593 0.28439313 -0.017404571 0.27489632
0.17190298 0.7102051 -0.37618336 -0.29065415 0.061844923 -0.1793401 -0.07121671 0.0058170683
0.2725327 0.42622495 -0.43954945 -0.4365408 0.71621615 0.93316185 0.06477661 0.7625471
-0.3079945 0.36766008 -0.0051780418 0.1233902 0.06738432 0.20803529 -0.13915199 0.19633405
0.4390355 0.15873401 -0.21099171 -0.56251955 -0.13187711 -0.39167225 -0.17916201 -0.2026584
0.4903552 -0.05891052 0.5569993 -0.10365313 0.0046017626 0.05411996 0.24249068 -0.21243724
0.023566173 -0.44682005 -0.2173556 -0.065143764 0.060624223 -0.29288018 -0.5155005 0.2017037
0.17884023 -0.20261627 -0.112909205 0.23254639 0.13562748 -0.31987417 -0.31529132 0.11192753
0.23323667 -0.63711125 -0.38644332 0.0727746 -0.27324593 0.08431168 0.19366713 -0.16546883
-0.1511399 -0.35318598 0.061587222 0.16207859 -0.66411036 -0.018848948 -0.2705506 -0.12265742
0.18875483 -0.2799892 -0.49511364 -0.5091971 -0.26680097 -0.5794091 -0.35823697 -0.07945126
-0.012602002 -0.00720224 -0.5146417 -0.026583454 0.14466578 0.1317734 -0.29052648 -0.56285167
0.043031618 0.30508095 0.34337577 -0.5442603 -0.040753465 -0.58032006 0.025556816 -0.3242302
-0.25354314 -0.16685568 -0.31962696 0.30106154 -0.4458435 0.4034879 0.30037233 0.14845687
0.03909532 -0.25317374 0.27129033 -0.33338067 -0.053115327 -0.28526115 -0.05920408 0.17635898
-0.15895002 0.28841287 -0.07924498 0.18140775 0.112119526 -0.033117022 -0.6089898 -0.18905684
-0.15381601 -0.00011520585 0.39220828 -0.19587009 -0.31640926 -0.93742543 0.20184283 -0.34757617
0.38759208 -0.013877859 0.00668442 -0.21770878 -0.15496184 0.27973306 -0.23049231 0.38316092
-0.18580174 -0.048818745 -0.40196988 -0.0346712 -0.35340706 -0.56084454 -0.33839 -0.028699458
-0.033501312 0.0010879925 -0.48239073 0.12632735 -0.32510972 -0.056746274 0.0781307 0.29337174

feature_net.linear_layer_1.bias f4 [32]
00000000: 9fd9 0abe faf1 56bd b248 44be d3f7 af3e
00000010: c0e2 01be da2b 78be 6f96 45be b71f 373d
00000020: 18b1 84bd 9c54 05bf 5f41 b1be f683 573e
00000030: faec 22be 24ea 35bd a5e7 c9be c30d c3be
00000040: 96a3 48be 3502 333d c763 d9be fa4e 003f
00000050: d055 293e d1ce b3bd b3dc 5a3d 7dc4 38be
00000060: 3588 aabd 08ec d23e 9c5b 66bd 6c2b 8a3e
00000070: dbc7 023f 5d1e a0bc 151d 0ebf b094 ee3d
-0.13559578 -0.05247686 -0.19168356 0.34368762 -0.12684155 -0.24235478 -0.19295667 0.04470798
-0.064790905 -0.5208223 -0.34620187 0.21046433 -0.15910712 -0.044412747 -0.39434543 -0.38096437
-0.19593653 0.043703277 -0.42458937 0.5012051 0.16536641 -0.087796815 0.05343313 -0.18043704
-0.08326761 0.41195703 -0.05623971 0.26986253 0.51086205 -0.019545728 -0.55513126 0.11649454

feature_net.layer_norm_1.weight f4 [32]
00000000: 78f5 6a3f fd1a 963f efb7 883f 0a06 cc3f
00000010: 234d 5d3f a513 613f 3e8e 503f be20 963f
00000020: ba1d 443f 0f93 6e3f 0fdf 683f f357 b33f
00000030: 5747 573f 0000 803f 4930 4a3f 74b0 553f
00000040: 0de9 9c3f 0000 803f 5aa9 143f 8ea9 d43f
00000050: 543b a63f 2c6d 8b3f 6640 a23f 199d 8b3f
00000060: fb86 7a3f 2965 a33f f580 953f 8c7a b03f
00000070: 7bfb de3f 591f 8e3f 627c 6c3f 542a ab3f
0.91780806 1.1726986 1.0681132 1.5939343 0.86445826 0.879206 0.81467044 1.1728742
0.7660786 0.93193144 0.9096536 1.4011215 0.8409323 1.0 0.7897993 0.8347237
1.2258621 1.0 0.5807091 1.6614244 1.2986856 1.0892692 1.2675903 1.0907317
0.97862214 1.2765247 1.167998 1.3787398 1.7420496 1.1103317 0.92377293 1.3372293

feature_net.layer_norm_1.bias f4 [32]
00000000: 2b96 94bd 7ccf 993e f675 b03d 7504 143f
00000010: 4b65 adbd e2b6 fcbd 78da 4bbe 8f18 d63d
00000020: 57da 3ebe a9c7 acbd fa87 c5bd 1837 e43e
00000030: 9464 a1bd 0000 0000 7cfb 49be 392f 3abe
00000040: e1dd 253e 0000 0000 ae49 93be e48b 183f
00000050: e05b c83e ffa4 44bd 4bc5 543d fc70 a83c
00000060: f506 ccbc 1530 bf3e 0694 083e c76f bc3e
00000070: ed58 523f 2c36 fe3d c8e8 20be 3ddc ec3e
-0.07255205 0.3004111 0.08616249 0.578193 -0.08466586 -0.1233957 -0.19907558 0.10453903
-0.18637978 -0.0843652 -0.09645076 0.44573283 -0.07880512 0.0 -0.1972484 -0.18182077
0.16197921 0.0 -0.2876715 0.59588456 0.39132595 -0.048008915 0.051945966 0.020561688
-0.024905661 0.3734137 0.13337716 0.3680403 0.8216694 0.12412676 -0.15713799 0.46261778

feature_net.linear_layer_output.weight f4 [3, 32]
00000000: 3fa5 35be 100e 0f3f f30d 483f f88e 173f
00000010: eb21 7e3e ea3e 373e e38d 343e 5957 03bf
00000020: d76c 5c3e 21ff d5bc 0db3 40be 7f6e 683f
00000030: 26ce 5a3f baba d13e 66ae fcbc ee5e d73d
00000040: 9a64 783f db56 96bd 4735 36bc d54b 903f
00000050: 7f5b 2e3f 7b83 d9be 55c3 ffbd c367 50be
00000060: 1e3b 943d e279 443f e812 dc3e d35e 083f
00000070: 084f 0d3f 1d81 adbe 8e8b a43e 06e0 eb3e
00000080: 1c6e 9dbe b60d 7a3f 7c0b ca3e 4cb0 613f
00000090: e8da 25bd 3dbd cbbe 7ff3 a43e 5e48 d2bd
000000a0: b393 d03e c2f9 743e 6df8 703d 8c2e 7d3f
000000b0: 20e6 1d3f 1e97 143e 3773 0f3f fe57 a7be
000000c0: 33a2 2a3f 41bb 053d ea19 a2bc 4d0f 103f
000000d0: 218d da3e 959b 163f 716f 753f 77d1 a83e
000000e0: 35c7 b33e 8418 0c3f 7b83 073f 64f3 043f
000000f0: 6921 873f 470e 9ebd 4979 93bc 9a9b 523f
00000100: 596d a73e abe3 9e3e 8466 983d ccd7 6a3f
00000110: 4f54 06bd ef33 9b3e 36fb ba3e ac5e a73d
00000120: 9fe4 ff3c 17e3 b5bd c4fc 6bbc fd16 e53e
00000130: 762b 9539 133c 833e 0285 87bd 8c9e 4b3c
00000140: 8b2e 0d3f a1e7 76bc 9229 993d 8dc9 1f3f
00000150: df62 043f c4a6 883e 3be9 653e 7815 383e
00000160: fa64 f83e 30d0 043f e83c 093f 6fce 063f
00000170: f824 3f3f 1e2c 9c3f d52d 053f fb43 f73e
-0.17738818 0.5588083 0.78146285 0.5920253 0.24817626 0.17895094 0.1763225 -0.51305157
0.21525894 -0.026122632 -0.18818302 0.90793604 0.8547081 0.40962774 -0.030844878 0.10516153
0.97028506 -0.07340785 -0.011121101 1.1273142 0.6810836 -0.42483124 -0.124884285 -0.20352082
0.07237838 0.7674848 0.42983174 0.5326969 0.5519872 -0.33887568 0.32137722 0.46069354
-0.3074807 0.9767717 0.39461887 0.8815963 -0.04049197 -0.39792815 0.32217023 -0.10267709
0.40737686 0.239234 0.058830667 0.9889915 0.6167927 0.14510772 0.5603518 -0.3268432
0.66653746 0.032649282 -0.019787747 0.5627335 0.42685798 0.5883115 0.9587317 0.3297231
0.3511292 0.5472491 0.52935 0.51933885 1.0557071 -0.07717567 -0.01800217 0.8226868
0.32700613 0.31033072 0.07441428 0.9173553 -0.032795247 0.3031306 0.36519784 0.08172354
0.031236945 -0.088812046 -0.014403526 0.447441 0.00028451876 0.2563177 -0.06617166 0.012427937
0.55149144 -0.015069873 0.07478632 0.6241692 0.51713365 0.26689732 0.22452252 0.1797694
0.4851454 0.5188017 0.5360856 0.5265874 0.74665785 1.2200963 0.5202306 0.48294052

feature_net.linear_layer_output.bias f4 [3]
00000000: 0c03 f33e f4eb 603f 8690 043f
0.47463262 0.87860036 0.51783025

feature_net.linear_layer_0.weight f4 [32, 11]
00000000: 36bc a53e 619d 22c0 55e3 6abf e9f5 0740
00000010: e0ab dbbf 327c a13f f1eb 1440 699f cb40
00000020: a0f1 1e40 fb76 ee3f d5bc 0b40 728b 9340
00000030: b778 97be 41a6 bac0 cfce bdbe 6137 a8c0
00000040: 8b5b 2d3e 10eb 98c0 7009 88bf f7d4 0940
00000050: d1d9 1040 c44a 1140 3506 82bf f9c6 fb3f
00000060: b1e4 3340 3919 ef3f 2f7a edbf aa59 96c0
00000070: 8025 ce3f e886 b43c 5c4a 0640 5b76 1a40
00000080: 2cc8 1c40 c474 66c0 daef 543f 73ff 8740
00000090: 210d 8dbf 45a9 de40 75ff 9cbf 5b9d 4e40
000000a0: 01bd 64bf 830d 2340 1341 2740 05d3 903f
000000b0: 53b9 d5bf 010c 46c0 0b76 0140 a682 71be
000000c0: b12d 2840 b2ab a040 cc9a 8abf b1eb 3940
000000d0: c781 dd3f 6a74 cb3f a2fa 0540 1997 4dc0
000000e0: c55e 0540 c5ab bd40 507a e63e 5161 07c0
000000f0: 92ce 88bf a0d3 af3f 8f2b 4fc0 4b03 df3f
00000100: d96d 1540 cb91 1b40 6a3a dd3f 9118 7abf
00000110: c440 6ebf 6c91 7640 4013 d6bf 75a5 9a3f
00000120: ea31 57bf 03fc 91c0 b338 b03f d167 1e40
00000130: efb2 0540 b53f 25bf 5c12 91bf 511d 19c0
00000140: be86 c73f 1231 1c3f 88d1 46bf 9fe8 b540
00000150: 213b 413f 86de fc3f 05da ef3f 22cc fc3f
00000160: 753a db3f e04b 8dc0 dabe 1fc0 79a3 6340
00000170: e153 2ebf d027 9f40 75b4 b5bf 4460 9940
00000180: d08b 1c40 daf1 1040 81e4 1340 0cc2 fb3c
00000190: dde0 8d3d b242 e1bf d0aa 41bf 36c1 aac0
000001a0: 7e90 7840 a2c3 e9c0 fea4 50c0 b1f7 0640
000001b0: dbc7 2140 82cf 3140 bc7a 96be b739 68bf
000001c0: 86b0 c4bf ab53 b33f 67da 1440 cfdf dabf
000001d0: 6fe8 82bf 9097 473f aeea 1440 109f 3c40
000001e0: cc39 4f40 f30f 1640 d6b0 62bf 6475 66c0
000001f0: dc79 8c40 aaea 42c0 b3c9 88c0 4c15 dabf
00000200: 7a8f 0940 7c9e 743f e283 983f cda5 e13f
00000210: 8600 0c40 63c2 2e3e b9e3 55c0 dd74 cebf
00000220: 27a4 3640 3945 84bf 9686 02c0 6d49 4640
00000230: efc3 1840 64ff 0840 7f50 1040 4f86 5d3f
00000240: 088b 2d40 f27e af3d 8398 60c0 6c5d ef3d
00000250: 0b14 cbc0 e517 00be 4928 12c0 3e6b a33f
00000260: c461 ec3f 15b0 e63f 3f9d 02bf e443 85c0
00000270: 552a 21be 613c ef40 3dbd 02be 358b 7140
00000280: 74a0 d63e 049b 933f b5e6 1440 ba6d 0b40
00000290: 8934 f83f 867e 80bf 74a5 513f 7666 78bf
000002a0: 81af fcbe af6f e040 6b82 1bbf 23b8 28c0
000002b0: f0e7 793f 12da ec3f 4765 da3f 90ba e73f
000002c0: 1625 9ec0 d5ba 1ebf a666 c140 2832 a4bd
000002d0: 84d5 a940 0b1b c33f db9a 5e40 d8bb c7bd
000002e0: 2918 fe3f 12a2 0840 d4bb 0f40 142e 563e
000002f0: ef4f a63f d8f6 bcbf 54a5 64c0 8c74 d33e
00000300: e18c 6340 2557 35bf 4a5b 56c0 6ba2 1940
00000310: fd7f 923f 9ae0 a63f ac67 8c3f bb90 5a3f
00000320: 01e3 0541 c996 9f3f 2877 97bf d08b ecbf
00000330: c3b2 c9c0 ff11 0cc0 7084 c33f 6d67 ce3f
00000340: f979 0340 423d 8a3e f039 bdbf a456 c23f
00000350: 01ef 3840 e700 6b3f beb6 0f40 71f8 8dc0
00000360: ec78 af40 d0b2 f43f 60f6 0940 9b0d 0140
00000370: 00a0 b735 ce6b dabe 29dc 90bf b27f d93d
00000380: 5877 f43f ed8a 29bd 75be f7be 2948 cebe
00000390: 9ecf 2640 8d5c 4740 1932 4740 8b91 5e40
000003a0: c557 813f d5a1 f0c0 db4b 1dc0 9c22 2bc0
000003b0: 60b0 e13f 5eb6 5c3d 47f4 babd 7ca4 f33f
000003c0: 8e1f 0940 fc8e d33f ebbe fb3e ddd7 5040
000003d0: 8fc6 04c0 0531 80c0 f960 1e3e f0d8 9cc0
000003e0: 2280 9dbe ff12 92c0 d269 ec3f 4612 0340
000003f0: b274 ed3f 4da6 29c0 600f f23e 3183 793f
0.32370156 -2.5408556 -0.9175313 2.1243842 -1.7161827 1.2616026 2.3269007 6.3632092
2.4834976 1.863006 2.1834004 4.610772 -0.29584286 -5.8327947 -0.37071845 -5.25676
0.16929452 -4.778694 -1.062788 2.1536233 2.2632945 2.2701883 -1.0158144 1.9670097
2.8108332 1.8679572 -1.8552912 -4.6984453 1.6105194 0.022036985 2.0982885 2.4134738
2.4497175 -3.6008768 0.83178484 4.249933 -1.1019632 6.958163 -1.2265459 3.2283542
-0.893509 2.5476997 2.6133468 1.1314398 -1.6697181 -3.0944827 2.0228298 -0.23584995
2.6277888 5.020959 -1.082849 2.9050105 1.730523 1.5894902 2.0934224 -3.2123473
2.0839093 5.927218 0.45015192 -2.1153147 -1.068804 1.3736458 -3.2370336 1.742288
2.3348296 2.4307735 1.7283452 -0.97693735 -0.93067575 3.8526258 -1.6724625 1.2081743
-0.8406054 -4.562013 1.3767303 2.4750865 2.0890462 -0.64550334 -1.1333728 -2.3924143
1.5587995 0.61012375 -0.7766347 5.684646 0.7548085 1.9755409 1.8738409 1.9749796
1.7127215 -4.415512 -2.4960237 3.5568526 -0.6809674 4.97361 -1.4195696 4.793001
2.4460335 2.2647614 2.3108218 0.030732177 0.06927655 -1.7598479 -0.75651264 -5.3360853
3.883819 -7.305131 -3.2600703 2.108868 2.5278232 2.7782903 -0.29390514 -0.90713066
-1.5366371 1.4009908 2.3258302 -1.7099551 -1.0227183 0.7796564 2.3268237 2.9472084
3.2379026 2.3447235 -0.8855108 -3.600915 4.3898754 -3.0455728 -4.2746215 -1.7037749
2.149382 0.9555433 1.1915247 1.7628723 2.187532 0.1706634 -3.342024 -1.6129414
2.853769 -1.0333625 -2.0394645 3.0982316 2.3869588 2.1405878 2.254913 0.86533064
2.7116108 0.08569135 -3.5093086 0.11687741 -6.3461967 -0.12509115 -2.2837088 1.2767103
1.8467336 1.8022486 -0.5102119 -4.1645374 -0.15738805 7.4761205 -0.12767501 3.7741215
0.4191929 1.1531682 2.3265812 2.1785722 1.9391032 -1.0038612 0.81893086 -0.97031343
-0.4935265 7.0136333 -0.6074588 -2.6362388 0.97619534 1.850405 1.7062157 1.8103809
-4.942027 -0.62003833 6.0437803 -0.08017379 5.307314 1.5242628 3.4782016 -0.09752625
1.9851123 2.134892 2.245839 0.20916015 1.2993144 -1.4762831 -3.5725908 0.41299856
3.5554736 -0.70836097 -3.3493218 2.4005382 1.1445309 1.3037293 1.0969138 0.8537709
8.367921 1.2467891 -1.1833239 -1.8480167 -6.3030715 -2.1885984 1.5274792 1.6125313
2.0543196 0.2699986 -1.4783306 1.5182691 2.8895876 0.9179825 2.2455287 -4.4365773
5.483511 1.9117069 2.1556625 2.0164554 1.3681129e-06 -0.42660373 -1.1317188 0.10620059
1.9098921 -0.041392256 -0.48387495 -0.4028943 2.606422 3.1150239 3.1124327 3.4776332
1.010491 -7.519755 -2.4577549 -2.6739874 1.763195 0.053884856 -0.091286235 1.9034572
2.142551 1.652801 0.49169096 3.2631752 -2.074619 -4.005984 0.1546668 -4.9014816
-0.3076182 -4.564819 1.8469794 2.0479903 1.8551238 -2.6507752 0.47277355 0.9746581

feature_net.linear_layer_0.bias f4 [32]
00000000: fd13 d63e 54e7 3f40 53b0 c040 b7d6 ff3f
00000010: 5d1b ae3f f0e0 f63f e661 353f 070a 2bbf
00000020: 63f7 8240 cf5f 6140 bb74 db40 5840 023e
00000030: 93b2 cdbe c72f 7e3f ac0c 823f 8c44 903f
00000040: 810e 4040 8e8c f23d a0a8 0b40 b6e3 1d3f
00000050: bb2f fc40 9362 813f 02e7 5640 879b 1f40
00000060: e030 863f c246 8640 2376 4940 e984 0140
00000070: 0a4a 273f 1a0e 19be 4b17 5040 fbba 9e3f
0.41812125 2.9984941 6.021524 1.9987401 1.3602101 1.9287395 0.70852506 -0.66812176
4.0926986 3.5214727 6.8579993 0.12719858 -0.40175304 0.9929165 1.0160117 1.1270919
3.0008852 0.11843215 2.182167 0.61675584 7.8808265 1.0108207 3.3578496 2.4938676
1.0483665 4.1961374 3.1478355 2.0237372 0.6534735 -0.14946786 3.2514217 1.2400812

feature_net.layer_norm_0.weight f4 [32]
00000000: da58 b740 ab51 9940 3413 5940 400b e740
00000010: a8d9 6c40 e144 7a40 939f 5d40 3c4a e240
00000020: fb56 5d40 8c12 883e b4cc 3b40 4462 b540
00000030: e1e2 8e40 b24a 8240 1db9 b940 ddc8 a940
00000040: 5619 d940 c7ec 9240 e120 6d40 0f5d 8f40
00000050: 63f6 8440 ac56 7440 8d11 8e40 4dee 5940
00000060: 3420 9440 a33d 503f bc8b 7a3e 77a1 7a40
00000070: ba5d 8040 552b 7440 ffa7 253f d608 6b40
5.729596 4.791219 3.391797 7.2201233 3.7007847 3.910454 3.4628646 7.071562
3.4584339 0.2657665 2.934369 5.6682453 4.465195 4.071618 5.803847 5.3057694
6.784343 4.5914035 3.7051318 4.4801097 4.1550765 3.81779 4.4396424 3.4051697
4.628931 0.8134405 0.24467367 3.916105 4.011441 3.8151448 0.64709467 3.6724143

feature_net.layer_norm_0.bias f4 [32]
00000000: f24e 9c3f 0c1e d93f 9156 b4be ecea 963f
00000010: 88f9 85bf 18d1 863e 26dc 2abf f7e1 bd3f
00000020: 77cc 033f fbba 3cbf 4bdf c8be 55a4 2ebf
00000030: 3983 97bf 065b 0340 ec67 1440 cb5f 3a3f
00000040: 1941 1b40 62e7 a1bf ee4f 21bc d7cd 103f
00000050: 2e89 cabf ec9d ab3e c6b1 ca3f c9de 91be
00000060: bcd6 8f3f e82a 11c0 bea2 41bf a177 833f
00000070: 93bf 5c3d 5e78 2240 0402 e8bf a236 b7bf
1.2211592 1.6962295 -0.35222295 1.1790442 -1.0466776 0.263314 -0.6674217 1.4834584
0.51483864 -0.7372281 -0.3923286 -0.682195 -1.1836921 2.0524306 2.318843 0.7280242
2.4258482 -1.2648737 -0.009845717 0.56564087 -1.5823114 0.33518922 1.5835502 -0.28490284
1.1237407 -2.2682438 -0.7563895 1.0270883 0.053893637 2.5385966 -1.8125615 -1.4313548

feature_net.linear_layer_1.weight f4 [32, 32]
00000000: f964 1840 7c14 1440 f8e1 433f 778d 273f
00000010: dd24 d33f a249 7c40 0a1b 2d40 7281 ac3f
00000020: 702c a03e a071 1e3e ebb7 a1bf 3c5f a43f
00000030: bea1 ab3e 90d8 c9bf c810 9340 a506 db3f
00000040: a300 ba40 57e9 2bbf 4cca 4f40 1bc1 6a40
00000050: 217a 92be 3c67 5b40 912d ecbe 62c7 5340
00000060: c476 8440 943d c3bf 1f5c 893f 3aa5 8540
00000070: 2ff8 0240 3842 6040 ab7d a73f d4fd a1c0
00000080: 98a0 0140 a534 bf40 3ba3 ad40 565e 3dbf
00000090: 36e4 4c3e 5485 7bbd c02f 82bf 1a23 ecbf
000000a0: 722c ae40 d4a5 053d 2994 cb40 585c 9640
000000b0: 880c ffbf 1747 e93e dd8b 393f 0c54 e3be
000000c0: a033 e83e 50ff a43f bc25 5a3f 913e e7be
000000d0: 5129 0c41 0720 863f a6d0 8c40 69c3 fdbd
000000e0: b0c1 98be 3321 4b40 9b03 7f3e f895 8e40
000000f0: ff43 febf de21 bbbe f4d5 6dbf 6aaa cc3e
00000100: fc5f 5340 3058 1c3f 722b ff3f db88 0f3f
00000110: 1e62 94bf 1aec 3240 cdec 10c0 95a3 1940
00000120: 17ec 5640 24e1 84be 6faa 7c3f 08f3 1040
00000130: 5a68 0bc1 e1b6 f53e 7f41 8040 9bd6 75c0
00000140: cf2d cc40 8d93 0bc1 f605 0c40 da9c 1abf
00000150: 8021 a640 c747 1c40 bb10 3940 9ac6 663f
00000160: 83d3 2d40 1fa3 3b40 a24e a03f 2934 1b40
00000170: f0b2 02c0 285c b2bf 19ad a23f 8aa3 a43f
00000180: 8a46 8340 aadd 78bf 4af2 4740 94f4 ae40
00000190: 926f c140 b2a8 a13f 9f4d 4d3f c3d2 1140
000001a0: 2f24 8840 4b8a fc3d c025 2b40 7394 7540
000001b0: f7e2 af3f 2b54 5d3f 9db2 7c40 e589 2340
000001c0: 7aeb 7440 92d1 e63f 49cf 7340 e241 7f40
000001d0: cbab 7940 d204 0c40 d1bb 8abf de4a ad40
000001e0: 8274 5b40 228b 0b40 24c2 b73e 917c 7ac0
000001f0: 62a0 a940 7bb4 633f e8e2 1640 62e9 e0bf
00000200: ffdf 8740 bc37 9740 65d1 ff3f 6811 cebf
00000210: fe07 39c0 1b7c 71bf ccb1 9ebe 3277 adbe
00000220: 457a 2f40 82d2 833e 090e fe3f f5f8 8d40
00000230: bdad 32c0 77e4 3340 5600 17bf 8baa 6140
00000240: 698d aec0 7a1b 0c40 1767 10bf a959 8140
00000250: 2404 7440 6565 2b3f 3085 6040 066e 10bf
00000260: f3ac 6b40 d8d9 243f bc33 643f 36e5 1740
00000270: b0aa cf3f 3975 2840 0085 813f 739e dfbe
00000280: 4fb1 6140 af59 5240 4969 afbf 6934 9e3f
00000290: 083c dc3f b831 2ebf fde1 843f 6dea ba40
000002a0: f79b 0e40 61b0 6b3e 7e98 2740 437a ac40
000002b0: 4c76 08c0 211f 30bf 8c89 2c40 5414 9040
000002c0: 946e c33f 60ba 05c0 569e e7bd ea3f 9440
000002d0: 8207 0fbf d5b5 8d3f eefe 103f 83ff 243f
000002e0: 3c97 8040 b40a cd3e 14c2 ef3e 6b4d c6bf
000002f0: 71b0 bd40 9487 9340 333d 4840 3af3 9abc
00000300: a937 983f 5d9a 2740 c4e6 4cbf 8ddd 24bf
00000310: fda6 e93d 5b0f 993f 5a95 d5be d06a 963e
00000320: fa28 8d40 f1e9 2dbf 93e0 3f3e 0e86 a2be
00000330: bd97 2c40 e79c e6be a32b 7940 9fb5 6dbf
00000340: b7f1 8840 a857 3840 0dd0 c940 d111 5cc0
00000350: 0981 ac40 04a8 b040 575f 1e40 849f bf3e
00000360: 6f40 3640 ff3b 703f cc84 fb3c 7817 8e40
00000370: 14d9 963f 3921 5440 9255 74bf 1cc7 45c0
00000380: 14ff 7940 b6a4 7640 f119 833f 46b5 98bf
00000390: 706b 4abf ad81 1740 536c 7240 48c9 bd3f
000003a0: 6f97 c83f 2e1d 3e3d a92e 2340 d4bb 2e40
000003b0: 368b 9640 d3d9 7040 e342 ffbf 8333 4140
000003c0: bc89 44c0 d06e 9340 c5b9 3ac0 e430 12be
000003d0: bc66 853f 2c7a ff3f 6c69 5940 7fe5 78c0
000003e0: 656d 7a40 eed2 0840 117d 68bf 95a4 8040
000003f0: 21ad a8be 4a76 0f3f 3768 f43e ffa6 063f
2.381163 2.3137503 0.76516676 0.65450233 1.6495625 3.9419942 2.7047753 1.3477004
0.31283903 0.15473032 -1.2634252 1.2841563 0.33521837 -1.5769215 4.5957985 1.7111403
5.8125777 -0.67152923 3.2467222 3.6680362 -0.28608802 3.428176 -0.46128514 3.3090444
4.1394978 -1.5253167 1.0731238 4.1764193 2.046398 3.5040417 1.3085226 -5.062235
2.0254269 5.9751763 5.4261756 -0.7397207 0.2000893 -0.06140645 -1.0170822 -1.8448212
5.4429255 0.03262885 6.361836 4.6987724 -1.9925699 0.4556205 0.7247904 -0.4440006
0.45351887 1.2890415 0.8521383 -0.45164922 8.760087 1.0478524 4.40047 -0.12390787
-0.29835272 3.1739013 0.24903719 4.4558067 -1.9864501 -0.36549276 -0.9290459 0.39973766
3.3027334 0.61072063 1.9935133 0.560682 -1.1592443 2.7956605 -2.2644532 2.4006093
3.3581598 -0.2595302 0.9869756 2.2648335 -8.712976 0.47991088 4.007995 -3.8412235
6.380592 -8.723523 2.1878638 -0.60395586 5.1915894 2.441881 2.8916461 0.9014679
2.7160347 2.9318311 1.2523997 2.4250586 -2.0421715 -1.3934374 1.2709075 1.2862408
4.1023607 -0.9721323 3.1241632 5.4673557 6.0448694 1.2629607 0.80196565 2.2784889
4.254417 0.12331065 2.674179 3.8371856 1.3741139 0.86456555 3.9484017 2.5552914
3.8268723 1.8032706 3.8095267 3.9883962 3.9011104 2.1877942 -1.0838567 5.415389
3.428986 2.180367 0.35890305 -3.913853 5.300828 0.88947266 2.3575993 -1.7571223
4.2460933 4.7255535 1.9985777 -1.6099062 -2.8911128 -0.94329995 -0.30995023 -0.3388
2.7418377 0.25746542 1.9848033 4.4366403 -2.7918541 2.8108194 -0.5898489 3.526034
-5.454762 2.189177 -0.564073 4.042195 3.8127527 0.6695159 3.5081291 -0.5641788
3.682431 0.64394903 0.8914144 2.373365 1.6223965 2.6321547 1.0118713 -0.43675575
3.526447 3.2867239 -1.3704005 1.2359744 1.720582 -0.68044615 1.0381466 5.8411164
2.2282693 0.23016502 2.6186824 5.3899245 -2.1322203 -0.687975 2.6958952 4.5024815
1.5268121 -2.0895004 -0.11309497 4.632802 -0.5587083 1.1071116 0.5663899 0.6445238
4.018461 0.40047228 0.46827757 -1.5492376 5.9277883 4.6103 3.1287353 -0.018914808
1.1891986 2.6187966 -0.8003962 -0.6440056 0.114088036 1.1957811 -0.4171551 0.29378366
4.411252 -0.6793509 0.18738012 -0.317429 2.6967614 -0.45041582 3.8932884 -0.92855257
4.279506 2.88035 6.306647 -3.4385874 5.3907514 5.5205097 2.474569 0.37426388
2.8476827 0.93841547 0.03070297 4.440365 1.1784997 3.3145278 -0.9544307 -3.0902777
3.9061937 3.8538032 1.0242292 -1.193032 -0.79070187 2.3672898 3.7878616 1.4827051
1.5671214 0.046414547 2.549723 2.730214 4.7044935 3.763295 -1.9942287 3.018769
-3.0709066 4.607277 -2.9175885 -0.14276463 1.0421977 1.9959159 3.3970594 -3.8890073
3.912927 2.1378741 -0.90815836 4.0200906 -0.32944587 0.5603987 0.4773576 0.52598566

feature_net.linear_layer_1.bias f4 [32]
00000000: 369e 6b40 db43 9a40 0a37 4640 0966 6240
00000010: 3511 7540 81f7 3f40 ed95 7340 2b40 3d40
00000020: c416 6640 b0b2 5a40 4f18 0840 078b af40
00000030: 82d1 0240 5cb7 cd3f 13dc 3440 43e1 6f41
00000040: 3844 7940 260b 5b40 d88a 4941 9af9 1441
00000050: 31f2 3a40 1cdb 2840 7f82 9640 8e5f 8040
00000060: 2148 0d40 0590 7740 27e4 fc40 d588 e13f
00000070: 6fed 7041 c03a 1440 e852 3540 f08e 5d40
3.6815314 4.820783 3.0971093 3.5374777 3.8291752 2.9994814 3.8060257 2.9570415
3.5951395 3.4171562 2.1264837 5.485721 2.0440373 1.6071582 2.8259323 14.992496
3.8947887 3.4225554 12.596397 9.310938 2.9210322 2.6383734 4.7034297 4.0116644
2.2075274 3.8681653 7.9028506 1.7619883 15.057967 2.3160858 2.8331852 3.4618492

feature_net.layer_norm_1.weight f4 [32]
00000000: 5689 c240 e682 9f40 27a4 3e40 1465 8140
00000010: 56e1 5940 dff5 0041 97f5 9d40 087d 9c40
00000020: aafa 9040 32cd 7840 2505 b640 2931 1b40
00000030: c03a c740 0313 af40 489f 8440 381b 3d3e
00000040: b852 9640 2855 7240 0e21 dc3e ec27 303f
00000050: 9e8c 3a40 5172 e440 74ea a840 41d7 6340
00000060: e8e2 ad40 0011 5440 ee19 af3f 3b7a 8540
00000070: 2ed5 5a3e 1516 8640 8b6e 9e40 b03e 9140
6.0792646 4.984729 2.978769 4.0435886 3.4043784 8.060027 4.936229 4.8902626
4.5305986 3.8875241 5.688128 2.4248755 6.2259216 5.471071 4.1444435 0.18467414
4.6975975 3.7864475 0.4299397 0.68810916 2.9148326 7.1389546 5.27862 3.560013
5.4339485 3.3135376 1.3679788 4.1711707 0.21370384 4.1901956 4.950994 4.5389023

feature_net.layer_norm_1.bias f4 [32]
00000000: 96a3 f73f 2e01 ea3f c917 b13f 29ca 803f
00000010: d343 d33f 7895 ae3f aa9e babc 0969 1140
00000020: 8bc8 a93f 7808 ad3f c779 273f 10d0 96bf
00000030: 1cfc 103f 2cec a03f 3e67 7a3f ab45 4bbf
00000040: 7d90 d33f 4110 a63f 793c a5bf 02f0 96bf
00000050: 07c2 c63f c7ef cb3f 3e6c 0240 3123 b83f
00000060: 56c2 9c3f 8ce8 00bf 3263 11c0 1c1f b13f
00000070: c0b8 53bf 9db4 d53e 2236 d73f 6bab b83f
1.9346797 1.828161 1.3835384 1.0061694 1.6505073 1.3639364 -0.022780735 2.2720358
1.3264326 1.351821 0.6542019 -1.1782246 0.5663469 1.2572074 0.97813785 -0.7940318
1.6528469 1.297371 -1.290908 -1.1791995 1.5527962 1.5932549 2.0378566 1.438574
1.2246807 -0.5035484 -2.2716794 1.3837619 -0.8270378 0.4173936 1.6813395 1.4427313

feature_net.linear_layer_output.weight f4 [5, 32]
00000000: 368d 86c0 9763 803e c079 0540 92f8 8cc0
00000010: 86a6 acbf c793 bc3e 44c6 99be 3ae8 1ec0
00000020: 8a34 5b3f e8c7 5a40 87c8 a9bf 5bd7 3540
00000030: 161c b4bf 0f21 5cc0 075d 39c0 1dc2 80bb
00000040: cb40 3840 5d34 033f 719f a63f d541 53bf
00000050: 5ab4 e3be 9f0a 96bf 77de 39c0 0e97 1a40
00000060: 71a7 23c0 6d0a dbbf 21ac e4bf cfe5 1b3f
00000070: 05ad 453f 0f04 efbd 008f 903d d44c 2e40
00000080: b6ea 0cbe 3ee9 bdbf b384 073f 41d0 1c3f
00000090: 873b 5cbf d7f6 0d3f 478a 98c0 b976 dfbf
000000a0: 766a 30be 4e28 8bbf 64b4 d4bf e915 bc3e
000000b0: 9f63 7040 d758 e33e ed5a adbe e56b ef3c
000000c0: 81eb 0ac0 221f 013f 9ace 593e fe7c 94be
000000d0: 33f3 cabe d15f 193f 0242 eebe c1a5 f13e
000000e0: 5527 ef3f fbbd 0e40 5625 ee3e 9818 3d3f
000000f0: dc2d 8c3e 4b5a b6be 899e 683e 3f1e f5bf
00000100: 2e0f 0e40 273d 61bf 201b d9bd af3a 9dbd
00000110: a71d 7540 1d9f 0940 48c9 993f 741b eb3f
00000120: f8e6 4e40 46a2 0840 83cc 3f3f 75bb afbe
00000130: f129 2ec0 4573 c33f 61b9 5dbf 973c 57bd
00000140: 583b 2a40 4bbd eebf f032 a33f e97a b4bd
00000150: f344 013f 2c39 97bf 71e3 1a3f 7bd5 2540
00000160: 3cec dfbf 3e8e ebbf ee98 3abe 1172 923c
00000170: e31e 6abe e8dd 87c0 3d83 c6bf 47bc 3bc0
00000180: b8c1 4e40 9e27 fb3f e580 0740 bcf6 25bf
00000190: 563c c5be d5e4 593f 7085 8fbf 2abc 4cc0
000001a0: 759a 94bf 3a0b 63bf ada5 61c0 bb8e 1fc0
000001b0: a878 41bf debc 98bf 36b2 40c0 e3a9 e3be
000001c0: e8f2 47bf 942e 4bc0 e3ac b5be 1c6c 373f
000001d0: eb50 6fbf ac1c fe3f 1755 5640 123e 713f
000001e0: d970 803e 4bbf 1fc0 c5aa 25bf 3d63 bebf
000001f0: 5d9c 873e d027 96bf 19d0 0c40 bb86 303e
00000200: b780 06c0 64fa da3f 5bdc a23f 7664 06c0
00000210: a870 873f ade3 3bc0 8d36 4240 a9ef 0040
00000220: 5b13 0ec0 c6c3 20be 4772 3740 0d19 a6bf
00000230: 12bc 0340 1c91 5340 ad32 b43f c9dc 1c3e
00000240: 96c0 8abf e96d 2e40 4796 f1bd 20ee 1f40
00000250: 1c82 35c0 73cb a5bf 58c0 edbf 4947 753f
00000260: bcc4 273f b949 02c0 54e9 63bf 7340 5340
00000270: 518b d4be 55de 0dbe 993f 11c0 435d ec3e
-4.2047377 0.2507598 2.085556 -4.405343 -1.3488319 0.36831495 -0.30034077 -2.482924
0.85627043 3.4184513 -1.3264321 2.8412693 -1.4071071 -3.4395177 -2.896303 -0.00392939
2.8789546 0.51251775 1.3017408 -0.82522327 -0.44473535 -1.1721991 -2.9042032 2.4154696
-2.5570948 -1.7112557 -1.786503 0.60897535 0.7721713 -0.11670696 0.07058525 2.7234392
-0.1376141 -1.4836805 0.5293686 0.6125527 -0.8602833 0.5545477 -4.7668796 -1.7458106
-0.17228112 -1.0871675 -1.6617551 0.36735466 3.7560804 0.44403717 -0.33858433 0.029226253
-2.170624 0.5043813 0.21270218 -0.2900161 -0.3963867 0.5991183 -0.46534735 0.47196773
1.8683878 2.2303455 0.4651286 0.7386565 0.27378738 -0.35615763 0.22716726 -1.9149855
2.2196765 -0.87983936 -0.10600877 -0.07677209 3.8299348 2.1503365 1.2014551 1.8367753
3.2328472 2.1349044 0.74921435 -0.34322706 -2.72131 1.5269552 -0.8661099 -0.052548017
2.659872 -1.8651518 1.274992 -0.08812506 0.50495833 -1.1814322 0.605033 2.5911548
-1.7493968 -1.8402784 -0.182224 0.017876657 -0.22863345 -4.245838 -1.5508801 -2.9333665
3.2305737 1.9621465 2.117242 -0.6482961 -0.38522595 0.85114795 -1.1212597 -3.1989846
-1.1609637 -0.88689005 -3.525737 -2.4930866 -0.7557473 -1.1932638 -3.0108771 -0.4446555
-0.7810502 -3.174718 -0.35483465 0.71649337 -0.93482846 1.98525 3.3489435 0.94235337
0.25086096 -2.4960506 -0.647137 -1.4874035 0.26486483 -1.17309 2.2002013 0.17238896
-2.1016061 1.7107663 1.2723497 -2.0998816 1.0581255 -2.9357712 3.0345795 2.0146277
-2.2199314 -0.15699682 2.86635 -1.2976395 2.058354 3.3057318 1.4077965 0.15318598
-1.0840023 2.7254584 -0.11796241 2.498909 -2.8360662 -1.2952713 -1.8574324 0.958119
0.6553457 -2.0357497 -0.89027905 3.3008087 -0.4151254 -0.13854344 -2.2695067 0.46164903

feature_net.linear_layer_output.bias f4 [5]
00000000: 1342 253f 9b97 513f 1c5b 703e 0077 12be
00000010: ddac 8c3f
0.64553946 0.81871957 0.23472255 -0.14303207 1.0990254

feature_net.linear_layer_0.weight f4 [32, 3]
00000000: 2ff8 1f3e e08f 6dbe 2b89 9abd 2b8f d9be
00000010: 06e6 3f3d 2fec 083e 04c0 24bf e173 613e
00000020: 91de 293d 5b87 c03e d49d 123e 4b8e 493e
00000030: 8937 733e 3a53 843e f3ae 983e e761 c83e
00000040: fe3b bdbd 24e5 96be 67d8 073e d4f4 693e
00000050: dde6 793e 578a 1abf 3be0 92be 6f03 823e
00000060: d744 17bf 8934 273e c8fd 133e 4d69 243e
00000070: 20c1 d1bd deb9 8d3e 5212 01bf 4c72 d63d
00000080: a821 1a3e 2ded b3bd b08e e2be 93cc c53d
00000090: 8e21 b1bb 20dc d9bd 85de 7a3e 04a9 ecbd
000000a0: a7c9 97be b401 1f3e 8d53 31be c155 f2bd
000000b0: 9f66 053e 8702 0ebf c53b 39be 0f8a 833e
000000c0: 590f 623d 61d8 bcbe 8d74 78be e404 193f
000000d0: 1cf8 5a3e 6c2a 2f3f 6d5b 2bbb 3061 1bbe
000000e0: db75 c5bd 8a81 883a e30d 8bbd 3942 723e
000000f0: 351d e93e ca49 013e e7ce 133f 1142 e83e
00000100: d38d 043f b01b 983e 7c8b 9dbe 68f1 203f
00000110: 860f 37bf afa6 053e b293 363e a40b 9b3e
00000120: 596a b0bd 2a26 85bc 6785 19be bbdc 043e
00000130: c80a 963e d837 aebd 40bb 9f3d 49b1 263e
00000140: 0c2d 943c 784f 1c3d 7560 7cbe 7fdb 0a3d
00000150: 4d8f 3fbd 4640 8bbe 6063 913d c9a4 7fbe
00000160: b685 3b3e b1d3 633d d633 45bd c2e5 733e
00000170: b6ff 48bd 411e 35be ae65 7b3d 779a 5cbd
0.15622018 -0.23199415 -0.07545694 -0.4249204 0.046850227 0.13371347 -0.6435549 0.2201686
0.04147202 0.37603268 0.14318019 0.19683187 0.23751654 0.25844747 0.29820976 0.39137194
-0.09239958 -0.29471695 0.13266145 0.22847301 0.24404474 -0.6036734 -0.286867 0.25393245
-0.59089416 0.16328634 0.14452279 0.16055794 -0.10241914 0.27680868 -0.5041858 0.10471019
0.15051901 -0.08785472 -0.44249487 0.0965816 -0.0054056114 -0.10637689 0.24498947 -0.11555675
-0.29646036 0.15527993 -0.17317028 -0.118327625 0.13027428 -0.55472606 -0.18089207 0.25691268
0.055190418 -0.36883834 -0.2426321 0.5977309 0.21383709 0.68424106 -0.0026147023 -0.15173793
-0.0964162 0.0010414582 -0.06789758 0.23658074 0.45530096 0.12625805 0.5773758 0.45362905
0.51778907 0.29708624 -0.3077048 0.62868357 -0.7150806 0.13051866 0.17829779 0.3028232
-0.08614034 -0.01625355 -0.14992295 0.12974827 0.293051 -0.08506745 0.07799387 0.16278566
0.018087886 0.038161725 -0.2464617 0.033900734 -0.04676752 -0.27197474 0.070990324 -0.24965204
0.18312725 0.055621807 -0.048145138 0.23818114 -0.04907199 -0.17687322 0.061376266 -0.053858247

feature_net.linear_layer_0.bias f4 [32]
00000000: 6b7a 51be 90b8 27bd 0e8a c3bd 2ff8 063f
00000010: ba9c 3ebd 2eac 423e e35d 06bd 1262 c4bd
00000020: a155 bebd 3d40 753d 0056 1a3d 598d 7fbd
00000030: 104d 7b3d 0335 1ebe e259 8fbd 9ca5 2e3d
00000040: 3043 e0bd 8731 9b3e bb54 cabd d981 2abe
00000050: 3765 4f3e 8940 253f 6de5 6dbe 1825 d53e
00000060: a442 6fbd 1217 c4bd af20 13bd 9373 18be
00000070: 5889 efbd 746f 2dbe 50e9 e2bd bcba 6bbd
-0.20456855 -0.040947497 -0.09547816 0.5272245 -0.046536185 0.19010994 -0.03280438 -0.09589018
-0.09293676 0.059875716 0.037679672 -0.06239066 0.06135279 -0.1544991 -0.06999566 0.042638406
-0.10950315 0.30311224 -0.09879442 -0.16651095 0.20253454 0.645516 -0.2323205 0.41629863
-0.058413163 -0.09574713 -0.03591984 -0.14887838 -0.11696118 -0.16937047 -0.11079657 -0.05755113

feature_net.layer_norm_0.weight f4 [32]
00000000: 96f6 493f f6e7 4d3f d34d 573f 9f6d c83f
00000010: 81c6 733f eb00 9f3f 397c 793f f8fb 6b3f
00000020: 68f3 683f c57e 723f 8c3e 683f 1028 643f
00000030: e642 893f f466 643f 086b 603f 9e7f 853f
00000040: a06f 693f f8d5 a93f 294d 723f aa28 4f3f
00000050: 0bb5 8e3f 4694 bd3f d665 453f ac43 973f
00000060: d957 713f 1ef5 403f da06 4b3f d456 623f
00000070: bc42 663f 635a 513f af5e 513f 00c5 6d3f
0.78891885 0.8043207 0.84103125 1.5658454 0.9522477 1.2422155 0.97455174 0.9218135
0.9099641 0.94724685 0.9072044 0.8912363 1.0723541 0.89219594 0.87663317 1.0429571
0.9118595 1.3268423 0.9464899 0.80921423 1.1149 1.4810874 0.77108514 1.1817527
0.9427467 0.7537402 0.7930733 0.8841374 0.8994558 0.81778544 0.817851 0.92878723

feature_net.layer_norm_0.bias f4 [32]
00000000: fd43 6bbe 6bbb 02be e854 dfbd a9ff e73e
00000010: 7b1b 06bd 6fb3 9f3d 21f8 65bb 7952 a8bd
00000020: 33fd ccbd f2f8 7bbd 6aa7 fdbd 6d78 e2bd
00000030: 9286 c03d bfd9 03be 0aa9 f7bd bc59 1ebe
00000040: fa1f bfbd 52d4 8b3e a731 cfbd 8b12 4ebe
00000050: 2e32 353e 441b db3e 317c a3be 6ebd 7c3e
00000060: c89a 97bd 7537 2ebe 2feb 04be 367a ffbd
00000070: 37d3 c5bd 4a63 33be 8712 43be 913d afbd
-0.22975154 -0.12766807 -0.109048665 0.4531224 -0.03274105 0.07797896 -0.0035090523 -0.082188554
-0.100092314 -0.06151671 -0.12385447 -0.11058126 0.09400667 -0.12876032 -0.120927885 -0.15463918
-0.09332271 0.27310425 -0.10116892 -0.20124261 0.17694923 0.4279424 -0.31930688 0.24681637
-0.07402569 -0.17013343 -0.1298034 -0.12474482 -0.09659427 -0.17518345 -0.19050036 -0.08556665

feature_net.linear_layer_1.weight f4 [32, 32]
00000000: 2e71 f7bd 6180 3abe 2ac4 0c3e 4612 c2be
00000010: 9c9d 67be 80bc 24bf e911 bfbc 9d20 273e
00000020: 926a cdbc bfe9 11bf fa69 bbbe 2f98 163e
00000030: 3240 c6be fc8f 163f 8069 9dbd b441 e5be
00000040: b761 5a3e 8594 bebe a9ad e4be 666e 88bd
00000050: d6d6 47be f103 76be fd79 62bd bc47 61bd
00000060: 155c b73d 5dc1 393d e1e1 703e f36c 4abd
00000070: 1805 52be 3987 b3be bf0a 993e 3c5a 60be
00000080: e23f 8bbe fad2 763e 6b21 cb3b de90 bfbe
00000090: 9191 a1be 5330 9e3e 5165 383e c419 ae3e
000000a0: 20a0 633d 2307 49be 06e9 b23e c378 813e
000000b0: e7b1 c3be f137 7e3e 75da b0bd 9102 3dbe
000000c0: b2b7 b0bd 5c59 a93e 9baf 0b3e 3ab2 00be
000000d0: 379a 9b3e c855 96bd 9c14 50be 5f1a 993d
000000e0: afde 9d3d c873 2abe 769b 07be f8a6 dcbc
000000f0: 3296 593e 38c3 80be f5bf ea3d 5db0 a73d
00000100: 9d14 a9be 4a89 8e3b 15b5 bdbd a365 8cbe
00000110: f42d 213d 08e3 a53e 6250 c23e f84f 5ebe
00000120: 9730 913e 3bb3 8dbe 808c 6cbe f165 2e3e
00000130: b8f6 96be 46f1 3abe 7eaa f5bd 69cd ff3c
00000140: 518b ba3e fd42 e7be ae97 fbbd 5512 3c3e
00000150: 7261 0e3e 44fb 17bf c18d f13d 470b 183e
00000160: ee67 843e c1c1 f9bc bc37 ecbd ef46 963c
00000170: 2eb4 00be a2db 893e 4ae0 333e f2be cd3e
00000180: 85ae e93c 1629 4c3d 9cd6 aa3e 2633 3c3f
00000190: 2a41 f43e a09b 913e 3a94 8ebc 17bf 8c3e
000001a0: 2207 303e fecf 353f e39a c0be 54d0 94be
000001b0: 1651 7d3d 21a5 37be bcd9 91bd 1e9d be3b
000001c0: 5389 8b3e e039 da3e c00c e1be 9b82 dfbe
000001d0: be59 373f b9e3 6e3f 8fa9 843d 1336 433f
000001e0: c3b1 9dbe 153e bc3e 91ac a9bb 0eb4 fc3d
000001f0: bf00 8a3d 0407 553e 937d 0ebe 360c 493e
00000200: 90c9 e03e 2d8b 223e 670e 58be 1401 10bf
00000210: 8b0a 07be 5a89 c8be 4276 37be a385 4fbe
00000220: 2110 fb3e 224c 71bd 5b97 0e3f 6348 d4bd
00000230: 93ca 963b 13ad 5d3d 724f 783e 4f89 59be
00000240: 1e0e c13c 7dc5 e4be 6092 5ebe bf69 85bd
00000250: 6551 783d 20f4 95be d3f7 03bf a28b 4e3e
00000260: 4522 373e 4f7a 4fbe bd3c e7bd cc20 6e3e
00000270: 22e2 0a3e 69c6 a3be a16d a1be 493a e53d
00000280: a8d5 6e3e c119 23bf cfdb c5be eb0a 953d
00000290: afe6 8bbe 5dab ac3d fe50 463e cc70 29be
000002a0: 8bc4 1abe d2d4 b4be 2943 7c3d 20f8 253e
000002b0: 4803 2abf 8769 9abc 8f85 8abe ae33 fbbd
000002c0: 1a49 413e 0e5b 8fbe 927f fdbe ee5a 02bf
000002d0: 8a9a 88be 1c54 14bf 8a6a b7be b4b7 a2bd
000002e0: 7f78 4ebc a900 ecbb 93bf 03bf 78c5 d9bc
000002f0: ab23 143e faef 063e ecbf 94be f416 10bf
00000300: ba41 303d bb33 9c3e e1ce af3e 9754 0bbf
00000310: 0ded 26bd e08f 14bf bb5c d13c e401 a6be
00000320: a6d0 81be 15dc 2abe 60a6 a3be 6424 9a3e
00000330: 5d45 e4be cb95 ce3e 28ca 993e 6b05 183e
00000340: 6122 203d d39f 81be d2e6 8a3e b9b0 aabe
00000350: 2c8f 59bd b00d 92be f27f 72bd e197 343e
00000360: 34c4 22be 94aa 933e 804b a2bd eec2 393e
00000370: ad9e e53d 02a6 07bd c8e6 1bbf 0398 41be
00000380: 1b82 1dbe 099b f1b8 aacf c83e 5692 48be
00000390: 8000 a2be 68fb 6fbf 93af 4e3e a9f5 b1be
000003a0: 3372 c63e ad5f 63bc 4b09 db3b f4ee 5ebe
000003b0: 7fae 1ebe 1339 8f3e 2106 6cbe ba2d c43e
000003c0: 7e42 3ebe 7af6 47bd 5acf cdbe b203 0ebd
000003d0: 1df2 b4be b293 0fbf 5d41 adbe 5c1b ebbc
000003e0: 5b38 09bd 429b 8e3a 9afb f6be db5b 013e
000003f0: bd74 a6be fc6e 68bd 2003 a03d 9434 963e
-0.12082134 -0.18213035 0.13746706 -0.37904567 -0.22618717 -0.6435013 -0.02332397 0.16321035
-0.02507523 -0.56997293 -0.3660429 0.14706491 -0.38720852 0.5881345 -0.07686138 -0.4477669
0.21326338 -0.37222686 -0.44663742 -0.06661682 -0.19515547 -0.24024941 -0.05529212 -0.05500005
0.0895311 0.04535042 0.23523666 -0.04942031 -0.20509756 -0.35064104 0.2989101 -0.21909422
-0.27197176 0.24103919 0.006199052 -0.37415212 -0.3155637 0.30896243 0.18007399 0.34004033
0.05557263 -0.19631629 0.34943408 0.25287446 -0.38221666 0.24826027 -0.08635417 -0.1845801
-0.08628787 0.33075988 0.13641207 -0.12567988 0.30391094 -0.0734058 -0.20320362 0.07475733
0.07708489 -0.1664573 -0.13242897 -0.026935086 0.21248701 -0.2514894 0.11462394 0.081879355
-0.3302354 0.004349862 -0.09263054 -0.27421293 0.039350465 0.32399774 0.37951952 -0.21710193
0.28357384 -0.27675804 -0.23100471 0.17031075 -0.29485106 -0.18256101 -0.119954094 0.031225877
0.36434415 -0.45168296 -0.1228479 0.18366368 0.1390436 -0.59367776 0.117946155 0.14848052
0.25860542 -0.030487897 -0.11534068 0.01834437 -0.12568733 0.2692538 0.17566028 0.40184742
0.0285256 0.04984387 0.3336686 0.73515546 0.47705966 0.28439045 -0.017404664 0.2748954
0.17190221 0.71020496 -0.3761817 -0.29065192 0.061844908 -0.17934085 -0.07121608 0.0058170697
0.27253208 0.4262228 -0.4395504 -0.43654332 0.7162131 0.9331623 0.06477653 0.76254386
-0.30799684 0.36766115 -0.005178042 0.1233903 0.067384236 0.20803457 -0.1391509 0.19633564
0.4390378 0.15873404 -0.21099244 -0.56251645 -0.13187616 -0.3916729 -0.17916206 -0.20265822
0.49035743 -0.058910497 0.556997 -0.10365369 0.0046017854 0.054120135 0.24249056 -0.21243785
0.023566302 -0.44681922 -0.21735525 -0.0651431 0.0606245 -0.29287815 -0.51550025 0.20170453
0.17884167 -0.20261501 -0.11290882 0.23254699 0.13562825 -0.31987312 -0.31528953 0.11192758
0.23323691 -0.6371117 -0.38644263 0.07277473 -0.27324435 0.084311225 0.19366834 -0.16546935
-0.15114038 -0.3531862 0.061587486 0.16207933 -0.66411257 -0.018849147 -0.27055022 -0.122657165
0.18875542 -0.27999157 -0.4951139 -0.5092 -0.26680404 -0.5794084 -0.3582347 -0.07945195
-0.012601971 -0.007202227 -0.51464194 -0.026583418 0.14466731 0.13177481 -0.29052675 -0.56285024
0.04303143 0.30508217 0.34337524 -0.5442595 -0.040753413 -0.58032036 0.025556913 -0.32423317
-0.253545 -0.16685517 -0.31962872 0.3010589 -0.4458417 0.40348658 0.30037045 0.14845817
0.039095286 -0.2531725 0.27129227 -0.33337954 -0.053115055 -0.28526068 -0.05920405 0.17636062
-0.15895158 0.28841078 -0.07924557 0.18140766 0.11211906 -0.0331173 -0.6089902 -0.18905644
-0.15381663 -0.00011520653 0.39220935 -0.19587073 -0.31641006 -0.9374299 0.20184164 -0.34757736
0.38759002 -0.013877791 0.0066844574 -0.21770841 -0.15496252 0.27973232 -0.23049213 0.38316137
-0.18580052 -0.048819043 -0.4019726 -0.034671493 -0.35340968 -0.5608474 -0.3383893 -0.02869957
-0.03350101 0.0010880011 -0.48238832 0.12632696 -0.3251094 -0.056746468 0.07813096 0.2933699

feature_net.linear_layer_1.bias f4 [32]
00000000: eed9 0abe a4f1 56bd af48 44be 81f7 af3e
00000010: 9fe2 01be 492c 78be 4796 45be 8a1f 373d
00000020: fbb0 84bd 4354 05bf 3241 b1be bc83 573e
00000030: d5ec 22be 8dea 35bd 5be7 c9be 730d c3be
00000040: 87a3 48be 0602 333d d063 d9be d04e 003f
00000050: d955 293e 19cf b3bd 60dc 5a3d 3ec4 38be
00000060: 7c88 aabd f4eb d23e bc5b 66bd 532b 8a3e
00000070: 87c7 023f 781e a0bc 171d 0ebf d094 ee3d
-0.13559696 -0.05247654 -0.19168352 0.34368518 -0.12684105 -0.24235643 -0.19295608 0.044707812
-0.06479069 -0.520817 -0.34620053 0.21046346 -0.15910657 -0.04441314 -0.39434323 -0.38096198
-0.1959363 0.0437031 -0.42458963 0.5012026 0.16536655 -0.08779735 0.053432822 -0.1804361
-0.083268136 0.41195643 -0.05623983 0.2698618 0.51085705 -0.019545779 -0.5551314 0.116494775

feature_net.layer_norm_1.weight f4 [32]
00000000: dcf5 6a3f cc1a 963f d7b7 883f ef05 cc3f
00000010: 5f4d 5d3f c813 613f 7b8e 503f a820 963f
00000020: 1a1e 443f 4093 6e3f 7cdf 683f f657 b33f
00000030: 9347 573f 0000 803f 6630 4a3f 8bb0 553f
00000040: fce8 9c3f 0000 803f a7a9 143f 44a9 d43f
00000050: 513b a63f 966d 8b3f 9040 a23f 3e9d 8b3f
00000060: 6987 7a3f 2565 a33f e480 953f 5e7a b03f
00000070: 74fb de3f 0b1f 8e3f 7c7c 6c3f 352a ab3f
0.917814 1.1726928 1.0681103 1.5939311 0.86446184 0.8792081 0.8146741 1.1728716
0.7660843 0.93193436 0.9096601 1.4011219 0.8409359 1.0 0.789801 0.8347251
1.2258601 1.0 0.5807137 1.6614156 1.2986852 1.0892818 1.2675953 1.0907362
0.9786287 1.2765242 1.1679959 1.3787344 1.7420487 1.1103224 0.9237745 1.3372256

feature_net.layer_norm_1.bias f4 [32]
00000000: 2096 94bd 3ccf 993e ae75 b03d 6c04 143f
00000010: 4d65 adbd cab6 fcbd 2fda 4bbe 7418 d63d
00000020: 0eda 3ebe 7dc7 acbd d387 c5bd e936 e43e
00000030: 4164 a1bd 0000 0000 47fb 49be 222f 3abe
00000040: 91dd 253e 0000 0000 b449 93be cc8b 183f
00000050: a75b c83e dfa4 44bd 63c5 543d 5471 a83c
00000060: b706 ccbc fe2f bf3e e793 083e b26f bc3e
00000070: b058 523f fe35 fe3d d1e8 20be 31dc ec3e
-0.072551966 0.3004092 0.086161956 0.5781925 -0.08466587 -0.12339552 -0.19907449 0.10453883
-0.18637869 -0.08436487 -0.09645047 0.44573143 -0.0788045 0.0 -0.19724761 -0.18182042
0.16197802 0.0 -0.2876717 0.59588313 0.39132425 -0.048008796 0.051946055 0.020561852
-0.024905546 0.37341303 0.1333767 0.36803967 0.82166576 0.12412642 -0.15713812 0.46261743
