otk/AgileRL-MATD3/simple_speaker_listener_v4/result/20240102-0837/MATD3_trained_agent_0040000.pt (torch, 683738 bytes, 224 tensors)

feature_net.linear_layer_0.weight f4 [32, 3]
0	0x3e1ff7ed	0.1562192
1	0xbe6d8fa6	-0.23199329
2	0xbd9a88d9	-0.07545633
3	0xbed98f11	-0.42491964
4	0x3d3fe658	0.046850532
5	0x3e08ec37	0.13371359
6	0xbf24bfa6	-0.6435493
7	0x3e617413	0.22016935
8	0x3d29decb	0.041472238
9	0x3ec08790	0.37603426
10	0x3e129dff	0.14318083
11	0x3e498e61	0.1968322
12	0x3e733767	0.23751603
13	0x3e8452da	0.2584446
14	0x3e98aecb	0.29820856
15	0x3ec861e1	0.39137176
16	0xbdbd3bfd	-0.092399575
17	0xbe96e547	-0.294718
18	0x3e07d863	0.13266139
19	0x3e69f4b0	0.22847247
20	0x3e79e6c3	0.24404435
21	0xbf1a8a09	-0.60366875
22	0xbe92e003	-0.28686532
23	0x3e82037f	0.25393292
24	0xbf1744aa	-0.5908915
25	0x3e273493	0.16328649
26	0x3e13fdd0	0.1445229
27	0x3e246984	0.16055876
28	0xbdd1c177	-0.102419786
29	0x3e8db99d	0.27680674
30	0xbf01126c	-0.50418735
31	0x3dd6729e	0.1047108
32	0x3e1a21c7	0.15051948
33	0xbdb3ecdc	-0.08785412
34	0xbee28e49	-0.4424918
35	0x3dc5cccb	0.09658202
36	0xbbb1218d	-0.005405611
37	0xbdd9dc67	-0.106377415
38	0x3e7ade61	0.24498893
39	0xbdeca8a3	-0.115556024
40	0xbe97c995	-0.29645982
41	0x3e1f01cb	0.15528028
42	0xbe31532d	-0.17316885
43	0xbdf2559a	-0.118327335
44	0x3e0566c0	0.13027477
45	0xbf0e02d8	-0.5547309
46	0xbe393b5c	-0.1808905
47	0x3e838a35	0.2569138
48	0x3d620f5f	0.05519044
49	0xbebcd801	-0.36883548
50	0xbe787425	-0.24263056
51	0x3f19052d	0.5977352
52	0x3e5af822	0.21383718
53	0x3f2f2a1a	0.68423617
54	0xbb2b5ba4	-0.0026147151
55	0xbe1b618a	-0.15173927
56	0xbdc57617	-0.096416645
57	0x3a888168	0.0010414543
58	0xbd8b0dfd	-0.067897774
59	0x3e724200	0.2365799
60	0x3ee91d40	0.45530128
61	0x3e014a04	0.12625891
62	0x3f13ced3	0.57737464
63	0x3ee84229	0.45362976
64	0x3f048df8	0.5177913
65	0x3e981be5	0.29708782
66	0xbe9d8ba8	-0.30770612
67	0x3f20f11c	0.62867904
68	0xbf370f85	-0.71508056
69	0x3e05a6f5	0.1305197
70	0x3e369404	0.17829901
71	0x3e9b0bea	0.30282527
72	0xbdb06a1d	-0.086139895
73	0xbc8525d6	-0.016253393
74	0xbe19855b	-0.14992277
75	0x3e04dcdc	0.12974876
76	0x3e960b1d	0.29305354
77	0xbdae37c5	-0.08506731
78	0x3d9fbb64	0.07799414
79	0x3e26b155	0.16278584
80	0x3c942d51	0.018088015
81	0x3d1c4fa8	0.038161904
82	0xbe7c6025	-0.24646051
83	0x3d0adbba	0.033900954
84	0xbd3f8f37	-0.04676744
85	0xbe8b4012	-0.2719732
86	0x3d916388	0.07099062
87	0xbe7fa48a	-0.2496511
88	0x3e3b85d5	0.18312772
89	0x3d63d3e0	0.05562198
90	0xbd453369	-0.04814473
91	0x3e73e5f3	0.23818187
92	0xbd48ffa3	-0.04907192
93	0xbe351dda	-0.17687169
94	0x3d7b65c9	0.061376367
95	0xbd5c9a23	-0.053857934

feature_net.linear_layer_0.bias f4 [32]
0	0xbe517a2f	-0.20456766
1	0xbd27b868	-0.040947348
2	0xbdc389b9	-0.09547753
3	0x3f06f841	0.52722555
4	0xbd3e9cd6	-0.04653629
5	0x3e42abce	0.19010851
6	0xbd065ddb	-0.03280435
7	0xbdc461ba	-0.09588952
8	0xbdbe5585	-0.09293655
9	0x3d753ffa	0.059875466
10	0x3d1a5656	0.037679993
11	0xbd7f8cf2	-0.062390275
12	0x3d7b4c9e	0.061352365
13	0xbe1e349b	-0.15449755
14	0xbd8f59c1	-0.06999541
15	0x3d2ea564	0.042638198
16	0xbde04318	-0.10950297
17	0x3e9b311e	0.3031091
18	0xbdca550f	-0.09879505
19	0xbe2a81eb	-0.16651122
20	0x3e4f658b	0.2025358
21	0x3f25408b	0.6455161
22	0xbe6de5a1	-0.23232128
23	0x3ed52543	0.4162999
24	0xbd6f4288	-0.05841306
25	0xbdc416fc	-0.095746964
26	0xbd132077	-0.035919633
27	0xbe187389	-0.14887823
28	0xbdef8949	-0.11696107
29	0xbe2d6f57	-0.16937004
30	0xbde2e8eb	-0.11079582
31	0xbd6bba4f	-0.057550725

feature_net.layer_norm_0.weight f4 [32]
0	0x3f49f640	0.7889137
1	0x3f4de7e4	0.8043196
2	0x3f574da9	0.84102875
3	0x3fc86db8	1.5658484
4	0x3f73c617	0.95224136
5	0x3f9f00de	1.242214
6	0x3f797c26	0.9745506
7	0x3f6bfbac	0.92180896
8	0x3f68f353	0.90996283
9	0x3f727e8a	0.94724333
10	0x3f683e26	0.9071983
11	0x3f6427c1	0.8912316
12	0x3f894285	1.0723425
13	0x3f6466a4	0.8921912
14	0x3f606aaa	0.87662756
15	0x3f857f8b	1.0429548
16	0x3f696f90	0.91185856
17	0x3fa9d5ba	1.3268349
18	0x3f724d06	0.9464878
19	0x3f4f2883	0.8092119
20	0x3f8eb536	1.1149051
21	0x3fbd948f	1.4810961
22	0x3f4565b8	0.77108335
23	0x3f9743e7	1.1817597
24	0x3f715796	0.9427427
25	0x3f40f4fd	0.7537382
26	0x3f4b069d	0.79306966
27	0x3f625685	0.8841327
28	0x3f664253	0.8994495
29	0x3f515a32	0.8177825
30	0x3f515e45	0.8178447
31	0x3f6dc4ed	0.9287861

feature_net.layer_norm_0.bias f4 [32]
0	0xbe6b442f	-0.22975229
1	0xbe02bb87	-0.12766849
2	0xbddf5537	-0.10904925
3	0x3ee7ffae	0.45312256
4	0xbd061bd1	-0.03274137
5	0x3d9fb330	0.07797849
6	0xbb65f822	-0.0035090526
7	0xbda852c3	-0.082189105
8	0xbdccfd4a	-0.100092486
9	0xbd7bf946	-0.061517023
10	0xbdfda765	-0.123854436
11	0xbde278ba	-0.11058183
12	0x3dc0867e	0.09400652
13	0xbe03d9d6	-0.12876067
14	0xbdf7a92b	-0.12092813
15	0xbe1e59ff	-0.15464018
16	0xbdbf2003	-0.093322776
17	0x3e8bd3fb	0.27310166
18	0xbdcf31f1	-0.101169474
19	0xbe4e12d6	-0.20124373
20	0x3e353233	0.1769493
21	0x3edb1b8d	0.42794457
22	0xbea37c6c	-0.31930864
23	0x3e7cbd93	0.24681692
24	0xbd979ac9	-0.0740257
25	0xbe2e37a6	-0.17013416
26	0xbe04eb54	-0.12980396
27	0xbdff7a31	-0.12474478
28	0xbdc5d377	-0.09659474
29	0xbe336357	-0.17518364
30	0xbe4312d3	-0.1905015
31	0xbdaf3d96	-0.085566685

feature_net.linear_layer_1.weight f4 [32, 32]
0	0xbdf77163	-0.12082174
1	0xbe3a8052	-0.18213013
2	0x3e0cc40c	0.13746661
3	0xbec211dd	-0.37904254
4	0xbe679d4f	-0.22618602
5	0xbf24bc40	-0.64349747
6	0xbcbf1183	-0.02332378
7	0x3e2720e6	0.16321144
8	0xbccd6a64	-0.025075145
9	0xbf11e99b	-0.5699708
10	0xbebb6a44	-0.36604512
11	0x3e1697f8	0.14706409
12	0xbec64011	-0.38720754
13	0x3f168ffa	0.5881344
14	0xbd9d6981	-0.07686139
15	0xbee54146	-0.44776362
16	0x3e5a6193	0.21326284
17	0xbebe9478	-0.37222648
18	0xbee4adac	-0.4466375
19	0xbd886e40	-0.066616535
20	0xbe47d6c7	-0.19515525
21	0xbe7603de	-0.24024913
22	0xbd627a0d	-0.055292178
23	0xbd61475d	-0.054999698
24	0x3db75bc6	0.08953051
25	0x3d39c10a	0.045350112
26	0x3e70e1cc	0.23523635
27	0xbd4a6cee	-0.04942029
28	0xbe52053c	-0.2050981
29	0xbeb386ee	-0.3506388
30	0x3e990a7b	0.29890808
31	0xbe6059cf	-0.2190926
32	0xbe8b3fa7	-0.27197
33	0x3e76d34b	0.2410404
34	0x3bcb2186	0.0061990647
35	0xbebf90f1	-0.3741527
36	0xbea191aa	-0.31556445
37	0x3e9e3032	0.30896145
38	0x3e3864eb	0.18007247
39	0x3eae19a2	0.3400393
40	0x3d639fe6	0.055572413
41	0xbe490738	-0.1963166
42	0x3eb2e8fc	0.34943378
43	0x3e817916	0.25287694
44	0xbec3b1ef	-0.3822169
45	0x3e7e37a2	0.2482591
46	0xbdb0da2c	-0.08635363
47	0xbe3d0270	-0.18457961
48	0xbdb0b7e2	-0.08628823
49	0x3ea95936	0.33075875
50	0x3e0bafab	0.13641231
51	0xbe00b24f	-0.1256802
52	0x3e9b99ff	0.30390927
53	0xbd9655f2	-0.073406115
54	0xbe5014c4	-0.20320421
55	0x3d991a24	0.07475689
56	0x3d9dde59	0.07708425
57	0xbe2a737c	-0.16645616
58	0xbe079b55	-0.13242848
59	0xbcdca730	-0.02693519
60	0x3e5995c3	0.21248536
61	0xbe80c369	-0.25149086
62	0x3deabfff	0.114624016
63	0x3da7b093	0.08187976
64	0xbea914ce	-0.33023685
65	0x3b8e88e6	0.0043498157
66	0xbdbdb4b3	-0.09262981
67	0xbe8c65c7	-0.274214
68	0x3d212dc3	0.039350282
69	0x3ea5e2bd	0.3239955
70	0x3ec2500f	0.37951705
71	0xbe5e5036	-0.21710286
72	0x3e913062	0.28357226
73	0xbe8db351	-0.2767587
74	0xbe6c8c55	-0.23100407
75	0x3e2e6631	0.1703117
76	0xbe96f6e6	-0.29485244
77	0xbe3af184	-0.18256193
78	0xbdf5aac2	-0.1199546
79	0x3cffccfb	0.031225672
80	0x3eba8b08	0.36434197
81	0xbee74321	-0.45168403
82	0xbdfb97b9	-0.12284798
83	0x3e3c1237	0.18366323
84	0x3e0e614a	0.139043
85	0xbf17fb98	-0.59368277
86	0x3df18d91	0.1179458
87	0x3e180b09	0.1484796
88	0x3e846797	0.25860283
89	0xbcf9c167	-0.03048773
90	0xbdec3787	-0.115340285
91	0x3c9646a9	0.01834424
92	0xbe00b461	-0.12568809
93	0x3e89db40	0.26925087
94	0x3e33e08c	0.17566127
95	0x3ecdbea3	0.40184507
96	0x3ce9aea2	0.028525654
97	0x3d4c28ec	0.049843714
98	0x3eaad649	0.33366612
99	0x3f3c3335	0.73515636
100	0x3ef4411e	0.4770593
101	0x3e919bfa	0.28439313
102	0xbc8e9408	-0.017404571
103	0x3e8cbf36	0.27489632
104	0x3e300756	0.17190298
105	0x3f35d000	0.7102051
106	0xbec09b1b	-0.37618336
107	0xbe94d09f	-0.29065415
108	0x3d7d511a	0.061844923
109	0xbe37a4ee	-0.1793401
110	0xbd91da11	-0.07121671
111	0x3bbe9d1b	0.0058170683
112	0x3e8b8968	0.2725327
113	0x3eda3a28	0.42622495
114	0xbee10ca0	-0.43954945
115	0xbedf8247	-0.4365408
116	0x3f3759f1	0.71621615
117	0x3f6ee3b2	0.93316185
118	0x3d84a999	0.06477661
119	0x3f433649	0.7625471
120	0xbe9db175	-0.3079945
121	0x3ebc3df1	0.36766008
122	0xbba9ac90	-0.0051780418
123	0x3dfcb400	0.1233902
124	0x3d8a00ca	0.06738432
125	0x3e550734	0.20803529
126	0xbe0e7ddc	-0.13915199
127	0x3e490bcb	0.19633405
128	0x3ee0c943	0.4390355
129	0x3e228b2b	0.15873401
130	0xbe580e36	-0.21099171
131	0xbf100148	-0.56251955
132	0xbe070acb	-0.13187711
133	0xbec88944	-0.39167225
134	0xbe37763f	-0.17916201
135	0xbe4f85af	-0.2026584
136	0x3efb0fd6	0.4903552
137	0xbd714c28	-0.05891052
138	0x3f0e9782	0.5569993
139	0xbdd44818	-0.10365313
140	0x3b96ca62	0.0046017626
141	0x3d5dace4	0.05411996
142	0x3e784f7a	0.24249068
143	0xbe598926	-0.21243724
144	0x3cc10dd9	0.023566173
145	0xbee4c599	-0.44682005
146	0xbe5e9277	-0.2173556
147	0xbd856a18	-0.065143764
148	0x3d78511b	0.060624223
149	0xbe95f464	-0.29288018
150	0xbf03f7d7	-0.5155005
151	0x3e4e8b6a	0.2017037
152	0x3e3721e5	0.17884023
153	0xbe4f7aa4	-0.20261627
154	0xbde73cf1	-0.112909205
155	0x3e6e20a4	0.23254639
156	0x3e0ae1ee	0.13562748
157	0xbea3c68c	-0.31987417
158	0xbea16ddd	-0.31529132
159	0x3de53a43	0.11192753
160	0x3e6ed598	0.23323667
161	0xbf2319b9	-0.63711125
162	0xbec5dbe6	-0.38644332
163	0x3d950ad9	0.0727746
164	0xbe8be6e4	-0.27324593
165	0x3dacab9a	0.08431168
166	0x3e4650ad	0.19366713
167	0xbe2970a9	-0.16546883
168	0xbe1ac46b	-0.1511399
169	0xbeb4d4cb	-0.35318598
170	0x3d7c42e2	0.061587222
171	0x3e25f7ee	0.16207859
172	0xbf2a0323	-0.66411036
173	0xbc9a691c	-0.018848948
174	0xbe8a859c	-0.2705506
175	0xbdfb33d0	-0.12265742
176	0x3e4148f2	0.18875483
177	0xbe8f5abf	-0.2799892
178	0xbefd7f89	-0.49511364
179	0xbf025abe	-0.5091971
180	0xbe889a23	-0.26680097
181	0xbf145428	-0.5794091
182	0xbeb76ad6	-0.35823697
183	0xbda2b758	-0.07945126
184	0xbc4e78a1	-0.012602002
185	0xbbec00c5	-0.00720224
186	0xbf03bf8f	-0.5146417
187	0xbcd9c58b	-0.026583454
188	0x3e142344	0.14466578
189	0x3e06ef9b	0.1317734
190	0xbe94bfe3	-0.29052648
191	0xbf10170c	-0.56285167
192	0x3d3041ec	0.043031618
193	0x3e9c3392	0.30508095
194	0x3eafcef3	0.34337577
195	0xbf0b54a5	-0.5442603
196	0xbd26ed1b	-0.040753465
197	0xbf148fdb	-0.58032006
198	0x3cd15c87	0.025556816
199	0xbea60180	-0.3242302
200	0xbe81d068	-0.25354314
201	0xbe2adc37	-0.16685568
202	0xbea3a625	-0.31962696
203	0x3e9a24bd	0.30106154
204	0xbee44599	-0.4458435
205	0x3ece95f7	0.4034879
206	0x3e99ca67	0.30037233
207	0x3e180514	0.14845687
208	0x3d20226a	0.03909532
209	0xbe819ffd	-0.25317374
210	0x3e8ae691	0.27129033
211	0xbeaab0df	-0.33338067
212	0xbd598f75	-0.053115327
213	0xbe920dc0	-0.28526115
214	0xbd727ffa	-0.05920408
215	0x3e349773	0.17635898
216	0xbe22c3cb	-0.15895002
217	0x3e93aada	0.28841287
218	0xbda24b31	-0.07924498
219	0x3e39c2f4	0.18140775
220	0x3de59eec	0.112119526
221	0xbd07a5b7	-0.033117022
222	0xbf1be6c1	-0.6089898
223	0xbe41981e	-0.18905684
224	0xbe1d81f2	-0.15381601
225	0xb8f19aab	-0.00011520585
226	0x3ec8cf86	0.39220828
227	0xbe48922b	-0.19587009
228	0xbea20065	-0.31640926
229	0xbf6ffb1d	-0.93742543
230	0x3e4eafe3	0.20184283
231	0xbeb1f581	-0.34757617
232	0x3ec67278	0.38759208
233	0xbc635ff6	-0.013877859
234	0x3bdb08fb	0.00668442
235	0xbe5eef0d	-0.21770878
236	0xbe1eae51	-0.15496184
237	0x3e8f392c	0.27973306
238	0xbe6c062d	-0.23049231
239	0x3ec42dab	0.38316092
240	0xbe3e42d0	-0.18580174
241	0xbd47f62a	-0.048818745
242	0xbecdceff	-0.40196988
243	0xbd0e0363	-0.0346712
244	0xbeb4f1c5	-0.35340706
245	0xbf0f9382	-0.56084454
246	0xbead4174	-0.33839
247	0xbceb1b20	-0.028699458
248	0xbd0938ac	-0.033501312
249	0x3a8e9af8	0.0010879925
250	0xbef6fbeb	-0.48239073
251	0x3e015bf5	0.12632735
252	0xbea674c8	-0.32510972
253	0xbd686ec8	-0.056746274
254	0x3da002fd	0.0781307
255	0x3e9634d2	0.29337174

feature_net.linear_layer_1.bias f4 [32]
0	0xbe0ad99f	-0.13559578
1	0xbd56f1fa	-0.05247686
2	0xbe4448b2	-0.19168356
3	0x3eaff7d3	0.34368762
4	0xbe01e2c0	-0.12684155
5	0xbe782bda	-0.24235478
6	0xbe45966f	-0.19295667
7	0x3d371fb7	0.04470798
8	0xbd84b118	-0.064790905
9	0xbf05549c	-0.5208223
10	0xbeb1415f	-0.34620187
11	0x3e5783f6	0.21046433
12	0xbe22ecfa	-0.15910712
13	0xbd35ea24	-0.044412747
14	0xbec9e7a5	-0.39434543
15	0xbec30dc3	-0.38096437
16	0xbe48a396	-0.19593653
17	0x3d330235	0.043703277
18	0xbed963c7	-0.42458937
19	0x3f004efa	0.5012051
20	0x3e2955d0	0.16536641
21	0xbdb3ced1	-0.087796815
22	0x3d5adcb3	0.05343313
23	0xbe38c47d	-0.18043704
24	0xbdaa8835	-0.08326761
25	0x3ed2ec08	0.41195703
26	0xbd665b9c	-0.05623971
27	0x3e8a2b6c	0.26986253
28	0x3f02c7db	0.51086205
29	0xbca01e5d	-0.019545728
30	0xbf0e1d15	-0.55513126
31	0x3dee94b0	0.11649454

feature_net.layer_norm_1.weight f4 [32]
0	0x3f6af578	0.91780806
1	0x3f961afd	1.1726986
2	0x3f88b7ef	1.0681132
3	0x3fcc060a	1.5939343
4	0x3f5d4d23	0.86445826
5	0x3f6113a5	0.879206
6	0x3f508e3e	0.81467044
7	0x3f9620be	1.1728742
8	0x3f441dba	0.7660786
9	0x3f6e930f	0.93193144
10	0x3f68df0f	0.9096536
11	0x3fb357f3	1.4011215
12	0x3f574757	0.8409323
13	0x3f800000	1.0
14	0x3f4a3049	0.7897993
15	0x3f55b074	0.8347237
16	0x3f9ce90d	1.2258621
17	0x3f800000	1.0
18	0x3f14a95a	0.5807091
19	0x3fd4a98e	1.6614244
20	0x3fa63b54	1.2986856
21	0x3f8b6d2c	1.0892692
22	0x3fa24066	1.2675903
23	0x3f8b9d19	1.0907317
24	0x3f7a86fb	0.97862214
25	0x3fa36529	1.2765247
26	0x3f9580f5	1.167998
27	0x3fb07a8c	1.3787398
28	0x3fdefb7b	1.7420496
29	0x3f8e1f59	1.1103317
30	0x3f6c7c62	0.92377293
31	0x3fab2a54	1.3372293

feature_net.layer_norm_1.bias f4 [32]
0	0xbd94962b	-0.07255205
1	0x3e99cf7c	0.3004111
2	0x3db075f6	0.08616249
3	0x3f140475	0.578193
4	0xbdad654b	-0.08466586
5	0xbdfcb6e2	-0.1233957
6	0xbe4bda78	-0.19907558
7	0x3dd6188f	0.10453903
8	0xbe3eda57	-0.18637978
9	0xbdacc7a9	-0.0843652
10	0xbdc587fa	-0.09645076
11	0x3ee43718	0.44573283
12	0xbda16494	-0.07880512
13	0x00000000	0.0
14	0xbe49fb7c	-0.1972484
15	0xbe3a2f39	-0.18182077
16	0x3e25dde1	0.16197921
17	0x00000000	0.0
18	0xbe9349ae	-0.2876715
19	0x3f188be4	0.59588456
20	0x3ec85be0	0.39132595
21	0xbd44a4ff	-0.048008915
22	0x3d54c54b	0.051945966
23	0x3ca870fc	0.020561688
24	0xbccc06f5	-0.024905661
25	0x3ebf3015	0.3734137
26	0x3e089406	0.13337716
27	0x3ebc6fc7	0.3680403
28	0x3f5258ed	0.8216694
29	0x3dfe362c	0.12412676
30	0xbe20e8c8	-0.15713799
31	0x3eecdc3d	0.46261778

feature_net.linear_layer_output.weight f4 [3, 32]
0	0xbe35a53f	-0.17738818
1	0x3f0f0e10	0.5588083
2	0x3f480df3	0.78146285
3	0x3f178ef8	0.5920253
4	0x3e7e21eb	0.24817626
5	0x3e373eea	0.17895094
6	0x3e348de3	0.1763225
7	0xbf035759	-0.51305157
8	0x3e5c6cd7	0.21525894
9	0xbcd5ff21	-0.026122632
10	0xbe40b30d	-0.18818302
11	0x3f686e7f	0.90793604
12	0x3f5ace26	0.8547081
13	0x3ed1baba	0.40962774
14	0xbcfcae66	-0.030844878
15	0x3dd75eee	0.10516153
16	0x3f78649a	0.97028506
17	0xbd9656db	-0.07340785
18	0xbc363547	-0.011121101
19	0x3f904bd5	1.1273142
20	0x3f2e5b7f	0.6810836
21	0xbed9837b	-0.42483124
22	0xbdffc355	-0.124884285
23	0xbe5067c3	-0.20352082
24	0x3d943b1e	0.07237838
25	0x3f4479e2	0.7674848
26	0x3edc12e8	0.42983174
27	0x3f085ed3	0.5326969
28	0x3f0d4f08	0.5519872
29	0xbead811d	-0.33887568
30	0x3ea48b8e	0.32137722
31	0x3eebe006	0.46069354
32	0xbe9d6e1c	-0.3074807
33	0x3f7a0db6	0.9767717
34	0x3eca0b7c	0.39461887
35	0x3f61b04c	0.8815963
36	0xbd25dae8	-0.04049197
37	0xbecbbd3d	-0.39792815
38	0x3ea4f37f	0.32217023
39	0xbdd2485e	-0.10267709
40	0x3ed093b3	0.40737686
41	0x3e74f9c2	0.239234
42	0x3d70f86d	0.058830667
43	0x3f7d2e8c	0.9889915
44	0x3f1de620	0.6167927
45	0x3e14971e	0.14510772
46	0x3f0f7337	0.5603518
47	0xbea757fe	-0.3268432
48	0x3f2aa233	0.66653746
49	0x3d05bb41	0.032649282
50	0xbca219ea	-0.019787747
51	0x3f100f4d	0.5627335
52	0x3eda8d21	0.42685798
53	0x3f169b95	0.5883115
54	0x3f756f71	0.9587317
55	0x3ea8d177	0.3297231
56	0x3eb3c735	0.3511292
57	0x3f0c1884	0.5472491
58	0x3f07837b	0.52935
59	0x3f04f364	0.51933885
60	0x3f872169	1.0557071
61	0xbd9e0e47	-0.07717567
62	0xbc937949	-0.01800217
63	0x3f529b9a	0.8226868
64	0x3ea76d59	0.32700613
65	0x3e9ee3ab	0.31033072
66	0x3d986684	0.07441428
67	0x3f6ad7cc	0.9173553
68	0xbd06544f	-0.032795247
69	0x3e9b33ef	0.3031306
70	0x3ebafb36	0.36519784
71	0x3da75eac	0.08172354
72	0x3cffe49f	0.031236945
73	0xbdb5e317	-0.088812046
74	0xbc6bfcc4	-0.014403526
75	0x3ee516fd	0.447441
76	0x39952b76	0.00028451876
77	0x3e833c13	0.2563177
78	0xbd878502	-0.06617166
79	0x3c4b9e8c	0.012427937
80	0x3f0d2e8b	0.55149144
81	0xbc76e7a1	-0.015069873
82	0x3d992992	0.07478632
83	0x3f1fc98d	0.6241692
84	0x3f0462df	0.51713365
85	0x3e88a6c4	0.26689732
86	0x3e65e93b	0.22452252
87	0x3e381578	0.1797694
88	0x3ef864fa	0.4851454
89	0x3f04d030	0.5188017
90	0x3f093ce8	0.5360856
91	0x3f06ce6f	0.5265874
92	0x3f3f24f8	0.74665785
93	0x3f9c2c1e	1.2200963
94	0x3f052dd5	0.5202306
95	0x3ef743fb	0.48294052

feature_net.linear_layer_output.bias f4 [3]
0	0x3ef3030c	0.47463262
1	0x3f60ebf4	0.87860036
2	0x3f049086	0.51783025

feature_net.linear_layer_0.weight f4 [32, 11]
0	0xbd78c823	-0.06073774
1	0xc02b66cc	-2.6781492
2	0xbf6d2967	-0.926413
3	0x3f05c7a4	0.5225775
4	0xbf6f9f2a	-0.9360224
5	0xc0701b16	-3.7516532
6	0xbf4ed6f6	-0.80796754
7	0x41337717	11.216575
8	0x405f2a9d	3.486976
9	0x4071ca7e	3.7779841
10	0x4024dbb9	2.5759108
11	0x40ac2d3d	5.3805223
12	0x3f34ff7e	0.7070235
13	0xc103db9a	-8.241114
14	0x3f8dba71	1.1072522
15	0xc0c4c8fa	-6.1495333
16	0xbeb7d907	-0.35907766
17	0xc11081c6	-9.031683
18	0xbf8689c0	-1.0510788
19	0x406aa2bd	3.6661828
20	0x406fff85	3.7499707
21	0x406e889d	3.7270882
22	0xbf84920a	-1.0357068
23	0xbea12ec4	-0.31480992
24	0xc0611a19	-3.5172179
25	0x3f865075	1.0493304
26	0x3feedce2	1.8661158
27	0xc09ed536	-4.9635267
28	0x3fab1bc1	1.3367845
29	0x3fc9d89d	1.576923
30	0x409ddddf	4.933334
31	0x40938d19	4.610974
32	0x409b65b3	4.8561645
33	0xc0d91810	-6.7841873
34	0x3d17c8fa	0.0370569
35	0x40f16b84	7.5443745
36	0xbfe324cc	-1.7745605
37	0x40ab64ec	5.3560696
38	0xbefdf208	-0.49598718
39	0x41073655	8.450765
40	0xc004a68f	-2.072666
41	0x407eff4e	3.9843326
42	0x40792408	3.8928242
43	0x4067dd5b	3.6228855
44	0xc029c2fc	-2.652526
45	0xc01d03ef	-2.453365
46	0x3f955d9c	1.1669192
47	0xc066d084	-3.6064768
48	0x4090beb4	4.523279
49	0x40f2ba43	7.585237
50	0xc0abaaf6	-5.3646193
51	0x3f7dfa83	0.99210376
52	0x40993a23	4.788347
53	0x408c6890	4.387764
54	0x408c8939	4.391751
55	0xc06bd49c	-3.6848516
56	0x3fd6dd91	1.6786367
57	0x40a19408	5.04932
58	0x40d4cb45	6.649813
59	0xbf36d8f0	-0.7142477
60	0x4087786f	4.2334514
61	0x4023f52c	2.561839
62	0xc0f1a19f	-7.550979
63	0x408b2969	4.348805
64	0x40894a83	4.2903457
65	0x4083045c	4.094282
66	0x3f83b38d	1.028917
67	0x3f712ed9	0.9421211
68	0xbda8afae	-0.08236633
69	0x40b56a5f	5.6692348
70	0xc046c388	-3.1056843
71	0x40c596bf	6.1746516
72	0xbf234214	-0.637727
73	0xc125b7d6	-10.357382
74	0x401e976d	2.4779923
75	0x4059fff3	3.406247
76	0x4046366d	3.097072
77	0xbf3091ef	-0.68972677
78	0xbfacc39c	-1.3497195
79	0xbfe84202	-1.8145144
80	0x40e3d080	7.1192017
81	0x40d526ba	6.6609774
82	0xbfaba319	-1.3409148
83	0x401d740e	2.4602084
84	0xbfe2d45c	-1.7721057
85	0x407a3061	3.9092028
86	0x40845c35	4.1362557
87	0x4063dc08	3.5603046
88	0x4079b23e	3.901504
89	0xc0ada342	-5.426179
90	0xbfb30d83	-1.3988498
91	0x409b8866	4.8604
92	0xc03adc14	-2.9196825
93	0x410a4911	8.6428385
94	0x3d7da350	0.061923325
95	0x4078f1a9	3.8897498
96	0x40733865	3.800317
97	0x40526c7f	3.287872
98	0x4062ccbc	3.543746
99	0xbea39288	-0.31947732
100	0xc023fc7a	-2.562285
101	0xc09c8d2a	-4.892232
102	0xc0a15b3e	-5.042388
103	0xc0e61851	-7.1904683
104	0x408b5d7d	4.355162
105	0xbfafd047	-1.3735436
106	0x3f52978a	0.8226248
107	0x40adaddb	5.4274726
108	0x40b0fb68	5.5306892
109	0x40a8afe1	5.2714696
110	0xbf6011b6	-0.87527025
111	0xbff5deed	-1.9208657
112	0xbfee448a	-1.8614666
113	0x4060a4a9	3.51005
114	0x3f94ab12	1.1614707
115	0xc029a6a5	-2.6507962
116	0xc04f044b	-3.234637
117	0xbf80676e	-1.0031564
118	0x4094591a	4.6358767
119	0x409d3016	4.91212
120	0x409dca10	4.930916
121	0x403e5d5f	2.974449
122	0xbf05b912	-0.5223552
123	0xc00b34bc	-2.1750937
124	0x40a686af	5.203941
125	0xc0f2d18f	-7.588081
126	0xc0943cf7	-4.632442
127	0x3dd737a6	0.10508661
128	0x3ff292ae	1.8951013
129	0x40531e91	3.2987406
130	0x4062a5ea	3.5413766
131	0x40810cde	4.0328207
132	0x3f13ac1d	0.576845
133	0x3f98faea	1.1951573
134	0xc0072e25	-2.1121914
135	0xc0d4008b	-6.6250663
136	0x403eb87d	2.9800103
137	0xbf3d98ec	-0.74061465
138	0xbffff236	-1.9995792
139	0x40d22a26	6.567645
140	0x406d5fd9	3.708975
141	0x408379d3	4.108621
142	0x4061103b	3.5166156
143	0xbf74283c	-0.9537389
144	0x40a0515b	5.009931
145	0xbf04b50e	-0.5183877
146	0xc0066599	-2.099951
147	0xc0033075	-2.0498326
148	0xc130f2be	-11.059263
149	0x3fde52a2	1.7368968
150	0xc0096ee7	-2.147394
151	0x404e4b71	3.2233546
152	0x403ebdd7	2.980337
153	0x4079329a	3.8937135
154	0xbd2146e6	-0.039374255
155	0xc0aeb19e	-5.459182
156	0xbee0ed22	-0.43930918
157	0x4109f564	8.62241
158	0x3fea5c0b	1.8309339
159	0x40b46b0e	5.638068
160	0xbfb02442	-1.3761065
161	0x40b309f2	5.594964
162	0x40572ac9	3.3619864
163	0x40709110	3.758854
164	0x4081ac9e	4.0523214
165	0xbf639830	-0.88904095
166	0x3ef22b25	0.47298542
167	0x405ae929	3.420481
168	0xbf26a24c	-0.65091395
169	0x40fec31a	7.961316
170	0xbf2ecaad	-0.6827801
171	0xc0b23155	-5.568522
172	0xbfaedfb8	-1.3662024
173	0x40159808	2.3374043
174	0x40488075	3.1328404
175	0x4042a960	3.0415878
176	0xc0ec6e31	-7.388451
177	0xbfbf8ddf	-1.4965171
178	0x40c3fd29	6.1246533
179	0x3fa0b9ec	1.2556739
180	0x40cd1c94	6.4097385
181	0x3f7eaafc	0.9947965
182	0x41081f30	8.507614
183	0x3faf5909	1.3699046
184	0x406d06ce	3.7035403
185	0x40829079	4.080136
186	0x407cfc71	3.9529078
187	0x3fb987f0	1.449461
188	0x3fbdbb17	1.482272
189	0xc01d42a1	-2.4571917
190	0xc0ba3fb8	-5.820278
191	0xc010bdde	-2.2615886
192	0x40bebf53	5.960855
193	0x3f884ee5	1.0649077
194	0xc0d8dfb4	-6.7773075
195	0x4079d1b6	3.9034247
196	0x403ba571	2.9319727
197	0x4037303c	2.862319
198	0x3ec4f144	0.3846532
199	0x3f38072d	0.7188595
200	0x41387728	11.529091
201	0x4011210f	2.2676427
202	0xc0d2b86b	-6.585012
203	0xbfa2212a	-1.2666371
204	0xbea7cf1f	-0.32775208
205	0xbfb4847b	-1.410293
206	0x40510e39	3.266493
207	0x405f5ad2	3.4899182
208	0x408182b4	4.047205
209	0x3f2fbfd9	0.6865211
210	0xc01bde15	-2.4354298
211	0x405c5c1e	3.4431224
212	0x3fd50616	1.6642482
213	0x40090f15	2.1415455
214	0x3c7108e6	0.014711594
215	0xc0f8b1be	-7.771697
216	0x408722c4	4.222994
217	0x4047db83	3.122773
218	0x402771a3	2.6163108
219	0x4039b902	2.901917
220	0xbf34e9dd	-0.7066935
221	0xbed86397	-0.4226348
222	0xc09d1b63	-4.909593
223	0xc050b156	-3.2608237
224	0x3f16377c	0.5867841
225	0x400563ab	2.0842083
226	0x3fba3f3f	1.4550551
227	0x3d249767	0.04018345
228	0x409080f7	4.515743
229	0x408426c0	4.12973
230	0x408c0645	4.3757653
231	0x4015f1cd	2.3428833
232	0x3fb2f35e	1.398052
233	0xc13154f4	-11.0832405
234	0xc085b658	-4.1785088
235	0xbfa125b6	-1.2589633
236	0xbf3f8b7c	-0.7482221
237	0x40bdd5f4	5.9323673
238	0xbf8d682b	-1.1047415
239	0x4077c568	3.8714237
240	0x408d6b0f	4.4193187
241	0x404f4dee	3.2391315
242	0x3ed8c775	0.42339674
243	0x40ad38e9	5.413197
244	0xbf7c577e	-0.98571
245	0xc0c6ed9e	-6.216506
246	0xbf398457	-0.7246756
247	0xc0c91ac8	-6.284519
248	0xbf64f35e	-0.8943385
249	0xc108abeb	-8.541972
250	0x406c7771	3.6947901
251	0x406905e6	3.640985
252	0x407bb87c	3.933135
253	0xc01a56cf	-2.4115484
254	0x3ee51484	0.44742215
255	0xc05110f2	-3.2666593

feature_net.linear_layer_0.bias f4 [32]
0	0x3d7999aa	0.06093756
1	0x40b247f8	5.5712852
2	0x41259934	10.349903
3	0x40608fae	3.5087695
4	0x3fc52408	1.5401621
5	0x4092b00a	4.583989
6	0x3f9e5a1b	1.2371248
7	0xbfa5fb5e	-1.2967336
8	0x40ee9d4c	7.4567013
9	0x410bfadd	8.748746
10	0x4176d314	15.426533
11	0x3faaaf3d	1.3334728
12	0x3ef4bf74	0.47802317
13	0x3fdeff00	1.742157
14	0x402ff3d0	2.7492561
15	0xbead5e8a	-0.3386119
16	0x408f7de0	4.4841156
17	0x3fa40ad9	1.281581
18	0x40758039	3.835951
19	0x3f0b49af	0.5440931
20	0x4177bc13	15.483417
21	0x3f3420c3	0.7036249
22	0x40ce7215	6.451426
23	0x3ff85eeb	1.9403967
24	0xbd6ee483	-0.058323395
25	0x410c8516	8.782492
26	0x4107ebbc	8.495052
27	0x4011a134	2.275464
28	0x3deb58e0	0.11491561
29	0xbf453fa9	-0.7705026
30	0x410ff5ac	8.9974785
31	0x4019762a	2.3978372

feature_net.layer_norm_0.weight f4 [32]
0	0x41138ebf	9.22235
1	0x410c273e	8.759581
2	0x403dfe36	2.9686408
3	0x414ce4b2	12.805834
4	0x409fdb0b	4.9954886
5	0x40b157ba	5.541959
6	0x410927f5	8.572255
7	0x411e066c	9.876568
8	0x40ebc32f	7.367576
9	0x3e88128c	0.2657665
10	0x4120d14d	10.051099
11	0x410a69a5	8.650792
12	0x40cfda5e	6.495406
13	0x40f19115	7.54896
14	0x41181468	9.504982
15	0x41332ae6	11.197973
16	0x4106bfe3	8.421847
17	0x40baa259	5.832318
18	0x40acd0aa	5.4004717
19	0x40e7d070	7.244194
20	0x41172044	9.445377
21	0x40f59278	7.6741295
22	0x41237b41	10.217591
23	0x40ca3a01	6.3195806
24	0x40b8b727	5.7723575
25	0x3f503da3	0.8134405
26	0x3e7a8bbc	0.24467367
27	0x4076facd	3.8590577
28	0x41068074	8.406361
29	0x40ebfdef	7.3747478
30	0x3f25a7ff	0.64709467
31	0x40c7bc37	6.2417254

feature_net.layer_norm_0.bias f4 [32]
0	0x3e8dbe0a	0.2768405
1	0x400b276c	2.1742811
2	0xbf98025c	-1.187572
3	0x4028e58d	2.6390107
4	0xbfaeb357	-1.364848
5	0x3ebac79b	0.36480412
6	0xbf4d2643	-0.8013651
7	0x40317093	2.772496
8	0x3ff72ced	1.9310585
9	0xbf3cbafb	-0.7372281
10	0x3fb1ee9c	1.3900943
11	0x3efa0ed7	0.48839447
12	0xbf8ba1bd	-1.0908734
13	0x3fff4c93	1.9945244
14	0x4096b0d1	4.709084
15	0x3f6e017a	0.92971003
16	0x4055ca7b	3.3404834
17	0xbf8f4bb8	-1.1194983
18	0xbf2557ca	-0.6458708
19	0xbf4d35c3	-0.8016016
20	0xbf4f5947	-0.809956
21	0xbf9b1781	-1.2116548
22	0x4026d0e3	2.6064994
23	0xbfae957e	-1.3639371
24	0x3eb0f86f	0.3456454
25	0xc0112ae8	-2.2682438
26	0xbf41a2be	-0.7563895
27	0x3eca16b4	0.39470446
28	0x3f10980f	0.56482023
29	0x406cd1f2	3.700314
30	0xbfe80204	-1.8125615
31	0xbf06d817	-0.52673477

feature_net.linear_layer_1.weight f4 [32, 32]
0	0x402d8585	2.7112744
1	0x40c9ba8c	6.304022
2	0x40ed732c	7.420309
3	0x409aaa1d	4.833266
4	0x411d5cd5	9.835164
5	0x40bab395	5.8344216
6	0x404c214f	3.189533
7	0x404c4899	3.191931
8	0x409ebec4	4.960787
9	0x3e1e71a0	0.15473032
10	0x40676a7a	3.6158738
11	0x3ea43fa3	0.320798
12	0x40184bd2	2.3796277
13	0x40c14158	6.0392265
14	0x4101c88c	8.111462
15	0x411b5dfc	9.710445
16	0x410d2552	8.821611
17	0x408cd34f	4.4007945
18	0x41028555	8.157552
19	0x410f3644	8.950748
20	0x40f372ed	7.607779
21	0x41476862	12.462984
22	0x41018d39	8.096978
23	0x40a4d6b4	5.151209
24	0x4143cfb7	12.238212
25	0xbfc33d94	-1.5253167
26	0x3f895c1f	1.0731238
27	0x40ee7dad	7.4528413
28	0x411218ed	9.131085
29	0x40efa4e8	7.48888
30	0x3fa77dab	1.3085226
31	0x40d0c4c0	6.5240173
32	0x406b6b08	3.6784077
33	0x41011031	8.066453
34	0x411a0fb5	9.628835
35	0xbf63b0ba	-0.8894154
36	0x3f917e91	1.136675
37	0x407159f3	3.771115
38	0x3f51694a	0.81801283
39	0xc095cae2	-4.681016
40	0x410b8f6a	8.722513
41	0x3d05a5d4	0.03262885
42	0x4146c21b	12.422389
43	0x40858194	4.1720676
44	0xc117a9c9	-9.478951
45	0x3f2419e5	0.6410201
46	0x3d37b1d5	0.04484733
47	0xc0018d34	-2.0242434
48	0x40572f2c	3.3622541
49	0x40572709	3.3617575
50	0x40dc839c	6.8910656
51	0xc0181717	-2.3764093
52	0x415729fa	13.447748
53	0x403d163f	2.9544828
54	0x411d109b	9.816554
55	0x40785137	3.879957
56	0x3ea496c5	0.32146278
57	0x404b2133	3.1739013
58	0x3e7f039b	0.24903719
59	0x409e396a	4.9445086
60	0xbfe12e09	-1.7592174
61	0xbf2b3306	-0.6687473
62	0xbf6dd5f4	-0.9290459
63	0x3eaf6a87	0.3426096
64	0x3f8f4778	1.1193686
65	0x3e43b873	0.1911333
66	0x40cb3624	6.350359
67	0x40d205ee	6.563224
68	0x3c48007f	0.0122071495
69	0x40b59a0b	5.675054
70	0x403ca032	2.9472775
71	0x408b96c5	4.3621545
72	0x4115899e	9.346098
73	0xbe84e124	-0.2595302
74	0x40f263fc	7.574705
75	0x3e06c3cf	0.13160633
76	0xbfb27eee	-1.3944986
77	0xbea0f321	-0.31435493
78	0x3f832787	1.0246438
79	0x40ac6404	5.387209
80	0x4155c86b	13.36143
81	0xc0d65ef5	-6.6990914
82	0x3fcf45a6	1.619313
83	0x4078071b	3.8754337
84	0x415dbce0	13.858612
85	0x40ca89f9	6.3293424
86	0x40aae886	5.340884
87	0x40891c7b	4.2847266
88	0x40470cec	3.1101637
89	0x403ba31f	2.9318311
90	0x3fa04ea2	1.2523997
91	0x4033f978	2.8121014
92	0xc09c7452	-4.8891993
93	0xbed5a60a	-0.4172824
94	0x3fa2ad19	1.2709075
95	0x412c756c	10.778667
96	0x4059be43	3.4022377
97	0xbe7f1f73	-0.2491434
98	0x40f06440	7.5122375
99	0x41205493	10.020648
100	0x4119d948	9.615547
101	0x410d3938	8.826469
102	0x4112ec8b	9.18275
103	0x40d52313	6.6605315
104	0x4028884f	2.6333196
105	0x3dfc8a4b	0.12331065
106	0x41033fbd	8.203061
107	0x40829578	4.0807457
108	0x4109d33d	8.614072
109	0x40a09d05	5.0191674
110	0x40c57181	6.1701055
111	0x40e57897	7.1709704
112	0x4113c5fd	9.235837
113	0x405b8178	3.4297771
114	0x3ffed319	1.9908172
115	0x40e6880b	7.204107
116	0x4108f57a	8.559931
117	0x40051e81	2.0799868
118	0x407d159f	3.9544446
119	0x407d186e	3.954616
120	0x40bec9c3	5.962129
121	0x400b8b22	2.180367
122	0x3eb7c224	0.35890305
123	0xbfa9449e	-1.3224065
124	0x40d8b775	6.7723947
125	0x40e61039	7.1894803
126	0x4016e2e8	2.3575993
127	0xbf8d741e	-1.1051061
128	0x410ac78f	8.67372
129	0x40eeb1c9	7.4592023
130	0x40d7d8b4	6.745203
131	0x4004876b	2.0707653
132	0x3fb67e35	1.4257265
133	0xc0e5deb0	-7.1834335
134	0x401e43f8	2.4728985
135	0x41078d42	8.471987
136	0x41279828	10.4746475
137	0x3e83d282	0.25746542
138	0x40e9d0a7	7.3067203
139	0x40074632	2.1136594
140	0xc08af7d1	-4.342751
141	0x3ff2e8fb	1.897735
142	0x40475878	3.1147747
143	0x41078007	8.468757
144	0x3c52d1c9	0.0128673995
145	0xc017badf	-2.3707807
146	0xc082efb7	-4.091762
147	0x408b3d45	4.351229
148	0x4121a469	10.102639
149	0xbef0a613	-0.47001705
150	0x40d273a1	6.576615
151	0x40000e1c	2.0008612
152	0x40c0db13	6.0267425
153	0x3f24d9d8	0.64394903
154	0x3f6433bc	0.8914144
155	0x40a1809c	5.0469494
156	0x400fd0e5	2.247125
157	0x40cf9356	6.4867353
158	0x3f818500	1.0118713
159	0x4019b6b1	2.4017756
160	0x402f4ef2	2.7391934
161	0x40624993	3.5357406
162	0x401f4a60	2.4889145
163	0x40cc1402	6.3774424
164	0x40a54c07	5.1655307
165	0x40e8f76c	7.280203
166	0x40c056df	6.0106044
167	0x410c9bbb	8.78802
168	0x409613fe	4.6899405
169	0x3e6bb061	0.23016502
170	0x410f9a52	8.975176
171	0x40a86a2e	5.2629614
172	0xbe5558a5	-0.20834596
173	0x40cde20b	6.433843
174	0x40b58853	5.672891
175	0x40f16fad	7.5448823
176	0x41203613	10.013202
177	0xbfda209f	-1.7041205
178	0x411762a3	9.461581
179	0x413bedf2	11.745592
180	0x40db3dd3	6.851297
181	0x40ae53cc	5.447729
182	0x411f0af7	9.940177
183	0x40996e39	4.794705
184	0x411c8772	9.783068
185	0x3ecd0ab4	0.40047228
186	0x3eefc214	0.46827757
187	0x40d58657	6.672649
188	0x411956af	9.583663
189	0xc0130af9	-2.2975447
190	0x40483d33	3.1287353
191	0xc07d03d2	-3.9533582
192	0x40019981	2.0249941
193	0x40e226b9	7.067227
194	0x4107fe38	8.499565
195	0x40378985	2.8677685
196	0x40f59085	7.6738915
197	0x4096e41e	4.7153463
198	0x4027a2dd	2.6193154
199	0x409a9b01	4.8314214
200	0x40ec4fe3	7.384752
201	0xbf2de9f1	-0.6793509
202	0x40bff269	5.998341
203	0x40770514	3.859685
204	0x40a8d343	5.275789
205	0x40d214cc	6.5650387
206	0x409e396c	4.9445095
207	0x40a97d59	5.296551
208	0x41019b4f	8.100417
209	0x40a9e0f9	5.3087125
210	0x4129519a	10.582422
211	0x40bad274	5.83819
212	0x4126a955	10.416341
213	0x412f6b62	10.9637165
214	0x40ef7930	7.4835434
215	0x40bd3f6a	5.913991
216	0x41249aec	10.287823
217	0x3f703bff	0.93841547
218	0x3cfb84cc	0.03070297
219	0x411acb94	9.674702
220	0x4056c27f	3.355621
221	0x4090cbd9	4.5248837
222	0xbf745592	-0.9544307
223	0x4014a3a3	2.3224876
224	0x410a2b0c	8.6355095
225	0x40e22ea0	7.0681915
226	0x4090a9ec	4.5207424
227	0x40b4c654	5.64921
228	0xbf2d6459	-0.67731243
229	0x40f1ae0e	7.552497
230	0x4119597d	9.584348
231	0x40b8a882	5.77057
232	0x402ceca9	2.7019446
233	0x3d3e1d2e	0.046414547
234	0x40d9c8fb	6.8057837
235	0x3fada22b	1.3565115
236	0x411c0dc7	9.753364
237	0x40e8e54d	7.277991
238	0x3fca4210	1.5801411
239	0xbf150faf	-0.58227056
240	0x40838aa0	4.110672
241	0x41160dab	9.378337
242	0xc07fc54f	-3.9964178
243	0x3fe182c3	1.761803
244	0x40982f8d	4.7558045
245	0x40b272ff	5.5765376
246	0x411c01ee	9.750471
247	0x3f445316	0.7668928
248	0x41084bb5	8.518483
249	0x4008d2ee	2.1378741
250	0xbf687d11	-0.90815836
251	0x4105fe01	8.374513
252	0xbfc2e69a	-1.5226624
253	0x40abdf94	5.3710423
254	0x3ef46837	0.4773576
255	0x407814b6	3.876264

feature_net.linear_layer_1.bias f4 [32]
0	0x41229e4b	10.163646
1	0x40fc1ed8	7.878765
2	0x4109c8e6	8.611547
3	0x40f06f39	7.513577
4	0x410cacda	8.7922
5	0x411943cc	9.579052
6	0x41116ce4	9.089085
7	0x40cbfbb6	6.3744764
8	0x40c3bc13	6.1167083
9	0x4108f3db	8.559535
10	0x40c1f299	6.060864
11	0x4193ab15	18.458536
12	0x40d7351d	6.7252336
13	0x40f9d1e8	7.8068733
14	0x410d96e4	8.849339
15	0x41b3b6aa	22.464191
16	0x4112a2d4	9.164753
17	0x40f3af00	7.6151123
18	0x41aa33ef	21.275358
19	0x41a36a9a	20.427052
20	0x410f7747	8.96662
21	0x40e83eb5	7.2576547
22	0x41135303	9.207767
23	0x4114c747	9.298652
24	0x40f903e8	7.781727
25	0x4100c14f	8.0471945
26	0x419c53d1	19.540926
27	0x40ce5540	6.4479065
28	0x41b49619	22.57329
29	0x40e44fcc	7.134741
30	0x41105cf6	9.022696
31	0x40f62b42	7.6927805

feature_net.layer_norm_1.weight f4 [32]
0	0x40eb01ae	7.343955
1	0x40f40893	7.6260467
2	0x40ab128e	5.346015
3	0x40a24292	5.0706263
4	0x40885c80	4.2612915
5	0x412aee55	10.683187
6	0x414e1df6	12.882315
7	0x40a29eb1	5.0818715
8	0x411f0938	9.939751
9	0x409ef219	4.967053
10	0x410f7c13	8.967792
11	0x3f905686	1.1276405
12	0x40cd6f45	6.4198327
13	0x40a977f9	5.295895
14	0x40c72e28	6.2243843
15	0x3e3d1b38	0.18467414
16	0x40b1cd02	5.5562754
17	0x408d3f20	4.4139557
18	0x3edc210e	0.4299397
19	0x3f088a43	0.5333597
20	0x4069fe66	3.6561522
21	0x40c87726	6.2645445
22	0x40b8b404	5.7719746
23	0x40e9c3cf	7.3051524
24	0x40ad896d	5.4230256
25	0x411588bc	9.345882
26	0x3f8cff05	1.1015326
27	0x40ad6ea4	5.419756
28	0x3e5ad52e	0.21370384
29	0x40c3896f	6.1105266
30	0x40778c27	3.8679292
31	0x40a87714	5.264536

feature_net.layer_norm_1.bias f4 [32]
0	0x3fd36f29	1.6518298
1	0x40152082	2.3301091
2	0x3fb953c3	1.4478687
3	0x3fb07abf	1.3787459
4	0x400d3cec	2.2068434
5	0x4017b58e	2.3704562
6	0x3fe3e304	1.7803655
7	0x4045d4fd	3.0911248
8	0x4008cef5	2.1376317
9	0x403de5c4	2.9671488
10	0xbf7d5413	-0.9895641
11	0xc028198a	-2.6265588
12	0x3ff7cca5	1.9359328
13	0x3f92da57	1.1472882
14	0x3f663531	0.89924914
15	0xbf4b45ab	-0.7940318
16	0x402678c7	2.6011217
17	0x3fefbc7b	1.8729395
18	0xbfa53c79	-1.290908
19	0xbfaa9c26	-1.3328903
20	0x400e2b0c	2.2213774
21	0x4051ae2b	3.2762554
22	0x40581fd4	3.3769426
23	0x3fa22951	1.2668859
24	0x40614951	3.5200999
25	0x3f468071	0.77539736
26	0xc0228746	-2.5395064
27	0x401f6a36	2.4908576
28	0xbf53b8c0	-0.8270378
29	0x3f472bff	0.7780151
30	0x4048f532	3.1399655
31	0x40119131	2.2744868

feature_net.linear_layer_output.weight f4 [5, 32]
0	0x408df9c2	4.436738
1	0xc09e609b	-4.9492927
2	0xc0881747	-4.2528415
3	0xc0b4a454	-5.6450596
4	0xc0179c42	-2.3689122
5	0x401c5da1	2.4432147
6	0x407feb49	3.9987357
7	0x40337dfc	2.8045645
8	0x3dec50fc	0.11538884
9	0x4149a448	12.602608
10	0x3fa8d012	1.3188498
11	0x4062b5ae	3.5423388
12	0xc03c71af	-2.9444387
13	0xc0023436	-2.0344367
14	0xbff06f02	-1.8783877
15	0xbb80c21d	-0.00392939
16	0x40559401	3.3371584
17	0x40596805	3.3969738
18	0x3fa69f71	1.3017408
19	0xbe797276	-0.2436007
20	0x40c20682	6.0632944
21	0xc02a038f	-2.6564672
22	0x40241725	2.5639126
23	0x40df1f6a	6.9725847
24	0x4006aa00	2.104126
25	0x3f3894ba	0.7210194
26	0xbfeaca91	-1.8343068
27	0xc07bf818	-3.9370174
28	0x3f45ad05	0.7721713
29	0xbeaedb08	-0.34151483
30	0x40971810	4.7216873
31	0x3f9f427f	1.2442168
32	0xbe552657	-0.20815407
33	0xbf9eef45	-1.2416769
34	0x3fcd06a4	1.6017652
35	0x3fbbf73f	1.4684829
36	0xc0633d61	-3.5506213
37	0x402ba8ee	2.6821856
38	0xc1417de0	-12.093231
39	0xc0211f32	-2.517529
40	0xc00dd1fe	-2.215942
41	0xbf8c3120	-1.0952492
42	0x402f5bc4	2.739976
43	0xbf1bc6cf	-0.6085023
44	0x40e81f73	7.253839
45	0x402572e8	2.5851383
46	0xbdb97635	-0.09055749
47	0x3cef6be5	0.029226253
48	0xc03d36e8	-2.9564762
49	0xbf8f4935	-1.1194216
50	0x3e59ce9a	0.21270218
51	0xbef106b5	-0.4707543
52	0xbf228c0f	-0.6349496
53	0x3f7d4722	0.98936665
54	0xbf677e8f	-0.9042749
55	0xc0369dfc	-2.8533926
56	0x3fc99f91	1.5751821
57	0x4052b712	3.2924237
58	0x3ed20bcd	0.41024628
59	0x3f3f0fcc	0.7463348
60	0x3e8c2ddc	0.27378738
61	0x3fad60ef	1.3545207
62	0x3f833c3e	1.025276
63	0xbfad4559	-1.3536788
64	0x408c391c	4.3819714
65	0x3f29bbb3	0.6630203
66	0x3fc5e205	1.5459601
67	0x3e6eb779	0.23312177
68	0x4071c288	3.7774982
69	0xc01d7bc8	-2.46068
70	0x40fe5d0a	7.9488573
71	0x3f5d05e5	0.8633712
72	0x40b0fc6a	5.5308123
73	0x407b98a5	3.9311917
74	0xc051b93f	-3.2769315
75	0xbed96cfa	-0.42465955
76	0xc09a7aa4	-4.827471
77	0x3eacadd2	0.33726364
78	0xbf2f0a00	-0.68374634
79	0xbd573c97	-0.052548017
80	0x403a8ae8	2.9147282
81	0x3f62e935	0.88637096
82	0x3fa332f0	1.274992
83	0xbc8e99cf	-0.017407326
84	0x3f19b470	0.6004095
85	0xbf05b363	-0.5222685
86	0x404e6561	3.2249377
87	0x3e7baa7f	0.24576758
88	0xbfd23c12	-1.6424582
89	0xbfa35068	-1.2758913
90	0xbe273bff	-0.1633148
91	0xbfc0ea7d	-1.507156
92	0xbe6a1ee3	-0.22863345
93	0xc017e0d5	-2.3730977
94	0x3ed40356	0.41408795
95	0xbf886a84	-1.0657506
96	0x41329590	11.161514
97	0xbf18d8c3	-0.5970575
98	0x402f3abd	2.73796
99	0x3eba783b	0.36419854
100	0x3f6dd534	0.9290345
101	0xbff4a7b0	-1.9113674
102	0x401d6c9e	2.4597545
103	0xc0b55cc1	-5.6675725
104	0x40e6bd63	7.2106185
105	0xbeb32383	-0.3498803
106	0xc1036a9b	-8.213527
107	0xc0430bd7	-3.0475976
108	0x3e707c59	0.23484935
109	0xc0c0dde7	-6.0270877
110	0xc06508a8	-3.5786533
111	0xbee3a9e3	-0.4446555
112	0x3ffa41a2	1.955128
113	0xc0500de6	-3.2508483
114	0xbeb5ace3	-0.35483465
115	0x3f0c47f0	0.5479727
116	0x3f1bbb63	0.60832804
117	0x3fa22e5d	1.2670399
118	0x40c2bc29	6.085469
119	0x3fbdbb85	1.4822851
120	0x3fd094f4	1.6295457
121	0x411dffce	9.874952
122	0xbf3f9c86	-0.7484821
123	0xc03cefc7	-2.9521348
124	0x3e879c5d	0.26486483
125	0xc0536935	-3.3032963
126	0x4038083c	2.8755026
127	0xbed33a68	-0.41255498
128	0xc1146d11	-9.276628
129	0x3f15ec02	0.58563244
130	0x3fbfc8c6	1.4983146
131	0xc055064e	-3.3285098
132	0x3d4424ac	0.047886536
133	0x403ada1e	2.9195628
134	0xc02058bc	-2.505416
135	0x4106708a	8.402475
136	0xc0b95e21	-5.7927403
137	0x402ffc2f	2.749767
138	0x4094beab	4.648275
139	0xbff60a73	-1.9221939
140	0x3f3cc09b	0.7373139
141	0x40545844	3.3178873
142	0x408884af	4.2661967
143	0x3e1cdcc9	0.15318598
144	0xbdab6d14	-0.083704144
145	0x400103ac	2.015849
146	0xbdf19647	-0.11796241
147	0x400f9b36	2.2438483
148	0xbf5916a7	-0.8480019
149	0xc047a93c	-3.1197042
150	0xc03946f0	-2.8949547
151	0xc05e101e	-3.4697337
152	0x3ff5fd51	1.9217931
153	0xc11b14fa	-9.692621
154	0xbf1c61cb	-0.6108672
155	0x408d60df	4.418075
156	0xbed48b51	-0.4151254
157	0xc00913d5	-2.1418355
158	0xc002737c	-2.0382986
159	0xbfc1f47a	-1.5152733

feature_net.linear_layer_output.bias f4 [5]
0	0xbf956dcb	-1.1674131
1	0x3f98d9a9	1.1941425
2	0x4024e9f1	2.5767787
3	0xbf89e965	-1.0774351
4	0xbffccd40	-1.9750137

feature_net.linear_layer_0.weight f4 [32, 3]
0	0x3e1ff82f	0.15622018
1	0xbe6d8fe0	-0.23199415
2	0xbd9a892b	-0.07545694
3	0xbed98f2b	-0.4249204
4	0x3d3fe606	0.046850227
5	0x3e08ec2f	0.13371347
6	0xbf24c004	-0.6435549
7	0x3e6173e1	0.2201686
8	0x3d29de91	0.04147202
9	0x3ec0875b	0.37603268
10	0x3e129dd4	0.14318019
11	0x3e498e4b	0.19683187
12	0x3e733789	0.23751654
13	0x3e84533a	0.25844747
14	0x3e98aef3	0.29820976
15	0x3ec861e7	0.39137194
16	0xbdbd3bfe	-0.09239958
17	0xbe96e524	-0.29471695
18	0x3e07d867	0.13266145
19	0x3e69f4d4	0.22847301
20	0x3e79e6dd	0.24404474
21	0xbf1a8a57	-0.6036734
22	0xbe92e03b	-0.286867
23	0x3e82036f	0.25393245
24	0xbf1744d7	-0.59089416
25	0x3e273489	0.16328634
26	0x3e13fdc8	0.14452279
27	0x3e24694d	0.16055794
28	0xbdd1c120	-0.10241914
29	0x3e8db9de	0.27680868
30	0xbf011252	-0.5041858
31	0x3dd6724c	0.10471019
32	0x3e1a21a8	0.15051901
33	0xbdb3ed2d	-0.08785472
34	0xbee28eb0	-0.44249487
35	0x3dc5cc93	0.0965816
36	0xbbb1218e	-0.0054056114
37	0xbdd9dc20	-0.10637689
38	0x3e7ade85	0.24498947
39	0xbdeca904	-0.11555675
40	0xbe97c9a7	-0.29646036
41	0x3e1f01b4	0.15527993
42	0xbe31538d	-0.17317028
43	0xbdf255c1	-0.118327625
44	0x3e05669f	0.13027428
45	0xbf0e0287	-0.55472606
46	0xbe393bc5	-0.18089207
47	0x3e838a0f	0.25691268
48	0x3d620f59	0.055190418
49	0xbebcd861	-0.36883834
50	0xbe78748d	-0.2426321
51	0x3f1904e4	0.5977309
52	0x3e5af81c	0.21383709
53	0x3f2f2a6c	0.68424106
54	0xbb2b5b6d	-0.0026147023
55	0xbe1b6130	-0.15173793
56	0xbdc575db	-0.0964162
57	0x3a88818a	0.0010414582
58	0xbd8b0de3	-0.06789758
59	0x3e724239	0.23658074
60	0x3ee91d35	0.45530096
61	0x3e0149ca	0.12625805
62	0x3f13cee7	0.5773758
63	0x3ee84211	0.45362905
64	0x3f048dd3	0.51778907
65	0x3e981bb0	0.29708624
66	0xbe9d8b7c	-0.3077048
67	0x3f20f168	0.62868357
68	0xbf370f86	-0.7150806
69	0x3e05a6af	0.13051866
70	0x3e3693b2	0.17829779
71	0x3e9b0ba4	0.3028232
72	0xbdb06a59	-0.08614034
73	0xbc85262a	-0.01625355
74	0xbe198567	-0.14992295
75	0x3e04dcbb	0.12974827
76	0x3e960ac8	0.293051
77	0xbdae37d8	-0.08506745
78	0x3d9fbb40	0.07799387
79	0x3e26b149	0.16278566
80	0x3c942d0c	0.018087886
81	0x3d1c4f78	0.038161725
82	0xbe7c6075	-0.2464617
83	0x3d0adb7f	0.033900734
84	0xbd3f8f4d	-0.04676752
85	0xbe8b4046	-0.27197474
86	0x3d916360	0.070990324
87	0xbe7fa4c9	-0.24965204
88	0x3e3b85b6	0.18312725
89	0x3d63d3b1	0.055621807
90	0xbd4533d6	-0.048145138
91	0x3e73e5c2	0.23818114
92	0xbd48ffb6	-0.04907199
93	0xbe351e41	-0.17687322
94	0x3d7b65ae	0.061376266
95	0xbd5c9a77	-0.053858247

feature_net.linear_layer_0.bias f4 [32]
0	0xbe517a6b	-0.20456855
1	0xbd27b890	-0.040947497
2	0xbdc38a0e	-0.09547816
3	0x3f06f82f	0.5272245
4	0xbd3e9cba	-0.046536185
5	0x3e42ac2e	0.19010994
6	0xbd065de3	-0.03280438
7	0xbdc46212	-0.09589018
8	0xbdbe55a1	-0.09293676
9	0x3d75403d	0.059875716
10	0x3d1a5600	0.037679672
11	0xbd7f8d59	-0.06239066
12	0x3d7b4d10	0.06135279
13	0xbe1e3503	-0.1544991
14	0xbd8f59e2	-0.06999566
15	0x3d2ea59c	0.042638406
16	0xbde04330	-0.10950315
17	0x3e9b3187	0.30311224
18	0xbdca54bb	-0.09879442
19	0xbe2a81d9	-0.16651095
20	0x3e4f6537	0.20253454
21	0x3f254089	0.645516
22	0xbe6de56d	-0.2323205
23	0x3ed52518	0.41629863
24	0xbd6f42a4	-0.058413163
25	0xbdc41712	-0.09574713
26	0xbd1320af	-0.03591984
27	0xbe187393	-0.14887838
28	0xbdef8958	-0.11696118
29	0xbe2d6f74	-0.16937047
30	0xbde2e950	-0.11079657
31	0xbd6bbabc	-0.05755113

feature_net.layer_norm_0.weight f4 [32]
0	0x3f49f696	0.78891885
1	0x3f4de7f6	0.8043207
2	0x3f574dd3	0.84103125
3	0x3fc86d9f	1.5658454
4	0x3f73c681	0.9522477
5	0x3f9f00eb	1.2422155
6	0x3f797c39	0.97455174
7	0x3f6bfbf8	0.9218135
8	0x3f68f368	0.9099641
9	0x3f727ec5	0.94724685
10	0x3f683e8c	0.9072044
11	0x3f642810	0.8912363
12	0x3f8942e6	1.0723541
13	0x3f6466f4	0.89219594
14	0x3f606b08	0.87663317
15	0x3f857f9e	1.0429571
16	0x3f696fa0	0.9118595
17	0x3fa9d5f8	1.3268423
18	0x3f724d29	0.9464899
19	0x3f4f28aa	0.80921423
20	0x3f8eb50b	1.1149
21	0x3fbd9446	1.4810874
22	0x3f4565d6	0.77108514
23	0x3f9743ac	1.1817527
24	0x3f7157d9	0.9427467
25	0x3f40f51e	0.7537402
26	0x3f4b06da	0.7930733
27	0x3f6256d4	0.8841374
28	0x3f6642bc	0.8994558
29	0x3f515a63	0.81778544
30	0x3f515eaf	0.817851
31	0x3f6dc500	0.92878723

feature_net.layer_norm_0.bias f4 [32]
0	0xbe6b43fd	-0.22975154
1	0xbe02bb6b	-0.12766807
2	0xbddf54e8	-0.109048665
3	0x3ee7ffa9	0.4531224
4	0xbd061b7b	-0.03274105
5	0x3d9fb36f	0.07797896
6	0xbb65f821	-0.0035090523
7	0xbda85279	-0.082188554
8	0xbdccfd33	-0.100092314
9	0xbd7bf8f2	-0.06151671
10	0xbdfda76a	-0.12385447
11	0xbde2786d	-0.11058126
12	0x3dc08692	0.09400667
13	0xbe03d9bf	-0.12876032
14	0xbdf7a90a	-0.120927885
15	0xbe1e59bc	-0.15463918
16	0xbdbf1ffa	-0.09332271
17	0x3e8bd452	0.27310425
18	0xbdcf31a7	-0.10116892
19	0xbe4e128b	-0.20124261
20	0x3e35322e	0.17694923
21	0x3edb1b44	0.4279424
22	0xbea37c31	-0.31930688
23	0x3e7cbd6e	0.24681637
24	0xbd979ac8	-0.07402569
25	0xbe2e3775	-0.17013343
26	0xbe04eb2f	-0.1298034
27	0xbdff7a36	-0.12474482
28	0xbdc5d337	-0.09659427
29	0xbe33634a	-0.17518345
30	0xbe431287	-0.19050036
31	0xbdaf3d91	-0.08556665

feature_net.linear_layer_1.weight f4 [32, 32]
0	0xbdf7712e	-0.12082134
1	0xbe3a8061	-0.18213035
2	0x3e0cc42a	0.13746706
3	0xbec21246	-0.37904567
4	0xbe679d9c	-0.22618717
5	0xbf24bc80	-0.6435013
6	0xbcbf11e9	-0.02332397
7	0x3e27209d	0.16321035
8	0xbccd6a92	-0.02507523
9	0xbf11e9bf	-0.56997293
10	0xbebb69fa	-0.3660429
11	0x3e16982f	0.14706491
12	0xbec64032	-0.38720852
13	0x3f168ffc	0.5881345
14	0xbd9d6980	-0.07686138
15	0xbee541b4	-0.4477669
16	0x3e5a61b7	0.21326338
17	0xbebe9485	-0.37222686
18	0xbee4ada9	-0.44663742
19	0xbd886e66	-0.06661682
20	0xbe47d6d6	-0.19515547
21	0xbe7603f1	-0.24024941
22	0xbd6279fd	-0.05529212
23	0xbd6147bc	-0.05500005
24	0x3db75c15	0.0895311
25	0x3d39c15d	0.04535042
26	0x3e70e1e1	0.23523666
27	0xbd4a6cf3	-0.04942031
28	0xbe520518	-0.20509756
29	0xbeb38739	-0.35064104
30	0x3e990abf	0.2989101
31	0xbe605a3c	-0.21909422
32	0xbe8b3fe2	-0.27197176
33	0x3e76d2fa	0.24103919
34	0x3bcb216b	0.006199052
35	0xbebf90de	-0.37415212
36	0xbea19191	-0.3155637
37	0x3e9e3053	0.30896243
38	0x3e386551	0.18007399
39	0x3eae19c4	0.34004033
40	0x3d63a020	0.05557263
41	0xbe490723	-0.19631629
42	0x3eb2e906	0.34943408
43	0x3e8178c3	0.25287446
44	0xbec3b1e7	-0.38221666
45	0x3e7e37f1	0.24826027
46	0xbdb0da75	-0.08635417
47	0xbe3d0291	-0.1845801
48	0xbdb0b7b2	-0.08628787
49	0x3ea9595c	0.33075988
50	0x3e0baf9b	0.13641207
51	0xbe00b23a	-0.12567988
52	0x3e9b9a37	0.30391094
53	0xbd9655c8	-0.0734058
54	0xbe50149c	-0.20320362
55	0x3d991a5f	0.07475733
56	0x3d9ddeaf	0.07708489
57	0xbe2a73c8	-0.1664573
58	0xbe079b76	-0.13242897
59	0xbcdca6f8	-0.026935086
60	0x3e599632	0.21248701
61	0xbe80c338	-0.2514894
62	0x3deabff5	0.11462394
63	0x3da7b05d	0.081879355
64	0xbea9149d	-0.3302354
65	0x3b8e894a	0.004349862
66	0xbdbdb515	-0.09263054
67	0xbe8c65a3	-0.27421293
68	0x3d212df4	0.039350465
69	0x3ea5e308	0.32399774
70	0x3ec25062	0.37951952
71	0xbe5e4ff8	-0.21710193
72	0x3e913097	0.28357384
73	0xbe8db33b	-0.27675804
74	0xbe6c8c80	-0.23100471
75	0x3e2e65f1	0.17031075
76	0xbe96f6b8	-0.29485106
77	0xbe3af146	-0.18256101
78	0xbdf5aa7e	-0.119954094
79	0x3cffcd69	0.031225877
80	0x3eba8b51	0.36434415
81	0xbee742fd	-0.45168296
82	0xbdfb97ae	-0.1228479
83	0x3e3c1255	0.18366368
84	0x3e0e6172	0.1390436
85	0xbf17fb44	-0.59367776
86	0x3df18dc1	0.117946155
87	0x3e180b47	0.14848052
88	0x3e8467ee	0.25860542
89	0xbcf9c1c1	-0.030487897
90	0xbdec37bc	-0.11534068
91	0x3c9646ef	0.01834437
92	0xbe00b42e	-0.12568733
93	0x3e89dba2	0.2692538
94	0x3e33e04a	0.17566028
95	0x3ecdbef2	0.40184742
96	0x3ce9ae85	0.0285256
97	0x3d4c2916	0.04984387
98	0x3eaad69c	0.3336686
99	0x3f3c3326	0.73515546
100	0x3ef4412a	0.47705966
101	0x3e919ba0	0.28439045
102	0xbc8e943a	-0.017404664
103	0x3e8cbf17	0.2748954
104	0x3e300722	0.17190221
105	0x3f35cffe	0.71020496
106	0xbec09ae3	-0.3761817
107	0xbe94d054	-0.29065192
108	0x3d7d5116	0.061844908
109	0xbe37a521	-0.17934085
110	0xbd91d9bc	-0.07121608
111	0x3bbe9d1e	0.0058170697
112	0x3e8b8953	0.27253208
113	0x3eda39e0	0.4262228
114	0xbee10cc0	-0.4395504
115	0xbedf829b	-0.43654332
116	0x3f3759be	0.7162131
117	0x3f6ee3b9	0.9331623
118	0x3d84a98f	0.06477653
119	0x3f433613	0.76254386
120	0xbe9db1c3	-0.30799684
121	0x3ebc3e15	0.36766115
122	0xbba9ac91	-0.005178042
123	0x3dfcb40e	0.1233903
124	0x3d8a00bf	0.067384236
125	0x3e550704	0.20803457
126	0xbe0e7d93	-0.1391509
127	0x3e490c36	0.19633564
128	0x3ee0c990	0.4390378
129	0x3e228b2d	0.15873404
130	0xbe580e67	-0.21099244
131	0xbf100114	-0.56251645
132	0xbe070a8b	-0.13187616
133	0xbec8895a	-0.3916729
134	0xbe377642	-0.17916206
135	0xbe4f85a3	-0.20265822
136	0x3efb1021	0.49035743
137	0xbd714c22	-0.058910497
138	0x3f0e975b	0.556997
139	0xbdd44863	-0.10365369
140	0x3b96ca93	0.0046017854
141	0x3d5dad13	0.054120135
142	0x3e784f72	0.24249056
143	0xbe59894f	-0.21243785
144	0x3cc10e1e	0.023566302
145	0xbee4c57d	-0.44681922
146	0xbe5e9260	-0.21735525
147	0xbd8569bf	-0.0651431
148	0x3d785165	0.0606245
149	0xbe95f420	-0.29287815
150	0xbf03f7d3	-0.51550025
151	0x3e4e8ba2	0.20170453
152	0x3e372245	0.17884167
153	0xbe4f7a4f	-0.20261501
154	0xbde73cbd	-0.11290882
155	0x3e6e20cc	0.23254699
156	0x3e0ae222	0.13562825
157	0xbea3c669	-0.31987312
158	0xbea16da1	-0.31528953
159	0x3de53a49	0.11192758
160	0x3e6ed5a8	0.23323691
161	0xbf2319c1	-0.6371117
162	0xbec5dbcf	-0.38644263
163	0x3d950aeb	0.07277473
164	0xbe8be6af	-0.27324435
165	0x3dacab5d	0.084311225
166	0x3e4650fe	0.19366834
167	0xbe2970cc	-0.16546935
168	0xbe1ac48b	-0.15114038
169	0xbeb4d4d2	-0.3531862
170	0x3d7c4329	0.061587486
171	0x3e25f820	0.16207933
172	0xbf2a0348	-0.66411257
173	0xbc9a6987	-0.018849147
174	0xbe8a858f	-0.27055022
175	0xbdfb33ae	-0.122657165
176	0x3e41491a	0.18875542
177	0xbe8f5b0e	-0.27999157
178	0xbefd7f92	-0.4951139
179	0xbf025aee	-0.5092
180	0xbe889a8a	-0.26680404
181	0xbf14541c	-0.5794084
182	0xbeb76a8a	-0.3582347
183	0xbda2b7b4	-0.07945195
184	0xbc4e787f	-0.012601971
185	0xbbec00a9	-0.007202227
186	0xbf03bf93	-0.51464194
187	0xbcd9c578	-0.026583418
188	0x3e1423ab	0.14466731
189	0x3e06effa	0.13177481
190	0xbe94bfec	-0.29052675
191	0xbf1016f4	-0.56285024
192	0x3d3041ba	0.04303143
193	0x3e9c33bb	0.30508217
194	0x3eafcee1	0.34337524
195	0xbf0b5497	-0.5442595
196	0xbd26ed0d	-0.040753413
197	0xbf148fe0	-0.58032036
198	0x3cd15cbb	0.025556913
199	0xbea601e4	-0.32423317
200	0xbe81d0a6	-0.253545
201	0xbe2adc15	-0.16685517
202	0xbea3a660	-0.31962872
203	0x3e9a2464	0.3010589
204	0xbee4455d	-0.4458417
205	0x3ece95cb	0.40348658
206	0x3e99ca28	0.30037045
207	0x3e18056b	0.14845817
208	0x3d202261	0.039095286
209	0xbe819fd3	-0.2531725
210	0x3e8ae6d2	0.27129227
211	0xbeaab0b9	-0.33337954
212	0xbd598f2c	-0.053115055
213	0xbe920db0	-0.28526068
214	0xbd727ff2	-0.05920405
215	0x3e3497e1	0.17636062
216	0xbe22c434	-0.15895158
217	0x3e93aa94	0.28841078
218	0xbda24b80	-0.07924557
219	0x3e39c2ee	0.18140766
220	0x3de59ead	0.11211906
221	0xbd07a602	-0.0331173
222	0xbf1be6c8	-0.6089902
223	0xbe419803	-0.18905644
224	0xbe1d821b	-0.15381663
225	0xb8f19b09	-0.00011520653
226	0x3ec8cfaa	0.39220935
227	0xbe489256	-0.19587073
228	0xbea20080	-0.31641006
229	0xbf6ffb68	-0.9374299
230	0x3e4eaf93	0.20184164
231	0xbeb1f5a9	-0.34757736
232	0x3ec67233	0.38759002
233	0xbc635fad	-0.013877791
234	0x3bdb094b	0.0066844574
235	0xbe5eeef4	-0.21770841
236	0xbe1eae7f	-0.15496252
237	0x3e8f3913	0.27973232
238	0xbe6c0621	-0.23049213
239	0x3ec42dba	0.38316137
240	0xbe3e427e	-0.18580052
241	0xbd47f67a	-0.048819043
242	0xbecdcf5a	-0.4019726
243	0xbd0e03b2	-0.034671493
244	0xbeb4f21d	-0.35340968
245	0xbf0f93b2	-0.5608474
246	0xbead415d	-0.3383893
247	0xbceb1b5c	-0.02869957
248	0xbd09385b	-0.03350101
249	0x3a8e9b42	0.0010880011
250	0xbef6fb9a	-0.48238832
251	0x3e015bdb	0.12632696
252	0xbea674bd	-0.3251094
253	0xbd686efc	-0.056746468
254	0x3da00320	0.07813096
255	0x3e963494	0.2933699

feature_net.linear_layer_1.bias f4 [32]
0	0xbe0ad9ee	-0.13559696
1	0xbd56f1a4	-0.05247654
2	0xbe4448af	-0.19168352
3	0x3eaff781	0.34368518
4	0xbe01e29f	-0.12684105
5	0xbe782c49	-0.24235643
6	0xbe459647	-0.19295608
7	0x3d371f8a	0.044707812
8	0xbd84b0fb	-0.06479069
9	0xbf055443	-0.520817
10	0xbeb14132	-0.34620053
11	0x3e5783bc	0.21046346
12	0xbe22ecd5	-0.15910657
13	0xbd35ea8d	-0.04441314
14	0xbec9e75b	-0.39434323
15	0xbec30d73	-0.38096198
16	0xbe48a387	-0.1959363
17	0x3d330206	0.0437031
18	0xbed963d0	-0.42458963
19	0x3f004ed0	0.5012026
20	0x3e2955d9	0.16536655
21	0xbdb3cf19	-0.08779735
22	0x3d5adc60	0.053432822
23	0xbe38c43e	-0.1804361
24	0xbdaa887c	-0.083268136
25	0x3ed2ebf4	0.41195643
26	0xbd665bbc	-0.05623983
27	0x3e8a2b53	0.2698618
28	0x3f02c787	0.51085705
29	0xbca01e78	-0.019545779
30	0xbf0e1d17	-0.5551314
31	0x3dee94d0	0.116494775
