otk/AgileRL-MATD3/simple_speaker_listener_v4/result/20240102-0837/MATD3_trained_agent_0050000.pt (torch, 785754 bytes, 224 tensors)

feature_net.linear_layer_0.weight f4 [32, 3]
0.1562192 -0.23199329 -0.07545633 -0.42491964 0.046850532 0.13371359 -0.6435493 0.22016935
0.041472238 0.37603426 0.14318083 0.1968322 0.23751603 0.2584446 0.29820856 0.39137176
-0.092399575 -0.294718 0.13266139 0.22847247 0.24404435 -0.60366875 -0.28686532 0.25393292
-0.5908915 0.16328649 0.1445229 0.16055876 -0.102419786 0.27680674 -0.50418735 0.1047108
0.15051948 -0.08785412 -0.4424918 0.09658202 -0.005405611 -0.106377415 0.24498893 -0.115556024
-0.29645982 0.15528028 -0.17316885 -0.118327335 0.13027477 -0.5547309 -0.1808905 0.2569138
0.05519044 -0.36883548 -0.24263056 0.5977352 0.21383718 0.68423617 -0.0026147151 -0.15173927
-0.096416645 0.0010414543 -0.067897774 0.2365799 0.45530128 0.12625891 0.57737464 0.45362976
0.5177913 0.29708782 -0.30770612 0.62867904 -0.71508056 0.1305197 0.17829901 0.30282527
-0.086139895 -0.016253393 -0.14992277 0.12974876 0.29305354 -0.08506731 0.07799414 0.16278584
0.018088015 0.038161904 -0.24646051 0.033900954 -0.04676744 -0.2719732 0.07099062 -0.2496511
0.18312772 0.05562198 -0.04814473 0.23818187 -0.04907192 -0.17687169 0.061376367 -0.053857934
00000000: edf7 1f3e a68f 6dbe d988 9abd 118f d9be
00000010: 58e6 3f3d 37ec 083e a6bf 24bf 1374 613e
00000020: cbde 293d 9087 c03e ff9d 123e 618e 493e
00000030: 6737 733e da52 843e cbae 983e e161 c83e
00000040: fd3b bdbd 47e5 96be 63d8 073e b0f4 693e
00000050: c3e6 793e 098a 1abf 03e0 92be 7f03 823e
00000060: aa44 17bf 9334 273e d0fd 133e 8469 243e
00000070: 77c1 d1bd 9db9 8d3e 6c12 01bf 9e72 d63d
00000080: c721 1a3e dcec b3bd 498e e2be cbcc c53d
00000090: 8d21 b1bb 67dc d9bd 61de 7a3e a3a8 ecbd
000000a0: 95c9 97be cb01 1f3e 2d53 31be 9a55 f2bd
000000b0: c066 053e d802 0ebf 5c3b 39be 358a 833e
000000c0: 5f0f 623d 01d8 bcbe 2574 78be 2d05 193f
000000d0: 22f8 5a3e 1a2a 2f3f a45b 2bbb 8a61 1bbe
000000e0: 1776 c5bd 6881 883a fd0d 8bbd 0042 723e
000000f0: 401d e93e 044a 013e d3ce 133f 2942 e83e
00000100: f88d 043f e51b 983e a88b 9dbe 1cf1 203f
00000110: 850f 37bf f5a6 053e 0494 363e ea0b 9b3e
00000120: 1d6a b0bd d625 85bc 5b85 19be dcdc 043e
00000130: 1d0b 963e c537 aebd 64bb 9f3d 55b1 263e
00000140: 512d 943c a84f 1c3d 2560 7cbe badb 0a3d
00000150: 378f 3fbd 1240 8bbe 8863 913d 8aa4 7fbe
00000160: d585 3b3e e0d3 633d 6933 45bd f3e5 733e
00000170: a3ff 48bd da1d 35be c965 7b3d 239a 5cbd

feature_net.linear_layer_0.bias f4 [32]
-0.20456766 -0.040947348 -0.09547753 0.52722555 -0.04653629 0.19010851 -0.03280435 -0.09588952
-0.09293655 0.059875466 0.037679993 -0.062390275 0.061352365 -0.15449755 -0.06999541 0.042638198
-0.10950297 0.3031091 -0.09879505 -0.16651122 0.2025358 0.6455161 -0.23232128 0.4162999
-0.05841306 -0.095746964 -0.035919633 -0.14887823 -0.11696107 -0.16937004 -0.11079582 -0.057550725
00000000: 2f7a 51be 68b8 27bd b989 c3bd 41f8 063f
00000010: d69c 3ebd ceab 423e db5d 06bd ba61 c4bd
00000020: 8555 bebd fa3f 753d 5656 1a3d f28c 7fbd
00000030: 9e4c 7b3d 9b34 1ebe c159 8fbd 64a5 2e3d
00000040: 1843 e0bd 1e31 9b3e 0f55 cabd eb81 2abe
00000050: 8b65 4f3e 8b40 253f a1e5 6dbe 4325 d53e
00000060: 8842 6fbd fc16 c4bd 7720 13bd 8973 18be
00000070: 4989 efbd 576f 2dbe ebe8 e2bd 4fba 6bbd

feature_net.layer_norm_0.weight f4 [32]
0.7889137 0.8043196 0.84102875 1.5658484 0.95224136 1.242214 0.9745506 0.92180896
0.90996283 0.94724333 0.9071983 0.8912316 1.0723425 0.8921912 0.87662756 1.0429548
0.91185856 1.3268349 0.9464878 0.8092119 1.1149051 1.4810961 0.77108335 1.1817597
0.9427427 0.7537382 0.79306966 0.8841327 0.8994495 0.8177825 0.8178447 0.9287861
00000000: 40f6 493f e4e7 4d3f a94d 573f b86d c83f
00000010: 17c6 733f de00 9f3f 267c 793f acfb 6b3f
00000020: 53f3 683f 8a7e 723f 263e 683f c127 643f
00000030: 8542 893f a466 643f aa6a 603f 8b7f 853f
00000040: 906f 693f bad5 a93f 064d 723f 8328 4f3f
00000050: 36b5 8e3f 8f94 bd3f b865 453f e743 973f
00000060: 9657 713f fdf4 403f 9d06 4b3f 8556 623f
00000070: 5342 663f 325a 513f 455e 513f edc4 6d3f

feature_net.layer_norm_0.bias f4 [32]
-0.22975229 -0.12766849 -0.10904925 0.45312256 -0.03274137 0.07797849 -0.0035090526 -0.082189105
-0.100092486 -0.061517023 -0.123854436 -0.11058183 0.09400652 -0.12876067 -0.12092813 -0.15464018
-0.093322776 0.27310166 -0.101169474 -0.20124373 0.1769493 0.42794457 -0.31930864 0.24681692
-0.0740257 -0.17013416 -0.12980396 -0.12474478 -0.09659474 -0.17518364 -0.1905015 -0.085566685
00000000: 2f44 6bbe 87bb 02be 3755 dfbd aeff e73e
00000010: d11b 06bd 30b3 9f3d 22f8 65bb c352 a8bd
00000020: 4afd ccbd 46f9 7bbd 65a7 fdbd ba78 e2bd
00000030: 7e86 c03d d6d9 03be 2ba9 f7bd ff59 1ebe
00000040: 0320 bfbd fbd3 8b3e f131 cfbd d612 4ebe
00000050: 3332 353e 8d1b db3e 6c7c a3be 93bd 7c3e
00000060: c99a 97bd a637 2ebe 54eb 04be 317a ffbd
00000070: 77d3 c5bd 5763 33be d312 43be 963d afbd

feature_net.linear_layer_1.weight f4 [32, 32]
-0.12082174 -0.18213013 0.13746661 -0.37904254 -0.22618602 -0.64349747 -0.02332378 0.16321144
-0.025075145 -0.5699708 -0.36604512 0.14706409 -0.38720754 0.5881344 -0.07686139 -0.44776362
0.21326284 -0.37222648 -0.4466375 -0.066616535 -0.19515525 -0.24024913 -0.055292178 -0.054999698
0.08953051 0.045350112 0.23523635 -0.04942029 -0.2050981 -0.3506388 0.29890808 -0.2190926
-0.27197 0.2410404 0.0061990647 -0.3741527 -0.31556445 0.30896145 0.18007247 0.3400393
0.055572413 -0.1963166 0.34943378 0.25287694 -0.3822169 0.2482591 -0.08635363 -0.18457961
-0.08628823 0.33075875 0.13641231 -0.1256802 0.30390927 -0.073406115 -0.20320421 0.07475689
0.07708425 -0.16645616 -0.13242848 -0.02693519 0.21248536 -0.25149086 0.114624016 0.08187976
-0.33023685 0.0043498157 -0.09262981 -0.274214 0.039350282 0.3239955 0.37951705 -0.21710286
0.28357226 -0.2767587 -0.23100407 0.1703117 -0.29485244 -0.18256193 -0.1199546 0.031225672
0.36434197 -0.45168403 -0.12284798 0.18366323 0.139043 -0.59368277 0.1179458 0.1484796
0.25860283 -0.03048773 -0.115340285 0.01834424 -0.12568809 0.26925087 0.17566127 0.40184507
0.028525654 0.049843714 0.33366612 0.73515636 0.4770593 0.28439313 -0.017404571 0.27489632
0.17190298 0.7102051 -0.37618336 -0.29065415 0.061844923 -0.1793401 -0.07121671 0.0058170683
0.2725327 0.42622495 -0.43954945 -0.4365408 0.71621615 0.93316185 0.06477661 0.7625471
-0.3079945 0.36766008 -0.0051780418 0.1233902 0.06738432 0.20803529 -0.13915199 0.19633405
0.4390355 0.15873401 -0.21099171 -0.56251955 -0.13187711 -0.39167225 -0.17916201 -0.2026584
0.4903552 -0.05891052 0.5569993 -0.10365313 0.0046017626 0.05411996 0.24249068 -0.21243724
0.023566173 -0.44682005 -0.2173556 -0.065143764 0.060624223 -0.29288018 -0.5155005 0.2017037
0.17884023 -0.20261627 -0.112909205 0.23254639 0.13562748 -0.31987417 -0.31529132 0.11192753
0.23323667 -0.63711125 -0.38644332 0.0727746 -0.27324593 0.08431168 0.19366713 -0.16546883
-0.1511399 -0.35318598 0.061587222 0.16207859 -0.66411036 -0.018848948 -0.2705506 -0.12265742
0.18875483 -0.2799892 -0.49511364 -0.5091971 -0.26680097 -0.5794091 -0.35823697 -0.07945126
-0.012602002 -0.00720224 -0.5146417 -0.026583454 0.14466578 0.1317734 -0.29052648 -0.56285167
0.043031618 0.30508095 0.34337577 -0.5442603 -0.040753465 -0.58032006 0.025556816 -0.3242302
-0.25354314 -0.16685568 -0.31962696 0.30106154 -0.4458435 0.4034879 0.30037233 0.14845687
0.03909532 -0.25317374 0.27129033 -0.33338067 -0.053115327 -0.28526115 -0.05920408 0.17635898
-0.15895002 0.28841287 -0.07924498 0.18140775 0.112119526 -0.033117022 -0.6089898 -0.18905684
-0.15381601 -0.00011520585 0.39220828 -0.19587009 -0.31640926 -0.93742543 0.20184283 -0.34757617
0.38759208 -0.013877859 0.00668442 -0.21770878 -0.15496184 0.27973306 -0.23049231 0.38316092
-0.18580174 -0.048818745 -0.40196988 -0.0346712 -0.35340706 -0.56084454 -0.33839 -0.028699458
-0.033501312 0.0010879925 -0.48239073 0.12632735 -0.32510972 -0.056746274 0.0781307 0.29337174
00000000: 6371 f7bd 5280 3abe 0cc4 0c3e dd11 c2be
00000010: 4f9d 67be 40bc 24bf 8311 bfbc e620 273e
00000020: 646a cdbc 9be9 11bf 446a bbbe f897 163e
00000030: 1140 c6be fa8f 163f 8169 9dbd 4641 e5be
00000040: 9361 5a3e 7894 bebe acad e4be 406e 88bd
00000050: c7d6 47be de03 76be 0d7a 62bd 5d47 61bd
00000060: c65b b73d 0ac1 393d cce1 703e ee6c 4abd
00000070: 3c05 52be ee86 b3be 7b0a 993e cf59 60be
00000080: a73f 8bbe 4bd3 763e 8621 cb3b f190 bfbe
00000090: aa91 a1be 3230 9e3e eb64 383e a219 ae3e
000000a0: e69f 633d 3807 49be fce8 b23e 1679 813e
000000b0: efb1 c3be a237 7e3e 2cda b0bd 7002 3dbe
000000c0: e2b7 b0bd 3659 a93e abaf 0b3e 4fb2 00be
000000d0: ff99 9b3e f255 96bd c414 50be 241a 993d
000000e0: 59de 9d3d 7c73 2abe 559b 07be 30a7 dcbc
000000f0: c395 593e 69c3 80be ffbf ea3d 93b0 a73d
00000100: ce14 a9be e688 8e3b b3b4 bdbd c765 8cbe
00000110: c32d 213d bde2 a53e 0f50 c23e 3650 5ebe
00000120: 6230 913e 51b3 8dbe 558c 6cbe 3166 2e3e
00000130: e6f6 96be 84f1 3abe c2aa f5bd fbcc ff3c
00000140: 088b ba3e 2143 e7be b997 fbbd 3712 3c3e
00000150: 4a61 0e3e 98fb 17bf 918d f13d 090b 183e
00000160: 9767 843e 67c1 f9bc 8737 ecbd a946 963c
00000170: 61b4 00be 40db 893e 8ce0 333e a3be cd3e
00000180: a2ae e93c ec28 4c3d 49d6 aa3e 3533 3c3f
00000190: 1e41 f43e fa9b 913e 0894 8ebc 36bf 8c3e
000001a0: 5607 303e 00d0 353f 1b9b c0be 9fd0 94be
000001b0: 1a51 7d3d eea4 37be 11da 91bd 1b9d be3b
000001c0: 6889 8b3e 283a da3e a00c e1be 4782 dfbe
000001d0: f159 373f b2e3 6e3f 99a9 843d 4936 433f
000001e0: 75b1 9dbe f13d bc3e 90ac a9bb 00b4 fc3d
000001f0: ca00 8a3d 3407 553e dc7d 0ebe cb0b 493e
00000200: 43c9 e03e 2b8b 223e 360e 58be 4801 10bf
00000210: cb0a 07be 4489 c8be 3f76 37be af85 4fbe
00000220: d60f fb3e 284c 71bd 8297 0e3f 1848 d4bd
00000230: 62ca 963b e4ac 5d3d 7a4f 783e 2689 59be
00000240: d90d c13c 99c5 e4be 7792 5ebe 186a 85bd
00000250: 1b51 783d 64f4 95be d7f7 03bf 6a8b 4e3e
00000260: e521 373e a47a 4fbe f13c e7bd a420 6e3e
00000270: eee1 0a3e 8cc6 a3be dd6d a1be 433a e53d
00000280: 98d5 6e3e b919 23bf e6db c5be d90a 953d
00000290: e4e6 8bbe 9aab ac3d ad50 463e a970 29be
000002a0: 6bc4 1abe cbd4 b4be e242 7c3d eef7 253e
000002b0: 2303 2abf 1c69 9abc 9c85 8abe d033 fbbd
000002c0: f248 413e bf5a 8fbe 897f fdbe be5a 02bf
000002d0: 239a 88be 2854 14bf d66a b7be 58b7 a2bd
000002e0: a178 4ebc c500 ecbb 8fbf 03bf 8bc5 d9bc
000002f0: 4423 143e 9bef 063e e3bf 94be 0c17 10bf
00000300: ec41 303d 9233 9c3e f3ce af3e a554 0bbf
00000310: 1bed 26bd db8f 14bf 875c d13c 8001 a6be
00000320: 68d0 81be 37dc 2abe 25a6 a3be bd24 9a3e
00000330: 9945 e4be f795 ce3e 67ca 993e 1405 183e
00000340: 6a22 203d fd9f 81be 91e6 8a3e dfb0 aabe
00000350: 758f 59bd c00d 92be fa7f 72bd 7397 343e
00000360: cbc3 22be daaa 933e 314b a2bd f4c2 393e
00000370: ec9e e53d b7a5 07bd c1e6 1bbf 1e98 41be
00000380: f281 1dbe ab9a f1b8 86cf c83e 2b92 48be
00000390: 6500 a2be 1dfb 6fbf e3af 4e3e 81f5 b1be
000003a0: 7872 c63e f65f 63bc fb08 db3b 0def 5ebe
000003b0: 51ae 1ebe 2c39 8f3e 2d06 6cbe ab2d c43e
000003c0: d042 3ebe 2af6 47bd ffce cdbe 6303 0ebd
000003d0: c5f1 b4be 8293 0fbf 7441 adbe 201b ebbc
000003e0: ac38 09bd f89a 8e3a ebfb f6be f55b 013e
000003f0: c874 a6be c86e 68bd fd02 a03d d234 963e

feature_net.linear_layer_1.bias f4 [32]
-0.13559578 -0.05247686 -0.19168356 0.34368762 -0.12684155 -0.24235478 -0.19295667 0.04470798
-0.064790905 -0.5208223 -0.34620187 0.21046433 -0.15910712 -0.044412747 -0.39434543 -0.38096437
-0.19593653 0.043703277 -0.42458937 0.5012051 0.16536641 -0.087796815 0.05343313 -0.18043704
-0.08326761 0.41195703 -0.05623971 0.26986253 0.51086205 -0.019545728 -0.55513126 0.11649454
00000000: 9fd9 0abe faf1 56bd b248 44be d3f7 af3e
00000010: c0e2 01be da2b 78be 6f96 45be b71f 373d
00000020: 18b1 84bd 9c54 05bf 5f41 b1be f683 573e
00000030: faec 22be 24ea 35bd a5e7 c9be c30d c3be
00000040: 96a3 48be 3502 333d c763 d9be fa4e 003f
00000050: d055 293e d1ce b3bd b3dc 5a3d 7dc4 38be
00000060: 3588 aabd 08ec d23e 9c5b 66bd 6c2b 8a3e
00000070: dbc7 023f 5d1e a0bc 151d 0ebf b094 ee3d

feature_net.layer_norm_1.weight f4 [32]
0.91780806 1.1726986 1.0681132 1.5939343 0.86445826 0.879206 0.81467044 1.1728742
0.7660786 0.93193144 0.9096536 1.4011215 0.8409323 1.0 0.7897993 0.8347237
1.2258621 1.0 0.5807091 1.6614244 1.2986856 1.0892692 1.2675903 1.0907317
0.97862214 1.2765247 1.167998 1.3787398 1.7420496 1.1103317 0.92377293 1.3372293
00000000: 78f5 6a3f fd1a 963f efb7 883f 0a06 cc3f
00000010: 234d 5d3f a513 613f 3e8e 503f be20 963f
00000020: ba1d 443f 0f93 6e3f 0fdf 683f f357 b33f
00000030: 5747 573f 0000 803f 4930 4a3f 74b0 553f
00000040: 0de9 9c3f 0000 803f 5aa9 143f 8ea9 d43f
00000050: 543b a63f 2c6d 8b3f 6640 a23f 199d 8b3f
00000060: fb86 7a3f 2965 a33f f580 953f 8c7a b03f
00000070: 7bfb de3f 591f 8e3f 627c 6c3f 542a ab3f

feature_net.layer_norm_1.bias f4 [32]
-0.07255205 0.3004111 0.08616249 0.578193 -0.08466586 -0.1233957 -0.19907558 0.10453903
-0.18637978 -0.0843652 -0.09645076 0.44573283 -0.07880512 0.0 -0.1972484 -0.18182077
0.16197921 0.0 -0.2876715 0.59588456 0.39132595 -0.048008915 0.051945966 0.020561688
-0.024905661 0.3734137 0.13337716 0.3680403 0.8216694 0.12412676 -0.15713799 0.46261778
00000000: 2b96 94bd 7ccf 993e f675 b03d 7504 143f
00000010: 4b65 adbd e2b6 fcbd 78da 4bbe 8f18 d63d
00000020: 57da 3ebe a9c7 acbd fa87 c5bd 1837 e43e
00000030: 9464 a1bd 0000 0000 7cfb 49be 392f 3abe
00000040: e1dd 253e 0000 0000 ae49 93be e48b 183f
00000050: e05b c83e ffa4 44bd 4bc5 543d fc70 a83c
00000060: f506 ccbc 1530 bf3e 0694 083e c76f bc3e
00000070: ed58 523f 2c36 fe3d c8e8 20be 3ddc ec3e

feature_net.linear_layer_output.weight f4 [3, 32]
-0.17738818 0.5588083 0.78146285 0.5920253 0.24817626 0.17895094 0.1763225 -0.51305157
0.21525894 -0.026122632 -0.18818302 0.90793604 0.8547081 0.40962774 -0.030844878 0.10516153
0.97028506 -0.07340785 -0.011121101 1.1273142 0.6810836 -0.42483124 -0.124884285 -0.20352082
0.07237838 0.7674848 0.42983174 0.5326969 0.5519872 -0.33887568 0.32137722 0.46069354
-0.3074807 0.9767717 0.39461887 0.8815963 -0.04049197 -0.39792815 0.32217023 -0.10267709
0.40737686 0.239234 0.058830667 0.9889915 0.6167927 0.14510772 0.5603518 -0.3268432
0.66653746 0.032649282 -0.019787747 0.5627335 0.42685798 0.5883115 0.9587317 0.3297231
0.3511292 0.5472491 0.52935 0.51933885 1.0557071 -0.07717567 -0.01800217 0.8226868
0.32700613 0.31033072 0.07441428 0.9173553 -0.032795247 0.3031306 0.36519784 0.08172354
0.031236945 -0.088812046 -0.014403526 0.447441 0.00028451876 0.2563177 -0.06617166 0.012427937
0.55149144 -0.015069873 0.07478632 0.6241692 0.51713365 0.26689732 0.22452252 0.1797694
0.4851454 0.5188017 0.5360856 0.5265874 0.74665785 1.2200963 0.5202306 0.48294052
00000000: 3fa5 35be 100e 0f3f f30d 483f f88e 173f
00000010: eb21 7e3e ea3e 373e e38d 343e 5957 03bf
00000020: d76c 5c3e 21ff d5bc 0db3 40be 7f6e 683f
00000030: 26ce 5a3f baba d13e 66ae fcbc ee5e d73d
00000040: 9a64 783f db56 96bd 4735 36bc d54b 903f
00000050: 7f5b 2e3f 7b83 d9be 55c3 ffbd c367 50be
00000060: 1e3b 943d e279 443f e812 dc3e d35e 083f
00000070: 084f 0d3f 1d81 adbe 8e8b a43e 06e0 eb3e
00000080: 1c6e 9dbe b60d 7a3f 7c0b ca3e 4cb0 613f
00000090: e8da 25bd 3dbd cbbe 7ff3 a43e 5e48 d2bd
000000a0: b393 d03e c2f9 743e 6df8 703d 8c2e 7d3f
000000b0: 20e6 1d3f 1e97 143e 3773 0f3f fe57 a7be
000000c0: 33a2 2a3f 41bb 053d ea19 a2bc 4d0f 103f
000000d0: 218d da3e 959b 163f 716f 753f 77d1 a83e
000000e0: 35c7 b33e 8418 0c3f 7b83 073f 64f3 043f
000000f0: 6921 873f 470e 9ebd 4979 93bc 9a9b 523f
00000100: 596d a73e abe3 9e3e 8466 983d ccd7 6a3f
00000110: 4f54 06bd ef33 9b3e 36fb ba3e ac5e a73d
00000120: 9fe4 ff3c 17e3 b5bd c4fc 6bbc fd16 e53e
00000130: 762b 9539 133c 833e 0285 87bd 8c9e 4b3c
00000140: 8b2e 0d3f a1e7 76bc 9229 993d 8dc9 1f3f
00000150: df62 043f c4a6 883e 3be9 653e 7815 383e
00000160: fa64 f83e 30d0 043f e83c 093f 6fce 063f
00000170: f824 3f3f 1e2c 9c3f d52d 053f fb43 f73e

feature_net.linear_layer_output.bias f4 [3]
0.47463262 0.87860036 0.51783025
00000000: 0c03 f33e f4eb 603f 8690 043f

feature_net.linear_layer_0.weight f4 [32, 11]
0.32511613 -2.1967335 -3.0904367 5.2358346 -1.265802 -4.140392 0.11495871 10.434727
4.7236423 4.31962 3.3564348 5.741538 0.47723427 -7.7937794 0.7438593 -7.1426096
0.13073367 -10.873732 -2.245407 4.1950946 4.045069 3.8907058 -1.1759547 -0.39600617
-3.5638928 1.1974843 2.8753347 -5.072287 2.0430663 2.055434 5.9565415 5.487222
5.5955553 -5.3370123 1.7665869 9.68556 -3.2576828 5.318179 -0.68064016 8.564406
-0.5045259 4.9269676 4.6258283 4.6439424 -3.8146846 -2.5974505 2.4744034 -2.952143
3.643559 6.1054616 -6.8580356 0.3426256 5.5573983 5.6451807 5.0303407 -1.2985371
-0.92423 4.613513 4.72934 1.2838123 8.152205 3.2508607 -10.476461 4.0315924
4.353893 3.9434683 1.9686645 0.40777493 1.5783484 6.9291725 -2.8254414 4.6705327
-3.487964 -9.69688 3.0095804 4.165793 3.360201 -2.0668097 -2.0132446 -0.15801725
7.2144694 2.930633 -2.5322776 3.2267601 -1.9952216 3.9532316 4.515401 3.827405
3.3869717 -5.909683 -1.8505497 4.7474327 -5.6693945 10.239238 1.5062791 3.6883066
4.4782934 3.8071089 4.080117 -0.27684548 0.59799165 -4.273876 -4.8010654 -7.8285046
5.9324875 -2.9164355 3.7350523 5.8835826 6.570745 6.2925572 -0.020672146 0.4636839
-3.8513258 2.2913115 4.235812 -3.033439 -1.9552054 -0.1359969 4.6659746 5.3137403
5.367376 3.433511 -0.24452023 -0.14510973 6.4811893 -6.1797204 -7.1446486 -0.83412427
0.0049981778 4.111753 4.6080146 4.7903166 0.23536082 -0.010763263 2.4942117 -7.750287
1.0105047 -0.6116492 -5.130567 6.7986264 4.1588836 5.064288 4.3506265 -0.45042333
4.1292553 -0.45912495 -1.1870979 0.09160524 -13.22802 -0.27886924 0.044336755 4.2175536
3.5880501 4.1621385 -0.4514886 -6.460044 -0.7857051 8.054737 3.4921796 5.4613657
-2.1930888 6.5319486 3.4788332 3.7994747 4.4350705 -0.6287459 1.1682043 1.5279044
1.4850059 8.300666 -1.790785 -7.311958 -0.84827816 3.898001 4.932572 4.303288
-7.9557085 -1.6977261 6.0668874 2.4519346 6.50712 0.07160939 10.823725 1.2673608
3.9368234 4.219466 4.4173083 1.8955636 1.9977028 0.14328428 -5.91151 -0.91937786
5.912335 1.9327985 -3.6272786 3.8662329 3.3340394 3.3647113 1.5720041 -1.5487412
12.374083 2.9594123 -9.21431 -2.1476989 1.0594387 0.46712366 3.6698582 3.7868698
4.471027 0.78286976 -0.6039803 3.4278862 4.363586 3.60542 -0.9116354 -10.43352
1.5009662 3.5459692 3.643963 3.8385499 -0.32800987 0.5177764 -6.3459806 -4.6756516
1.0960189 1.4003664 2.0805168 2.355369 4.765143 4.663165 4.8958 1.9021107
0.3347677 -11.637962 -1.066424 -4.1117897 -0.5108798 9.020693 -1.338109 4.308785
4.9547005 3.554241 0.9251018 6.0591693 -2.3176742 -7.6862774 -2.163121 -5.7603774
0.978834 -10.172526 4.020381 3.993965 4.4724903 -4.1224585 -0.5183524 -7.10877
00000000: 9f75 a63e 4897 0cc0 b7c9 45c0 f58b a740
00000010: cd05 a2bf 177e 84c0 796f eb3d a4f4 2641
00000020: 1428 9740 543a 8a40 d4cf 5640 aeba b740
00000030: 0d58 f43e a466 f9c0 906d 3e3f 4290 e4c0
00000040: 0cdf 053e cefa 2dc1 c0b4 0fc0 373e 8640
00000050: 3571 8140 5301 7940 af85 96bf 52c1 cabe
00000060: d216 64c0 2a47 993f 7c05 3840 2d50 a2c0
00000070: 99c1 0240 3b8c 0340 fd9b be40 5397 af40
00000080: ca0e b340 cec8 aac0 851f e23f 0ef8 1a41
00000090: e07d 50c0 862e aa40 6f3e 2ebf cf07 0941
000000a0: 9c28 01bf b8a9 9d40 c906 9440 2d9b 9440
000000b0: cb23 74c0 a13c 26c0 a05c 1e40 e9ef 3cc0
000000c0: 1230 6940 f15f c340 0775 dbc0 9f6c af3e
000000d0: 35d6 b140 52a5 b440 8df8 a040 7736 a6bf
000000e0: 569a 6cbf e6a1 9340 c156 9740 f653 a43f
000000f0: 6f6f 0241 1a0e 5040 969f 27c1 ce02 8140
00000100: 1753 8b40 c961 7c40 33fd fb3f e0c7 d03e
00000110: 5207 ca3f c8bb dd40 08d4 34c0 0175 9540
00000120: cd3a 5fc0 6c26 1bc1 f79c 4040 2d4e 8540
00000130: 880d 5740 9c46 04c0 00d9 00c0 46cf 21be
00000140: efdc e640 7e8f 3b40 d610 22c0 3d83 4e40
00000150: 6c63 ffbf bf01 7d40 2a7e 9040 34f4 7440
00000160: 25c4 5840 201c bdc0 d0de ecbf f8ea 9740
00000170: ae6b b5c0 ebd3 2341 c1cd c03f 370d 6c40
00000180: 2e4e 8f40 aca7 7340 5290 8240 b1be 8dbe
00000190: fb15 193f 98c3 88c0 54a2 99c0 1c83 fac0
000001a0: f0d6 bd40 e1a6 3ac0 190b 6f40 4f46 bc40
000001b0: 8b43 d240 a15c c940 a258 a9bc fa67 ed3e
000001c0: 1f7c 76c0 d9a4 1240 c68b 8740 dd23 42c0
000001d0: 2c44 fabf c542 0bbe aa4f 9540 290a aa40
000001e0: 8bc1 ab40 a5be 5b40 8363 7abe a597 14be
000001f0: e765 cf40 45c0 c5c0 f6a0 e4c0 2b89 55bf
00000200: c1c7 a33b 7b93 8340 db74 9340 464a 9940
00000210: 6d02 713e 6658 30bc 2aa1 1f40 5a02 f8c0
00000220: 3858 813f 0b95 1cbf 9b2d a4c0 598e d940
00000230: 9315 8540 a60e a240 5538 8b40 e39d e6be
00000240: dc22 8440 6d12 ebbe d3f2 97bf 879b bb3d
00000250: f8a5 53c1 f3c7 8ebe 759a 353d 33f6 8640
00000260: 9da2 6540 3d30 8540 8429 e7be aeb8 cec0
00000270: f823 49bf 34e0 0041 df7f 5f40 82c3 ae40
00000280: 915b 0cc0 b905 d140 34a5 5e40 982a 7340
00000290: 19ec 8d40 7ef5 20bf b887 953f 5f92 c33f
000002a0: ac14 be3f 87cf 0441 7138 e5bf 8ffb e9c0
000002b0: c228 59bf d978 7940 a1d7 9d40 89b4 8940
000002c0: 2a95 fec0 174f d9bf f123 c240 7fec 1c40
000002d0: 543a d040 f2a7 923d fa2d 2d41 e138 a23f
000002e0: eaf4 7b40 de05 8740 975a 8d40 d4a1 f23f
000002f0: bab4 ff3f 1db9 123e 172b bdc0 595c 6bbf
00000300: d931 bd40 f165 f73f 5525 68c0 5c70 7740
00000310: e760 5540 6e57 5740 6e37 c93f 273d c6bf
00000320: 3efc 4541 0367 3d40 d06d 13c1 e673 09c0
00000330: b09b 873f d52a ef3e f5de 6a40 135c 7240
00000340: a712 8f40 276a 483f 749e 1abf 7d62 5b40
00000350: 7fa2 8b40 34bf 6640 f060 69bf b3ef 26c1
00000360: a91f c03f 29f1 6240 b136 6940 cdaa 7540
00000370: e9f0 a7be ff8c 043f 4612 cbc0 f09e 95c0
00000380: 594a 8c3f 353f b33f 3027 0540 5ebe 1640
00000390: 0d7c 9840 a638 9540 65aa 9c40 5d78 f33f
000003a0: ac66 ab3e 1835 3ac1 9580 88bf c893 83c0
000003b0: 05c9 02bf c254 1041 2847 abbf 91e1 8940
000003c0: e88c 9e40 af78 6340 79d3 6c3f b7e4 c140
000003d0: c654 14c0 fcf5 f5c0 9370 0ac0 0355 b8c0
000003e0: dd94 7a3f abc2 22c1 f6a6 8040 1f9d 7f40
000003f0: a41e 8f40 2eeb 83c0 beb2 04bf 0b7b e3c0

feature_net.linear_layer_0.bias f4 [32]
0.24226865 5.2584195 12.064556 4.8668413 3.6102803 5.613405 0.76365346 -0.65718347
8.171285 12.103143 17.917131 1.2092434 1.085895 1.9617833 2.8417063 -0.71915746
5.2138886 1.3162382 4.0410957 0.93699354 16.942917 1.520737 6.894665 1.2492362
-0.27560055 12.380685 11.803065 3.024737 0.75576454 -0.4240378 12.044092 1.5230043
00000000: 4615 783e f944 a840 6c08 4141 2abd 9b40
00000010: d50e 6740 04a1 b340 cb7e 433f 2d3d 28bf
00000020: 95bd 0241 79a6 4141 4956 8f41 7dc8 9a3f
00000030: 9bfe 8a3f b71b fb3f 84de 3540 b41a 38bf
00000040: 2dd8 a640 7e7a a83f a850 8140 cfde 6f3f
00000050: 188b 8741 83a7 c23f 18a1 dc40 f9e6 9f3f
00000060: 841b 8dbe 4917 4641 5bd9 3c41 4a95 4140
00000070: c979 413f 7c1b d9be 9ab4 4041 cef1 c23f

feature_net.layer_norm_0.weight f4 [32]
9.318081 10.371494 3.2953484 13.842474 4.666304 6.9105453 9.581413 6.061846
9.406076 0.2657665 12.200073 9.818739 6.8451614 8.840561 9.736902 12.811754
10.292783 5.2214956 5.8739667 9.885472 10.776971 9.233484 13.064422 9.171718
6.6363535 0.8134405 0.24467367 5.3431463 8.817084 9.79163 0.56600976 8.613333
00000000: dc16 1541 a4f1 2541 fde6 5240 c67a 5d41
00000010: 5d52 9540 3023 dd40 784d 1941 a4fa c140
00000020: 4a7f 1641 8c12 883e 8033 4341 8e19 1d41
00000030: 900b db40 f072 0d41 5aca 1b41 f2fc 4c41
00000040: 3daf 2441 7e16 a740 89f7 bb40 e52a 1e41
00000050: 796e 2c41 5abc 1341 df07 5141 5bbf 1241
00000060: 025d d440 a33d 503f bc8b 7a3e 0efb aa40
00000070: c712 0d41 84aa 1c41 04e6 103f 36d0 0941

feature_net.layer_norm_0.bias f4 [32]
0.3188367 2.8035057 -1.4093082 3.9203327 -0.5970641 0.7010212 -2.8646097 2.3076522
3.4029922 -0.7372281 2.7366002 0.46858886 -1.5570602 1.3820529 4.6410093 -0.5834847
3.6358156 -1.7035563 -1.7888155 -1.6712391 0.54342383 -1.4611763 2.9416182 -1.9331149
-0.76343983 -2.2682438 -0.7563895 0.9768484 -0.2928869 3.7905512 -1.8932828 -1.549179
00000000: 903e a33e a36c 3340 3664 b4bf bbe6 7a40
00000010: 31d9 18bf 2076 333f c455 37c0 93b0 1340
00000020: a0ca 5940 fbba 3cbf 7524 2f40 e1ea ef3e
00000030: c04d c7bf 1ce7 b03f 2683 9440 415f 15bf
00000040: 34b1 6840 220e dabf e8f7 e4bf 2aeb d5bf
00000050: d31d 0b3f d307 bbbf 7943 3c40 4f70 f7bf
00000060: cb70 43bf e82a 11c0 bea2 41bf bd12 7a3f
00000070: 46f5 95be 6498 7240 1757 f2bf 7f4b c6bf

feature_net.linear_layer_1.weight f4 [32, 32]
4.626465 4.2096167 11.508424 8.790081 10.343061 7.4108114 8.414175 4.522124
8.78138 0.15473032 6.875908 4.0179787 0.5575326 7.496767 11.674717 10.4350815
12.519591 -0.55406773 13.475178 7.247003 11.043507 12.519512 11.395535 9.470984
15.370949 -1.5253167 1.0731238 9.437809 12.455144 9.023792 1.3017801 9.444844
7.9012346 7.912418 12.158005 3.30282 -1.0076207 6.409351 4.429926 -0.5295221
8.313965 0.03262885 14.041539 8.586434 -4.0665464 5.666052 4.817098 -5.894183
3.697128 2.8877954 9.819965 -6.1935735 15.341203 -0.9247679 11.096855 4.682399
3.0984447 3.1739013 0.24903719 6.958554 -1.2750818 7.24867 -0.88238436 10.466894
-2.4451993 6.265624 7.71515 6.7435613 5.3804984 8.659047 5.0501585 5.758182
11.049502 -0.2595302 11.197482 3.0039237 6.991189 -1.4611818 5.330104 9.996186
11.462725 -7.872757 5.0409293 7.927725 16.406332 4.562959 5.2790623 4.841077
5.337368 2.9318311 1.2523997 6.055807 0.6450463 3.8025482 1.2645143 14.569206
5.0785427 -0.1477815 11.437443 12.432335 8.043173 10.095325 10.658822 7.9896555
4.428842 0.12331065 11.625184 6.857071 9.350658 9.927976 7.420373 5.6491246
11.806827 6.73771 2.2028785 6.507221 12.621541 -2.5197248 4.6680408 9.033154
5.720858 2.180367 0.35890305 0.13358566 5.2953825 9.048409 2.3509214 3.8092093
12.341757 8.792813 10.352572 2.8338363 0.9381284 -10.640086 -0.13249381 5.0966196
11.2352085 0.25746542 9.189396 2.7404659 -3.698826 1.5985657 4.46387 10.741842
2.18618 -2.2536774 -7.0209684 6.3053074 12.062589 4.656331 8.957866 1.1175559
5.362604 0.64394903 0.8914144 6.545082 2.3611047 7.6946635 1.0049704 1.1473428
5.7990556 5.5487003 3.5488338 8.796372 9.397852 8.30894 8.844723 11.123962
6.561112 0.23016502 10.370896 6.3786955 -1.6630404 7.8135524 6.206221 9.324598
11.2523155 -0.14198492 10.673344 13.880485 8.852736 6.6801105 13.096412 7.418232
14.009809 0.40047228 0.46827757 12.349831 12.678557 2.2103014 3.1223834 -7.063666
-0.31872633 6.3268247 12.153802 7.4498324 10.755973 9.716042 7.5101767 7.299158
10.4689045 -0.6793509 8.980219 4.247533 7.5954523 6.7960825 7.2459035 6.7814775
13.426242 5.5675435 13.124006 7.156372 13.1828165 10.133835 11.237511 9.643807
12.434489 0.93841547 0.03070297 12.229981 1.0955517 7.82114 -0.96063125 4.186206
10.135265 8.034125 5.4757037 4.6950088 -2.5524554 9.284057 11.337658 3.3822458
5.7996387 0.046414547 8.771413 -0.1319643 15.284744 6.620647 2.2936559 -3.145617
3.4987168 3.7169833 0.0772195 -0.13606228 7.129231 9.587468 11.646189 -7.680391
11.128693 2.1378741 -0.90815836 8.424184 0.79564315 3.2337065 0.47022188 6.70593
00000000: 000c 9440 2eb5 8640 8122 3841 2ca4 0c41
00000010: 2e7d 2541 5e25 ed40 76a0 0641 3db5 9040
00000020: 8880 0c41 a071 1e3e 7007 dc40 4893 8040
00000030: 75ba 0e3f 84e5 ef40 a4cb 3a41 18f6 2641
00000040: 3f50 4841 62d7 0dbf 549a 5741 73e7 e740
00000050: 34b2 3041 ec4f 4841 1d54 3641 2789 1741
00000060: 68ef 7541 943d c3bf 1f5c 893f 4401 1741
00000070: 4548 4741 7461 1041 bba0 a63f 151e 1741
00000080: ead6 fc40 8732 fd40 3087 4241 6761 5340
00000090: b7f9 80bf 6719 cd40 f4c1 8d40 c38e 07bf
000000a0: 0006 0541 d4a5 053d 25aa 6041 0962 0941
000000b0: 2621 82c0 4c50 b540 ab25 9a40 269d bcc0
000000c0: bf9d 6c40 a4d1 3840 941e 1d41 c131 c6c0
000000d0: 9175 7541 97bd 6cbf b88c 3141 36d6 9540
000000e0: eb4c 4640 3321 4b40 9b03 7f3e 79ac de40
000000f0: e135 a3bf 1bf5 e740 f1e3 61bf 6678 2741
00000100: 257e 1cc0 fe7f c840 82e2 f640 41cb d740
00000110: 0b2d ac40 758b 0a41 e69a a140 0743 b840
00000120: c3ca 3041 24e1 84be e328 3341 4940 4040
00000130: d2b7 df40 0108 bbbf 3690 aa40 61f0 1f41
00000140: 5267 3741 a0ed fbc0 4b4f a140 ecaf fd40
00000150: 2b40 8341 c303 9240 14ee a840 1aea 9a40
00000160: b8cb aa40 1fa3 3b40 a24e a03f 2cc9 c140
00000170: c121 253f f35c 7340 9bdb a13f 781b 6941
00000180: 6c83 a240 0954 17be c4ff 3641 d8ea 4641
00000190: d6b0 0041 7486 2141 898a 2a41 42ab ff40
000001a0: 13b9 8d40 4b8a fc3d c100 3a41 206d db40
000001b0: 4c9c 1541 fdd8 1e41 b273 ed40 a1c5 b440
000001c0: c3e8 3c41 529b d740 f6fb 0c40 283b d040
000001d0: d5f1 4941 2c43 21c0 9760 9540 cc87 1041
000001e0: 4511 b740 228b 0b40 24c2 b73e aeca 083e
000001f0: c673 a940 49c6 1041 7f75 1640 16ca 7340
00000200: d677 4541 5daf 0c41 23a4 2541 935d 3540
00000210: 2f29 703f cb3d 2ac1 75ac 07be 8217 a340
00000220: 6ac3 3341 82d2 833e c407 1341 cb63 2f40
00000230: 91b9 6cc0 cd9d cc3f 06d8 8e40 96de 2b41
00000240: 60ea 0b40 403c 10c0 c6ab e0c0 14c5 c940
00000250: 5d00 4141 aa00 9540 6b53 0f41 120c 8f3f
00000260: 749a ab40 d8d9 243f bc33 643f 5071 d140
00000270: 571c 1740 af3a f640 dfa2 803f 21dc 923f
00000280: dd91 b940 f48e b140 1820 6340 f1bd 0c41
00000290: 9a5d 1641 6bf1 0441 fc83 0d41 c0fb 3141
000002a0: a1f4 d140 61b0 6b3e 31ef 2541 461e cc40
000002b0: 82de d4bf 9f08 fa40 5d99 c640 8e31 1541
000002c0: 7c09 3441 7f64 11be 04c6 2a41 7716 5e41
000002d0: cfa4 0d41 77c3 d540 e78a 5141 2862 ed40
000002e0: 2d28 6041 b40a cd3e 14c2 ef3e e898 4541
000002f0: 5fdb 4a41 9475 0d40 21d5 4740 8d09 e2c0
00000300: 1930 a3be 5975 ca40 f975 4241 0765 ee40
00000310: 7718 2c41 e874 1b41 5e53 f040 b492 e940
00000320: a280 2741 f1e9 2dbf faae 0f41 caeb 8740
00000330: f20d f340 8279 d940 71de e740 dd01 d940
00000340: e3d1 5641 5129 b240 eefb 5141 0001 e540
00000350: d1ec 5241 3024 2241 d8cc 3341 094d 1a41
00000360: abf3 4641 ff3b 703f cc84 fb3c 01ae 4341
00000370: 0a3b 8c3f c746 fa40 eeeb 75bf 66f5 8540
00000380: 0c2a 2241 c78b 0041 f738 af40 833d 9640
00000390: 6e5b 23c0 7f8b 1441 0c67 3541 b776 5840
000003a0: a496 b940 2e1d 3e3d b557 0c41 a621 07be
000003b0: 508e 7441 57dc d340 42cb 1240 ca51 49c0
000003c0: faea 5f40 0ee3 6d40 4225 9e3d e953 0bbe
000003d0: a922 e440 4566 1941 ca56 3a41 c3c5 f5c0
000003e0: 200f 3241 eed2 0840 117d 68bf 75c9 0641
000003f0: 45af 4b3f 0cf5 4e40 ecc0 f03e fb96 d640

feature_net.linear_layer_1.bias f4 [32]
13.527223 10.08526 12.049368 10.374207 10.508276 11.79584 12.158113 8.638197
9.300887 11.453027 8.145079 23.400753 8.445855 10.114656 10.20937 26.740595
12.162697 11.088994 25.472149 24.65748 12.459523 10.038866 11.543365 11.305908
9.654295 9.83726 23.938314 8.276715 26.929798 10.651084 11.667839 8.147611
00000000: 816f 5841 3a5d 2141 36ca 4041 c0fc 2541
00000010: e621 2841 c3bb 3c41 a187 4241 0e36 0a41
00000020: 6fd0 1441 993f 3741 3e52 0241 be34 bb41
00000030: 3922 0741 a2d5 2141 9459 2341 bdec d541
00000040: 689a 4241 856c 3141 f6c6 cb41 8542 c541
00000050: 355a 4741 329f 2041 9fb1 3841 00e5 3441
00000060: fe77 1a41 6b65 1d41 ab81 bf41 6d6d 0441
00000070: 3a70 d741 d76a 2a41 78af 3a41 9d5c 0241

feature_net.layer_norm_1.weight f4 [32]
8.582903 7.3254786 7.0166416 4.627294 4.657258 9.489712 13.533221 4.9462743
9.771151 5.6536884 9.857835 1.1276405 5.8263464 7.8826456 5.1927347 0.18467414
5.0065303 4.780388 0.4299397 0.5333597 4.3669086 5.252376 6.233799 8.146319
6.291742 8.741883 1.1015326 5.4486685 0.21370384 12.280196 4.7337027 7.50386
00000000: 9253 0941 526a ea40 5488 e040 cb12 9440
00000010: 4208 9540 dcd5 1741 1388 5841 e147 9e40
00000020: a256 1c41 04eb b440 b1b9 1d41 8656 903f
00000030: 6e71 ba40 a23e fc40 e22a a640 381b 3d3e
00000040: 7f35 a040 f0f8 9840 0e21 dc3e 438a 083f
00000050: b7bd 8b40 7713 a840 487b c740 5357 0241
00000060: f355 c940 c1de 0b41 05ff 8c3f 7e5b ae40
00000070: 2ed5 5a3e af7b 4441 7e7a 9740 9f1f f040

feature_net.layer_norm_1.bias f4 [32]
1.7353239 1.8814676 1.5193104 1.840079 2.9134994 3.4592428 0.72837746 3.556719
1.1026922 3.0092974 -0.34507784 -2.6265588 2.9022493 0.93488055 1.7709866 -0.7940318
3.2279158 2.2026513 -1.290908 -1.3328903 2.5408518 3.726211 3.43897 1.5684627
3.5187788 1.0845647 -2.5395064 2.8238966 -0.8270378 0.2978548 3.2263968 1.5940012
00000000: 181f de3f eed3 f03f c378 c23f b587 eb3f
00000010: c676 3a40 3c64 5d40 f276 3a3f 49a1 6340
00000020: 0525 8d3f 5498 4040 0bae b0be 8a19 28c0
00000030: 74be 3940 5554 6f3f b0af e23f ab45 4bbf
00000040: 2c96 4e40 3df8 0c40 793c a5bf 269c aabf
00000050: 519d 2240 3e7a 6e40 1618 5c40 63c3 c83f
00000060: ac33 6140 04d3 8a3f 4687 22c0 b9ba 3440
00000070: c0b8 53bf 6d80 983e 497d 4e40 3b08 cc3f

feature_net.linear_layer_output.weight f4 [5, 32]
3.0496607 -8.798361 -5.9155455 -10.021646 -4.699197 -0.18559195 4.9002857 3.1647003
-1.9970871 9.278098 2.1821961 3.5423388 -1.2747766 -5.434097 2.6992385 -0.00392939
0.2784077 4.581513 1.3017408 -0.2436007 9.00112 -1.4359254 -0.35703778 0.5916414
1.070087 4.5543394 -1.8343068 -0.08100283 0.7721713 -1.4462827 0.5854128 -1.4275774
0.81374377 -1.9799811 -0.21983086 -0.8504845 -5.649513 1.1276017 -9.675751 1.1896636
-0.39993957 -2.6076365 3.9757965 -0.6085023 7.197822 1.6909906 -0.38979572 0.029226253
-1.4454734 -0.9676942 0.21270218 -0.4707543 0.007806718 0.7840334 -2.603447 -5.9775414
2.601576 1.7065127 0.41024628 -0.6619805 0.27378738 3.035362 -0.107053496 0.7135957
7.126021 -0.20615676 -0.95690304 -2.216973 3.75226 -3.146702 7.148687 -0.65540934
3.5204823 4.043811 -3.951301 -0.42465955 -6.38666 0.3716498 -2.0898883 -0.052548017
3.2285712 3.8318357 1.274992 -0.017407326 -1.3793564 -0.14596602 5.7984023 5.1482344
-1.8521432 0.5754062 -0.1633148 0.046557777 -0.22863345 -6.9830985 -1.6102633 -1.9061902
14.251628 -0.5105441 3.945158 1.4685832 0.33444217 -3.355945 3.6959617 -3.3876922
7.198278 0.6677725 -10.086619 -3.0475976 1.625945 -4.8642364 -3.5606766 -0.4446555
0.57439137 -0.8656145 -0.35483465 0.5479727 0.6192626 -0.2718964 5.4897714 5.6917934
2.3447108 12.208628 -0.7484821 -2.7581546 0.26486483 -3.585038 6.967261 1.5333933
-15.634147 0.66346943 0.35355562 -0.6485892 -1.3482854 3.7917168 -1.532033 10.424639
-8.349463 1.9600439 8.527652 -1.9221939 0.72841406 4.494769 3.363656 0.15318598
-0.14452831 2.219418 -0.11796241 2.2438483 -1.6936635 -2.9836988 -4.3062 -1.3159735
1.5851904 -10.422776 -0.6108672 3.457813 -0.4151254 -3.181633 -4.090845 -2.3048735
00000000: a42d 4340 16c6 0cc1 264c bdc0 a958 20c1
00000010: d25f 96c0 d10b 3ebe 24cf 9c40 738a 4a40
00000020: 8da0 ffbf 1773 1441 1aa9 0b40 aeb5 6240
00000030: e12b a3bf 1fe4 adc0 53c0 2c40 1dc2 80bb
00000040: 748b 8e3e c19b 9240 719f a63f 7672 79be
00000050: 9604 1041 67cc b7bf a8cd b6be d075 173f
00000060: 9cf8 883f 26bd 9140 91ca eabf d0e4 a5bd
00000070: 05ad 453f cb1f b9bf 9ddd 153f dbba b6bf
00000080: 8351 503f 0570 fdbf 571b 61be 5ab9 59bf
00000090: cfc8 b4c0 4155 903f e0cf 1ac1 e646 983f
000000a0: e1c4 ccbe 84e3 26c0 7373 7e40 cfc6 1bbf
000000b0: 8f54 e640 6172 d83f 4e93 c7be e56b ef3c
000000c0: 4605 b9bf cfba 77bf 9ace 593e b506 f1be
000000d0: 7fcf ff3b 6ab6 483f e09e 26c0 0548 bfc0
000000e0: 3980 2640 026f da3f cd0b d23e 8e77 29bf
000000f0: dc2d 8c3e 5f43 4240 dd3e dbbd 35ae 363f
00000100: 5d08 e440 c21a 53be 99f7 74bf e3e2 0dc0
00000110: 0725 7040 9163 49c0 0bc2 e440 e8c8 27bf
00000120: 954f 6140 e666 8140 1ee2 7cc0 fa6c d9be
00000130: 855f ccc0 e248 be3e bbc0 05c0 973c 57bd
00000140: e9a0 4e40 cc3c 7540 f032 a33f cf99 8ebc
00000150: c08e b0bf 1e78 15be 838c b940 56be a440
00000160: 0713 edbf d24d 133f ff3b 27be 5eb3 3e3d
00000170: e31e 6abe 8b75 dfc0 1c1d cebf 0afe f3bf
00000180: ab06 6441 05b3 02bf 787d 7c40 89fa bb3f
00000190: 013c ab3e cec7 56c0 a38a 6c40 f3cf 58c0
000001a0: 4b58 e640 23f3 2a3f cb62 21c1 d70b 43c0
000001b0: f71e d03f d3a7 9bc0 20e2 63c0 e3a9 e3be
000001c0: 500b 133f e998 5dbf e3ac b5be f047 0c3f
000001d0: fe87 1e3f 0136 8bbe 35ac af40 2c23 b640
000001e0: be0f 1640 8a56 4341 869c 3fbf 9b85 30c0
000001f0: 5d9c 873e 4371 65c0 cdf3 de40 3b46 c43f
00000200: 7725 7ac1 22d9 293f 3e05 b53e f109 26bf
00000210: 9e94 acbf 7dab 7240 a819 c4bf 52cb 2641
00000220: 6797 05c1 b8e2 fa3f 4371 0841 730a f6bf
00000230: 5879 3a3f 26d5 8f40 2446 5740 c9dc 1c3e
00000240: 3bff 13be f20a 0e40 4796 f1bd 369b 0f40
00000250: f7c9 d8bf ecf4 3ec0 64cc 89c0 d271 a8bf
00000260: 85e7 ca3f b1c3 26c1 cb61 1cbf cf4c 5d40
00000270: 518b d4be e09f 4bc0 34e8 82c0 0c83 13c0

feature_net.linear_layer_output.bias f4 [5]
-0.6727413 2.3776236 1.9486392 -0.7243374 -1.4887592
00000000: c638 2cbf fc2a 1840 026d f93f 2d6e 39bf
00000010: a98f bebf

feature_net.linear_layer_0.weight f4 [32, 3]
0.15622018 -0.23199415 -0.07545694 -0.4249204 0.046850227 0.13371347 -0.6435549 0.2201686
0.04147202 0.37603268 0.14318019 0.19683187 0.23751654 0.25844747 0.29820976 0.39137194
-0.09239958 -0.29471695 0.13266145 0.22847301 0.24404474 -0.6036734 -0.286867 0.25393245
-0.59089416 0.16328634 0.14452279 0.16055794 -0.10241914 0.27680868 -0.5041858 0.10471019
0.15051901 -0.08785472 -0.44249487 0.0965816 -0.0054056114 -0.10637689 0.24498947 -0.11555675
-0.29646036 0.15527993 -0.17317028 -0.118327625 0.13027428 -0.55472606 -0.18089207 0.25691268
0.055190418 -0.36883834 -0.2426321 0.5977309 0.21383709 0.68424106 -0.0026147023 -0.15173793
-0.0964162 0.0010414582 -0.06789758 0.23658074 0.45530096 0.12625805 0.5773758 0.45362905
0.51778907 0.29708624 -0.3077048 0.62868357 -0.7150806 0.13051866 0.17829779 0.3028232
-0.08614034 -0.01625355 -0.14992295 0.12974827 0.293051 -0.08506745 0.07799387 0.16278566
0.018087886 0.038161725 -0.2464617 0.033900734 -0.04676752 -0.27197474 0.070990324 -0.24965204
0.18312725 0.055621807 -0.048145138 0.23818114 -0.04907199 -0.17687322 0.061376266 -0.053858247
00000000: 2ff8 1f3e e08f 6dbe 2b89 9abd 2b8f d9be
00000010: 06e6 3f3d 2fec 083e 04c0 24bf e173 613e
00000020: 91de 293d 5b87 c03e d49d 123e 4b8e 493e
00000030: 8937 733e 3a53 843e f3ae 983e e761 c83e
00000040: fe3b bdbd 24e5 96be 67d8 073e d4f4 693e
00000050: dde6 793e 578a 1abf 3be0 92be 6f03 823e
00000060: d744 17bf 8934 273e c8fd 133e 4d69 243e
00000070: 20c1 d1bd deb9 8d3e 5212 01bf 4c72 d63d
00000080: a821 1a3e 2ded b3bd b08e e2be 93cc c53d
00000090: 8e21 b1bb 20dc d9bd 85de 7a3e 04a9 ecbd
000000a0: a7c9 97be b401 1f3e 8d53 31be c155 f2bd
000000b0: 9f66 053e 8702 0ebf c53b 39be 0f8a 833e
000000c0: 590f 623d 61d8 bcbe 8d74 78be e404 193f
000000d0: 1cf8 5a3e 6c2a 2f3f 6d5b 2bbb 3061 1bbe
000000e0: db75 c5bd 8a81 883a e30d 8bbd 3942 723e
000000f0: 351d e93e ca49 013e e7ce 133f 1142 e83e
00000100: d38d 043f b01b 983e 7c8b 9dbe 68f1 203f
00000110: 860f 37bf afa6 053e b293 363e a40b 9b3e
00000120: 596a b0bd 2a26 85bc 6785 19be bbdc 043e
00000130: c80a 963e d837 aebd 40bb 9f3d 49b1 263e
00000140: 0c2d 943c 784f 1c3d 7560 7cbe 7fdb 0a3d
00000150: 4d8f 3fbd 4640 8bbe 6063 913d c9a4 7fbe
00000160: b685 3b3e b1d3 633d d633 45bd c2e5 733e
00000170: b6ff 48bd 411e 35be ae65 7b3d 779a 5cbd

feature_net.linear_layer_0.bias f4 [32]
-0.20456855 -0.040947497 -0.09547816 0.5272245 -0.046536185 0.19010994 -0.03280438 -0.09589018
-0.09293676 0.059875716 0.037679672 -0.06239066 0.06135279 -0.1544991 -0.06999566 0.042638406
-0.10950315 0.30311224 -0.09879442 -0.16651095 0.20253454 0.645516 -0.2323205 0.41629863
-0.058413163 -0.09574713 -0.03591984 -0.14887838 -0.11696118 -0.16937047 -0.11079657 -0.05755113
00000000: 6b7a 51be 90b8 27bd 0e8a c3bd 2ff8 063f
00000010: ba9c 3ebd 2eac 423e e35d 06bd 1262 c4bd
00000020: a155 bebd 3d40 753d 0056 1a3d 598d 7fbd
00000030: 104d 7b3d 0335 1ebe e259 8fbd 9ca5 2e3d
00000040: 3043 e0bd 8731 9b3e bb54 cabd d981 2abe
00000050: 3765 4f3e 8940 253f 6de5 6dbe 1825 d53e
00000060: a442 6fbd 1217 c4bd af20 13bd 9373 18be
00000070: 5889 efbd 746f 2dbe 50e9 e2bd bcba 6bbd

feature_net.layer_norm_0.weight f4 [32]
0.78891885 0.8043207 0.84103125 1.5658454 0.9522477 1.2422155 0.97455174 0.9218135
0.9099641 0.94724685 0.9072044 0.8912363 1.0723541 0.89219594 0.87663317 1.0429571
0.9118595 1.3268423 0.9464899 0.80921423 1.1149 1.4810874 0.77108514 1.1817527
0.9427467 0.7537402 0.7930733 0.8841374 0.8994558 0.81778544 0.817851 0.92878723
00000000: 96f6 493f f6e7 4d3f d34d 573f 9f6d c83f
00000010: 81c6 733f eb00 9f3f 397c 793f f8fb 6b3f
00000020: 68f3 683f c57e 723f 8c3e 683f 1028 643f
00000030: e642 893f f466 643f 086b 603f 9e7f 853f
00000040: a06f 693f f8d5 a93f 294d 723f aa28 4f3f
00000050: 0bb5 8e3f 4694 bd3f d665 453f ac43 973f
00000060: d957 713f 1ef5 403f da06 4b3f d456 623f
00000070: bc42 663f 635a 513f af5e 513f 00c5 6d3f

feature_net.layer_norm_0.bias f4 [32]
-0.22975154 -0.12766807 -0.109048665 0.4531224 -0.03274105 0.07797896 -0.0035090523 -0.082188554
-0.100092314 -0.06151671 -0.12385447 -0.11058126 0.09400667 -0.12876032 -0.120927885 -0.15463918
-0.09332271 0.27310425 -0.10116892 -0.20124261 0.17694923 0.4279424 -0.31930688 0.24681637
-0.07402569 -0.17013343 -0.1298034 -0.12474482 -0.09659427 -0.17518345 -0.19050036 -0.08556665
00000000: fd43 6bbe 6bbb 02be e854 dfbd a9ff e73e
00000010: 7b1b 06bd 6fb3 9f3d 21f8 65bb 7952 a8bd
00000020: 33fd ccbd f2f8 7bbd 6aa7 fdbd 6d78 e2bd
00000030: 9286 c03d bfd9 03be 0aa9 f7bd bc59 1ebe
00000040: fa1f bfbd 52d4 8b3e a731 cfbd 8b12 4ebe
00000050: 2e32 353e 441b db3e 317c a3be 6ebd 7c3e
00000060: c89a 97bd 7537 2ebe 2feb 04be 367a ffbd
00000070: 37d3 c5bd 4a63 33be 8712 43be 913d afbd

feature_net.linear_layer_1.weight f4 [32, 32]
-0.12082134 -0.18213035 0.13746706 -0.37904567 -0.22618717 -0.6435013 -0.02332397 0.16321035
-0.02507523 -0.56997293 -0.3660429 0.14706491 -0.38720852 0.5881345 -0.07686138 -0.4477669
0.21326338 -0.37222686 -0.44663742 -0.06661682 -0.19515547 -0.24024941 -0.05529212 -0.05500005
0.0895311 0.04535042 0.23523666 -0.04942031 -0.20509756 -0.35064104 0.2989101 -0.21909422
-0.27197176 0.24103919 0.006199052 -0.37415212 -0.3155637 0.30896243 0.18007399 0.34004033
0.05557263 -0.19631629 0.34943408 0.25287446 -0.38221666 0.24826027 -0.08635417 -0.1845801
-0.08628787 0.33075988 0.13641207 -0.12567988 0.30391094 -0.0734058 -0.20320362 0.07475733
0.07708489 -0.1664573 -0.13242897 -0.026935086 0.21248701 -0.2514894 0.11462394 0.081879355
-0.3302354 0.004349862 -0.09263054 -0.27421293 0.039350465 0.32399774 0.37951952 -0.21710193
0.28357384 -0.27675804 -0.23100471 0.17031075 -0.29485106 -0.18256101 -0.119954094 0.031225877
0.36434415 -0.45168296 -0.1228479 0.18366368 0.1390436 -0.59367776 0.117946155 0.14848052
0.25860542 -0.030487897 -0.11534068 0.01834437 -0.12568733 0.2692538 0.17566028 0.40184742
0.0285256 0.04984387 0.3336686 0.73515546 0.47705966 0.28439045 -0.017404664 0.2748954
0.17190221 0.71020496 -0.3761817 -0.29065192 0.061844908 -0.17934085 -0.07121608 0.0058170697
0.27253208 0.4262228 -0.4395504 -0.43654332 0.7162131 0.9331623 0.06477653 0.76254386
-0.30799684 0.36766115 -0.005178042 0.1233903 0.067384236 0.20803457 -0.1391509 0.19633564
0.4390378 0.15873404 -0.21099244 -0.56251645 -0.13187616 -0.3916729 -0.17916206 -0.20265822
0.49035743 -0.058910497 0.556997 -0.10365369 0.0046017854 0.054120135 0.24249056 -0.21243785
0.023566302 -0.44681922 -0.21735525 -0.0651431 0.0606245 -0.29287815 -0.51550025 0.20170453
0.17884167 -0.20261501 -0.11290882 0.23254699 0.13562825 -0.31987312 -0.31528953 0.11192758
0.23323691 -0.6371117 -0.38644263 0.07277473 -0.27324435 0.084311225 0.19366834 -0.16546935
-0.15114038 -0.3531862 0.061587486 0.16207933 -0.66411257 -0.018849147 -0.27055022 -0.122657165
0.18875542 -0.27999157 -0.4951139 -0.5092 -0.26680404 -0.5794084 -0.3582347 -0.07945195
-0.012601971 -0.007202227 -0.51464194 -0.026583418 0.14466731 0.13177481 -0.29052675 -0.56285024
0.04303143 0.30508217 0.34337524 -0.5442595 -0.040753413 -0.58032036 0.025556913 -0.32423317
-0.253545 -0.16685517 -0.31962872 0.3010589 -0.4458417 0.40348658 0.30037045 0.14845817
0.039095286 -0.2531725 0.27129227 -0.33337954 -0.053115055 -0.28526068 -0.05920405 0.17636062
-0.15895158 0.28841078 -0.07924557 0.18140766 0.11211906 -0.0331173 -0.6089902 -0.18905644
-0.15381663 -0.00011520653 0.39220935 -0.19587073 -0.31641006 -0.9374299 0.20184164 -0.34757736
0.38759002 -0.013877791 0.0066844574 -0.21770841 -0.15496252 0.27973232 -0.23049213 0.38316137
-0.18580052 -0.048819043 -0.4019726 -0.034671493 -0.35340968 -0.5608474 -0.3383893 -0.02869957
-0.03350101 0.0010880011 -0.48238832 0.12632696 -0.3251094 -0.056746468 0.07813096 0.2933699
00000000: 2e71 f7bd 6180 3abe 2ac4 0c3e 4612 c2be
00000010: 9c9d 67be 80bc 24bf e911 bfbc 9d20 273e
00000020: 926a cdbc bfe9 11bf fa69 bbbe 2f98 163e
00000030: 3240 c6be fc8f 163f 8069 9dbd b441 e5be
00000040: b761 5a3e 8594 bebe a9ad e4be 666e 88bd
00000050: d6d6 47be f103 76be fd79 62bd bc47 61bd
00000060: 155c b73d 5dc1 393d e1e1 703e f36c 4abd
00000070: 1805 52be 3987 b3be bf0a 993e 3c5a 60be
00000080: e23f 8bbe fad2 763e 6b21 cb3b de90 bfbe
00000090: 9191 a1be 5330 9e3e 5165 383e c419 ae3e
000000a0: 20a0 633d 2307 49be 06e9 b23e c378 813e
000000b0: e7b1 c3be f137 7e3e 75da b0bd 9102 3dbe
000000c0: b2b7 b0bd 5c59 a93e 9baf 0b3e 3ab2 00be
000000d0: 379a 9b3e c855 96bd 9c14 50be 5f1a 993d
000000e0: afde 9d3d c873 2abe 769b 07be f8a6 dcbc
000000f0: 3296 593e 38c3 80be f5bf ea3d 5db0 a73d
00000100: 9d14 a9be 4a89 8e3b 15b5 bdbd a365 8cbe
00000110: f42d 213d 08e3 a53e 6250 c23e f84f 5ebe
00000120: 9730 913e 3bb3 8dbe 808c 6cbe f165 2e3e
00000130: b8f6 96be 46f1 3abe 7eaa f5bd 69cd ff3c
00000140: 518b ba3e fd42 e7be ae97 fbbd 5512 3c3e
00000150: 7261 0e3e 44fb 17bf c18d f13d 470b 183e
00000160: ee67 843e c1c1 f9bc bc37 ecbd ef46 963c
00000170: 2eb4 00be a2db 893e 4ae0 333e f2be cd3e
00000180: 85ae e93c 1629 4c3d 9cd6 aa3e 2633 3c3f
00000190: 2a41 f43e a09b 913e 3a94 8ebc 17bf 8c3e
000001a0: 2207 303e fecf 353f e39a c0be 54d0 94be
000001b0: 1651 7d3d 21a5 37be bcd9 91bd 1e9d be3b
000001c0: 5389 8b3e e039 da3e c00c e1be 9b82 dfbe
000001d0: be59 373f b9e3 6e3f 8fa9 843d 1336 433f
000001e0: c3b1 9dbe 153e bc3e 91ac a9bb 0eb4 fc3d
000001f0: bf00 8a3d 0407 553e 937d 0ebe 360c 493e
00000200: 90c9 e03e 2d8b 223e 670e 58be 1401 10bf
00000210: 8b0a 07be 5a89 c8be 4276 37be a385 4fbe
00000220: 2110 fb3e 224c 71bd 5b97 0e3f 6348 d4bd
00000230: 93ca 963b 13ad 5d3d 724f 783e 4f89 59be
00000240: 1e0e c13c 7dc5 e4be 6092 5ebe bf69 85bd
00000250: 6551 783d 20f4 95be d3f7 03bf a28b 4e3e
00000260: 4522 373e 4f7a 4fbe bd3c e7bd cc20 6e3e
00000270: 22e2 0a3e 69c6 a3be a16d a1be 493a e53d
00000280: a8d5 6e3e c119 23bf cfdb c5be eb0a 953d
00000290: afe6 8bbe 5dab ac3d fe50 463e cc70 29be
000002a0: 8bc4 1abe d2d4 b4be 2943 7c3d 20f8 253e
000002b0: 4803 2abf 8769 9abc 8f85 8abe ae33 fbbd
000002c0: 1a49 413e 0e5b 8fbe 927f fdbe ee5a 02bf
000002d0: 8a9a 88be 1c54 14bf 8a6a b7be b4b7 a2bd
000002e0: 7f78 4ebc a900 ecbb 93bf 03bf 78c5 d9bc
000002f0: ab23 143e faef 063e ecbf 94be f416 10bf
00000300: ba41 303d bb33 9c3e e1ce af3e 9754 0bbf
00000310: 0ded 26bd e08f 14bf bb5c d13c e401 a6be
00000320: a6d0 81be 15dc 2abe 60a6 a3be 6424 9a3e
00000330: 5d45 e4be cb95 ce3e 28ca 993e 6b05 183e
00000340: 6122 203d d39f 81be d2e6 8a3e b9b0 aabe
00000350: 2c8f 59bd b00d 92be f27f 72bd e197 343e
00000360: 34c4 22be 94aa 933e 804b a2bd eec2 393e
00000370: ad9e e53d 02a6 07bd c8e6 1bbf 0398 41be
00000380: 1b82 1dbe 099b f1b8 aacf c83e 5692 48be
00000390: 8000 a2be 68fb 6fbf 93af 4e3e a9f5 b1be
000003a0: 3372 c63e ad5f 63bc 4b09 db3b f4ee 5ebe
000003b0: 7fae 1ebe 1339 8f3e 2106 6cbe ba2d c43e
000003c0: 7e42 3ebe 7af6 47bd 5acf cdbe b203 0ebd
000003d0: 1df2 b4be b293 0fbf 5d41 adbe 5c1b ebbc
000003e0: 5b38 09bd 429b 8e3a 9afb f6be db5b 013e
000003f0: bd74 a6be fc6e 68bd 2003 a03d 9434 963e

feature_net.linear_layer_1.bias f4 [32]
-0.13559696 -0.05247654 -0.19168352 0.34368518 -0.12684105 -0.24235643 -0.19295608 0.044707812
-0.06479069 -0.520817 -0.34620053 0.21046346 -0.15910657 -0.04441314 -0.39434323 -0.38096198
-0.1959363 0.0437031 -0.42458963 0.5012026 0.16536655 -0.08779735 0.053432822 -0.1804361
-0.083268136 0.41195643 -0.05623983 0.2698618 0.51085705 -0.019545779 -0.5551314 0.116494775
00000000: eed9 0abe a4f1 56bd af48 44be 81f7 af3e
00000010: 9fe2 01be 492c 78be 4796 45be 8a1f 373d
00000020: fbb0 84bd 4354 05bf 3241 b1be bc83 573e
00000030: d5ec 22be 8dea 35bd 5be7 c9be 730d c3be
00000040: 87a3 48be 0602 333d d063 d9be d04e 003f
00000050: d955 293e 19cf b3bd 60dc 5a3d 3ec4 38be
00000060: 7c88 aabd f4eb d23e bc5b 66bd 532b 8a3e
00000070: 87c7 023f 781e a0bc 171d 0ebf d094 ee3d

feature_net.layer_norm_1.weight f4 [32]
0.917814 1.1726928 1.0681103 1.5939311 0.86446184 0.8792081 0.8146741 1.1728716
0.7660843 0.93193436 0.9096601 1.4011219 0.8409359 1.0 0.789801 0.8347251
1.2258601 1.0 0.5807137 1.6614156 1.2986852 1.0892818 1.2675953 1.0907362
0.9786287 1.2765242 1.1679959 1.3787344 1.7420487 1.1103224 0.9237745 1.3372256
00000000: dcf5 6a3f cc1a 963f d7b7 883f ef05 cc3f
00000010: 5f4d 5d3f c813 613f 7b8e 503f a820 963f
00000020: 1a1e 443f 4093 6e3f 7cdf 683f f657 b33f
00000030: 9347 573f 0000 803f 6630 4a3f 8bb0 553f
00000040: fce8 9c3f 0000 803f a7a9 143f 44a9 d43f
00000050: 513b a63f 966d 8b3f 9040 a23f 3e9d 8b3f
00000060: 6987 7a3f 2565 a33f e480 953f 5e7a b03f
00000070: 74fb de3f 0b1f 8e3f 7c7c 6c3f 352a ab3f

feature_net.layer_norm_1.bias f4 [32]
-0.072551966 0.3004092 0.086161956 0.5781925 -0.08466587 -0.12339552 -0.19907449 0.10453883
-0.18637869 -0.08436487 -0.09645047 0.44573143 -0.0788045 0.0 -0.19724761 -0.18182042
0.16197802 0.0 -0.2876717 0.59588313 0.39132425 -0.048008796 0.051946055 0.020561852
-0.024905546 0.37341303 0.1333767 0.36803967 0.82166576 0.12412642 -0.15713812 0.46261743
00000000: 2096 94bd 3ccf 993e ae75 b03d 6c04 143f
00000010: 4d65 adbd cab6 fcbd 2fda 4bbe 7418 d63d
00000020: 0eda 3ebe 7dc7 acbd d387 c5bd e936 e43e
00000030: 4164 a1bd 0000 0000 47fb 49be 222f 3abe
00000040: 91dd 253e 0000 0000 b449 93be cc8b 183f
00000050: a75b c83e dfa4 44bd 63c5 543d 5471 a83c
00000060: b706 ccbc fe2f bf3e e793 083e b26f bc3e
00000070: b058 523f fe35 fe3d d1e8 20be 31dc ec3e
