otk/AgileRL-MATD3/simple_speaker_listener_v4/result/20240102-0837/MATD3_trained_agent_0025000.pt (torch, 530778 bytes, 224 tensors)

feature_net.linear_layer_0.weight f4 [32, 3]
000000 ed f7 1f 3e a6 8f 6d be d9 88 9a bd 11 8f d9 be
       0.1562192 -0.23199329 -0.07545633 -0.42491964
000010 58 e6 3f 3d 37 ec 08 3e a6 bf 24 bf 13 74 61 3e
       0.046850532 0.13371359 -0.6435493 0.22016935
000020 cb de 29 3d 90 87 c0 3e ff 9d 12 3e 61 8e 49 3e
       0.041472238 0.37603426 0.14318083 0.1968322
000030 67 37 73 3e da 52 84 3e cb ae 98 3e e1 61 c8 3e
       0.23751603 0.2584446 0.29820856 0.39137176
000040 fd 3b bd bd 47 e5 96 be 63 d8 07 3e b0 f4 69 3e
       -0.092399575 -0.294718 0.13266139 0.22847247
000050 c3 e6 79 3e 09 8a 1a bf 03 e0 92 be 7f 03 82 3e
       0.24404435 -0.60366875 -0.28686532 0.25393292
000060 aa 44 17 bf 93 34 27 3e d0 fd 13 3e 84 69 24 3e
       -0.5908915 0.16328649 0.1445229 0.16055876
000070 77 c1 d1 bd 9d b9 8d 3e 6c 12 01 bf 9e 72 d6 3d
       -0.102419786 0.27680674 -0.50418735 0.1047108
000080 c7 21 1a 3e dc ec b3 bd 49 8e e2 be cb cc c5 3d
       0.15051948 -0.08785412 -0.4424918 0.09658202
000090 8d 21 b1 bb 67 dc d9 bd 61 de 7a 3e a3 a8 ec bd
       -0.005405611 -0.106377415 0.24498893 -0.115556024
0000a0 95 c9 97 be cb 01 1f 3e 2d 53 31 be 9a 55 f2 bd
       -0.29645982 0.15528028 -0.17316885 -0.118327335
0000b0 c0 66 05 3e d8 02 0e bf 5c 3b 39 be 35 8a 83 3e
       0.13027477 -0.5547309 -0.1808905 0.2569138
0000c0 5f 0f 62 3d 01 d8 bc be 25 74 78 be 2d 05 19 3f
       0.05519044 -0.36883548 -0.24263056 0.5977352
0000d0 22 f8 5a 3e 1a 2a 2f 3f a4 5b 2b bb 8a 61 1b be
       0.21383718 0.68423617 -0.0026147151 -0.15173927
0000e0 17 76 c5 bd 68 81 88 3a fd 0d 8b bd 00 42 72 3e
       -0.096416645 0.0010414543 -0.067897774 0.2365799
0000f0 40 1d e9 3e 04 4a 01 3e d3 ce 13 3f 29 42 e8 3e
       0.45530128 0.12625891 0.57737464 0.45362976
000100 f8 8d 04 3f e5 1b 98 3e a8 8b 9d be 1c f1 20 3f
       0.5177913 0.29708782 -0.30770612 0.62867904
000110 85 0f 37 bf f5 a6 05 3e 04 94 36 3e ea 0b 9b 3e
       -0.71508056 0.1305197 0.17829901 0.30282527
000120 1d 6a b0 bd d6 25 85 bc 5b 85 19 be dc dc 04 3e
       -0.086139895 -0.016253393 -0.14992277 0.12974876
000130 1d 0b 96 3e c5 37 ae bd 64 bb 9f 3d 55 b1 26 3e
       0.29305354 -0.08506731 0.07799414 0.16278584
000140 51 2d 94 3c a8 4f 1c 3d 25 60 7c be ba db 0a 3d
       0.018088015 0.038161904 -0.24646051 0.033900954
000150 37 8f 3f bd 12 40 8b be 88 63 91 3d 8a a4 7f be
       -0.04676744 -0.2719732 0.07099062 -0.2496511
000160 d5 85 3b 3e e0 d3 63 3d 69 33 45 bd f3 e5 73 3e
       0.18312772 0.05562198 -0.04814473 0.23818187
000170 a3 ff 48 bd da 1d 35 be c9 65 7b 3d 23 9a 5c bd
       -0.04907192 -0.17687169 0.061376367 -0.053857934

feature_net.linear_layer_0.bias f4 [32]
000000 2f 7a 51 be 68 b8 27 bd b9 89 c3 bd 41 f8 06 3f
       -0.20456766 -0.040947348 -0.09547753 0.52722555
000010 d6 9c 3e bd ce ab 42 3e db 5d 06 bd ba 61 c4 bd
       -0.04653629 0.19010851 -0.03280435 -0.09588952
000020 85 55 be bd fa 3f 75 3d 56 56 1a 3d f2 8c 7f bd
       -0.09293655 0.059875466 0.037679993 -0.062390275
000030 9e 4c 7b 3d 9b 34 1e be c1 59 8f bd 64 a5 2e 3d
       0.061352365 -0.15449755 -0.06999541 0.042638198
000040 18 43 e0 bd 1e 31 9b 3e 0f 55 ca bd eb 81 2a be
       -0.10950297 0.3031091 -0.09879505 -0.16651122
000050 8b 65 4f 3e 8b 40 25 3f a1 e5 6d be 43 25 d5 3e
       0.2025358 0.6455161 -0.23232128 0.4162999
000060 88 42 6f bd fc 16 c4 bd 77 20 13 bd 89 73 18 be
       -0.05841306 -0.095746964 -0.035919633 -0.14887823
000070 49 89 ef bd 57 6f 2d be eb e8 e2 bd 4f ba 6b bd
       -0.11696107 -0.16937004 -0.11079582 -0.057550725

feature_net.layer_norm_0.weight f4 [32]
000000 40 f6 49 3f e4 e7 4d 3f a9 4d 57 3f b8 6d c8 3f
       0.7889137 0.8043196 0.84102875 1.5658484
000010 17 c6 73 3f de 00 9f 3f 26 7c 79 3f ac fb 6b 3f
       0.95224136 1.242214 0.9745506 0.92180896
000020 53 f3 68 3f 8a 7e 72 3f 26 3e 68 3f c1 27 64 3f
       0.90996283 0.94724333 0.9071983 0.8912316
000030 85 42 89 3f a4 66 64 3f aa 6a 60 3f 8b 7f 85 3f
       1.0723425 0.8921912 0.87662756 1.0429548
000040 90 6f 69 3f ba d5 a9 3f 06 4d 72 3f 83 28 4f 3f
       0.91185856 1.3268349 0.9464878 0.8092119
000050 36 b5 8e 3f 8f 94 bd 3f b8 65 45 3f e7 43 97 3f
       1.1149051 1.4810961 0.77108335 1.1817597
000060 96 57 71 3f fd f4 40 3f 9d 06 4b 3f 85 56 62 3f
       0.9427427 0.7537382 0.79306966 0.8841327
000070 53 42 66 3f 32 5a 51 3f 45 5e 51 3f ed c4 6d 3f
       0.8994495 0.8177825 0.8178447 0.9287861

feature_net.layer_norm_0.bias f4 [32]
000000 2f 44 6b be 87 bb 02 be 37 55 df bd ae ff e7 3e
       -0.22975229 -0.12766849 -0.10904925 0.45312256
000010 d1 1b 06 bd 30 b3 9f 3d 22 f8 65 bb c3 52 a8 bd
       -0.03274137 0.07797849 -0.0035090526 -0.082189105
000020 4a fd cc bd 46 f9 7b bd 65 a7 fd bd ba 78 e2 bd
       -0.100092486 -0.061517023 -0.123854436 -0.11058183
000030 7e 86 c0 3d d6 d9 03 be 2b a9 f7 bd ff 59 1e be
       0.09400652 -0.12876067 -0.12092813 -0.15464018
000040 03 20 bf bd fb d3 8b 3e f1 31 cf bd d6 12 4e be
       -0.093322776 0.27310166 -0.101169474 -0.20124373
000050 33 32 35 3e 8d 1b db 3e 6c 7c a3 be 93 bd 7c 3e
       0.1769493 0.42794457 -0.31930864 0.24681692
000060 c9 9a 97 bd a6 37 2e be 54 eb 04 be 31 7a ff bd
       -0.0740257 -0.17013416 -0.12980396 -0.12474478
000070 77 d3 c5 bd 57 63 33 be d3 12 43 be 96 3d af bd
       -0.09659474 -0.17518364 -0.1905015 -0.085566685

feature_net.linear_layer_1.weight f4 [32, 32]
000000 63 71 f7 bd 52 80 3a be 0c c4 0c 3e dd 11 c2 be
       -0.12082174 -0.18213013 0.13746661 -0.37904254
000010 4f 9d 67 be 40 bc 24 bf 83 11 bf bc e6 20 27 3e
       -0.22618602 -0.64349747 -0.02332378 0.16321144
000020 64 6a cd bc 9b e9 11 bf 44 6a bb be f8 97 16 3e
       -0.025075145 -0.5699708 -0.36604512 0.14706409
000030 11 40 c6 be fa 8f 16 3f 81 69 9d bd 46 41 e5 be
       -0.38720754 0.5881344 -0.07686139 -0.44776362
000040 93 61 5a 3e 78 94 be be ac ad e4 be 40 6e 88 bd
       0.21326284 -0.37222648 -0.4466375 -0.066616535
000050 c7 d6 47 be de 03 76 be 0d 7a 62 bd 5d 47 61 bd
       -0.19515525 -0.24024913 -0.055292178 -0.054999698
000060 c6 5b b7 3d 0a c1 39 3d cc e1 70 3e ee 6c 4a bd
       0.08953051 0.045350112 0.23523635 -0.04942029
000070 3c 05 52 be ee 86 b3 be 7b 0a 99 3e cf 59 60 be
       -0.2050981 -0.3506388 0.29890808 -0.2190926
000080 a7 3f 8b be 4b d3 76 3e 86 21 cb 3b f1 90 bf be
       -0.27197 0.2410404 0.0061990647 -0.3741527
000090 aa 91 a1 be 32 30 9e 3e eb 64 38 3e a2 19 ae 3e
       -0.31556445 0.30896145 0.18007247 0.3400393
0000a0 e6 9f 63 3d 38 07 49 be fc e8 b2 3e 16 79 81 3e
       0.055572413 -0.1963166 0.34943378 0.25287694
0000b0 ef b1 c3 be a2 37 7e 3e 2c da b0 bd 70 02 3d be
       -0.3822169 0.2482591 -0.08635363 -0.18457961
0000c0 e2 b7 b0 bd 36 59 a9 3e ab af 0b 3e 4f b2 00 be
       -0.08628823 0.33075875 0.13641231 -0.1256802
0000d0 ff 99 9b 3e f2 55 96 bd c4 14 50 be 24 1a 99 3d
       0.30390927 -0.073406115 -0.20320421 0.07475689
0000e0 59 de 9d 3d 7c 73 2a be 55 9b 07 be 30 a7 dc bc
       0.07708425 -0.16645616 -0.13242848 -0.02693519
0000f0 c3 95 59 3e 69 c3 80 be ff bf ea 3d 93 b0 a7 3d
       0.21248536 -0.25149086 0.114624016 0.08187976
000100 ce 14 a9 be e6 88 8e 3b b3 b4 bd bd c7 65 8c be
       -0.33023685 0.0043498157 -0.09262981 -0.274214
000110 c3 2d 21 3d bd e2 a5 3e 0f 50 c2 3e 36 50 5e be
       0.039350282 0.3239955 0.37951705 -0.21710286
000120 62 30 91 3e 51 b3 8d be 55 8c 6c be 31 66 2e 3e
       0.28357226 -0.2767587 -0.23100407 0.1703117
000130 e6 f6 96 be 84 f1 3a be c2 aa f5 bd fb cc ff 3c
       -0.29485244 -0.18256193 -0.1199546 0.031225672
000140 08 8b ba 3e 21 43 e7 be b9 97 fb bd 37 12 3c 3e
       0.36434197 -0.45168403 -0.12284798 0.18366323
000150 4a 61 0e 3e 98 fb 17 bf 91 8d f1 3d 09 0b 18 3e
       0.139043 -0.59368277 0.1179458 0.1484796
000160 97 67 84 3e 67 c1 f9 bc 87 37 ec bd a9 46 96 3c
       0.25860283 -0.03048773 -0.115340285 0.01834424
000170 61 b4 00 be 40 db 89 3e 8c e0 33 3e a3 be cd 3e
       -0.12568809 0.26925087 0.17566127 0.40184507
000180 a2 ae e9 3c ec 28 4c 3d 49 d6 aa 3e 35 33 3c 3f
       0.028525654 0.049843714 0.33366612 0.73515636
000190 1e 41 f4 3e fa 9b 91 3e 08 94 8e bc 36 bf 8c 3e
       0.4770593 0.28439313 -0.017404571 0.27489632
0001a0 56 07 30 3e 00 d0 35 3f 1b 9b c0 be 9f d0 94 be
       0.17190298 0.7102051 -0.37618336 -0.29065415
0001b0 1a 51 7d 3d ee a4 37 be 11 da 91 bd 1b 9d be 3b
       0.061844923 -0.1793401 -0.07121671 0.0058170683
0001c0 68 89 8b 3e 28 3a da 3e a0 0c e1 be 47 82 df be
       0.2725327 0.42622495 -0.43954945 -0.4365408
0001d0 f1 59 37 3f b2 e3 6e 3f 99 a9 84 3d 49 36 43 3f
       0.71621615 0.93316185 0.06477661 0.7625471
0001e0 75 b1 9d be f1 3d bc 3e 90 ac a9 bb 00 b4 fc 3d
       -0.3079945 0.36766008 -0.0051780418 0.1233902
0001f0 ca 00 8a 3d 34 07 55 3e dc 7d 0e be cb 0b 49 3e
       0.06738432 0.20803529 -0.13915199 0.19633405
000200 43 c9 e0 3e 2b 8b 22 3e 36 0e 58 be 48 01 10 bf
       0.4390355 0.15873401 -0.21099171 -0.56251955
000210 cb 0a 07 be 44 89 c8 be 3f 76 37 be af 85 4f be
       -0.13187711 -0.39167225 -0.17916201 -0.2026584
000220 d6 0f fb 3e 28 4c 71 bd 82 97 0e 3f 18 48 d4 bd
       0.4903552 -0.05891052 0.5569993 -0.10365313
000230 62 ca 96 3b e4 ac 5d 3d 7a 4f 78 3e 26 89 59 be
       0.0046017626 0.05411996 0.24249068 -0.21243724
000240 d9 0d c1 3c 99 c5 e4 be 77 92 5e be 18 6a 85 bd
       0.023566173 -0.44682005 -0.2173556 -0.065143764
000250 1b 51 78 3d 64 f4 95 be d7 f7 03 bf 6a 8b 4e 3e
       0.060624223 -0.29288018 -0.5155005 0.2017037
000260 e5 21 37 3e a4 7a 4f be f1 3c e7 bd a4 20 6e 3e
       0.17884023 -0.20261627 -0.112909205 0.23254639
000270 ee e1 0a 3e 8c c6 a3 be dd 6d a1 be 43 3a e5 3d
       0.13562748 -0.31987417 -0.31529132 0.11192753
000280 98 d5 6e 3e b9 19 23 bf e6 db c5 be d9 0a 95 3d
       0.23323667 -0.63711125 -0.38644332 0.0727746
000290 e4 e6 8b be 9a ab ac 3d ad 50 46 3e a9 70 29 be
       -0.27324593 0.08431168 0.19366713 -0.16546883
0002a0 6b c4 1a be cb d4 b4 be e2 42 7c 3d ee f7 25 3e
       -0.1511399 -0.35318598 0.061587222 0.16207859
0002b0 23 03 2a bf 1c 69 9a bc 9c 85 8a be d0 33 fb bd
       -0.66411036 -0.018848948 -0.2705506 -0.12265742
0002c0 f2 48 41 3e bf 5a 8f be 89 7f fd be be 5a 02 bf
       0.18875483 -0.2799892 -0.49511364 -0.5091971
0002d0 23 9a 88 be 28 54 14 bf d6 6a b7 be 58 b7 a2 bd
       -0.26680097 -0.5794091 -0.35823697 -0.07945126
0002e0 a1 78 4e bc c5 00 ec bb 8f bf 03 bf 8b c5 d9 bc
       -0.012602002 -0.00720224 -0.5146417 -0.026583454
0002f0 44 23 14 3e 9b ef 06 3e e3 bf 94 be 0c 17 10 bf
       0.14466578 0.1317734 -0.29052648 -0.56285167
000300 ec 41 30 3d 92 33 9c 3e f3 ce af 3e a5 54 0b bf
       0.043031618 0.30508095 0.34337577 -0.5442603
000310 1b ed 26 bd db 8f 14 bf 87 5c d1 3c 80 01 a6 be
       -0.040753465 -0.58032006 0.025556816 -0.3242302
000320 68 d0 81 be 37 dc 2a be 25 a6 a3 be bd 24 9a 3e
       -0.25354314 -0.16685568 -0.31962696 0.30106154
000330 99 45 e4 be f7 95 ce 3e 67 ca 99 3e 14 05 18 3e
       -0.4458435 0.4034879 0.30037233 0.14845687
000340 6a 22 20 3d fd 9f 81 be 91 e6 8a 3e df b0 aa be
       0.03909532 -0.25317374 0.27129033 -0.33338067
000350 75 8f 59 bd c0 0d 92 be fa 7f 72 bd 73 97 34 3e
       -0.053115327 -0.28526115 -0.05920408 0.17635898
000360 cb c3 22 be da aa 93 3e 31 4b a2 bd f4 c2 39 3e
       -0.15895002 0.28841287 -0.07924498 0.18140775
000370 ec 9e e5 3d b7 a5 07 bd c1 e6 1b bf 1e 98 41 be
       0.112119526 -0.033117022 -0.6089898 -0.18905684
000380 f2 81 1d be ab 9a f1 b8 86 cf c8 3e 2b 92 48 be
       -0.15381601 -0.00011520585 0.39220828 -0.19587009
000390 65 00 a2 be 1d fb 6f bf e3 af 4e 3e 81 f5 b1 be
       -0.31640926 -0.93742543 0.20184283 -0.34757617
0003a0 78 72 c6 3e f6 5f 63 bc fb 08 db 3b 0d ef 5e be
       0.38759208 -0.013877859 0.00668442 -0.21770878
0003b0 51 ae 1e be 2c 39 8f 3e 2d 06 6c be ab 2d c4 3e
       -0.15496184 0.27973306 -0.23049231 0.38316092
0003c0 d0 42 3e be 2a f6 47 bd ff ce cd be 63 03 0e bd
       -0.18580174 -0.048818745 -0.40196988 -0.0346712
0003d0 c5 f1 b4 be 82 93 0f bf 74 41 ad be 20 1b eb bc
       -0.35340706 -0.56084454 -0.33839 -0.028699458
0003e0 ac 38 09 bd f8 9a 8e 3a eb fb f6 be f5 5b 01 3e
       -0.033501312 0.0010879925 -0.48239073 0.12632735
0003f0 c8 74 a6 be c8 6e 68 bd fd 02 a0 3d d2 34 96 3e
       -0.32510972 -0.056746274 0.0781307 0.29337174

feature_net.linear_layer_1.bias f4 [32]
000000 9f d9 0a be fa f1 56 bd b2 48 44 be d3 f7 af 3e
       -0.13559578 -0.05247686 -0.19168356 0.34368762
000010 c0 e2 01 be da 2b 78 be 6f 96 45 be b7 1f 37 3d
       -0.12684155 -0.24235478 -0.19295667 0.04470798
000020 18 b1 84 bd 9c 54 05 bf 5f 41 b1 be f6 83 57 3e
       -0.064790905 -0.5208223 -0.34620187 0.21046433
000030 fa ec 22 be 24 ea 35 bd a5 e7 c9 be c3 0d c3 be
       -0.15910712 -0.044412747 -0.39434543 -0.38096437
000040 96 a3 48 be 35 02 33 3d c7 63 d9 be fa 4e 00 3f
       -0.19593653 0.043703277 -0.42458937 0.5012051
000050 d0 55 29 3e d1 ce b3 bd b3 dc 5a 3d 7d c4 38 be
       0.16536641 -0.087796815 0.05343313 -0.18043704
000060 35 88 aa bd 08 ec d2 3e 9c 5b 66 bd 6c 2b 8a 3e
       -0.08326761 0.41195703 -0.05623971 0.26986253
000070 db c7 02 3f 5d 1e a0 bc 15 1d 0e bf b0 94 ee 3d
       0.51086205 -0.019545728 -0.55513126 0.11649454

feature_net.layer_norm_1.weight f4 [32]
000000 78 f5 6a 3f fd 1a 96 3f ef b7 88 3f 0a 06 cc 3f
       0.91780806 1.1726986 1.0681132 1.5939343
000010 23 4d 5d 3f a5 13 61 3f 3e 8e 50 3f be 20 96 3f
       0.86445826 0.879206 0.81467044 1.1728742
000020 ba 1d 44 3f 0f 93 6e 3f 0f df 68 3f f3 57 b3 3f
       0.7660786 0.93193144 0.9096536 1.4011215
000030 57 47 57 3f 00 00 80 3f 49 30 4a 3f 74 b0 55 3f
       0.8409323 1.0 0.7897993 0.8347237
000040 0d e9 9c 3f 00 00 80 3f 5a a9 14 3f 8e a9 d4 3f
       1.2258621 1.0 0.5807091 1.6614244
000050 54 3b a6 3f 2c 6d 8b 3f 66 40 a2 3f 19 9d 8b 3f
       1.2986856 1.0892692 1.2675903 1.0907317
000060 fb 86 7a 3f 29 65 a3 3f f5 80 95 3f 8c 7a b0 3f
       0.97862214 1.2765247 1.167998 1.3787398
000070 7b fb de 3f 59 1f 8e 3f 62 7c 6c 3f 54 2a ab 3f
       1.7420496 1.1103317 0.92377293 1.3372293

feature_net.layer_norm_1.bias f4 [32]
000000 2b 96 94 bd 7c cf 99 3e f6 75 b0 3d 75 04 14 3f
       -0.07255205 0.3004111 0.08616249 0.578193
000010 4b 65 ad bd e2 b6 fc bd 78 da 4b be 8f 18 d6 3d
       -0.08466586 -0.1233957 -0.19907558 0.10453903
000020 57 da 3e be a9 c7 ac bd fa 87 c5 bd 18 37 e4 3e
       -0.18637978 -0.0843652 -0.09645076 0.44573283
000030 94 64 a1 bd 00 00 00 00 7c fb 49 be 39 2f 3a be
       -0.07880512 0.0 -0.1972484 -0.18182077
000040 e1 dd 25 3e 00 00 00 00 ae 49 93 be e4 8b 18 3f
       0.16197921 0.0 -0.2876715 0.59588456
000050 e0 5b c8 3e ff a4 44 bd 4b c5 54 3d fc 70 a8 3c
       0.39132595 -0.048008915 0.051945966 0.020561688
000060 f5 06 cc bc 15 30 bf 3e 06 94 08 3e c7 6f bc 3e
       -0.024905661 0.3734137 0.13337716 0.3680403
000070 ed 58 52 3f 2c 36 fe 3d c8 e8 20 be 3d dc ec 3e
       0.8216694 0.12412676 -0.15713799 0.46261778

feature_net.linear_layer_output.weight f4 [3, 32]
000000 3f a5 35 be 10 0e 0f 3f f3 0d 48 3f f8 8e 17 3f
       -0.17738818 0.5588083 0.78146285 0.5920253
000010 eb 21 7e 3e ea 3e 37 3e e3 8d 34 3e 59 57 03 bf
       0.24817626 0.17895094 0.1763225 -0.51305157
000020 d7 6c 5c 3e 21 ff d5 bc 0d b3 40 be 7f 6e 68 3f
       0.21525894 -0.026122632 -0.18818302 0.90793604
000030 26 ce 5a 3f ba ba d1 3e 66 ae fc bc ee 5e d7 3d
       0.8547081 0.40962774 -0.030844878 0.10516153
000040 9a 64 78 3f db 56 96 bd 47 35 36 bc d5 4b 90 3f
       0.97028506 -0.07340785 -0.011121101 1.1273142
000050 7f 5b 2e 3f 7b 83 d9 be 55 c3 ff bd c3 67 50 be
       0.6810836 -0.42483124 -0.124884285 -0.20352082
000060 1e 3b 94 3d e2 79 44 3f e8 12 dc 3e d3 5e 08 3f
       0.07237838 0.7674848 0.42983174 0.5326969
000070 08 4f 0d 3f 1d 81 ad be 8e 8b a4 3e 06 e0 eb 3e
       0.5519872 -0.33887568 0.32137722 0.46069354
000080 1c 6e 9d be b6 0d 7a 3f 7c 0b ca 3e 4c b0 61 3f
       -0.3074807 0.9767717 0.39461887 0.8815963
000090 e8 da 25 bd 3d bd cb be 7f f3 a4 3e 5e 48 d2 bd
       -0.04049197 -0.39792815 0.32217023 -0.10267709
0000a0 b3 93 d0 3e c2 f9 74 3e 6d f8 70 3d 8c 2e 7d 3f
       0.40737686 0.239234 0.058830667 0.9889915
0000b0 20 e6 1d 3f 1e 97 14 3e 37 73 0f 3f fe 57 a7 be
       0.6167927 0.14510772 0.5603518 -0.3268432
0000c0 33 a2 2a 3f 41 bb 05 3d ea 19 a2 bc 4d 0f 10 3f
       0.66653746 0.032649282 -0.019787747 0.5627335
0000d0 21 8d da 3e 95 9b 16 3f 71 6f 75 3f 77 d1 a8 3e
       0.42685798 0.5883115 0.9587317 0.3297231
0000e0 35 c7 b3 3e 84 18 0c 3f 7b 83 07 3f 64 f3 04 3f
       0.3511292 0.5472491 0.52935 0.51933885
0000f0 69 21 87 3f 47 0e 9e bd 49 79 93 bc 9a 9b 52 3f
       1.0557071 -0.07717567 -0.01800217 0.8226868
000100 59 6d a7 3e ab e3 9e 3e 84 66 98 3d cc d7 6a 3f
       0.32700613 0.31033072 0.07441428 0.9173553
000110 4f 54 06 bd ef 33 9b 3e 36 fb ba 3e ac 5e a7 3d
       -0.032795247 0.3031306 0.36519784 0.08172354
000120 9f e4 ff 3c 17 e3 b5 bd c4 fc 6b bc fd 16 e5 3e
       0.031236945 -0.088812046 -0.014403526 0.447441
000130 76 2b 95 39 13 3c 83 3e 02 85 87 bd 8c 9e 4b 3c
       0.00028451876 0.2563177 -0.06617166 0.012427937
000140 8b 2e 0d 3f a1 e7 76 bc 92 29 99 3d 8d c9 1f 3f
       0.55149144 -0.015069873 0.07478632 0.6241692
000150 df 62 04 3f c4 a6 88 3e 3b e9 65 3e 78 15 38 3e
       0.51713365 0.26689732 0.22452252 0.1797694
000160 fa 64 f8 3e 30 d0 04 3f e8 3c 09 3f 6f ce 06 3f
       0.4851454 0.5188017 0.5360856 0.5265874
000170 f8 24 3f 3f 1e 2c 9c 3f d5 2d 05 3f fb 43 f7 3e
       0.74665785 1.2200963 0.5202306 0.48294052

feature_net.linear_layer_output.bias f4 [3]
000000 0c 03 f3 3e f4 eb 60 3f 86 90 04 3f
       0.47463262 0.87860036 0.51783025

feature_net.linear_layer_0.weight f4 [32, 11]
000000 9c 41 3d be 03 4e ed bf 6d c8 62 bf 19 46 7e 3f
       -0.18482059 -1.8539432 -0.88587075 0.9932571
000010 f5 0a 50 c0 df 22 11 be 5e 2b 44 40 02 58 08 41
       -3.2506688 -0.14173459 3.065147 8.521486
000020 f1 53 48 40 57 2e 41 40 c5 af 24 40 09 bc bd 40
       3.1301234 3.0184534 2.5732281 5.9292035
000030 c2 f4 97 3b 0c 29 f4 c0 ea b8 28 3e 9c 11 b1 c0
       0.0046373317 -7.6300106 0.16476789 -5.5333996
000040 41 b9 b5 3d 74 bd e1 c0 f9 82 54 3f 6d a7 1c 40
       0.08873225 -7.0543766 0.8301235 2.4477189
000050 d0 4c 3f 40 20 3c 0b 40 69 9b 06 c0 d0 19 ae be
       2.9890633 2.1755447 -2.1032355 -0.34004068
000060 55 29 de 3e 05 a1 8c 40 20 42 ec bf 35 65 dd c0
       0.4339091 4.3946557 -1.845768 -6.9186044
000070 f3 86 b7 be 0b c8 2c 3f 6d 90 12 40 28 b9 06 40
       -0.35845146 0.6749274 2.290065 2.105051
000080 00 6b 19 40 e4 d4 b8 c0 02 d9 bc 3e 56 10 c0 40
       2.3971558 -5.7759876 0.36884314 6.001994
000090 61 c6 37 bf 25 6a d0 40 3c b0 8f bf a3 65 b9 40
       -0.7178708 6.512957 -1.1225657 5.793657
0000a0 cb 0e 3b bf 04 67 59 40 d6 74 55 40 cb 14 18 40
       -0.7306945 3.3969126 3.335256 2.376269
0000b0 37 4a ee bf 2c f1 43 c0 a9 7c fd 3f 99 cf 11 c0
       -1.8616399 -3.061595 1.9803668 -2.2782958
0000c0 32 f9 fe 3f 58 d6 e3 40 e4 54 53 c0 2d af 58 40
       1.9919798 7.119915 -3.3020563 3.385692
0000d0 a3 10 2d 40 c3 24 1a 40 dc eb 2b 40 18 16 8a c0
       2.7041404 2.4084938 2.6862707 -4.315197
0000e0 6c 6a e4 be 0d 80 c2 40 80 4a 60 40 04 ca 3a c0
       -0.44612443 6.078131 3.504547 -2.91858
0000f0 9c 98 ef 3e 69 69 37 3f 50 48 ca c0 b6 c0 4f 40
       0.4679612 0.7164522 -6.321327 3.2461371
000100 2a 79 4f 40 b8 e3 60 40 c8 c5 25 3f e3 ab 27 bf
       3.2417703 3.5138988 0.64754915 -0.65496653
000110 2a 73 63 bf df 30 6f 40 14 64 4f c0 3f 8f b9 40
       -0.888476 3.7373579 -3.2404833 5.798736
000120 8e 04 3b 3f da ec de c0 2b 42 ef 3f 3d bf 3f 40
       0.73053825 -6.9664125 1.8692068 2.9960473
000130 f5 28 32 40 cd 19 7c bf 03 e9 7d bf e5 fb 39 c0
       2.7837498 -0.9847687 -0.9918367 -2.9059994
000140 0b 18 b5 40 e2 a1 11 40 54 6b 2d c0 ae 6f 9a 40
       5.659185 2.2755055 -2.7096758 4.826133
000150 0c 41 df bf fd 82 1a 40 dc 3d 24 40 11 99 1d 40
       -1.7441726 2.414245 2.5662756 2.4624674
000160 66 1b 54 40 a8 72 8c c0 d1 3e 06 c0 fb 1b 9d 40
       3.3141723 -4.388996 -2.097584 4.9096656
000170 ea 77 c2 bf 0e d7 d0 40 31 b2 2d 3b a8 1e 90 40
       -1.5192845 6.526252 0.0026503915 4.503742
000180 72 21 2a 40 9d 1a 19 40 6c cb 2c 40 56 07 0e 3f
       2.6582913 2.3922493 2.699916 0.55479944
000190 06 e4 7f 3f bd da 61 be 13 ae b2 be ae c4 01 c1
       0.9995731 -0.22056098 -0.34898433 -8.1105175
0001a0 27 a0 84 40 0f a4 eb c0 03 9c ce bf 09 8c 57 40
       4.14455 -7.3637767 -1.6141361 3.367922
0001b0 d0 ea 78 40 47 2f 78 40 e5 96 53 bf f2 80 5f bf
       3.8893318 3.8778856 -0.8265212 -0.8730613
0001c0 7d 69 05 c0 39 b5 f8 3f ed 26 11 40 0e 3a e5 bf
       -2.0845635 1.9430305 2.2680008 -1.7908342
0001d0 f3 bb 43 c0 bc 93 95 bf 17 0c 44 40 7a 95 75 40
       -3.0583465 -1.168571 3.063238 3.8372483
0001e0 5c ac 82 40 2d a2 2b 3f 85 1a 5d c0 2b e1 66 c0
       4.08354 0.67044336 -3.4547436 -3.6074932
0001f0 57 ed 90 40 31 7f 8d c0 86 ec 52 c0 4b d5 4a 3e
       4.528972 -4.4217763 -3.2956862 0.19807927
000200 24 6b 23 bf 0e ac bd 3f 59 e0 d6 3f e7 03 16 40
       -0.6383536 1.4818132 1.6787215 2.3439882
000210 33 b6 01 be ba 8f d4 be 1f 6d 07 c0 1c 2b 29 c0
       -0.1266716 -0.41515905 -2.1160352 -2.6432562
000220 cc 6d 8b 40 6b 85 dd bf 32 e0 35 c0 aa 47 70 40
       4.357153 -1.7306341 -2.8418088 3.754374
000230 f3 d9 5b 40 5a f8 36 40 39 9b 3b 40 07 1f ce be
       3.4351776 2.8589082 2.931349 -0.40258047
000240 15 90 58 40 8c ed ed 3c 7c e0 8f c0 c9 35 32 be
       3.383794 0.029043935 -4.496153 -0.1740333
000250 85 21 00 c1 0b fb 36 bf 09 92 22 c0 4d 89 26 40
       -8.0081835 -0.7147681 -2.5401633 2.6021302
000260 4f 9e 2c 40 02 01 37 40 36 3c ea be 3e ad 90 c0
       2.6971624 2.8594365 -0.45749062 -4.5211477
000270 a9 ee 89 be f6 96 fb 40 2b 23 1f 3f 29 79 84 40
       -0.26939896 7.862178 0.6216304 4.13979
000280 26 88 5d be 74 17 90 40 83 61 39 40 d3 06 2a 40
       -0.21633968 4.502863 2.8965766 2.6566665
000290 33 48 43 40 8d 55 e4 bf f5 a0 af 3f fb fc af bf
       3.0512817 -1.7838608 1.3720995 -1.3749079
0002a0 65 ae dd bf 13 c8 00 41 a6 7a 15 40 67 d8 a9 bf
       -1.7318846 8.048846 2.3356109 -1.3269166
0002b0 73 e0 15 c0 04 77 11 40 40 1e 13 40 12 6e 1e 40
       -2.3418243 2.2728891 2.2987213 2.4754682
0002c0 14 93 ab c0 e9 96 82 bf 81 76 c9 40 54 71 11 3f
       -5.361704 -1.0202304 6.295716 0.5681355
0002d0 87 4b cc 40 5c d3 a1 3f d5 f6 a4 40 f3 bd 99 be
       6.3842196 1.2642627 5.155131 -0.30027732
0002e0 a8 65 22 40 06 c4 2b 40 05 e0 4f 40 08 19 bd bf
       2.5374546 2.6838393 3.248048 -1.4773264
0002f0 65 ec 82 3f 70 79 3d c0 47 bb a8 c0 c3 6a 40 3e
       1.0228392 -2.960537 -5.272861 0.18790726
000300 ed ae 89 40 cf 4d 12 ba 85 6c 97 c0 3c b5 5a 40
       4.3026032 -0.00055810524 -4.731997 3.4173117
000310 3b 16 0b 40 fd d6 2d 40 0f 15 3d 3f 4a 9e 65 3e
       2.1732318 2.7162468 0.7386026 0.22423664
000320 bf 95 22 41 b3 b0 04 bf f3 c1 9c c0 a0 b1 9d bf
       10.161559 -0.5183212 -4.8986754 -1.2319832
000330 44 dc 71 c0 fb a5 18 bf 30 47 17 40 3e 4d 28 40
       -3.779069 -0.59628266 2.36372 2.6297145
000340 5a 49 32 40 17 78 8b 3f ce b7 bd bf 3f 44 ef 3f
       2.785727 1.0896024 -1.4821718 1.8692702
000350 42 17 47 40 54 aa 02 40 ac 0f c0 3f 0f d2 da c0
       3.1107945 2.041646 1.5004783 -6.838142
000360 c7 bd ae 40 66 01 3d 40 e4 c0 3b 40 fb fb 4a 40
       5.460666 2.9532104 2.933648 3.1716297
000370 33 d1 34 3f 18 34 a9 3d 64 98 31 c0 10 41 9d bf
       0.7063171 0.08261889 -2.7749262 -1.228548
000380 45 a5 79 3f a6 c1 67 3f e4 87 32 bf f9 26 5c bf
       0.97517806 0.9052986 -0.697386 -0.8599697
000390 31 65 4d 40 3f 08 71 40 d7 c1 73 40 e2 a2 32 40
       3.2093012 3.7661283 3.808706 2.7911916
0003a0 2b 37 5a 3f c8 ff 18 c1 82 e4 08 c0 67 ec 5e be
       0.8524043 -9.562447 -2.138947 -0.21769868
0003b0 57 b6 a8 be 6d 14 a2 3f 89 75 b0 bf 05 58 48 40
       -0.32951614 1.2662483 -1.3785869 3.1303723
0003c0 60 df 5e 40 bc cf 0c 40 d7 8f 69 3f a4 3e 91 40
       3.4823837 2.200179 0.9123511 4.5388966
0003d0 d3 ae e6 bf 4c 0b b7 c0 29 21 37 3f 5c c7 9b c0
       -1.8022102 -5.720129 0.71534973 -4.868086
0003e0 73 59 7e bf 5b 4e b7 c0 6f aa 29 40 e4 f4 2e 40
       -0.9935524 -5.728315 2.6510274 2.733697
0003f0 30 0a 2a 40 f4 bd 24 c0 df 18 ce 3f 2a 27 79 3f
       2.6568718 -2.5740938 1.610134 0.97325385

feature_net.linear_layer_0.bias f4 [32]
000000 89 97 4f 3f ea 97 60 40 38 01 ea 40 c0 40 30 40
       0.810906 3.509272 7.312649 2.753952
000010 cb 63 7d 3f ae ba 3f 40 0e 05 96 3f 8f 01 b8 bf
       0.98980397 2.995769 1.1720293 -1.4375476
000020 bb c8 aa 40 22 ca b2 40 59 2d 27 41 02 4b b8 be
       5.337003 5.5871744 10.448571 -0.35994726
000030 da 06 90 3d 8e 27 0a 40 1d e5 cb 3f 2f fb 8a 3f
       0.07032557 2.1586642 1.5929295 1.0857905
000040 59 83 77 40 26 49 07 3f 9d 35 50 40 c7 66 1e 3f
       3.8673918 0.5284599 3.2532723 0.61875576
000050 56 1e 34 41 4b 32 9c 3f 83 3e 99 40 0a ae dc 3f
       11.257406 1.2202848 4.788881 1.7240613
000060 72 cd b9 3e cc 80 c8 40 4d 1f a8 40 c0 7c 0b 40
       0.36289555 6.2657223 5.253821 2.1794891
000070 a8 96 95 3f d5 44 31 be 90 6c b1 40 bd 1d 9b 3f
       1.1686602 -0.17311414 5.5445023 1.211845

feature_net.layer_norm_0.weight f4 [32]
000000 df 1f d2 40 4c 54 01 41 3d 7d 7a 40 fc 59 0f 41
       6.5663905 8.08308 3.913894 8.959469
000010 ee 29 ae 40 a6 21 88 40 b5 4c bc 40 2c 0f 12 41
       5.4426184 4.2541075 5.8843637 9.128704
000020 6a 2c ad 40 8c 12 88 3e cd d7 b1 40 ec c8 ce 40
       5.4116716 0.2657665 5.557593 6.4620266
000030 51 5a b7 40 f4 10 9a 40 a7 df e1 40 60 db d9 40
       5.729775 4.8145695 7.0585513 6.808029
000040 4f d2 ba 40 ea 6d a7 40 79 54 37 40 35 48 cc 40
       5.8381724 5.2321672 2.8645308 6.3838143
000050 96 a1 c3 40 f8 a8 b4 40 7d 28 c3 40 9c 34 93 40
       6.113475 5.645626 6.0986924 4.600172
000060 5b 47 b5 40 a3 3d 50 3f bc 8b 7a 3e 93 61 6c 40
       5.6649604 0.8134405 0.24467367 3.6934555
000070 0f 52 bf 40 c2 d5 b0 40 ff a7 25 3f 3f f7 b5 40
       5.978767 5.5260935 0.64709467 5.6864314

feature_net.layer_norm_0.bias f4 [32]
000000 c5 e8 0b 3f 82 27 8e 3f 46 1a b3 bf 7f 3a ed 3f
       0.54652053 1.1105807 -1.3992393 1.8533477
000010 87 26 d2 bf 5f 1c 35 be b0 2c 3b bf ed 34 27 40
       -1.6418008 -0.17686604 -0.7311506 2.6126053
000020 af 85 27 3f fb ba 3c bf 0f 41 d4 bd 4f 0f 54 bf
       0.6543836 -0.7372281 -0.103639714 -0.8283586
000030 9f f8 f6 bf bf de 39 40 51 69 39 40 7d b6 81 3f
       -1.9294623 2.9042203 2.897053 1.0133816
000040 63 8a 44 40 46 52 f0 bf 3a e6 fe 3d 73 2f 1e 3d
       3.0709465 -1.8775108 0.12446256 0.03861947
000050 ee 8a f5 bf fe cb 2a bf 48 08 f1 3f aa e2 99 bf
       -1.9183023 -0.6671752 1.8830652 -1.2022297
000060 18 d3 af 3f e8 2a 11 c0 be a2 41 bf ea 9a 88 3f
       1.3736296 -2.2682438 -0.7563895 1.0672276
000070 93 e3 0a 3f 11 e2 41 40 04 02 e8 bf 58 7f 8f bf
       0.542535 3.029423 -1.8125615 -1.1210737

feature_net.linear_layer_1.weight f4 [32, 32]
000000 18 f8 ff bf 24 e3 25 40 78 03 5e 3f 05 f5 3a bf
       -1.9997587 2.5919886 0.8672404 -0.7303012
000010 59 b1 d6 40 c8 9a 73 40 0b 57 65 40 c5 39 63 bf
       6.709149 3.806322 3.5834377 -0.88760024
000020 ac fa a2 3f a0 71 1e 3e 6d ef 82 be 09 8e 1a c0
       1.2732749 0.15473032 -0.25573292 -2.4149191
000030 27 29 00 be aa 34 a2 bd 52 85 e3 40 c8 92 ba 40
       -0.12515698 -0.07920201 7.1100245 5.8304176
000040 55 b9 c6 40 fc 03 58 be de 91 88 40 55 a1 b9 40
       6.2101235 -0.2109527 4.267806 5.800944
000050 0b 5a b3 3f 55 da 84 40 65 22 b0 3f 26 a0 8d 40
       1.4011854 4.151652 1.3760496 4.4257994
000060 c6 8e bd 40 94 3d c3 bf 1f 5c 89 3f ac 55 8f 40
       5.9236784 -1.5253167 1.0731238 4.479208
000070 32 d5 88 40 17 a5 a8 40 ab 7d a7 3f 5f 10 86 c0
       4.276025 5.2701526 1.3085226 -4.1894984
000080 37 6f 7d 40 8c ec eb 40 d4 22 06 41 60 8d 07 c0
       3.959913 7.3726254 8.383503 -2.1180038
000090 b3 4e 82 bf 29 6b 10 40 71 1b ab 3f 4b ae 99 c0
       -1.0180267 2.2565405 1.336775 -4.802526
0000a0 eb 95 c1 40 d4 a5 05 3d e0 1b 11 41 10 fc 5b 40
       6.0495505 0.03262885 9.069305 3.4372597
0000b0 8e 8c 7e c0 74 1e 40 40 84 81 d8 3f 72 1f fd be
       -3.9773288 3.0018587 1.6914525 -0.49438053
0000c0 45 d3 ae 3f b2 b1 bf bf 9c 65 45 40 97 39 32 bf
       1.3658224 -1.4976103 3.0843267 -0.69619125
0000d0 c7 79 2f 41 1e 8b d4 bc 88 13 cb 40 85 1e 75 3f
       10.967231 -0.025945242 6.346134 0.95749694
0000e0 3e 83 04 be 33 21 4b 40 9b 03 7f 3e 06 c2 d0 40
       -0.1294069 3.1739013 0.24903719 6.5236845
0000f0 b6 48 f5 bf a7 ea 4f be f4 d5 6d bf 7f b9 c7 be
       -1.9162815 -0.20304357 -0.9290459 -0.3900871
000100 ec 4a 22 40 b8 b9 1e 3e 45 31 e7 3f fc 2a b2 3f
       2.5358229 0.15500534 1.8061911 1.3919368
000110 72 2e 3a c0 6e 42 24 40 d1 35 11 c0 eb 5b f7 3f
       -2.9090848 2.5665545 -2.2689097 1.9324926
000120 6b fe cc 40 24 e1 84 be 75 29 73 40 75 a7 12 40
       6.406057 -0.2595302 3.7994053 2.2914708
000130 cf c4 84 c0 30 15 51 3f 1f 64 74 3f 6d 26 0b c0
       -4.1490245 0.81672955 0.9546527 -2.1742203
000140 5f b4 09 41 ac 5f 63 c1 97 d5 5d 40 ea 7d 5e 40
       8.606536 -14.210857 3.4661615 3.4764352
000150 d3 aa 0d 41 a0 bb ee 3f e7 b2 5c 40 d4 67 cd 3f
       8.854205 1.8651009 3.4484193 1.6047311
000160 f2 0e 8b 40 1f a3 3b 40 a2 4e a0 3f 1a 14 0d 40
       4.3455744 2.9318311 1.2523997 2.204352
000170 e8 26 62 c0 26 36 56 c0 19 ad a2 3f 3b 5c 82 40
       -3.5336246 -3.347055 1.2709075 4.0737586
000180 bf 04 6c 3f 91 79 df 3b 35 e2 c4 40 93 93 e5 40
       0.9219474 0.0068199118 6.152613 7.1742644
000190 0d 43 48 40 a6 be f5 40 42 95 8a 40 c9 2c 96 40
       3.1290925 7.6795225 4.33072 4.692967
0001a0 00 36 bc 3f 4b 8a fc 3d 36 ba 91 40 18 ea 93 40
       1.470398 0.12331065 4.553981 4.622326
0001b0 8d eb 00 3f 4b 20 7c 40 33 2f ac 40 4c 6c 90 40
       0.5035942 3.939471 5.3807616 4.51322
0001c0 cf eb bf 40 16 c2 c1 40 7b da f8 40 e6 a4 19 40
       5.997535 6.054942 7.77667 2.4006896
0001d0 46 a9 8e 40 94 2c 4f 40 09 db c9 3f 16 45 e8 40
       4.4581633 3.2370958 1.5769969 7.2584333
0001e0 18 70 37 3f 22 8b 0b 40 24 c2 b7 3e 8d aa b6 bf
       0.71655416 2.180367 0.35890305 -1.4270798
0001f0 71 a1 e7 40 6c c2 94 40 e8 e2 16 40 a1 b8 6f bf
       7.238457 4.648733 2.3575993 -0.93641096
000200 e5 c6 fd 40 ff dd c2 40 a9 62 4e 40 de dc 36 c0
       7.930529 6.089599 3.2247717 -2.8572307
000210 9b 74 00 c0 f0 1e 61 c0 40 dd fa 3f 10 f7 df 3f
       -2.007117 -3.5175133 1.959877 1.7497272
000220 2a ee bd 40 82 d2 83 3e f1 27 6c 40 7e 97 2d 40
       5.9353228 0.25746542 3.6899378 2.7123713
000230 4e 7b 87 c0 89 4e 10 40 1e 8b 3e 3d a0 d5 ba 40
       -4.233802 2.2547934 0.04651939 5.8385773
000240 96 8f 8c c0 aa a6 f7 bf 27 53 2f 3f 0e 5f 58 40
       -4.3925276 -1.9347737 0.68486255 3.3808017
000250 24 4e ba 40 aa 1f 77 3f 64 0f 6e 40 37 9e a1 bf
       5.8220387 0.9653269 3.7196894 -1.2626408
000260 3d 29 c2 40 d8 d9 24 3f bc 33 64 3f ce 14 90 40
       6.067534 0.64394903 0.8914144 4.5025396
000270 bf a8 42 40 96 ea 98 40 00 85 81 3f bc 9e a6 bf
       3.0415494 4.778636 1.0118713 -1.3017192
000280 4d 5f d0 3f b7 11 ca 3f 52 f9 01 40 62 6e 19 40
       1.6279083 1.5786656 2.0308423 2.3973622
000290 e9 d9 ec 3f 44 14 97 40 6e a3 b9 40 6e 6d c7 40
       1.8504001 4.721224 5.8012 6.232108
0002a0 a1 eb 1a 40 61 b0 6b 3e 9b 75 9d 40 fc 41 86 40
       2.4206316 0.23016502 4.920606 4.1955547
0002b0 98 59 65 c0 0f 9c 12 40 7c 54 8b 40 39 85 8c 40
       -3.5835934 2.290775 4.354063 4.3912625
0002c0 96 56 d8 40 f4 a5 cf bf 03 2e c1 40 62 46 e6 40
       6.7605696 -1.622252 6.0368667 7.1960917
0002d0 c4 0f e2 3f 02 ce 89 3f 53 56 3d 40 a4 41 6a 40
       1.7661061 1.0765994 2.9583938 3.6602564
0002e0 09 14 e8 40 b4 0a cd 3e 14 c2 ef 3e 10 fd d9 3f
       7.2524457 0.40047228 0.46827757 1.7030354
0002f0 11 25 84 40 4b 34 13 40 33 3d 48 40 8b 6a ba 3f
       4.1295247 2.3000667 3.1287353 1.4563764
000300 37 da 8f be e1 ee 2c 40 32 da 0c 40 42 eb 46 3f
       -0.28096172 2.70208 2.2008176 0.77702725
000310 65 cf 92 40 8b ae 49 40 fe 9d 9a 3f f4 fb 15 3e
       4.5878167 3.1512783 1.2079465 0.14646894
000320 a2 0a 82 40 f1 e9 2d bf 13 d6 bf 3f 64 90 65 bf
       4.063798 -0.6793509 1.4987205 -0.8967345
000330 bd a4 f4 40 0a 00 90 3f dd a0 17 40 c6 ae 00 40
       7.6451097 1.1250012 2.3691933 2.0106673
000340 ae fa d2 40 b7 a3 4e 40 52 00 e3 40 45 15 d7 3d
       6.5931005 3.2287424 7.093789 0.10502104
000350 a1 ee db 40 20 53 d3 40 ab 2c 4a 40 7a b3 2e 40
       6.8728795 6.603897 3.1589763 2.7297044
000360 57 56 bf 40 ff 3b 70 3f cc 84 fb 3c cd 01 99 40
       5.9792895 0.93841547 0.03070297 4.78147
000370 ed f7 32 40 b4 8f 87 3f 92 55 74 bf e9 0d 3b bf
       2.7963822 1.059073 -0.9544307 -0.730681
000380 e9 db d4 40 31 cd 8a 40 6f fb 80 40 d6 6b 6f 40
       6.6518445 4.337548 4.0306926 3.7409568
000390 3c 54 77 be 46 79 d2 3e 8c a3 97 40 a6 19 54 40
       -0.24153227 0.4110815 4.738714 3.3140655
0003a0 87 89 a4 bf 2e 1d 3e 3d e2 43 91 40 c6 fd 9f 3f
       -1.285447 0.046414547 4.5395365 1.249932
0003b0 b8 cc ee 40 ef d4 de 40 b9 c2 8a c0 88 8a 6d 40
       7.46249 6.963493 -4.33627 3.7115803
0003c0 64 95 b8 3f fe 0f a3 40 00 13 5d c0 81 4f 0b 3e
       1.442059 5.095702 -3.4542847 0.13604547
0003d0 02 76 f9 3f 64 85 ff 3f 6e 50 c2 40 69 ea 8a c0
       1.9489138 1.9962583 6.072318 -4.3411145
0003e0 39 12 dd 40 ee d2 08 40 11 7d 68 bf d0 5b 41 40
       6.9084744 2.1378741 -0.90815836 3.0212288
0003f0 67 31 0e c0 c9 1d a9 3f 37 68 f4 3e 69 6f 15 3f
       -2.2217653 1.3212215 0.4773576 0.58373123

feature_net.linear_layer_1.bias f4 [32]
000000 05 ad a4 40 83 b3 c7 40 37 b5 9c 40 22 f9 a1 40
       5.1461205 6.240663 4.897121 5.0616617
000010 86 20 a8 40 05 d3 c3 40 84 52 a7 40 24 f1 5d 40
       5.25397 6.119509 5.2288227 3.467843
000020 7e b2 90 40 4f a0 af 40 88 c3 0d 40 d1 31 14 41
       4.5217886 5.488319 2.2150593 9.262162
000030 29 36 76 40 63 e9 36 40 e9 ae c5 40 a6 34 86 41
       3.8470557 2.8579948 6.1776013 16.775707
000040 b2 bf bc 40 10 b0 a2 40 a3 35 74 41 a2 1e 5a 41
       5.8984003 5.083992 15.263095 13.632479
000050 cb c6 a9 40 61 00 ac 40 41 23 c7 40 86 bc b9 40
       5.3055167 5.3750463 6.2230535 5.804263
000060 f2 4e 80 40 5d 48 b5 40 6b 7c 44 41 3f cf 7f 40
       4.009637 5.6650834 12.2803755 3.9970243
000070 29 4f 86 41 15 49 87 40 94 0f a1 40 77 01 ab 40
       16.788652 4.227671 5.0331516 5.343929

feature_net.layer_norm_1.weight f4 [32]
000000 03 fa e5 40 a3 d3 a9 40 3f 9e 58 40 30 ba ad 40
       7.186769 5.3070846 3.3846586 5.428978
000010 80 42 6c 40 da e5 2f 41 0d 1c 2a 41 4a 1b a9 40
       3.6915588 10.993616 10.631848 5.284581
000020 d7 7b d5 40 eb 08 aa 40 79 60 07 41 07 62 a2 3f
       6.671367 5.3135886 8.461053 1.2686166
000030 3b 9c b4 40 3a 03 89 40 10 a1 75 40 38 1b 3d 3e
       5.644071 4.281644 3.8379555 0.18467414
000040 76 ac 93 40 66 c3 52 40 0e 21 dc 3e 43 8a 08 3f
       4.6148024 3.2931762 0.4299397 0.5333597
000050 6e 1f 62 40 af b9 b9 40 72 51 c7 40 c3 36 97 40
       3.5331683 5.8039165 6.228692 4.725435
000060 08 a8 c7 40 0d de b0 40 1c f8 94 3f 2d 5b 8b 40
       6.2392616 5.527106 1.1638217 4.35488
000070 2e d5 5a 3e 94 ab fa 40 56 fb 87 40 45 f8 bd 40
       0.21370384 7.8334446 4.2494307 5.9365563

feature_net.layer_norm_1.bias f4 [32]
000000 5b fa ce 3f 72 79 1f 40 17 3b 8e 3f 01 3a ab 3f
       1.6170152 2.4917874 1.1111783 1.3377076
000010 47 ff b0 3f 5f 82 6e 3f b4 60 ec 3e 71 9f 2e 40
       1.3827904 0.9316768 0.4616753 2.7284815
000020 e9 8d 83 3f 9d da f7 3f 6a 5a 1e 3f 38 0c 1f c0
       1.0277683 1.936359 0.6185671 -2.4851208
000030 39 55 2c 3f b3 c5 ce 3f fd e0 53 bf ab 45 4b bf
       0.6731754 1.6154083 -0.8276518 -0.7940318
000040 0a 4c 18 40 22 f2 03 40 79 3c a5 bf 26 9c aa bf
       2.379641 2.0616536 -1.290908 -1.3328903
000050 03 6b ed 3f ec b6 32 40 a7 e7 1a 40 77 92 c7 3f
       1.8548282 2.7924147 2.420389 1.5591573
000060 60 51 06 40 ff e7 99 be c1 40 1e c0 3b de f3 3f
       2.0987167 -0.3005981 -2.4727023 1.9052194
000070 c0 b8 53 bf 02 a0 21 3f 70 8d 25 40 3a 45 f2 3f
       -0.8270378 0.6313478 2.5867577 1.8927376

feature_net.linear_layer_output.weight f4 [5, 32]
000000 71 84 bd 3f a5 f2 87 bf b8 79 c9 3f 95 61 d9 c0
       1.4806043 -1.0620924 1.5740271 -6.793162
000010 34 04 bc be 42 06 21 40 2b 47 22 40 bf 9b 92 40
       -0.36721957 2.516007 2.5355937 4.581512
000020 fe 4f 22 3d fa a8 a4 40 db 01 34 c0 a6 cc 5c 40
       0.039627068 5.145627 -2.8126132 3.4499907
000030 a8 e0 8a c0 77 58 ac c0 06 1c ce 3f 1d c2 80 bb
       -4.339924 -5.385799 1.6102302 -0.00392939
000040 11 79 96 3f 35 a2 91 40 71 9f a6 3f 76 72 79 be
       1.1755697 4.5510507 1.3017408 -0.2436007
000050 4b 49 0f 40 58 7c 04 3f 35 0c 8b bf 06 ba 2f 41
       2.2388484 0.51752234 -1.08631 10.982916
000060 97 19 a2 bf d6 bd c3 bf 5a 5b d7 bf 25 7d b1 bd
       -1.2664059 -1.5292308 -1.6824753 -0.086664476
000070 05 ad 45 3f 71 7a 47 bf 80 2c 0b 40 be 99 73 40
       0.7721713 -0.77921206 2.174591 3.8062587
000080 c4 f4 72 bf ad a9 de bf 6b 9e ea 3f a8 82 c2 3e
       -0.9490473 -1.7395531 1.8329595 0.37990308
000090 c8 cf ad bf 48 23 23 40 13 93 f6 c0 b5 d5 1f 3e
       -1.3579035 2.5490284 -7.7054534 0.15608867
0000a0 c7 5a 65 bf df bf 49 c0 4a b0 5f c0 a0 3c 35 bf
       -0.8959164 -3.152336 -3.4951348 -0.7079563
0000b0 ce 73 56 40 59 a7 25 3f aa 99 dc 3f e5 6b ef 3c
       3.3508182 0.6470848 1.7234395 0.029226253
0000c0 09 d7 ab bf 45 c0 2a bd 9a ce 59 3e b5 06 f1 be
       -1.3424999 -0.04168727 0.21270218 -0.4707543
0000d0 92 ff 19 c0 7f e3 1d 3e f0 9d 0f be 85 f2 aa 3e
       -2.4062238 0.15418814 -0.14025092 0.33388153
0000e0 37 2c b3 3f 6a 41 43 40 dc f3 aa 3e 7b 2e 9b 3f
       1.3997868 3.0508676 0.33389175 1.212356
0000f0 dc 2d 8c 3e a8 1b d6 3f 1d be 90 3f 00 3b d2 bf
       0.27378738 1.672719 1.1308018 -1.6424255
000100 d8 4f 32 40 c4 1f 97 3e 97 8c b6 be 47 30 51 bf
       2.7861233 0.29516423 -0.35654137 -0.8171429
000110 58 66 ee 3f cc 80 a6 bf d5 f1 cf 40 89 15 49 3f
       1.8624983 -1.3008056 6.4982705 0.78548485
000120 d4 da 57 40 b4 a1 d9 40 b3 18 28 3f c7 91 e6 be
       3.3727312 6.800989 0.6566269 -0.45033094
000130 9c 4b 46 c0 93 b3 15 3f 1e 82 75 bf 97 3c 57 bd
       -3.0983648 0.58477134 -0.9590167 -0.052548017
000140 7f b5 96 40 16 74 6f bf f0 32 a3 3f cf 99 8e bc
       4.7096553 -0.9353651 1.274992 -0.017407326
000150 56 c9 cf be 76 e8 0b c0 4f cd 19 3f e0 c3 f5 3f
       -0.40583295 -2.1860633 0.600789 1.9200401
000160 9f ae f6 bf cd 49 47 bf c9 c7 81 be f6 6a 7d be
       -1.927204 -0.77846986 -0.25347736 -0.24747834
000170 e3 1e 6a be f8 99 f5 bf c7 bb 0d bd 4a 74 be bf
       -0.22863345 -1.9187613 -0.034602907 -1.4879239
000180 79 8d de 40 b8 4d fa 3f 2e bd 43 40 26 24 00 3f
       6.9547696 1.9554968 3.0584216 0.5005516
000190 34 9f af 3f bb f1 15 bf de 91 fe 3f 7c 4f b4 c0
       1.372046 -0.58571976 1.9888265 -5.6347027
0001a0 d0 e6 f6 3f df 2b 18 c0 6d 32 a9 c0 f8 56 40 c0
       1.9289188 -2.3776777 -5.2874055 -3.0053082
0001b0 d2 d1 4a 3e d9 bf 43 c0 a4 40 18 c0 e3 a9 e3 be
       0.19806603 -3.0585845 -2.3789454 -0.4446555
0001c0 bc ff fc bd 9b 3a 80 c0 e3 ac b5 be f0 47 0c 3f
       -0.12353465 -4.007154 -0.35483465 0.5479727
0001d0 6d 6c c9 bf 83 d4 14 40 52 2f f9 40 f2 f2 d7 3f
       -1.5736214 2.3254707 7.7870264 1.6871016
0001e0 74 26 96 3f 16 84 9d 40 17 08 3a bf b2 4f c2 bf
       1.1730485 4.922374 -0.72668594 -1.5180571
0001f0 5d 9c 87 3e 31 96 6e c0 95 12 3b 40 0e cc e6 be
       0.26486483 -3.727917 2.9230092 -0.45077556
000200 f6 bf ac c0 3b 23 88 3f b8 a5 48 be 56 00 bc bf
       -5.3984327 1.0635751 -0.19594467 -1.4687603
000210 df e1 fc be c1 65 b6 bf 5e 6b 82 be b3 d8 b5 40
       -0.49391076 -1.4249803 -0.2547254 5.6827025
000220 7b 32 a0 c0 d3 4c 0d bf 4c 5d 4b 3f 4b f5 f3 bf
       -5.006162 -0.5519535 0.79439235 -1.9059232
000230 52 1c 3b 3e 50 05 31 40 7f b9 5a 40 c9 dc 1c 3e
       0.18272522 2.7659492 3.4175718 0.15318598
000240 ad ba 37 bf 43 36 d2 3f 47 96 f1 bd 36 9b 0f 40
       -0.7176922 1.6422809 -0.11796241 2.2438483
000250 d4 1f 85 c0 1e 23 8d bf e1 a1 15 c0 5f c5 3f 3f
       -4.1601353 -1.1026342 -2.3380053 0.7491054
000260 65 88 7c 3e 57 6a d8 c0 4b 45 22 bf 7d 50 a4 40
       0.24661405 -6.762981 -0.6338698 5.134825
000270 51 8b d4 be 23 1d 30 c0 9f 5f 3e c0 73 53 ed 3d
       -0.4151254 -2.7517784 -2.9745862 0.11588182

feature_net.linear_layer_output.bias f4 [5]
000000 f0 03 3b c0 59 ef 5b 3f f2 c9 39 3f 63 3a c4 be
       -2.9221153 0.8591209 0.7257377 -0.38325796
000010 08 76 c4 3f
       1.534852

feature_net.linear_layer_0.weight f4 [32, 3]
000000 2f f8 1f 3e e0 8f 6d be 2b 89 9a bd 2b 8f d9 be
       0.15622018 -0.23199415 -0.07545694 -0.4249204
000010 06 e6 3f 3d 2f ec 08 3e 04 c0 24 bf e1 73 61 3e
       0.046850227 0.13371347 -0.6435549 0.2201686
000020 91 de 29 3d 5b 87 c0 3e d4 9d 12 3e 4b 8e 49 3e
       0.04147202 0.37603268 0.14318019 0.19683187
000030 89 37 73 3e 3a 53 84 3e f3 ae 98 3e e7 61 c8 3e
       0.23751654 0.25844747 0.29820976 0.39137194
000040 fe 3b bd bd 24 e5 96 be 67 d8 07 3e d4 f4 69 3e
       -0.09239958 -0.29471695 0.13266145 0.22847301
000050 dd e6 79 3e 57 8a 1a bf 3b e0 92 be 6f 03 82 3e
       0.24404474 -0.6036734 -0.286867 0.25393245
000060 d7 44 17 bf 89 34 27 3e c8 fd 13 3e 4d 69 24 3e
       -0.59089416 0.16328634 0.14452279 0.16055794
000070 20 c1 d1 bd de b9 8d 3e 52 12 01 bf 4c 72 d6 3d
       -0.10241914 0.27680868 -0.5041858 0.10471019
000080 a8 21 1a 3e 2d ed b3 bd b0 8e e2 be 93 cc c5 3d
       0.15051901 -0.08785472 -0.44249487 0.0965816
000090 8e 21 b1 bb 20 dc d9 bd 85 de 7a 3e 04 a9 ec bd
       -0.0054056114 -0.10637689 0.24498947 -0.11555675
0000a0 a7 c9 97 be b4 01 1f 3e 8d 53 31 be c1 55 f2 bd
       -0.29646036 0.15527993 -0.17317028 -0.118327625
0000b0 9f 66 05 3e 87 02 0e bf c5 3b 39 be 0f 8a 83 3e
       0.13027428 -0.55472606 -0.18089207 0.25691268
0000c0 59 0f 62 3d 61 d8 bc be 8d 74 78 be e4 04 19 3f
       0.055190418 -0.36883834 -0.2426321 0.5977309
0000d0 1c f8 5a 3e 6c 2a 2f 3f 6d 5b 2b bb 30 61 1b be
       0.21383709 0.68424106 -0.0026147023 -0.15173793
0000e0 db 75 c5 bd 8a 81 88 3a e3 0d 8b bd 39 42 72 3e
       -0.0964162 0.0010414582 -0.06789758 0.23658074
0000f0 35 1d e9 3e ca 49 01 3e e7 ce 13 3f 11 42 e8 3e
       0.45530096 0.12625805 0.5773758 0.45362905
000100 d3 8d 04 3f b0 1b 98 3e 7c 8b 9d be 68 f1 20 3f
       0.51778907 0.29708624 -0.3077048 0.62868357
000110 86 0f 37 bf af a6 05 3e b2 93 36 3e a4 0b 9b 3e
       -0.7150806 0.13051866 0.17829779 0.3028232
000120 59 6a b0 bd 2a 26 85 bc 67 85 19 be bb dc 04 3e
       -0.08614034 -0.01625355 -0.14992295 0.12974827
000130 c8 0a 96 3e d8 37 ae bd 40 bb 9f 3d 49 b1 26 3e
       0.293051 -0.08506745 0.07799387 0.16278566
000140 0c 2d 94 3c 78 4f 1c 3d 75 60 7c be 7f db 0a 3d
       0.018087886 0.038161725 -0.2464617 0.033900734
000150 4d 8f 3f bd 46 40 8b be 60 63 91 3d c9 a4 7f be
       -0.04676752 -0.27197474 0.070990324 -0.24965204
000160 b6 85 3b 3e b1 d3 63 3d d6 33 45 bd c2 e5 73 3e
       0.18312725 0.055621807 -0.048145138 0.23818114
000170 b6 ff 48 bd 41 1e 35 be ae 65 7b 3d 77 9a 5c bd
       -0.04907199 -0.17687322 0.061376266 -0.053858247

feature_net.linear_layer_0.bias f4 [32]
000000 6b 7a 51 be 90 b8 27 bd 0e 8a c3 bd 2f f8 06 3f
       -0.20456855 -0.040947497 -0.09547816 0.5272245
000010 ba 9c 3e bd 2e ac 42 3e e3 5d 06 bd 12 62 c4 bd
       -0.046536185 0.19010994 -0.03280438 -0.09589018
000020 a1 55 be bd 3d 40 75 3d 00 56 1a 3d 59 8d 7f bd
       -0.09293676 0.059875716 0.037679672 -0.06239066
000030 10 4d 7b 3d 03 35 1e be e2 59 8f bd 9c a5 2e 3d
       0.06135279 -0.1544991 -0.06999566 0.042638406
000040 30 43 e0 bd 87 31 9b 3e bb 54 ca bd d9 81 2a be
       -0.10950315 0.30311224 -0.09879442 -0.16651095
000050 37 65 4f 3e 89 40 25 3f 6d e5 6d be 18 25 d5 3e
       0.20253454 0.645516 -0.2323205 0.41629863
000060 a4 42 6f bd 12 17 c4 bd af 20 13 bd 93 73 18 be
       -0.058413163 -0.09574713 -0.03591984 -0.14887838
000070 58 89 ef bd 74 6f 2d be 50 e9 e2 bd bc ba 6b bd
       -0.11696118 -0.16937047 -0.11079657 -0.05755113

feature_net.layer_norm_0.weight f4 [32]
000000 96 f6 49 3f f6 e7 4d 3f d3 4d 57 3f 9f 6d c8 3f
       0.78891885 0.8043207 0.84103125 1.5658454
000010 81 c6 73 3f eb 00 9f 3f 39 7c 79 3f f8 fb 6b 3f
       0.9522477 1.2422155 0.97455174 0.9218135
000020 68 f3 68 3f c5 7e 72 3f 8c 3e 68 3f 10 28 64 3f
       0.9099641 0.94724685 0.9072044 0.8912363
000030 e6 42 89 3f f4 66 64 3f 08 6b 60 3f 9e 7f 85 3f
       1.0723541 0.89219594 0.87663317 1.0429571
000040 a0 6f 69 3f f8 d5 a9 3f 29 4d 72 3f aa 28 4f 3f
       0.9118595 1.3268423 0.9464899 0.80921423
000050 0b b5 8e 3f 46 94 bd 3f d6 65 45 3f ac 43 97 3f
       1.1149 1.4810874 0.77108514 1.1817527
000060 d9 57 71 3f 1e f5 40 3f da 06 4b 3f d4 56 62 3f
       0.9427467 0.7537402 0.7930733 0.8841374
000070 bc 42 66 3f 63 5a 51 3f af 5e 51 3f 00 c5 6d 3f
       0.8994558 0.81778544 0.817851 0.92878723

feature_net.layer_norm_0.bias f4 [32]
000000 fd 43 6b be 6b bb 02 be e8 54 df bd a9 ff e7 3e
       -0.22975154 -0.12766807 -0.109048665 0.4531224
000010 7b 1b 06 bd 6f b3 9f 3d 21 f8 65 bb 79 52 a8 bd
       -0.03274105 0.07797896 -0.0035090523 -0.082188554
000020 33 fd cc bd f2 f8 7b bd 6a a7 fd bd 6d 78 e2 bd
       -0.100092314 -0.06151671 -0.12385447 -0.11058126
000030 92 86 c0 3d bf d9 03 be 0a a9 f7 bd bc 59 1e be
       0.09400667 -0.12876032 -0.120927885 -0.15463918
000040 fa 1f bf bd 52 d4 8b 3e a7 31 cf bd 8b 12 4e be
       -0.09332271 0.27310425 -0.10116892 -0.20124261
000050 2e 32 35 3e 44 1b db 3e 31 7c a3 be 6e bd 7c 3e
       0.17694923 0.4279424 -0.31930688 0.24681637
000060 c8 9a 97 bd 75 37 2e be 2f eb 04 be 36 7a ff bd
       -0.07402569 -0.17013343 -0.1298034 -0.12474482
000070 37 d3 c5 bd 4a 63 33 be 87 12 43 be 91 3d af bd
       -0.09659427 -0.17518345 -0.19050036 -0.08556665
